experiments/pedestrians/models/06_Aug_2023_21_23_08/model_registrar-94.pt (torch, 713991 bytes, 82 tensors)

weight f4 [64, 10]
00000000: c81f 74bc a6b9 a7bc 5056 023e 57af d23c
00000010: f447 36bf 93ad 5e3f 6a88 f73c 7724 6cbe
00000020: 853d 16be 8360 0a3e 8433 0c3d eb89 963e
00000030: 47a9 c13e b9a4 a23d 9df5 61be 3dc5 3abe
00000040: ea8b 97be 1a26 c2be 5e06 f7bd b462 a83d
00000050: 84f5 08bc f3ae d43d 4549 9bbc ad94 033f
00000060: 3836 e4bd 0f27 39bd 021d 86be 0dab c9bc
00000070: 76ca e63b 51ed 1abe 4da6 ab3b 063e cf3c
00000080: 395b 4cbd 7c94 66bd 9169 1fbf 8829 3f3f
00000090: ee48 8bbe 7499 57be b2cc 09bd 654d 81be
000000a0: 1f42 3b3d 8fa7 4abd 241e 313d 34be f83d
000000b0: 73e0 203f 2cc5 e13e 2d9b 8c3e 5b04 1f3e
000000c0: 09ea 82be c998 2a3e 0124 5e3b 8f52 633d
000000d0: e309 c13e 5412 26be 6bd0 9dbb 4316 de3e
000000e0: 645a 3a3e eb6c f6ba 5514 4abd 06a7 ad3d
000000f0: 16be 12bd c933 533e bf90 e73e 7859 afbb
00000100: 2f6e 033f 337d 03bf 20f7 87be ed57 873e
00000110: f9c4 9c3e 81af 653e 4b0e f3bc 8d28 18be
00000120: 18ea 573d a17f bfbe cf5d 3cbf 93e1 b0be
00000130: 9806 c63e e067 2f3c f574 0c3d 0ae0 c13c
00000140: 8592 1a3e dfa2 8e3d 8378 dabe baeb c43c
00000150: 5e82 3abf b63c 35be c15e 1bbe cddf 33be
00000160: 0551 683e cfb5 c93d 2321 2ebd 4bce de3d
00000170: eb26 043f ef30 a33e 0a5e 853d a85e cb3e
00000180: 864a 133e 8065 74be f81f 963e 68ae 873e
00000190: 5c45 3ebe b66a 093e 5220 993e 13e8 5a3e
000001a0: 716b 93be 9533 53ba 6237 f4bd 6809 0a3e
000001b0: 10dc 6f3e d563 81be f68f 2b3c 35b2 47bd
000001c0: 31f3 0e3f b841 133d bbe8 4cbf e315 64bf
000001d0: 2b02 123e 674f e73e fafe 9bbd 5e91 83bc
000001e0: f570 01be 9089 083e 5eae b83e 8200 033e
000001f0: a413 2b3e 0e10 6e3e 15aa 543e 753c 9abd
00000200: 42f6 393d c59a 34be efda e6bb 2375 183e
00000210: c096 81bc 9fdc 24bf d913 7abd 47f0 3c3c
00000220: 844b 6bbd ff6f a5be bbf7 44be 9f64 b4be
00000230: 8237 ee3c d565 2dbe dbcb a7be 8c8f bb3e
00000240: 9292 45be da6f 50bc 6c66 b03e 3277 f43d
00000250: fc80 ae3d 14b7 e73e 8f6b a33c f5df 033d
00000260: 797d 193d 42f4 bfbe 6d3a cc3e 8848 4fbf
00000270: 5109 66be ef5d 2f3e fdbd 54be 7355 df3d
00000280: 536b 39be 361d 843e 91ae 95bc 5bb4 753d
00000290: 5ee7 60bf e370 03be a6ce ac3c 7104 463e
000002a0: 610c 60bd bbd5 b43e 5152 943e 472f c33e
000002b0: 19f1 313e 7cbe c03e 8e56 41be 4762 393f
000002c0: 7834 103c dc35 6c3c d09c 6bbd 7f1b e53d
000002d0: ab39 b03c c7f3 0e3e b2c9 283f c246 6dbe
000002e0: 0e6b f9bd d9f2 313e f41e 843e 3a28 093c
000002f0: e755 373e e6b9 913e d033 8f3e e268 563e
00000300: dd8f e4be 0452 07be 3214 13bf a95f 3cbe
00000310: 6c8a 873d 321b f33d 8ed3 7ebe a2fa 5a3e
00000320: 70f1 093b fdba 493d d7f7 82be 0441 963e
00000330: 8557 b13e 9dbc 15bf a582 1fbd 77db 34be
00000340: f315 453e fe8e 08be 91d9 79be 2f0b 51bd
00000350: ba98 93bc 5c2d 833d a39e 153f a79b 753f
00000360: f6e3 bb3e 5f6f 323e 0f5b 563e 34c6 71bc
00000370: a17b 02bc 8320 913e 9b1c 8ebe 4ab0 813d
00000380: 78cb f23e a1a8 d33e bb95 723e efaa 853e
00000390: be1a d23d e798 1bbe bc42 ffbb 4526 59be
000003a0: 930c 09be f4d4 0e3f 8078 bbbd 8774 06bf
000003b0: 6403 15be 7617 4e3d 18a8 17be 384b e33d
000003c0: 9fb6 e73d 7e38 87be 0090 2a3e 3ae0 63be
000003d0: ed2f b53e a976 dc3e f450 dcbc 96ba c2be
000003e0: 51e9 f3bd 5683 b6be d75e 0dbe 8e3c fdbd
000003f0: 399b 523e c23a f03e 2454 66be 4f23 f3be
-0.014900155 -0.020474266 0.12728238 0.025718374 -0.7120354 0.86983603 0.030216414 -0.23060785
-0.14671905 0.13513379 0.034228817 0.29402098 0.3782446 0.079415746 -0.2206635 -0.18239303
-0.29598933 -0.37919694 -0.12061761 0.08221951 -0.008359317 0.103849314 -0.018955836 0.51398736
-0.11143154 -0.045203265 -0.26194006 -0.024617696 0.007043178 -0.15129592 0.0052383305 0.02529813
-0.049891684 -0.05629395 -0.62270457 0.74672747 -0.27204078 -0.21054631 -0.03364248 -0.2525436
0.045717355 -0.049476203 0.043241635 0.12145653 0.6284248 0.44095743 0.2746214 0.15529005
-0.2556918 0.16659845 0.0033895972 0.055498656 0.37702855 -0.16217929 -0.004816105 0.4337636
0.18198544 -0.0018800771 -0.049335796 0.08479123 -0.03582581 0.20625223 0.4522762 -0.0053512417
0.5134 -0.51362914 -0.2655573 0.2643427 0.30619028 0.2243023 -0.029669901 -0.14859219
0.052713484 -0.3740206 -0.7358064 -0.345471 0.38676906 0.010705918 0.034291226 0.0236664
0.15094955 0.06964659 -0.42670068 0.024038184 -0.72855175 -0.1769894 -0.15172864 -0.17565842
0.22687156 0.0984913 -0.04251207 0.10879191 0.51621884 0.3187327 0.06512077 0.39720654
0.14383897 -0.23866844 0.29321265 0.2650025 -0.18581146 0.13419613 0.2990747 0.21377592
-0.2879291 -0.00080566976 -0.11924626 0.1348015 0.23423791 -0.25271478 0.010471335 -0.048753936
0.5583983 0.035951346 -0.8004262 -0.89095896 0.1425864 0.45177767 -0.07616992 -0.016060527
-0.12640746 0.13333726 0.36070532 0.12793162 0.16706711 0.23248312 0.20768006 -0.075310625
0.045400865 -0.17637165 -0.007045142 0.14888434 -0.015818954 -0.6439914 -0.061054084 0.011531896
-0.057445064 -0.3231201 -0.19235127 -0.35233018 0.029079203 -0.16933377 -0.32772717 0.36632955
-0.19294193 -0.01272198 0.34453142 0.11936797 0.085206956 0.45256865 0.019948749 0.032196004
0.037473176 -0.3749104 0.39888325 -0.8097005 -0.22464491 0.17125677 -0.207756 0.1090497
-0.18107347 0.25803536 -0.018271716 0.059986454 -0.8785304 -0.12836032 0.021094631 0.19337632
-0.054699305 0.35319313 0.28969052 0.38122007 0.17377128 0.37645328 -0.18880674 0.72415584
0.008801572 0.014417138 -0.057522595 0.11186885 0.021511873 0.13960181 0.6593276 -0.23171523
-0.12178622 0.17377795 0.25804865 0.008371407 0.17903863 0.28462142 0.27969217 0.20938447
-0.4464101 -0.1321488 -0.5745269 -0.18395866 0.06618199 0.118704215 -0.24885389 0.21384671
0.002104845 0.04925059 -0.25579712 0.29346478 0.34637085 -0.58490926 -0.03894295 -0.17661844
0.19246654 -0.13335797 -0.24399401 -0.051036056 -0.018017162 0.06405136 0.58445185 0.9594063
0.36697358 0.17425297 0.20933174 -0.014756728 -0.007964046 0.28345117 -0.277562 0.063324526
0.4742086 0.4133959 0.2368993 0.26106974 0.10259007 -0.15195046 -0.007789938 -0.21206005
-0.13383703 0.5579369 -0.09153843 -0.52521557 -0.14552075 0.050315343 -0.14810216 0.11098331
0.11314129 -0.26410288 0.16656494 -0.22253504 0.35388127 0.4305928 -0.02689407 -0.3803298
-0.11909736 -0.35647076 -0.1380571 -0.123650655 0.20567025 0.4691983 -0.22493035 -0.47487876

bias f4 [64]
00000000: e4c9 4bbe 247d e4bd b868 75be 33e7 903e
00000010: c14a 0e3e c98a 973e e888 8fbe 2f6f 8a3a
00000020: 667d 993d 902d 6c3e 03ed b6bc d5ea f93e
00000030: 3954 f0bd 876a d73c 7b00 07bc 5c74 49bd
00000040: 05c8 0cbe 576d 70be 52a5 713e cde0 e03d
00000050: 7646 e7bd aa33 2f3e 54d7 373e 6a55 17be
00000060: 651b 3abe b74d c63d d0a3 fe3c 8071 18be
00000070: 8d01 9bbe 3705 393d 38df 173e 47d2 91be
00000080: c352 2abe 0c1b d73d 95c5 95be 6244 753e
00000090: 609e 713e 8eff d9bd 0264 20be cdf4 dc3d
000000a0: 60a0 1bbe 850e 953e 3400 e93c 1ebb d6bd
000000b0: 9ce4 3dbe a178 e93d 0b2d 1ebe a464 98be
000000c0: e934 0b3e 28ea 06be f067 44bc 3a26 813e
000000d0: 93c2 c0be 2ea6 b5be 46e1 eebe 0fa1 f73d
000000e0: 4935 1e3d 6ab6 903e 231c 673e 9ffb c03e
000000f0: a1c4 abbe d46e f53d 4c5b b73e e119 0bbe
-0.19901234 -0.11156681 -0.23965728 0.2830139 0.13895704 0.29598072 -0.2803414 0.00105617
0.07494621 0.23064256 -0.022329813 0.48811975 -0.11734814 0.026295913 -0.008239861 -0.049183235
-0.13748176 -0.2347921 0.23598221 0.10980377 -0.11292736 0.17109552 0.17953235 -0.14778677
-0.18174513 0.09682792 0.031083971 -0.14887047 -0.3027462 0.04517099 0.14831245 -0.2848074
-0.16633134 0.10503206 -0.29252306 0.23951867 0.23595572 -0.10644446 -0.1566315 0.107888795
-0.15197897 0.2911264 0.02844248 -0.104849085 -0.18544239 0.11399961 -0.1544687 -0.29764283
0.13594402 -0.13175261 -0.011987671 0.25224477 -0.37648448 -0.35478348 -0.46656245 0.12091266
0.038625035 0.2826417 0.22569327 0.37691972 -0.33548453 0.119840294 0.3581184 -0.13584091

weight f4 [32, 32]
00000000: 1eb8 b5bd 5dc8 40be 5f1f 5a3e 4d7c cf3c
00000010: e03e 1bbe dc43 733c 1239 6dbd 4cb8 c33d
00000020: 0318 27be eb7b 0bbf 07c9 e63d 0e3c 823d
00000030: e67a 1cbd 075b 4f3e b50f 49be 4672 9b3e
00000040: 8b10 1f3c ef5d 823e d8e4 3d3e 5bfd b53e
00000050: 8779 97be 10fa 453e 7986 593c 0263 08bf
00000060: fa79 2fbd 01d0 0b3e e841 343e 5f36 0c3e
00000070: 8387 223e e1ae f53d 06e9 82bd 61b3 a93e
00000080: 05ef 2e3e a51f 5cbd 470a 18bf d294 ca3d
00000090: 41c1 60be d2c7 7f3d c96e 403e e2b1 96bd
000000a0: e33f b6be 9356 b4be de45 8cbe 597b 9dbe
000000b0: 3924 ad3e a943 0ebd 39c6 28bd 10b4 d1bd
000000c0: b8d3 c03c 7189 5a3e bad7 793e f798 f23e
000000d0: 17f8 2e3e da1c f2bd 96d9 68bd 1914 973d
000000e0: 6121 d93d 909a b0bc 25b1 213e 398a 1b3e
000000f0: 0393 4fbe aada abbe a487 643e c7f9 f4bd
00000100: f807 953e 5ef1 61be b145 3d3e 9bdc 24bf
00000110: 15bd 82be a874 263d cb5d 63be 9637 5ebe
00000120: f7ff 4fbe 872d 743e ac60 223e 3778 bcbd
00000130: 7382 d7be 9cba c63e d859 cdbe b125 a83c
00000140: 97e0 263d 2673 c43e 5056 c13e 6e7d 00bf
00000150: d9c7 9abd fbb5 9e3d 79e9 f8bd 0b44 c1be
00000160: 2ff3 ccbd 3602 b4bd 13fa b13c 48f2 e5bd
00000170: b2b2 5a3e fc70 6fbe 1020 8cbe 32dc 2bbd
00000180: 6a37 ad3e 5266 4ebe 5418 4f3e 4f7f 4a3e
00000190: 9fd2 09be 4d9c 483e 4c3f c63e f114 7ebe
000001a0: 8bb7 5abe 47d2 a13e 593d 0e3e 7bc3 1dbe
000001b0: badd aa3e 14ea 48be e994 1dbd 9a01 15bc
000001c0: 7d99 8abe d54f 243d 85a9 29be 1fe6 963e
000001d0: e551 6ebd 6dfd 183d f4ab 1f3e c2f6 633d
000001e0: 71d6 97bd 3d2d 6bbb f0b1 c43d c2bd be3e
000001f0: 8890 ddbd c3c1 69ba f131 793e 16ee 7b3d
00000200: 792b 9bbe 4733 61bd 8b54 693e 3d8b 1abe
00000210: ae8a 413e 30ce b8bd 9f9e aa3d fe70 8e3e
00000220: 9900 9b3d f3a9 91be 3311 bd3d c4fd 453e
00000230: f032 eabd f3fe be3d d625 1b3d da18 8c3d
00000240: 8f84 babd b1de 883c be04 7e3d f840 933e
00000250: ea3f 423e 2c8f b8be 27b4 1b3e 3125 2e3e
00000260: e792 193e 05ad d63e 8592 5ebc dc9c 82be
00000270: 52d7 af3d 4cdf c03e fc1e 983c bdca 2bbe
00000280: b1d0 013f 11e7 50bd 0d2d 903c e74a 09bf
00000290: 33eb 97bc e081 763e b464 dfbc 9388 06be
000002a0: 1e1d f0bc b050 253e c1cd cd3d aed5 e63d
000002b0: 5a0b 10be 385b 293e fa71 79be 0989 fcbd
000002c0: 0f9b cebd 9830 0ebe 6e9f fa3d afbb c2be
000002d0: 966f 0ebe 0fa4 db3d 913a 55be 4227 4bbc
000002e0: 00f6 78be 4b3e bd3e 49f3 953c 3618 293d
000002f0: 9c66 c6bd 0eb9 8dbe 1e2b 73bd 5a79 3f3d
00000300: 4db4 2ebe 9277 1bbb b1f8 053e 3af6 393d
00000310: 5f55 ae3c 45b8 febd dbbf 043f 2516 933e
00000320: d662 ee3d 626d 313e 9095 6f3d 7840 b83e
00000330: 66c9 56be 4582 3ebe 7ff1 6d3e 50e8 2bbe
00000340: f0d0 b6bd 103c 97be a4fe 88be c31f 763d
00000350: f638 493d ae88 babe d83b bb3e b32d ea3e
00000360: 7928 243e fe4c 5c3e 3a01 433d cedf 00be
00000370: 4dcb ddbd 420e 2dbc 6c62 a83d 6548 cdbd
00000380: 1c20 883e a02b a1bc dfe0 403e 9b65 86be
00000390: 94aa ba3d 522f 743e ee6c 993e cb36 383e
000003a0: 7d33 00be a750 043c bb61 d8bd d0df 433e
000003b0: 5e00 933e 52c3 ea3d 31aa 2abc 39f2 913e
000003c0: 08f4 9f3d a3fb 0c3e 2eb6 ec3c 5d99 f93e
000003d0: cc7f 2b3e 0bed 9d3d 9e81 d53d 968f 8ebd
000003e0: 48cd 313e 3ea4 be3d 2289 b73d e57b 5c3e
000003f0: 3b21 233d d40a 7abd 3012 2c3e dfdc c3bd
-0.08873008 -0.18826433 0.2130103 0.025327826 -0.15160704 0.014847722 -0.057915755 0.09556636
-0.16317753 -0.5448596 0.11268812 0.06359111 -0.038203143 0.20249568 -0.19634898 0.3036062
0.009708534 0.2546229 0.18544328 0.35544857 -0.29584906 0.19333673 0.01327669 -0.53276074
-0.042840935 0.13653566 0.17603266 0.13692616 0.15872006 0.11996246 -0.06392102 0.33144668
0.17083366 -0.053741116 -0.5939068 0.098916665 -0.2194872 0.062446423 0.18792261 -0.07358147
-0.35595617 -0.352223 -0.27397054 -0.3075817 0.33816698 -0.034732495 -0.041204665 -0.10239422
0.023538455 0.21341492 0.243987 0.47382328 0.17086826 -0.11821909 -0.05684813 0.0737688
0.1060207 -0.021558076 0.15790232 0.15189447 -0.20270924 -0.33565265 0.22317368 -0.11961704
0.29107642 -0.2206473 0.18483616 -0.6439912 -0.25534883 0.040638596 -0.22203748 -0.21700892
-0.20312487 0.23845492 0.1585719 -0.09202617 -0.42091712 0.38814247 -0.40107608 0.020525785
0.04074153 0.383691 0.37761164 -0.5019139 -0.07557649 0.07749554 -0.121539064 -0.37747225
-0.10007321 -0.08789484 0.02172569 -0.11227852 0.2135723 -0.23382944 -0.27368212 -0.04195804
0.3383134 -0.2015622 0.20224124 0.19775127 -0.13459252 0.19590874 0.38720167 -0.24812676
-0.21359079 0.3160574 0.1389059 -0.15406601 0.3337229 -0.19620544 -0.03847209 -0.00909462
-0.27070227 0.040115196 -0.16568573 0.29472443 -0.05818357 0.03735106 0.15592939 0.05565525
-0.07413948 -0.0035885118 0.096042514 0.3725415 -0.10818583 -0.00089171174 0.24335457 0.061506353
-0.30306605 -0.054980543 0.22786157 -0.15092178 0.18900558 -0.09023702 0.08331036 0.2782058
0.07568473 -0.28449973 0.09231796 0.19335085 -0.11435497 0.093259715 0.03787788 0.068406776
-0.09107315 0.01670775 0.06201624 0.28760505 0.18969694 -0.3604673 0.15205441 0.17006375
0.14997445 0.41928878 -0.013584738 -0.255103 0.08585991 0.37670362 0.018569462 -0.16776557
0.5070906 -0.051001612 0.017599607 -0.53629917 -0.018544769 0.24072981 -0.027269699 -0.13138036
-0.02931076 0.16144061 0.1004901 0.11271225 -0.1406683 0.16538703 -0.24359885 -0.12330825
-0.10088169 -0.13885725 0.1223744 -0.38033816 -0.13909754 0.10724651 -0.20823123 -0.0123994965
-0.24312592 0.36961588 0.018304484 0.041282855 -0.0968754 -0.27680248 -0.05936729 0.04674659
-0.17060967 -0.0023722393 0.1308315 0.045400836 0.021280942 -0.124374904 0.5185525 0.28727832
0.11639945 0.17326882 0.058492243 0.35986686 -0.20975265 -0.18604381 0.23236655 -0.16787839
-0.089265704 -0.29538012 -0.26756775 0.060088884 0.049126588 -0.36432403 0.36569095 0.4573799
0.16031064 0.21513745 0.04760859 -0.12585375 -0.10829792 -0.010562481 0.082218975 -0.10023574
0.26586998 -0.019674122 0.18835782 -0.26249394 0.091145664 0.23846176 0.2996592 0.17989652
-0.12519641 0.00807587 -0.105655156 0.19128346 0.28711218 0.11463036 -0.010416553 0.28505114
0.07810217 0.13767867 0.028895464 0.4874982 0.1674797 0.07711228 0.10425113 -0.069609806
0.17363465 0.093086705 0.08961703 0.21531637 0.039826613 -0.061045483 0.16803813 -0.09563612

bias f4 [32]
00000000: cc0e 2fbe c9d0 a6bd dd95 623e 542d acbd
00000010: 8bd5 61be cac5 ed3d 368d 853d 4fca 1e3e
00000020: 08ae be3d f6c2 cabc cac0 fd3d 2a5f 243e
00000030: 8027 e8bd 63b6 84bb 7b2b 15bd 24fc 3c3e
00000040: a36e 40be 2ec2 ad3d 7a91 383d c336 30bd
00000050: c74d 1b3e 0bf1 ddbd 00ba aebd 9121 c43d
00000060: cf6f bbbd d889 8f3d ab43 3bbe 4d14 86be
00000070: d780 58be c753 3dbe 208e acbc 3ff7 8abc
-0.17095488 -0.08145291 0.22127481 -0.08407083 -0.22054116 0.11609991 0.065210745 0.15506862
0.093105376 -0.024751168 0.12390287 0.16051927 -0.11335659 -0.0040500625 -0.03641842 0.18455559
-0.18792205 0.084843025 0.045060612 -0.043020975 0.15166388 -0.10836991 -0.085315704 0.09576715
-0.09152185 0.070087135 -0.18287532 -0.26187363 -0.21142898 -0.1848899 -0.021063864 -0.0169636

weight f4 [32, 64]
00000000: 08c8 50bd a0ad 873b 084a 7ebd 0815 413d
00000010: 4820 dabd c4a8 bb3d 3412 babd de87 cbbd
00000020: 5ac3 a1bd a8e1 673d 142e 3dbd e498 3f3d
00000030: 5446 d9bd 3e52 9bbd 80fe 3bbd 783c c9bc
00000040: 044b c3bd 5ea0 a73d b87d f1bc 8058 243d
00000050: 5c07 b53d 00c7 be3c bc01 0c3d 321b f73d
00000060: b4ea 66bd 382d 223d 0ccc 63bd 48f3 b63d
00000070: c074 cc3d 6006 ecbd 8888 da3d c47c 743d
00000080: dc1c 5f3d 0cc7 523d 04d0 d43d 6035 87bc
00000090: b27f d8bd f8ea 12bd 584b b4bd f062 073c
000000a0: 4030 bfbc 8650 89bd 0035 3abc 0e89 f23d
000000b0: 7089 21bc 600c 823b 20b4 9fbc e0fa a03c
000000c0: 6819 e43d cc8a 9c3d 84bd 353d a886 de3c
000000d0: b073 f13c 78cd 453d 2853 84bc bced edbd
000000e0: 3e50 9ebd 9884 da3d 00d5 f43b fa60 cfbd
000000f0: 5083 a13c 8a86 d33d 80eb f1bd 6a59 acbd
00000100: 78e9 4bbd 4067 a43b b0d3 eebc a00e 61bc
00000110: 6692 f9bd 48c2 6f3d c8b3 e03d 1e7a 9c3d
00000120: 2a48 b5bd ca5c cebd f49b 543d 00fb 373b
00000130: 78e2 513d 9826 fabd 4037 f4bb da8a b43d
00000140: cc85 6d3d 4093 953b 8056 c93c a0e7 41bc
00000150: e4c1 8cbd 047c 41bd 18e6 9bbd cea2 d43d
00000160: 96df 8c3d d80e 333d 7250 c4bd 0289 c53d
00000170: ac88 203d 7419 b13d 6c6a 49bd b815 d93c
00000180: 32f4 f93d 6433 ac3d a84f cd3d 4006 d7bc
00000190: 620a c33d e881 c8bd 2021 313c 5e24 90bd
000001a0: f8cf eebc 341f 03bd c03a 193c eafe e83d
000001b0: a47b 7d3d 00d0 0aba 70b8 b53d 4a30 83bd
000001c0: 62ef 833d a0ea 3dbc e82f b2bc 30c4 6f3c
000001d0: ea1e c4bd 50a9 6c3c 6427 2c3d cedc da3d
000001e0: 5c68 1fbd 8855 383d 06e0 ff3d d4a1 5bbd
000001f0: 065a f33d 3434 7ebd e0af 613d 7893 483d
00000200: 1804 0f3d 1272 ca3d a4ee 4ebd 3890 063d
00000210: 00e6 373a 5a8c c0bd 38a4 f8bc 74f6 aabd
00000220: 3062 623d 601b 383c b0a1 483c 6853 1bbd
00000230: 0091 1d3a 0c41 1fbd b81d 133d 949e f83d
00000240: 181b 9b3c 30c6 62bd 3a5f 9cbd 108c 1c3c
00000250: a2e9 bdbd 266c c0bd e09f a6bd ece5 2dbd
00000260: 8096 173c da48 b03d 5851 463d 5c20 c43d
00000270: e2bd a0bd b0d3 2c3c b08d e3bd 32db 923d
00000280: 6869 d53c 629b f73d 0012 b6bd 464b cd3d
00000290: 3a1f d83d 02fb ce3d 981e 923c 88c6 e83d
000002a0: 3cf7 aa3d 0eff be3d 300a 05bc 3474 c4bd
000002b0: 00e2 cbba 080a c03c 1861 aebd 04da 92bd
000002c0: 6870 f5bd f47a 33bd 58fe de3d 9819 af3c
000002d0: 202f fabb c07c a43b b0a0 9f3d 7410 e2bd
000002e0: e686 c5bd 9039 2abd 2855 93bd 7e0a 843d
000002f0: a8e2 b43d b860 f8bd 1243 d9bd 204c f9bd
00000300: 8027 413d f20a ce3d b07c c6bd a008 6dbd
00000310: d0ed 223d 0c2a a7bd 7e77 d93d d0c1 ee3c
00000320: 4c88 0ebd d004 053c 20a0 1f3d c80c 35bd
00000330: f45c c6bd 0041 5c3a 8037 153b 8031 253b
00000340: c06e 95bc ee5e a43d d8e0 0ebd 403b 46bc
00000350: 3087 523d ce22 a1bd a817 093d 286c e2bc
00000360: c497 753d f2de 8abd a061 973b c05a 483c
00000370: 0afa cdbd fe25 babd dc5b 443d 5c05 15bd
00000380: 9c09 983d 90e4 fcbd a418 7dbd 82db d2bd
00000390: 8487 4c3d 407f 6dbb 78ff bebc 405d aabc
000003a0: 241a c8bd 5c33 113d 4031 4c3b 3eab b0bd
000003b0: c8a8 403d c0a6 24bb fc96 f7bd 24b5 893d
000003c0: 5cee 883d 98ee c0bc 8ec0 b0bd 6074 a43b
000003d0: 242c c13d b653 ea3d a43a c1bd 2841 67bd
000003e0: ee53 c73d 2441 7a3d a277 9e3d 08d7 7ebd
000003f0: 868d dc3d ea72 d2bd c04c c5bb 0017 2a3b
-0.050972015 0.0041405708 -0.06208232 0.047139198 -0.106506884 0.09163049 -0.09085503 -0.09938024
-0.078985885 0.056611687 -0.04618652 0.046776667 -0.10609117 -0.07584046 -0.045897007 -0.024564967
-0.095357925 0.081848845 -0.029478893 0.040123463 0.08839294 0.02328825 0.03418134 0.12065734
-0.056376174 0.039593905 -0.055614516 0.08933121 0.09983206 -0.115246534 0.106705725 0.0596893
0.05447088 0.051459357 0.10391238 -0.016504943 -0.10571231 -0.035868615 -0.08803433 0.008263335
-0.023338437 -0.06704812 -0.011365175 0.11842547 -0.009859428 0.0039687604 -0.01949507 0.019650877
0.11137658 0.07643661 0.04437019 0.027163818 0.02947411 0.048291653 -0.016152933 -0.1161761
-0.07730149 0.106698215 0.0074716806 -0.10125919 0.019715935 0.10328396 -0.11812496 -0.08415492
-0.0497832 0.005017191 -0.029153675 -0.013736397 -0.121861264 0.05853489 0.109717906 0.076404795
-0.08851655 -0.10076292 0.05190654 0.0028073192 0.051241368 -0.122143924 -0.0074528754 0.08815546
0.057988927 0.0045646727 0.02457738 -0.011835009 -0.06872919 -0.04723741 -0.07612246 0.10382615
0.06878583 0.043715328 -0.09585656 0.09645273 0.03919284 0.08647433 -0.049173757 0.026499614
0.1220478 0.084082395 0.10024959 -0.026248097 0.09523465 -0.09790403 0.01081112 -0.070381865
-0.029151902 -0.03201218 0.009352386 0.11376746 0.06188549 -0.00052952766 0.08873069 -0.06405695
0.06442143 -0.0115915835 -0.02175136 0.014634177 -0.09576209 0.014444664 0.042029753 0.106866464
-0.038917884 0.045003444 0.12493901 -0.05362113 0.11882405 -0.062061504 0.055099368 0.048968762
0.034916013 0.098850384 -0.050520554 0.03285238 0.00070151687 -0.0940177 -0.030351743 -0.083477885
0.05526942 0.011236995 0.012245581 -0.03792134 0.00060106814 -0.038880393 0.035917014 0.121396214
0.018933818 -0.055364788 -0.076353505 0.009554878 -0.092730775 -0.09395628 -0.081359625 -0.0424556
0.009252191 0.08607645 0.04841742 0.095764846 -0.07848717 0.010548517 -0.11111009 0.071707144
0.026051238 0.12090184 -0.08890152 0.10024123 0.10552831 0.1010647 0.017836854 0.11365992
0.083479375 0.093259916 -0.008120105 -0.095924765 -0.0015555024 0.023442283 -0.08514613 -0.071704894
-0.119843304 -0.04381843 0.10888356 0.021374509 -0.0076350123 0.005019754 0.077943206 -0.110382944
-0.096448705 -0.041558802 -0.07193977 0.06447314 0.08832294 -0.12127823 -0.10608496 -0.12172723
0.04715681 0.100606814 -0.09691751 -0.057869554 0.039777577 -0.08162317 0.106184945 0.029145151
-0.03479795 0.008118823 0.038971066 -0.044201642 -0.09685698 0.000840202 0.0022768676 0.0025206506
-0.018241286 0.08025919 -0.034882396 -0.012099087 0.051398456 -0.078679666 0.033469826 -0.027639464
0.059959188 -0.06780805 0.004619792 0.012228668 -0.10057457 -0.09089278 0.047939166 -0.036382064
0.07423708 -0.12348282 -0.061791077 -0.10295774 0.049933925 -0.0036239177 -0.023315176 -0.020796418
-0.09770611 0.03544937 0.0031157285 -0.08626412 0.047035962 -0.0025123805 -0.12089345 0.06724003
0.066860884 -0.02355127 -0.08630477 0.005018756 0.09432247 0.11441748 -0.09435013 -0.056458622
0.09732805 0.06109728 0.07737662 -0.06221679 0.10769181 -0.10275824 -0.006021112 0.002595365

bias f4 [32]
00000000: e0a0 c43b fa90 f5bd 2842 823c 5c20 343d
00000010: f61a e53d 3cf4 25bd 5cac 383d 4091 2bbd
00000020: b40b 34bd e8d6 e2bd a823 d83c c2c6 ab3d
00000030: 7269 8ebd e452 513d f8ba 9fbc a4c1 b5bd
00000040: 4060 5a3c e278 f9bd 9e3b 893d 9841 e2bc
00000050: 34c5 eb3d 2035 973b 8a30 f8bd d2a8 c63d
00000060: 10fb dfbc e65a afbd bc5c ec3d 6047 3f3c
00000070: 34ff 253d 5276 ddbd 78d2 34bd e666 cd3d
0.006000623 -0.11990543 0.015900686 0.043976173 0.11186783 -0.040516123 0.04508625 -0.041886568
-0.043956473 -0.11076146 0.02638419 0.083875194 -0.06953706 0.05110444 -0.019498333 -0.08874825
0.013328612 -0.1218126 0.06700824 -0.027619168 0.11512223 0.0046144873 -0.12118633 0.09700169
-0.027341396 -0.085622594 0.11541125 0.011674732 0.040526584 -0.108135834 -0.04414603 0.10029392

weight_ih_l0 f4 [128, 32]
00000000: 4ff6 b3bc 411a f73d cef6 febd 4212 183d
00000010: 75b2 3bbe 9ca4 213e d7a8 2ebe 1ee7 c7be
00000020: d24c 24be 67af 9e3e ca66 59be 5e2f 05be
00000030: 327f 6f3d 820f dfbd 3fee 053e 531e 4f3e
00000040: bb95 ca3d e00e 213e e20d 8ebe 3692 823d
00000050: bffe 91be bb8c 81bd afac 83be f5ed a8be
00000060: 3352 18be c374 7ebe 779e 4fbc e290 20bc
00000070: c3f6 9c3d 400f 1bbe ba75 8e3e 804d c5be
00000080: abc5 61bc 5823 ffbd dd07 8abe d93e 16be
00000090: c58c 983d 23be 3a3d 64b3 b83d d232 6ebe
000000a0: 15c1 d3bd 9b97 993e c7c5 133e ee06 37bb
000000b0: 689e ae3e b418 263d b5b1 8bbd df67 7fbe
000000c0: 22a5 713a 04f3 623d 0f94 d4bd 7aa6 213e
000000d0: 8894 98be b11a 59bd 1bdb e3bc 2628 cabe
000000e0: c1a2 c13d e7a1 6c3d f522 333e 4701 22bc
000000f0: ff39 99bd 3800 0a3d ede4 433e b6b9 11be
00000100: 024e 2c3e 600c 993e 9caf cd3d fb08 f8bd
00000110: 1f91 ad3d b58f 8fbe f2a1 3e3d f4d4 a2be
00000120: 1988 3e3b 448c 853e d588 593e 07cd 96be
00000130: 9855 fbbd 35d9 eebd 6329 0a3d b9b3 1dbe
00000140: 0b68 df3e f4ca ee3e 50c9 c33b cc56 143e
00000150: a150 bbbc 3e3a 113e 70b9 9bbe 91c8 1abf
00000160: 35f2 a3bd cbc2 d1be 70f3 113e ba90 903e
00000170: a005 173e 1cbf 34be 1b75 003b b638 9c3b
00000180: c1c1 293d bf16 2d3d 72a9 16be 7fc0 08bf
00000190: 6b07 4dbe 6778 adbd d654 7f3d 86ab 27bf
000001a0: 563d 513d f513 913e 02f4 dcbd 568d 543e
000001b0: 9c6f ca3e 4a0f 23be 2582 163e fb00 ac3e
000001c0: 421c 9b3d 35f4 823e 6607 60be 5da0 77be
000001d0: 353b c53c f72d 84be d9fc 34be 881f 18bf
000001e0: c831 10be 77f9 a6be 749c 17bd 492d ca3d
000001f0: 7a0a 31bc cb3d cb3d 60ac 513d 602c 1dbd
00000200: 67ae 06be c660 943c d163 d53d 176c dabe
00000210: 9ae5 94be 5e45 97bd 5f6b c7bd 07c0 e6be
00000220: feca 23bd 4f4a 4f3e e626 9a3d cdb4 543e
00000230: 3e59 d83e 6399 4dbe c456 f3bc 6f10 1a3e
00000240: 07db 9c3d 5160 1f3f 17d6 96be 462f a2be
00000250: 6000 3bbd d495 bbbe a187 43be 972c 16bf
00000260: 8d07 87be c1a6 a1be fa79 b73d c659 783e
00000270: 05e6 623e a275 03be 517e 3bbe 0060 bcbd
00000280: 8de3 55be 1cbe 4f3c 8806 62be 3fdf 15be
00000290: 551a 8abe 4b28 243e 6870 56be 2960 8cbe
000002a0: c1b3 bbbe 5a52 3b3e 8dfc 8cbe 997d a13c
000002b0: 6927 653e 1425 b53d 3b47 693d a74a 793e
000002c0: 75de a03e 2640 713d 33e8 5b3c 461a 90be
000002d0: 7b0a c4be 94db 0abe c6c7 763d 5418 d0be
000002e0: 0cb8 e3bd 7f86 80be ffc5 2b3d d7c0 c93d
000002f0: dd97 453d 67ef 1e3c bcf3 7bbe ea5c 52be
00000300: 8e04 603e 9a35 063e 68ed b8be 159c c43d
00000310: 0741 243e 3ad2 9cbd 3707 aa3d 8d02 66be
00000320: 451c b8bd 2691 e3bd b6d4 a4bd 8b5c 57be
00000330: 3d3a 28bc 871f 60bc 09d7 603d f11c 42be
00000340: 58a9 153e 39ec 013e 77c9 47be ff95 fd3d
00000350: 148a 6cbe ea06 393d 3f83 403d e582 d7be
00000360: 9aab e83b 1d12 d63d a279 11bd 599a f13d
00000370: 833b d0bc 8067 dd3c 0d2c 9dbd a89d 9abd
00000380: d181 81bd 9ada b93e 1669 cebd 3b72 cebe
00000390: 1519 f1bd 30a3 0abf 5e01 3dbd c1f2 0fbf
000003a0: 067b 65be d041 053e 2228 1e3e 0672 45be
000003b0: a16d 0aba f798 1bbf 7b68 7c3d a605 06be
000003c0: bf7f 003e e4d6 963e 6367 71be 701c 903d
000003d0: 6123 21bd 4753 c73d a228 a53d e667 1fbf
000003e0: afdd 943e e32e 9dbe ee7d f93e 14ec a93e
000003f0: 38be 743e 5256 f53c 4bed a7be 9745 603e
-0.021968035 0.120655544 -0.12449418 0.037126787 -0.18329795 0.1578545 -0.17056595 -0.39043516
-0.1604493 0.30993196 -0.21230617 -0.1300635 0.058470912 -0.1089163 0.13079165 0.20226412
0.0989184 0.1572833 -0.27744967 0.06375544 -0.28514668 -0.0632567 -0.25717685 -0.32994047
-0.14875107 -0.24849229 -0.012672058 -0.009800168 0.076642536 -0.15142536 0.27824193 -0.3853569
-0.013780038 -0.12457913 -0.26959124 -0.14672412 0.07448725 0.045591485 0.09018591 -0.23261574
-0.10339562 0.29998478 0.14430915 -0.0027927714 0.3410523 0.040550902 -0.06821004 -0.24941967
0.0009218027 0.05540754 -0.103798024 0.15786162 -0.2980082 -0.05300397 -0.027814439 -0.39483756
0.09454871 0.05777159 0.17493804 -0.009888 -0.07481765 0.033691615 0.19130297 -0.14231
0.16826633 0.29892254 0.100432605 -0.12111088 0.08474945 -0.28039327 0.04654116 -0.31803095
0.002907282 0.26083577 0.21243604 -0.29453298 -0.12272185 -0.11662523 0.033730876 -0.1540059
0.43634066 0.46639216 0.005974926 0.14486235 -0.022865595 0.14182374 -0.30414915 -0.6046229
-0.08005182 -0.40968928 0.1425302 0.28235418 0.1474824 -0.17651027 0.001960105 0.0047675027
0.041444544 0.04225802 -0.14713076 -0.53418726 -0.20022361 -0.084702305 0.062336765 -0.654961
0.051083885 0.28335539 -0.10788728 0.2075704 0.39538276 -0.15923801 0.14698084 0.33594498
0.07573749 0.2557694 -0.21877822 -0.24182267 0.024076084 -0.25816318 -0.17674579 -0.5942311
-0.1408149 -0.32612202 -0.03701444 0.09871919 -0.01080572 0.099238954 0.05118978 -0.038372397
-0.13152467 0.018112551 0.10419429 -0.4266059 -0.29081422 -0.073862776 -0.09737276 -0.4506838
-0.03998851 0.2024319 0.075269505 0.20772095 0.42255586 -0.20078044 -0.029704459 0.15045331
0.07658964 0.6225634 -0.29460213 -0.31676692 -0.045654655 -0.36637747 -0.19094707 -0.5866179
-0.26372948 -0.31572536 0.08958812 0.24252996 0.22158058 -0.12837842 -0.18309905 -0.09197998
-0.20887585 0.012679603 -0.22072804 -0.14635943 -0.26973215 0.16030996 -0.20941317 -0.27417114
-0.3666058 0.18293133 -0.2753643 0.01971321 0.22378315 0.08844963 0.056952696 0.24344884
0.3141972 0.058899067 0.01342206 -0.28145045 -0.38289246 -0.13560325 0.060249113 -0.4064356
-0.111190885 -0.25102612 0.04193687 0.098512344 0.04824053 0.009700633 -0.24604696 -0.20543256
0.21876737 0.13106385 -0.36118627 0.09600083 0.16040431 -0.07657285 0.08302157 -0.2246191
-0.08989767 -0.11111669 -0.08048384 -0.21031396 -0.010267791 -0.013679392 0.054892574 -0.18956353
0.14615381 0.12687768 -0.19510446 0.12382125 -0.23099548 0.04517261 0.047000166 -0.42092052
0.0071005346 0.104526736 -0.03551639 0.117970176 -0.025419002 0.027026892 -0.07674418 -0.07549602
-0.06323589 0.36299592 -0.10078637 -0.40321526 -0.11772362 -0.54155254 -0.046143882 -0.5622979
-0.22410211 0.13013387 0.15444997 -0.19281778 -0.0005280618 -0.6078028 0.061623078 -0.13088092
0.12548731 0.29460824 -0.23574595 0.07036674 -0.03934038 0.09732681 0.08064391 -0.6226791
0.2907538 -0.30699834 0.4872889 0.33187926 0.23900688 0.029948387 -0.32798228 0.21901546

weight_hh_l0 f4 [128, 32]
00000000: dc1c a23c 6010 bc3d a8b9 f9bd 5d2a 30be
00000010: b48b fabd 8282 92bb 7e2c 7c3e 64c9 0b3e
00000020: e7c0 d83d 7e35 75bd 2b73 4bbc cc6c aebd
00000030: 95e4 20bc c984 1fbd adf7 e03d bd68 1a3e
00000040: d145 303d 8ba8 f93a e1bd 2b3e 9809 65bd
00000050: 6a2f 993e ea22 b63c 4708 8bbd b66c cfbd
00000060: 2698 6d3e ed6a dcbd b80f af3d cb7c 583e
00000070: 56b2 e9bd 0e5d 50bd 5650 0a3e 21c5 3cbd
00000080: 863c f3bc cd1c 363e 3d89 17bd 5c82 8a3e
00000090: 0e71 d4bd ec3c a63d a8bc 4c3e ce29 8abd
000000a0: 7a12 073e d811 523e 10dd 38be be97 0f3b
000000b0: a9f0 f33d cb68 e2bd a0ba 55bc 297f 1cbc
000000c0: 192d 4dbe 5f66 0fbc ccc8 0a3e 6ca7 19be
000000d0: d1d4 b03d 7efd 13be ada0 f9bd c937 97be
000000e0: 2648 963d 5921 4ebd 4285 2d3e e773 9dbc
000000f0: f808 693e bc11 c7bc 3530 b83d 516f 36be
00000100: 36c9 6bbd 851e ba3d aa3f 42be f5de 683d
00000110: 6207 8c3e 6b48 213e 4c81 843e 9efc 1ebd
00000120: 2390 273e 1ba4 033e 592b 3cbe d3e9 bc3d
00000130: 7959 8bbc 3737 9e3d 8b41 d7bd e667 4f3e
00000140: bba4 fb3d 779a 083e 8b47 db3b 988c f2bd
00000150: 34b3 13be 3a06 d1bd 08c3 023d 9681 a5be
00000160: d191 913e e0d2 06be 0ab1 f73d 868d a0bd
00000170: e99f 873d c526 b5bc e1b2 3abd 1268 023c
00000180: 9e9f 063e 0531 583e bfa4 febc 75d1 4dbe
00000190: 5b83 c5bd 90b0 16be 9f55 45bd ca30 8e3e
000001a0: f068 51bd 38fe 953e b7de 843d ac80 42be
000001b0: 0341 21be a15c 2dbe cade 46be 3dca 593e
000001c0: 1903 4bbe 9522 11be a7c1 9dbe bf7e a738
000001d0: 9bba a83d d6c3 f63d f165 47be a751 3fbd
000001e0: 55d8 723d 0a2d a73e 5465 e6bd 06c6 333e
000001f0: 847a 6b3e 0100 443e cffb f3bd df5d 4a3e
00000200: 84f5 433c 315e 333e b1ff 043e be02 32bd
00000210: 74cd 1bbe 9ab3 a9be ec01 0ebe f164 87bd
00000220: 73bc d1bd c162 873d 7d7a 7d3d 0f3f bcbd
00000230: 9dfe 10bd 8f30 6bbe f1ad 4bbd dddf 2d3d
00000240: fe08 f53d 4318 3abe 9258 30be 514d 38be
00000250: 3663 d03d 808d 3b3c c841 e2bc b16a f63d
00000260: 7bbf a63e 6591 6e3d 80b9 dfbc b72c 273e
00000270: e071 4b3e 4908 df3d 0e6b dbbd c8aa d73d
00000280: de08 29be 1261 86bd 3176 17bd a0ca bfbd
00000290: 63b0 febc 7ed4 223e 7373 013e bcb8 5c3e
000002a0: c653 ad3d 4a83 623e 2dfa 1abb c150 b43d
000002b0: 2199 783e 3f83 30bd 4529 5b3d 4b6c 0c3d
000002c0: 29ad 97bc 8aba f6bd 66ca 5b3c 905f 80be
000002d0: 8631 7f3d 9a98 47be 3ded 5abe 78b4 7dbd
000002e0: 680e 153e 93a4 a8bd 6ac0 8ebd 200b 80bd
000002f0: 6a63 333e b067 07be 2f62 b83d 87b1 2f3d
00000300: 6045 3bbe dd80 a63e 29f2 bb3e 06bf b83e
00000310: 0390 0c3e e57b 593e cf25 963c 7cef 3d3d
00000320: a07e 743e e540 833e 3920 02bd 7ccf 233e
00000330: bbd7 ea3d b671 ec3d ce4e 22bd 162f 59bd
00000340: 2d6b 78be 96f0 59be a286 8a3e 4d82 623d
00000350: 6ef0 b8bc a8ee 423b 447f e53d dd1d 3cbe
00000360: 3715 063e d83e eabd c1bc 9bbd a4cc 893d
00000370: 8aab f2bd 0c37 c43d fd0b 013e 67cb 2c3e
00000380: c8e4 983d b156 143d d323 67bc e3b9 063e
00000390: 628d 183e 5f45 493e a05e 893e d4d6 cd3c
000003a0: 481e 73bd 2721 033d 15f0 3cbd 4198 253e
000003b0: 6b37 133e 12f6 8b3c b902 20be 1481 81bd
000003c0: a3f1 05be 1fad fcbc 39d0 d33e 1da0 cf3d
000003d0: 1407 e6bd 5ba4 12be ff30 cc3d 8b7e 7ebe
000003e0: d0b1 fbbc 0daa 30be 3762 0ebe b924 8fbd
000003f0: 350a 45bd 6f30 d0bd 5516 a73d 2dc8 a03e
0.019789152 0.09182811 -0.12193614 -0.1720366 -0.122336775 -0.004471124 0.24626347 0.13651043
0.10583668 -0.059865467 -0.012417595 -0.08516845 -0.009820123 -0.038944993 0.109847404 0.15079017
0.043035332 0.0019047422 0.16771652 -0.055917352 0.29918987 0.022233445 -0.06788688 -0.10128157
0.23202571 -0.10762582 0.0854792 0.21141355 -0.11410968 -0.050869994 0.13507208 -0.046086434
-0.029691946 0.17784424 -0.036996115 0.2705258 -0.10373126 0.08117089 0.19993842 -0.06746255
0.13190642 0.2051462 -0.18053079 0.0021910514 0.11911137 -0.11055144 -0.013044983 -0.009551802
-0.20036735 -0.0087524345 0.1355316 -0.15005273 0.086343415 -0.14452168 -0.121888496 -0.29534748
0.0733798 -0.05032477 0.16945365 -0.019220306 0.22757328 -0.024300449 0.0899357 -0.17815901
-0.057564937 0.090878524 -0.18969598 0.056853253 0.27349383 0.15750282 0.25879896 -0.038815133
0.16363578 0.1285557 -0.18375911 0.09224286 -0.017010437 0.07725375 -0.10510548 0.20254478
0.12287279 0.13340174 0.006691878 -0.118432224 -0.1442383 -0.10206266 0.031924278 -0.3232543
0.28431562 -0.1316638 0.120943144 -0.078394935 0.06622297 -0.022113213 -0.04558075 0.007959383
0.13146827 0.2111245 -0.031084416 -0.20099433 -0.09644195 -0.14715791 -0.048177358 0.27771598
-0.051125467 0.29295516 0.06487792 -0.18994397 -0.15747456 -0.16929866 -0.19420925 0.21268554
-0.198254 -0.14173348 -0.30811808 7.986789e-05 0.08238717 0.120490715 -0.19472481 -0.04670873
0.05928834 0.3265155 -0.112497956 0.17556009 0.22995955 0.19140626 -0.11913263 0.19762371
0.011960391 0.175164 0.12988164 -0.043459646 -0.15215093 -0.33144838 -0.1386792 -0.0661105
-0.10241022 0.06610633 0.061884392 -0.09191715 -0.03539907 -0.22967742 -0.04972643 0.04244982
0.11964606 -0.18173318 -0.17221287 -0.17998244 0.10175173 0.01144731 -0.027619258 0.120320685
0.32567963 0.058244128 -0.027310133 0.16325651 0.19867659 0.10890252 -0.107137784 0.10530621
-0.16507289 -0.065614834 -0.03697795 -0.093648195 -0.031089967 0.15901372 0.12641697 0.21554846
0.08463244 0.22120395 -0.0023647652 0.08804465 0.24277164 -0.043093916 0.053506155 0.034282964
-0.018515186 -0.12047298 0.013414955 -0.25072908 0.06230309 -0.19491807 -0.21379562 -0.061939687
0.14556277 -0.08234515 -0.06970294 -0.06252122 0.17518392 -0.13223147 0.09003102 0.042893913
-0.18288183 0.3252019 0.3670819 0.3608324 0.13726811 0.21238668 0.018328575 0.04637097
0.23876429 0.25635448 -0.03176901 0.15997118 0.114669286 0.11545126 -0.039625935 -0.05302342
-0.24259634 -0.21283183 0.27055842 0.055300046 -0.022575583 0.00297443 0.112059146 -0.18370767
0.1309403 -0.11437768 -0.07604361 0.06728485 -0.11849125 0.09580812 0.1260223 0.16874467
0.074655116 0.036215488 -0.014107662 0.13156848 0.14897683 0.19655369 0.26830006 0.025126852
-0.05935505 0.03201404 -0.046127398 0.16171362 0.14376609 0.017085109 -0.15626039 -0.06323448
-0.13080458 -0.03084427 0.413698 0.10137961 -0.11231819 -0.14320509 0.09970283 -0.2485296
-0.030724436 -0.17252369 -0.13904653 -0.06989426 -0.048105437 -0.10165488 0.08158556 0.31402722

bias_ih_l0 f4 [128]
00000000: 7862 59be c4a1 75bd 7c74 d0be 7bd2 a9bc
00000010: 24eb 1ebd 4d41 afbd 7c44 05be 4c8d febe
00000020: 41fe cabe ad15 55be 45a8 9fbd 3ca5 fb3a
00000030: 902c 3bbd ec86 cbbe cd52 eabe 9b01 7dbe
00000040: 7d53 1ebe 7ba4 e9be 7357 1f3d 9a6d 51be
00000050: 515f a7be f24e 97be e4f5 a2bd b4b2 05be
00000060: cc8b aabe f9dc 2cbe 2d65 7fbe f430 3abe
00000070: de31 b4be 458e 25be d89a 63be de6a 8dbd
00000080: ee85 bebc 26c1 163e c3df 823c 0f7f 9ebc
00000090: 0931 023d 0fe3 96bd 76fe 893d ec6e ffbc
000000a0: 37bf d2bc d36b dc3d 7ff7 ba3d bcd2 f3bd
000000b0: 831e 08be 442a 0ebe 4bb3 a3be 0632 13be
000000c0: 9a66 193e 87ee c4be 5f4a 783d 99ad a3bd
000000d0: 435b 44be 3f4e e1bd 16a8 0abe bff9 fe3d
000000e0: 697d a7bd 7a44 403d a7bf 253b afa8 b73b
000000f0: 1b0c 99bb 6dbb 94bd 97ea 92bd 097e 17be
00000100: cd31 583d a954 85bd 3668 7f3d 2b37 39be
00000110: b57d 913d b953 6cbd 7f66 94bd d613 82bd
00000120: f72a 0c3e 1c49 02be 199a e53d c4d4 e5bd
00000130: 24b6 0dbe 9c97 3f3c 4c85 a9bd e96a 61bd
00000140: 4ae5 093e a5b2 603d 4e3a 1bbe 0e05 7a3d
00000150: 3ef4 80bd 9f5c 9b3d 024d d5bd beec d23d
00000160: 063b e7bd f183 e03c 065f 853d 3d3b db3d
00000170: a72b 51bd 1550 45bd 24a1 4f3a 1f0a 463d
00000180: f84d fcbd e8b1 9e3d 5609 a6be 33cc e6bd
00000190: 4b54 2fbe 36bd 1abe fe84 42bc 0a75 5cbe
000001a0: 90dd 28be 6ed0 87be 0fee 16bc 11f7 61bd
000001b0: c3cf 1abe ab8a a6be 921d 65be c8f2 fcbd
000001c0: 6520 21be 016f 70be 70a0 053d 211a b5bc
000001d0: 11fe 0abe bcf9 a6be 8aed 3abe f836 0ebe
000001e0: fc2f bfbe 5a0d b03c 9901 01be 66b7 bbbd
000001f0: 7f13 3dbe 94bb 6cbe 1d96 68be 5c29 6e3d
-0.21228969 -0.059968725 -0.4071387 -0.020730248 -0.038798466 -0.08557377 -0.13014406 -0.49717176
-0.39647105 -0.2080905 -0.07795767 0.0019199024 -0.045696795 -0.39751375 -0.45766297 -0.24707644
-0.15461536 -0.456333 0.038901757 -0.20451966 -0.32689908 -0.29552418 -0.07957056 -0.13056451
-0.33309782 -0.1688117 -0.24940939 -0.18182737 -0.35194296 -0.16167553 -0.22227037 -0.06905149
-0.023257222 0.14722118 0.015975839 -0.019347696 0.031785045 -0.07367527 0.06737988 -0.031180821
-0.025725944 0.10762753 0.091292374 -0.11905429 -0.1329289 -0.1388331 -0.31972727 -0.14374551
0.14980546 -0.38463232 0.0606178 -0.079920955 -0.19175439 -0.110012524 -0.13540682 0.12449979
-0.08178217 0.046940304 0.0025291236 0.0056048254 -0.0046706325 -0.07262311 -0.07173651 -0.14794172
0.05278187 -0.06510288 0.062355243 -0.18087451 0.07104055 -0.05769703 -0.07246112 -0.0635144
0.13688265 -0.12723202 0.112110324 -0.112222224 -0.13839012 0.011693861 -0.082773775 -0.055033598
0.13466373 0.05485787 -0.1515896 0.061039977 -0.062965855 0.075860254 -0.10415079 0.10299061
-0.11290555 0.027406665 0.06512265 0.10704658 -0.05106702 -0.048172075 0.0007920435 0.048349496
-0.12319559 0.07748777 -0.32428998 -0.11269417 -0.17121999 -0.1511124 -0.011872528 -0.21529022
-0.1649077 -0.26526207 -0.009212031 -0.05516726 -0.15118317 -0.3252767 -0.22374561 -0.12350994
-0.15735014 -0.23479845 0.03262371 -0.022107186 -0.13573481 -0.32612407 -0.18254676 -0.13888156
-0.37341297 0.021490742 -0.12598266 -0.0916584 -0.18464468 -0.2311843 -0.22713514 0.058144912

bias_hh_l0 f4 [128]
00000000: f0ac a0be 1cda 04be 43a8 96bd 2882 91be
00000010: a810 35be 1d3e bdbe 9c19 48bd c279 93be
00000020: db89 86be 63ea abbc 453b 1dbe d203 80bd
00000030: ea35 00be b475 18be b651 2ebe 1511 cabe
00000040: 1ffc c53d bb8f 76be 2b23 5dbe b288 b93c
00000050: d609 22be 20e9 84be cc46 78be ec0e ddbd
00000060: aefa bebe e853 83bd fa50 c4be 6eb1 a0be
00000070: d663 a7be 677e be3b 3a97 18be 72fe 7fbe
00000080: aff1 72be 559c 46bd c129 98be 5b8d e639
00000090: 0248 633d 2eda 7fbe 1071 a83d 6b63 94be
000000a0: 8abf 29be 96ef babc 823b 093e 40e0 8f3a
000000b0: cca9 60be 8f41 793d 7424 23be 64e5 b8bd
000000c0: d55e c6bd f7f8 82be d4d6 0bbe 7b76 163e
000000d0: f9fc 94be 04cd 9fbe 69db 6bbd 61a2 89bd
000000e0: 47eb 91be 2e05 2bbd e555 57be d4f7 56be
000000f0: 426d 3dbe 1748 86be 03f0 46be 44c2 92bd
00000100: ec95 b7bc 1ccd 6cbd b7ea 17bc 2277 703c
00000110: 42d9 4b3d 3039 cb3b d1a3 6bbc e366 843d
00000120: 1ab0 d1bc 3a7a 193e 6dcb 483d eb60 113e
00000130: 5cbf ef3d 93ee 83bd ba35 c63d bec7 cabd
00000140: 57f1 19be 12ab d3bd 5c36 433d cceb 983b
00000150: 4663 bf3d a899 993c cbbf 04be f42a d8bd
00000160: df09 013d 7c13 713d 903e 3d3d 0717 9a3d
00000170: d2c7 85bc a014 9a3d 904b 8bbd 5d50 aebd
00000180: f33f acbe 52de bc3d d1ca 24be c5af f5bd
00000190: adb9 4dbd cf18 22be eeda 203e 2b05 0abf
000001a0: 66d0 c9be 77d3 51bd cf52 37be 13f7 6bbd
000001b0: 7f45 54be 8951 25be 4b4f bebe 0741 6bbe
000001c0: 39a2 1ebe 4b56 97be ba93 85bd 2775 31be
000001d0: d84f e0be c561 1dbe 8fa8 e5bd 0ce0 6dbd
000001e0: 5ef6 2cbe 9f87 dabd 581b 87be 25ea 1bbd
000001f0: a743 7bbe cb1e 7ebe 0d56 17be 2dc7 00be
-0.3138194 -0.12973827 -0.07356312 -0.28419614 -0.17682135 -0.3696145 -0.048852548 -0.2880383
-0.2627705 -0.020985788 -0.15354641 -0.06250729 -0.12520567 -0.1488865 -0.17023358 -0.39466158
0.09667229 -0.24078266 -0.21595447 0.02264819 -0.15824065 -0.2595911 -0.24245757 -0.10793862
-0.37300628 -0.06412488 -0.3834303 -0.31385368 -0.32693356 0.005813408 -0.14901438 -0.24999407
-0.23725007 -0.048488934 -0.29719356 0.00043974337 0.055488594 -0.24985573 0.0822469 -0.289821
-0.16576973 -0.022819322 0.13401607 0.0010976866 -0.21939772 0.060853537 -0.15931875 -0.09028128
-0.096860565 -0.2558057 -0.13656169 0.14693634 -0.29099253 -0.31211102 -0.057582293 -0.067204244
-0.28499815 -0.041752987 -0.2102886 -0.20992976 -0.1849871 -0.26226875 -0.19427495 -0.071659595
-0.022410356 -0.057812795 -0.009272269 0.014676841 0.04976774 0.0062018856 -0.014382319 0.064649366
-0.025596667 0.14988032 0.049022127 0.14197128 0.11706421 -0.06441989 0.09678216 -0.09901379
-0.1503347 -0.103353634 0.047659263 0.004666781 0.09345107 0.018750027 -0.12963788 -0.10555068
0.031503554 0.058856472 0.046202242 0.07523923 -0.016330633 0.07523465 -0.06801522 -0.08511422
-0.3364254 0.09222092 -0.16092993 -0.11996416 -0.050225902 -0.15829776 0.15708515 -0.53914136
-0.39416808 -0.05122706 -0.17902683 -0.057608675 -0.20729636 -0.16144384 -0.3716987 -0.22974025
-0.1549157 -0.29558024 -0.06522317 -0.17329846 -0.43810916 -0.15369327 -0.112137906 -0.058074996
-0.16890857 -0.10670399 -0.2638805 -0.038065095 -0.24537526 -0.24816434 -0.1477892 -0.1257598

weight f4 [64, 4]
00000000: 8b61 23be a28f 483f 87c7 1c3f adfd e5be
00000010: bb04 07bf 8e59 9cbe 73fd c93e 8054 f43d
00000020: d415 133e 11fb 1c3e 4919 c7bd 5945 173f
00000030: 218e 2dbf 6a66 003e 978f eebc 1399 ea3c
00000040: b66f 153f f060 76be d09c f0be fa84 9abe
00000050: 3974 c53d 81d4 12bf 50d7 05bf 5e76 89bd
00000060: 33ba d9be 20b7 d33c 97ff b23e 40f3 7c3e
00000070: 1772 56bc b625 2a3e 96b7 e8be 3a02 17bf
00000080: 5951 c4be d967 8f3e 2135 e13e 1eb6 44bd
00000090: 2d35 f03e 33a2 c5bd 5dce 5d3c fc66 bc3e
000000a0: 90af 463e 08de db3e fc91 d6be 4466 cdbe
000000b0: fead 6abe 1547 ebbd 3e18 043f 9d73 533f
000000c0: 272d e83e ed5b c03d 5083 69be 0bdb 343e
000000d0: d01b 8b3e cc47 a83e 88fd 4bbd 08ad 50be
000000e0: f70a 0d3e c4fd 293d 0f3b b1be ec68 163e
000000f0: 8cb4 49be c26b c6be 7fbe 003f fbb5 c5be
00000100: ba2f a3be 6cbc ecbd 7178 3e3d 2cb5 9abe
00000110: 63f5 43bf 54dc cdbe a1ab c63e d40b d5be
00000120: 316d 8dbe 8c43 f13e d72d 683d 92a3 dabe
00000130: 613e f43e fd1a 203f 2a30 aebe cc24 82be
00000140: 1588 343d c74d aebe 224d 0d3e 724f 1e3c
00000150: 74d6 bdbe 4b18 15bf 9624 d63e 9081 1c3e
00000160: 4309 04bf 6d2f 87be 79fd 873e 284d b63e
00000170: e1f4 593d b250 803e 96e5 0f3f 5753 eabd
00000180: 7255 28bf 9596 ae3e 5e1b 0c3f 491a ebbd
00000190: 9ad3 4e3d 5d8a 2f3e b52b 873e 82c5 35be
000001a0: 2ed1 07bf 9de6 f13e 548b 70bd 94f7 57be
000001b0: 95d8 08bf b754 f23e 9701 8fbe 204c b7be
000001c0: 6c72 02bf f53c 87be 55a2 173f 2a4d 49bd
000001d0: 64f0 68be c06c 7d3a 1ef7 643e 6cf3 febe
000001e0: 9262 1bbf 0cf0 1abf a2db b2be e00c 493e
000001f0: 0d80 5dbe 45f9 14be b01f 5f3e 098c 00bf
00000200: 9181 003f 8e4d ecbd d004 2f3e c351 ff3e
00000210: ed9b c33e f213 10bf a690 803e 36ae d83e
00000220: 2e1e cdbe 18bc 02bf bc7f bd3d 860a 13be
00000230: b6c6 823e 3088 203f a9ef 70be 2df8 20bf
00000240: a560 b1be eebe 363e b7ea 6bbd b739 773e
00000250: fb05 59bf 5347 0e3d c610 8d3e 6e67 f3be
00000260: 2e51 0ebe e15a a83e 5b77 7b3d 2dcb e5be
00000270: 6103 853d e0c6 8c3d 1f4b b2be d744 d3bb
00000280: 588a 43bd 14d2 9b3e 8cd7 1c3f 4215 a93e
00000290: 8b24 0dbf ffd2 14bf 8512 bc3e 0e91 c83e
000002a0: 2e9e 1cbd ffd9 05bf 185a 603e 6a0a 1cbf
000002b0: c7c2 18bf 4f00 283e 1107 d63e 1784 aabe
000002c0: ff5c a53e a8cb 203f 1955 f13e ab6a 97be
000002d0: cb75 b13d abd5 e2bd 4a03 d5bd 7bc6 9fbe
000002e0: 077a 11bf 0bd1 253e 05fb d63d e98f 1ebf
000002f0: b7d3 9abd 6062 deba 1f9f 6c3e 0d3c b8be
00000300: 1cc2 d23e 4d23 703e accd 1dbe 2d92 893e
00000310: 69d1 09bf 8cb8 613e 6362 823e e781 7a3d
00000320: aa9a a2be 61b6 aebd 5ccd 11b9 2919 8abe
00000330: 945c 0b3f 3bb0 ce3d 9028 47bc 25df d7bb
00000340: 0f38 c53e 27e6 e7bc 4092 c4be 54bd 6abd
00000350: 9400 c1bd 2804 873e 4fa9 b9be cc86 0a3e
00000360: eab2 103f 0237 c1be 9db5 313e e8b2 5abf
00000370: 998e bebe 4a57 e7be 9b4d 4ebd 6231 1cbe
00000380: 811b ac3e 2b88 ce3e df6b b7bd ca4e 26bf
00000390: 2169 f23d 86f5 383e 142d 19bf 4340 9e3e
000003a0: 346c 1dbf 3fbc ef3e 4e26 02bf 2e37 9a3e
000003b0: 33cb b7bb 4745 21bf 8938 3f3c d878 30be
000003c0: faa3 cabe 907c 1b3d 9cbd 8bbe fa42 333d
000003d0: d798 ce3e 2be0 20be b098 26bf eb7e 883e
000003e0: 98dc edbe fa8a 41bf 3368 0a3f dd8f e7be
000003f0: 9c9a 583d 5006 223f 68fc 813e 0a22 1cbf
-0.15955178 0.78344166 0.61241955 -0.44920102 -0.52741593 -0.30537075 0.3945118 0.119301796
0.14363796 0.15330149 -0.0972162 0.5909019 -0.67794997 0.12539068 -0.029121203 0.028637445
0.5837358 -0.24060416 -0.46994638 -0.30179578 0.09641308 -0.57355505 -0.52281666 -0.0671203
-0.4252487 0.025844157 0.34960625 0.24702168 -0.013088725 0.16615948 -0.45452565 -0.5898777
-0.38343313 0.28008917 0.43985847 -0.048025243 0.4691557 -0.09650078 0.01353797 0.3679732
0.1940291 0.42942834 -0.41908252 -0.40117085 -0.22917935 -0.11488167 0.5159949 0.82598287
0.45346949 0.093925335 -0.22803998 0.17661683 0.27169657 0.32867277 -0.049802333 -0.20378506
0.13773714 0.041501775 -0.3461537 0.14688462 -0.1969778 -0.38754088 0.50290674 -0.38615403
-0.3187235 -0.11559376 0.04650158 -0.30216348 -0.76546305 -0.4020716 0.38802817 -0.41610587
-0.2762237 0.47121847 0.05668434 -0.4270292 0.4770384 0.6254118 -0.3402112 -0.254187
0.04407509 -0.34043714 0.13798955 0.009662496 -0.37077677 -0.58240193 0.41824788 0.15283799
-0.5157663 -0.2640337 0.26560572 0.3560574 0.05321205 0.25061566 0.56209695 -0.11441677
-0.6575538 0.3409926 0.5472926 -0.11479623 0.050494768 0.17142625 0.26400533 -0.17751125
-0.5305356 0.47246256 -0.058726624 -0.21090537 -0.5345548 0.47330257 -0.279309 -0.35800266
-0.50955844 -0.26413694 0.59232074 -0.049145855 -0.22747952 0.0009667389 0.22359893 -0.4979509
-0.6069728 -0.6052253 -0.34933192 0.19633818 -0.21630879 -0.14548214 0.21789432 -0.50213677
0.501977 -0.1153823 0.1709168 0.49867067 0.382049 -0.56280434 0.25110358 0.42320412
-0.40062088 -0.5106826 0.09252879 -0.14359483 0.2554223 0.62707806 -0.23528923 -0.62878686
-0.34644046 0.17846271 -0.05759689 0.2414311 -0.8477475 0.03473599 0.2755186 -0.47539848
-0.13898155 0.32881835 0.061393123 -0.44881573 0.06494785 0.0687387 -0.34822938 -0.0064474153
-0.047739357 0.30433714 0.612664 0.3302403 -0.55133885 -0.58134454 0.3673288 0.39173168
-0.03823679 -0.5228576 0.21909368 -0.6095339 -0.59672207 0.16406368 0.41802266 -0.33303902
0.32297513 0.62810755 0.47135237 -0.2957357 0.08665045 -0.1107591 -0.10401018 -0.31206116
-0.56826824 0.16193025 0.10497097 -0.6193834 -0.07559913 -0.0016966574 0.23107575 -0.35983315
0.4116372 0.23450966 -0.15410489 0.26869336 -0.5383516 0.22043055 0.25465688 0.06115904
-0.31758624 -0.0853088 -0.0001390478 -0.2697232 0.5443814 0.10092207 -0.012155667 -0.00658788
0.38519332 -0.028307987 -0.3839283 -0.057309464 -0.094239384 0.26370358 -0.36261985 0.13527983
0.56523 -0.3773728 0.17354436 -0.8542924 -0.37218168 -0.45183784 -0.05036698 -0.15253213
0.33614734 0.40338263 -0.08956122 -0.6496397 0.11836458 0.1806241 -0.5983441 0.30908403
-0.6149323 0.46823308 -0.508397 0.30120224 -0.00560894 -0.62996334 0.011671194 -0.17233598
-0.3957823 0.03796059 -0.27293098 0.043765046 0.40350983 -0.15710513 -0.6507673 0.2665933
-0.46457362 -0.75602686 0.54065245 -0.45226946 0.052881822 0.6329088 0.25387883 -0.6098944

bias f4 [64]
00000000: 51be e53e 3d72 543e d119 22be a4fb 22bd
00000010: a8ab 9c3d 799b f13e 6bf9 123e 1c1d cb3c
00000020: c0ad 013f e343 333e 1734 5b3a b033 94bd
00000030: 6daa dabe ff69 f93e 5717 81be 5974 a53e
00000040: 1257 eabe 1a47 dc3e ad36 a93e c17e b73e
00000050: 68a4 ce3e d79d 853d 78f8 a53d d9ee 9ebe
00000060: 1d34 fa3a 7190 f1bd 172a 6abe 06b8 4b3c
00000070: 4508 e0bd e11b 8bbe 4a76 613e 6e7f 10bf
00000080: 53d5 d1be ba09 bb3e d50a 57be 8ea3 6c3c
00000090: 3e4a bbbe eb09 db3e 0e22 a5be f1f0 6a3e
000000a0: 55a2 bc3d 69d8 423e 7668 dabe 8a0b 06bd
000000b0: 8760 dfbd f73e f83e 7e2f e1be 0eee 54be
000000c0: be51 91be 07e3 cbbd 44cd ed3e 921a 043f
000000d0: 19c5 11bd b726 d93d 2208 cc3e e064 bfbd
000000e0: 4929 af3e 5c0a 5f3c 7de6 383d 5d7f 003f
000000f0: a7c6 103e 2094 29be dc76 adbe 8dfd 723e
0.44871762 0.20746703 -0.1583016 -0.039790764 0.07649928 0.4718893 0.14352958 0.024794154
0.50655746 0.17506365 0.0008361949 -0.07236421 -0.4270815 0.4871368 -0.2521312 0.3231533
-0.45769554 0.43022996 0.33049527 0.35838893 0.40359807 0.06524246 0.08104032 -0.310416
0.0019089017 -0.11795128 -0.22867619 0.012434011 -0.10939077 -0.27169707 0.2201778 -0.5644444
-0.40983066 0.36530858 -0.21000226 0.014443291 -0.3658008 0.42781004 -0.32252544 0.22943474
0.0921065 0.19027866 -0.42657822 -0.03272585 -0.10907083 0.48485538 -0.43981546 -0.20793936
-0.28382677 -0.099554114 0.46445668 0.51603043 -0.035588358 0.106030874 0.39849955 -0.09345412
0.34211186 0.01361331 0.045141686 0.5019434 0.1413828 -0.16560411 -0.33879745 0.23729534
