experiments/pedestrians/models/06_Aug_2023_21_23_08/model_registrar-60.pt (torch, 713991 bytes, 82 tensors)

weight f4 [64, 10]
0	0xbc78c70d	-0.015184176
1	0xbc829f5f	-0.015945135
2	0x3e13a069	0.1441666
3	0x3ceed81c	0.029155783
4	0xbf35c4fe	-0.7100371
5	0x3f5fb2a6	0.8738197
6	0x3c9295a2	0.017893616
7	0xbe78c317	-0.24293171
8	0xbe22dc25	-0.15904291
9	0x3dfb83d8	0.122810066
10	0x3d714058	0.058899254
11	0x3e994241	0.2993336
12	0x3ebe9d00	0.37229156
13	0x3d78a6af	0.060705837
14	0xbe71ab65	-0.23600538
15	0xbe26d95c	-0.16293854
16	0xbe948769	-0.2900956
17	0xbebf2199	-0.3733032
18	0xbdeaf482	-0.114724174
19	0x3db47492	0.088112965
20	0x3c97a046	0.018509042
21	0x3da83e6b	0.0821503
22	0xbd3221fc	-0.04348944
23	0x3f02f4eb	0.51154965
24	0xbdaf1c1b	-0.085502826
25	0xbccd093e	-0.025028821
26	0xbe8ca2f5	-0.27468076
27	0xbd190549	-0.037358556
28	0xbbbab4ac	-0.0056978073
29	0xbe27f97e	-0.16403767
30	0x39e2b1bf	0.0004323851
31	0x3cbdb789	0.023158805
32	0xbd4485d7	-0.047979202
33	0xbd69da43	-0.057092916
34	0xbf1ef100	-0.62086487
35	0x3f3ef4f2	0.74592507
36	0xbe89462a	-0.26811343
37	0xbe5393ad	-0.20661803
38	0xbcf36a5b	-0.0297138
39	0xbe7e954b	-0.24861638
40	0x3d115485	0.035480995
41	0xbd4239e2	-0.047418483
42	0x3d8571cf	0.06515848
43	0x3dfd35b4	0.12363759
44	0x3f1bbda5	0.6083625
45	0x3edff3d7	0.43740723
46	0x3e907ba4	0.2821933
47	0x3e26c56f	0.16286252
48	0xbe7e135f	-0.24812077
49	0x3e3259dd	0.17417093
50	0xbc4c835b	-0.012482489
51	0x3d824129	0.063600846
52	0x3ec170a8	0.37781262
53	0xbe310592	-0.17287281
54	0x3b25b311	0.0025283734
55	0x3eddad46	0.4329626
56	0x3e31cbca	0.17362896
57	0xbc27b674	-0.010236371
58	0xbd6c4e71	-0.057691995
59	0x3d9c8a0a	0.07643516
60	0xbd237f18	-0.039916128
61	0x3e46c395	0.19410546
62	0x3ee8d4d7	0.45474884
63	0x3cda0d7e	0.026617762
64	0x3f019248	0.5061383
65	0xbefd77d9	-0.495055
66	0xbe83ae0f	-0.25718734
67	0x3e8ba0fe	0.27271265
68	0x3ea10e0a	0.31456023
69	0x3e6e4198	0.2326721
70	0xbd0413b6	-0.03224536
71	0xbe111881	-0.14169504
72	0x3d492c7e	0.049114697
73	0xbeb772a4	-0.3582965
74	0xbf368d6e	-0.71309555
75	0xbeb99aac	-0.36250818
76	0x3ec38c47	0.3819296
77	0x3bc0465b	0.005867762
78	0x3cf1476c	0.029453002
79	0x3c9a3da6	0.018828224
80	0x3e127cbb	0.14305393
81	0x3d9a6cf2	0.07540311
82	0xbed4040a	-0.41409332
83	0x3c0271a5	0.007961665
84	0xbf31af70	-0.6940832
85	0xbe32441a	-0.17408791
86	0xbe1324c4	-0.14369494
87	0xbe2ba5d0	-0.16762471
88	0x3e708b02	0.23490527
89	0x3dda297a	0.10652442
90	0xbd0600d2	-0.032715626
91	0x3e09a536	0.13441929
92	0x3efbae0d	0.49156228
93	0x3ea1dd10	0.3161397
94	0x3d3ceade	0.046122424
95	0x3ecbd970	0.3981433
96	0x3e111211	0.14167048
97	0xbe769df5	-0.24083693
98	0x3e9503de	0.29104513
99	0x3e86924e	0.26283497
100	0xbe503319	-0.20331992
101	0x3dd70717	0.10499399
102	0x3e928b6b	0.28621992
103	0x3e6828a1	0.22671749
104	0xbe811db9	-0.2521799
105	0xbcb412ea	-0.021981675
106	0xbdf653b9	-0.120276876
107	0x3e08fb19	0.13377036
108	0x3e6ecdc2	0.23320678
109	0xbe81ead1	-0.25374463
110	0x3c83d653	0.016093409
111	0xbd4d97b1	-0.050193492
112	0x3f0faa90	0.5611963
113	0x3c930fd3	0.017951882
114	0xbf4ab7d3	-0.79186743
115	0xbf5dae33	-0.8659393
116	0x3e0497c2	0.12948516
117	0x3ee09a26	0.43867606
118	0xbdb6d3cc	-0.08927116
119	0xbceee439	-0.02916156
120	0xbe0affb5	-0.13574107
121	0x3e142f8b	0.14471261
122	0x3eb3c7eb	0.35113463
123	0x3e06ea7a	0.13175383
124	0x3e31e4ef	0.17372487
125	0x3e7db69c	0.24776691
126	0x3e654975	0.22391303
127	0xbd71fb6f	-0.059077676
128	0x3d7c7397	0.061633673
129	0xbe23fb65	-0.16013868
130	0xbb6478c5	-0.0034862023
131	0x3e0c289d	0.13687368
132	0xbc295490	-0.010335103
133	0xbf25dcaf	-0.6478986
134	0xbd250a2d	-0.040292908
135	0x3ce870ed	0.02837416
136	0xbd409dca	-0.04702548
137	0xbea01a59	-0.31270102
138	0xbe3a4c79	-0.18193235
139	0xbeaf0ef9	-0.3419111
140	0x3d724b20	0.059153676
141	0xbe0d16d0	-0.13778234
142	0xbeac4572	-0.33646733
143	0x3eb99d04	0.36252606
144	0xbe409abd	-0.18809028
145	0xbc62cb0c	-0.013842355
146	0x3ea77c7c	0.32712162
147	0x3dd0d020	0.10195947
148	0x3d8ad9e9	0.06779844
149	0x3edecd24	0.43515885
150	0x3c8d412d	0.017242992
151	0x3cc15f20	0.02360493
152	0x3d364021	0.04449475
153	0xbeb26e3b	-0.34849724
154	0x3ece1e90	0.40257692
155	0xbf48f12f	-0.78493017
156	0xbe6e6555	-0.23280843
157	0x3e2701eb	0.16309325
158	0xbe5d1a01	-0.21591951
159	0x3dce9dd3	0.10088696
160	0xbe40b6a2	-0.18819669
161	0x3e7c7fb7	0.24658094
162	0xbc7f638e	-0.0155877005
163	0x3d507289	0.05089048
164	0xbf56d331	-0.83916
165	0xbe01297a	-0.12613478
166	0x3d18a3f1	0.03726572
167	0x3e56938a	0.20954719
168	0xbd1dd019	-0.038528536
169	0x3ebd1d5c	0.36936462
170	0x3e8ab902	0.27094275
171	0x3ec2afdb	0.38024792
172	0x3e393b4f	0.1808903
173	0x3ebdbefb	0.3705977
174	0xbe22fde2	-0.15917161
175	0x3f3df4b2	0.742015
176	0x3c899594	0.016794957
177	0x3cb79638	0.022410497
178	0xbd4adf1f	-0.04952919
179	0x3df57a39	0.11986203
180	0x3d084864	0.033272162
181	0x3e0a3f02	0.13500598
182	0x3f275a16	0.65371835
183	0xbe6b8638	-0.23000419
184	0xbde39223	-0.11111858
185	0x3e20532f	0.15656732
186	0x3e815b53	0.25264987
187	0x3b42cd9e	0.0029724608
188	0x3e31ce90	0.17363954
189	0x3e8ef644	0.2792226
190	0x3e8d468d	0.27592888
191	0x3e406b33	0.18790893
192	0xbeed5863	-0.46356496
193	0xbdd4508d	-0.10366926
194	0xbf0fd2e0	-0.56181145
195	0xbe327cb7	-0.17430387
196	0x3dcf5526	0.10123663
197	0x3e1d72b4	0.15375787
198	0xbe5aee64	-0.21380001
199	0x3e7edfc5	0.24890049
200	0xbbdffec7	-0.0068357917
201	0x3d28b8fa	0.041192032
202	0xbe7baa42	-0.24576667
203	0x3e77a717	0.24184833
204	0x3eb6d959	0.35712698
205	0xbf1ddcb9	-0.6166492
206	0xbc787ced	-0.015166503
207	0xbe1c826f	-0.15284131
208	0x3e5d6efb	0.21624367
209	0xbde06c02	-0.10958101
210	0xbe718b35	-0.2358826
211	0xbd1d5e56	-0.038420044
212	0x3c0bdbce	0.008536292
213	0x3d37bcc8	0.04485777
214	0x3f16da5d	0.58926946
215	0x3f72fb92	0.94915116
216	0x3ec061d3	0.37574634
217	0x3e3b6afe	0.18302533
218	0x3e5f56ae	0.2181041
219	0xbbc41713	-0.005984196
220	0xbc1a6507	-0.009423501
221	0x3e8710b6	0.26379937
222	0xbe8079dc	-0.2509297
223	0x3d80fb30	0.0629791
224	0x3ee930a3	0.4554492
225	0x3eda8236	0.42677468
226	0x3e5edc03	0.21763615
227	0x3e779c42	0.24180701
228	0x3daaa6f6	0.083326265
229	0xbe2f529f	-0.17121361
230	0x3a14d20b	0.0005677051
231	0xbe53deee	-0.2069051
232	0xbe1211c6	-0.14264593
233	0x3f068c16	0.52557504
234	0xbd9d4f42	-0.07681133
235	0xbef70827	-0.48248407
236	0xbe13a3c3	-0.14417939
237	0x3d53959e	0.051656358
238	0xbe164877	-0.1467608
239	0x3de60a5f	0.11232447
240	0x3dcebb6f	0.10094344
241	0xbe886afb	-0.2664412
242	0x3e13033f	0.14356707
243	0xbe766ef7	-0.24065767
244	0x3ebe6c02	0.37191778
245	0x3ed25992	0.41083962
246	0xbcfff5c2	-0.031245116
247	0xbec4f4fc	-0.38468158
248	0xbdfcd1f9	-0.123447366
249	0xbeb8bdbc	-0.36082256
250	0xbe001ed3	-0.12511759
251	0xbe01a9b3	-0.12662391
252	0x3e4e37e9	0.20138516
253	0x3eed5658	0.46354938
254	0xbe51f7e7	-0.20504723
255	0xbef42389	-0.4768336

bias f4 [64]
0	0xbe4fdc87	-0.20298968
1	0xbdd8ae7f	-0.105801575
2	0xbe813bcb	-0.2524093
3	0x3e9518a4	0.29120362
4	0x3e10c13b	0.14136212
5	0x3e91e4f3	0.28494987
6	0xbe8b6a77	-0.27229664
7	0xbc161e5b	-0.009162511
8	0x3db04555	0.08606974
9	0x3e6d9af5	0.23203643
10	0xbcd348fa	-0.025791634
11	0x3ef33165	0.47498623
12	0xbdd1be85	-0.10241417
13	0x3d1662fc	0.036715493
14	0xbcd084aa	-0.025453884
15	0xbd4b5ecf	-0.049650963
16	0xbdf67d0d	-0.1203557
17	0xbe6b7967	-0.2299553
18	0x3e725108	0.23663723
19	0x3e1455b0	0.14485812
20	0xbdad69d6	-0.08467452
21	0x3e2dab51	0.16959883
22	0x3e2190db	0.15777914
23	0xbe15f5c8	-0.1464454
24	0xbe3ffb93	-0.18748312
25	0x3dd1a566	0.102366254
26	0x3cbde1dd	0.023178989
27	0xbe1dc560	-0.15407324
28	0xbe9a2125	-0.30103412
29	0x3d052ede	0.0325154
30	0x3e24c33b	0.160901
31	0xbe8c2e7d	-0.27379218
32	0xbe122c7e	-0.14274785
33	0x3de05526	0.10953741
34	0xbe98b030	-0.2982192
35	0x3e83c7d2	0.25738388
36	0x3e5b5568	0.21419299
37	0xbdeba926	-0.11506872
38	0xbe0eeb03	-0.13956837
39	0x3dce7f7e	0.10082911
40	0xbe27952d	-0.163655
41	0x3e94b16a	0.29041606
42	0x3c3bfd1f	0.011473923
43	0xbdd5f1ae	-0.10446487
44	0xbe4f2af4	-0.20231229
45	0x3dd134f4	0.10215178
46	0xbe168982	-0.14700893
47	0xbe8c02eb	-0.27345976
48	0x3e09c5f5	0.13454421
49	0xbe0db8de	-0.13840052
50	0x3c1e7175	0.009670605
51	0x3e6cfc8b	0.23143212
52	0xbebb51cf	-0.36585853
53	0xbeb291be	-0.34876817
54	0xbee4536e	-0.44594902
55	0x3df0fad1	0.117665894
56	0x3cbe3c50	0.023222119
57	0x3e85e394	0.2615019
58	0x3e53215d	0.20618196
59	0x3ebd16e8	0.3693154
60	0xbeadb9e6	-0.33930892
61	0x3e0b5ef6	0.13610443
62	0x3eb37285	0.3504831
63	0xbe030941	-0.12796499

weight f4 [32, 32]
0	0xbdc9e302	-0.098577514
1	0xbe4c5807	-0.19955455
2	0x3e56a2bc	0.20960516
3	0x3c1f9fff	0.009742736
4	0xbe14ae96	-0.14519724
5	0x3c6a3da1	0.01429692
6	0xbd8ab5f3	-0.06772985
7	0x3da93f0c	0.08263978
8	0xbe1db380	-0.15400505
9	0xbf0c201d	-0.547365
10	0x3dcf290e	0.101152524
11	0x3d7464e2	0.05966652
12	0xbce5788e	-0.028011587
13	0x3e4b9c16	0.19883761
14	0xbe48fdf3	-0.19628124
15	0x3e8f4d54	0.27988684
16	0x3c6b7e29	0.014373341
17	0x3e8cd7ac	0.27508295
18	0x3e4571b7	0.1928166
19	0x3eb0ddcd	0.3454422
20	0xbe99374c	-0.29925
21	0x3e4df451	0.2011273
22	0x3c440ae4	0.011965487
23	0xbeff618e	-0.49879116
24	0xbd501d5e	-0.050809257
25	0x3e034633	0.12819748
26	0x3e271555	0.16316731
27	0x3e05904a	0.13043323
28	0x3e1fd6da	0.15609303
29	0x3dec5df6	0.11541359
30	0xbd8c5521	-0.068521746
31	0x3ea26cfe	0.3172378
32	0x3e19b6b0	0.15011096
33	0xbd1cf614	-0.038320616
34	0xbf0fd47c	-0.561836
35	0x3d8d5bf5	0.06902305
36	0xbe5035a9	-0.2033297
37	0x3d698e07	0.057020213
38	0x3e331384	0.17487913
39	0xbd9bb06f	-0.076020114
40	0xbeb1e750	-0.3474679
41	0xbeabd2e4	-0.33559334
42	0xbe8fa7cf	-0.28057715
43	0xbea204ff	-0.31644437
44	0x3ea41599	0.32047728
45	0xbd0d5399	-0.034503553
46	0xbd4ab35f	-0.049487468
47	0xbdceb8f1	-0.100938685
48	0x3bccaf74	0.0062465016
49	0x3e50db2b	0.20396106
50	0x3e79b371	0.24384858
51	0x3eec3190	0.46131563
52	0x3e38e76a	0.18057027
53	0xbde23fdd	-0.11047337
54	0xbc048ee6	-0.00809071
55	0x3d6836a3	0.05669273
56	0x3db76447	0.08954673
57	0xbcf08505	-0.029360304
58	0x3e217083	0.15765576
59	0x3e200bc2	0.15629485
60	0xbe4c6573	-0.19960575
61	0xbe9c9235	-0.30580297
62	0x3e661c1c	0.2247166
63	0xbde3f7a6	-0.111312196
64	0x3e99a65f	0.30009744
65	0xbe5b4578	-0.21413219
66	0x3e1bbdae	0.15209076
67	0xbf216092	-0.6303798
68	0xbe7af69c	-0.24508137
69	0x3d239da0	0.039945245
70	0xbe5b2645	-0.21401317
71	0xbe4c36ce	-0.19942781
72	0xbe3e1609	-0.18563093
73	0x3e607401	0.21919252
74	0x3e2f86c2	0.1714125
75	0xbdc0ea85	-0.09419731
76	0xbed4417c	-0.4145621
77	0x3ec204a3	0.37894163
78	0xbec6f939	-0.38862017
79	0x3c9512ae	0.018197384
80	0x3d5a1037	0.05323812
81	0x3ececc73	0.40390357
82	0x3ec48589	0.3838313
83	0xbf025cc2	-0.5092279
84	0xbdad6a03	-0.08467486
85	0x3dac5e15	0.08416382
86	0xbe1014da	-0.14070454
87	0xbeb28b20	-0.3487177
88	0xbde34e58	-0.11098927
89	0xbdbe8dad	-0.09304366
90	0x3cf093bf	0.029367326
91	0xbdc97e28	-0.098385155
92	0x3e5d4de7	0.21611749
93	0xbe7b3cf2	-0.24534968
94	0xbe8a882e	-0.27057022
95	0xbd520446	-0.051273607
96	0x3ea07369	0.3133805
97	0xbe54359b	-0.20723574
98	0x3e22ef75	0.15911658
99	0x3e2b836b	0.1674935
100	0xbdec78c4	-0.11546472
101	0x3e3ef650	0.18648648
102	0x3eb5f34f	0.35537192
103	0xbe6850e2	-0.22687104
104	0xbe4ea456	-0.20179877
105	0x3e8a1d10	0.26975298
106	0x3de2bec2	0.110715404
107	0xbe145f0c	-0.14489383
108	0x3eb7f8fe	0.35932153
109	0xbe2c738f	-0.16840957
110	0xbd59ba1b	-0.053156
111	0xbcdf7573	-0.027277684
112	0xbe81db97	-0.25362846
113	0x3d0b45e4	0.0340022
114	0xbe21305f	-0.15741108
115	0x3e901fca	0.28149253
116	0xbd305453	-0.043049168
117	0x3d29257f	0.041295525
118	0x3e2852b5	0.164378
119	0x3d6cf27d	0.057848442
120	0xbd79dcba	-0.061001517
121	0x3c776e04	0.015101913
122	0x3d8f86df	0.070081465
123	0x3eb39a52	0.35078675
124	0xbdf3868b	-0.118908964
125	0xbc55b177	-0.013042799
126	0x3e72a5b2	0.2369602
127	0x3d8a6db9	0.06759209
128	0xbea78451	-0.32718137
129	0xbd443edc	-0.04791151
130	0x3e54fab3	0.20798759
131	0xbdc23b0c	-0.094839185
132	0x3e3e2a05	0.18570717
133	0xbdcf5360	-0.101233244
134	0x3db81646	0.08988623
135	0x3e8f4485	0.27981964
136	0x3da4ac26	0.08040647
137	0xbe8f0f3c	-0.2794131
138	0x3dd17c3b	0.10228773
139	0x3e4fb71f	0.20284699
140	0xbe0cd47f	-0.13752936
141	0x3db82141	0.08990718
142	0x3d0c473e	0.03424763
143	0x3d6c8bf6	0.057750665
144	0xbda3dd16	-0.08001153
145	0xbc922593	-0.017840182
146	0x3daa364c	0.083111376
147	0x3e98c321	0.29836372
148	0x3e3fa450	0.18715024
149	0xbeb44c56	-0.3521449
150	0x3e1b7c49	0.1518413
151	0x3e27e366	0.1639534
152	0x3e2876bc	0.16451544
153	0x3ec0186b	0.3751863
154	0x3c0118d9	0.007879459
155	0xbe6854f8	-0.22688663
156	0x3dadd924	0.08488682
157	0x3ebc3841	0.36761668
158	0x3d0b7b28	0.034052998
159	0xbe2759ea	-0.16342893
160	0x3ef328dd	0.47492114
161	0xbd3b24c0	-0.045689344
162	0x3b0ffac9	0.0021969548
163	0xbefc0014	-0.4921881
164	0xbccb7da0	-0.024840176
165	0x3e75b049	0.23993029
166	0xbca3ac38	-0.019979581
167	0xbe03867f	-0.12844275
168	0xbc252364	-0.010079239
169	0x3e08c9ce	0.13358232
170	0x3dfdd65f	0.12394404
171	0x3dd898ea	0.10576041
172	0xbe09d78e	-0.13461134
173	0x3e23b556	0.15987143
174	0xbe75482f	-0.23953317
175	0xbde5c89e	-0.11219905
176	0xbdb0f8be	-0.08641194
177	0xbe049644	-0.12947947
178	0x3dfc9402	0.12332918
179	0xbec415b5	-0.3829781
180	0xbe02d983	-0.12778287
181	0x3dfc2d93	0.1231338
182	0xbe62f7d5	-0.22164853
183	0xbb96540a	-0.004587655
184	0xbe43a99d	-0.19107671
185	0x3e9b1da3	0.3029605
186	0x3cf8aae0	0.030354917
187	0x3d2786e2	0.04090012
188	0xbdc84e49	-0.09780557
189	0xbe96a252	-0.29420716
190	0xbd5e9d8b	-0.054349463
191	0x3d2c41d4	0.042054966
192	0xbe3a3809	-0.18185438
193	0x3bf44906	0.007454994
194	0x3de484dc	0.111581534
195	0x3d29ea12	0.041482992
196	0x3c653cf1	0.01399158
197	0xbdfda73a	-0.123854116
198	0x3f04f033	0.51929015
199	0x3e926e90	0.28599977
200	0x3ddde712	0.10835089
201	0x3e36fb55	0.17869313
202	0x3d5a56f1	0.05330557
203	0x3eb7e66d	0.35917988
204	0xbe56f258	-0.20990884
205	0xbe3bdfac	-0.18347043
206	0x3e6ad31f	0.22932099
207	0xbe1ca2d1	-0.15296485
208	0xbd97d5a4	-0.074137956
209	0xbe927d0d	-0.2861103
210	0xbe83daac	-0.2575277
211	0x3d9a6877	0.07539456
212	0x3d555d9e	0.052091233
213	0xbeb48c57	-0.3526332
214	0x3ebd0e6c	0.36925066
215	0x3ee8f909	0.455025
216	0x3e4b8ac8	0.1987716
217	0x3e472a1c	0.19449657
218	0x3d6c5620	0.057699323
219	0xbe04dcc3	-0.12974839
220	0xbdd67efd	-0.1047344
221	0xbbe0d293	-0.00686104
222	0x3db97ae9	0.090566464
223	0xbdbab335	-0.09116212
224	0x3e4d8482	0.20070079
225	0xbcfeee8c	-0.031119607
226	0x3e0c6a54	0.13712436
227	0xbe9019bf	-0.28144643
228	0x3da0b56d	0.07847104
229	0x3e7e56e5	0.24837835
230	0x3e99127c	0.29896915
231	0x3e3a1208	0.18170941
232	0xbdf042dc	-0.117315024
233	0x3be7ed7c	0.007077871
234	0xbde7ca5c	-0.11317894
235	0x3e503c53	0.20335512
236	0x3e91b1ac	0.28455865
237	0x3deb807b	0.11499115
238	0xbd05a5ac	-0.0326287
239	0x3e896e51	0.26841977
240	0x3da34717	0.07972544
241	0x3e24d436	0.16096577
242	0x3d020b57	0.031749096
243	0x3efaa4d1	0.4895387
244	0x3e130098	0.14355695
245	0x3d8e19bc	0.06938502
246	0x3dcd9ad1	0.100392945
247	0xbd5b12b4	-0.053484634
248	0x3e24d639	0.16097344
249	0x3dd63103	0.10458567
250	0x3d998233	0.07495537
251	0x3e568b31	0.20951535
252	0x3ccdb04e	0.025108483
253	0xbdab6312	-0.083685055
254	0x3e2d2e1b	0.16912119
255	0xbdc423fa	-0.095771745

bias f4 [32]
0	0xbe21c02a	-0.15795961
1	0xbda33caa	-0.07970555
2	0x3e635a64	0.2220245
3	0xbd955c08	-0.07292944
4	0xbe5ed39a	-0.21760407
5	0x3e013f90	0.12621903
6	0x3d83801f	0.064209215
7	0x3e212993	0.15738516
8	0x3dcf3cb8	0.10119003
9	0xbcdbb7ac	-0.02682098
10	0x3deebbb1	0.11656893
11	0x3e22cca4	0.15898377
12	0xbdc799b8	-0.097461164
13	0xbb2c188d	-0.002625975
14	0xbd11aa31	-0.035562698
15	0x3e30f2f9	0.17280187
16	0xbe43783d	-0.19088836
17	0x3dc3356f	0.09531676
18	0x3d64c03e	0.0558474
19	0xbd2b6f45	-0.04185416
20	0x3e20d779	0.15707196
21	0xbe04a0f2	-0.12952021
22	0xbdbd331d	-0.09238265
23	0x3dab1a18	0.08354586
24	0xbdca7fd5	-0.09887663
25	0x3d8355d6	0.06412856
26	0xbe39bec0	-0.18139172
27	0xbe832513	-0.25614223
28	0xbe4ae86c	-0.19815224
29	0xbe3d6ca9	-0.18498482
30	0xbd011326	-0.031512402
31	0xbc90ebc3	-0.017690545

weight f4 [32, 64]
0	0xbd50c808	-0.050972015
1	0x3b87ada0	0.0041405708
2	0xbd7e4a08	-0.06208232
3	0x3d411508	0.047139198
4	0xbdda2048	-0.106506884
5	0x3dbba8c4	0.09163049
6	0xbdba1234	-0.09085503
7	0xbdcb87de	-0.09938024
8	0xbda1c35a	-0.078985885
9	0x3d67e1a8	0.056611687
10	0xbd3d2e14	-0.04618652
11	0x3d3f98e4	0.046776667
12	0xbdd94654	-0.10609117
13	0xbd9b523e	-0.07584046
14	0xbd3bfe80	-0.045897007
15	0xbcc93c78	-0.024564967
16	0xbdc34b04	-0.095357925
17	0x3da7a05e	0.081848845
18	0xbcf17db8	-0.029478893
19	0x3d245880	0.040123463
20	0x3db5075c	0.08839294
21	0x3cbec700	0.02328825
22	0x3d0c01bc	0.03418134
23	0x3df71b32	0.12065734
24	0xbd66eab4	-0.056376174
25	0x3d222d38	0.039593905
26	0xbd63cc0c	-0.055614516
27	0x3db6f348	0.08933121
28	0x3dcc74c0	0.09983206
29	0xbdec0660	-0.115246534
30	0x3dda8888	0.106705725
31	0x3d747cc4	0.0596893
32	0x3d5f1cdc	0.05447088
33	0x3d52c70c	0.051459357
34	0x3dd4d004	0.10391238
35	0xbc873560	-0.016504943
36	0xbdd87fb2	-0.10571231
37	0xbd12eaf8	-0.035868615
38	0xbdb44b58	-0.08803433
39	0x3c0762f0	0.008263335
40	0xbcbf3040	-0.023338437
41	0xbd895086	-0.06704812
42	0xbc3a3500	-0.011365175
43	0x3df2890e	0.11842547
44	0xbc218970	-0.009859428
45	0x3b820c60	0.0039687604
46	0xbc9fb420	-0.01949507
47	0x3ca0fae0	0.019650877
48	0x3de41968	0.11137658
49	0x3d9c8acc	0.07643661
50	0x3d35bd84	0.04437019
51	0x3cde86a8	0.027163818
52	0x3cf173b0	0.02947411
53	0x3d45cd78	0.048291653
54	0xbc845328	-0.016152933
55	0xbdededbc	-0.1161761
56	0xbd9e503e	-0.07730149
57	0x3dda8498	0.106698215
58	0x3bf4d500	0.0074716806
59	0xbdcf60fa	-0.10125919
60	0x3ca18350	0.019715935
61	0x3dd3868a	0.10328396
62	0xbdf1eb80	-0.11812496
63	0xbdac596a	-0.08415492
64	0xbd4be978	-0.0497832
65	0x3ba46740	0.005017191
66	0xbceed3b0	-0.029153675
67	0xbc610ea0	-0.013736397
68	0xbdf99266	-0.121861264
69	0x3d6fc248	0.05853489
70	0x3de0b3c8	0.109717906
71	0x3d9c7a1e	0.076404795
72	0xbdb5482a	-0.08851655
73	0xbdce5cca	-0.10076292
74	0x3d549bf4	0.05190654
75	0x3b37fb00	0.0028073192
76	0x3d51e278	0.051241368
77	0xbdfa2698	-0.122143924
78	0xbbf43740	-0.0074528754
79	0x3db48ada	0.08815546
80	0x3d6d85cc	0.057988927
81	0x3b959340	0.0045646727
82	0x3cc95680	0.02457738
83	0xbc41e7a0	-0.011835009
84	0xbd8cc1e4	-0.06872919
85	0xbd417c04	-0.04723741
86	0xbd9be618	-0.07612246
87	0x3dd4a2ce	0.10382615
88	0x3d8cdf96	0.06878583
89	0x3d330ed8	0.043715328
90	0xbdc45072	-0.09585656
91	0x3dc58902	0.09645273
92	0x3d2088ac	0.03919284
93	0x3db11974	0.08647433
94	0xbd496a6c	-0.049173757
95	0x3cd915b8	0.026499614
96	0x3df9f432	0.1220478
97	0x3dac3364	0.084082395
98	0x3dcd4fa8	0.10024959
99	0xbcd70640	-0.026248097
100	0x3dc30a62	0.09523465
101	0xbdc881e8	-0.09790403
102	0x3c312120	0.01081112
103	0xbd90245e	-0.070381865
104	0xbceecff8	-0.029151902
105	0xbd031f34	-0.03201218
106	0x3c193ac0	0.009352386
107	0x3de8feea	0.11376746
108	0x3d7d7ba4	0.06188549
109	0xba0ad000	-0.00052952766
110	0x3db5b870	0.08873069
111	0xbd83304a	-0.06405695
112	0x3d83ef62	0.06442143
113	0xbc3deaa0	-0.0115915835
114	0xbcb22fe8	-0.02175136
115	0x3c6fc430	0.014634177
116	0xbdc41eea	-0.09576209
117	0x3c6ca950	0.014444664
118	0x3d2c2764	0.042029753
119	0x3ddadcce	0.106866464
120	0xbd1f685c	-0.038917884
121	0x3d385588	0.045003444
122	0x3dffe006	0.12493901
123	0xbd5ba1d4	-0.05362113
124	0x3df35a06	0.11882405
125	0xbd7e3434	-0.062061504
126	0x3d61afe0	0.055099368
127	0x3d489378	0.048968762
128	0x3d0f0418	0.034916013
129	0x3dca7212	0.098850384
130	0xbd4eeea4	-0.050520554
131	0x3d069038	0.03285238
132	0x3a37e600	0.00070151687
133	0xbdc08c5a	-0.0940177
134	0xbcf8a438	-0.030351743
135	0xbdaaf674	-0.083477885
136	0x3d626230	0.05526942
137	0x3c381b60	0.011236995
138	0x3c48a1b0	0.012245581
139	0xbd1b5368	-0.03792134
140	0x3a1d9100	0.00060106814
141	0xbd1f410c	-0.038880393
142	0x3d131db8	0.035917014
143	0x3df89e94	0.121396214
144	0x3c9b1b18	0.018933818
145	0xbd62c630	-0.055364788
146	0xbd9c5f3a	-0.076353505
147	0x3c1c8c10	0.009554878
148	0xbdbde9a2	-0.092730775
149	0xbdc06c26	-0.09395628
150	0xbda69fe0	-0.081359625
151	0xbd2de5ec	-0.0424556
152	0x3c179680	0.009252191
153	0x3db048da	0.08607645
154	0x3d465158	0.04841742
155	0x3dc4205c	0.095764846
156	0xbda0bde2	-0.07848717
157	0x3c2cd3b0	0.010548517
158	0xbde38db0	-0.11111009
159	0x3d92db32	0.071707144
160	0x3cd56968	0.026051238
161	0x3df79b62	0.12090184
162	0xbdb61200	-0.08890152
163	0x3dcd4b46	0.10024123
164	0x3dd81f3a	0.10552831
165	0x3dcefb02	0.1010647
166	0x3c921e98	0.017836854
167	0x3de8c688	0.11365992
168	0x3daaf73c	0.083479375
169	0x3dbeff0e	0.093259916
170	0xbc050a30	-0.008120105
171	0xbdc47434	-0.095924765
172	0xbacbe200	-0.0015555024
173	0x3cc00a08	0.023442283
174	0xbdae6118	-0.08514613
175	0xbd92da04	-0.071704894
176	0xbdf57068	-0.119843304
177	0xbd337af4	-0.04381843
178	0x3ddefe58	0.10888356
179	0x3caf1998	0.021374509
180	0xbbfa2f20	-0.0076350123
181	0x3ba47cc0	0.005019754
182	0x3d9fa0b0	0.077943206
183	0xbde21074	-0.110382944
184	0xbdc586e6	-0.096448705
185	0xbd2a3990	-0.041558802
186	0xbd935528	-0.07193977
187	0x3d840a7e	0.06447314
188	0x3db4e2a8	0.08832294
189	0xbdf860b8	-0.12127823
190	0xbdd94312	-0.10608496
191	0xbdf94c20	-0.12172723
192	0x3d412780	0.04715681
193	0x3dce0af2	0.100606814
194	0xbdc67cb0	-0.09691751
195	0xbd6d08a0	-0.057869554
196	0x3d22edd0	0.039777577
197	0xbda72a0c	-0.08162317
198	0x3dd9777e	0.106184945
199	0x3ceec1d0	0.029145151
200	0xbd0e884c	-0.03479795
201	0x3c0504d0	0.008118823
202	0x3d1fa020	0.038971066
203	0xbd350cc8	-0.044201642
204	0xbdc65cf4	-0.09685698
205	0x3a5c4100	0.000840202
206	0x3b153780	0.0022768676
207	0x3b253180	0.0025206506
208	0xbc956ec0	-0.018241286
209	0x3da45eee	0.08025919
210	0xbd0ee0d8	-0.034882396
211	0xbc463b40	-0.012099087
212	0x3d528730	0.051398456
213	0xbda122ce	-0.078679666
214	0x3d0917a8	0.033469826
215	0xbce26c28	-0.027639464
216	0x3d7597c4	0.059959188
217	0xbd8adef2	-0.06780805
218	0x3b9761a0	0.004619792
219	0x3c485ac0	0.012228668
220	0xbdcdfa0a	-0.10057457
221	0xbdba25fe	-0.09089278
222	0x3d445bdc	0.047939166
223	0xbd15055c	-0.036382064
224	0x3d98099c	0.07423708
225	0xbdfce490	-0.12348282
226	0xbd7d18a4	-0.061791077
227	0xbdd2db82	-0.10295774
228	0x3d4c8784	0.049933925
229	0xbb6d7f40	-0.0036239177
230	0xbcbeff78	-0.023315176
231	0xbcaa5d40	-0.020796418
232	0xbdc81a24	-0.09770611
233	0x3d11335c	0.03544937
234	0x3b4c3140	0.0031157285
235	0xbdb0ab3e	-0.08626412
236	0x3d40a8c8	0.047035962
237	0xbb24a6c0	-0.0025123805
238	0xbdf796fc	-0.12089345
239	0x3d89b524	0.06724003
240	0x3d88ee5c	0.066860884
241	0xbcc0ee98	-0.02355127
242	0xbdb0c08e	-0.08630477
243	0x3ba47460	0.005018756
244	0x3dc12c24	0.09432247
245	0x3dea53b6	0.11441748
246	0xbdc13aa4	-0.09435013
247	0xbd674128	-0.056458622
248	0x3dc753ee	0.09732805
249	0x3d7a4124	0.06109728
250	0x3d9e77a2	0.07737662
251	0xbd7ed708	-0.06221679
252	0x3ddc8d86	0.10769181
253	0xbdd272ea	-0.10275824
254	0xbbc54cc0	-0.006021112
255	0x3b2a1700	0.002595365

bias f4 [32]
0	0x3bc4a0e0	0.006000623
1	0xbdf590fa	-0.11990543
2	0x3c824228	0.015900686
3	0x3d34205c	0.043976173
4	0x3de51af6	0.11186783
5	0xbd25f43c	-0.040516123
6	0x3d38ac5c	0.04508625
7	0xbd2b9140	-0.041886568
8	0xbd340bb4	-0.043956473
9	0xbde2d6e8	-0.11076146
10	0x3cd823a8	0.02638419
11	0x3dabc6c2	0.083875194
12	0xbd8e6972	-0.06953706
13	0x3d5152e4	0.05110444
14	0xbc9fbaf8	-0.019498333
15	0xbdb5c1a4	-0.08874825
16	0x3c5a6040	0.013328612
17	0xbdf978e2	-0.1218126
18	0x3d893b9e	0.06700824
19	0xbce24198	-0.027619168
20	0x3debc534	0.11512223
21	0x3b973520	0.0046144873
22	0xbdf8308a	-0.12118633
23	0x3dc6a8d2	0.09700169
24	0xbcdffb10	-0.027341396
25	0xbdaf5ae6	-0.085622594
26	0x3dec5cbc	0.11541125
27	0x3c3f4760	0.011674732
28	0x3d25ff34	0.040526584
29	0xbddd7652	-0.108135834
30	0xbd34d278	-0.04414603
31	0x3dcd66e6	0.10029392

weight_ih_l0 f4 [128, 32]
0	0xbd6b8bb0	-0.057506263
1	0x3d66f80a	0.056388892
2	0xbdf51e8d	-0.11968718
3	0xbd1dc74b	-0.03852014
4	0xbe29cfb0	-0.16583133
5	0x3e0af9bb	0.13571827
6	0xbe568642	-0.20949653
7	0xbee28315	-0.44240633
8	0xbe38280a	-0.17984024
9	0x3e97fa88	0.29683328
10	0xbe3147e7	-0.17312585
11	0xbde92383	-0.113837264
12	0x3da60684	0.081067115
13	0xbdeec5f0	-0.11658847
14	0x3dc1f859	0.09471197
15	0x3e81e41e	0.25369352
16	0x3d42330f	0.047411975
17	0x3e6d6546	0.23183164
18	0xbe91ed19	-0.28501204
19	0x3cd15fbd	0.025558347
20	0xbeb1bb3d	-0.34713164
21	0xbde2c463	-0.11072614
22	0xbe736367	-0.23768388
23	0xbec42e1c	-0.3831643
24	0xbe4050cb	-0.1878082
25	0xbe908f12	-0.28234154
26	0xbc89c3fc	-0.016817085
27	0x3d714775	0.058906037
28	0x3d99f3c2	0.07517196
29	0xbe5df7e3	-0.21676593
30	0x3e786306	0.24256524
31	0xbedc658b	-0.4304622
32	0x3c952d88	0.018210188
33	0xbdf8c98d	-0.12147818
34	0xbe8f8095	-0.28027788
35	0xbe307aa9	-0.17234291
36	0x3db75a55	0.08952776
37	0x3d720b91	0.05909306
38	0x3dcdbff2	0.10046376
39	0xbe835b6d	-0.2565569
40	0xbdc2e337	-0.09515994
41	0x3e90b269	0.28261116
42	0x3de4df0b	0.111753546
43	0xbccdd2b6	-0.025124889
44	0x3ea956b9	0.33073977
45	0x3d54d90f	0.051964816
46	0xbdba470b	-0.090955816
47	0xbe45a3c4	-0.19300753
48	0x3d63cdbd	0.05561613
49	0x3dabcda6	0.08388834
50	0xbdcdbc0f	-0.10045635
51	0x3df8af63	0.12142827
52	0xbeb2d0e8	-0.34925008
53	0xbdc7943f	-0.097450726
54	0xbd36cbff	-0.04462814
55	0xbed7ed64	-0.42173302
56	0x3ced4863	0.02896518
57	0x3b74e6c4	0.0037368992
58	0x3e4de2d9	0.20106067
59	0x3d42d011	0.04756171
60	0xbce9bb1a	-0.0285316
61	0xbb317999	-0.0027080534
62	0x3e1d6c08	0.15373242
63	0xbe1ba13b	-0.15198223
64	0x3e1891c4	0.14899355
65	0x3e8f0116	0.27930516
66	0x3d88b016	0.06674211
67	0xbe687d4e	-0.2270405
68	0x3dcda65d	0.10041497
69	0xbe9fd1b5	-0.3121468
70	0xbcb447f6	-0.02200697
71	0xbed00d08	-0.40634942
72	0xbcb31553	-0.021860754
73	0x3ea6f250	0.32606745
74	0x3e86b8cd	0.26312867
75	0xbe89653d	-0.2683505
76	0xbbe4bea4	-0.006980734
77	0xbe3f7195	-0.18695672
78	0xbc4f2659	-0.01264342
79	0xbd325a68	-0.04354325
80	0x3eb42b96	0.35189503
81	0x3f136801	0.5758057
82	0xbbce6421	-0.0062985574
83	0x3dcbdd43	0.09954312
84	0xbca64dc3	-0.020300752
85	0x3ddb04c6	0.1069427
86	0xbe88257e	-0.26591104
87	0xbf30f43f	-0.6912269
88	0xbe00c9d0	-0.12576985
89	0xbede0839	-0.43365648
90	0x3e38ae9e	0.18035361
91	0x3ebde76c	0.37090623
92	0x3e27312c	0.16327351
93	0xbe346676	-0.17617211
94	0xbcb4a73e	-0.022052404
95	0xbc7868d4	-0.015161712
96	0x3dbf98ca	0.09355314
97	0x3d4cea8a	0.05002836
98	0xbe2358cf	-0.15951847
99	0xbf061d95	-0.5238889
100	0xbe1a68d6	-0.15079054
101	0xbe1362f7	-0.14393221
102	0x3d688ad6	0.05677303
103	0xbf2688f4	-0.65052724
104	0x3dcf4471	0.10120476
105	0x3e878e16	0.2647559
106	0xbe07e327	-0.13270245
107	0x3e23d55d	0.1599936
108	0x3e8eaa1b	0.27864155
109	0xbe4613eb	-0.19343536
110	0x3df6e416	0.12055223
111	0x3eb45f7f	0.35229108
112	0x3dd0d91c	0.1019766
113	0x3e80cc4b	0.25155863
114	0xbe3a0d67	-0.18169175
115	0xbe34fb7a	-0.17674056
116	0x3d951706	0.07279782
117	0xbe8c8541	-0.27445415
118	0xbe4d54a5	-0.2005182
119	0xbf17235f	-0.59038347
120	0xbe409601	-0.18807222
121	0xbea6031d	-0.3242425
122	0xbc927816	-0.017879527
123	0x3dcb414b	0.09924563
124	0x3c9cf7f2	0.019161198
125	0x3d7c68f9	0.061623547
126	0xbc7b7d14	-0.015349645
127	0xbd5c431d	-0.05377494
128	0xbdb7f7ef	-0.089828365
129	0x3bb5ad3b	0.0055443323
130	0x3dc6bc48	0.097038805
131	0xbed8a845	-0.4231588
132	0xbe6c7a31	-0.23093487
133	0xbe074657	-0.13210426
134	0xbdd78604	-0.10523608
135	0xbee1b65b	-0.4408444
136	0xbc9b93ba	-0.01899134
137	0x3e3708de	0.17874476
138	0x3de07cb3	0.109612845
139	0x3e2d1548	0.1690265
140	0x3eba6986	0.36408633
141	0xbe7e2274	-0.2481783
142	0xbcd36aab	-0.0258077
143	0x3e127246	0.14301404
144	0x3dcf1620	0.10111642
145	0x3f1ff987	0.62490124
146	0xbe848ef4	-0.25890315
147	0xbe89a555	-0.2688395
148	0xbcab8e46	-0.020941865
149	0xbea7e348	-0.3279059
150	0xbe3d08ab	-0.18460338
151	0xbf1433cc	-0.57891536
152	0xbe89f60f	-0.2694554
153	0xbe9742c7	-0.29543135
154	0x3dd35c40	0.1032033
155	0x3e7e315a	0.24823514
156	0x3e720485	0.23634537
157	0xbe12f74c	-0.14352149
158	0xbe66dc67	-0.22545014
159	0xbdbb808a	-0.09155376
160	0xbe363c3e	-0.17796418
161	0xbc8056eb	-0.015666446
162	0xbe719bfa	-0.23594657
163	0xbe6b8e7a	-0.23003569
164	0xbe6eebca	-0.23332134
165	0x3de57af2	0.112050906
166	0xbe69637a	-0.22791854
167	0xbea8d033	-0.32971343
168	0xbea100e6	-0.31445998
169	0x3e3e3bce	0.18577501
170	0xbe45024e	-0.1923916
171	0x3d54f82c	0.051994488
172	0x3e7a8097	0.24463116
173	0x3d0b918a	0.034074344
174	0x3d76b31d	0.06022941
175	0x3e8a8046	0.2705099
176	0x3e9a9c6d	0.30197468
177	0x3e0ddd5d	0.13853975
178	0x3d45c39c	0.04828225
179	0xbea37063	-0.31921682
180	0xbed2b734	-0.41155398
181	0xbe10c431	-0.14137341
182	0x3d660bd8	0.05616364
183	0xbeee22ed	-0.4651102
184	0xbe07bf60	-0.13256598
185	0xbe92eee1	-0.28697875
186	0x3dd8c493	0.105843686
187	0x3e312336	0.17298588
188	0x3dd433ac	0.10361418
189	0xbd817b24	-0.06322315
190	0xbe8ce11e	-0.275155
191	0xbe4248da	-0.18973103
192	0x3e347b37	0.17625128
193	0x3dab8b99	0.083762355
194	0xbeddb9de	-0.43305868
195	0x3d16b3da	0.036792614
196	0x3e306910	0.17227578
197	0xbdccfa32	-0.100086585
198	0x3dab5eab	0.08367666
199	0xbe91aa69	-0.28450325
200	0xbde34cd3	-0.110986374
201	0xbde7d2e9	-0.11319525
202	0xbe0bfdc7	-0.13671027
203	0xbe239729	-0.15975632
204	0x3bb43624	0.005499618
205	0xbd4f00ec	-0.05053799
206	0x3d20505a	0.03913913
207	0xbdbe0e63	-0.09280088
208	0x3e203781	0.15646173
209	0x3e38a839	0.18032922
210	0xbe5ba0e5	-0.21448095
211	0x3cc5be2c	0.024138533
212	0xbe872375	-0.2639424
213	0xbd54a26f	-0.05191272
214	0x3d5e0c53	0.054210972
215	0xbef91075	-0.48645368
216	0xbd7e91dd	-0.062150825
217	0x3d2bfc32	0.04198856
218	0x3ca14c5b	0.01968973
219	0x3e57261f	0.21010636
220	0xbbf13388	-0.0073608793
221	0xbc214d6f	-0.009845122
222	0xbe38ff26	-0.18066081
223	0xbe0f595d	-0.13998933
224	0x3baf0020	0.005340591
225	0x3eeda4f8	0.46414924
226	0xbd6d9130	-0.05799979
227	0xbeccb6e2	-0.3998328
228	0xbdfabea6	-0.122433946
229	0xbef046da	-0.46929055
230	0xbde40b3a	-0.11134954
231	0xbf226794	-0.634393
232	0xbe637362	-0.22211984
233	0x3e6f57da	0.23373356
234	0x3b7bbc30	0.003841173
235	0xbe8204c4	-0.2539426
236	0x3dc5befb	0.09655567
237	0xbf0d8780	-0.5528488
238	0xbc02b499	-0.007977628
239	0xbd6dacc4	-0.05802609
240	0x3e537278	0.20649135
241	0x3e9e23d7	0.3088672
242	0xbe7fdd2b	-0.24986713
243	0x3e01e291	0.12684084
244	0xbdd79a3a	-0.10527463
245	0x3dc35f3a	0.095396474
246	0x3c8d6153	0.017258322
247	0xbf2ce431	-0.6753569
248	0x3e8206b8	0.2539575
249	0xbed77616	-0.4208228
250	0x3f0aa021	0.5415059
251	0x3ebd25ca	0.36942893
252	0x3e95cf1d	0.29259577
253	0x3da305e1	0.07960106
254	0xbe164da2	-0.14678052
255	0x3e1c2768	0.15249407

weight_hh_l0 f4 [128, 32]
0	0x3c18241e	0.009285955
1	0x3de63e82	0.11242391
2	0xbdc870a9	-0.09787113
3	0xbe1fe603	-0.15615086
4	0xbde7f380	-0.11325741
5	0xbb31f299	-0.0027152656
6	0x3e7ca8aa	0.24673715
7	0x3d33ed27	0.043927338
8	0x3e180a48	0.14847672
9	0xbdbc8bf1	-0.09206379
10	0xbdaedae3	-0.08537843
11	0xbd283c9b	-0.041073423
12	0xbd4c34d1	-0.049855057
13	0xbdc9777e	-0.098372445
14	0x3d9bf1ae	0.07614456
15	0x3dd3c21e	0.10339759
16	0x3b84f4f8	0.004057523
17	0xbcc17772	-0.023616526
18	0x3e428333	0.18995361
19	0xbcc1b839	-0.023647415
20	0x3e828a22	0.25496012
21	0xbb38a229	-0.0028172827
22	0xbd92864b	-0.071545206
23	0xbdfb554d	-0.12272129
24	0x3e34cfe7	0.17657433
25	0xbe0c4b98	-0.13700712
26	0x3da12d30	0.07869947
27	0x3e396b79	0.18107404
28	0xbdd1232d	-0.102117874
29	0xbdb1842e	-0.086677894
30	0x3d96c4ab	0.0736173
31	0xbde39f01	-0.11114312
32	0x3d046023	0.032318246
33	0x3e1b0d59	0.1514181
34	0xbdb75c39	-0.08953137
35	0x3e805299	0.25063017
36	0xbdaec11a	-0.08532925
37	0x3c5b4d01	0.013385058
38	0x3e3a13a7	0.1817156
39	0xbe13baa4	-0.14426666
40	0x3e0d33d5	0.13789304
41	0x3de55493	0.11197772
42	0xbe0c89b5	-0.13724406
43	0xbc991093	-0.018684661
44	0x3da98c23	0.08278682
45	0xbd888ffd	-0.066680886
46	0x3ceedc87	0.02915789
47	0x3b4a327e	0.003085285
48	0xbe07b51e	-0.13252684
49	0x3d876ca6	0.0661252
50	0x3d162238	0.036653727
51	0xbdecfe3c	-0.11571929
52	0x3deb221f	0.114811175
53	0xbe0d2191	-0.13782336
54	0xbdc66ed0	-0.096891046
55	0xbe9c2411	-0.30496266
56	0x3d64813c	0.05578731
57	0xbca648f0	-0.020298451
58	0x3dfc6d5e	0.12325548
59	0x3c83af04	0.016074665
60	0x3e51c2ce	0.20484468
61	0xbd656c4a	-0.056011476
62	0x3d7213c1	0.05910087
63	0xbdd4199e	-0.103564486
64	0xbba7d955	-0.0051223435
65	0x3ce0bfeb	0.027435264
66	0xbe2d9316	-0.1695064
67	0x3c573c05	0.013136868
68	0x3e6248ee	0.22098133
69	0x3dc6b7b3	0.097030066
70	0x3e52b53d	0.2057695
71	0x3d1f9473	0.03895993
72	0x3e198fd0	0.14996266
73	0x3df356af	0.11881768
74	0xbe382220	-0.17981768
75	0x3d699b79	0.057033036
76	0xbda06bac	-0.07833037
77	0x3dbbd73d	0.09171913
78	0xbe0bb287	-0.13642322
79	0x3e46b7f6	0.19406113
80	0x3e109db5	0.1412266
81	0x3df03569	0.11728937
82	0xbba37c0d	-0.0049891532
83	0xbe01a0f2	-0.12659052
84	0xbdf742b4	-0.120732695
85	0xbcfb1dd3	-0.03065387
86	0x3d81bc34	0.06334725
87	0xbe806e00	-0.25083923
88	0x3e5af361	0.21381904
89	0xbda42888	-0.08015543
90	0x3dc17a65	0.09447173
91	0xbcfe5c94	-0.031050004
92	0x3d3be8cd	0.045876313
93	0x3d22a0df	0.0397042
94	0xbd8b26d4	-0.06794515
95	0xbd8aec16	-0.06783311
96	0x3d80add5	0.06283156
97	0x3e54259b	0.2071747
98	0x3d96e394	0.07367626
99	0xbe15bc9f	-0.14622734
100	0xbd2b2903	-0.04178716
101	0xbd8d7fc8	-0.06909138
102	0x3c501ea4	0.012702618
103	0x3e346856	0.17617926
104	0xbb38efea	-0.0028219172
105	0x3e797f19	0.2436489
106	0x3d9e45b4	0.077281386
107	0xbe45cb03	-0.19315724
108	0xbe1d3802	-0.15353397
109	0xbe0d70bd	-0.13812537
110	0xbe2ddbe6	-0.16978416
111	0x3e001571	0.12508179
112	0xbe2a9233	-0.16657333
113	0xbe4119f3	-0.18857555
114	0xbe74e122	-0.23914006
115	0x3d4cc11f	0.049988862
116	0x3ccca8ba	0.024982799
117	0x3cbfebdd	0.023427898
118	0xbe17ee6c	-0.14837044
119	0xbe1d03df	-0.15333508
120	0x3d025e13	0.031827997
121	0x3e5bdec8	0.21471703
122	0xbda35aba	-0.07976289
123	0x3de439ff	0.111438744
124	0x3e37d3e1	0.17951919
125	0x3e2d1dff	0.16905974
126	0xbda43ca1	-0.080193765
127	0x3e308649	0.17238726
128	0xbc5a565e	-0.013326256
129	0x3e39100a	0.18072525
130	0x3e3099f9	0.17246236
131	0xbcbd0ff9	-0.023078905
132	0xbe1fbbb5	-0.15598948
133	0xbea36eb4	-0.31920397
134	0xbd9ff1a1	-0.07809759
135	0xbdbfc6ad	-0.09364066
136	0xbdc65126	-0.096834466
137	0x3d4e6d11	0.050396983
138	0x3d363b0a	0.044489898
139	0xbdbad2f4	-0.09122267
140	0xbcd4b030	-0.025962919
141	0xbe6d2951	-0.23160292
142	0xbd5c46d6	-0.053778492
143	0x3c2bf6bb	0.010495837
144	0x3e02f592	0.1278899
145	0xbe77cb46	-0.24198636
146	0xbe1e72c0	-0.15473461
147	0xbe214e14	-0.1575244
148	0x3db81189	0.089877196
149	0xbd03947c	-0.032124028
150	0x3ac1dc53	0.0014790393
151	0x3d9ad07a	0.07559295
152	0x3e6d5bc8	0.23179543
153	0x3c2b009c	0.010437157
154	0xbd351908	-0.044213325
155	0x3e0343b7	0.128188
156	0x3e2c3694	0.16817695
157	0x3dbf37ec	0.09336838
158	0xbdcb8eb8	-0.09939331
159	0x3d89451e	0.06702636
160	0xbe004520	-0.12526369
161	0xbdc6e482	-0.09711553
162	0xbdbddd08	-0.09270674
163	0xbd32e436	-0.04367467
164	0x3cbd6a4b	0.023121973
165	0x3de86a66	0.11348419
166	0x3d92d419	0.07169361
167	0x3d33a0b1	0.04385442
168	0x3dc480d4	0.095948845
169	0x3e1ade9e	0.15123984
170	0xbcd501f1	-0.026001902
171	0x3dda12ea	0.10648139
172	0x3e3a1d07	0.18175136
173	0xbdb668bb	-0.089066945
174	0x3d0ce61f	0.034399148
175	0x3d21a376	0.03946253
176	0xbd044ca7	-0.032299664
177	0xbde60be6	-0.11232738
178	0x3c99ab22	0.01875836
179	0xbe482c0a	-0.1954805
180	0xbb16b2cd	-0.0022994757
181	0xbe600eb0	-0.21880603
182	0xbe44e234	-0.19226915
183	0xbce6a0c8	-0.028152838
184	0x3de99daa	0.11407025
185	0xbda8b6a0	-0.08237958
186	0xbdffceee	-0.124906406
187	0xbdba70e6	-0.09103565
188	0x3e18ef43	0.14935021
189	0xbe10b809	-0.14132704
190	0x3d8f6447	0.07001548
191	0x3db5e83f	0.08882188
192	0xbdf49245	-0.11941961
193	0x3e91f6ba	0.2850855
194	0x3e996ca4	0.299657
195	0x3ec2af1f	0.38024232
196	0x3e222e5f	0.15838002
197	0x3e14d822	0.14535573
198	0xbbb77b70	-0.0055994317
199	0x3c8b8f76	0.017036181
200	0x3e43198e	0.19052717
201	0x3e8418bf	0.2580013
202	0xbd9df276	-0.077122614
203	0x3e1d85de	0.15383098
204	0x3d5784a1	0.05261672
205	0x3e01a121	0.12659122
206	0xbd4ef0ae	-0.0505225
207	0x3c092b6f	0.008372172
208	0xbe5b6f27	-0.2142912
209	0xbe04941b	-0.12947123
210	0x3e687ec9	0.22704615
211	0x3dabf651	0.083965905
212	0xbb8eef69	-0.004362036
213	0xbcd57dc1	-0.02606094
214	0x3e1bfa4e	0.15232202
215	0xbe31598e	-0.17319319
216	0x3dc8c9c9	0.098041125
217	0xbd9158c2	-0.07097007
218	0xbe03752f	-0.1283767
219	0x3c9bedee	0.019034352
220	0xbdcd0d21	-0.1001227
221	0x3df35aea	0.11882575
222	0x3db7cc25	0.08974484
223	0x3e00f29f	0.12592553
224	0x3e0bbe06	0.13646707
225	0xbdf5d4fd	-0.12003515
226	0xbd4d9dea	-0.050199427
227	0x3e306337	0.17225347
228	0x3d9774e3	0.07395341
229	0x3df87686	0.121319816
230	0x3e1db6bb	0.15401737
231	0x3cc9f80e	0.024654415
232	0xbdc558f1	-0.09636105
233	0x3d5d2cd8	0.053997844
234	0xbd3c0fb5	-0.045913417
235	0x3d898fbb	0.067168675
236	0x3d9c21f3	0.07623663
237	0x3cf28317	0.029603524
238	0xbdec61bb	-0.11542078
239	0xbbf8f7db	-0.007597906
240	0xbe3dab93	-0.18522482
241	0x3bae58ba	0.0053206356
242	0x3e5b6545	0.2142535
243	0x3e047f72	0.12939242
244	0xbdf18c73	-0.11794367
245	0xbdddfeed	-0.10839639
246	0x3da16639	0.078808255
247	0xbdf2f368	-0.11862832
248	0x3c9f80c3	0.019470578
249	0xbc85df88	-0.01634194
250	0xbdc26445	-0.09491781
251	0xbd737288	-0.059435397
252	0xbcf40989	-0.029789703
253	0x3ccfae4d	0.025351668
254	0x3e0eadde	0.13933513
255	0x3e44dcf1	0.19224907

bias_ih_l0 f4 [128]
0	0xbe6a0ce6	-0.22856483
1	0xbdb04f61	-0.0860889
2	0xbeebaf60	-0.46032238
3	0xbd0d5959	-0.034509037
4	0xbd5dd602	-0.054159172
5	0xbdfbe6fb	-0.122999154
6	0xbe3cfdf9	-0.18456258
7	0xbf1a1aa8	-0.60196924
8	0xbed6994f	-0.4191384
9	0xbe8c8974	-0.27448618
10	0xbe0b70b8	-0.13617218
11	0x3c359490	0.011082783
12	0xbc89d208	-0.016823784
13	0xbed9930c	-0.42495
14	0xbeeb0858	-0.45904803
15	0xbe8af992	-0.27143532
16	0xbe4cc894	-0.1999839
17	0xbf09eeeb	-0.53880185
18	0x3d323220	0.043504834
19	0xbe40fa3d	-0.18845458
20	0xbe9281b6	-0.28614587
21	0xbe7d506e	-0.24737713
22	0xbdd2b02a	-0.10287507
23	0xbe185e71	-0.14879777
24	0xbebc419a	-0.367688
25	0xbe3d779e	-0.18502662
26	0xbe842992	-0.25812966
27	0xbe0d20b6	-0.1378201
28	0xbec26eba	-0.37975103
29	0xbe5ff80e	-0.21871969
30	0xbe6a408d	-0.22876187
31	0xbe1f8aa2	-0.15580228
32	0xbcce98be	-0.025219318
33	0x3de1f633	0.11033287
34	0xbd018882	-0.031624325
35	0xbd3afc0a	-0.04565052
36	0x3b0c1a15	0.002137785
37	0xbdd14597	-0.10218351
38	0x3cbe30f4	0.023216702
39	0xbe197a37	-0.14988028
40	0xbd194d03	-0.03742696
41	0x3d45d0c9	0.048294816
42	0x3b2c53b7	0.0026295015
43	0xbe002fda	-0.12518254
44	0xbdf103b6	-0.11768286
45	0xbe3e498e	-0.18582746
46	0xbea6ebb9	-0.32601717
47	0xbe1b46fe	-0.151638
48	0x3db8a411	0.09015668
49	0xbee983b7	-0.45608303
50	0x3d6bb541	0.057545904
51	0xbda6fb60	-0.08153415
52	0xbe30ad3b	-0.17253582
53	0xbd8a2989	-0.067462035
54	0xbe3c71c0	-0.18402767
55	0x3de44f42	0.1114793
56	0xbe211bcd	-0.15733261
57	0x3d073a36	0.0330145
58	0xbb284f2f	-0.0025681963
59	0x3d3a75ed	0.04552262
60	0xbd4e9020	-0.050430417
61	0xbdd2e5c2	-0.10297729
62	0xbdb063c8	-0.08612782
63	0xbe8605c9	-0.2617629
64	0x3d7462b7	0.059664454
65	0xbd9f03f3	-0.07764425
66	0x3d7586d5	0.05994304
67	0xbe379ee8	-0.17931712
68	0x3d609376	0.05482813
69	0xbd976343	-0.073919795
70	0xbda1e277	-0.07904523
71	0xbd369fe8	-0.044586092
72	0x3e06bcbc	0.13157934
73	0xbe12b730	-0.14327693
74	0x3df18179	0.11792273
75	0xbd9ae2f2	-0.07562818
76	0xbdb1c88c	-0.086808294
77	0x3ccb890a	0.024845619
78	0xbd94d1a7	-0.072665505
79	0xbd31881b	-0.04334269
80	0x3e0dabba	0.1383504
81	0x3d4f9073	0.050674867
82	0xbe34d1bf	-0.17658137
83	0x3c4d4742	0.012529196
84	0xbd879e8f	-0.066220395
85	0x3da57836	0.08079569
86	0xbdd9756f	-0.10618102
87	0x3de6a2af	0.11261498
88	0xbdebcb53	-0.115133904
89	0x3d4cbfe5	0.049987692
90	0x3d86bcaf	0.06578957
91	0x3e04f613	0.12984495
92	0xbd5c8364	-0.05383624
93	0xbd09440e	-0.033512168
94	0x3c1ebf09	0.009689101
95	0x3d2e3f8e	0.04254108
96	0xbe0e165d	-0.13875718
97	0x3d49523a	0.049150683
98	0xbec1f184	-0.37879574
99	0xbe05c3f6	-0.13063034
100	0xbe3ce4c3	-0.1844664
101	0xbe40a366	-0.18812332
102	0xbd82a6d0	-0.06379473
103	0xbea2ff84	-0.31835568
104	0xbe40dc15	-0.18833955
105	0xbea979f8	-0.33100867
106	0xbd616f2c	-0.055037662
107	0xbd24cfaf	-0.040237125
108	0xbdf4c908	-0.11952406
109	0xbeb3d9c8	-0.3512709
110	0xbe662fa2	-0.22479108
111	0xbe1a5b9d	-0.1507401
112	0xbe4f605a	-0.20251599
113	0xbea0e92d	-0.314279
114	0x3d1a120c	0.037614867
115	0xbb4fe58c	-0.0031722514
116	0xbdbb75e6	-0.09153347
117	0xbe8e159a	-0.27750856
118	0xbe559bb1	-0.20860173
119	0xbe1cc2aa	-0.15308633
120	0xbed3fa5e	-0.41401953
121	0x3b752b4d	0.0037409842
122	0xbe096b0c	-0.13419741
123	0xbd44e97f	-0.04807424
124	0xbe5ac4da	-0.21364155
125	0xbe931490	-0.28726625
126	0xbe6ff9c1	-0.23435117
127	0xbcf08b3e	-0.02936327

bias_hh_l0 f4 [128]
0	0xbea90222	-0.3300944
1	0xbe1f9968	-0.15585864
2	0xbe01c99f	-0.12674569
3	0xbe989039	-0.29797533
4	0xbe44cb6e	-0.19218227
5	0xbed0678e	-0.40704006
6	0xbdd37fd5	-0.103271164
7	0xbec92206	-0.3928377
8	0xbe9224a9	-0.28543594
9	0xbdb2f510	-0.08738148
10	0xbe58d7e2	-0.21176103
11	0xbd5a7fbe	-0.05334448
12	0xbdc54a21	-0.096332796
13	0xbe348e20	-0.17632341
14	0xbe2fbc48	-0.17161667
15	0xbed6899c	-0.41901863
16	0x3d5223ca	0.051303662
17	0xbea5817c	-0.3232535
18	0xbe586c9f	-0.21135186
19	0x3d1e9193	0.03871305
20	0xbdf09c22	-0.1174853
21	0xbe5884e9	-0.21144451
22	0xbe8811c2	-0.26576048
23	0xbe013323	-0.12617163
24	0xbed0b07a	-0.4075964
25	0xbda48949	-0.080339976
26	0xbec8c7fa	-0.3921507
27	0xbe8a292a	-0.2698453
28	0xbeb5a0b3	-0.35474166
29	0xbd51d866	-0.051231764
30	0xbe1f3cf1	-0.15550591
31	0xbeac69c1	-0.33674434
32	0xbe74f408	-0.23921216
33	0xbdaeda71	-0.08537758
34	0xbeb088b2	-0.3447929
35	0xbcd3dea2	-0.025862996
36	0x3cd3b0ee	0.025841203
37	0xbe8e8594	-0.27836287
38	0x3d1bfdd7	0.038083877
39	0xbed12990	-0.40852022
40	0xbe35bac9	-0.17747034
41	0xbda83f4c	-0.08215198
42	0x3d39c4cf	0.045353707
43	0xbba4d689	-0.0050304574
44	0xbe510d16	-0.20415148
45	0x3c63129d	0.013859418
46	0xbe299594	-0.16560966
47	0xbdc90f7d	-0.09817407
48	0xbe2043f4	-0.15650922
49	0xbea78e28	-0.32725644
50	0xbe0efbf2	-0.13963297
51	0x3e14cfa2	0.1453233
52	0xbe8b25f2	-0.27177387
53	0xbe8a03b0	-0.26955938
54	0xbdd98178	-0.10620397
55	0xbda44cec	-0.08022484
56	0xbeb899e4	-0.3605491
57	0xbd640f98	-0.055678934
58	0xbe5c8e09	-0.21538557
59	0xbe2e1789	-0.17001165
60	0xbe6c48ec	-0.23074692
61	0xbe95d29c	-0.29262245
62	0xbe55ac7a	-0.20866576
63	0xbe3dee58	-0.18547952
64	0xbc7e6867	-0.015527821
65	0xbd9015eb	-0.070354305
66	0xbc3f6f01	-0.01168418
67	0x3c84fcfd	0.016233915
68	0x3d097197	0.033555593
69	0xbc242f5e	-0.010021059
70	0xbcabc20e	-0.020966556
71	0x3dab2ab0	0.08357751
72	0xbcfd20c9	-0.030899422
73	0x3e090c1a	0.13383523
74	0x3d609a67	0.05483475
75	0x3e36d9ba	0.17856494
76	0x3e2cb16f	0.1686456
77	0xbd51fe62	-0.05126799
78	0x3ddae95c	0.10689041
79	0xbdb2d632	-0.08732261
80	0xbe162aec	-0.14664811
81	0xbddc3c26	-0.1075366
82	0x3cb9b076	0.022667151
83	0xbd3395af	-0.04384392
84	0x3db8b8f0	0.09019649
85	0x3cc208b5	0.023685792
86	0xbe06d3f6	-0.13166794
87	0xbdc47504	-0.095926315
88	0x3cefd2d1	0.02927533
89	0x3da6c88b	0.08143719
90	0x3d3ff9c3	0.04686905
91	0x3dc8c7ed	0.09803758
92	0xbc9c7701	-0.019099714
93	0x3db81ab8	0.08989471
94	0xbd7225ba	-0.05911801
95	0xbdba35d6	-0.090923
96	0xbeb43787	-0.35198614
97	0x3d82d579	0.06388373
98	0xbe5c9b2b	-0.21543567
99	0xbe0d35b8	-0.13790023
100	0xbd81fdf8	-0.06347269
101	0xbe47ff03	-0.19530873
102	0x3dd75fdc	0.105163306
103	0xbf2467cc	-0.6422088
104	0xbed5cfc5	-0.41760078
105	0xbdef9020	-0.116974115
106	0xbe663feb	-0.2248532
107	0xbd2ecfaf	-0.04267853
108	0xbe33da40	-0.17563725
109	0xbe3ff02d	-0.18743964
110	0xbebed831	-0.37274316
111	0xbe83918d	-0.25696984
112	0xbe4ce22f	-0.20008157
113	0xbec00807	-0.37506124
114	0xbd76b5c5	-0.060231943
115	0xbe1e11ad	-0.1543643
116	0xbec9ae7e	-0.3939094
117	0xbdd73343	-0.10507824
118	0xbe0d824d	-0.13819237
119	0xbd9407ca	-0.07228048
120	0xbe568b4e	-0.20951578
121	0xbdfee1a9	-0.12445385
122	0xbe8b500f	-0.27209517
123	0x3bb4da32	0.005519175
124	0xbe8c7a6e	-0.27437156
125	0xbe9bc628	-0.3042462
126	0xbe1eb9b1	-0.15500523
127	0xbe5a62d8	-0.21326768
