experiments/pedestrians/models/06_Aug_2023_21_23_08/model_registrar-69.pt (torch, 713991 bytes, 82 tensors)

weight f4 [64, 10]
0	0xbca99e15	-0.020705262
1	0xbcb61b98	-0.022229955
2	0x3e168e85	0.14702804
3	0x3d01c15b	0.03167854
4	0xbf35d042	-0.710209
5	0x3f5da71e	0.86583126
6	0x3cae5afa	0.021283615
7	0xbe754a64	-0.23954159
8	0xbe1f6372	-0.15565279
9	0x3e013a94	0.12620002
10	0x3d2b6e0d	0.041853
11	0x3e96ff8e	0.29491848
12	0x3ebd677e	0.3699302
13	0x3d53c3da	0.05170045
14	0xbe6ddfc1	-0.23229887
15	0xbe32e2cf	-0.17469333
16	0xbe98a930	-0.2981658
17	0xbec34360	-0.3813734
18	0xbdfb7bdc	-0.12279484
19	0x3da3ed38	0.0800423
20	0x3896e880	7.195864e-05
21	0x3dc846e1	0.09779144
22	0xbd23af09	-0.03996185
23	0x3efeb117	0.49744484
24	0xbdc9e8c2	-0.09858848
25	0xbd2c7efa	-0.04211328
26	0xbe8e2157	-0.2775981
27	0xbd24f862	-0.04027594
28	0xbc0d2695	-0.008615156
29	0xbe2af620	-0.16695452
30	0x3b4999d1	0.0030761848
31	0x3cba62bd	0.02275216
32	0xbd176cfb	-0.036969166
33	0xbd506289	-0.05087522
34	0xbf20430b	-0.626023
35	0x3f3e300f	0.7429208
36	0xbe89f1e0	-0.26942348
37	0xbe54eb52	-0.20792893
38	0xbcfe27c7	-0.031024827
39	0xbe7feca3	-0.24992613
40	0x3d268f89	0.04066423
41	0xbd2645b6	-0.040593825
42	0x3d3b50da	0.045731403
43	0x3dec7f25	0.115476884
44	0x3f1cdc66	0.612738
45	0x3ee1d1fb	0.44105515
46	0x3e8d61ac	0.2761358
47	0x3e209194	0.15680534
48	0xbe82238a	-0.2541774
49	0x3e2c2602	0.16811374
50	0x3afbcff2	0.0019211753
51	0x3d64a3e9	0.05582038
52	0x3ec0ee5b	0.3768185
53	0xbe30843f	-0.17237948
54	0xba72a53e	-0.00092561904
55	0x3edf4414	0.43606627
56	0x3e364a97	0.17801891
57	0xbbbf902f	-0.0058460454
58	0xbd5a52dc	-0.053301677
59	0x3da587d4	0.08082548
60	0xbd2def45	-0.042464513
61	0x3e4ddbe8	0.20103419
62	0x3eec66cb	0.46172175
63	0x3c07c7df	0.008287399
64	0x3f017ac1	0.5057793
65	0xbefd82d4	-0.49513876
66	0xbe8837e7	-0.2660515
67	0x3e871726	0.26384848
68	0x3e9c8432	0.30569607
69	0x3e652dce	0.22380754
70	0xbd16ca35	-0.036813933
71	0xbe136cb5	-0.14396937
72	0x3d4295f8	0.047506303
73	0xbeb9e90a	-0.36310607
74	0xbf388cb6	-0.7208971
75	0xbeb518d5	-0.35370508
76	0x3ec74ecb	0.38927302
77	0x3c5872cf	0.013210966
78	0x3d16b7af	0.036796268
79	0x3cd66581	0.026171448
80	0x3e1ad1c5	0.15119083
81	0x3d8d44c4	0.068978816
82	0xbed58b5a	-0.4170788
83	0x3cb4f356	0.022088688
84	0xbf3508c4	-0.707165
85	0xbe36caca	-0.17850795
86	0xbe1a20a7	-0.15051518
87	0xbe32a1b3	-0.17444496
88	0x3e698f1f	0.22808503
89	0x3dcc31dd	0.09970448
90	0xbd1dbfcb	-0.038512986
91	0x3de08913	0.10963645
92	0x3f0098cf	0.5023317
93	0x3ea5afc8	0.32360673
94	0x3d52f062	0.05149878
95	0x3ecc4c28	0.39901853
96	0x3e16169f	0.14657067
97	0xbe719967	-0.23593675
98	0x3e978634	0.29594576
99	0x3e8914a4	0.2677356
100	0xbe473321	-0.19453098
101	0x3e041707	0.12899409
102	0x3e9229d0	0.28547525
103	0x3e5e5524	0.21712166
104	0xbe89ecb8	-0.26938415
105	0xbca5a23d	-0.020218963
106	0xbdf288f0	-0.11842525
107	0x3e0ae09b	0.13562243
108	0x3e70b344	0.23505884
109	0xbe80f826	-0.25189322
110	0x3c63417c	0.013870593
111	0xbd6d2b2c	-0.0579025
112	0x3f0e9eef	0.55711263
113	0x3c961917	0.01832251
114	0xbf4c1350	-0.7971697
115	0xbf5e310a	-0.8679358
116	0x3e0bd763	0.13656382
117	0x3ee439f3	0.44575462
118	0xbda854a6	-0.082192704
119	0xbcb4e808	-0.022083297
120	0xbe098fbb	-0.13433735
121	0x3e0958ab	0.1341273
122	0x3eb20d49	0.3477576
123	0x3e0848b9	0.13308991
124	0x3e362414	0.177872
125	0x3e7c5c9b	0.24644701
126	0x3e57d1da	0.21076146
127	0xbd93ecf2	-0.07222928
128	0x3d469519	0.048482034
129	0xbe317300	-0.17329025
130	0xbc220ad1	-0.009890274
131	0x3e1ec96d	0.15506525
132	0x3c0788a8	0.0082723275
133	0xbf246699	-0.6421905
134	0xbd566f55	-0.05235227
135	0x3c34fc91	0.011046545
136	0xbd1d7880	-0.038444996
137	0xbe9bb5ac	-0.30412042
138	0xbe31832b	-0.17335193
139	0xbeaaaa4c	-0.3333305
140	0x3d0c0a54	0.034189537
141	0xbe2ebfc6	-0.17065343
142	0xbeab9360	-0.33510876
143	0x3eb6af95	0.35680833
144	0xbe3bc077	-0.18335138
145	0xbc9d4283	-0.019196754
146	0x3eab7d5a	0.33494073
147	0x3de0d351	0.109778054
148	0x3d9add1b	0.07561704
149	0x3ee2ce02	0.44297796
150	0x3c80a4ed	0.015703643
151	0x3cb80715	0.022464314
152	0x3d42382f	0.047416862
153	0xbeb827c0	-0.35967827
154	0x3ecf5511	0.40494588
155	0xbf4c429e	-0.7978915
156	0xbe659ab8	-0.22422302
157	0x3e2fcc88	0.17167866
158	0xbe544f64	-0.2073341
159	0x3de032d9	0.109471984
160	0xbe3e9855	-0.18612798
161	0x3e813cfa	0.25241834
162	0xbced2054	-0.02894608
163	0x3d89bc72	0.06725396
164	0xbf5a0b61	-0.8517361
165	0xbdf02734	-0.117262274
166	0x3d00e91e	0.031472318
167	0x3e50a4d6	0.2037538
168	0xbd358adf	-0.04432189
169	0x3eba25ff	0.36357114
170	0x3e8f3b55	0.27974954
171	0x3ec2f642	0.38078505
172	0x3e37c388	0.17945683
173	0x3eba543d	0.36392394
174	0xbe36a8f6	-0.17837891
175	0x3f39a2f6	0.72514284
176	0x3c1fb2cc	0.009747218
177	0x3c7bb40a	0.015362749
178	0xbd67bd4f	-0.056577023
179	0x3de70b31	0.112814315
180	0x3cb7d389	0.022439735
181	0x3e095d45	0.13414486
182	0x3f291917	0.6605391
183	0xbe697c12	-0.22801235
184	0xbdeb312f	-0.114839904
185	0x3e249b69	0.1607491
186	0x3e81343e	0.2523517
187	0x3b2f49e8	0.0026746932
188	0x3e318080	0.17334175
189	0x3e8ecf30	0.27892447
190	0x3e8fc008	0.28076196
191	0x3e49a1bc	0.19690603
192	0xbee7f951	-0.453074
193	0xbe005ccc	-0.12535399
194	0xbf109e5c	-0.5649164
195	0xbe34c062	-0.17651513
196	0x3db1c085	0.08679298
197	0x3e0ea866	0.13931426
198	0xbe69b8b2	-0.22824362
199	0x3e70157e	0.23445699
200	0x3b98090d	0.004639751
201	0x3d73a271	0.059481088
202	0xbe7f1b4e	-0.2491276
203	0x3e8c3f3f	0.27392003
204	0x3eb5ff97	0.35546562
205	0xbf19c086	-0.6005939
206	0xbcd8dcc0	-0.02647245
207	0xbe281642	-0.1641474
208	0x3e51db28	0.20493758
209	0xbdf7939e	-0.120887026
210	0xbe772b48	-0.24137604
211	0xbd291ccf	-0.04128724
212	0x3ac0f728	0.0014722096
213	0x3d45d6bd	0.048300494
214	0x3f167626	0.5877403
215	0x3f744f41	0.9543343
216	0x3ebeb20e	0.3724522
217	0x3e380b99	0.17973174
218	0x3e5bf749	0.2148105
219	0xbc1801ef	-0.009277805
220	0x3b85a5f7	0.0040786224
221	0x3e904978	0.28181052
222	0xbe83cd72	-0.2574268
223	0x3d7302e3	0.059328925
224	0x3eefa718	0.4680717
225	0x3ed79950	0.42109156
226	0x3e65f4d9	0.22456683
227	0x3e7eb503	0.24873738
228	0x3db8d8a4	0.09025696
229	0xbe2839c9	-0.16428293
230	0xbb86f0af	-0.004118047
231	0xbe5e295a	-0.21695462
232	0xbe0c957d	-0.137289
233	0x3f083038	0.53198576
234	0xbdb35919	-0.087572284
235	0xbf026b84	-0.50945306
236	0xbe0e30c1	-0.13885786
237	0x3d696216	0.056978308
238	0xbe10d575	-0.14143927
239	0x3df0f09d	0.11764643
240	0x3ddea571	0.10871399
241	0xbe863647	-0.26213285
242	0x3e0fa258	0.14026773
243	0xbe652671	-0.22377945
244	0x3eb49013	0.3526617
245	0x3ed5beb8	0.4174707
246	0xbd2ca4e0	-0.042149425
247	0xbeca8a29	-0.39558533
248	0xbe0993a2	-0.13435224
249	0xbebe52e9	-0.3717263
250	0xbe0e95e0	-0.1392436
251	0xbdf02c97	-0.11727255
252	0x3e53049c	0.20607227
253	0x3ef0b7bd	0.4701518
254	0xbe5a2bb5	-0.21305735
255	0xbef64336	-0.48098153

bias f4 [64]
0	0xbe517838	-0.20456016
1	0xbde935db	-0.11387225
2	0xbe82ba39	-0.25532702
3	0x3e9255f6	0.28581208
4	0x3e0f0735	0.13967593
5	0x3e949989	0.29023388
6	0xbe8ff450	-0.28116083
7	0x3aa8f93f	0.0012891664
8	0x3da01051	0.07815612
9	0x3e6fcffe	0.23419186
10	0xbcb1b105	-0.021690855
11	0x3ef6d4e3	0.48209295
12	0xbdea4eec	-0.114408344
13	0x3d398850	0.045296013
14	0xbc922c11	-0.017843278
15	0xbd36a9cd	-0.04459553
16	0xbe018773	-0.12649326
17	0xbe72b0ee	-0.23700306
18	0x3e6f783d	0.23385711
19	0x3e058b60	0.13041449
20	0xbdc5476c	-0.09632763
21	0x3e30c494	0.17262489
22	0x3e29ee8d	0.16594906
23	0xbe1082c7	-0.14112388
24	0xbe4a05e8	-0.19728816
25	0x3dca2af1	0.09871472
26	0x3ce87f05	0.02838088
27	0xbe1a21c9	-0.1505195
28	0xbe9cb579	-0.30607203
29	0x3d03e39e	0.032199495
30	0x3e2b4021	0.16723682
31	0xbe8f4b64	-0.27987206
32	0xbe1e5140	-0.15460682
33	0x3dda242d	0.10651431
34	0xbe95dd1b	-0.29270253
35	0x3e7d74d4	0.24751598
36	0x3e5dc360	0.21656561
37	0xbddfe3eb	-0.10932144
38	0xbe12098e	-0.14261457
39	0x3dd3b279	0.10336775
40	0xbe1e348c	-0.15449733
41	0x3e9738aa	0.2953542
42	0x3cbfc4e8	0.023409322
43	0xbde0ba51	-0.10973037
44	0xbe48be94	-0.1960395
45	0x3dd406ed	0.103528835
46	0xbe15d186	-0.14630708
47	0xbe916aae	-0.28401703
48	0x3e0b861c	0.13625377
49	0xbe08a4ae	-0.1334407
50	0x3b088ad6	0.0020834706
51	0x3e7cd348	0.24689972
52	0xbec37c2f	-0.38180682
53	0xbeb4c647	-0.35307524
54	0xbee396d5	-0.44451013
55	0x3de4a265	0.11163787
56	0x3d081991	0.033227507
57	0x3e8ab21d	0.27089015
58	0x3e575b99	0.21031035
59	0x3ebde0a0	0.37085438
60	0xbeaf6901	-0.342598
61	0x3e03ded4	0.12877971
62	0x3eb588d6	0.3545596
63	0xbe0894fa	-0.1333808

weight f4 [32, 32]
0	0xbdc8b378	-0.09799856
1	0xbe475261	-0.19465019
2	0x3e5dadf3	0.21648388
3	0x3c483eb9	0.0122219855
4	0xbe18188b	-0.14853112
5	0x3c85c3ee	0.016328778
6	0xbd7e5d24	-0.062100545
7	0x3dae2374	0.08502856
8	0xbe2327fa	-0.15933219
9	0xbf0b66d4	-0.5445378
10	0x3de186bc	0.11012027
11	0x3d785cf6	0.06063553
12	0xbcf1acac	-0.029501282
13	0x3e4b2139	0.19836892
14	0xbe4d8ad7	-0.20072494
15	0x3e945af8	0.28975654
16	0x3c7b9602	0.015355589
17	0x3e89b591	0.26896337
18	0x3e3f1961	0.18662025
19	0x3eb18296	0.34669942
20	0xbe991f13	-0.2990652
21	0x3e4856f5	0.19564421
22	0x3c1ec065	0.009689425
23	0xbf02a64c	-0.51035
24	0xbd493d2d	-0.049130607
25	0x3e08067e	0.13283727
26	0x3e2cf9ee	0.16892216
27	0x3e0b4ac2	0.13602737
28	0x3e23f1ef	0.16010259
29	0x3df6559a	0.12028046
30	0xbd861d97	-0.065486126
31	0x3ea5a914	0.3235556
32	0x3e2dafb6	0.1696156
33	0xbd35d39e	-0.044391267
34	0xbf136bac	-0.5758617
35	0x3d9dcc9a	0.0770504
36	0xbe5a586b	-0.21322791
37	0x3d6284a1	0.055302266
38	0x3e331343	0.17487817
39	0xbd94c68e	-0.07264434
40	0xbeb5d2f8	-0.3551252
41	0xbead624d	-0.3386406
42	0xbe8da93c	-0.27668178
43	0xbea03492	-0.31290108
44	0x3ea5f266	0.32411498
45	0xbd0b6326	-0.034030102
46	0xbd3b6fa5	-0.04576077
47	0xbdce16ba	-0.100629285
48	0x3c2fe6f3	0.010736215
49	0x3e503128	0.20331252
50	0x3e77d6f8	0.24203098
51	0x3eef4197	0.4672973
52	0x3e33e61d	0.1756825
53	0xbddaf801	-0.10691834
54	0xbcd1bca5	-0.025602648
55	0x3d79997a	0.060937382
56	0x3dbbfb3c	0.091787785
57	0xbd11da91	-0.03560883
58	0x3e224776	0.15847573
59	0x3e1bd885	0.15219314
60	0xbe4f742a	-0.20259157
61	0xbea3699b	-0.31916508
62	0x3e6681aa	0.225104
63	0xbde2d14b	-0.11075076
64	0x3e969773	0.29412422
65	0xbe5ec0eb	-0.2175328
66	0x3e2af192	0.16693714
67	0xbf21481d	-0.6300066
68	0xbe7dcea2	-0.24785855
69	0x3d1b1849	0.037864957
70	0xbe5ce7a2	-0.21572736
71	0xbe59e363	-0.21278147
72	0xbe483280	-0.19550514
73	0x3e662486	0.2247487
74	0x3e29f20d	0.16596241
75	0xbdc8dcaf	-0.09807717
76	0xbed79035	-0.4210221
77	0x3ec2d556	0.38053387
78	0xbec86b41	-0.39144328
79	0x3cae02ee	0.021241631
80	0x3d66619a	0.056245424
81	0x3ecce4e0	0.40018368
82	0x3ec296ca	0.38005668
83	0xbf01e654	-0.5074208
84	0xbda4a00c	-0.08038339
85	0x3d9f8553	0.077891015
86	0xbe095ae6	-0.13413581
87	0xbeb87efc	-0.3603438
88	0xbdcd2f9b	-0.10018846
89	0xbdaf66aa	-0.085645035
90	0x3ce72d4c	0.028219841
91	0xbdc95ca7	-0.09832125
92	0x3e5e81c0	0.21729183
93	0xbe6befec	-0.23040742
94	0xbe8ae44d	-0.27127305
95	0xbd4b2c3d	-0.049602736
96	0x3ea6e1cd	0.32594147
97	0xbe4d041b	-0.20021097
98	0x3e3b5693	0.18294744
99	0x3e3b73d8	0.1830591
100	0xbdf964cb	-0.12177428
101	0x3e42f8cc	0.19040221
102	0x3ebd5929	0.36982086
103	0xbe71de12	-0.2361987
104	0xbe593472	-0.21211413
105	0x3e94527b	0.28969178
106	0x3e05030a	0.1298944
107	0xbe191551	-0.14949538
108	0x3eb248ee	0.34821266
109	0xbe359b0b	-0.17734925
110	0xbd407dfa	-0.04699514
111	0xbc6869f0	-0.014185414
112	0xbe8621b4	-0.26197588
113	0x3d19ad05	0.03751852
114	0xbe1eabb3	-0.15495186
115	0x3e945e0e	0.28978008
116	0xbd3b5b75	-0.045741517
117	0x3d212eee	0.039351396
118	0x3e288c7f	0.16459845
119	0x3d69f361	0.05711687
120	0xbd8293b6	-0.0637583
121	0x3b8d9b63	0.004321502
122	0x3db6ee71	0.08932198
123	0x3eb5988b	0.35467944
124	0xbddbc5bb	-0.107310735
125	0x39d20e51	0.00040064988
126	0x3e7b7a26	0.24558315
127	0x3d8fc150	0.07019293
128	0xbea7339e	-0.32656568
129	0xbd40f838	-0.04711172
130	0x3e5ee051	0.21765257
131	0xbdeb4f2a	-0.11489709
132	0x3e40cc44	0.18827921
133	0xbdcf1d50	-0.10113013
134	0x3db50172	0.08838166
135	0x3e911d6f	0.2834277
136	0x3d9ac54c	0.07557163
137	0xbe940480	-0.28909683
138	0x3dc1809b	0.09448358
139	0x3e4d58c2	0.2005339
140	0xbe07bf59	-0.13256587
141	0x3db08095	0.08618275
142	0x3d099007	0.03358462
143	0x3d718e3a	0.05897353
144	0xbda4aef6	-0.08041184
145	0xbbc483f9	-0.0059971777
146	0x3d935e93	0.07195773
147	0x3e943fe7	0.28955004
148	0x3e3dbda9	0.18529381
149	0xbeb66007	-0.35620138
150	0x3e15d193	0.14630727
151	0x3e2a01b0	0.16602206
152	0x3e2dc714	0.16970474
153	0x3ec59041	0.3858662
154	0xbb5bd3d0	-0.0033542998
155	0xbe7434f1	-0.2384832
156	0x3da156c3	0.078778766
157	0x3ebaec5b	0.3650845
158	0x3cddaccd	0.027059937
159	0xbe279be7	-0.16368066
160	0x3ef88d7a	0.48545438
161	0xbd3a80c7	-0.045532968
162	0x3c594708	0.013261564
163	0xbf00a003	-0.5024416
164	0xbcc2bcef	-0.023771731
165	0x3e700f48	0.2344333
166	0xbcc7c331	-0.024385067
167	0xbe040954	-0.12894183
168	0xbcb20984	-0.021733053
169	0x3e18cc5b	0.14921705
170	0x3de18c2f	0.11013066
171	0x3dcad758	0.09904355
172	0xbe1a7cf7	-0.15086733
173	0x3e270b6b	0.1631295
174	0xbe72ce15	-0.23711427
175	0xbde63f69	-0.11242563
176	0xbdba871a	-0.091078
177	0xbe069878	-0.131441
178	0x3e006894	0.12539893
179	0xbec45088	-0.3834269
180	0xbe0681ca	-0.13135448
181	0x3de7c38a	0.11316593
182	0xbe59c130	-0.21265101
183	0xbb9151d5	-0.004434804
184	0xbe4f3845	-0.20236309
185	0x3ea9a4c0	0.33133507
186	0x3ceb101c	0.028694205
187	0x3d008d75	0.031384904
188	0xbdc569ce	-0.09639321
189	0xbe8e7a2a	-0.2782758
190	0xbd5fb223	-0.054613244
191	0x3d2280fc	0.03967379
192	0xbe38662e	-0.18007728
193	0x3c04b8a0	0.008100659
194	0x3deffa49	0.1171766
195	0x3d43a4bd	0.04776453
196	0x3cab23a6	0.020891022
197	0xbdfdd76a	-0.123946026
198	0x3f04b047	0.5183148
199	0x3e968da1	0.2940493
200	0x3de5c60c	0.11219415
201	0x3e3083b0	0.17237735
202	0x3d563e4d	0.05230551
203	0x3ebaff69	0.36522987
204	0xbe4f8e2d	-0.2026908
205	0xbe404205	-0.18775184
206	0x3e68856e	0.2270715
207	0xbe221d95	-0.15831597
208	0xbda26330	-0.07929075
209	0xbe94c956	-0.29059857
210	0xbe862349	-0.26198795
211	0x3d892e3d	0.066982724
212	0x3d40fdad	0.047116924
213	0xbeb66797	-0.35625908
214	0x3eba473f	0.3638248
215	0x3eeaebc0	0.45882988
216	0x3e431886	0.19052324
217	0x3e4a6ff5	0.1976927
218	0x3d5049aa	0.0508515
219	0xbe069344	-0.13142115
220	0xbde31df0	-0.110896945
221	0xbc4ccb58	-0.012499653
222	0x3dafa091	0.085755475
223	0xbdbcb2e1	-0.09213806
224	0x3e67acfd	0.22624584
225	0xbced57b0	-0.028972477
226	0x3e2e7e3c	0.17040342
227	0xbe8c529f	-0.27406785
228	0x3db68d5a	0.089136794
229	0x3e7922c2	0.24329665
230	0x3e99547b	0.29947266
231	0x3e3b36c0	0.18282604
232	0xbe023081	-0.12713815
233	0x3c1883cd	0.0093087675
234	0xbded69ce	-0.11592446
235	0x3e4901bf	0.19629572
236	0x3e917e2f	0.28416583
237	0x3def3cad	0.11681495
238	0xbcefea45	-0.029286513
239	0x3e8cca3f	0.27498052
240	0x3dac4edf	0.08413481
241	0x3e205b78	0.15659893
242	0x3d2bcc1e	0.04194271
243	0x3ef7b762	0.48382097
244	0x3e1c8049	0.15283312
245	0x3d8d60c4	0.06903222
246	0x3dcebd86	0.100947425
247	0xbd6d0016	-0.05786141
248	0x3e300fbd	0.17193504
249	0x3dcd0718	0.10011119
250	0x3d9e6211	0.077335484
251	0x3e549909	0.20761503
252	0x3d125fd6	0.035735928
253	0xbd89700c	-0.06710824
254	0x3e32a9d4	0.17447597
255	0xbdc5856b	-0.09644588

bias f4 [32]
0	0xbe2ae69a	-0.1668953
1	0xbda28d15	-0.079370655
2	0x3e5f3eed	0.21801348
3	0xbd97dce9	-0.07415182
4	0xbe5f7238	-0.21820915
5	0x3df62b6e	0.12020002
6	0x3d8afd22	0.067865625
7	0x3e20469a	0.15651932
8	0x3dc86f82	0.097868934
9	0xbcb704ce	-0.022341158
10	0x3defa532	0.117014304
11	0x3e2307e9	0.15920986
12	0xbdd3ba2c	-0.10338244
13	0xbb7087ca	-0.003670203
14	0xbd096edc	-0.03355299
15	0x3e384a1d	0.17997022
16	0xbe40ca4c	-0.1882717
17	0x3daf061a	0.08546086
18	0x3d407480	0.046986103
19	0xbd2a68f7	-0.04160401
20	0x3e20fe5f	0.15722035
21	0xbdf0885e	-0.1174476
22	0xbdb009aa	-0.08595593
23	0x3db8bfa0	0.090209246
24	0xbdbcd52d	-0.092203476
25	0x3d81d97f	0.06340312
26	0xbe37e86d	-0.17959757
27	0xbe859c02	-0.26095587
28	0xbe4fb4d1	-0.2028382
29	0xbe37771d	-0.17916532
30	0xbcb810f3	-0.02246902
31	0xbc90325c	-0.017602138

weight f4 [32, 64]
0	0xbd50c808	-0.050972015
1	0x3b87ada0	0.0041405708
2	0xbd7e4a08	-0.06208232
3	0x3d411508	0.047139198
4	0xbdda2048	-0.106506884
5	0x3dbba8c4	0.09163049
6	0xbdba1234	-0.09085503
7	0xbdcb87de	-0.09938024
8	0xbda1c35a	-0.078985885
9	0x3d67e1a8	0.056611687
10	0xbd3d2e14	-0.04618652
11	0x3d3f98e4	0.046776667
12	0xbdd94654	-0.10609117
13	0xbd9b523e	-0.07584046
14	0xbd3bfe80	-0.045897007
15	0xbcc93c78	-0.024564967
16	0xbdc34b04	-0.095357925
17	0x3da7a05e	0.081848845
18	0xbcf17db8	-0.029478893
19	0x3d245880	0.040123463
20	0x3db5075c	0.08839294
21	0x3cbec700	0.02328825
22	0x3d0c01bc	0.03418134
23	0x3df71b32	0.12065734
24	0xbd66eab4	-0.056376174
25	0x3d222d38	0.039593905
26	0xbd63cc0c	-0.055614516
27	0x3db6f348	0.08933121
28	0x3dcc74c0	0.09983206
29	0xbdec0660	-0.115246534
30	0x3dda8888	0.106705725
31	0x3d747cc4	0.0596893
32	0x3d5f1cdc	0.05447088
33	0x3d52c70c	0.051459357
34	0x3dd4d004	0.10391238
35	0xbc873560	-0.016504943
36	0xbdd87fb2	-0.10571231
37	0xbd12eaf8	-0.035868615
38	0xbdb44b58	-0.08803433
39	0x3c0762f0	0.008263335
40	0xbcbf3040	-0.023338437
41	0xbd895086	-0.06704812
42	0xbc3a3500	-0.011365175
43	0x3df2890e	0.11842547
44	0xbc218970	-0.009859428
45	0x3b820c60	0.0039687604
46	0xbc9fb420	-0.01949507
47	0x3ca0fae0	0.019650877
48	0x3de41968	0.11137658
49	0x3d9c8acc	0.07643661
50	0x3d35bd84	0.04437019
51	0x3cde86a8	0.027163818
52	0x3cf173b0	0.02947411
53	0x3d45cd78	0.048291653
54	0xbc845328	-0.016152933
55	0xbdededbc	-0.1161761
56	0xbd9e503e	-0.07730149
57	0x3dda8498	0.106698215
58	0x3bf4d500	0.0074716806
59	0xbdcf60fa	-0.10125919
60	0x3ca18350	0.019715935
61	0x3dd3868a	0.10328396
62	0xbdf1eb80	-0.11812496
63	0xbdac596a	-0.08415492
64	0xbd4be978	-0.0497832
65	0x3ba46740	0.005017191
66	0xbceed3b0	-0.029153675
67	0xbc610ea0	-0.013736397
68	0xbdf99266	-0.121861264
69	0x3d6fc248	0.05853489
70	0x3de0b3c8	0.109717906
71	0x3d9c7a1e	0.076404795
72	0xbdb5482a	-0.08851655
73	0xbdce5cca	-0.10076292
74	0x3d549bf4	0.05190654
75	0x3b37fb00	0.0028073192
76	0x3d51e278	0.051241368
77	0xbdfa2698	-0.122143924
78	0xbbf43740	-0.0074528754
79	0x3db48ada	0.08815546
80	0x3d6d85cc	0.057988927
81	0x3b959340	0.0045646727
82	0x3cc95680	0.02457738
83	0xbc41e7a0	-0.011835009
84	0xbd8cc1e4	-0.06872919
85	0xbd417c04	-0.04723741
86	0xbd9be618	-0.07612246
87	0x3dd4a2ce	0.10382615
88	0x3d8cdf96	0.06878583
89	0x3d330ed8	0.043715328
90	0xbdc45072	-0.09585656
91	0x3dc58902	0.09645273
92	0x3d2088ac	0.03919284
93	0x3db11974	0.08647433
94	0xbd496a6c	-0.049173757
95	0x3cd915b8	0.026499614
96	0x3df9f432	0.1220478
97	0x3dac3364	0.084082395
98	0x3dcd4fa8	0.10024959
99	0xbcd70640	-0.026248097
100	0x3dc30a62	0.09523465
101	0xbdc881e8	-0.09790403
102	0x3c312120	0.01081112
103	0xbd90245e	-0.070381865
104	0xbceecff8	-0.029151902
105	0xbd031f34	-0.03201218
106	0x3c193ac0	0.009352386
107	0x3de8feea	0.11376746
108	0x3d7d7ba4	0.06188549
109	0xba0ad000	-0.00052952766
110	0x3db5b870	0.08873069
111	0xbd83304a	-0.06405695
112	0x3d83ef62	0.06442143
113	0xbc3deaa0	-0.0115915835
114	0xbcb22fe8	-0.02175136
115	0x3c6fc430	0.014634177
116	0xbdc41eea	-0.09576209
117	0x3c6ca950	0.014444664
118	0x3d2c2764	0.042029753
119	0x3ddadcce	0.106866464
120	0xbd1f685c	-0.038917884
121	0x3d385588	0.045003444
122	0x3dffe006	0.12493901
123	0xbd5ba1d4	-0.05362113
124	0x3df35a06	0.11882405
125	0xbd7e3434	-0.062061504
126	0x3d61afe0	0.055099368
127	0x3d489378	0.048968762
128	0x3d0f0418	0.034916013
129	0x3dca7212	0.098850384
130	0xbd4eeea4	-0.050520554
131	0x3d069038	0.03285238
132	0x3a37e600	0.00070151687
133	0xbdc08c5a	-0.0940177
134	0xbcf8a438	-0.030351743
135	0xbdaaf674	-0.083477885
136	0x3d626230	0.05526942
137	0x3c381b60	0.011236995
138	0x3c48a1b0	0.012245581
139	0xbd1b5368	-0.03792134
140	0x3a1d9100	0.00060106814
141	0xbd1f410c	-0.038880393
142	0x3d131db8	0.035917014
143	0x3df89e94	0.121396214
144	0x3c9b1b18	0.018933818
145	0xbd62c630	-0.055364788
146	0xbd9c5f3a	-0.076353505
147	0x3c1c8c10	0.009554878
148	0xbdbde9a2	-0.092730775
149	0xbdc06c26	-0.09395628
150	0xbda69fe0	-0.081359625
151	0xbd2de5ec	-0.0424556
152	0x3c179680	0.009252191
153	0x3db048da	0.08607645
154	0x3d465158	0.04841742
155	0x3dc4205c	0.095764846
156	0xbda0bde2	-0.07848717
157	0x3c2cd3b0	0.010548517
158	0xbde38db0	-0.11111009
159	0x3d92db32	0.071707144
160	0x3cd56968	0.026051238
161	0x3df79b62	0.12090184
162	0xbdb61200	-0.08890152
163	0x3dcd4b46	0.10024123
164	0x3dd81f3a	0.10552831
165	0x3dcefb02	0.1010647
166	0x3c921e98	0.017836854
167	0x3de8c688	0.11365992
168	0x3daaf73c	0.083479375
169	0x3dbeff0e	0.093259916
170	0xbc050a30	-0.008120105
171	0xbdc47434	-0.095924765
172	0xbacbe200	-0.0015555024
173	0x3cc00a08	0.023442283
174	0xbdae6118	-0.08514613
175	0xbd92da04	-0.071704894
176	0xbdf57068	-0.119843304
177	0xbd337af4	-0.04381843
178	0x3ddefe58	0.10888356
179	0x3caf1998	0.021374509
180	0xbbfa2f20	-0.0076350123
181	0x3ba47cc0	0.005019754
182	0x3d9fa0b0	0.077943206
183	0xbde21074	-0.110382944
184	0xbdc586e6	-0.096448705
185	0xbd2a3990	-0.041558802
186	0xbd935528	-0.07193977
187	0x3d840a7e	0.06447314
188	0x3db4e2a8	0.08832294
189	0xbdf860b8	-0.12127823
190	0xbdd94312	-0.10608496
191	0xbdf94c20	-0.12172723
192	0x3d412780	0.04715681
193	0x3dce0af2	0.100606814
194	0xbdc67cb0	-0.09691751
195	0xbd6d08a0	-0.057869554
196	0x3d22edd0	0.039777577
197	0xbda72a0c	-0.08162317
198	0x3dd9777e	0.106184945
199	0x3ceec1d0	0.029145151
200	0xbd0e884c	-0.03479795
201	0x3c0504d0	0.008118823
202	0x3d1fa020	0.038971066
203	0xbd350cc8	-0.044201642
204	0xbdc65cf4	-0.09685698
205	0x3a5c4100	0.000840202
206	0x3b153780	0.0022768676
207	0x3b253180	0.0025206506
208	0xbc956ec0	-0.018241286
209	0x3da45eee	0.08025919
210	0xbd0ee0d8	-0.034882396
211	0xbc463b40	-0.012099087
212	0x3d528730	0.051398456
213	0xbda122ce	-0.078679666
214	0x3d0917a8	0.033469826
215	0xbce26c28	-0.027639464
216	0x3d7597c4	0.059959188
217	0xbd8adef2	-0.06780805
218	0x3b9761a0	0.004619792
219	0x3c485ac0	0.012228668
220	0xbdcdfa0a	-0.10057457
221	0xbdba25fe	-0.09089278
222	0x3d445bdc	0.047939166
223	0xbd15055c	-0.036382064
224	0x3d98099c	0.07423708
225	0xbdfce490	-0.12348282
226	0xbd7d18a4	-0.061791077
227	0xbdd2db82	-0.10295774
228	0x3d4c8784	0.049933925
229	0xbb6d7f40	-0.0036239177
230	0xbcbeff78	-0.023315176
231	0xbcaa5d40	-0.020796418
232	0xbdc81a24	-0.09770611
233	0x3d11335c	0.03544937
234	0x3b4c3140	0.0031157285
235	0xbdb0ab3e	-0.08626412
236	0x3d40a8c8	0.047035962
237	0xbb24a6c0	-0.0025123805
238	0xbdf796fc	-0.12089345
239	0x3d89b524	0.06724003
240	0x3d88ee5c	0.066860884
241	0xbcc0ee98	-0.02355127
242	0xbdb0c08e	-0.08630477
243	0x3ba47460	0.005018756
244	0x3dc12c24	0.09432247
245	0x3dea53b6	0.11441748
246	0xbdc13aa4	-0.09435013
247	0xbd674128	-0.056458622
248	0x3dc753ee	0.09732805
249	0x3d7a4124	0.06109728
250	0x3d9e77a2	0.07737662
251	0xbd7ed708	-0.06221679
252	0x3ddc8d86	0.10769181
253	0xbdd272ea	-0.10275824
254	0xbbc54cc0	-0.006021112
255	0x3b2a1700	0.002595365

bias f4 [32]
0	0x3bc4a0e0	0.006000623
1	0xbdf590fa	-0.11990543
2	0x3c824228	0.015900686
3	0x3d34205c	0.043976173
4	0x3de51af6	0.11186783
5	0xbd25f43c	-0.040516123
6	0x3d38ac5c	0.04508625
7	0xbd2b9140	-0.041886568
8	0xbd340bb4	-0.043956473
9	0xbde2d6e8	-0.11076146
10	0x3cd823a8	0.02638419
11	0x3dabc6c2	0.083875194
12	0xbd8e6972	-0.06953706
13	0x3d5152e4	0.05110444
14	0xbc9fbaf8	-0.019498333
15	0xbdb5c1a4	-0.08874825
16	0x3c5a6040	0.013328612
17	0xbdf978e2	-0.1218126
18	0x3d893b9e	0.06700824
19	0xbce24198	-0.027619168
20	0x3debc534	0.11512223
21	0x3b973520	0.0046144873
22	0xbdf8308a	-0.12118633
23	0x3dc6a8d2	0.09700169
24	0xbcdffb10	-0.027341396
25	0xbdaf5ae6	-0.085622594
26	0x3dec5cbc	0.11541125
27	0x3c3f4760	0.011674732
28	0x3d25ff34	0.040526584
29	0xbddd7652	-0.108135834
30	0xbd34d278	-0.04414603
31	0x3dcd66e6	0.10029392

weight_ih_l0 f4 [128, 32]
0	0xbd60ad20	-0.054852605
1	0x3d4de4d0	0.05026704
2	0xbdab2d2c	-0.08358225
3	0xbc28b48b	-0.010296951
4	0xbe398d8b	-0.181204
5	0x3e56e7e0	0.20986891
6	0xbe1361af	-0.14392732
7	0xbebd9dcc	-0.37034452
8	0xbdea2207	-0.114322715
9	0x3e853e86	0.26024264
10	0xbe53b705	-0.20675285
11	0xbdff37c3	-0.124618076
12	0x3c913347	0.017724646
13	0xbd959f4b	-0.07305773
14	0x3dd84b6e	0.10561262
15	0x3e6290a1	0.22125484
16	0x3d841563	0.06449392
17	0x3e1fad5b	0.15593474
18	0xbe8ea840	-0.2786274
19	0x3d27de2a	0.040983357
20	0xbe998835	-0.2998673
21	0xbdb7d943	-0.08976986
22	0xbe804791	-0.250546
23	0xbea23b9e	-0.3168611
24	0xbe381693	-0.17977361
25	0xbe7b8935	-0.24564059
26	0xbd6d4088	-0.05792287
27	0xbcb84b5c	-0.022496872
28	0x3d4fd9ac	0.050744697
29	0xbe702e89	-0.23455252
30	0x3e8b4ccd	0.27207032
31	0xbed77516	-0.42081517
32	0x3c3338f2	0.01093887
33	0xbdf42ea7	-0.11922961
34	0xbe8a406d	-0.27002278
35	0xbe299d66	-0.16563949
36	0x3dafe7cf	0.08589136
37	0x3d7473b9	0.059680674
38	0x3da3454e	0.07972203
39	0xbe831c06	-0.25607318
40	0xbdd4f967	-0.10399132
41	0x3e92adb5	0.28648153
42	0x3e0fee0b	0.1405565
43	0xbc2dc913	-0.010607022
44	0x3eaa835d	0.33303347
45	0x3d0be62c	0.034155056
46	0xbda32237	-0.0796551
47	0xbe62501d	-0.22100873
48	0x3c893353	0.016748106
49	0x3db1f9c8	0.0869022
50	0xbdbfa568	-0.093577206
51	0x3df2f8e9	0.11863882
52	0xbeaafa3a	-0.33394033
53	0xbda096e6	-0.078412816
54	0xbd232895	-0.039833624
55	0xbed9d294	-0.4254347
56	0x3d6f07b0	0.05835694
57	0x3c951828	0.018199995
58	0x3e5139cb	0.20432203
59	0x3d24364a	0.040090837
60	0xbd1e6146	-0.038666986
61	0x3c70eb44	0.014704529
62	0x3e191acd	0.1495163
63	0xbe184574	-0.14870244
64	0x3df98236	0.12183039
65	0x3e8737b1	0.26409677
66	0x3dc146b8	0.09437317
67	0xbe49dde7	-0.19713555
68	0x3da035c3	0.07822754
69	0xbe5db087	-0.21649371
70	0x3d6bd37c	0.057574734
71	0xbea86ace	-0.32893986
72	0x3c64a0dd	0.013954368
73	0x3e84f754	0.25969946
74	0x3e4d8b5c	0.20072693
75	0xbe8dd28d	-0.276997
76	0xbda8c4eb	-0.08240684
77	0xbdd5ec6a	-0.10445483
78	0x3ce2c235	0.027680496
79	0xbe0a5a32	-0.1351097
80	0x3ec7193c	0.3888644
81	0x3eeac0df	0.45850274
82	0xbcd135f3	-0.02553842
83	0x3df85eed	0.12127481
84	0xbd4ac9ef	-0.049508985
85	0x3deeffa4	0.11669853
86	0xbe88df22	-0.26732737
87	0xbf1b9278	-0.6077037
88	0xbdbaf18d	-0.091281034
89	0xbed3b831	-0.41351464
90	0x3dfbca8c	0.12294492
91	0x3e8f70b9	0.28015688
92	0x3e0aed6c	0.13567132
93	0xbe349cca	-0.17637935
94	0x3c8933a2	0.016748253
95	0xbbe250ae	-0.0069065904
96	0x3d3e7bfa	0.046504952
97	0x3d15ecd8	0.036602825
98	0xbe1291e5	-0.14313467
99	0xbf0a0646	-0.5391582
100	0xbe46086d	-0.19339152
101	0xbdc94af8	-0.09828752
102	0x3d8567ea	0.06513961
103	0xbf1f671f	-0.62266725
104	0x3dae4028	0.085083306
105	0x3e85d7f0	0.2614131
106	0xbe03658a	-0.12831703
107	0x3e48f9a8	0.19626486
108	0x3eb0ccec	0.34531343
109	0xbe1b9954	-0.15195209
110	0x3e13f2a2	0.14448026
111	0x3eab7aa9	0.3349202
112	0x3da014e7	0.07816487
113	0x3e6d6f5f	0.23187016
114	0xbe5ecb78	-0.21757305
115	0xbe64e6b6	-0.22353634
116	0x3d04f03e	0.032455675
117	0xbe780270	-0.2421968
118	0xbe3125d8	-0.17299592
119	0xbf12a698	-0.5728545
120	0xbe20474d	-0.15652199
121	0xbe9b69bd	-0.3035411
122	0xbd3794cd	-0.04481964
123	0x3da02b7b	0.07820793
124	0xbc48166a	-0.012212375
125	0x3dc2f97b	0.09520241
126	0x3cced065	0.025245855
127	0xbd0b7b93	-0.034053396
128	0xbe01927d	-0.12653537
129	0x3c0690d5	0.008213242
130	0x3de23adc	0.11046383
131	0xbee27cef	-0.44235942
132	0xbe89e630	-0.26933432
133	0xbdb52972	-0.08845796
134	0xbdba86d4	-0.09107748
135	0xbecd76c0	-0.40129662
136	0xbd30d820	-0.043174863
137	0x3e2c3abf	0.16819285
138	0x3d989b81	0.07451535
139	0x3e4fd237	0.20295034
140	0x3ed21aa3	0.41035947
141	0xbe521eb4	-0.20519525
142	0xbc668163	-0.014068934
143	0x3e09449f	0.13405083
144	0x3da07551	0.07834876
145	0x3f157f6d	0.5839756
146	0xbe9a209d	-0.30103007
147	0xbe91d49f	-0.2848253
148	0xbd5233aa	-0.051318802
149	0xbea83e7a	-0.32860166
150	0xbe285480	-0.16438484
151	0xbf0ac33e	-0.54204166
152	0xbe6eb1fe	-0.23310086
153	0xbe8da19d	-0.27662364
154	0x3d9f2d8c	0.07772359
155	0x3e509ead	0.2037303
156	0x3e53d403	0.20686345
157	0xbdebd66e	-0.115155086
158	0xbe1ea060	-0.15490866
159	0xbd9696cc	-0.07352981
160	0xbe3024d7	-0.17201553
161	0xbc55a975	-0.01304089
162	0xbe27c671	-0.16384293
163	0xbe3cf796	-0.18453822
164	0xbe60d71c	-0.21957058
165	0x3e1cedc6	0.15325078
166	0xbe31b38b	-0.17353646
167	0xbe80eee3	-0.25182256
168	0xbe9c00c9	-0.3046935
169	0x3e15ae86	0.14617357
170	0xbe684435	-0.22682269
171	0x3c733e6c	0.0148464255
172	0x3e3767b3	0.17910652
173	0x3d76118c	0.060075328
174	0x3d392546	0.045201562
175	0x3e886da2	0.26646143
176	0x3ea58064	0.32324517
177	0x3daa80a8	0.083253205
178	0x3d444428	0.04791656
179	0xbe926f12	-0.28600365
180	0xbeb7738e	-0.3583035
181	0xbddab0c8	-0.106782496
182	0x3d5d4eca	0.054030217
183	0xbed0dbca	-0.40792686
184	0xbe0636d0	-0.13106847
185	0xbe89b9f7	-0.26899692
186	0x3d6476a9	0.055777226
187	0x3dcaf42d	0.09909854
188	0x3d62848f	0.0553022
189	0xbda663ce	-0.08124505
190	0xbe838f57	-0.25695297
191	0xbe65a2f7	-0.22425447
192	0x3e5f2938	0.21793067
193	0x3de4c576	0.11170475
194	0xbec51eb0	-0.38499975
195	0x3d993d74	0.074824244
196	0x3e37c8c9	0.17947687
197	0xbd8aa4fd	-0.0676975
198	0x3dc2a1f4	0.09503546
199	0xbe7b1123	-0.24518256
200	0xbd9a49e6	-0.07533626
201	0xbe03e3e1	-0.12879898
202	0xbdfd56fc	-0.123701066
203	0xbe58b0a7	-0.21161138
204	0xbd329e30	-0.04360789
205	0xbc8ce721	-0.017200055
206	0x3ceb7cf5	0.028746108
207	0xbe0d002f	-0.13769601
208	0x3e327922	0.17429021
209	0x3e1cad18	0.15300405
210	0xbe2f02b1	-0.1709087
211	0x3dc4752b	0.095926605
212	0xbe7923ff	-0.24330138
213	0x3ab6b690	0.0013939906
214	0x3cd652ce	0.026162531
215	0xbee4e972	-0.44709355
216	0xbd1635b6	-0.036672316
217	0x3d6b926f	0.057512697
218	0xbc74a5d0	-0.014932111
219	0x3e18ecf6	0.14934143
220	0xbab8ded6	-0.0014104496
221	0xbd11c6d7	-0.03559002
222	0xbde56b5b	-0.11202117
223	0xbe0bb74d	-0.13644142
224	0x3c01f3c9	0.007931658
225	0x3ee39b50	0.44454432
226	0xbd9f6322	-0.0778258
227	0xbec5efdc	-0.3865956
228	0xbe04463b	-0.12917416
229	0xbeff6e64	-0.4988891
230	0xbdc395ea	-0.09550078
231	0xbf1a98ff	-0.60389704
232	0xbe5550f9	-0.2083167
233	0x3e4d8aec	0.20072526
234	0x3d46fcbb	0.048580866
235	0xbe823b21	-0.25435737
236	0x3ce8ff21	0.028441967
237	0xbf181142	-0.59401333
238	0x3c797773	0.015226233
239	0xbdd3fb3d	-0.10350654
240	0x3e478218	0.1948322
241	0x3e95e642	0.29277235
242	0xbe61faee	-0.22068378
243	0x3e12e418	0.14344823
244	0xbdaa789f	-0.08323788
245	0x3d98cad2	0.0746056
246	0x3ce0ae3b	0.02742683
247	0xbf2706f4	-0.65244985
248	0x3e86d36b	0.26333174
249	0xbebe587b	-0.3717688
250	0x3f08c8ab	0.53431195
251	0x3eb2452c	0.348184
252	0x3e92ce01	0.28672794
253	0x3d2fd350	0.042926133
254	0xbe7435ba	-0.2384862
255	0x3e37c7fc	0.17947382

weight_hh_l0 f4 [128, 32]
0	0xbc2b88f1	-0.010469661
1	0x3e1eb30b	0.15497987
2	0xbdc24e11	-0.09487546
3	0xbe20ea55	-0.1571439
4	0xbdf70b6b	-0.12062725
5	0x3cc02b4f	0.023458151
6	0x3e94df81	0.2907677
7	0x3d5be33d	0.05368351
8	0x3e290b76	0.16508278
9	0xbdb0c952	-0.08632149
10	0xbd822c49	-0.06356103
11	0xbc93e540	-0.01805365
12	0x3c35bb85	0.011092071
13	0xbdbfee43	-0.09371617
14	0x3df2e77b	0.11860558
15	0x3dce321c	0.10068151
16	0xbbd3c2fb	-0.0064624525
17	0xbc11fc91	-0.008910314
18	0x3e2a64a5	0.16639955
19	0xbd23595a	-0.039880134
20	0x3e86e5f4	0.26347315
21	0xbd1224d2	-0.035679646
22	0xbdd1b4d8	-0.10239571
23	0xbe1cd749	-0.153165
24	0x3e488b19	0.19584312
25	0xbe1dbe80	-0.15404701
26	0x3da086e7	0.078382306
27	0x3e405873	0.1878374
28	0xbde704cf	-0.11280214
29	0xbdc55e76	-0.096371576
30	0x3dbfca15	0.09364716
31	0xbd8213af	-0.063514106
32	0x3a39fc9e	0.0007094833
33	0x3e193e59	0.1496519
34	0xbd5cd68b	-0.05391554
35	0x3e979ec4	0.29613316
36	0xbd031ea7	-0.032011654
37	0x3d29164b	0.041281026
38	0x3e38ac29	0.18034424
39	0xbdd092e3	-0.101842664
40	0x3e22b6bb	0.15890019
41	0x3e0a5c7f	0.13511847
42	0xbdfbff48	-0.123045504
43	0xbc99564f	-0.018717913
44	0x3da3ea5b	0.08003684
45	0xbd5c8a95	-0.0538431
46	0x3d3fcee3	0.046828162
47	0xbcbcddf8	-0.023055062
48	0xbe0dbdf4	-0.13841993
49	0x3d038c9b	0.032116514
50	0x3de59a16	0.1121103
51	0xbdf0213c	-0.11725089
52	0x3d71c684	0.05902721
53	0xbe10e610	-0.14150262
54	0xbdafc739	-0.085829206
55	0xbe93bf97	-0.2885711
56	0x3d712e2f	0.058881935
57	0xbd1740c8	-0.036927015
58	0x3e1b1f69	0.15148701
59	0xbc6ae503	-0.014336827
60	0x3e28f2c3	0.16498856
61	0xbce8195e	-0.028332409
62	0x3dcc2ad0	0.09969103
63	0xbdb0bb7c	-0.0862951
64	0xbd91757d	-0.07102487
65	0x3de3eccf	0.11129152
66	0xbe2a2ad0	-0.16617894
67	0x3d150505	0.03638174
68	0x3e78ad4e	0.2428486
69	0x3e22bc73	0.158922
70	0x3e8adc37	0.27121136
71	0x3d117a57	0.035517063
72	0x3e225721	0.1585355
73	0x3e0eba7b	0.13938324
74	0xbe55115e	-0.20807406
75	0x3dfb7b25	0.12279347
76	0x3b4163a0	0.0029508844
77	0x3db59995	0.08867184
78	0xbde9bd29	-0.114130326
79	0x3e3ed0b9	0.18634309
80	0x3de388da	0.11110087
81	0x3e06f212	0.1317828
82	0x3b0be533	0.002134633
83	0xbe1be11a	-0.15222588
84	0xbe02b531	-0.12764432
85	0xbdcb42ee	-0.09924875
86	0x3c8e6ed0	0.017386824
87	0xbeac057b	-0.3359793
88	0x3e85457a	0.2602957
89	0xbe0f1366	-0.13972244
90	0x3dd9eb23	0.10640552
91	0xbd5c01ea	-0.053712763
92	0x3d5ed3bf	0.054401156
93	0xbd0919d6	-0.033471905
94	0xbd775a07	-0.06038859
95	0xbda58f28	-0.080839455
96	0x3dc16fb1	0.094451316
97	0x3e6b620f	0.22986625
98	0x3d531ec1	0.051543
99	0xbe233169	-0.15936817
100	0xbd7c64dc	-0.061619624
101	0xbdac5ec3	-0.08416512
102	0xbc99b8fe	-0.018764969
103	0x3e4cb06c	0.19989175
104	0x3b7d6b81	0.0038668814
105	0x3e6be073	0.2303484
106	0x3da0400d	0.07824717
107	0xbe3444d6	-0.17604384
108	0xbe10c084	-0.14135939
109	0xbe196732	-0.14980772
110	0xbe095e37	-0.13414846
111	0x3de1456b	0.109995686
112	0xbe397bd2	-0.1811364
113	0xbe4b5ec1	-0.19860364
114	0xbe96e4c7	-0.29471418
115	0x3cfb670f	0.03068879
116	0x3d171ed9	0.036894653
117	0x3d455d5e	0.048184745
118	0xbe249bd2	-0.16075066
119	0xbdded6aa	-0.10880788
120	0x3d8d6dfe	0.06905745
121	0x3e68db32	0.22739866
122	0xbd730d4b	-0.05933885
123	0x3e09cee7	0.13457833
124	0x3e3bda7e	0.18345067
125	0x3e40d559	0.18831386
126	0xbda37d47	-0.07982879
127	0x3e5603f8	0.20899951
128	0x3c35f7d0	0.011106446
129	0x3e55d7f2	0.20883158
130	0x3e17afff	0.14813231
131	0xbd1e91b7	-0.038713183
132	0xbe296624	-0.1654287
133	0xbea88601	-0.32914737
134	0xbdac9fca	-0.08428915
135	0xbd940da5	-0.07229165
136	0xbdb6e6cf	-0.08930742
137	0x3ce9ee05	0.02855588
138	0x3d4a1cf4	0.049344018
139	0xbd934f6a	-0.071928814
140	0xbad80818	-0.0016481904
141	0xbe6c5837	-0.23080526
142	0xbcd32381	-0.025773766
143	0xbbd95378	-0.0066322647
144	0x3de41d27	0.11138373
145	0xbe8796ef	-0.2648234
146	0xbe50b043	-0.20379739
147	0xbe359bcc	-0.17735213
148	0x3dc0a32a	0.09406121
149	0xbc56ccce	-0.013110353
150	0xbcda6959	-0.026661562
151	0x3da825fd	0.08210371
152	0x3e84525b	0.25844082
153	0x3c48b3af	0.012249871
154	0xbcc9d6c8	-0.024638548
155	0x3e20ed9f	0.15715645
156	0x3e362871	0.17788865
157	0x3da67ef2	0.08129682
158	0xbdcea2fa	-0.10089679
159	0x3da442a8	0.08020526
160	0xbe351282	-0.17682841
161	0xbd35b74a	-0.04436425
162	0xbd19abb3	-0.03751726
163	0xbcec1e2a	-0.028822977
164	0x3d171c9e	0.036892526
165	0x3e2363ba	0.15956011
166	0x3e142169	0.1446587
167	0x3d5c531f	0.053790208
168	0x3e1d3ecc	0.15355986
169	0x3df33df2	0.118770495
170	0x3c8be541	0.01707709
171	0x3ddde411	0.10834516
172	0x3e72448a	0.23658958
173	0xbd7c129d	-0.06154119
174	0x3dc60991	0.096697934
175	0xbccff1bc	-0.025383823
176	0xbc33b3a1	-0.01096812
177	0xbe246cda	-0.16057149
178	0x3cb5bdc7	0.02218522
179	0xbe43fcc6	-0.19139394
180	0xbcd67ba3	-0.026182001
181	0xbe7f5440	-0.24934483
182	0xbe412526	-0.18861827
183	0xbda539eb	-0.080676876
184	0x3de63280	0.11240101
185	0xbe051977	-0.12997995
186	0xbdb76226	-0.08954267
187	0xbdc2923e	-0.0950055
188	0x3de3540e	0.111000165
189	0xbe25fd19	-0.1620983
190	0x3db52aa2	0.08846022
191	0x3e168bdf	0.14701794
192	0xbe4f67a5	-0.20254381
193	0x3e9fd330	0.3121581
194	0x3ebddcc2	0.37082487
195	0x3ed77c65	0.42087093
196	0x3e6c188c	0.23056239
197	0x3e61b547	0.22041808
198	0x3cbd8a74	0.023137309
199	0x3a9dba97	0.0012033758
200	0x3e93f4f3	0.2889782
201	0x3e5f3e16	0.21801028
202	0xbc03e432	-0.0080500115
203	0x3e20ca00	0.15702057
204	0x3db05f9f	0.08611988
205	0x3e20c80e	0.15701315
206	0x3c4db033	0.012554216
207	0xbd8d0e17	-0.06887453
208	0xbe4c8e7a	-0.19976225
209	0xbe3b317b	-0.18280594
210	0x3e977a6e	0.29585594
211	0x3dd4760d	0.10374079
212	0xbd95e2c6	-0.07318644
213	0xbd4d6d88	-0.050153285
214	0x3e0f510c	0.1399576
215	0xbe545511	-0.20735575
216	0x3e0196da	0.12655202
217	0xbdff3138	-0.124605596
218	0xbdd04497	-0.101693325
219	0x3a76f446	0.0009420555
220	0xbe32d85a	-0.17465344
221	0x3db40e05	0.087917365
222	0x3e1a4173	0.1506403
223	0x3e45bb40	0.19309711
224	0x3dd150f9	0.102205224
225	0xbdabe810	-0.08393872
226	0xbcf69cb3	-0.030104017
227	0x3e393a94	0.18088752
228	0x3da98ab9	0.08278412
229	0x3e0ff5b9	0.1405858
230	0x3e42d48d	0.19026394
231	0x3c27f4d1	0.01025124
232	0xbd9b729d	-0.0759022
233	0x3cc0796d	0.0234954
234	0xbd1dc473	-0.038517427
235	0x3db2aaeb	0.08724006
236	0x3db91712	0.090376034
237	0x3cc82d0e	0.024435546
238	0xbde3caa6	-0.111226365
239	0xbcdd9932	-0.027050588
240	0xbe234257	-0.15943275
241	0xbbb72317	-0.0055889
242	0x3e8b422d	0.27198926
243	0x3e0fae1e	0.14031264
244	0xbe0c8a8d	-0.13724728
245	0xbe0d5871	-0.13803269
246	0x3dc2965e	0.095013365
247	0xbe25a6c6	-0.161769
248	0x3bb6d42f	0.0055794935
249	0xbd768aa0	-0.060190797
250	0xbdbfbcc3	-0.09362175
251	0xbd9ef67e	-0.077618584
252	0xbd35ddc1	-0.044400934
253	0x3a9c51a3	0.0011926185
254	0x3e0b77e1	0.13619949
255	0x3e62c937	0.2214707

bias_ih_l0 f4 [128]
0	0xbe2d45e3	-0.16921191
1	0xbdafc6e0	-0.08582854
2	0xbece0258	-0.40236163
3	0xbc32a92f	-0.010904594
4	0xbcaf8aa6	-0.021428417
5	0xbd82fdf3	-0.06396093
6	0xbe14647d	-0.14491458
7	0xbf149316	-0.58036935
8	0xbeb9aee9	-0.36266258
9	0xbe7280b6	-0.23681912
10	0xbdcf1dc1	-0.10113097
11	0x3b7219bb	0.0036941606
12	0xbd417fb5	-0.04724093
13	0xbece651e	-0.4031152
14	0xbee5ba69	-0.44868782
15	0xbe695fd0	-0.22790456
16	0xbe4e216c	-0.20129937
17	0xbef27728	-0.47356534
18	0x3d948115	0.07251183
19	0xbe57a331	-0.21058346
20	0xbe99a2c7	-0.30007002
21	0xbe87c613	-0.26518306
22	0xbdb864f6	-0.09003632
23	0xbdd3d49d	-0.10343287
24	0xbeb36ea3	-0.35045347
25	0xbe0685ab	-0.13136928
26	0xbe8472b7	-0.2586877
27	0xbe1cf265	-0.15326841
28	0xbeb7cdf9	-0.35899332
29	0xbe27eb22	-0.1639829
30	0xbe56a09c	-0.20959705
31	0xbe0fc061	-0.1403823
32	0x3cffc40b	0.03122141
33	0x3de7deb5	0.11321775
34	0x3c4d5495	0.012532373
35	0xbcba97db	-0.022777488
36	0x3d1407c3	0.036140215
37	0xbd50dbff	-0.050991055
38	0x3d86cbf9	0.065818734
39	0xbe00f1b6	-0.12592205
40	0x3b6c29f4	0.0036035748
41	0x3d95f5e0	0.073222876
42	0x3d2594ae	0.040424995
43	0xbe00f077	-0.1259173
44	0xbe1a3d56	-0.1506246
45	0xbe2d7bb9	-0.16941728
46	0xbea258cf	-0.3170838
47	0xbdf782a8	-0.120854676
48	0x3db8bbd2	0.09020199
49	0xbecb8054	-0.39746344
50	0x3db395a4	0.08768776
51	0xbdc82c82	-0.09774114
52	0xbe3c417b	-0.18384354
53	0xbdb47dd4	-0.08813062
54	0xbe2863df	-0.16444348
55	0x3e1d3295	0.15351327
56	0xbe039ac3	-0.12852006
57	0x3da3ee9e	0.08004497
58	0xbbf0160c	-0.007326847
59	0x3ce705ea	0.028201062
60	0xbce08fba	-0.027412284
61	0xbd6ef014	-0.058334425
62	0xbd9790ae	-0.07400642
63	0xbe7c81ea	-0.24658933
64	0x3d7cd3e4	0.061725512
65	0xbd99a9a2	-0.07503058
66	0x3d810ecb	0.0630165
67	0xbe404732	-0.18777159
68	0x3d5913c9	0.052997384
69	0xbd8ad199	-0.06778259
70	0xbdb3d74c	-0.08781299
71	0xbd89e794	-0.06733623
72	0x3e1c620f	0.15271781
73	0xbe16e277	-0.14734827
74	0x3ddc240b	0.10749062
75	0xbdcca895	-0.09993092
76	0xbdfd0e15	-0.123562016
77	0x3bd55080	0.0065098405
78	0xbd8afa46	-0.06786017
79	0xbd866430	-0.06562078
80	0x3e14f6b4	0.14547235
81	0x3d126006	0.035736106
82	0xbe310242	-0.17286018
83	0x3dae8d1b	0.085230075
84	0xbd84c9c9	-0.064838
85	0x3db09d8b	0.08623799
86	0xbdd35a4f	-0.10319959
87	0x3dd92d7d	0.10604379
88	0xbe09d191	-0.1345885
89	0x3d143cde	0.03619086
90	0x3d8fb5b9	0.07017083
91	0x3df0716d	0.11740384
92	0xbd6fd39d	-0.05855142
93	0xbd514dc3	-0.05109955
94	0xbad6ad00	-0.0016378462
95	0x3d490195	0.049073774
96	0xbda143e2	-0.07874276
97	0x3d4f72db	0.050646644
98	0xbea3ed7c	-0.32017124
99	0xbddcd77b	-0.10783287
100	0xbe1f5184	-0.1555844
101	0xbe0656a4	-0.13118988
102	0xbcce05e3	-0.025149291
103	0xbe97bf87	-0.2963831
104	0xbe060f79	-0.1309184
105	0xbe96a18f	-0.29420134
106	0xbcd6533d	-0.026162738
107	0xbd4ba1e2	-0.04971493
108	0xbe1de2dd	-0.15418573
109	0xbea98afc	-0.3311385
110	0xbe5b96d1	-0.2144425
111	0xbdd70fb7	-0.10501044
112	0xbe5059e4	-0.2034679
113	0xbe8038ec	-0.25043428
114	0x3d894daf	0.0670427
115	0xbcd5a545	-0.026079783
116	0xbddb3248	-0.1070295
117	0xbe977595	-0.29581895
118	0xbe47b8e3	-0.19504122
119	0xbddea685	-0.10871605
120	0xbecac0e5	-0.39600292
121	0x3d821da2	0.06353308
122	0xbe0a2c20	-0.13493395
123	0xbd82fafe	-0.06395529
124	0xbe451679	-0.19246854
125	0xbe6e26ba	-0.2325696
126	0xbe5baa04	-0.21451575
127	0xbc599c8d	-0.0132819535

bias_hh_l0 f4 [128]
0	0xbe8a9ea9	-0.27074173
1	0xbe1f5515	-0.155598
2	0xbd8cdf1e	-0.06878494
3	0xbe8c7a47	-0.2743704
4	0xbe23474c	-0.15945166
5	0xbeb22d4b	-0.3480018
6	0xbd824d19	-0.063623615
7	0xbebe12df	-0.37123773
8	0xbe6a74bf	-0.22896098
9	0xbd4ba1a0	-0.049714684
10	0xbe34f5f2	-0.17671946
11	0xbd78c328	-0.06073299
12	0xbe01cab9	-0.12674989
13	0xbe1e325c	-0.15448898
14	0xbe25207b	-0.16125672
15	0xbec04001	-0.3754883
16	0x3d4cc035	0.04998799
17	0xbe841ab9	-0.25801638
18	0xbe3ab88d	-0.18234463
19	0x3c87db4f	0.016584067
20	0xbe06905e	-0.13141009
21	0xbe6ac097	-0.2292503
22	0xbe817f0a	-0.25292236
23	0xbda57e1d	-0.08080695
24	0xbec7dd83	-0.39036188
25	0xbcda951d	-0.02668243
26	0xbec9111f	-0.39270875
27	0xbe921218	-0.2852943
28	0xbeaafff1	-0.33398393
29	0x3b65b80c	0.0035052327
30	0xbe0b9cfe	-0.13634107
31	0xbea48490	-0.32132387
32	0xbe3b2859	-0.1827711
33	0xbda8f1f0	-0.08249271
34	0xbe99ecfe	-0.30063623
35	0xbb43f39e	-0.0029899846
36	0x3d751eb2	0.059843726
37	0xbe689f56	-0.22717032
38	0x3da53e93	0.08068576
39	0xbec4e53b	-0.3845614
40	0xbe0bb6df	-0.13643979
41	0xbd6a63e7	-0.05722418
42	0x3daa4a13	0.0831491
43	0xbbbceb65	-0.005765366
44	0xbe72c89d	-0.2370934
45	0x3cf7f76d	0.030269349
46	0xbe206f9b	-0.15667574
47	0xbd8a0432	-0.067390814
48	0xbe203828	-0.15646422
49	0xbe898ac4	-0.26863682
50	0xbde03d07	-0.1094914
51	0x3e043712	0.12911633
52	0xbe90effc	-0.28308094
53	0xbe9498d4	-0.2902285
54	0xbdb1658b	-0.08661946
55	0xbd1c6e25	-0.03819098
56	0xbea9d961	-0.3317366
57	0xbc0db1dd	-0.008648363
58	0xbe616d78	-0.22014415
59	0xbe3fd44e	-0.18733332
60	0xbe54b6c3	-0.20772843
61	0xbe7dee4c	-0.24797934
62	0xbe49431e	-0.1965451
63	0xbe2e64dd	-0.17030664
64	0xbc5ca3c2	-0.013466777
65	0xbd8abb96	-0.067740604
66	0xbc0d14e3	-0.008610937
67	0x3bfeeb9a	0.0077795507
68	0x3d01f1f6	0.031724893
69	0xbb7e8568	-0.003883684
70	0xbcf39539	-0.02973424
71	0x3d792632	0.06082744
72	0xbc1fecbf	-0.0097610345
73	0x3e04e0de	0.12976405
74	0x3d35df44	0.044402376
75	0x3e1df6ea	0.15426221
76	0x3e070ec1	0.13189222
77	0xbd8e8c7d	-0.0696039
78	0x3de4c0bc	0.11169574
79	0xbde07654	-0.10960069
80	0xbe0edfef	-0.13952611
81	0xbdfad457	-0.12247532
82	0x3cd82be7	0.026388122
83	0x3cec658d	0.028857017
84	0x3dbb8db6	0.091578886
85	0x3cee9e03	0.02912808
86	0xbe03c666	-0.12868652
87	0xbdd1ea35	-0.102497496
88	0x3c20e7b8	0.009820871
89	0x3d8a8728	0.0676406
90	0x3d51ebdb	0.05125032
91	0x3daf4d3a	0.08559652
92	0xbcc31786	-0.023814928
93	0x3d9415cc	0.0723072
94	0xbd904576	-0.070444986
95	0xbdacd4c2	-0.08439018
96	0xbe957d5d	-0.29197207
97	0x3d85e5cc	0.06537971
98	0xbe209322	-0.15681127
99	0xbdebbb16	-0.11510293
100	0xbd0daecf	-0.03459054
101	0xbe0db23d	-0.13837524
102	0x3e134298	0.14380872
103	0xbf1ec7d5	-0.6202367
104	0xbeb86966	-0.36017913
105	0xbda42e6c	-0.08016667
106	0xbe48ae7b	-0.19597809
107	0xbd55a1e7	-0.052156355
108	0xbe575898	-0.2102989
109	0xbe2b528b	-0.16730706
110	0xbeb98bc7	-0.36239454
111	0xbe584f76	-0.21124062
112	0xbe4ddbb9	-0.20103349
113	0xbe9f57ca	-0.31121665
114	0xbcfc58ec	-0.03080412
115	0xbe3586c0	-0.17727184
116	0xbed19d9e	-0.40940565
117	0xbdfcb31f	-0.12338852
118	0xbdff3f01	-0.12463189
119	0xbce4a399	-0.02791004
120	0xbe441853	-0.19149904
121	0xbd846d59	-0.06466169
122	0xbe8bb086	-0.27283114
123	0xbc29c496	-0.010361811
124	0xbe81a34c	-0.25319898
125	0xbe7f89f0	-0.24954963
126	0xbe0a69f4	-0.1351698
127	0xbe49eb43	-0.19718651
