experiments/pedestrians/models/06_Aug_2023_21_23_08/model_registrar-65.pt (torch, 713991 bytes, 82 tensors)

weight f4 [64, 10]
0	0xbc9f5e67	-0.019454194
1	0xbcad5034	-0.021156408
2	0x3e1cf77e	0.15328786
3	0x3cc2b71d	0.023768956
4	0xbf348c1f	-0.7052631
5	0x3f5f1507	0.8714146
6	0x3c962e60	0.01833266
7	0xbe784ffe	-0.24249265
8	0xbe22690c	-0.15860385
9	0x3dfc6a00	0.123249054
10	0x3d5b01c4	0.05346848
11	0x3e9be5cb	0.30448756
12	0x3ebddae7	0.37081072
13	0x3d85cf67	0.065336995
14	0xbe6c6e2d	-0.23088904
15	0xbe38b0c8	-0.18036187
16	0xbe934249	-0.2876151
17	0xbebddc79	-0.3708227
18	0xbde5e022	-0.112243906
19	0x3db988f2	0.09059323
20	0x3c49748e	0.012295855
21	0x3dbbf46b	0.091774784
22	0xbd2f68b6	-0.04282447
23	0x3f033739	0.5125614
24	0xbdcafd6d	-0.099116184
25	0xbcfd5407	-0.030923856
26	0xbe87c643	-0.2651845
27	0xbce43ee2	-0.027862016
28	0x3b78f515	0.0037987877
29	0xbe1e3feb	-0.1545407
30	0x3ab17a9b	0.0013540568
31	0x3cd2018e	0.025635507
32	0xbd2333bc	-0.03984426
33	0xbd82008c	-0.063477606
34	0xbf1ed273	-0.6203987
35	0x3f3f0d9d	0.7463015
36	0xbe8aa05f	-0.27075478
37	0xbe564831	-0.20925976
38	0xbd048756	-0.03235563
39	0xbe80a4d1	-0.25125745
40	0x3d1f7206	0.0389271
41	0xbd33c92b	-0.04389302
42	0x3d620823	0.05518354
43	0x3dffa187	0.12481981
44	0x3f1aca7c	0.60465217
45	0x3ee1459a	0.43998414
46	0x3e9073c3	0.2821332
47	0x3e26b5d7	0.16280304
48	0xbe7e22f7	-0.24818026
49	0x3e324a45	0.17411144
50	0x3b258c56	0.0025260649
51	0x3d6f2e68	0.058393866
52	0x3ec19755	0.3781077
53	0xbe38eddd	-0.18059488
54	0x3b3f93d5	0.0029232402
55	0x3ed7fc90	0.42184877
56	0x3e311598	0.17293394
57	0xbc33190e	-0.0109312665
58	0xbd6f2710	-0.058386862
59	0x3d9b1db8	0.07574028
60	0xbd1f16da	-0.038840152
61	0x3e543994	0.2072509
62	0x3ee9f8fe	0.45697778
63	0x3c7dec7e	0.015498279
64	0x3f01c25a	0.5068718
65	0xbeff218a	-0.49830276
66	0xbe86a3c7	-0.26296827
67	0x3e88ab46	0.2669317
68	0x3e9e1852	0.3087793
69	0x3e685638	0.2268914
70	0xbd0df99c	-0.034661874
71	0xbe0f3b3c	-0.1398744
72	0x3d491150	0.049088776
73	0xbeb70ec3	-0.3575345
74	0xbf38e199	-0.72219235
75	0xbeb716a6	-0.35759467
76	0x3ec4e33f	0.38454625
77	0x3c0b02a5	0.008484517
78	0x3d035b96	0.032069765
79	0x3cafad6a	0.021444995
80	0x3e12e76d	0.14346094
81	0x3d954038	0.072876394
82	0xbed15530	-0.40885305
83	0x3c40b967	0.011762953
84	0xbf3329e8	-0.6998582
85	0xbe3738ff	-0.17892836
86	0xbe2046e4	-0.15652043
87	0xbe38c7f0	-0.1804502
88	0x3e6368e2	0.22207978
89	0x3dbfe550	0.0936991
90	0xbd220937	-0.03955957
91	0x3e002d05	0.12517174
92	0x3effc9d4	0.4995867
93	0x3e9e7f55	0.30956522
94	0x3d424854	0.04743226
95	0x3ece33d9	0.40273932
96	0x3e0d51a0	0.13800669
97	0xbe7a5e66	-0.24450073
98	0x3e9323a8	0.2873814
99	0x3e84b218	0.25917125
100	0xbe4f8526	-0.20265636
101	0x3def8d90	0.11696923
102	0x3e918884	0.28424466
103	0x3e5e08c6	0.21683034
104	0xbe8581a7	-0.2607548
105	0xbc842551	-0.016131075
106	0xbdef12f5	-0.11673538
107	0x3e0c9b7c	0.13731188
108	0x3e726e25	0.2367483
109	0xbe801aa8	-0.25020337
110	0x3c105844	0.008810107
111	0xbd73f406	-0.05955889
112	0x3f0f1e94	0.55906034
113	0x3ca1042e	0.019655313
114	0xbf4c16b9	-0.7972217
115	0xbf5de08b	-0.8667075
116	0x3e092034	0.13391191
117	0x3ee2de5a	0.44310266
118	0xbdadc30b	-0.08484467
119	0xbccaa198	-0.024735257
120	0xbe081539	-0.13289346
121	0x3e0b3dd8	0.1359781
122	0x3eb0d313	0.34536037
123	0x3e022ace	0.12711641
124	0x3e350612	0.17678097
125	0x3e8067f0	0.25079298
126	0x3e61f3d7	0.22065674
127	0xbd7f51cf	-0.062333878
128	0x3d6f1d31	0.05837745
129	0xbe275103	-0.16339497
130	0xbc0e0a2f	-0.00866942
131	0x3e108b9e	0.1411576
132	0x3b8f157f	0.004366576
133	0xbf254f68	-0.6457429
134	0xbd461e97	-0.048369016
135	0x3cc90665	0.024539182
136	0xbd42ec37	-0.047588553
137	0xbea06426	-0.31326407
138	0xbe3ae01f	-0.18249558
139	0xbeaf58c6	-0.34247416
140	0x3d1cefcd	0.03831463
141	0xbe24d7bd	-0.16097923
142	0xbea6964f	-0.3253655
143	0x3eb41edf	0.35179803
144	0xbe2d9fab	-0.1695544
145	0xbc9f7fc7	-0.019470109
146	0x3eaad743	0.33367357
147	0x3dde3aee	0.10851084
148	0x3d9844b8	0.07434982
149	0x3ee227eb	0.4417108
150	0x3cd1226c	0.025529109
151	0x3cf33806	0.0296898
152	0x3d368e0a	0.044569053
153	0xbeb3864c	-0.35063398
154	0x3ece8cb5	0.40341726
155	0xbf4bac27	-0.7955956
156	0xbe6b80c5	-0.2299834
157	0x3e29e67b	0.16591828
158	0xbe5a3571	-0.21309449
159	0x3dd466d3	0.10371175
160	0xbe3d5f0e	-0.18493292
161	0x3e7c49b8	0.24637496
162	0xbc5b7bd4	-0.013396222
163	0x3d5dc659	0.054144237
164	0xbf570d7e	-0.8400496
165	0xbdfb27b7	-0.122634344
166	0x3ccfb1a3	0.025353258
167	0x3e4a60c3	0.19763474
168	0xbd4e9b2f	-0.050440963
169	0x3eb703f7	0.35745212
170	0x3e90eeca	0.28307182
171	0x3ec23818	0.3793342
172	0x3e35af47	0.17742644
173	0x3ebb3338	0.36562514
174	0xbe321ca8	-0.17393744
175	0x3f3d9c5b	0.74066705
176	0x3ca340c9	0.019928353
177	0x3cd1416d	0.025543893
178	0xbd3e098d	-0.046395827
179	0x3dfbe504	0.12299541
180	0x3d04372b	0.032279175
181	0x3e06e92c	0.13174886
182	0x3f2783b5	0.65435344
183	0xbe6da36c	-0.23206872
184	0xbde37763	-0.111067556
185	0x3e221b2b	0.15830676
186	0x3e80b8dd	0.2514104
187	0x3ae32545	0.0017329833
188	0x3e3089a3	0.17240004
189	0x3e8e53ce	0.27798313
190	0x3e8ee460	0.2790861
191	0x3e46b23c	0.19403929
192	0xbee387d7	-0.44439575
193	0xbde44ef9	-0.11147875
194	0xbf114780	-0.56749725
195	0xbe32ce2b	-0.1746146
196	0x3dba17b2	0.09086551
197	0x3e12d3f8	0.14338672
198	0xbe658d20	-0.22417116
199	0x3e744110	0.23852944
200	0xbac28151	-0.0014839565
201	0x3d603547	0.05473831
202	0xbe7f72c8	-0.2494613
203	0x3e85210c	0.26001775
204	0x3eb441dd	0.352065
205	0xbf1abe5f	-0.60446733
206	0xbccdd481	-0.025125744
207	0xbe26b53c	-0.16280073
208	0x3e533c2e	0.20628425
209	0xbdf4d17b	-0.11954018
210	0xbe77c3b5	-0.2419575
211	0xbd032dbc	-0.032026038
212	0xbbca67cb	-0.006176924
213	0x3d425f3d	0.047454108
214	0x3f1593f4	0.58428884
215	0x3f732134	0.9497254
216	0x3ebf7eae	0.37401336
217	0x3e39a4c9	0.18129267
218	0x3e5d9079	0.21637143
219	0xbbfcdef1	-0.0077170064
220	0xbbd6ec87	-0.006558958
221	0x3e8bbb8c	0.27291524
222	0xbe81f8e5	-0.25385204
223	0x3d88d952	0.066820756
224	0x3eea30f7	0.45740482
225	0x3ed981e5	0.42481914
226	0x3e66201b	0.22473185
227	0x3e7ee05a	0.24890271
228	0x3db92f27	0.09042197
229	0xbe280e87	-0.16411792
230	0xbb18ee28	-0.0023335312
231	0xbe56a926	-0.20962963
232	0xbe149acd	-0.14512177
233	0x3f06e8cc	0.5269897
234	0xbd950beb	-0.07277664
235	0xbf02ca03	-0.51089495
236	0xbe129101	-0.14313127
237	0x3d57e0d1	0.052704636
238	0xbe1535b5	-0.14571269
239	0x3de8300c	0.11337289
240	0x3dd82878	0.10554594
241	0xbe852d8a	-0.26011306
242	0x3e194912	0.1496928
243	0xbe643929	-0.2228743
244	0x3eb999dd	0.362502
245	0x3ed26e51	0.4109979
246	0xbd0f2d29	-0.034955177
247	0xbec6db38	-0.38839126
248	0xbe0235a3	-0.12715773
249	0xbebaa3f8	-0.36453223
250	0xbe03f7c9	-0.12887491
251	0xbdf14776	-0.11781208
252	0x3e565a12	0.20932797
253	0x3eeffb35	0.46871343
254	0xbe50c1a5	-0.2038637
255	0xbef684bf	-0.48148152

bias f4 [64]
0	0xbe4f6e3b	-0.20256893
1	0xbdd39a1f	-0.10332131
2	0xbe78be13	-0.24291258
3	0x3e93a860	0.28839397
4	0x3e10c851	0.14138915
5	0x3e9189e3	0.28425512
6	0xbe8e602f	-0.27807757
7	0xbbd506a9	-0.006501038
8	0x3d96012a	0.07324441
9	0x3e69bb81	0.22825433
10	0xbcb62974	-0.022236563
11	0x3ef578f4	0.47943842
12	0xbdd869b4	-0.10567036
13	0x3d141495	0.03615244
14	0xbc9ad962	-0.018902484
15	0xbd3f8f64	-0.046767607
16	0xbe077147	-0.13226806
17	0xbe6843f0	-0.22682166
18	0x3e7108de	0.23538539
19	0x3e09b6f2	0.13448694
20	0xbdc2664b	-0.09492167
21	0x3e2bd8bc	0.16781896
22	0x3e28d795	0.16488488
23	0xbe14e307	-0.14539729
24	0xbe43c83b	-0.1911935
25	0x3dd17568	0.102274716
26	0x3ce144fd	0.027498716
27	0xbe2364a3	-0.15956359
28	0xbe9de232	-0.30836636
29	0x3d0b9897	0.034081068
30	0x3e21f083	0.15814404
31	0xbe8e79f9	-0.27827433
32	0xbe14863c	-0.14504331
33	0x3dd8052c	0.105478615
34	0xbe9741e8	-0.2954247
35	0x3e80ab68	0.25130773
36	0x3e5ff8d3	0.21872263
37	0xbde8a0b7	-0.11358779
38	0xbe125d20	-0.14293337
39	0x3dd7598d	0.10515127
40	0xbe259c2f	-0.1617286
41	0x3e97c18a	0.29639846
42	0x3c4485bd	0.011994776
43	0xbde361ec	-0.111026615
44	0xbe4f0ce7	-0.20219766
45	0x3dd36ddd	0.10323689
46	0xbe15d962	-0.14633706
47	0xbe8dbc7c	-0.27682865
48	0x3e0a4359	0.13502254
49	0xbe0a7b53	-0.13523607
50	0x3c2c1660	0.0105033815
51	0x3e6bc349	0.23023714
52	0xbebd969e	-0.37028974
53	0xbeb4bd17	-0.35300514
54	0xbee40a71	-0.44539216
55	0x3de86c79	0.113488145
56	0x3d0930a1	0.03349364
57	0x3e84d84d	0.25946274
58	0x3e59c45f	0.21266316
59	0x3ebeb3ab	0.3724645
60	0xbeae0fed	-0.33996525
61	0x3e05384c	0.13009757
62	0x3eb2890e	0.3487019
63	0xbe04a54d	-0.12953682

weight f4 [32, 32]
0	0xbdd22f7f	-0.102629654
1	0xbe48361a	-0.19551888
2	0x3e52179f	0.20516823
3	0x3ca0f332	0.019647215
4	0xbe1734bd	-0.14766212
5	0x3c4d2cdf	0.012522905
6	0xbd82a5f7	-0.063793115
7	0x3da54e4e	0.08071576
8	0xbe2409ed	-0.16019411
9	0xbf0de110	-0.55421543
10	0x3dd7d31d	0.105383135
11	0x3d6d3b6a	0.05791799
12	0xbd041515	-0.032246668
13	0x3e478662	0.19484857
14	0xbe4783f2	-0.19483927
15	0x3e91e9cd	0.28498688
16	0x3c815a28	0.01579006
17	0x3e8785c6	0.2646925
18	0x3e3ed3ac	0.18635434
19	0x3eb0b4c0	0.345129
20	0xbe99365b	-0.29924282
21	0x3e488e72	0.19585589
22	0x3c110494	0.008851189
23	0xbf025bcd	-0.50921327
24	0xbd263acc	-0.040583417
25	0x3e05881b	0.13040201
26	0x3e2e253c	0.17006391
27	0x3e091595	0.13387139
28	0x3e20185a	0.1563429
29	0x3dea07e7	0.114272885
30	0xbd8d3b72	-0.06896104
31	0x3ea4d8a5	0.32196537
32	0x3e2a71fe	0.16645047
33	0xbd3a18fb	-0.04543398
34	0xbf129550	-0.5725908
35	0x3d978e68	0.07400209
36	0xbe543001	-0.20721437
37	0x3d75b27c	0.05998467
38	0x3e347006	0.17620859
39	0xbd8dd1e5	-0.069248
40	0xbeb2235e	-0.34792608
41	0xbeac52c2	-0.3365689
42	0xbe8f3126	-0.27967185
43	0xbe9e7361	-0.30947402
44	0x3ea7c617	0.32768318
45	0xbcffa646	-0.031207215
46	0xbd4a65d9	-0.049413536
47	0xbdce5021	-0.10073877
48	0x3c313ddd	0.010817972
49	0x3e55fa85	0.20896347
50	0x3e7eebba	0.2489461
51	0x3eec91e9	0.4620507
52	0x3e3733b7	0.17890821
53	0xbddb57a3	-0.10710075
54	0xbc8258e1	-0.015911521
55	0x3d757698	0.059927553
56	0x3dbe3915	0.09288231
57	0xbcfa7606	-0.030573856
58	0x3e228cbb	0.15873997
59	0x3e223082	0.15838817
60	0xbe4c13e2	-0.1992946
61	0xbe9fd78a	-0.3121913
62	0x3e6941e5	0.22779043
63	0xbdddb2f6	-0.1082515
64	0x3e970a77	0.29500172
65	0xbe5a22d6	-0.21302351
66	0x3e1dcf97	0.1541122
67	0xbf205d08	-0.62641954
68	0xbe7bf1c9	-0.24603952
69	0x3d180e01	0.03712273
70	0xbe5be2ce	-0.21473238
71	0xbe55a1ad	-0.20862456
72	0xbe45e058	-0.19323862
73	0x3e5ebe01	0.21752168
74	0x3e2cf2bb	0.1688947
75	0xbdc9414f	-0.0982691
76	0xbed66da5	-0.41880527
77	0x3ec03296	0.37538594
78	0xbec5a677	-0.38603565
79	0x3ca392ef	0.019967524
80	0x3d61f43f	0.05516457
81	0x3ecba18d	0.3977169
82	0x3ebfb939	0.37446
83	0xbf014525	-0.5049613
84	0xbdaa8027	-0.08325224
85	0x3d9cc5bb	0.076549016
86	0xbe0d90c9	-0.13824762
87	0xbeb52db1	-0.35386422
88	0xbdd0e8d3	-0.10200658
89	0xbdb9c71e	-0.09071182
90	0x3cf2f406	0.029657375
91	0xbdc6fbce	-0.09715997
92	0x3e5b93d6	0.21443114
93	0xbe79b271	-0.24384476
94	0xbe8b8f2a	-0.27257663
95	0xbd4de2e8	-0.050265223
96	0x3ea2e2d4	0.3181368
97	0xbe4f590f	-0.20248817
98	0x3e2beecc	0.16790313
99	0x3e35627a	0.17713347
100	0xbdf539d0	-0.119739175
101	0x3e3f66c3	0.18691544
102	0x3eb905d2	0.36137253
103	0xbe6b1a5d	-0.22959276
104	0xbe552cdb	-0.20817892
105	0x3e8e772a	0.2782529
106	0x3dfbb719	0.122907825
107	0xbe13185a	-0.14364758
108	0x3eb3e0bb	0.35132393
109	0xbe335845	-0.17514141
110	0xbd53db40	-0.051722765
111	0xbcb89c14	-0.022535361
112	0xbe848faf	-0.25890872
113	0x3cec1f40	0.028823495
114	0xbe236365	-0.15955885
115	0x3e903081	0.28162006
116	0xbd4551fa	-0.048173882
117	0x3d1cdcb6	0.038296424
118	0x3e25bf32	0.16186216
119	0x3d63b91f	0.055596467
120	0xbd6c7081	-0.05772448
121	0x3c13dad3	0.00902434
122	0x3da601c8	0.081058085
123	0x3eb5cfb1	0.35510018
124	0xbded4c9b	-0.11586877
125	0xbbf97d06	-0.007613781
126	0x3e73b4ed	0.23799486
127	0x3d917fdf	0.071044676
128	0xbea41423	-0.32046613
129	0xbd4c7c56	-0.049923263
130	0x3e5d6dd9	0.21623935
131	0xbddb8a11	-0.107196935
132	0x3e43105a	0.19049206
133	0xbdc82543	-0.09772732
134	0x3db81f72	0.08990373
135	0x3e90b738	0.28264785
136	0x3d9e93a0	0.07743001
137	0xbe9000c5	-0.28125587
138	0x3dc7b207	0.09750753
139	0x3e5314e4	0.20613438
140	0xbe031692	-0.12801579
141	0x3dbcb99d	0.092150904
142	0x3d0a9522	0.03383363
143	0x3d8106ed	0.06300149
144	0xbda389e5	-0.07985286
145	0xbc0653d1	-0.008198694
146	0x3da9109a	0.082551196
147	0x3e967eb0	0.2939353
148	0x3e41d105	0.18927391
149	0xbeb3e110	-0.35132647
150	0x3e1dbaea	0.15403333
151	0x3e2bc76b	0.1677529
152	0x3e28e970	0.164953
153	0x3ec45ac5	0.38350502
154	0x3b65ee28	0.003508458
155	0xbe6915a4	-0.22762161
156	0x3db3030e	0.08740817
157	0x3ebeebd8	0.3728931
158	0x3d030641	0.031988386
159	0xbe24d88e	-0.16098234
160	0x3efa24a6	0.48856086
161	0xbd364857	-0.044502582
162	0xba1a9784	-0.00058972114
163	0xbefee44f	-0.4978356
164	0xbcd61ba7	-0.026136233
165	0x3e72b59f	0.23702095
166	0xbcbb06db	-0.022830417
167	0xbe00e392	-0.12586811
168	0xbc654ffc	-0.013996121
169	0x3e0ad1c3	0.1355658
170	0x3dee49fc	0.11635205
171	0x3dda91f6	0.10672371
172	0xbe10fe6d	-0.14159556
173	0x3e1ebcdb	0.1550173
174	0xbe71c188	-0.23608983
175	0xbded4722	-0.11585833
176	0xbdb39067	-0.08767777
177	0xbe0ae18d	-0.13562603
178	0x3df16c5c	0.11788246
179	0xbec3d5c6	-0.38249034
180	0xbe094d9a	-0.13408509
181	0x3dfa54f8	0.12223238
182	0xbe62a09c	-0.2213158
183	0xbb035dad	-0.0020044849
184	0xbe4bf241	-0.19916631
185	0x3ea38ce2	0.31943423
186	0x3ce773a0	0.028253376
187	0x3d1ea70a	0.03873352
188	0xbdd5a96f	-0.104327075
189	0xbe935383	-0.28774652
190	0xbd67c394	-0.056583002
191	0x3d2cee2c	0.042219326
192	0xbe3696b2	-0.17830923
193	0x3bf2559d	0.00739546
194	0x3df162f8	0.11786455
195	0x3d24129a	0.040056802
196	0x3c892274	0.016740061
197	0xbdfdce6a	-0.12392886
198	0x3f04b7b0	0.51842785
199	0x3e938ed3	0.28819904
200	0x3dde9094	0.1086742
201	0x3e37b0b8	0.17938507
202	0x3d687d0e	0.056759886
203	0x3eb92024	0.36157334
204	0xbe4f60ee	-0.2025182
205	0xbe3b8c16	-0.18315157
206	0x3e68cdef	0.22734807
207	0xbe1e0b76	-0.1543406
208	0xbda04b4f	-0.07826864
209	0xbe934d2f	-0.28769824
210	0xbe84c73a	-0.25933248
211	0x3d8def6d	0.069304325
212	0x3d4f652d	0.050633598
213	0xbeb35c06	-0.35031146
214	0x3ebc6990	0.36799288
215	0x3eeb345c	0.45938385
216	0x3e3eb7d8	0.18624818
217	0x3e481a41	0.19541265
218	0x3d638c10	0.055553496
219	0xbe030a93	-0.12797002
220	0xbddcecc1	-0.10787345
221	0xbba1be6d	-0.0049360306
222	0x3db40304	0.08789638
223	0xbdb939ea	-0.09044249
224	0x3e62b4f2	0.22139338
225	0xbcedde8d	-0.029036785
226	0x3e17a61b	0.14809458
227	0xbe8d6560	-0.27616405
228	0x3daae113	0.08343711
229	0x3e791053	0.24322633
230	0x3e973955	0.29535928
231	0x3e39a6f8	0.181301
232	0xbe0060cb	-0.12536924
233	0x3b68befb	0.0035514224
234	0xbde949dd	-0.113910414
235	0x3e4bf89f	0.1991906
236	0x3e939481	0.28824237
237	0x3deac7b7	0.11463874
238	0xbcf9a7c7	-0.03047551
239	0x3e8a5f7c	0.27025974
240	0x3da43976	0.08018772
241	0x3e198ce1	0.14995147
242	0x3d126807	0.03574374
243	0x3ef91343	0.48647508
244	0x3e1680c8	0.14697564
245	0x3d9684af	0.07349526
246	0x3dc79463	0.097450994
247	0xbd5ef913	-0.054436754
248	0x3e2c5d44	0.16832453
249	0x3dd0e3e6	0.10199718
250	0x3d9c2879	0.07624907
251	0x3e58ddc4	0.21178347
252	0x3cd171ba	0.025566924
253	0xbd948936	-0.072527334
254	0x3e2e213f	0.1700487
255	0xbdc45c1c	-0.09587881

bias f4 [32]
0	0xbe221a58	-0.15830362
1	0xbd9d1525	-0.076700486
2	0x3e6167ae	0.22012207
3	0xbd98558c	-0.07438192
4	0xbe5e78f5	-0.21725829
5	0x3df4f07b	0.119599305
6	0x3d7fbca8	0.062435776
7	0x3e1d92be	0.15388009
8	0x3dc30103	0.09521677
9	0xbccfd167	-0.025368406
10	0x3df28e08	0.118434966
11	0x3e245810	0.16049218
12	0xbdcf3eaf	-0.10119378
13	0xbbd19b5f	-0.0063966955
14	0xbd07a5b3	-0.033117007
15	0x3e33d693	0.17562322
16	0xbe4198a0	-0.18905878
17	0x3dc5726f	0.09640967
18	0x3d65dbce	0.056117825
19	0xbd39e0fe	-0.045380585
20	0x3e1ef397	0.1552261
21	0xbe033be2	-0.12815812
22	0xbdbbd1e8	-0.09170896
23	0x3da728fa	0.081621125
24	0xbdc1077b	-0.09425255
25	0x3d7dfd43	0.062009107
26	0xbe375f29	-0.17907394
27	0xbe82b263	-0.25526723
28	0xbe4d2e34	-0.20037156
29	0xbe3cad7b	-0.18425553
30	0xbcfc8dc5	-0.03082932
31	0xbc933063	-0.017967409

weight f4 [32, 64]
0	0xbd50c808	-0.050972015
1	0x3b87ada0	0.0041405708
2	0xbd7e4a08	-0.06208232
3	0x3d411508	0.047139198
4	0xbdda2048	-0.106506884
5	0x3dbba8c4	0.09163049
6	0xbdba1234	-0.09085503
7	0xbdcb87de	-0.09938024
8	0xbda1c35a	-0.078985885
9	0x3d67e1a8	0.056611687
10	0xbd3d2e14	-0.04618652
11	0x3d3f98e4	0.046776667
12	0xbdd94654	-0.10609117
13	0xbd9b523e	-0.07584046
14	0xbd3bfe80	-0.045897007
15	0xbcc93c78	-0.024564967
16	0xbdc34b04	-0.095357925
17	0x3da7a05e	0.081848845
18	0xbcf17db8	-0.029478893
19	0x3d245880	0.040123463
20	0x3db5075c	0.08839294
21	0x3cbec700	0.02328825
22	0x3d0c01bc	0.03418134
23	0x3df71b32	0.12065734
24	0xbd66eab4	-0.056376174
25	0x3d222d38	0.039593905
26	0xbd63cc0c	-0.055614516
27	0x3db6f348	0.08933121
28	0x3dcc74c0	0.09983206
29	0xbdec0660	-0.115246534
30	0x3dda8888	0.106705725
31	0x3d747cc4	0.0596893
32	0x3d5f1cdc	0.05447088
33	0x3d52c70c	0.051459357
34	0x3dd4d004	0.10391238
35	0xbc873560	-0.016504943
36	0xbdd87fb2	-0.10571231
37	0xbd12eaf8	-0.035868615
38	0xbdb44b58	-0.08803433
39	0x3c0762f0	0.008263335
40	0xbcbf3040	-0.023338437
41	0xbd895086	-0.06704812
42	0xbc3a3500	-0.011365175
43	0x3df2890e	0.11842547
44	0xbc218970	-0.009859428
45	0x3b820c60	0.0039687604
46	0xbc9fb420	-0.01949507
47	0x3ca0fae0	0.019650877
48	0x3de41968	0.11137658
49	0x3d9c8acc	0.07643661
50	0x3d35bd84	0.04437019
51	0x3cde86a8	0.027163818
52	0x3cf173b0	0.02947411
53	0x3d45cd78	0.048291653
54	0xbc845328	-0.016152933
55	0xbdededbc	-0.1161761
56	0xbd9e503e	-0.07730149
57	0x3dda8498	0.106698215
58	0x3bf4d500	0.0074716806
59	0xbdcf60fa	-0.10125919
60	0x3ca18350	0.019715935
61	0x3dd3868a	0.10328396
62	0xbdf1eb80	-0.11812496
63	0xbdac596a	-0.08415492
64	0xbd4be978	-0.0497832
65	0x3ba46740	0.005017191
66	0xbceed3b0	-0.029153675
67	0xbc610ea0	-0.013736397
68	0xbdf99266	-0.121861264
69	0x3d6fc248	0.05853489
70	0x3de0b3c8	0.109717906
71	0x3d9c7a1e	0.076404795
72	0xbdb5482a	-0.08851655
73	0xbdce5cca	-0.10076292
74	0x3d549bf4	0.05190654
75	0x3b37fb00	0.0028073192
76	0x3d51e278	0.051241368
77	0xbdfa2698	-0.122143924
78	0xbbf43740	-0.0074528754
79	0x3db48ada	0.08815546
80	0x3d6d85cc	0.057988927
81	0x3b959340	0.0045646727
82	0x3cc95680	0.02457738
83	0xbc41e7a0	-0.011835009
84	0xbd8cc1e4	-0.06872919
85	0xbd417c04	-0.04723741
86	0xbd9be618	-0.07612246
87	0x3dd4a2ce	0.10382615
88	0x3d8cdf96	0.06878583
89	0x3d330ed8	0.043715328
90	0xbdc45072	-0.09585656
91	0x3dc58902	0.09645273
92	0x3d2088ac	0.03919284
93	0x3db11974	0.08647433
94	0xbd496a6c	-0.049173757
95	0x3cd915b8	0.026499614
96	0x3df9f432	0.1220478
97	0x3dac3364	0.084082395
98	0x3dcd4fa8	0.10024959
99	0xbcd70640	-0.026248097
100	0x3dc30a62	0.09523465
101	0xbdc881e8	-0.09790403
102	0x3c312120	0.01081112
103	0xbd90245e	-0.070381865
104	0xbceecff8	-0.029151902
105	0xbd031f34	-0.03201218
106	0x3c193ac0	0.009352386
107	0x3de8feea	0.11376746
108	0x3d7d7ba4	0.06188549
109	0xba0ad000	-0.00052952766
110	0x3db5b870	0.08873069
111	0xbd83304a	-0.06405695
112	0x3d83ef62	0.06442143
113	0xbc3deaa0	-0.0115915835
114	0xbcb22fe8	-0.02175136
115	0x3c6fc430	0.014634177
116	0xbdc41eea	-0.09576209
117	0x3c6ca950	0.014444664
118	0x3d2c2764	0.042029753
119	0x3ddadcce	0.106866464
120	0xbd1f685c	-0.038917884
121	0x3d385588	0.045003444
122	0x3dffe006	0.12493901
123	0xbd5ba1d4	-0.05362113
124	0x3df35a06	0.11882405
125	0xbd7e3434	-0.062061504
126	0x3d61afe0	0.055099368
127	0x3d489378	0.048968762
128	0x3d0f0418	0.034916013
129	0x3dca7212	0.098850384
130	0xbd4eeea4	-0.050520554
131	0x3d069038	0.03285238
132	0x3a37e600	0.00070151687
133	0xbdc08c5a	-0.0940177
134	0xbcf8a438	-0.030351743
135	0xbdaaf674	-0.083477885
136	0x3d626230	0.05526942
137	0x3c381b60	0.011236995
138	0x3c48a1b0	0.012245581
139	0xbd1b5368	-0.03792134
140	0x3a1d9100	0.00060106814
141	0xbd1f410c	-0.038880393
142	0x3d131db8	0.035917014
143	0x3df89e94	0.121396214
144	0x3c9b1b18	0.018933818
145	0xbd62c630	-0.055364788
146	0xbd9c5f3a	-0.076353505
147	0x3c1c8c10	0.009554878
148	0xbdbde9a2	-0.092730775
149	0xbdc06c26	-0.09395628
150	0xbda69fe0	-0.081359625
151	0xbd2de5ec	-0.0424556
152	0x3c179680	0.009252191
153	0x3db048da	0.08607645
154	0x3d465158	0.04841742
155	0x3dc4205c	0.095764846
156	0xbda0bde2	-0.07848717
157	0x3c2cd3b0	0.010548517
158	0xbde38db0	-0.11111009
159	0x3d92db32	0.071707144
160	0x3cd56968	0.026051238
161	0x3df79b62	0.12090184
162	0xbdb61200	-0.08890152
163	0x3dcd4b46	0.10024123
164	0x3dd81f3a	0.10552831
165	0x3dcefb02	0.1010647
166	0x3c921e98	0.017836854
167	0x3de8c688	0.11365992
168	0x3daaf73c	0.083479375
169	0x3dbeff0e	0.093259916
170	0xbc050a30	-0.008120105
171	0xbdc47434	-0.095924765
172	0xbacbe200	-0.0015555024
173	0x3cc00a08	0.023442283
174	0xbdae6118	-0.08514613
175	0xbd92da04	-0.071704894
176	0xbdf57068	-0.119843304
177	0xbd337af4	-0.04381843
178	0x3ddefe58	0.10888356
179	0x3caf1998	0.021374509
180	0xbbfa2f20	-0.0076350123
181	0x3ba47cc0	0.005019754
182	0x3d9fa0b0	0.077943206
183	0xbde21074	-0.110382944
184	0xbdc586e6	-0.096448705
185	0xbd2a3990	-0.041558802
186	0xbd935528	-0.07193977
187	0x3d840a7e	0.06447314
188	0x3db4e2a8	0.08832294
189	0xbdf860b8	-0.12127823
190	0xbdd94312	-0.10608496
191	0xbdf94c20	-0.12172723
192	0x3d412780	0.04715681
193	0x3dce0af2	0.100606814
194	0xbdc67cb0	-0.09691751
195	0xbd6d08a0	-0.057869554
196	0x3d22edd0	0.039777577
197	0xbda72a0c	-0.08162317
198	0x3dd9777e	0.106184945
199	0x3ceec1d0	0.029145151
200	0xbd0e884c	-0.03479795
201	0x3c0504d0	0.008118823
202	0x3d1fa020	0.038971066
203	0xbd350cc8	-0.044201642
204	0xbdc65cf4	-0.09685698
205	0x3a5c4100	0.000840202
206	0x3b153780	0.0022768676
207	0x3b253180	0.0025206506
208	0xbc956ec0	-0.018241286
209	0x3da45eee	0.08025919
210	0xbd0ee0d8	-0.034882396
211	0xbc463b40	-0.012099087
212	0x3d528730	0.051398456
213	0xbda122ce	-0.078679666
214	0x3d0917a8	0.033469826
215	0xbce26c28	-0.027639464
216	0x3d7597c4	0.059959188
217	0xbd8adef2	-0.06780805
218	0x3b9761a0	0.004619792
219	0x3c485ac0	0.012228668
220	0xbdcdfa0a	-0.10057457
221	0xbdba25fe	-0.09089278
222	0x3d445bdc	0.047939166
223	0xbd15055c	-0.036382064
224	0x3d98099c	0.07423708
225	0xbdfce490	-0.12348282
226	0xbd7d18a4	-0.061791077
227	0xbdd2db82	-0.10295774
228	0x3d4c8784	0.049933925
229	0xbb6d7f40	-0.0036239177
230	0xbcbeff78	-0.023315176
231	0xbcaa5d40	-0.020796418
232	0xbdc81a24	-0.09770611
233	0x3d11335c	0.03544937
234	0x3b4c3140	0.0031157285
235	0xbdb0ab3e	-0.08626412
236	0x3d40a8c8	0.047035962
237	0xbb24a6c0	-0.0025123805
238	0xbdf796fc	-0.12089345
239	0x3d89b524	0.06724003
240	0x3d88ee5c	0.066860884
241	0xbcc0ee98	-0.02355127
242	0xbdb0c08e	-0.08630477
243	0x3ba47460	0.005018756
244	0x3dc12c24	0.09432247
245	0x3dea53b6	0.11441748
246	0xbdc13aa4	-0.09435013
247	0xbd674128	-0.056458622
248	0x3dc753ee	0.09732805
249	0x3d7a4124	0.06109728
250	0x3d9e77a2	0.07737662
251	0xbd7ed708	-0.06221679
252	0x3ddc8d86	0.10769181
253	0xbdd272ea	-0.10275824
254	0xbbc54cc0	-0.006021112
255	0x3b2a1700	0.002595365

bias f4 [32]
0	0x3bc4a0e0	0.006000623
1	0xbdf590fa	-0.11990543
2	0x3c824228	0.015900686
3	0x3d34205c	0.043976173
4	0x3de51af6	0.11186783
5	0xbd25f43c	-0.040516123
6	0x3d38ac5c	0.04508625
7	0xbd2b9140	-0.041886568
8	0xbd340bb4	-0.043956473
9	0xbde2d6e8	-0.11076146
10	0x3cd823a8	0.02638419
11	0x3dabc6c2	0.083875194
12	0xbd8e6972	-0.06953706
13	0x3d5152e4	0.05110444
14	0xbc9fbaf8	-0.019498333
15	0xbdb5c1a4	-0.08874825
16	0x3c5a6040	0.013328612
17	0xbdf978e2	-0.1218126
18	0x3d893b9e	0.06700824
19	0xbce24198	-0.027619168
20	0x3debc534	0.11512223
21	0x3b973520	0.0046144873
22	0xbdf8308a	-0.12118633
23	0x3dc6a8d2	0.09700169
24	0xbcdffb10	-0.027341396
25	0xbdaf5ae6	-0.085622594
26	0x3dec5cbc	0.11541125
27	0x3c3f4760	0.011674732
28	0x3d25ff34	0.040526584
29	0xbddd7652	-0.108135834
30	0xbd34d278	-0.04414603
31	0x3dcd66e6	0.10029392

weight_ih_l0 f4 [128, 32]
0	0xbd68e449	-0.056858335
1	0x3ceba6e8	0.02876611
2	0xbd9980b4	-0.07495251
3	0xbd009d89	-0.031400237
4	0xbe2bb79e	-0.16769263
5	0x3e58e352	0.21180466
6	0xbe0996b8	-0.13436401
7	0xbebafaa1	-0.3651934
8	0xbdec659c	-0.11542818
9	0x3e7dd043	0.24786477
10	0xbe54e103	-0.2078896
11	0xbe019072	-0.12652758
12	0x3b42ce2b	0.0029724936
13	0xbd9285fb	-0.07154461
14	0x3ddfccad	0.10927711
15	0x3e5f7c22	0.21824697
16	0x3d37e0ab	0.044891994
17	0x3e1db651	0.1540158
18	0xbe961a34	-0.29316866
19	0x3d2f05e4	0.042730227
20	0xbe99ae44	-0.30015767
21	0xbdb8540f	-0.09000408
22	0xbe789713	-0.2427638
23	0xbe9fb19a	-0.31190187
24	0xbe331042	-0.1748667
25	0xbe7a5960	-0.24448156
26	0xbd82604e	-0.06366025
27	0xbce2491d	-0.027622754
28	0x3d37f89e	0.044914834
29	0xbe727372	-0.23676851
30	0x3e8e8b7c	0.27840793
31	0xbed597e3	-0.41717443
32	0x3cf62678	0.03004764
33	0xbdec0810	-0.11524975
34	0xbe87a6bb	-0.26494393
35	0xbe341216	-0.17585024
36	0x3dda9e9a	0.10674782
37	0x3d4588cf	0.048226174
38	0x3db05db8	0.086116254
39	0xbe8a49a3	-0.27009305
40	0xbdc6ccc0	-0.09707022
41	0x3e956ab2	0.29182965
42	0x3e0b1478	0.13582027
43	0xbcb7c5ab	-0.022433123
44	0x3ea88c82	0.329197
45	0x3ca985a4	0.020693608
46	0xbdc59a7d	-0.09648607
47	0xbe443668	-0.1916138
48	0x3d125118	0.03572187
49	0x3dd552bd	0.10416172
50	0xbdb7c337	-0.08972781
51	0x3de97c5f	0.11400675
52	0xbea3f057	-0.32019302
53	0xbdabc572	-0.08387269
54	0xbd54431e	-0.05182182
55	0xbee1de6b	-0.44115004
56	0x3d0a3658	0.033743232
57	0xbb8fd3dc	-0.0043892693
58	0x3e640d44	0.22270685
59	0x3d76fe62	0.060301192
60	0xbcb3948c	-0.021921419
61	0xbbe576a9	-0.007002671
62	0x3e134b85	0.14384277
63	0xbe25d2e7	-0.16193734
64	0x3de93da7	0.113887124
65	0x3e80b9dc	0.251418
66	0x3dc590c4	0.096467525
67	0xbe5e4159	-0.21704616
68	0x3da503c0	0.08057356
69	0xbe6e6ab8	-0.23282897
70	0x3d736435	0.059421737
71	0xbea67342	-0.3250981
72	0x3b05cb3e	0.0020415331
73	0x3e81972d	0.2531065
74	0x3e6c823e	0.23096558
75	0xbe8b251c	-0.2717675
76	0xbda61adf	-0.08110594
77	0xbde0ad21	-0.10970522
78	0x3d338f5a	0.043837883
79	0xbe0d315e	-0.13788363
80	0x3ebc9ab8	0.3683679
81	0x3eec9bda	0.46212655
82	0xbcf089e9	-0.029362636
83	0x3def2684	0.11677268
84	0xbd2c1df6	-0.04202076
85	0x3de91de3	0.113826536
86	0xbe77ec2a	-0.24211183
87	0xbf1ad233	-0.6047699
88	0xbda9b416	-0.08286302
89	0xbec8b8e9	-0.39203575
90	0x3ded98bf	0.116014
91	0x3e8ef066	0.27917784
92	0x3e00b574	0.12569219
93	0xbe2e07b7	-0.1699513
94	0x3c49e039	0.012321525
95	0x3b7d8661	0.0038684832
96	0x3d4da14e	0.05020266
97	0x3d123e3a	0.035703875
98	0xbe22c545	-0.15895565
99	0xbf0a5ecc	-0.540509
100	0xbe450a91	-0.19242312
101	0xbdeb00b9	-0.11474747
102	0x3d80db2d	0.062918045
103	0xbf1ea5dc	-0.6197183
104	0x3da4994e	0.08037053
105	0x3e80b3e7	0.25137255
106	0xbdf4ae54	-0.11947313
107	0x3e46ce3e	0.19414613
108	0x3ea75af6	0.32686585
109	0xbe1b3d9d	-0.15160222
110	0x3e1cedcd	0.15325089
111	0x3ea456cb	0.32097468
112	0x3da383f2	0.07984151
113	0x3e691c71	0.22764756
114	0xbe5e1c99	-0.21690597
115	0xbe5dd4d4	-0.21663219
116	0x3cfbc46e	0.030733313
117	0xbe7ed070	-0.248842
118	0xbe2cae2b	-0.16863315
119	0xbf116ad0	-0.5680361
120	0xbe1ada28	-0.15122283
121	0xbe96d973	-0.29462776
122	0xbd364813	-0.04450233
123	0x3da0a70e	0.07844363
124	0xbc261ccf	-0.010138704
125	0x3dcf48d4	0.10121313
126	0x3be6bc1a	0.0070414664
127	0xbcd4a1bd	-0.02595603
128	0xbe06a8dc	-0.13150352
129	0xbb21b7a2	-0.0024676104
130	0x3db8c8c2	0.090226665
131	0xbee6dcf8	-0.4509046
132	0xbe8d31f2	-0.27577168
133	0xbdc62c7e	-0.09676455
134	0xbdb18892	-0.08668627
135	0xbec8d620	-0.39225864
136	0xbd5bb68b	-0.053640883
137	0x3e19dfd3	0.15026788
138	0x3dc580b8	0.09643692
139	0x3e553859	0.20822276
140	0x3ec7adc5	0.38999763
141	0xbe4bbe24	-0.19896752
142	0x3bab3bcc	0.005225634
143	0x3de80dad	0.113307334
144	0x3d962a0a	0.07332237
145	0x3f132656	0.5748037
146	0xbe9c2575	-0.30497327
147	0xbe93cdef	-0.28868052
148	0xbd695398	-0.056964487
149	0xbeae08da	-0.33991128
150	0xbe1a647e	-0.15077397
151	0xbf07f8ff	-0.5311431
152	0xbe6288d4	-0.22122508
153	0xbe84413e	-0.25831026
154	0x3d8f104d	0.06985531
155	0x3e4ccf54	0.20000964
156	0x3e4ec252	0.20191315
157	0xbdd49a41	-0.10380984
158	0xbe3a2d7d	-0.18181415
159	0xbd6c2cbe	-0.057659857
160	0xbe35939d	-0.17732091
161	0xbcf94da5	-0.030432532
162	0xbe287aa6	-0.16453037
163	0xbe5ce1d5	-0.21570523
164	0xbe574bda	-0.21025029
165	0x3e158cbf	0.14604472
166	0xbe2a2083	-0.16613965
167	0xbe839ffe	-0.25708002
168	0xbe9e8248	-0.30958772
169	0x3e0e9764	0.13924938
170	0xbe56637c	-0.20936388
171	0x3cccb848	0.024990216
172	0x3e358f59	0.17730464
173	0x3d5f2ca0	0.054485917
174	0x3d724d46	0.059155725
175	0x3e86eb1d	0.26351252
176	0x3ea05c9e	0.3132066
177	0x3dbadc8f	0.091240995
178	0x3d17f32b	0.037097137
179	0xbe98e5ab	-0.29862723
180	0xbeb60de6	-0.3555748
181	0xbde0f430	-0.10984075
182	0x3d8cb697	0.06870764
183	0xbed35352	-0.41274506
184	0xbe0210cc	-0.1270172
185	0xbe8a1eb1	-0.2697654
186	0x3d6b9ab6	0.05752059
187	0x3dd8c7a7	0.10584956
188	0x3d568edd	0.05238234
189	0xbda436f0	-0.08018291
190	0xbe83034c	-0.25588453
191	0xbe5b67d1	-0.21426322
192	0x3e62e3fe	0.22157285
193	0x3dcbd1cb	0.09952124
194	0xbec7b5b1	-0.39005807
195	0x3d7c4ab8	0.061594695
196	0x3e4e0e69	0.20122685
197	0xbda9dc71	-0.08293999
198	0x3dd6b0c3	0.10482933
199	0xbe7f4beb	-0.24931304
200	0xbda98e82	-0.08279134
201	0xbe0745c6	-0.1321021
202	0xbe05374b	-0.13009374
203	0xbe4f79a6	-0.20261249
204	0xbd39b10b	-0.045334857
205	0xbd14d6b9	-0.036337588
206	0x3cfc4955	0.030796686
207	0xbdfb877e	-0.122817025
208	0x3e38810d	0.18017979
209	0x3e235c2a	0.15953127
210	0xbe3877ba	-0.18014422
211	0x3db4c1d2	0.08826031
212	0xbe6a0794	-0.22854453
213	0x3ac431b6	0.0014968428
214	0x3d157df3	0.036497068
215	0xbee89d68	-0.4543259
216	0xbd2d6044	-0.042328134
217	0x3d3cfab4	0.046137527
218	0xbb2f8f93	-0.0026788458
219	0x3e222b72	0.15836886
220	0xbbc4130d	-0.0059837163
221	0xbd245ab9	-0.040125582
222	0xbdf3d53c	-0.119059056
223	0xbe1ded15	-0.15422471
224	0x3bacd8d5	0.005274872
225	0x3ee6010c	0.44922674
226	0xbd950364	-0.07276037
227	0xbec8fa52	-0.3925348
228	0xbe027211	-0.12738825
229	0xbef944ae	-0.4868521
230	0xbdc97271	-0.09836281
231	0xbf1c01e8	-0.6094041
232	0xbe65429b	-0.22388689
233	0x3e564809	0.20925917
234	0x3d2578c3	0.04039837
235	0xbe7abf72	-0.24487093
236	0x3d4d1be8	0.05007544
237	0xbf16bd0c	-0.5888221
238	0x3c609183	0.013706568
239	0xbdb5bf54	-0.088743836
240	0x3e42a6a5	0.19008882
241	0x3e970915	0.29499117
242	0xbe75d5a5	-0.2400728
243	0x3e08d0ed	0.13360949
244	0xbdbbaac9	-0.09163434
245	0x3dc05983	0.09392073
246	0x3cf16de1	0.02947134
247	0xbf280083	-0.6562578
248	0x3e89938d	0.26870385
249	0xbec2b4d4	-0.38028586
250	0x3f09aeb5	0.53782207
251	0x3eb3ffb2	0.35156018
252	0x3e9185b3	0.28422317
253	0x3d9131ff	0.07089614
254	0xbe4d64ad	-0.20057936
255	0x3e39cbc1	0.18144132

weight_hh_l0 f4 [128, 32]
0	0xbca65db7	-0.020308359
1	0x3e2d027b	0.16895477
2	0xbdb0b664	-0.08628538
3	0xbe2a0f84	-0.16607481
4	0xbe03512e	-0.12823936
5	0x3cbd5311	0.023110898
6	0x3e9b7523	0.30362806
7	0x3d002481	0.031284813
8	0x3e2e1db4	0.17003518
9	0xbdd45ba2	-0.1036904
10	0xbdaef5b0	-0.08542955
11	0x3aae6f03	0.001330823
12	0x3c9023f9	0.017595278
13	0xbdd7be90	-0.10534394
14	0x3dd87bf0	0.10570514
15	0x3db6e607	0.08930593
16	0xbbfcb0d5	-0.0077115097
17	0xbcc2c0d3	-0.023773586
18	0x3e327cce	0.17430422
19	0xbd3628c2	-0.044472463
20	0x3e87a124	0.26490128
21	0xbd13a8bb	-0.036049586
22	0xbddfc92a	-0.10927041
23	0xbe27c775	-0.1638468
24	0x3e35555b	0.17708342
25	0xbe280766	-0.16409072
26	0x3d8fbf74	0.07018939
27	0x3e419637	0.18904959
28	0xbde180f3	-0.11010923
29	0xbdedcff0	-0.116119266
30	0x3d98ebb3	0.07466831
31	0xbd53feb6	-0.051756583
32	0x3c49e0fd	0.012321708
33	0x3e0c95a7	0.13728963
34	0xbd61243a	-0.05496619
35	0x3e979b06	0.2961046
36	0xbcccf206	-0.02501775
37	0x3cda0981	0.02661586
38	0x3e3167ab	0.17324702
39	0xbdebdd33	-0.115168
40	0x3e2df46b	0.1698777
41	0x3e0a7762	0.13522103
42	0xbdda5e53	-0.10662522
43	0xbd04167f	-0.032248016
44	0x3d8f193b	0.06987234
45	0xbd2c580b	-0.04207615
46	0x3d7bd7ee	0.061485223
47	0xbcbd6842	-0.023121003
48	0xbdfc4d93	-0.123194836
49	0x3d32bc7a	0.043636777
50	0x3dc0b11b	0.0940878
51	0xbdd4f2d6	-0.1039788
52	0x3d91795d	0.07103226
53	0xbe0ea259	-0.13929118
54	0xbd9fecde	-0.07808851
55	0xbe91e2cd	-0.28493348
56	0x3d5db136	0.05412408
57	0xbcd7f57a	-0.02636217
58	0x3e130ca9	0.14360298
59	0x3ab519a4	0.0013816846
60	0x3e295f20	0.16540194
61	0xbcfc50f2	-0.030800316
62	0x3dd50525	0.10401372
63	0xbdb43265	-0.087986745
64	0xbd87615e	-0.06610368
65	0x3def3928	0.116808236
66	0xbe2a8873	-0.16653614
67	0x3c8d9632	0.017283533
68	0x3e67d3b3	0.2263935
69	0x3e14568e	0.14486143
70	0x3e8bfa0d	0.2733921
71	0x3c9e3349	0.019311564
72	0x3e1f8ba9	0.1558062
73	0x3e03be99	0.12865676
74	0xbe665d71	-0.22496583
75	0x3e0a29d5	0.1349252
76	0x3bd70d5c	0.006562872
77	0x3d99e744	0.075148135
78	0xbe0c5edd	-0.13708062
79	0x3e3e3e6c	0.185785
80	0x3ddc21e1	0.107486494
81	0x3dfa13c1	0.12210799
82	0x3b17e5aa	0.0023177662
83	0xbe24022f	-0.16016458
84	0xbdfb82c0	-0.12280798
85	0xbdb94722	-0.09046771
86	0x3c586f4e	0.013210131
87	0xbeaa950d	-0.33316842
88	0x3e77b4ea	0.24190107
89	0xbe0f226e	-0.13977978
90	0x3dc55fef	0.096374385
91	0xbd3a78d4	-0.045525387
92	0x3d7f2191	0.06228787
93	0xbd19f079	-0.03758285
94	0xbda563e7	-0.080756955
95	0xbd903f10	-0.07043278
96	0x3d9bda50	0.07609999
97	0x3e744143	0.2385302
98	0x3d874140	0.06604242
99	0xbe19886b	-0.14993446
100	0xbd510a6c	-0.05103533
101	0xbd97af27	-0.074064545
102	0x3c385a62	0.011252018
103	0x3e4407e5	0.19143637
104	0x3b395eea	0.0028285333
105	0x3e6c9c62	0.2310653
106	0x3d99e99f	0.07515263
107	0xbe2ee6ce	-0.17080233
108	0xbe0ae885	-0.13565262
109	0xbe152500	-0.14564896
110	0xbe0cd0ad	-0.13751478
111	0x3dd8d7b1	0.10588015
112	0xbe32a059	-0.1744398
113	0xbe4fdb82	-0.2029858
114	0xbe8b1da3	-0.2717105
115	0x3d056822	0.032570012
116	0x3ce42b84	0.027852781
117	0x3d0ada6c	0.03389971
118	0xbe1e879c	-0.15481418
119	0xbe095e9b	-0.13414995
120	0x3d860bb7	0.06545203
121	0x3e543ccc	0.20726317
122	0xbd764901	-0.060128216
123	0x3dfd1b17	0.123586826
124	0x3e3627db	0.17788641
125	0x3e36dffc	0.17858881
126	0xbd9d9725	-0.07694844
127	0x3e4c574a	0.19955173
128	0xbb0638eb	-0.0020480703
129	0x3e6ad886	0.2293416
130	0x3e1d635e	0.15369937
131	0xbd1960df	-0.0374459
132	0xbe27bb5f	-0.1638007
133	0xbea6d73b	-0.32586083
134	0xbd6abcfc	-0.057309136
135	0xbdb8a704	-0.09016231
136	0xbdc8f757	-0.09812801
137	0x3cdc3ad8	0.026883528
138	0x3d11feb9	0.035643313
139	0xbd6df5fd	-0.05809592
140	0x3c44e046	0.012016362
141	0xbe724e13	-0.23662595
142	0xbd232af0	-0.03983587
143	0xbaa400e2	-0.001251247
144	0x3ddc6b5c	0.10762665
145	0xbe8ac88a	-0.27106124
146	0xbe3d392c	-0.1847884
147	0xbe3b0252	-0.18262604
148	0x3dbe36a9	0.09287769
149	0xbcc07024	-0.023490973
150	0xbceb5989	-0.028729217
151	0x3d8630f4	0.06552306
152	0x3e7a9a39	0.24472894
153	0xb9892d71	-0.00026164533
154	0xbd1ea464	-0.038730994
155	0x3e151c7d	0.14561649
156	0x3e393c5b	0.1808943
157	0x3d8418d3	0.06450047
158	0xbddc17d5	-0.10746733
159	0x3d9ecbe5	0.077537335
160	0xbe2f06c2	-0.17092422
161	0xbd273431	-0.040821258
162	0xbd4655a2	-0.04842151
163	0xbd2e0cdf	-0.042492744
164	0x3cc0d8db	0.023540905
165	0x3e1390cb	0.14410703
166	0x3e0fb3f2	0.14033487
167	0x3cf867fe	0.030323025
168	0x3e10146d	0.14070292
169	0x3de51d35	0.111872114
170	0xbbedb6a8	-0.0072544403
171	0x3e00c429	0.12574829
172	0x3e73374a	0.2375156
173	0xbdaa6390	-0.08319771
174	0x3d9894f7	0.07450288
175	0xbc90c182	-0.017670397
176	0xbcd011ef	-0.025399176
177	0xbe27b415	-0.1637729
178	0x3c86ae4e	0.016440537
179	0xbe4f6662	-0.202539
180	0xbc671d81	-0.014106155
181	0xbe79970d	-0.24374028
182	0xbe513f55	-0.20434316
183	0xbd971478	-0.07376951
184	0x3dc1606f	0.094422214
185	0xbe01104f	-0.12603877
186	0xbddc1e14	-0.107479244
187	0xbdba34d5	-0.09092108
188	0x3e01a3b3	0.12660103
189	0xbe2d33cd	-0.16914292
190	0x3d8dedea	0.06930144
191	0x3e1946ac	0.14968365
192	0xbe4bb4bf	-0.19893168
193	0x3e9ed498	0.3102157
194	0x3ebb8e20	0.3663187
195	0x3ecf2533	0.40458068
196	0x3e5adc40	0.21373081
197	0x3e547521	0.20747806
198	0x3cbf3e65	0.023345182
199	0xbc3baa13	-0.011454123
200	0x3e9083c1	0.2822552
201	0x3e61edb2	0.2206333
202	0xbccf69f4	-0.025319077
203	0x3e2278df	0.15866421
204	0x3da96226	0.082706735
205	0x3e168f7c	0.14703172
206	0xbc091be6	-0.008368468
207	0xbd7f0b3b	-0.06226657
208	0xbe4cae1d	-0.19988294
209	0xbe360e26	-0.17778835
210	0x3e958788	0.29204965
211	0x3dcbd560	0.099528074
212	0xbd7042a7	-0.058657315
213	0xbd56c06f	-0.052429613
214	0x3e0e36ad	0.13888045
215	0xbe51cbd5	-0.20487912
216	0x3deca6f8	0.11555284
217	0xbdf9717c	-0.121798486
218	0xbdf40ccf	-0.119165055
219	0x3bc53984	0.0060188193
220	0xbe256be6	-0.16154441
221	0x3db9905a	0.09060736
222	0x3e03db78	0.1287669
223	0x3e40c93d	0.18826766
224	0x3dfaa337	0.12238162
225	0xbdc2cfd1	-0.09512294
226	0xbd2694f8	-0.04066941
227	0x3e326157	0.17419945
228	0x3d9ada1a	0.07561131
229	0x3e017f67	0.12646256
230	0x3e34e410	0.17665124
231	0x3c6bbc70	0.014388189
232	0xbdbd4157	-0.09240978
233	0x3cfeafbd	0.031089658
234	0xbd315f0a	-0.043303527
235	0x3dabfd07	0.083978705
236	0x3db239a0	0.08702397
237	0x3cc20337	0.023683174
238	0xbdf25be0	-0.1183393
239	0xbc7a876b	-0.015291075
240	0xbe32ff43	-0.17480187
241	0xbada9596	-0.001667666
242	0x3e7dba85	0.24778183
243	0x3e04af6a	0.1295754
244	0xbe029c5b	-0.12754957
245	0xbdfb43e1	-0.12268806
246	0x3daff330	0.08591306
247	0xbe1287de	-0.14309642
248	0x3ad7d83e	0.0016467643
249	0xbd2b3cb8	-0.041805953
250	0xbdc9a4e3	-0.09845903
251	0xbd89fb12	-0.06737341
252	0xbd15cc6c	-0.036571905
253	0x3c47a492	0.012185233
254	0x3e06e0cf	0.13171695
255	0x3e58fe38	0.21190727

bias_ih_l0 f4 [128]
0	0xbe2312a1	-0.15925075
1	0xbdc78e68	-0.09743959
2	0xbeca6b46	-0.39534968
3	0xbc576b52	-0.013148146
4	0xbc8ded41	-0.017325046
5	0xbd7e65b6	-0.062108718
6	0xbe1798f2	-0.14804438
7	0xbf15a344	-0.5845225
8	0xbeb504bd	-0.35355178
9	0xbe6ce1d1	-0.23133017
10	0xbdc7b916	-0.09752099
11	0x3b9bad6a	0.004750897
12	0xbd300de0	-0.042981982
13	0xbec649cd	-0.3872818
14	0xbedf60c6	-0.4362852
15	0xbe614bec	-0.22001618
16	0xbe4a6b10	-0.19767404
17	0xbef4d9a3	-0.47822294
18	0x3da8cd1a	0.08242245
19	0xbe4fc0d3	-0.202884
20	0xbe9349fa	-0.28767377
21	0xbe85a225	-0.2610027
22	0xbdc2c0e0	-0.09509444
23	0xbdcee9da	-0.101031974
24	0xbeb472f8	-0.35243964
25	0xbdffd51e	-0.12491821
26	0xbe870552	-0.26371247
27	0xbe1ba1c7	-0.15198432
28	0xbeb36748	-0.35039735
29	0xbe326a55	-0.17423375
30	0xbe5391d6	-0.20661101
31	0xbe0ea386	-0.13929567
32	0x3d2ffe2d	0.04296701
33	0x3dccf4e4	0.10007647
34	0x3ca6ac23	0.020345753
35	0xbcedc122	-0.029022757
36	0x3d100f38	0.035170764
37	0xbd389345	-0.045062322
38	0x3d859d27	0.06524115
39	0xbe029342	-0.12751487
40	0x3c6de7da	0.01452061
41	0x3da9658c	0.08271322
42	0x3d2aebea	0.04172889
43	0xbdfe3942	-0.12413265
44	0xbe14da62	-0.14536431
45	0xbe2004a4	-0.1562677
46	0xbe9b08fe	-0.30280298
47	0xbde11968	-0.10991174
48	0x3db8ef7f	0.09030055
49	0xbecd1014	-0.4005133
50	0x3dbd5975	0.09245578
51	0xbdbeb34e	-0.093115434
52	0xbe365f70	-0.17809844
53	0xbda8fb42	-0.082510486
54	0xbe32b91a	-0.17453423
55	0x3e20a8f7	0.15689455
56	0xbe0c2223	-0.13684897
57	0x3daf451b	0.08558103
58	0xbc355848	-0.011068411
59	0x3cf29afe	0.029614922
60	0xbca081d7	-0.019593162
61	0xbd812223	-0.06305339
62	0xbd92de4b	-0.07171305
63	0xbe7cd8ea	-0.24692121
64	0x3d676d33	0.056500625
65	0xbd994885	-0.07484535
66	0x3d8a78b1	0.06761301
67	0xbe375da7	-0.1790682
68	0x3d4cbd22	0.04998506
69	0xbd8ac810	-0.0677644
70	0xbdafde88	-0.08587366
71	0xbd88f98e	-0.06688224
72	0x3e208033	0.15673904
73	0xbe2a9ccd	-0.16661377
74	0x3dd78e09	0.10525138
75	0xbdc37a47	-0.09544807
76	0xbdee3b2f	-0.11632382
77	0x3c19812c	0.009369176
78	0xbd8b7280	-0.068089485
79	0xbd921b3a	-0.07134099
80	0x3e1d4fe2	0.15362504
81	0x3cfc5a78	0.030804858
82	0xbe2e97a6	-0.17050037
83	0x3dae41a7	0.08508616
84	0xbd92204d	-0.07135067
85	0x3dbb16eb	0.09135231
86	0xbdc269ef	-0.094928615
87	0x3dd9c060	0.10632396
88	0xbe0adc79	-0.13560666
89	0x3d097350	0.033557236
90	0x3d97615b	0.07391616
91	0x3df01e7b	0.11724564
92	0xbd6d819e	-0.05798494
93	0xbd5722c0	-0.052523375
94	0x39af264f	0.00033407143
95	0x3d56e4cd	0.052464295
96	0xbd8c07e0	-0.068374395
97	0x3d18f103	0.03733922
98	0xbea07a59	-0.31343344
99	0xbde1a59b	-0.11017915
100	0xbe1a3716	-0.15060076
101	0xbe044128	-0.1291548
102	0xbce133c4	-0.027490504
103	0xbe99e821	-0.30059913
104	0xbdf8bfbb	-0.12145945
105	0xbe93b10a	-0.28846008
106	0xbc9e8a00	-0.019352913
107	0xbd379800	-0.044822693
108	0xbe1955c2	-0.1497412
109	0xbea11e6d	-0.31468526
110	0xbe4ecb12	-0.20194653
111	0xbdc81b18	-0.09770793
112	0xbe4cc73b	-0.19997875
113	0xbe8272af	-0.25478122
114	0x3d9d9bc1	0.07695723
115	0xbc8cbdc9	-0.01718034
116	0xbdbfce85	-0.09365562
117	0xbe956020	-0.291749
118	0xbe4d6ac0	-0.20060253
119	0xbdd6a163	-0.10480001
120	0xbecbcef8	-0.39806342
121	0x3d8f3622	0.06992747
122	0xbe0f3b3c	-0.1398744
123	0xbd8092e3	-0.062780164
124	0xbe3c57cb	-0.18392865
125	0xbe787caf	-0.24266313
126	0xbe58e35c	-0.2118048
127	0xbc4d0c0d	-0.01251508

bias_hh_l0 f4 [128]
0	0xbe858500	-0.26078033
1	0xbe2b38ce	-0.16720888
2	0xbd7d05e9	-0.061773214
3	0xbe8da05e	-0.27661413
4	0xbe1f13a0	-0.1553483
5	0xbeb13a89	-0.3461497
6	0xbd88b5f9	-0.066753335
7	0xbec0333f	-0.37539098
8	0xbe612042	-0.21984962
9	0xbd35260c	-0.044225737
10	0xbe3143b5	-0.17310984
11	0xbd746f1d	-0.05967628
12	0xbdfadc8b	-0.122490965
13	0xbe0dfbb4	-0.13865548
14	0xbe186d2a	-0.14885393
15	0xbebc361a	-0.36760026
16	0x3d5b9983	0.053613197
17	0xbe867d34	-0.26267397
18	0xbe309280	-0.17243385
19	0x3cc6ee36	0.02428351
20	0xbdf3bd38	-0.11901325
21	0xbe6678c3	-0.22507004
22	0xbe8415f2	-0.25797993
23	0xbda09359	-0.07840604
24	0xbec8e1d8	-0.39234805
25	0xbca5bc6b	-0.020231446
26	0xbecba3ba	-0.3977335
27	0xbe9169b6	-0.28400964
28	0xbea69941	-0.32538798
29	0xbbdd0a81	-0.006745637
30	0xbe088e38	-0.13335502
31	0xbea3f62d	-0.32023755
32	0xbe2f2161	-0.17102577
33	0xbdc3dbc0	-0.09563398
34	0xbe95ecd0	-0.29282236
35	0xbc174f86	-0.009235268
36	0x3d71261e	0.058874242
37	0xbe628d2f	-0.2212417
38	0x3da40fc1	0.08010817
39	0xbec5b61a	-0.38615495
40	0xbe008915	-0.12552293
41	0xbd43847c	-0.04773377
42	0x3dacf5c6	0.08445315
43	0xbb827053	-0.0039806752
44	0xbe6d65a9	-0.23183312
45	0x3d31d877	0.043419328
46	0xbe11d00f	-0.14239524
47	0xbd6735e6	-0.056447886
48	0xbe201e49	-0.15636553
49	0xbe8b1a84	-0.27168667
50	0xbdd67937	-0.10472339
51	0x3e08f3a8	0.13374197
52	0xbe8dff0c	-0.27733648
53	0xbe91b82c	-0.28460824
54	0xbdc6101f	-0.096710436
55	0xbd0e9468	-0.0348095
56	0xbeae1d19	-0.34006575
57	0xbb4bf837	-0.003112329
58	0xbe654255	-0.22388585
59	0xbe3e61a1	-0.1859193
60	0xbe4cb510	-0.19990945
61	0xbe8161ad	-0.25269833
62	0xbe46e9d2	-0.19425133
63	0xbe2ebbdd	-0.17063852
64	0xbc991f6b	-0.018691739
65	0xbd8a5a7c	-0.0675554
66	0xbb838a40	-0.0040142834
67	0x3c87071a	0.016482878
68	0x3ceb368e	0.028712537
69	0xbb7d53f9	-0.0038654788
70	0xbce3b21a	-0.027794886
71	0x3d7b021b	0.061281305
72	0xbbbc1400	-0.005739689
73	0x3de24cf7	0.11049836
74	0x3d2cb365	0.04216327
75	0x3e228e0c	0.15874499
76	0x3e0e782b	0.13913028
77	0xbd88b155	-0.066744484
78	0x3de44882	0.11146642
79	0xbdec2d5e	-0.115320906
80	0xbe0686c3	-0.13137345
81	0xbe0276d7	-0.12740646
82	0x3ceb80c0	0.028747916
83	0x3ceb37b6	0.028713088
84	0x3dae3732	0.085066214
85	0x3d0c41c8	0.03424242
86	0xbdf69c6c	-0.12041554
87	0xbdd15751	-0.102217324
88	0x3c1038e9	0.008802631
89	0x3d85224f	0.065006845
90	0x3d61431a	0.054995634
91	0x3daefa49	0.08543832
92	0xbcbe7389	-0.02324845
93	0x3d912b4e	0.07088338
94	0xbd8c3b9a	-0.068473056
95	0xbda5e327	-0.080999665
96	0xbe902e5c	-0.2816037
97	0x3d5549cf	0.052072342
98	0xbe19acd2	-0.15007332
99	0xbdf08934	-0.117449194
100	0xbcf28a96	-0.029607099
101	0xbe0b9cc6	-0.13634023
102	0x3e10dcdf	0.14146756
103	0xbf1fdc1e	-0.6244525
104	0xbeb391a1	-0.35072044
105	0xbd986c67	-0.07442551
106	0xbe41b55f	-0.18916844
107	0xbd419804	-0.047264114
108	0xbe52cb7d	-0.20585437
109	0xbe1a796f	-0.15085386
110	0xbeb325f4	-0.34989893
111	0xbe50d525	-0.20393808
112	0xbe4a4910	-0.19754434
113	0xbea19189	-0.31556347
114	0xbcab208c	-0.020889543
115	0xbe2c69d9	-0.16837253
116	0xbecac4b5	-0.396032
117	0xbdf45d79	-0.11931891
118	0xbe05515c	-0.13019317
119	0xbcc48eee	-0.023993935
120	0xbe463481	-0.19355966
121	0xbd6ea9b8	-0.058267325
122	0xbe8e3813	-0.27777156
123	0xbc16842f	-0.009186788
124	0xbe7a87d9	-0.24465884
125	0xbe84eff2	-0.25964314
126	0xbe07a34c	-0.13245887
127	0xbe49222d	-0.19641943
