experiments/pedestrians/models/06_Aug_2023_21_23_08/model_registrar-17.pt (torch, 713991 bytes, 82 tensors)

weight f4 [64, 10]
000000 0b 82 fc bd 8f b2 b4 bd 47 f9 aa 3e 7a 43 6f 3d
       -0.12329491 -0.0882312 0.3339331 0.05841396
000010 52 16 13 bf 2d e4 49 3f d6 2b 91 bc ca 9d 8e be
       -0.57455933 0.78863794 -0.017721098 -0.27854759
000020 3a 54 47 be 82 93 b2 3d 2f 10 c8 3c 3f 22 83 3e
       -0.19465724 0.08719541 0.02442178 0.25612065
000030 3d 22 a4 3e 33 14 03 be c1 d4 81 bd 30 03 ab be
       0.32057372 -0.12800674 -0.06339408 -0.3340087
000040 22 9d 8f be 52 37 ba be 66 4c d7 bd aa 1c c8 3d
       -0.2804957 -0.3637033 -0.10512619 0.09771092
000050 8c 7a 18 3e 5c 59 a5 bc a4 70 1a be 8c f5 07 3f
       0.14890498 -0.020184211 -0.15082031 0.5310905
000060 4d 09 03 3c 29 dd b1 3d 9e 35 8a be 6e 99 05 bd
       0.007997823 0.08684761 -0.26994032 -0.032617025
000070 84 b7 7a ba 6b 1e 23 be 95 ba c1 bd 7b 80 ab 3d
       -0.0009564089 -0.15929572 -0.09459416 0.08374115
000080 5f 90 5d 3d 87 ec 8f bc d9 6b 04 bf 44 40 14 3f
       0.05409276 -0.01756884 -0.5172706 0.5791056
000090 6f 38 ab be 79 bc 8b be 45 a4 c4 bd 3d 3d a1 be
       -0.33441493 -0.2729223 -0.096016444 -0.31492034
0000a0 9a ff 96 3d a2 7d e5 bc 30 7c 76 3d 56 60 1b 3e
       0.07372971 -0.028014008 0.06017703 0.15173468
0000b0 61 78 f9 3e b4 00 b1 3e 31 d0 70 3e 9b 3c ed 3d
       0.48724654 0.3457085 0.23516919 0.11583825
0000c0 39 1d 97 be bd 32 02 3e 03 8c 73 3c c8 e2 50 3e
       -0.29514483 0.12714668 0.014864924 0.2039901
0000d0 bb c1 98 3e d8 39 33 bd 4d 62 ee bc 29 1f 03 3f
       0.29835305 -0.043756336 -0.029099608 0.5121942
0000e0 e8 0d 17 3e 23 e5 14 bd f6 a2 ab bd fd 1c 4e 3d
       0.14751399 -0.036351334 -0.08380692 0.050320614
0000f0 c3 e0 34 bd ff 39 44 3e e0 d5 ed 3e 8d b5 58 3e
       -0.044159662 0.19162749 0.46452236 0.21163006
000100 ab e6 aa 3e db a7 d1 be 2b 02 85 be 16 4d 8a 3e
       0.3337911 -0.40948376 -0.25978217 0.27011937
000110 22 ba 9f 3e 64 99 6b 3e 70 e4 92 bd cc 5f 04 be
       0.31196696 0.23007733 -0.07172477 -0.12927169
000120 8f 26 22 3e 2d d3 b2 be 58 f8 0f bf b0 ff b4 be
       0.15835021 -0.3492674 -0.5623832 -0.35351324
000130 dd 8f ac 3e fc da 1f bd 68 00 7d bc 05 8a d5 bc
       0.3370351 -0.0390272 -0.015441991 -0.02606679
000140 b1 51 6f 3c c0 a8 51 3c b2 75 9a be 42 0b 8e bd
       0.014606879 0.012796581 -0.3016792 -0.06935741
000150 2f 39 23 bf 77 ec 81 3c c0 1f 53 be cc a0 6b be
       -0.6375913 0.015859826 -0.2061758 -0.23010558
000160 06 90 30 3e de 66 34 3d a0 0f 5e bd 5f 86 d5 3d
       0.1724244 0.044043414 -0.05421412 0.1042602
000170 e2 70 ce 3e 3d 58 9b 3e 31 fc 4b 3d 06 fd d1 3e
       0.40320498 0.30340758 0.049801055 0.41013354
000180 58 23 0e 3e ac 8c 79 be 70 8c 93 3e d6 1a 85 3e
       0.1388067 -0.24370068 0.28818083 0.25997037
000190 e6 93 34 be fb c5 c2 3d f7 8c 22 3e 88 e8 60 3e
       -0.17634544 0.09510418 0.15874086 0.21963704
0001a0 83 78 94 be a8 ba 12 be 43 83 2f be 21 43 a9 3d
       -0.28998193 -0.14329016 -0.17139916 0.08264757
0001b0 39 74 3a 3e 8c 17 9c be 43 24 d9 3c 05 28 39 be
       0.18208398 -0.30486715 0.026506549 -0.18081672
0001c0 74 ad fb 3e 92 70 82 be 11 70 20 bf 85 f0 39 bf
       0.49155772 -0.2547651 -0.62671 -0.7263263
0001d0 50 05 a9 3d 82 8f c8 3e 00 7f 0b be 6a e3 9b bd
       0.082529664 0.39171988 -0.13622665 -0.07611735
0001e0 00 04 82 be 17 8f 46 3e 21 1d cc 3e 86 84 3b 3e
       -0.25393677 0.19390522 0.39865974 0.18312272
0001f0 49 0e 7c 3e d4 67 31 3e 72 3f 4d 3e da 11 a9 bd
       0.24614824 0.17324764 0.20043734 -0.08255358
000200 2d 4b 1c 3d 68 05 3c be dd 7c 81 bd d7 4b a8 3d
       0.03815763 -0.18361437 -0.06322644 0.0821759
000210 26 90 f1 bd 5b 37 08 bf 6f d1 48 3e c1 66 d3 bd
       -0.11795072 -0.53209466 0.19611143 -0.10322333
000220 52 af 72 3d 6f 61 53 be 69 f2 9a bd ad 4a 71 be
       0.05924923 -0.20642637 -0.07565767 -0.23563643
000230 6f 06 4f 3e ea f9 0b be 70 62 45 be 21 1c cf 3e
       0.20217298 -0.13669553 -0.19275832 0.40451148
000240 0d 54 34 be 57 ed 02 bc 06 d6 69 3e 61 3a 51 3b
       -0.17610188 -0.007991157 0.2283555 0.0031925666
000250 01 b2 fd bc b3 3b ac 3e ff 88 d2 bc b7 c3 4d 3e
       -0.030968668 0.33639297 -0.02570009 0.2009419
000260 1d a9 b2 3d 64 c4 1e be 6e 2e a3 3e c4 db f3 be
       0.08723662 -0.15504605 0.3187136 -0.47628605
000270 16 07 66 be 2a 60 2f 3e c2 bb 54 be 12 5a df 3d
       -0.2246364 0.17126527 -0.20774749 0.109058514
000280 ab b4 6b be b9 7f 6e 3e 80 b3 17 3e f4 19 52 3d
       -0.23018138 0.2329091 0.14814568 0.051294282
000290 4e 2a 38 bf 75 7b cc b9 10 c1 d1 3d aa a5 8c 3e
       -0.7193955 -0.00039001895 0.10241902 0.27470142
0002a0 8d 1c da 3c 2a 79 de 3e c9 55 a2 3e 0f d1 97 3e
       0.026624942 0.43451816 0.31706074 0.29651687
0002b0 d1 e9 00 3e 93 f5 b9 3e 9b d0 23 be 77 2e 11 3f
       0.12589194 0.3632017 -0.15997545 0.56711525
0002c0 08 41 78 3d ae a0 87 3d 3f 45 bb bb ad 9a 27 3e
       0.060608894 0.06622444 -0.005715042 0.16367598
0002d0 19 b5 cd 3c 50 1e 15 3e 0e a0 06 3f 8a 17 0c be
       0.025110768 0.14562345 0.52587974 -0.13680854
0002e0 95 da 2b be 96 65 0e 3e 71 38 8d 3e 41 2c d6 3c
       -0.16782601 0.1390594 0.27582124 0.026144149
0002f0 f3 88 49 3e 6f d3 9a 3e fc 15 89 3e 00 d4 8e 3d
       0.19681148 0.30239436 0.26774585 0.069740295
000300 48 af d0 be 88 a6 33 be f1 97 c4 be 8a 0f 0b be
       -0.4075873 -0.17543995 -0.38397172 -0.13580146
000310 59 bd a2 3d b3 26 07 3e 60 3a 71 be 03 94 68 3e
       0.079462714 0.13198356 -0.23557425 0.22712712
000320 61 26 c6 bd 14 35 ba 3c 7d 57 a1 be 6c 83 50 3e
       -0.09675289 0.022730388 -0.3151206 0.20362633
000330 82 1b d4 3e 13 ec a8 be f3 4a b5 3c b2 a2 ec bd
       0.41427237 -0.3299261 0.022130465 -0.11554469
000340 08 d0 81 3e 7f 09 94 bd cb f0 5c be b2 1b 0e bd
       0.25354028 -0.07228374 -0.2157623 -0.03469438
000350 df 50 b9 3d 4a dc 78 3d de 52 df 3e 02 62 76 3f
       0.09048628 0.06075696 0.4361791 0.962433
000360 6c 65 8d 3e c6 e4 aa 3d 2e bc f2 3d c0 32 d8 bd
       0.2761644 0.08344416 0.11852299 -0.10556555
000370 6d 1c 79 3d 9d d3 8d 3e a8 ca 60 be e7 66 d0 3d
       0.060818125 0.2770051 -0.21952307 0.10175877
000380 60 32 75 3e 36 95 10 3f 45 89 61 3e 6b 49 7a 3e
       0.23944998 0.5647768 0.2202502 0.24442069
000390 36 01 b0 3d 5b a5 2c be eb 24 3d 3d ab 3e 19 be
       0.08593981 -0.16859953 0.046177786 -0.14965312
0003a0 f3 fd f7 bd a7 24 dc 3e e2 22 9d 3d cd 95 f1 be
       -0.12108984 0.42996714 0.07672669 -0.471846
0003b0 68 4a e7 bd 15 c8 a9 3d c6 93 ec bd bb 03 13 3e
       -0.11293489 0.08290116 -0.11551623 0.14356892
0003c0 e8 0b 46 3e 4d c3 30 be 4d 73 a2 bd bc 6e 21 be
       0.1934048 -0.17262001 -0.07932148 -0.15764898
0003d0 e2 6e ba 3e 22 ee a5 3e ec 7d 1c 3d a9 65 a1 be
       0.36412722 0.32408243 0.038206026 -0.31522873
0003e0 4c 2b 5d bd 69 2e 95 be f1 f3 42 be e5 16 2a be
       -0.05399637 -0.2913697 -0.19038369 -0.16610296
0003f0 ba e0 33 3e 96 9f e1 3e b9 29 01 be 78 4f e4 be
       0.17566195 0.44067067 -0.12613572 -0.4459188

bias f4 [64]
000000 31 2c 6f be 69 06 c5 bd b0 9c 7d be ac 27 68 3e
       -0.23356701 -0.09620363 -0.24766803 0.22671384
000010 b3 81 b3 3d b1 85 84 3e 71 be 8c be d5 32 61 bd
       0.087649725 0.25883248 -0.27489045 -0.054980118
000020 94 3d c1 3c 1c b6 6c 3e 43 ef a1 bd 4d 09 db 3e
       0.023588933 0.23116344 -0.07906964 0.42780533
000030 6c e9 00 be 03 6c 12 3e b1 67 fe bd 4f 47 28 bd
       -0.12589043 0.14299016 -0.12422121 -0.04108363
000040 f8 1b 62 bd d3 9b 3e be 19 4b 85 3e 5e 13 fc 3d
       -0.055202454 -0.1861413 0.26033857 0.123083815
000050 e8 ea 20 bd 7c 5d 8b 3d 3a 2f 24 3e 7a ee eb bd
       -0.039286524 0.0680494 0.1603364 -0.11520095
000060 1f bb f1 bd 41 b0 0c 3e 71 3c 33 bc ef ff 29 be
       -0.11803269 0.1373911 -0.010939703 -0.16601537
000070 7e 22 96 be 90 3e d6 3d 25 0b ce 3d 29 57 53 be
       -0.2932319 0.104611516 0.100607194 -0.20638718
000080 4f 94 fb bd 5c 7c 11 3e 5f 92 a3 be b8 06 79 3e
       -0.12284147 0.14207596 -0.3194761 0.24318969
000090 92 8e e0 3d b9 31 04 be 6e 15 49 bd 39 1d 1b 3b
       0.10964693 -0.12909593 -0.049092703 0.002366854
0000a0 11 dd 74 be 87 cc 50 3e c0 4e 8e bd 1c 66 cf bd
       -0.23912455 0.20390521 -0.06948614 -0.10126898
0000b0 fe ec 44 be 01 df 35 3e bb 38 13 be 78 07 79 be
       -0.1923103 0.1776085 -0.1437711 -0.24319255
0000c0 ef ae b3 3d 94 76 36 be 6f 85 33 bd 41 d6 2d 3e
       0.087736 -0.17818671 -0.043828424 0.16976263
0000d0 99 16 b5 be 34 1a aa be e9 bf cb be 2a cb c6 3d
       -0.35368803 -0.33223116 -0.39794853 0.09706719
0000e0 4d 82 95 3c ad 45 50 3e c1 6c 51 3e 3e 45 ae 3e
       0.018250609 0.20339079 0.20451643 0.34037203
0000f0 d1 48 92 be 3a 61 2e 3e 8d 3c c5 3e ef 24 1b be
       -0.2857118 0.17029276 0.3852276 -0.15150808

weight f4 [32, 32]
000000 bf 41 4a be aa 79 47 be 98 c6 98 3e 12 21 b9 3c
       -0.19751643 -0.19480005 0.29839015 0.022598777
000010 50 aa ee bd 26 9d 2b bc fa f5 09 bd e4 b2 c1 3c
       -0.11653578 -0.010474479 -0.033681847 0.023644872
000020 83 6d 10 be 14 74 d9 be 5c a6 d9 3d 61 95 ad 3d
       -0.14104275 -0.42471373 0.10627434 0.084757574
000030 c2 46 a8 bc d7 5a 56 3e a0 ef 28 be 76 47 21 3e
       -0.020541552 0.2093309 -0.1649766 0.15749916
000040 39 2f 5b bd df c3 78 3e 65 99 46 3e 37 48 7a 3e
       -0.053511832 0.24293469 0.19394453 0.2444161
000050 17 26 7d be 2f a9 2c 3e f0 c7 77 3d 1c 3b 9e be
       -0.24721561 0.16861413 0.06049341 -0.30904472
000060 7f 6e a8 bd af 67 f9 3d 25 f4 cd 3d 72 47 f8 3d
       -0.082242005 0.12177979 0.100563325 0.12123002
000070 0b ff 3f 3e 3f 28 86 3d 8e 3f e1 3b 03 e0 35 3e
       0.18749635 0.06550645 0.0068740314 0.17761235
000080 03 2a c3 3d 27 9e ca bc 4c 32 c5 be 04 e6 17 3d
       0.095294975 -0.024733616 -0.38514936 0.037084594
000090 f1 18 55 be 63 86 94 3d 93 b2 13 3e b8 4d c6 bd
       -0.20810296 0.07252195 0.1442359 -0.096827924
0000a0 f7 b4 99 be 85 52 88 be ed 8e 88 be c2 97 95 be
       -0.30020878 -0.26625457 -0.26671544 -0.29217345
0000b0 98 de 82 3d dd 58 ac bc c5 8b 25 bd e9 7d af bc
       0.06390113 -0.021038467 -0.040416498 -0.021422343
0000c0 0b 88 fd ba 32 bd 1d 3e 41 1b 1b 3e 14 c8 c2 3e
       -0.0019342912 0.15404204 0.15147115 0.38043272
0000d0 45 df 60 3e c3 0d 0f be cc 19 5e 3e b8 79 58 bd
       0.2196017 -0.13970093 0.21689528 -0.052850455
0000e0 3e f9 52 3d 82 ba 39 3d d8 d6 2f 3e 7b b1 91 3d
       0.051507227 0.045343883 0.171718 0.0711393
0000f0 e1 19 11 be ba e7 12 be 12 e2 08 3e 18 a8 e4 bc
       -0.14170028 -0.14346209 0.13367489 -0.027912185
000100 91 d0 9a 3e aa fe 33 be 65 fe db 3d 3d 60 db be
       0.3023725 -0.17577615 0.10741881 -0.4284686
000110 cc c3 79 be 9e 9d 1e bd 47 42 29 be 45 10 35 be
       -0.24391097 -0.038724534 -0.16529189 -0.17681988
000120 0c 9d 1c be 7f 12 2b 3e c4 68 44 3e 81 02 12 be
       -0.15294284 0.16706274 0.1918059 -0.14258768
000130 d3 fa 93 be b3 77 b0 3e 2d 8b 8f be ec 52 27 bd
       -0.289023 0.34466323 -0.2803587 -0.040850565
000140 ee c1 02 bc 27 57 a7 3e ec 7b ab 3e 09 4c e8 be
       -0.007980807 0.3268368 0.33492982 -0.4537051
000150 f2 76 c0 bd 2c 4d 77 3d 4e 29 48 be 72 53 2e be
       -0.09397687 0.06037633 -0.19547006 -0.1702402
000160 ae b4 65 bd c6 44 e8 bd b1 cf 24 3c 9b d1 30 be
       -0.056080513 -0.113412425 0.010059283 -0.17267458
000170 0c 04 76 3e 82 f9 82 be 91 0f 31 be 5c 58 2c be
       0.24024981 -0.25580984 -0.17291094 -0.16830581
000180 a7 78 53 3e 51 8d ea bd 50 71 8e 3d 45 4c 21 3e
       0.20651494 -0.11452735 0.069552064 0.15751751
000190 4b 8c 5b bd 86 91 1a 3e 87 a3 7a 3e 23 30 82 be
       -0.05360059 0.15094575 0.24476443 -0.2542735
0001a0 62 9c 37 be dc dc 89 3e fb 08 a9 3d 0e 2f 32 be
       -0.17930749 0.26926315 0.08253666 -0.17400762
0001b0 34 5a 88 3e a9 54 83 bd b6 01 e0 bd b4 37 20 bd
       0.2663132 -0.06412632 -0.10937826 -0.039115623
0001c0 eb 06 62 be 5b 05 ce 3d 5c 7f b1 bd ea 1e 84 3e
       -0.22072951 0.10059615 -0.0866687 0.25804836
0001d0 9a 76 89 3d 60 02 61 3d c8 22 99 3e 10 38 81 ba
       0.067120746 0.054933906 0.29909348 -0.0009858627
0001e0 0b 03 cb bd 82 5d 4e 3d 72 62 5a 3d 19 cb 47 3e
       -0.0991269 0.050382145 0.05331654 0.1951107
0001f0 bc 13 33 bd 89 46 ed 3d 32 4a 8d 3e b4 f0 ad 3d
       -0.043719992 0.11585719 0.2759567 0.08493176
000200 a0 1e a7 be 2f 57 c0 bd d8 c1 62 3e 32 f6 d3 3c
       -0.32640553 -0.09391629 0.22144258 0.025874231
000210 fb 71 34 3e b9 7f 2c bd a4 ed fd 3d 1f 53 a3 3e
       0.17621605 -0.042113993 0.12398842 0.31899354
000220 34 fa e7 3d 06 98 36 be c2 19 40 3e 79 a0 ca 3d
       0.11327019 -0.1783143 0.18759826 0.09893889
000230 b4 0e 78 be fd cd 46 3e 10 07 be bb 25 55 8d 3d
       -0.24224359 0.19414516 -0.0057991818 0.06901006
000240 68 a7 a5 bd 51 83 74 3d 10 ee 5b 3e e0 0b ad 3e
       -0.08088571 0.059695546 0.21477532 0.33798122
000250 86 ca 68 3e ff 2b 89 be 0c ba 81 3e e0 cf 90 3d
       0.22733507 -0.2679138 0.25337255 0.07070899
000260 d1 bc 00 3e cd 6c 30 3e a9 49 ce 3d 69 8e 10 be
       0.12572028 0.17229004 0.10072643 -0.14116825
000270 41 89 e1 3d 78 36 b5 3e 7c d4 0e 3e 4f 5e f8 bd
       0.11012507 0.3539312 0.13948244 -0.12127363
000280 46 59 d8 3e 69 7f f2 3b 0c de 8c bd 66 3a bf be
       0.4225561 0.0074004424 -0.068782896 -0.37349242
000290 c8 6c 9e bb 5d 60 0a 3e 5e 95 13 bc 18 95 2c be
       -0.004834745 0.13513322 -0.00900778 -0.1685375
0002a0 28 9b 9e bc fd 34 07 3e 43 28 83 3d aa c4 e7 3d
       -0.019361094 0.13203807 0.06404164 0.113168076
0002b0 90 84 b9 bc 47 f5 12 3e 39 99 05 be ca 9f 06 be
       -0.022646219 0.14351378 -0.13046731 -0.13146892
0002c0 6c 01 fb bd 6c 13 98 be fa a3 85 3d 18 38 8e be
       -0.122561306 -0.29702318 0.06525417 -0.2777717
0002d0 2c 54 af bc 08 d0 db 3d dd 30 d8 bd 6b b3 92 3d
       -0.021402441 0.10733038 -0.10556195 0.071631275
0002e0 d4 a8 02 be c7 c3 5c 3e a2 64 49 bd ea 39 af 3c
       -0.12759715 0.21559058 -0.049168237 0.02138992
0002f0 f3 d8 9b bd 58 e2 87 be 0b 7b df bb 86 80 4d bd
       -0.07609739 -0.26539874 -0.006820088 -0.050171398
000300 df 2d 32 be 45 a7 8e 3d b0 b9 47 3d 18 19 76 bd
       -0.17400311 0.06965498 0.04876107 -0.060082525
000310 f8 45 41 3d e4 d5 9f bc 17 e0 da 3e 9a d2 ab 3e
       0.047185868 -0.01951117 0.42749092 0.33559114
000320 73 3f b8 3d ba c8 33 3e 44 6a 88 3d e8 31 99 3e
       0.08996477 0.1755704 0.066608936 0.29920888
000330 2d b5 0d be f4 ef 23 be 2e 23 50 3e a8 0b c5 bd
       -0.13838644 -0.16009504 0.2032592 -0.09621364
000340 58 b3 c7 3c b7 b3 fc bd 0c ae 32 be 8c fa 0a 3e
       0.02437751 -0.123389654 -0.17449206 0.13572139
000350 0e 62 99 3d ae cd 82 be 88 11 d2 3e 71 84 af 3e
       0.074894056 -0.25547546 0.41029 0.34280732
000360 2a 10 38 3e b7 d3 14 3e 06 e5 41 3d c9 6c 78 bd
       0.17974916 0.14533888 0.047337554 -0.06065062
000370 c4 30 02 be 3b d4 b0 3d 7b 34 b6 3c c4 2d 22 3c
       -0.12713915 0.0863423 0.022241822 0.009898607
000380 36 31 e8 3d 27 a2 ac 3b c8 97 d9 3d 3e ff 87 be
       0.11337511 0.0052683535 0.10624653 -0.26561922
000390 ac 13 f0 3c ac be 6f 3e 12 02 af 3e 6e 28 d7 3d
       0.029306255 0.2341258 0.34181267 0.10505758
0003a0 3a 17 1d be 2e 83 05 3e 53 cd a9 bc ed 91 1a 3e
       -0.15340891 0.13038322 -0.020727789 0.15094729
0003b0 bd 54 6f 3e f3 a8 24 3e 21 c1 a7 bd ba 2b 40 3e
       0.23372169 0.16080074 -0.08191133 0.1876668
0003c0 43 d4 0f 3d ac d4 5c 3e ed bb a6 3d ed 89 cf 3e
       0.035114538 0.21565503 0.08141313 0.40534917
0003d0 c4 43 68 3e 7a bc 66 3d 11 b6 85 3e b3 c9 8c bd
       0.226821 0.05633209 0.26115468 -0.068744086
0003e0 99 22 16 bc 7d 2f 24 3e 07 f6 4c 3d 14 fb 0b 3e
       -0.009163522 0.1603374 0.050039317 0.13669997
0003f0 d9 ad 87 3d f5 3e b9 3b 6b 55 92 3e 7f f0 ec bd
       0.06624956 0.005653257 0.28580794 -0.115693085

bias f4 [32]
000000 0d d2 f9 bd 74 aa 2c bd 8b a3 52 3e 37 35 45 3a
       -0.12198267 -0.042154744 0.20570199 0.0007522883
000010 22 d7 43 be 7f 33 23 3e ea c8 03 3d 12 dd 18 3e
       -0.19125035 0.15937613 0.03217403 0.14928082
000020 06 86 f4 3d cf c7 c2 bb af 1a bd 3d f8 26 0e 3e
       0.119396254 -0.005944229 0.09233605 0.13882053
000030 ef b3 0e bd be 7d 20 3c 66 be 8e bd 1d 08 02 3e
       -0.034839567 0.009795604 -0.06969909 0.12698407
000040 85 52 1f be 5c 5c 09 3e 0a 7a d4 3d 9a ad 1c bd
       -0.15558822 0.13414139 0.103748396 -0.038251497
000050 99 64 18 3e b8 9f 14 be d1 09 f6 bd b6 20 f7 3c
       0.14882125 -0.14514053 -0.12013591 0.030166965
000060 f3 a3 e0 bd 8a 3d 63 3d 2f 29 01 be 82 24 44 be
       -0.10968771 0.05547861 -0.12613367 -0.19154552
000070 1a 36 0c be 42 68 56 be f4 cb 32 bd e8 fb 51 bd
       -0.13692513 -0.20938209 -0.043651536 -0.051265627

weight f4 [32, 64]
000000 08 c8 50 bd a0 ad 87 3b 08 4a 7e bd 08 15 41 3d
       -0.050972015 0.0041405708 -0.06208232 0.047139198
000010 48 20 da bd c4 a8 bb 3d 34 12 ba bd de 87 cb bd
       -0.106506884 0.09163049 -0.09085503 -0.09938024
000020 5a c3 a1 bd a8 e1 67 3d 14 2e 3d bd e4 98 3f 3d
       -0.078985885 0.056611687 -0.04618652 0.046776667
000030 54 46 d9 bd 3e 52 9b bd 80 fe 3b bd 78 3c c9 bc
       -0.10609117 -0.07584046 -0.045897007 -0.024564967
000040 04 4b c3 bd 5e a0 a7 3d b8 7d f1 bc 80 58 24 3d
       -0.095357925 0.081848845 -0.029478893 0.040123463
000050 5c 07 b5 3d 00 c7 be 3c bc 01 0c 3d 32 1b f7 3d
       0.08839294 0.02328825 0.03418134 0.12065734
000060 b4 ea 66 bd 38 2d 22 3d 0c cc 63 bd 48 f3 b6 3d
       -0.056376174 0.039593905 -0.055614516 0.08933121
000070 c0 74 cc 3d 60 06 ec bd 88 88 da 3d c4 7c 74 3d
       0.09983206 -0.115246534 0.106705725 0.0596893
000080 dc 1c 5f 3d 0c c7 52 3d 04 d0 d4 3d 60 35 87 bc
       0.05447088 0.051459357 0.10391238 -0.016504943
000090 b2 7f d8 bd f8 ea 12 bd 58 4b b4 bd f0 62 07 3c
       -0.10571231 -0.035868615 -0.08803433 0.008263335
0000a0 40 30 bf bc 86 50 89 bd 00 35 3a bc 0e 89 f2 3d
       -0.023338437 -0.06704812 -0.011365175 0.11842547
0000b0 70 89 21 bc 60 0c 82 3b 20 b4 9f bc e0 fa a0 3c
       -0.009859428 0.0039687604 -0.01949507 0.019650877
0000c0 68 19 e4 3d cc 8a 9c 3d 84 bd 35 3d a8 86 de 3c
       0.11137658 0.07643661 0.04437019 0.027163818
0000d0 b0 73 f1 3c 78 cd 45 3d 28 53 84 bc bc ed ed bd
       0.02947411 0.048291653 -0.016152933 -0.1161761
0000e0 3e 50 9e bd 98 84 da 3d 00 d5 f4 3b fa 60 cf bd
       -0.07730149 0.106698215 0.0074716806 -0.10125919
0000f0 50 83 a1 3c 8a 86 d3 3d 80 eb f1 bd 6a 59 ac bd
       0.019715935 0.10328396 -0.11812496 -0.08415492
000100 78 e9 4b bd 40 67 a4 3b b0 d3 ee bc a0 0e 61 bc
       -0.0497832 0.005017191 -0.029153675 -0.013736397
000110 66 92 f9 bd 48 c2 6f 3d c8 b3 e0 3d 1e 7a 9c 3d
       -0.121861264 0.05853489 0.109717906 0.076404795
000120 2a 48 b5 bd ca 5c ce bd f4 9b 54 3d 00 fb 37 3b
       -0.08851655 -0.10076292 0.05190654 0.0028073192
000130 78 e2 51 3d 98 26 fa bd 40 37 f4 bb da 8a b4 3d
       0.051241368 -0.122143924 -0.0074528754 0.08815546
000140 cc 85 6d 3d 40 93 95 3b 80 56 c9 3c a0 e7 41 bc
       0.057988927 0.0045646727 0.02457738 -0.011835009
000150 e4 c1 8c bd 04 7c 41 bd 18 e6 9b bd ce a2 d4 3d
       -0.06872919 -0.04723741 -0.07612246 0.10382615
000160 96 df 8c 3d d8 0e 33 3d 72 50 c4 bd 02 89 c5 3d
       0.06878583 0.043715328 -0.09585656 0.09645273
000170 ac 88 20 3d 74 19 b1 3d 6c 6a 49 bd b8 15 d9 3c
       0.03919284 0.08647433 -0.049173757 0.026499614
000180 32 f4 f9 3d 64 33 ac 3d a8 4f cd 3d 40 06 d7 bc
       0.1220478 0.084082395 0.10024959 -0.026248097
000190 62 0a c3 3d e8 81 c8 bd 20 21 31 3c 5e 24 90 bd
       0.09523465 -0.09790403 0.01081112 -0.070381865
0001a0 f8 cf ee bc 34 1f 03 bd c0 3a 19 3c ea fe e8 3d
       -0.029151902 -0.03201218 0.009352386 0.11376746
0001b0 a4 7b 7d 3d 00 d0 0a ba 70 b8 b5 3d 4a 30 83 bd
       0.06188549 -0.00052952766 0.08873069 -0.06405695
0001c0 62 ef 83 3d a0 ea 3d bc e8 2f b2 bc 30 c4 6f 3c
       0.06442143 -0.0115915835 -0.02175136 0.014634177
0001d0 ea 1e c4 bd 50 a9 6c 3c 64 27 2c 3d ce dc da 3d
       -0.09576209 0.014444664 0.042029753 0.106866464
0001e0 5c 68 1f bd 88 55 38 3d 06 e0 ff 3d d4 a1 5b bd
       -0.038917884 0.045003444 0.12493901 -0.05362113
0001f0 06 5a f3 3d 34 34 7e bd e0 af 61 3d 78 93 48 3d
       0.11882405 -0.062061504 0.055099368 0.048968762
000200 18 04 0f 3d 12 72 ca 3d a4 ee 4e bd 38 90 06 3d
       0.034916013 0.098850384 -0.050520554 0.03285238
000210 00 e6 37 3a 5a 8c c0 bd 38 a4 f8 bc 74 f6 aa bd
       0.00070151687 -0.0940177 -0.030351743 -0.083477885
000220 30 62 62 3d 60 1b 38 3c b0 a1 48 3c 68 53 1b bd
       0.05526942 0.011236995 0.012245581 -0.03792134
000230 00 91 1d 3a 0c 41 1f bd b8 1d 13 3d 94 9e f8 3d
       0.00060106814 -0.038880393 0.035917014 0.121396214
000240 18 1b 9b 3c 30 c6 62 bd 3a 5f 9c bd 10 8c 1c 3c
       0.018933818 -0.055364788 -0.076353505 0.009554878
000250 a2 e9 bd bd 26 6c c0 bd e0 9f a6 bd ec e5 2d bd
       -0.092730775 -0.09395628 -0.081359625 -0.0424556
000260 80 96 17 3c da 48 b0 3d 58 51 46 3d 5c 20 c4 3d
       0.009252191 0.08607645 0.04841742 0.095764846
000270 e2 bd a0 bd b0 d3 2c 3c b0 8d e3 bd 32 db 92 3d
       -0.07848717 0.010548517 -0.11111009 0.071707144
000280 68 69 d5 3c 62 9b f7 3d 00 12 b6 bd 46 4b cd 3d
       0.026051238 0.12090184 -0.08890152 0.10024123
000290 3a 1f d8 3d 02 fb ce 3d 98 1e 92 3c 88 c6 e8 3d
       0.10552831 0.1010647 0.017836854 0.11365992
0002a0 3c f7 aa 3d 0e ff be 3d 30 0a 05 bc 34 74 c4 bd
       0.083479375 0.093259916 -0.008120105 -0.095924765
0002b0 00 e2 cb ba 08 0a c0 3c 18 61 ae bd 04 da 92 bd
       -0.0015555024 0.023442283 -0.08514613 -0.071704894
0002c0 68 70 f5 bd f4 7a 33 bd 58 fe de 3d 98 19 af 3c
       -0.119843304 -0.04381843 0.10888356 0.021374509
0002d0 20 2f fa bb c0 7c a4 3b b0 a0 9f 3d 74 10 e2 bd
       -0.0076350123 0.005019754 0.077943206 -0.110382944
0002e0 e6 86 c5 bd 90 39 2a bd 28 55 93 bd 7e 0a 84 3d
       -0.096448705 -0.041558802 -0.07193977 0.06447314
0002f0 a8 e2 b4 3d b8 60 f8 bd 12 43 d9 bd 20 4c f9 bd
       0.08832294 -0.12127823 -0.10608496 -0.12172723
000300 80 27 41 3d f2 0a ce 3d b0 7c c6 bd a0 08 6d bd
       0.04715681 0.100606814 -0.09691751 -0.057869554
000310 d0 ed 22 3d 0c 2a a7 bd 7e 77 d9 3d d0 c1 ee 3c
       0.039777577 -0.08162317 0.106184945 0.029145151
000320 4c 88 0e bd d0 04 05 3c 20 a0 1f 3d c8 0c 35 bd
       -0.03479795 0.008118823 0.038971066 -0.044201642
000330 f4 5c c6 bd 00 41 5c 3a 80 37 15 3b 80 31 25 3b
       -0.09685698 0.000840202 0.0022768676 0.0025206506
000340 c0 6e 95 bc ee 5e a4 3d d8 e0 0e bd 40 3b 46 bc
       -0.018241286 0.08025919 -0.034882396 -0.012099087
000350 30 87 52 3d ce 22 a1 bd a8 17 09 3d 28 6c e2 bc
       0.051398456 -0.078679666 0.033469826 -0.027639464
000360 c4 97 75 3d f2 de 8a bd a0 61 97 3b c0 5a 48 3c
       0.059959188 -0.06780805 0.004619792 0.012228668
000370 0a fa cd bd fe 25 ba bd dc 5b 44 3d 5c 05 15 bd
       -0.10057457 -0.09089278 0.047939166 -0.036382064
000380 9c 09 98 3d 90 e4 fc bd a4 18 7d bd 82 db d2 bd
       0.07423708 -0.12348282 -0.061791077 -0.10295774
000390 84 87 4c 3d 40 7f 6d bb 78 ff be bc 40 5d aa bc
       0.049933925 -0.0036239177 -0.023315176 -0.020796418
0003a0 24 1a c8 bd 5c 33 11 3d 40 31 4c 3b 3e ab b0 bd
       -0.09770611 0.03544937 0.0031157285 -0.08626412
0003b0 c8 a8 40 3d c0 a6 24 bb fc 96 f7 bd 24 b5 89 3d
       0.047035962 -0.0025123805 -0.12089345 0.06724003
0003c0 5c ee 88 3d 98 ee c0 bc 8e c0 b0 bd 60 74 a4 3b
       0.066860884 -0.02355127 -0.08630477 0.005018756
0003d0 24 2c c1 3d b6 53 ea 3d a4 3a c1 bd 28 41 67 bd
       0.09432247 0.11441748 -0.09435013 -0.056458622
0003e0 ee 53 c7 3d 24 41 7a 3d a2 77 9e 3d 08 d7 7e bd
       0.09732805 0.06109728 0.07737662 -0.06221679
0003f0 86 8d dc 3d ea 72 d2 bd c0 4c c5 bb 00 17 2a 3b
       0.10769181 -0.10275824 -0.006021112 0.002595365

bias f4 [32]
000000 e0 a0 c4 3b fa 90 f5 bd 28 42 82 3c 5c 20 34 3d
       0.006000623 -0.11990543 0.015900686 0.043976173
000010 f6 1a e5 3d 3c f4 25 bd 5c ac 38 3d 40 91 2b bd
       0.11186783 -0.040516123 0.04508625 -0.041886568
000020 b4 0b 34 bd e8 d6 e2 bd a8 23 d8 3c c2 c6 ab 3d
       -0.043956473 -0.11076146 0.02638419 0.083875194
000030 72 69 8e bd e4 52 51 3d f8 ba 9f bc a4 c1 b5 bd
       -0.06953706 0.05110444 -0.019498333 -0.08874825
000040 40 60 5a 3c e2 78 f9 bd 9e 3b 89 3d 98 41 e2 bc
       0.013328612 -0.1218126 0.06700824 -0.027619168
000050 34 c5 eb 3d 20 35 97 3b 8a 30 f8 bd d2 a8 c6 3d
       0.11512223 0.0046144873 -0.12118633 0.09700169
000060 10 fb df bc e6 5a af bd bc 5c ec 3d 60 47 3f 3c
       -0.027341396 -0.085622594 0.11541125 0.011674732
000070 34 ff 25 3d 52 76 dd bd 78 d2 34 bd e6 66 cd 3d
       0.040526584 -0.108135834 -0.04414603 0.10029392

weight_ih_l0 f4 [128, 32]
000000 59 09 98 3d 0c db de 3d 49 b2 d8 bd 04 c2 3f bd
       0.07423658 0.108816236 -0.1058088 -0.046815887
000010 d1 06 d0 bd ce 3f 9a bd 05 62 95 be d7 99 e8 be
       -0.1015755 -0.07531701 -0.29176345 -0.4542987
000020 16 fd 59 be 76 1c 98 3e 08 65 0f 3e f9 b4 1f be
       -0.21287951 0.29709214 0.14003384 -0.1559638
000030 83 54 ed 3d 0e 58 8d be 93 eb 3f 3e bb 40 04 bd
       0.11588385 -0.27606243 0.18742208 -0.032288294
000040 87 3c 00 3e d7 bd a3 3e 30 12 48 be 41 2f cc 3d
       0.1252309 0.31980774 -0.19538188 0.099699505
000050 37 23 c0 be f2 5e 13 3d 88 a8 3b be 0c 49 cd be
       -0.37526867 0.03597922 -0.18326008 -0.40094793
000060 05 8c 26 bd 27 6a 5e be 58 86 77 3d 74 f1 db 3d
       -0.040660877 -0.21720181 0.060430855 0.10739413
000070 95 85 05 3e e2 7d 04 be da 7d c8 3d f8 ed 27 be
       0.13039239 -0.12938645 0.09789629 -0.16399372
000080 a0 02 e8 3d 2c 51 e5 bc 96 20 ce bd de 53 60 be
       0.11328626 -0.027992807 -0.10064809 -0.21906993
000090 be 41 90 3d c5 df e1 bc 79 2c a3 3c d6 1c 8f be
       0.07043789 -0.027572522 0.019918667 -0.27951688
0000a0 38 33 04 be 7d 8f 9d 3e 8d 2d 61 3e 23 20 11 bb
       -0.12910163 0.30773535 0.21990032 -0.00221444
0000b0 64 83 6f 3e 8e 30 07 bd f3 7f 09 be 10 50 d6 bd
       0.23389965 -0.03300529 -0.13427715 -0.104644895
0000c0 21 48 fd 3d 8b ec 1c 3e d0 aa 44 bd c8 09 07 3e
       0.12367273 0.15324609 -0.048014462 0.13187325
0000d0 3b 77 90 be 86 b3 8d bd ff a6 d4 bd 8c bb d9 be
       -0.28215966 -0.06919007 -0.103834145 -0.425259
0000e0 5f ea 55 3d 70 80 a8 bd 3f b4 8a 3e f0 f8 cd 3d
       0.052225467 -0.082276225 0.27090642 0.10057247
0000f0 ed c6 f4 3c 41 3b 6a 3b 45 ae a5 3d 7e ac e4 bd
       0.029880011 0.0035740884 0.0808988 -0.11165713
000100 70 8b 16 3e 79 fa 3a 3e 63 5f 90 3d 19 72 95 be
       0.14701629 0.1825961 0.070494436 -0.29188612
000110 1d 4a f5 3d 2f 9a 87 be 2f 67 55 3c 75 00 b4 be
       0.119770266 -0.2648482 0.013025089 -0.351566
000120 9e 47 59 bd 52 eb 73 3e 17 a5 78 3e 0a f5 9d be
       -0.053046815 0.23820236 0.24281727 -0.30851012
000130 b5 61 7b 3d f6 0d e1 bd 8e 29 e7 3a 8f 95 18 be
       0.061372478 -0.10988991 0.0017636286 -0.14900802
000140 f5 90 85 3e dc cc e2 3e 06 b1 e0 bd ad 0f ca 3d
       0.26087156 0.4429692 -0.109712645 0.09866271
000150 11 c0 71 bd 66 94 b6 3d c0 d1 31 be 60 44 15 bf
       -0.05902106 0.089150235 -0.1736517 -0.58307457
000160 eb 5f b1 bd 42 b5 bd be a2 24 c9 3d 58 82 8d 3e
       -0.08660873 -0.3705235 0.0982144 0.27638507
000170 77 2e b4 3d 99 80 47 bd bb 7c aa 3c 17 ef 62 3d
       0.08797925 -0.048706625 0.02081143 0.055403795
000180 9e 19 86 3e bf 1e dc 3d 3e 33 0f be 1b c7 b6 be
       0.2619142 0.10748052 -0.13984391 -0.3569878
000190 52 75 7d bd 13 c6 6a be d3 63 fd bc ce bb 16 bf
       -0.061879463 -0.22927122 -0.030931389 -0.5888032
0001a0 e9 bc 0a 3e fa 32 3f 3e de 1b ae 3c cb ce bf 3c
       0.13548626 0.1867179 0.021253522 0.023414036
0001b0 11 18 21 3b 2b d7 80 be 92 9e cd 3d d5 fe de 3d
       0.0024580995 -0.2516416 0.100400105 0.10888449
0001c0 e7 f9 eb 3d d5 44 82 3e 59 6d 31 bd 5d 20 1c bc
       0.115222745 0.2544314 -0.043317173 -0.0095292
0001d0 19 c2 dc bd 44 84 1a be 4b 53 7d be be 49 0d bf
       -0.10779209 -0.15089518 -0.24738805 -0.55190647
0001e0 c6 6a d7 bd 58 3c 8e be a1 04 8b 3c 10 03 aa 3d
       -0.10518412 -0.27780414 0.01696998 0.083013654
0001f0 19 55 e5 3d 1e 14 1f 3d 71 85 12 be a7 f2 de bb
       0.11197872 0.038837545 -0.14308716 -0.0068038288
000200 e3 12 1d 3c 40 d0 b6 bb 48 66 75 3c 25 3b 48 be
       0.0095870225 -0.0055790246 0.014977999 -0.19553812
000210 61 4a 92 bd f2 f9 d8 bd bb cf 84 bd 18 a9 86 be
       -0.07143093 -0.10594548 -0.06484934 -0.26300883
000220 fc 2e bf bd 22 2a a1 3c 33 b1 f9 3d 0a b8 1d 3d
       -0.093351334 0.01967341 0.12192001 0.03850559
000230 94 03 e5 3d c9 fa 64 be af 1c 6d 3d fc 0d a4 bd
       0.11182323 -0.22361292 0.057888683 -0.0801048
000240 f9 06 da 3d cc ef fa 3e 75 c0 4b be 26 71 25 be
       0.10645861 0.49011075 -0.19897635 -0.16156444
000250 1f b3 2a be e7 65 29 be 37 ec 09 be 81 42 d9 be
       -0.16669892 -0.16542779 -0.13469015 -0.4243355
000260 72 9c 0c bd 44 92 2d be 77 3b 98 3d af f5 f7 3d
       -0.034328885 -0.16950327 0.07433217 0.12107407
000270 fa 79 65 3e f9 b1 9f bd 3f 44 62 be 1a 4c d7 bc
       0.22409812 -0.077976175 -0.22096346 -0.026281405
000280 ef 74 e3 3c 76 6b 8c 3d e1 01 84 bd 7e f6 66 be
       0.02776572 0.06856434 -0.06445671 -0.22554967
000290 11 1d 0a be 4f 5a ac bd 5d 57 9d be 57 2e a1 be
       -0.1348765 -0.084156625 -0.30730715 -0.31480667
0002a0 eb 4c ac be 08 43 3e 3e 76 4c 69 3d de 33 ae bc
       -0.33652434 0.18580258 0.056957684 -0.021264967
0002b0 d3 5d ff 3d 6a 59 5c be 01 c4 0c 3e f6 02 b4 3d
       0.124690674 -0.21518484 0.13746645 0.08789627
0002c0 c4 2b 86 3e fe 49 69 3e db 0a 32 3e 7c cb aa bd
       0.26205266 0.22782132 0.17386954 -0.08339593
0002d0 70 03 a7 be 60 52 c3 3c 70 88 6d 3d 7d 55 f4 be
       -0.3261981 0.02384299 0.057991445 -0.47721472
0002e0 33 0e 75 3d 65 37 85 be 2a dd 42 3e c0 5f 3d 3e
       0.059827995 -0.26018825 0.1902968 0.18493557
0002f0 89 5f 1d 3e 63 77 c8 bc e2 20 bb be 35 f5 47 bb
       0.15368475 -0.02447099 -0.36548525 -0.0030511145
000300 cf 9a 5f 3e d4 4f 0e 3e ef d6 3a be ab 2f 33 bd
       0.21836399 0.1389764 -0.18246053 -0.04374663
000310 d7 1c b0 3d c7 dd 81 bd cf 0b b4 bc 30 33 ca be
       0.08599251 -0.06341129 -0.021978287 -0.39492178
000320 d7 f9 05 bc 58 27 85 3c a4 b2 d2 3c 34 09 0c be
       -0.008177242 0.016254112 0.025719948 -0.13675386
000330 49 18 85 3c 9a 16 fb bd 7a 2f b9 bb 8b c5 92 bd
       0.016246932 -0.1226017 -0.0056514116 -0.071665846
000340 c6 87 22 3e bd b0 af 3e a5 f9 39 be 53 71 4f 3d
       0.15872106 0.34314528 -0.18161638 0.050645184
000350 b2 99 91 be ab 68 ac 3c 7a 8e 3c bd ff 77 1c bf
       -0.28437573 0.021046003 -0.046034314 -0.611206
000360 d2 47 1f bd 5d fd 05 be 82 a2 9e 3d 05 8f 9c 3e
       -0.038886853 -0.13084932 0.0774584 0.30577865
000370 11 d1 37 3d 69 33 bf 3c 20 c8 16 be ae f3 aa bd
       0.044877116 0.023339944 -0.14724779 -0.083472595
000380 4c e9 14 bd 11 47 d7 3e 07 7b 18 3c 2b 41 d2 be
       -0.0363553 0.42046407 0.009306676 -0.41065344
000390 9b 35 3f be 68 43 b4 be 46 9e f5 bc 79 4a 05 bf
       -0.18672793 -0.35207677 -0.029982697 -0.5206676
0003a0 b2 7e 1a be d9 c5 ba 3d ed 8a 75 3c 13 d3 81 be
       -0.15087393 0.09119768 0.014986736 -0.2535635
0003b0 d7 21 92 3d 65 07 d7 be 26 c2 08 ba 17 fe 13 be
       0.07135361 -0.4199783 -0.00052169187 -0.14452396
0003c0 5c 4b 7b 3e c0 8c 79 3e 4c 4d 61 be 92 59 d5 3d
       0.24540466 0.24370098 -0.22002143 0.10417475
0003d0 5f cb 07 be c5 c7 2c bd 02 56 6b 3d b0 7e 13 bf
       -0.13261174 -0.042182703 0.05745507 -0.57615185
0003e0 f0 f9 47 3e 5e 8e ac be 34 54 cc 3e 97 b3 86 3e
       0.19528937 -0.33702368 0.39907992 0.2630889
0003f0 dc ba 81 3e dc 7e 98 bc 22 b0 23 be 77 47 15 3e
       0.25337875 -0.018615179 -0.15985158 0.14578043

weight_hh_l0 f4 [128, 32]
000000 0b 3f 88 3d 94 01 2a 3d 1b 41 f1 bd 97 5e f7 bd
       0.066526495 0.04150541 -0.11779996 -0.120785885
000010 f3 58 21 bd cb f3 7a bd 7c ef 18 3e b3 26 b6 3c
       -0.03939147 -0.061267655 0.14935106 0.02223525
000020 a8 f0 1d 3e 77 eb 07 be 78 04 47 bd 93 28 d2 bd
       0.15423834 -0.13273416 -0.048588246 -0.10261645
000030 11 3c 23 be 98 94 c9 bc 89 89 94 3d e6 e1 91 3d
       -0.15940882 -0.024606988 0.07252795 0.07123165
000040 e4 e0 c8 3d f9 36 d7 3b ce 26 48 3e bd fc 82 3d
       0.098085195 0.0065678325 0.19546053 0.06395862
000050 6e 11 42 3e e2 a5 6f 3d 15 4e 45 bc 15 aa 12 bd
       0.18951961 0.058507808 -0.012042542 -0.035806734
000060 df 2a c8 3d 42 95 c8 bd 66 f0 ac 3d a3 06 cd 3d
       0.09773802 -0.09794094 0.0844429 0.100110315
000070 8f 3d f9 bd f5 19 a8 bd a8 55 f7 3d ae cb fe bd
       -0.121699445 -0.08208076 0.120768845 -0.124411926
000080 f7 bb 31 3e 79 f6 cd 3d 28 62 20 be fd 65 cf 3d
       0.17356859 0.100567766 -0.15662444 0.101268746
000090 ee 51 c2 bd 43 75 53 be 05 d2 f3 3d 44 88 28 be
       -0.09488283 -0.206502 0.119052924 -0.16458231
0000a0 c6 5e d3 3d 84 d5 4f 3d 46 f3 b9 bd 25 6d 9a bd
       0.10320811 0.050740734 -0.09079604 -0.07540349
0000b0 b2 87 87 3a 6a 50 07 bb 1b 48 1e 3d 2b c8 72 3c
       0.0010340123 -0.0020647296 0.038642984 0.014818232
0000c0 5d 48 9b bd 7a 1b 5f 3d f3 d9 d9 bd 73 37 9b bd
       -0.075821616 0.054469563 -0.10637274 -0.075789355
0000d0 06 77 1f 3e 80 51 81 bd dd 33 9d bd 23 b2 3d be
       0.15572748 -0.06314373 -0.07675908 -0.18524985
0000e0 bc 1b dd 3c 24 c9 72 3d ba ee be 3d b0 55 df 3d
       0.026990764 0.059273854 0.09322877 0.109050155
0000f0 22 3e 45 3e 7f 9b 75 bd 47 ec 34 3d 77 14 bf bd
       0.19261983 -0.059962746 0.044170644 -0.09330075
000100 b8 d4 5f 3d 93 06 62 bc 9b b6 2a be 3b ba 08 bd
       0.054646224 -0.013795513 -0.16671221 -0.03338073
000110 a7 f8 34 3e 8c d6 a2 3d 6b 83 47 3e b8 e1 3f 3d
       0.17672978 0.07951078 0.19483726 0.04684612
000120 82 3a fa 3d 0f 20 f0 3d 1d 2a 1c be 1f ca 73 3d
       0.12218191 0.11724865 -0.1525044 0.05951893
000130 75 c2 66 bd a8 8a de 3d fd 58 0b be 91 99 4d 3e
       -0.056337792 0.1086629 -0.13608165 0.20078112
000140 80 28 08 3e e1 7b f9 3d 3e 4c e9 bc 7c ae 1d be
       0.132967 0.12181831 -0.028478738 -0.15398592
000150 5f f0 a3 bd 20 ff 35 3d 0c 42 a6 3d a6 30 56 be
       -0.080048315 0.04443276 0.08118066 -0.20916995
000160 08 e2 28 3e c3 8a 18 bd 36 5d b8 3d ea 37 38 3c
       0.16492474 -0.03724171 0.090021536 0.0112438
000170 f1 ef 1f 3d 3f 63 0e 3d cd 40 95 bd 6e 73 90 bd
       0.039047185 0.034762617 -0.072877504 -0.070532665
000180 80 46 5d 3d b5 e8 23 3e 60 57 f2 3d 47 ff 73 bd
       0.054022312 0.1600674 0.11833072 -0.059569623
000190 06 f7 92 3d 99 e5 24 bb 3d 9e 2b bd e3 df fc 3d
       0.07176022 -0.0025161265 -0.041898955 0.123473905
0001a0 1c fb 11 3d f8 d8 52 3e be 2a d9 3d a1 2d 27 be
       0.035639867 0.2059058 0.106038556 -0.16326
0001b0 2a f9 46 be 7f 85 2f bd 9a 08 20 be 37 0a 7d 3d
       -0.19430986 -0.04285192 -0.15628281 0.06177732
0001c0 ce 2b c5 bd 81 90 9e bd e8 33 03 be 6b 7f b2 3d
       -0.09627496 -0.07742406 -0.1281277 0.08715709
0001d0 bf 53 6a bc 9e 55 5e 3c 33 15 86 bd 63 4d 45 be
       -0.014302193 0.013570217 -0.06547012 -0.19267802
0001e0 70 e2 bd bd 15 a7 b8 3d 9a fd 26 bd 27 68 a3 bb
       -0.09271705 0.09016243 -0.040769197 -0.004986781
0001f0 e9 57 dc 3d 34 5c 38 3e c3 e8 2f bd d5 c0 47 3e
       0.10758955 0.18003923 -0.04294659 0.19507153
000200 3d eb 05 bd ca 46 39 3e e0 19 32 3e 98 d8 c6 3d
       -0.032695044 0.1809341 0.17392683 0.09709281
000210 0f fc da bd ee 93 2a be fe 29 8d 3b d5 b0 f9 bd
       -0.106926076 -0.16657993 0.0043079844 -0.12191931
000220 91 12 bd bd 38 ee 30 3c f2 28 36 3d a2 14 f9 3c
       -0.09232057 0.010798983 0.044472642 0.030405346
000230 df fe 42 3d c9 98 14 be f9 6f d7 bc 42 7e 60 bc
       0.047606345 -0.14511408 -0.02629851 -0.013701977
000240 6f 00 27 3e 5d ee cb bd a7 31 76 bd 44 eb 35 be
       0.16308759 -0.099575736 -0.060105946 -0.17765528
000250 03 7f 93 3d ae 74 dd bd 22 74 97 3d 33 46 74 3d
       0.0720196 -0.108132705 0.073951975 0.05963726
000260 00 2b 29 3e 1f 5c a5 bd 17 87 56 bd 42 26 41 3a
       0.1652031 -0.08074211 -0.052374925 0.00073680666
000270 15 66 dd 3d 6a ab a6 3d 81 6b a2 bc 3f f5 bb 3d
       0.10810486 0.081381634 -0.019826652 0.09177636
000280 13 3e d8 bd 96 c1 10 be c4 5a 9c bd 99 5e 8a 3d
       -0.10558715 -0.14136347 -0.076345 0.06756324
000290 26 27 31 3e a9 9e 11 3e e7 b9 e7 3c 3e 8e 38 bc
       0.1730009 0.1422068 0.028286887 -0.011264382
0002a0 ec 06 15 3e cc 95 a2 3d 8a a5 13 3d 04 16 a5 3d
       0.14553422 0.07938728 0.036046542 0.0806084
0002b0 5a 66 9d 3d 20 2e 1d 3c 5a e9 b5 3c ff 1c 51 bc
       0.07685538 0.009593517 0.022205997 -0.012763261
0002c0 23 f2 81 3d 1c 49 79 bd 5f f0 1d 3e a6 aa aa bd
       0.06345012 -0.06086074 0.15423726 -0.0833333
0002d0 39 59 d5 bd 8b 37 45 be a9 ec 0c be 9c 8a 1c bc
       -0.104174085 -0.19259469 -0.13762154 -0.009554531
0002e0 ee cf 0e 3d ec 88 07 be 11 b0 d4 bd ff 91 54 be
       0.034866266 -0.13235825 -0.103851445 -0.20758818
0002f0 0f af e9 3d bc 03 03 be 4e 92 e8 3d cd 65 c8 3d
       0.11410343 -0.12794393 0.113560304 0.09785042
000300 98 40 ae 3d 44 f1 2c 3e dd 66 e2 3d ef 6a 22 3e
       0.08508414 0.1688891 0.11054776 0.15861104
000310 87 8e 79 3c 89 9f f8 bd dc ee d5 bd 17 c9 13 3c
       0.015231735 -0.12139804 -0.104459494 0.0090201115
000320 aa 1b c5 3d c1 a1 47 3e 31 ab 40 bd de 9e dc 3d
       0.09624417 0.19495298 -0.04703826 0.10772489
000330 f8 0c b8 bd 80 d8 58 3d 66 2a 7b bd c4 a9 9a 3d
       -0.089868486 0.052940845 -0.06131973 0.075519115
000340 00 36 2c be 04 a3 19 be ad e9 49 b8 e2 38 fc 3d
       -0.16817474 -0.15003592 -4.8139762e-05 0.12315537
000350 27 a3 82 3d 73 a4 e3 3d da 83 36 3e 0d a8 91 3c
       0.06378775 0.111153506 0.17823735 0.017780328
000360 bc 8d 42 3e 31 0f bf 3d 42 0c 0f be 50 1a 05 3e
       0.1899938 0.093290694 -0.1396952 0.12998319
000370 50 19 a3 bd af c9 f3 3d a8 5f 16 3d 80 24 d8 3d
       -0.07963812 0.119037025 0.03671232 0.10553837
000380 6d 91 fd 3d ff c0 c1 bd fd d8 6c bd a2 af 0c 3e
       0.123812534 -0.09460639 -0.057824124 0.13738874
000390 8a 51 c9 3c 65 9f fa 3d 86 0a 15 3e 41 f3 c8 3c
       0.024575014 0.12237433 0.14554796 0.024530055
0003a0 3d ac e2 bd a1 b8 68 3d 62 26 9b bd 63 cb b3 3d
       -0.11068008 0.0568167 -0.0757568 0.08779027
0003b0 e4 18 e2 3d 03 32 ff 3c 15 19 f6 bd 8d 27 2b bb
       0.11039904 0.031151777 -0.12016503 -0.0026116103
0003c0 e0 2d 4d be d3 a4 ec 3b d2 c0 53 3e 37 28 e4 3d
       -0.20037031 0.007221797 0.20679024 0.11140483
0003d0 87 72 bb bd 67 02 03 be 11 3e 79 3d 9e 0e 08 be
       -0.09152704 -0.12793885 0.060850207 -0.13286826
0003e0 6b f4 b8 3d 7c d5 24 bd 3b d4 c1 bd d5 9d 81 bd
       0.09030994 -0.040242657 -0.09464308 -0.06328932
0003f0 f1 3f b3 bc 97 42 f7 3b 7b ab d3 3d fe a0 3f 3e
       -0.021881076 0.00754578 0.10335442 0.18713757

bias_ih_l0 f4 [128]
000000 51 ab 99 be 21 b2 16 be 6a 1d d5 be 48 12 bc bd
       -0.30013517 -0.14716388 -0.41624004 -0.09183174
000010 9b 6d e4 bc 6f f1 1c be 93 c0 89 be f8 a5 00 bf
       -0.027884295 -0.15326475 -0.26904735 -0.5025325
000020 0d 93 b5 be 9c 58 5c be db 58 c8 bd d4 29 e6 bd
       -0.35463753 -0.21518177 -0.09782573 -0.11238447
000030 59 b1 1f be 96 47 db be d8 39 c9 be 4e b6 62 be
       -0.15594997 -0.42828053 -0.39301944 -0.22139856
000040 77 0c 58 be 80 64 df be d0 12 bc 3c 32 d8 93 be
       -0.21098505 -0.43631363 0.02295819 -0.2887588
000050 7d 6e 83 be e6 82 87 be e2 f7 e0 bd fc e5 6a be
       -0.25670233 -0.26467055 -0.1098478 -0.22939295
000060 89 8c ae be 37 5c aa be 0f 44 57 be 64 bb 0d be
       -0.34091595 -0.3327348 -0.21022056 -0.13841015
000070 73 73 b4 be 97 d2 26 be 33 f5 1b be 02 6c cd bd
       -0.3524433 -0.16291271 -0.15230255 -0.100303665
000080 c1 c9 00 be 43 95 32 3d bd 76 6a bd 50 d2 1c be
       -0.12576963 0.04359938 -0.057242144 -0.15314603
000090 99 6e 3b bd da 82 20 be 6c 56 07 bd c7 ad dc bd
       -0.04575977 -0.15674916 -0.033041403 -0.10775333
0000a0 46 56 42 3b d4 d6 8a 3d e3 b7 cd bc 86 b8 88 be
       0.0029653474 0.067792565 -0.025112098 -0.2670328
0000b0 58 ad 6d be b8 ff 8b be 19 99 99 be 50 4b 18 be
       -0.23210657 -0.27343535 -0.29999617 -0.1487248
0000c0 20 de 5d 3d 04 5d c3 be e1 1a ef bc fa 0e 49 be
       0.054166913 -0.38156903 -0.029187622 -0.1963462
0000d0 ba 70 31 be f3 80 bc bd ae b6 3b be bc d2 ce 3c
       -0.17328158 -0.092042826 -0.18331406 0.02524697
0000e0 e5 bf e7 bd 2c 10 e7 bd a8 33 26 3d 31 e4 97 3c
       -0.11315898 -0.112823814 0.040576607 0.018541427
0000f0 2a 18 62 bd 1d 6a 60 bd 5c ee 45 bd a3 d3 78 be
       -0.055198826 -0.054788698 -0.04832302 -0.24299483
000100 fc 66 55 3d 44 78 b7 bd d7 b2 8b 3d 7c ca 1d be
       0.052100167 -0.08958486 0.0682122 -0.15409273
000110 00 56 15 3d cd 24 86 bd 77 5d bb bd 46 74 3f bd
       0.03645897 -0.06549988 -0.091486864 -0.046741746
000120 fa 46 fc 3d 28 5c 09 be d3 3b de 3d 03 79 02 be
       0.12318225 -0.13414061 0.10851254 -0.12741475
000130 30 65 18 be 33 29 16 3d 80 a6 87 bd bc 7e 3c bd
       -0.1488235 0.036660384 -0.06623554 -0.0460193
000140 e4 90 0f 3e 0b a6 7d 3d c2 3a 35 be 57 30 78 3d
       0.14020115 0.06192593 -0.17698196 0.060592975
000150 dc d5 83 bd a4 81 a0 3d 29 63 ac bd d3 6b f5 3d
       -0.06437275 0.07837227 -0.08417351 0.119834565
000160 53 9d 04 be 45 ba ca 3c b2 81 7b 3d aa 9f d8 3d
       -0.1295064 0.024747023 0.061402984 0.105773285
000170 71 09 6e bd 5f 7c 16 bd 7b 5d 31 3c 31 f5 12 3d
       -0.058114473 -0.036739703 0.01082551 0.035878364
000180 fe 81 5c be 8f 23 8f bc d9 83 aa be 62 32 43 be
       -0.21533963 -0.01747301 -0.33303717 -0.19062188
000190 60 5a 23 be aa 10 5e be 68 84 1b be 5a 7e 5f be
       -0.15952444 -0.21686044 -0.15187228 -0.21825543
0001a0 de 25 fd bd b3 7c 8f be 4b d2 81 bc 02 de 1f be
       -0.12360738 -0.28024825 -0.015847346 -0.15612033
0001b0 4e 4f 86 be c3 95 b5 be 6f c8 22 be 2a c5 c6 bd
       -0.2623238 -0.35465822 -0.15896772 -0.09705575
0001c0 cb 4c 60 be d7 4f 55 be 64 33 9f 3c fb 0f c5 bd
       -0.21904294 -0.20831238 0.019433685 -0.09622189
0001d0 ba fc 73 bd 01 df 95 be ba fa 5d be e0 f5 6f be
       -0.05956719 -0.292717 -0.21677676 -0.23433638
0001e0 c8 85 c7 be 59 81 13 be e3 c6 b0 bd 5c fa 1f bd
       -0.38969254 -0.14404811 -0.08631685 -0.03905712
0001f0 e8 68 38 be 24 d3 6d be ad 07 22 be e1 24 c8 3c
       -0.18008769 -0.23225075 -0.1582324 0.024431648

bias_hh_l0 f4 [128]
000000 0f a7 cd be ca 23 5e be 11 4c a9 bd b5 e9 b5 be
       -0.40166518 -0.2169334 -0.08266462 -0.35529867
000010 c1 e3 29 be 6f e6 df be 4a 43 40 be 8c 38 96 be
       -0.16590787 -0.43730494 -0.18775669 -0.29340017
000020 ed 3c 62 be 07 02 e6 bc 8f 93 31 be 39 0e 35 be
       -0.22093554 -0.028077139 -0.17341445 -0.17681207
000030 3d 1c 71 be be f6 37 be ff 3d d8 bd 53 eb bc be
       -0.23545928 -0.17965218 -0.105587 -0.36898288
000040 44 14 25 3d b5 0f 62 be 7e 76 6d be 29 47 7c bd
       0.04030253 -0.22076304 -0.23189732 -0.0615913
000050 63 4f b4 bd d8 39 6a be db a3 8b be af ba 53 be
       -0.08804204 -0.22873628 -0.2727345 -0.20676683
000060 65 fb c2 be ae 85 69 be 7a 40 b0 be 88 76 8a be
       -0.38082424 -0.22804901 -0.34424192 -0.27043557
000070 6d a5 a7 be e2 ea 95 3b e1 e2 a1 bd 9a ff 8f be
       -0.32743397 0.0045751194 -0.07904602 -0.28124696
000080 7d f5 ad be d0 c2 1b be 88 a6 bd be 09 8f 08 be
       -0.33976355 -0.15211034 -0.37041116 -0.13335814
000090 46 af b4 bc c4 75 aa be 1d e2 94 bc dc 97 bb be
       -0.022056233 -0.33292973 -0.018174225 -0.36639297
0000a0 23 5e 0c be da 50 80 bd 17 47 90 3c 06 68 16 be
       -0.13707785 -0.06265421 0.017612023 -0.1468812
0000b0 44 1c a3 be 54 09 97 bd a8 f0 0e be be 18 c3 bd
       -0.31857502 -0.07374826 -0.1395899 -0.095262036
0000c0 97 1e 45 be 78 67 81 be d4 cc 67 be 6a f3 f9 3c
       -0.1924995 -0.25274253 -0.2263673 0.030511577
0000d0 bb 87 8b be 95 99 96 be c1 0b d8 bd c4 73 2a be
       -0.27251992 -0.2941405 -0.10549117 -0.16645724
0000e0 f0 fb a1 be 8e 5a 4e be dc 5f 30 be 7c b8 49 be
       -0.31637526 -0.20151731 -0.17224067 -0.19699281
0000f0 c8 2a 71 be 7e 4d 7a be 4c f6 2e be b5 b6 2a be
       -0.23551476 -0.24443623 -0.17086142 -0.1667126
000100 ed 2b bd bc 2f 8a a8 bd 62 cd 5f bb 19 d0 29 3d
       -0.023092235 -0.082294814 -0.0034149517 0.041458223
000110 63 cf 78 3c 83 df d1 ba b2 d6 08 bd 5d c0 a6 3d
       0.015186164 -0.0016012046 -0.033407874 0.08142159
000120 08 f5 20 bd 21 67 12 3e f2 0e 3a 3d ff d1 01 3e
       -0.03929618 0.14297153 0.04542441 0.12677763
000130 ba 60 da 3d e9 99 21 bd 85 14 e8 3d 5b 51 b8 bd
       0.106629804 -0.03945342 0.11332039 -0.08999892
000140 e9 45 14 be 73 31 c5 bd 46 69 b6 3c 71 42 8a 3b
       -0.14479794 -0.09628572 0.022266995 0.004219346
000150 bf 81 bc 3d 34 2f ae 3c 7e 95 e0 bd c0 ab b5 bd
       0.092044346 0.021262743 -0.10966013 -0.08870649
000160 be 2b 74 3c 9a 2e 66 3d 01 02 2e 3d 7e 7b 97 3d
       0.014903007 0.056196786 0.04248238 0.07396601
000170 fc 82 bf bc 77 7e b1 3d 3c 7e 6d bd 11 db c7 bd
       -0.023377888 0.086666994 -0.057981715 -0.097585805
000180 1a 6d db be e6 93 33 bb e5 bf 2d be 27 a4 4a be
       -0.42856675 -0.0027401387 -0.16967733 -0.19789182
000190 a1 d2 1d bd 5b 6c 65 be e8 f6 8b 3c d3 c7 0a bf
       -0.03853095 -0.22404616 0.017085508 -0.5421116
0001a0 57 ab b4 be d3 9a 87 bd 80 1e 3e be fe 5d 22 be
       -0.35286972 -0.06621327 -0.18566322 -0.15856168
0001b0 37 0a a3 be a9 68 43 be 64 24 9d be d4 29 50 be
       -0.3184373 -0.19082893 -0.30691826 -0.20328456
0001c0 8f ce 5d be f6 c6 89 be ba 96 a0 bd 1d 5a 7d be
       -0.21660827 -0.26909608 -0.07841249 -0.24741407
0001d0 6c 50 b9 be f2 58 f6 bd 57 e1 15 be 17 37 1d be
       -0.3619417 -0.12028684 -0.14636742 -0.15353046
0001e0 ed a1 3d be 36 63 8b be fc 98 65 be 64 28 6e 3c
       -0.18518801 -0.2722413 -0.2242164 0.014535997
0001f0 ad 98 76 be 60 36 7f be 10 8f a1 bd d2 4c 23 be
       -0.24081679 -0.24923086 -0.07888615 -0.15947273
