experiments/pedestrians/models/06_Aug_2023_21_23_08/model_registrar-48.pt (torch, 713991 bytes, 82 tensors)

weight f4 [64, 10]
0	0xbcd99e49	-0.026564734
1	0xbca29a8a	-0.01984908
2	0x3e1a1402	0.15046695
3	0x3d13d53f	0.03609204
4	0xbf33a51e	-0.70173824
5	0x3f5f3deb	0.87203854
6	0x3c268edd	0.010165897
7	0xbe805673	-0.25065956
8	0xbe2ac5e7	-0.16677056
9	0x3debb054	0.11508241
10	0x3d98b8d0	0.07457125
11	0x3e8f39ba	0.2797373
12	0x3ec2ada0	0.3802309
13	0x3d0d8ef8	0.034560174
14	0xbe6bf49a	-0.23042527
15	0xbe113c9e	-0.1418328
16	0xbe92b5df	-0.28654382
17	0xbebd500f	-0.36975142
18	0xbde3ae7b	-0.11117264
19	0x3dbbba99	0.0916645
20	0x3d01d066	0.031692885
21	0x3d58f4db	0.052967887
22	0xbda1db26	-0.07903127
23	0x3f05afea	0.5222155
24	0xbd950ca5	-0.072778024
25	0xbd01aa16	-0.031656347
26	0xbe8b9258	-0.2726009
27	0xbd107fce	-0.035278134
28	0xbb6d115d	-0.003617368
29	0xbe25d800	-0.16195679
30	0xbb9b0712	-0.0047310675
31	0x3cc2c433	0.023775196
32	0xbd0b8e29	-0.03407112
33	0xbd7c832e	-0.06164854
34	0xbf1df08a	-0.6169516
35	0x3f3d245e	0.73883617
36	0xbe82b6b1	-0.25530007
37	0xbe4674c4	-0.1938048
38	0xbc8a7304	-0.016900547
39	0xbe71765e	-0.2358031
40	0x3cdc51e0	0.02689451
41	0xbd204ff4	-0.03913875
42	0x3d9bdec0	0.076108456
43	0x3dfea576	0.12433903
44	0x3f162347	0.5864758
45	0x3edf02d0	0.43556833
46	0x3e8f2871	0.27960542
47	0x3e241eed	0.16027422
48	0xbe805cf3	-0.25070915
49	0x3e2fb35b	0.17158262
50	0x394392ae	0.00018651292
51	0x3d85b00f	0.06527721
52	0x3ec2fb96	0.3808257
53	0xbe35d971	-0.17758729
54	0x3be3ff00	0.0069578886
55	0x3eda50f7	0.42639896
56	0x3e3654be	0.17805764
57	0xbbbe4e4e	-0.0058076745
58	0xbd5a2aa0	-0.053263307
59	0x3da59c04	0.08086398
60	0xbd555586	-0.052083515
61	0x3e406bf7	0.18791185
62	0x3ee43f33	0.44579467
63	0x3d4120aa	0.04715029
64	0x3f043f59	0.5165916
65	0xbef7b0bc	-0.48377025
66	0xbe8333bc	-0.25625408
67	0x3e8c1b51	0.2736459
68	0x3ea1885d	0.3154935
69	0x3e6f363e	0.23360536
70	0xbd0217ad	-0.03176086
71	0xbe12070f	-0.14260505
72	0x3d9fbd0a	0.07799728
73	0xbeb2e52a	-0.34940463
74	0xbf30f21c	-0.6911943
75	0xbeb8e2ff	-0.36110684
76	0x3ec2fe42	0.38084608
77	0x3b9cc527	0.0047842446
78	0x3ce86710	0.028369457
79	0x3c915d57	0.017744703
80	0x3e13748f	0.14399932
81	0x3d9f36aa	0.07774098
82	0xbec528c0	-0.38507652
83	0x3ba74ed1	0.005105831
84	0xbf2d4629	-0.6768518
85	0xbe2b4b74	-0.16728002
86	0xbe249a98	-0.16074598
87	0xbe3d1ba4	-0.18467575
88	0x3e5f152e	0.21785423
89	0x3db73de5	0.08947352
90	0xbcc1ac3c	-0.023641698
91	0x3e10f8e9	0.14157452
92	0x3ef9e6fb	0.48809037
93	0x3e9d5c42	0.3073445
94	0x3d2ec4c2	0.04266811
95	0x3ec6ced8	0.38829684
96	0x3e088772	0.13332918
97	0xbe7f2898	-0.24917829
98	0x3e90be86	0.28270358
99	0x3e824cf6	0.25449342
100	0xbe533886	-0.2062703
101	0x3dcdafba	0.10043283
102	0x3e8f2236	0.27955788
103	0x3e6d5e5f	0.23180531
104	0xbe75a598	-0.2398895
105	0xbc9eb742	-0.019374494
106	0xbdfe0f4b	-0.12405261
107	0x3e051d3a	0.1299943
108	0x3e6aefe3	0.22943072
109	0xbe83d9ca	-0.25752097
110	0x3c0a36e3	0.008435938
111	0xbd8e217e	-0.06939982
112	0x3f0f8ea6	0.5607704
113	0xbb03a7de	-0.002008907
114	0xbf4a72aa	-0.79081213
115	0xbf5def07	-0.8669285
116	0x3dff59e9	0.12468321
117	0x3ede24b0	0.43387365
118	0xbdc0a963	-0.09407308
119	0xbd0b1d51	-0.033963505
120	0xbe159b7f	-0.14610098
121	0x3e0f631b	0.1400265
122	0x3eb5230c	0.353783
123	0x3e07cdda	0.1326212
124	0x3e323356	0.17402396
125	0x3e7816e8	0.24227488
126	0x3e65e99a	0.22452393
127	0xbd6f7ab2	-0.05846662
128	0x3d7ef43e	0.062244646
129	0xbe235b40	-0.15952778
130	0xb9eaaaa2	-0.0004475909
131	0x3e05a699	0.13051833
132	0x3c84a470	0.016191691
133	0xbf1ee37b	-0.6206586
134	0xbcf76162	-0.030197803
135	0x3cd33857	0.0257837
136	0xbd106440	-0.035251856
137	0xbe9a1339	-0.3009279
138	0xbe2e3e13	-0.17015867
139	0xbea907d9	-0.330138
140	0x3d88358b	0.066508375
141	0xbe0b82ab	-0.13624065
142	0xbeab3151	-0.33436063
143	0x3eb9ded7	0.36302826
144	0xbe403ec5	-0.18773945
145	0xbc1e1144	-0.009647671
146	0x3e9d0329	0.30666474
147	0x3da6eac7	0.08150249
148	0x3d41e8fe	0.04734134
149	0x3ed453d1	0.41470197
150	0x3cdf0462	0.02722377
151	0x3ce8a32c	0.028398119
152	0x3d195ff6	0.03744503
153	0xbea69f1d	-0.3254327
154	0x3ecd5fb5	0.4011208
155	0xbf40badf	-0.7528514
156	0xbe77e39d	-0.24207921
157	0x3e1d83a3	0.15382247
158	0xbe669849	-0.2251903
159	0x3dbba137	0.09161609
160	0xbe3ef9cc	-0.18649977
161	0x3e747120	0.23871279
162	0xbc3c724b	-0.011501859
163	0x3d842d0a	0.06453903
164	0xbf4e953f	-0.8069648
165	0xbe06a030	-0.13147044
166	0x3d5c5b3a	0.053797938
167	0x3e678157	0.22607933
168	0xbcb43197	-0.021996303
169	0x3ec5943d	0.3858966
170	0x3e945e08	0.2897799
171	0x3ec08993	0.3760496
172	0x3e272f1f	0.16326569
173	0x3eb08745	0.34478202
174	0xbe24a955	-0.1608022
175	0x3f42923c	0.76004386
176	0x3cec0a0d	0.028813386
177	0x3d0d0557	0.03442892
178	0xbd19a4d1	-0.037510697
179	0x3e070b96	0.13188013
180	0x3d021597	0.03175887
181	0x3e08e5c5	0.133689
182	0x3f26c2e9	0.6514116
183	0xbe5b9752	-0.21444443
184	0xbdec6894	-0.11543384
185	0x3e1d8ab3	0.15384941
186	0x3e85d310	0.2613759
187	0x3c3faafa	0.011698479
188	0x3e3abdf9	0.18236531
189	0x3e936e0e	0.28794903
190	0x3e8f8a57	0.28035232
191	0x3e2e3d4f	0.17015575
192	0xbee99067	-0.45617983
193	0xbdab963a	-0.08378263
194	0xbf0b0ba8	-0.5431466
195	0xbe2fe933	-0.17178802
196	0x3de39c0a	0.111137465
197	0x3e279628	0.16365874
198	0xbe50caf0	-0.20389915
199	0x3e848198	0.25880122
200	0xbbdd49da	-0.0067531886
201	0x3d24d138	0.04023859
202	0xbe7fc16b	-0.24976127
203	0x3e652022	0.22375539
204	0x3eb69f69	0.35668495
205	0xbf213b75	-0.6298135
206	0xbc6b3f18	-0.014358304
207	0xbe1bae9c	-0.15203327
208	0x3e5e42ce	0.21705171
209	0xbddec42b	-0.1087726
210	0xbe6d10fd	-0.23151012
211	0xbc970c30	-0.018438429
212	0x3c2f5c6c	0.010703187
213	0x3cde218a	0.027115602
214	0x3f13cea9	0.57737213
215	0x3f714501	0.94245917
216	0x3ec30048	0.38086152
217	0x3e40a81a	0.18814126
218	0x3e6493ca	0.22322002
219	0xba63ac39	-0.0008685026
220	0xbcaeae6d	-0.021323407
221	0x3e875a7a	0.26436216
222	0xbe7c4ee1	-0.24639465
223	0x3d9e2279	0.07721419
224	0x3ee104bb	0.43948922
225	0x3eddbfb9	0.43310335
226	0x3e6c51aa	0.23078027
227	0x3e8288e6	0.2549507
228	0x3dc59232	0.09647025
229	0xbe21dcf8	-0.15806949
230	0xbc5c68c4	-0.013452712
231	0xbe566395	-0.20936425
232	0xbe101653	-0.14071016
233	0x3ef5e8a6	0.4802906
234	0xbd8e9180	-0.06961346
235	0xbef418d8	-0.47675204
236	0xbe0c53a0	-0.13703775
237	0x3d70d646	0.058798097
238	0xbe0ef854	-0.13961917
239	0x3df4aaaf	0.11946618
240	0x3dc77414	0.09738937
241	0xbe81f06e	-0.25378746
242	0x3dcf8f3a	0.1013474
243	0xbe6a0b9f	-0.22855996
244	0x3ebcdd75	0.36887708
245	0x3edc4a24	0.43025315
246	0xbd02b795	-0.03191336
247	0xbec54c84	-0.3853494
248	0xbdfe3043	-0.12411549
249	0xbeb91544	-0.36149037
250	0xbe03569b	-0.12826006
251	0xbde31d17	-0.11089533
252	0x3e574787	0.2102338
253	0x3eee9fe0	0.4660635
254	0xbe50c5d2	-0.20387962
255	0xbef0b814	-0.4701544

bias f4 [64]
0	0xbe524144	-0.2053271
1	0xbdd1687b	-0.10225006
2	0xbe802b0f	-0.2503285
3	0x3e9c9595	0.30582872
4	0x3e074170	0.13208556
5	0x3e942954	0.2893778
6	0xbe8af024	-0.27136338
7	0xbc36fcaa	-0.011168638
8	0x3d8d59bf	0.06901883
9	0x3e671a34	0.2256859
10	0xbcf43c12	-0.0298138
11	0x3ef09e7a	0.46995908
12	0xbdd07e2f	-0.101803176
13	0x3d469c86	0.048489116
14	0xbd3c0d17	-0.04591092
15	0xbd6fb935	-0.058526237
16	0xbdd4a173	-0.103823565
17	0xbe5f2ae4	-0.21793705
18	0x3e7bcb6c	0.24589318
19	0x3e1e7921	0.15475895
20	0xbda9cf92	-0.08291544
21	0x3e30e46d	0.17274638
22	0x3e2ef7a5	0.17086656
23	0xbe0ea5a1	-0.1393037
24	0xbe40aac1	-0.18815137
25	0x3dd62724	0.10456684
26	0x3bc1cd11	0.0059143384
27	0xbe29a11f	-0.16565369
28	0xbe9db124	-0.3079921
29	0x3ceb84d5	0.028749863
30	0x3e1c2f1a	0.15252343
31	0xbe895939	-0.26825884
32	0xbe1d010c	-0.1533243
33	0x3de2a438	0.110664785
34	0xbe979d76	-0.2961232
35	0x3e8169fe	0.25276178
36	0x3e5618b9	0.20907868
37	0xbde7c005	-0.11315922
38	0xbe070e75	-0.13189109
39	0x3dc180b6	0.09448378
40	0xbe4020a5	-0.18762453
41	0x3e9209e7	0.2852318
42	0xb8b3b60c	-8.569294e-05
43	0xbdc5ffda	-0.096679404
44	0xbe5a34a4	-0.21309143
45	0x3ddaf8c0	0.106919765
46	0xbe1c4837	-0.15261923
47	0xbe8845ce	-0.26615757
48	0x3e18aa9d	0.14908834
49	0xbe069984	-0.13144499
50	0x3bb35295	0.005472491
51	0x3e6996d9	0.2281145
52	0xbea91ca7	-0.33029673
53	0xbeb13eec	-0.34618318
54	0xbed971d3	-0.42469653
55	0x3de45e4a	0.11150797
56	0x3cdbfdf4	0.026854493
57	0x3e828f11	0.25499776
58	0x3e4913c3	0.19636445
59	0x3eb912b3	0.3614708
60	0xbea748d8	-0.32672763
61	0x3e0e134c	0.13874549
62	0x3eb73924	0.35785782
63	0xbe03ad70	-0.1285913

weight f4 [32, 32]
0	0xbde0fc58	-0.10985631
1	0xbe4f5030	-0.20245433
2	0x3e519d9c	0.2047028
3	0x3c48b52f	0.012250229
4	0xbe0e5f23	-0.1390348
5	0x3c0605ab	0.008180062
6	0xbd82acdc	-0.063806266
7	0x3da2aea0	0.07943463
8	0xbe1d0fe6	-0.15338096
9	0xbf0bd50a	-0.54621947
10	0x3dc35f1f	0.09539627
11	0x3d658c6d	0.056042124
12	0xbc91ea4f	-0.017811922
13	0x3e438efc	0.19097513
14	0xbe50b43b	-0.20381252
15	0x3e890229	0.2675946
16	0x3ca837f2	0.02053449
17	0x3e93be84	0.2885629
18	0x3e435226	0.19074306
19	0x3eaf02c6	0.34181803
20	0xbe9d0d83	-0.3067437
21	0x3e4ca7e4	0.1998592
22	0x3bab88ee	0.005234829
23	0xbef4c9db	-0.47810254
24	0xbd58ef3a	-0.05296252
25	0x3deab8a9	0.114610024
26	0x3e1e86d2	0.15481117
27	0x3e0031dd	0.12519021
28	0x3e20c269	0.15699162
29	0x3dca1817	0.09867876
30	0xbd83322c	-0.06406054
31	0x3e9ebd68	0.3100388
32	0x3e083370	0.13300872
33	0xbd047c65	-0.032345194
34	0xbf0bfe47	-0.5468487
35	0x3d4a9538	0.049458712
36	0xbe409fad	-0.18810911
37	0x3d7d9176	0.0619063
38	0x3e1dce07	0.15410624
39	0xbd8cb310	-0.06870091
40	0xbeb1631a	-0.3464592
41	0xbea9ddd4	-0.33177054
42	0xbe9c3751	-0.30510953
43	0xbe97875c	-0.29595459
44	0x3e9bb028	0.30407834
45	0xbd244e7d	-0.040113915
46	0xbd58aba2	-0.052898057
47	0xbdda7aa7	-0.10667925
48	0x3c937755	0.018001238
49	0x3e4601a0	0.19336557
50	0x3e63d1e7	0.2224804
51	0x3ee26402	0.44216925
52	0x3e3d1ee5	0.18468817
53	0xbdeb70f0	-0.114961505
54	0x3c808fc5	0.015693555
55	0x3d5a486d	0.053291727
56	0x3da5ea6d	0.08101354
57	0xbc7b95c7	-0.015355534
58	0x3e0b2446	0.13588056
59	0x3e2c69ff	0.1683731
60	0xbe5214b7	-0.20515715
61	0xbe9dcf93	-0.3082243
62	0x3e45dbb3	0.1932209
63	0xbdd53b46	-0.10411696
64	0x3e9aab30	0.3020873
65	0xbe507889	-0.2035848
66	0x3e150da1	0.1455598
67	0xbf1c75fd	-0.61117536
68	0xbe779c32	-0.24180678
69	0x3cecf783	0.028926617
70	0xbe571919	-0.21005668
71	0xbe546c8a	-0.2074453
72	0xbe3d8dd5	-0.18511136
73	0x3e624c6e	0.22099468
74	0x3e338a0d	0.17533131
75	0xbde90426	-0.113777444
76	0xbec5f776	-0.3866536
77	0x3eb9ff6f	0.36327693
78	0xbec4affc	-0.38415515
79	0x3c51aa46	0.012796944
80	0x3d51ff6c	0.05126898
81	0x3ecd46da	0.40093118
82	0x3ec600f2	0.38672596
83	0xbf0384be	-0.51374424
84	0xbdcaa226	-0.098942086
85	0x3d82bcaa	0.06383641
86	0xbe23ad9e	-0.15984198
87	0xbea87d37	-0.3290803
88	0xbdafd303	-0.08585169
89	0xbdc30cfd	-0.09523962
90	0x3d095184	0.033525005
91	0xbdc7f27c	-0.09763047
92	0x3e618a80	0.2202549
93	0xbe84f632	-0.25969082
94	0xbe880d44	-0.2657262
95	0xbd5646cf	-0.052313622
96	0x3e9043ec	0.2817682
97	0xbe547c8c	-0.20750636
98	0x3e0ba5f9	0.13637532
99	0x3e1f3f23	0.15551428
100	0xbdd0eeb4	-0.10201779
101	0x3e38493d	0.17996688
102	0x3eae071d	0.33989802
103	0xbe5f93d2	-0.21833733
104	0xbe46b582	-0.19405177
105	0x3e820390	0.25393343
106	0x3db43219	0.08798618
107	0xbe0f3985	-0.13986786
108	0x3ebd062d	0.36918774
109	0xbe1dccbd	-0.15410133
110	0xbd7c9f69	-0.061675463
111	0xbd0227f6	-0.03177639
112	0xbe7c3575	-0.24629767
113	0x3d062aaf	0.03275555
114	0xbe1e386a	-0.15451208
115	0x3e8ee566	0.27909392
116	0xbcfaae62	-0.03060073
117	0x3d00226a	0.03128282
118	0x3e3073ff	0.17231749
119	0x3d666de6	0.05625715
120	0xbd76c38b	-0.060245078
121	0x3c9e4ffd	0.01932525
122	0x3d6b69d4	0.057473972
123	0x3eaa3785	0.33245483
124	0xbdea60bd	-0.114442326
125	0xbca4e709	-0.020129697
126	0x3e6c89f8	0.23099506
127	0x3d90bbc1	0.07067061
128	0xbeb7be03	-0.35887155
129	0xbd0a1e74	-0.03372045
130	0x3e41427e	0.18873021
131	0xbd90cbad	-0.07070098
132	0x3e42878c	0.1899702
133	0xbdd0b9e1	-0.101917036
134	0x3dc9c28c	0.0985156
135	0x3e8dbc62	0.27682787
136	0x3da843b8	0.08216041
137	0xbe8f4a93	-0.27986583
138	0x3e04dd5b	0.12975065
139	0x3e41923c	0.1890344
140	0xbe124d3f	-0.1428728
141	0x3dac1c07	0.08403783
142	0x3d0292bd	0.03187822
143	0x3d6202e7	0.05517855
144	0xbd77f702	-0.0605383
145	0xbcd1adc0	-0.025595546
146	0x3db57e77	0.08862012
147	0x3e983362	0.29726702
148	0x3e3b71d1	0.18305136
149	0xbeaf8278	-0.34279227
150	0x3e1e5769	0.15463032
151	0x3e276509	0.16347136
152	0x3e3cc134	0.18433076
153	0x3eb51a19	0.35371473
154	0x3d01734f	0.031604107
155	0xbe486cb3	-0.19572715
156	0x3da7b838	0.08189434
157	0x3ebc26fe	0.367485
158	0x3d38751c	0.04503356
159	0xbe1deea4	-0.15423065
160	0x3ee7021a	0.4511879
161	0xbd493755	-0.049125034
162	0xbc5f4242	-0.013626637
163	0xbeeb14d5	-0.4591433
164	0xbd0adf2f	-0.03390425
165	0x3e6bdacb	0.23032682
166	0xbce63e65	-0.028105924
167	0xbe0974b8	-0.13423431
168	0xbc9a1858	-0.018810436
169	0x3def2e64	0.1167877
170	0x3e16719f	0.1469178
171	0x3dba7009	0.091034
172	0xbdea7947	-0.11448913
173	0x3e208257	0.1567472
174	0xbe69343e	-0.22773835
175	0xbde0094f	-0.109392755
176	0xbdc9cd11	-0.098535664
177	0xbe1643a1	-0.14674236
178	0x3deefb7c	0.116690606
179	0xbebd6e81	-0.3699837
180	0xbdfd4827	-0.123672776
181	0x3de07636	0.10960047
182	0xbe6b76f3	-0.22994594
183	0xbad5d10b	-0.001631291
184	0xbe283405	-0.16426094
185	0x3e82a537	0.25516674
186	0x3cf55f12	0.02995256
187	0x3d760982	0.06006766
188	0xbdc7e27e	-0.09759997
189	0xbe978589	-0.29594067
190	0xbd796de3	-0.06089581
191	0x3d0db354	0.03459485
192	0xbe3c6672	-0.18398455
193	0x3c876feb	0.016532859
194	0x3dc148f7	0.09437745
195	0x3d02db07	0.031947162
196	0x3c6774bb	0.014126952
197	0xbde7c5d3	-0.11317029
198	0x3f053b7c	0.5204389
199	0x3e934e88	0.28770852
200	0x3ddade6a	0.10686953
201	0x3e327e78	0.17431056
202	0x3d785fbf	0.060638186
203	0x3eb72b0e	0.35775036
204	0xbe47c2a1	-0.19507839
205	0xbe385c03	-0.1800385
206	0x3e681e02	0.22667697
207	0xbe1645a1	-0.14674999
208	0xbd7e10c7	-0.06202772
209	0xbe897e64	-0.2685424
210	0xbe808fb2	-0.2510963
211	0x3dc8313b	0.09775015
212	0x3d522912	0.0513087
213	0xbead619d	-0.33863536
214	0x3ebd404b	0.36963114
215	0x3eeab184	0.4583856
216	0x3e4c39cf	0.19943927
217	0x3e491742	0.19637778
218	0x3d83d4fc	0.06437108
219	0xbdf6ed8e	-0.12057029
220	0xbdccdb04	-0.100027114
221	0x3bedb939	0.0072547463
222	0x3dc18665	0.09449462
223	0xbda918d0	-0.08256686
224	0x3e276e72	0.16350725
225	0xbd324582	-0.04352332
226	0x3dd29184	0.10281661
227	0xbe913382	-0.2835961
228	0x3d9c83f3	0.07642355
229	0x3e820c15	0.25399843
230	0x3e9b1966	0.30292815
231	0x3e3a4254	0.18189365
232	0xbdfc22e4	-0.12311342
233	0x3bd78110	0.0065766647
234	0xbdca5f0a	-0.098814085
235	0x3e518dec	0.20464295
236	0x3e93bced	0.28855076
237	0x3dff93ef	0.12479388
238	0xbd2f8e1e	-0.042860143
239	0x3e832245	0.25612083
240	0x3da35138	0.079744756
241	0x3e344dc4	0.1760779
242	0x3ce89d0d	0.0283952
243	0x3ef8f252	0.48622376
244	0x3e0cfec0	0.13769054
245	0x3d5c4220	0.053774
246	0x3dca024b	0.098637186
247	0xbd3e4787	-0.046454933
248	0x3e13e6ef	0.14443563
249	0x3df06082	0.117371574
250	0x3d968004	0.07348636
251	0x3e609d42	0.21934989
252	0x3ccce856	0.02501313
253	0xbdbb5d65	-0.09148673
254	0x3e2db7d0	0.1696465
255	0xbdb544bb	-0.08851

bias f4 [32]
0	0xbe19b6dd	-0.15011163
1	0xbd9ff4a0	-0.078103304
2	0x3e62857c	0.22121233
3	0xbd82c8e1	-0.06385971
4	0xbe5c4997	-0.21512447
5	0x3e0437f7	0.12911974
6	0x3d704558	0.05865988
7	0x3e220448	0.15821946
8	0x3dd94c4d	0.10610256
9	0xbceacfd7	-0.028663559
10	0x3defdc43	0.117119335
11	0x3e1f0e16	0.15532717
12	0xbdafe4e4	-0.08588579
13	0x3b37252f	0.0027945747
14	0xbd10abae	-0.035319977
15	0x3e1c9073	0.15289478
16	0xbe3a98e4	-0.18222386
17	0x3dce84c2	0.10083915
18	0x3d8411f3	0.06448736
19	0xbd22457e	-0.039617054
20	0x3e22baa0	0.15891504
21	0xbe0b8c53	-0.13627748
22	0xbdc2fb40	-0.095205784
23	0x3d9601cc	0.073245615
24	0xbdc88d42	-0.09792568
25	0x3d604bb0	0.05475968
26	0xbe3268b0	-0.17422748
27	0xbe7cdc57	-0.24693428
28	0xbe3f498c	-0.186804
29	0xbe3f2052	-0.18664673
30	0xbd0e99a3	-0.03481449
31	0xbca0013b	-0.019531837

weight f4 [32, 64]
0	0xbd50c808	-0.050972015
1	0x3b87ada0	0.0041405708
2	0xbd7e4a08	-0.06208232
3	0x3d411508	0.047139198
4	0xbdda2048	-0.106506884
5	0x3dbba8c4	0.09163049
6	0xbdba1234	-0.09085503
7	0xbdcb87de	-0.09938024
8	0xbda1c35a	-0.078985885
9	0x3d67e1a8	0.056611687
10	0xbd3d2e14	-0.04618652
11	0x3d3f98e4	0.046776667
12	0xbdd94654	-0.10609117
13	0xbd9b523e	-0.07584046
14	0xbd3bfe80	-0.045897007
15	0xbcc93c78	-0.024564967
16	0xbdc34b04	-0.095357925
17	0x3da7a05e	0.081848845
18	0xbcf17db8	-0.029478893
19	0x3d245880	0.040123463
20	0x3db5075c	0.08839294
21	0x3cbec700	0.02328825
22	0x3d0c01bc	0.03418134
23	0x3df71b32	0.12065734
24	0xbd66eab4	-0.056376174
25	0x3d222d38	0.039593905
26	0xbd63cc0c	-0.055614516
27	0x3db6f348	0.08933121
28	0x3dcc74c0	0.09983206
29	0xbdec0660	-0.115246534
30	0x3dda8888	0.106705725
31	0x3d747cc4	0.0596893
32	0x3d5f1cdc	0.05447088
33	0x3d52c70c	0.051459357
34	0x3dd4d004	0.10391238
35	0xbc873560	-0.016504943
36	0xbdd87fb2	-0.10571231
37	0xbd12eaf8	-0.035868615
38	0xbdb44b58	-0.08803433
39	0x3c0762f0	0.008263335
40	0xbcbf3040	-0.023338437
41	0xbd895086	-0.06704812
42	0xbc3a3500	-0.011365175
43	0x3df2890e	0.11842547
44	0xbc218970	-0.009859428
45	0x3b820c60	0.0039687604
46	0xbc9fb420	-0.01949507
47	0x3ca0fae0	0.019650877
48	0x3de41968	0.11137658
49	0x3d9c8acc	0.07643661
50	0x3d35bd84	0.04437019
51	0x3cde86a8	0.027163818
52	0x3cf173b0	0.02947411
53	0x3d45cd78	0.048291653
54	0xbc845328	-0.016152933
55	0xbdededbc	-0.1161761
56	0xbd9e503e	-0.07730149
57	0x3dda8498	0.106698215
58	0x3bf4d500	0.0074716806
59	0xbdcf60fa	-0.10125919
60	0x3ca18350	0.019715935
61	0x3dd3868a	0.10328396
62	0xbdf1eb80	-0.11812496
63	0xbdac596a	-0.08415492
64	0xbd4be978	-0.0497832
65	0x3ba46740	0.005017191
66	0xbceed3b0	-0.029153675
67	0xbc610ea0	-0.013736397
68	0xbdf99266	-0.121861264
69	0x3d6fc248	0.05853489
70	0x3de0b3c8	0.109717906
71	0x3d9c7a1e	0.076404795
72	0xbdb5482a	-0.08851655
73	0xbdce5cca	-0.10076292
74	0x3d549bf4	0.05190654
75	0x3b37fb00	0.0028073192
76	0x3d51e278	0.051241368
77	0xbdfa2698	-0.122143924
78	0xbbf43740	-0.0074528754
79	0x3db48ada	0.08815546
80	0x3d6d85cc	0.057988927
81	0x3b959340	0.0045646727
82	0x3cc95680	0.02457738
83	0xbc41e7a0	-0.011835009
84	0xbd8cc1e4	-0.06872919
85	0xbd417c04	-0.04723741
86	0xbd9be618	-0.07612246
87	0x3dd4a2ce	0.10382615
88	0x3d8cdf96	0.06878583
89	0x3d330ed8	0.043715328
90	0xbdc45072	-0.09585656
91	0x3dc58902	0.09645273
92	0x3d2088ac	0.03919284
93	0x3db11974	0.08647433
94	0xbd496a6c	-0.049173757
95	0x3cd915b8	0.026499614
96	0x3df9f432	0.1220478
97	0x3dac3364	0.084082395
98	0x3dcd4fa8	0.10024959
99	0xbcd70640	-0.026248097
100	0x3dc30a62	0.09523465
101	0xbdc881e8	-0.09790403
102	0x3c312120	0.01081112
103	0xbd90245e	-0.070381865
104	0xbceecff8	-0.029151902
105	0xbd031f34	-0.03201218
106	0x3c193ac0	0.009352386
107	0x3de8feea	0.11376746
108	0x3d7d7ba4	0.06188549
109	0xba0ad000	-0.00052952766
110	0x3db5b870	0.08873069
111	0xbd83304a	-0.06405695
112	0x3d83ef62	0.06442143
113	0xbc3deaa0	-0.0115915835
114	0xbcb22fe8	-0.02175136
115	0x3c6fc430	0.014634177
116	0xbdc41eea	-0.09576209
117	0x3c6ca950	0.014444664
118	0x3d2c2764	0.042029753
119	0x3ddadcce	0.106866464
120	0xbd1f685c	-0.038917884
121	0x3d385588	0.045003444
122	0x3dffe006	0.12493901
123	0xbd5ba1d4	-0.05362113
124	0x3df35a06	0.11882405
125	0xbd7e3434	-0.062061504
126	0x3d61afe0	0.055099368
127	0x3d489378	0.048968762
128	0x3d0f0418	0.034916013
129	0x3dca7212	0.098850384
130	0xbd4eeea4	-0.050520554
131	0x3d069038	0.03285238
132	0x3a37e600	0.00070151687
133	0xbdc08c5a	-0.0940177
134	0xbcf8a438	-0.030351743
135	0xbdaaf674	-0.083477885
136	0x3d626230	0.05526942
137	0x3c381b60	0.011236995
138	0x3c48a1b0	0.012245581
139	0xbd1b5368	-0.03792134
140	0x3a1d9100	0.00060106814
141	0xbd1f410c	-0.038880393
142	0x3d131db8	0.035917014
143	0x3df89e94	0.121396214
144	0x3c9b1b18	0.018933818
145	0xbd62c630	-0.055364788
146	0xbd9c5f3a	-0.076353505
147	0x3c1c8c10	0.009554878
148	0xbdbde9a2	-0.092730775
149	0xbdc06c26	-0.09395628
150	0xbda69fe0	-0.081359625
151	0xbd2de5ec	-0.0424556
152	0x3c179680	0.009252191
153	0x3db048da	0.08607645
154	0x3d465158	0.04841742
155	0x3dc4205c	0.095764846
156	0xbda0bde2	-0.07848717
157	0x3c2cd3b0	0.010548517
158	0xbde38db0	-0.11111009
159	0x3d92db32	0.071707144
160	0x3cd56968	0.026051238
161	0x3df79b62	0.12090184
162	0xbdb61200	-0.08890152
163	0x3dcd4b46	0.10024123
164	0x3dd81f3a	0.10552831
165	0x3dcefb02	0.1010647
166	0x3c921e98	0.017836854
167	0x3de8c688	0.11365992
168	0x3daaf73c	0.083479375
169	0x3dbeff0e	0.093259916
170	0xbc050a30	-0.008120105
171	0xbdc47434	-0.095924765
172	0xbacbe200	-0.0015555024
173	0x3cc00a08	0.023442283
174	0xbdae6118	-0.08514613
175	0xbd92da04	-0.071704894
176	0xbdf57068	-0.119843304
177	0xbd337af4	-0.04381843
178	0x3ddefe58	0.10888356
179	0x3caf1998	0.021374509
180	0xbbfa2f20	-0.0076350123
181	0x3ba47cc0	0.005019754
182	0x3d9fa0b0	0.077943206
183	0xbde21074	-0.110382944
184	0xbdc586e6	-0.096448705
185	0xbd2a3990	-0.041558802
186	0xbd935528	-0.07193977
187	0x3d840a7e	0.06447314
188	0x3db4e2a8	0.08832294
189	0xbdf860b8	-0.12127823
190	0xbdd94312	-0.10608496
191	0xbdf94c20	-0.12172723
192	0x3d412780	0.04715681
193	0x3dce0af2	0.100606814
194	0xbdc67cb0	-0.09691751
195	0xbd6d08a0	-0.057869554
196	0x3d22edd0	0.039777577
197	0xbda72a0c	-0.08162317
198	0x3dd9777e	0.106184945
199	0x3ceec1d0	0.029145151
200	0xbd0e884c	-0.03479795
201	0x3c0504d0	0.008118823
202	0x3d1fa020	0.038971066
203	0xbd350cc8	-0.044201642
204	0xbdc65cf4	-0.09685698
205	0x3a5c4100	0.000840202
206	0x3b153780	0.0022768676
207	0x3b253180	0.0025206506
208	0xbc956ec0	-0.018241286
209	0x3da45eee	0.08025919
210	0xbd0ee0d8	-0.034882396
211	0xbc463b40	-0.012099087
212	0x3d528730	0.051398456
213	0xbda122ce	-0.078679666
214	0x3d0917a8	0.033469826
215	0xbce26c28	-0.027639464
216	0x3d7597c4	0.059959188
217	0xbd8adef2	-0.06780805
218	0x3b9761a0	0.004619792
219	0x3c485ac0	0.012228668
220	0xbdcdfa0a	-0.10057457
221	0xbdba25fe	-0.09089278
222	0x3d445bdc	0.047939166
223	0xbd15055c	-0.036382064
224	0x3d98099c	0.07423708
225	0xbdfce490	-0.12348282
226	0xbd7d18a4	-0.061791077
227	0xbdd2db82	-0.10295774
228	0x3d4c8784	0.049933925
229	0xbb6d7f40	-0.0036239177
230	0xbcbeff78	-0.023315176
231	0xbcaa5d40	-0.020796418
232	0xbdc81a24	-0.09770611
233	0x3d11335c	0.03544937
234	0x3b4c3140	0.0031157285
235	0xbdb0ab3e	-0.08626412
236	0x3d40a8c8	0.047035962
237	0xbb24a6c0	-0.0025123805
238	0xbdf796fc	-0.12089345
239	0x3d89b524	0.06724003
240	0x3d88ee5c	0.066860884
241	0xbcc0ee98	-0.02355127
242	0xbdb0c08e	-0.08630477
243	0x3ba47460	0.005018756
244	0x3dc12c24	0.09432247
245	0x3dea53b6	0.11441748
246	0xbdc13aa4	-0.09435013
247	0xbd674128	-0.056458622
248	0x3dc753ee	0.09732805
249	0x3d7a4124	0.06109728
250	0x3d9e77a2	0.07737662
251	0xbd7ed708	-0.06221679
252	0x3ddc8d86	0.10769181
253	0xbdd272ea	-0.10275824
254	0xbbc54cc0	-0.006021112
255	0x3b2a1700	0.002595365

bias f4 [32]
0	0x3bc4a0e0	0.006000623
1	0xbdf590fa	-0.11990543
2	0x3c824228	0.015900686
3	0x3d34205c	0.043976173
4	0x3de51af6	0.11186783
5	0xbd25f43c	-0.040516123
6	0x3d38ac5c	0.04508625
7	0xbd2b9140	-0.041886568
8	0xbd340bb4	-0.043956473
9	0xbde2d6e8	-0.11076146
10	0x3cd823a8	0.02638419
11	0x3dabc6c2	0.083875194
12	0xbd8e6972	-0.06953706
13	0x3d5152e4	0.05110444
14	0xbc9fbaf8	-0.019498333
15	0xbdb5c1a4	-0.08874825
16	0x3c5a6040	0.013328612
17	0xbdf978e2	-0.1218126
18	0x3d893b9e	0.06700824
19	0xbce24198	-0.027619168
20	0x3debc534	0.11512223
21	0x3b973520	0.0046144873
22	0xbdf8308a	-0.12118633
23	0x3dc6a8d2	0.09700169
24	0xbcdffb10	-0.027341396
25	0xbdaf5ae6	-0.085622594
26	0x3dec5cbc	0.11541125
27	0x3c3f4760	0.011674732
28	0x3d25ff34	0.040526584
29	0xbddd7652	-0.108135834
30	0xbd34d278	-0.04414603
31	0x3dcd66e6	0.10029392

weight_ih_l0 f4 [128, 32]
0	0xbd839a4e	-0.06425916
1	0x3d7cf106	0.061753295
2	0xbe1d3d06	-0.1535531
3	0xbda2347d	-0.079201676
4	0xbe294273	-0.16529255
5	0x3d2afa94	0.041742876
6	0xbe820fc9	-0.25402668
7	0xbef7910d	-0.48352852
8	0xbe5b0ee1	-0.21392395
9	0x3ea20b91	0.3164945
10	0xbd99a81a	-0.07502766
11	0xbd9e4b1e	-0.07729171
12	0x3de553c3	0.11197617
13	0xbe196487	-0.14979754
14	0x3e1150e9	0.14191021
15	0x3e4574ca	0.19282833
16	0x3cef98cc	0.029247664
17	0x3e8d7e9b	0.27635655
18	0xbe9f1620	-0.31071568
19	0x3d021dd2	0.03176672
20	0xbebd12c6	-0.36928385
21	0xbd80b3c8	-0.062842906
22	0xbe543452	-0.20723084
23	0xbed412c7	-0.41420576
24	0xbdf4b953	-0.1194941
25	0xbe8bb208	-0.27284265
26	0x3c708ee1	0.0146825025
27	0x3ddc1cdf	0.10747694
28	0x3dadfe63	0.08495786
29	0xbe2b69a9	-0.16739525
30	0x3e80dd3c	0.25168788
31	0xbebedef3	-0.37279472
32	0x3d494541	0.04913831
33	0xbdbef757	-0.0932452
34	0xbe7e68e9	-0.24844708
35	0xbe395536	-0.18098912
36	0x3dbee0dd	0.09320233
37	0x3bcdabe6	0.0062765954
38	0x3da02419	0.07819385
39	0xbe8f75c0	-0.28019524
40	0xbdbd9347	-0.092566065
41	0x3e8ceba4	0.2752353
42	0x3e0e9bfb	0.1392669
43	0xbb160663	-0.002289199
44	0x3e8fc0f1	0.2807689
45	0x3c23f585	0.010007267
46	0xbdc2d452	-0.09513153
47	0xbe232731	-0.15932919
48	0x3da34754	0.07972589
49	0x3e0d2882	0.13784984
50	0xbd82edbd	-0.06393001
51	0x3e144389	0.14478888
52	0xbebf257c	-0.37333286
53	0xbd76681f	-0.06015789
54	0xbd94ae40	-0.07259798
55	0xbee9b402	-0.45645148
56	0x3d4fcf0f	0.050734576
57	0xbd20efca	-0.03929118
58	0x3e68c315	0.22730668
59	0x3daf3909	0.085558005
60	0x3b9eda8c	0.00484783
61	0xbc34bed0	-0.011031821
62	0x3e14b581	0.14522363
63	0xbe2a45ed	-0.16628237
64	0x3e237abb	0.15964787
65	0x3e8af222	0.27137858
66	0x3cb6c6c2	0.022311572
67	0xbe7509f2	-0.23929575
68	0x3db516ab	0.08842214
69	0xbe98b39e	-0.29824537
70	0xbd03eb67	-0.03220692
71	0xbed65c76	-0.41867417
72	0xbd331f91	-0.043731276
73	0x3eaa112a	0.3321622
74	0x3e82ee4b	0.25572428
75	0xbe85910e	-0.2608723
76	0x3d1e8ddf	0.038709518
77	0xbe569d07	-0.20958339
78	0x3c08ce78	0.008350007
79	0xbdb7d1b9	-0.08975548
80	0x3ea473f7	0.32119724
81	0x3f0a4dcd	0.54024965
82	0xbcacdffb	-0.021102896
83	0x3dd43108	0.103609145
84	0xbd6a673b	-0.057227354
85	0x3dc1bbc2	0.0945964
86	0xbe8107f0	-0.25201368
87	0xbf2e3a26	-0.6805748
88	0xbda5ec42	-0.08101703
89	0xbed3301c	-0.41247642
90	0x3e40dd5d	0.18834443
91	0x3eb7167b	0.3575934
92	0x3e2ebd46	0.1706439
93	0xbddd16a3	-0.10795333
94	0xbca1e426	-0.01976211
95	0x3d0f559d	0.034993757
96	0x3e0f0898	0.13968122
97	0x3daa5b00	0.08318138
98	0xbe73ae0b	-0.23796861
99	0xbef6804b	-0.48144755
100	0xbe11ee50	-0.14251065
101	0xbe416f96	-0.18890223
102	0xbc014ad5	-0.0078913765
103	0xbf2edcff	-0.68305963
104	0x3dc9b480	0.09848881
105	0x3e8abd4e	0.27097553
106	0xbe05612a	-0.13025346
107	0x3e04f72f	0.12984918
108	0x3ea30a31	0.31843713
109	0xbe52a27c	-0.20569795
110	0x3df7266d	0.12067876
111	0x3e971eec	0.2951578
112	0x3e029eef	0.12755941
113	0x3e85aac4	0.26106846
114	0xbe1e08b0	-0.15433002
115	0xbe0ed104	-0.1394692
116	0xbd867645	-0.06565527
117	0xbe6f3aaf	-0.2336223
118	0xbe5e1216	-0.21686587
119	0xbf1b401a	-0.60644686
120	0xbe30c260	-0.17261648
121	0xbea3de78	-0.32005668
122	0x3cb2da82	0.021832708
123	0x3e126f5d	0.14300294
124	0x3d915353	0.07095971
125	0x3db06ca7	0.08614474
126	0xbc1bf76d	-0.00951944
127	0xbcea50c3	-0.028602963
128	0xbd2f6bc4	-0.042827383
129	0x3d007237	0.031358924
130	0x3d8a472e	0.06751858
131	0xbec32d55	-0.38120523
132	0xbe4b33d9	-0.19843997
133	0xbe2007ae	-0.1562793
134	0xbe1cdd9a	-0.1531891
135	0xbee7a1da	-0.4524067
136	0xbd2749bd	-0.040841807
137	0x3e424f2d	0.18975516
138	0x3e036e8e	0.12835142
139	0x3e07c810	0.13259912
140	0x3ec6deb8	0.38841796
141	0xbe90784e	-0.28216785
142	0xbcb1cd2f	-0.021704284
143	0x3dd2a739	0.102858014
144	0x3e066682	0.13125041
145	0x3f234c66	0.6378845
146	0xbe6bcc25	-0.23027094
147	0xbe6ba33a	-0.23011485
148	0xbdbf9e19	-0.093563266
149	0xbe88aa55	-0.26692453
150	0xbe485021	-0.19561817
151	0xbf164d59	-0.58711773
152	0xbe70e796	-0.23525843
153	0xbe98847e	-0.29788584
154	0x3e0dd7e5	0.13851888
155	0x3e8af4d4	0.27139914
156	0x3e8af39b	0.2713898
157	0xbddc74ce	-0.10764466
158	0xbe4a6f85	-0.19769104
159	0xbd879799	-0.06620712
160	0xbe2a7ace	-0.16648409
161	0xbb4498e5	-0.0029998359
162	0xbe89b4a3	-0.26895627
163	0xbe73e2c3	-0.23816971
164	0xbe71f50c	-0.23628634
165	0x3ced42d1	0.028962525
166	0xbe979502	-0.2960587
167	0xbebc29ef	-0.36750743
168	0xbeba4e3e	-0.3638782
169	0x3e3d0e75	0.18462546
170	0xbda61b5f	-0.08110689
171	0x3d8198ce	0.06327973
172	0x3e7e7af8	0.24851596
173	0x3ca453e4	0.020059533
174	0x3dfe3d73	0.12414064
175	0x3e34253d	0.1759233
176	0x3e9827d3	0.29717883
177	0x3e42bb64	0.19016796
178	0x3d3949d9	0.045236442
179	0xbe9e0de0	-0.3086996
180	0xbefbe467	-0.49197695
181	0xbdc4a2d3	-0.09601369
182	0x3d91c54c	0.071177095
183	0xbefedfcf	-0.49780127
184	0xbd8836aa	-0.06651051
185	0xbe935bf5	-0.28781095
186	0x3e071dd5	0.13194974
187	0x3e6e7634	0.23287278
188	0x3e0a5ca8	0.13511908
189	0xbb56383e	-0.0032687332
190	0xbe939757	-0.288264
191	0xbdff5275	-0.12466899
192	0x3e3c6cc3	0.18400864
193	0x3e030587	0.12795077
194	0xbecc56cd	-0.39909974
195	0x3c0551b5	0.008137156
196	0x3e18a775	0.1490763
197	0xbde8d566	-0.113688275
198	0x3d6042da	0.054751255
199	0xbeb5faad	-0.35542813
200	0xbdb4f5bc	-0.088359326
201	0xbd7e326a	-0.062059797
202	0xbdf71401	-0.12064362
203	0xbdf6a499	-0.12043113
204	0x3c94bfa2	0.018157784
205	0xbdda4cd7	-0.10659187
206	0x3c7cc689	0.015428194
207	0xbcbbb1e0	-0.022911966
208	0x3e438552	0.19093826
209	0x3e881f70	0.26586485
210	0xbe426116	-0.18982348
211	0x3c9fff5c	0.019530945
212	0xbe8500e1	-0.25977233
213	0xbd402943	-0.04691435
214	0x3c777cef	0.01510547
215	0xbf113aaf	-0.5673017
216	0xbd91e614	-0.07123962
217	0xbd50edcc	-0.05100803
218	0x3d8ebf3b	0.06970068
219	0x3e907b6b	0.2821916
220	0x3cb6f242	0.022332314
221	0xbccca16e	-0.02497932
222	0xbe360016	-0.1777347
223	0xbe36ade8	-0.17839777
224	0xbbf7ecaf	-0.0075660567
225	0x3ee6d426	0.4508373
226	0xbcc39790	-0.023875982
227	0xbed9b766	-0.42522734
228	0xbe38f0b3	-0.1806057
229	0xbec25db5	-0.37962118
230	0xbe01e1ca	-0.12683788
231	0xbf26120e	-0.648713
232	0xbe40918f	-0.18805526
233	0x3e761d24	0.24034554
234	0xbccf527f	-0.025307892
235	0xbe87bd05	-0.26511398
236	0x3dd62261	0.10455776
237	0xbef914f0	-0.48648787
238	0xbcf173bc	-0.029474132
239	0xbdba3650	-0.090923905
240	0x3e515cc4	0.20445544
241	0x3e9b2bbd	0.30306807
242	0xbe7f1a45	-0.24912365
243	0x3e023e24	0.12719017
244	0xbe250dcd	-0.16118546
245	0x3c86aec8	0.016440764
246	0x3ac68079	0.0015144489
247	0xbf2e00bd	-0.67969877
248	0x3e6a5e92	0.22887638
249	0xbee36539	-0.44413164
250	0x3f000dce	0.50021064
251	0x3eb85d4e	0.36008686
252	0x3e9b37e5	0.30316082
253	0x3d842d88	0.06453997
254	0xbe027d44	-0.12743098
255	0x3e19c80e	0.15017721

weight_hh_l0 f4 [128, 32]
0	0x3c5290c5	0.012851899
1	0x3db127c0	0.0865016
2	0xbdb9795c	-0.090563506
3	0xbe06bc6d	-0.13157816
4	0xbd96703d	-0.073456265
5	0xbbc40e4e	-0.0059831506
6	0x3e5a43ba	0.21314898
7	0x3d0fcad6	0.03510555
8	0x3e1b9146	0.15192136
9	0xbdd533b1	-0.1041025
10	0xbdb735c8	-0.08945805
11	0xbd42504a	-0.04743985
12	0xbd9b9271	-0.07596291
13	0xbdbd48ab	-0.09242376
14	0x3d8ffd5d	0.07030747
15	0x3da8c968	0.0824154
16	0x3cee1cb8	0.029066429
17	0xbc486816	-0.012231847
18	0x3e718a29	0.2358786
19	0x3aa6e391	0.0012732615
20	0x3e6abc17	0.22923313
21	0x3c7daf10	0.015483633
22	0xbd317b1d	-0.0433303
23	0xbdbe7498	-0.09299582
24	0x3dfb187e	0.12260531
25	0xbe19cda3	-0.1501985
26	0x3dab97a9	0.08378536
27	0x3e1f863d	0.15578552
28	0xbddfd38c	-0.10929021
29	0xbd9f302d	-0.07772861
30	0x3db45063	0.08804395
31	0xbe01f0cb	-0.12689511
32	0x3dcc829b	0.099858485
33	0x3e0d9d5e	0.13829562
34	0xbe033661	-0.12813713
35	0x3e34dc52	0.1766217
36	0xbdc7b888	-0.097519934
37	0xbdc484f5	-0.09595672
38	0x3e2e284c	0.1700756
39	0xbe289ae6	-0.16465339
40	0x3df86ccf	0.121301286
41	0x3d8001f5	0.06250373
42	0xbdf0f045	-0.11764578
43	0xbcb62396	-0.022233766
44	0x3d8b1d7f	0.06792735
45	0xbd7d3a10	-0.06182295
46	0x3d161c54	0.03664811
47	0x3c2125ff	0.009835719
48	0xbdea1387	-0.11429506
49	0x3d55d1bd	0.052201975
50	0xbd318c61	-0.043346766
51	0xbdc5b52b	-0.09653696
52	0x3e0da72f	0.13833307
53	0xbe02f5c6	-0.12789068
54	0xbdb82c32	-0.089928046
55	0xbe8d7ff1	-0.27636674
56	0x3cdcb6ff	0.026942728
57	0xbc31908f	-0.010837688
58	0x3dc6cadf	0.09706663
59	0x3d7cfa3f	0.06176209
60	0x3e49fd7e	0.19725606
61	0xbd71913c	-0.058976397
62	0x3d0b3403	0.03398515
63	0xbdbb0691	-0.09132112
64	0x3cfcac25	0.030843804
65	0xbc6782ac	-0.014130276
66	0xbe3046e3	-0.17214541
67	0xba90aa14	-0.0011037015
68	0x3e637e68	0.22216189
69	0x3db560ab	0.088563286
70	0x3e3c2f2a	0.18377367
71	0x3d30d66b	0.043173235
72	0x3e0c2edb	0.13689749
73	0x3de51dcf	0.11187326
74	0xbe27e6e5	-0.16396673
75	0x3d4d7997	0.050164785
76	0xbda448aa	-0.08021672
77	0x3dddb267	0.10825043
78	0xbe0cd075	-0.13751395
79	0x3e4d9cfe	0.20079419
80	0x3e19cac7	0.1501876
81	0x3e00f8a8	0.12594855
82	0xbb1a192f	-0.0023513546
83	0xbe055f28	-0.1302458
84	0xbdf07267	-0.117405705
85	0x3c43c653	0.01194914
86	0x3d9c079a	0.076186374
87	0xbe555e46	-0.20836744
88	0x3e45682e	0.19278023
89	0xbd2efa92	-0.04271943
90	0x3dbad2d7	0.09122246
91	0xbcc06774	-0.02348683
92	0x3d26cb87	0.040721443
93	0x3d1fc4f5	0.039006192
94	0xbd5e380f	-0.05425268
95	0xbd8a8a7e	-0.067646965
96	0x3d530678	0.05151984
97	0x3e0d6eb1	0.13811757
98	0x3dfe1531	0.12406386
99	0xbdc3cdb5	-0.0956072
100	0x3ce8699f	0.028370677
101	0xbb60d406	-0.0034306063
102	0xbd972f1f	-0.073820345
103	0x3e042de1	0.12908126
104	0x3d1ee624	0.038793698
105	0x3e43e068	0.19128573
106	0x3de98016	0.114013836
107	0xbe72acaa	-0.23698679
108	0xbe55e26f	-0.20887159
109	0xbda3dcff	-0.08001136
110	0xbe030093	-0.12793188
111	0x3d64ae39	0.055830214
112	0xbddb6f59	-0.10714597
113	0xbdfb5a5e	-0.122730955
114	0xbe301e03	-0.17198949
115	0x3dde10f1	0.10843075
116	0xbc380bff	-0.011233329
117	0x3d2933c6	0.04130914
118	0xbd78189c	-0.060570344
119	0xbe047f6d	-0.12939234
120	0xbda111dc	-0.078647345
121	0x3e1e2068	0.1544205
122	0xbcc46939	-0.023975955
123	0x3d531875	0.051536996
124	0x3dc9e674	0.098584086
125	0x3e72ea1e	0.23722121
126	0xbcf654f5	-0.030069808
127	0x3e481b24	0.19541603
128	0x3c71bd4f	0.014754607
129	0x3de7482a	0.11293061
130	0x3e48d98e	0.1961424
131	0xbbfaea89	-0.0076573533
132	0xbe0c7b49	-0.13718905
133	0xbe9c966e	-0.3058352
134	0xbe177091	-0.14789034
135	0xbde2942e	-0.11063419
136	0xbda951d5	-0.08267561
137	0xbbc37a8d	-0.005965537
138	0x3da00c31	0.07814825
139	0xbe02938b	-0.12751596
140	0xbd8e8e55	-0.069607414
141	0xbe468711	-0.19387461
142	0xbc724050	-0.014785841
143	0xbcdadf68	-0.026717857
144	0x3e25b6af	0.1618297
145	0xbe5024bc	-0.20326513
146	0xbe0fb1f3	-0.14032726
147	0xbdf4905d	-0.119415976
148	0x3d9f328d	0.07773314
149	0x3c2fb85d	0.010725108
150	0x3d7d1bc0	0.061794043
151	0x3e0d4fc5	0.13799961
152	0x3e124c7b	0.14286987
153	0x3c2fa416	0.0107202735
154	0xbcd2d07b	-0.025734177
155	0x3dc88196	0.097903416
156	0x3dd8a9d6	0.10579269
157	0x3e1d9378	0.15388286
158	0xbd82fc2e	-0.06395756
159	0x3d9d1c5e	0.07671426
160	0xbe0d5630	-0.13802409
161	0xbde751ec	-0.11294922
162	0xbd541649	-0.051779065
163	0x3d41ec17	0.047344293
164	0x3e05e24d	0.13074608
165	0x3e1045e3	0.1408916
166	0x3d331bda	0.043727733
167	0xb92b637d	-0.00016344893
168	0x3e0199e4	0.12656361
169	0x3df7fa67	0.12108307
170	0xbcfded76	-0.03099702
171	0x3dcf1c1d	0.10112784
172	0x3e1690e8	0.14703715
173	0xbd863561	-0.0655315
174	0x3ccafb2a	0.024777967
175	0x3b948b47	0.0045332047
176	0x3ca619e2	0.020276014
177	0xbda1aaad	-0.07893882
178	0x3dee85fc	0.11646649
179	0xbe113ccf	-0.14183353
180	0xbd989140	-0.07449579
181	0xbe5713ef	-0.21003698
182	0xbe129088	-0.14312947
183	0xbcd39d48	-0.025831833
184	0x3d3854be	0.04500269
185	0xbe20bdaf	-0.15697359
186	0xbdcd23a2	-0.10016562
187	0xbe2f6a13	-0.17130308
188	0x3e0191f8	0.12653339
189	0xbe044617	-0.12917362
190	0x3dc633fe	0.096778855
191	0x3daeef84	0.08541778
192	0xbc81516c	-0.015785895
193	0x3e6f36a2	0.23360685
194	0x3e298607	0.16555034
195	0x3e6853ff	0.22688292
196	0x3d5bebd8	0.053691715
197	0xbbcb247b	-0.006199417
198	0xbd2532f7	-0.040331807
199	0x3c8021ef	0.01564118
200	0x3df5bf9c	0.11999437
201	0x3e59b8a5	0.21261843
202	0xbda8f76c	-0.08250317
203	0x3e0f7732	0.14010313
204	0x3b582599	0.0032981394
205	0x3d6403da	0.055667736
206	0xbd89dae6	-0.06731205
207	0x3d8d8083	0.06909277
208	0xbe48194b	-0.19540899
209	0xbe21fdca	-0.15819469
210	0x3dab24a4	0.08356598
211	0x3dc85af5	0.09782974
212	0x3d600b5f	0.054698344
213	0x3c9e73f3	0.019342398
214	0x3e1e2d84	0.1544705
215	0xbde70b50	-0.112814546
216	0x3e072e87	0.13201343
217	0xbb77f57b	-0.0037835527
218	0xbe10860c	-0.14113635
219	0x3dc6da7e	0.09709643
220	0xbd90d9c9	-0.07072789
221	0x3dd706cb	0.104993425
222	0x3d1b8991	0.03797299
223	0x3dd41afa	0.10356708
224	0x3e110058	0.14160287
225	0xbdedeb1c	-0.11617109
226	0xbd79f7ee	-0.06102746
227	0x3e171b3a	0.1475648
228	0x3d7bcb71	0.061473314
229	0x3dec779c	0.11546251
230	0x3e0e0d0a	0.13872162
231	0x3cc22f92	0.023704324
232	0xbdd659cb	-0.104663454
233	0x3d4fa059	0.05069003
234	0xbd6bb888	-0.05754903
235	0x3d9a6ec5	0.07540659
236	0x3d912fc9	0.070891924
237	0x3ca03194	0.01955489
238	0xbdf3b3f5	-0.118995585
239	0xbadf5bf4	-0.0017040954
240	0xbe4663ad	-0.19373961
241	0x3ba512b1	0.0050376286
242	0x3e4d47c6	0.2004691
243	0x3df401f7	0.11914437
244	0xbde30ff8	-0.1108703
245	0xbdc05676	-0.09391491
246	0x3d822208	0.06354147
247	0xbded751a	-0.11594601
248	0x3db93ccf	0.090448014
249	0xbc12f7f6	-0.008970251
250	0xbdbd5a50	-0.09245741
251	0xbd561b1f	-0.05227196
252	0xbcc818ac	-0.024425827
253	0x3c626c81	0.013819815
254	0x3dffb19a	0.12485047
255	0x3e401bcb	0.18760602

bias_ih_l0 f4 [128]
0	0xbe87cff1	-0.26525834
1	0xbdd67a29	-0.10472519
2	0xbef26b35	-0.47347417
3	0xbdcbd601	-0.099529274
4	0xbdc42ccf	-0.09578859
5	0xbe313cd7	-0.17308365
6	0xbe696aae	-0.22794601
7	0xbf199c7b	-0.60004395
8	0xbed887ef	-0.4229121
9	0xbe92d96f	-0.28681514
10	0xbe136ad4	-0.1439622
11	0xbcbd8082	-0.023132566
12	0xbd243afd	-0.040095318
13	0xbeebc171	-0.46046022
14	0xbeede001	-0.46459964
15	0xbe8e30b3	-0.2777153
16	0xbe4801c2	-0.1953192
17	0xbf0777a4	-0.5291693
18	0x3ba01d03	0.004886271
19	0xbe5b9855	-0.21444829
20	0xbe8b0ffe	-0.2716064
21	0xbe7a2d96	-0.24431452
22	0xbe003507	-0.12520228
23	0xbe4c32fd	-0.19941325
24	0xbeb5f962	-0.35541826
25	0xbe6e66c7	-0.23281394
26	0xbe836452	-0.25662476
27	0xbe09c2fc	-0.13453287
28	0xbeccfb1a	-0.40035325
29	0xbe67fc7d	-0.2265491
30	0xbe7076d7	-0.23482834
31	0xbe1cafbf	-0.15301417
32	0xbd82e011	-0.063903935
33	0x3dbeface	0.09325181
34	0xbd9587a4	-0.07301262
35	0xbe0bb803	-0.13644414
36	0xbd6dc47d	-0.058048714
37	0xbe23b8df	-0.15988491
38	0xb808b4b8	-3.2593234e-05
39	0xbe240326	-0.16016826
40	0xbd31a4d3	-0.04337008
41	0x3d0118b8	0.031517714
42	0xbc75763c	-0.014981803
43	0xbe19b8e2	-0.15011933
44	0xbe09d66d	-0.13460703
45	0xbe8a378f	-0.26995513
46	0xbeaa2c5c	-0.3323697
47	0xbe234834	-0.15945512
48	0x3dbc5244	0.091953784
49	0xbee2d3b4	-0.44302142
50	0x3b5334cc	0.0032227514
51	0xbde37bfb	-0.11107632
52	0xbe2657c0	-0.16244411
53	0xbd811c40	-0.063042164
54	0xbe490d6c	-0.19634026
55	0x3d8c6536	0.06855242
56	0xbe16275b	-0.1466345
57	0xbc256490	-0.010094777
58	0x3c638464	0.013886545
59	0x3d407116	0.046982847
60	0xbd918b5f	-0.07106661
61	0xbdbdec2b	-0.09273561
62	0xbdd31f43	-0.10308697
63	0xbe83f108	-0.2576983
64	0x3cd1614e	0.025559094
65	0xbd58ccb6	-0.052929603
66	0x3d86adf3	0.06576147
67	0xbe11449c	-0.14186329
68	0x3d92d3d7	0.071693115
69	0xbd37bf34	-0.04486008
70	0xbd3ec018	-0.046569914
71	0xbd36749f	-0.044544812
72	0x3e094433	0.13404922
73	0xbe08210b	-0.13293855
74	0x3dcd687e	0.10029696
75	0xbd8367f2	-0.0641631
76	0xbd87035a	-0.06592436
77	0x3cc97ff3	0.024597144
78	0xbd9bda98	-0.07610053
79	0xbd433fbb	-0.0476682
80	0x3ddddb87	0.10832887
81	0x3d57ac7f	0.05265474
82	0xbe168971	-0.14700867
83	0x3c9e2b6b	0.019307813
84	0xbd810943	-0.06300595
85	0x3d3481c9	0.044069085
86	0xbddb87fd	-0.10719297
87	0x3da5b881	0.08091832
88	0xbddb0f7b	-0.10696312
89	0x3b0761c7	0.0020657645
90	0x3d79b239	0.060960982
91	0x3de1697c	0.11006448
92	0xbd609980	-0.05483389
93	0xbd5343ed	-0.05157845
94	0x3ca7984e	0.020458367
95	0x3d059076	0.03260847
96	0xbe3552de	-0.17707393
97	0x3cdc0d98	0.02686195
98	0xbec90e8c	-0.3926891
99	0xbe4776dd	-0.19478936
100	0xbe68274b	-0.22671239
101	0xbe720a9f	-0.23636864
102	0xbde1f46a	-0.110329464
103	0xbea24407	-0.31692526
104	0xbe44d4d1	-0.19221808
105	0xbeafe0b0	-0.3435111
106	0xbd797ee8	-0.060912043
107	0xbd8e9d42	-0.06963588
108	0xbe10b809	-0.14132704
109	0xbec66ee0	-0.38756466
110	0xbe6bf516	-0.23042712
111	0xbe2205d1	-0.15822531
112	0xbe4b798e	-0.19870588
113	0xbe9bd8b4	-0.3043877
114	0xba7b3936	-0.0009583415
115	0xbcdb6b81	-0.02678466
116	0xbd9e1867	-0.07719498
117	0xbe8c4857	-0.2739894
118	0xbe6c45a1	-0.23073436
119	0xbe5058b5	-0.20346339
120	0xbece9439	-0.4034746
121	0xbd3c18e5	-0.04592218
122	0xbe083cfa	-0.1330451
123	0xbd2da108	-0.0423899
124	0xbe6fca6e	-0.23417065
125	0xbe965fdc	-0.2937001
126	0xbe7673b6	-0.24067578
127	0xbce05ca4	-0.027387924

bias_hh_l0 f4 [128]
0	0xbebbcbae	-0.36678833
1	0xbe32aeb5	-0.17449458
2	0xbe0f418a	-0.13989845
3	0xbeb9da9c	-0.36299598
4	0xbe6f6c48	-0.2338115
5	0xbeea0c45	-0.45712486
6	0xbe162c9e	-0.14665458
7	0xbec8259c	-0.39091194
8	0xbe94134a	-0.28920966
9	0xbdcc3511	-0.09971059
10	0xbe60d1ff	-0.21955107
11	0xbdb3529c	-0.08755991
12	0xbdf4f32f	-0.11960446
13	0xbe58eac5	-0.21183307
14	0xbe356bb4	-0.17716867
15	0xbed9c0be	-0.42529863
16	0x3d653f07	0.05596831
17	0xbea092d3	-0.31362018
18	0xbe7ff829	-0.2499701
19	0x3c5063db	0.01271912
20	0xbdd2d501	-0.102945335
21	0xbe5561df	-0.20838116
22	0xbe93802d	-0.28808728
23	0xbe3507ad	-0.1767871
24	0xbeca683e	-0.39532655
25	0xbe0333da	-0.12812749
26	0xbec802bb	-0.39064583
27	0xbe887a43	-0.26655778
28	0xbec02d15	-0.37534395
29	0xbd71ea54	-0.059061363
30	0xbe25733b	-0.16157238
31	0xbeaafc2f	-0.33395526
32	0xbe8e487a	-0.2778967
33	0xbdd1d5d7	-0.10245865
34	0xbec5b9a8	-0.38618207
35	0xbdeee9a5	-0.11665658
36	0xbd0cada3	-0.03434528
37	0xbeac1087	-0.3360636
38	0x3c730ca5	0.014834558
39	0xbed66e10	-0.41880846
40	0xbe3bd0be	-0.18341348
41	0xbdca9b58	-0.09892911
42	0x3ce343e2	0.02774233
43	0xbcf57db8	-0.029967174
44	0xbe6261b8	-0.22107589
45	0xbd8fe8f6	-0.07026856
46	0xbe301704	-0.1719628
47	0xbdd91230	-0.10599172
48	0xbe1e6ce7	-0.1547123
49	0xbea0de28	-0.31419492
50	0xbe469c90	-0.19395661
51	0x3ded1e9a	0.115781024
52	0xbe85fb2f	-0.261682
53	0xbe87c04f	-0.26513907
54	0xbdf2b904	-0.11851695
55	0xbdfc36e9	-0.12315161
56	0xbeb31f89	-0.34984997
57	0xbdca5196	-0.098788425
58	0xbe4bb497	-0.19893108
59	0xbe2c98c0	-0.16855145
60	0xbe80b548	-0.25138307
61	0xbe90943a	-0.28238088
62	0xbe670a46	-0.22562513
63	0xbe39c4e9	-0.18141522
64	0xbd4b4c31	-0.04963321
65	0xbd3af096	-0.045639597
66	0xbbc036a9	-0.005865891
67	0x3d5be7ed	0.05368798
68	0x3d4e85d3	0.050420593
69	0x3c9bf6ad	0.019038523
70	0x3c3c8f65	0.011508797
71	0x3dab404c	0.08361873
72	0xbce8e578	-0.028429732
73	0x3e13a23f	0.1441736
74	0x3d186876	0.037208997
75	0x3e429728	0.19002974
76	0x3e4213f0	0.18952918
77	0xbd53030d	-0.05151658
78	0x3dd3e06f	0.10345542
79	0xbdbbb20f	-0.09164821
80	0xbe34e8fd	-0.17667003
81	0xbdd82e43	-0.10555699
82	0x3d55f97f	0.05223989
83	0xbd17d1ee	-0.03706544
84	0x3dbf4e3a	0.093410924
85	0xbc55a902	-0.013040783
86	0xbe07dd30	-0.1326797
87	0xbe02afa1	-0.1276231
88	0x3d1960e7	0.03744593
89	0x3d094786	0.033515476
90	0x3d2c3288	0.042040378
91	0x3da04550	0.0782572
92	0xbca4a30b	-0.020097276
93	0x3d931ab7	0.0718283
94	0xbd46096f	-0.04834884
95	0xbdce8d64	-0.10085562
96	0xbec7d5d9	-0.3903034
97	0x3d2a5f75	0.04159494
98	0xbe6ad549	-0.22932924
99	0xbe4ee8a1	-0.20205928
100	0xbdd88332	-0.105718985
101	0xbe79663c	-0.24355406
102	0x3d70248c	0.058628604
103	0xbf240a28	-0.64078
104	0xbed7cc25	-0.42147937
105	0xbe049552	-0.12947586
106	0xbe6c43dd	-0.23072763
107	0xbd939d42	-0.07207729
108	0xbe4a2dc7	-0.19744025
109	0xbe651a6d	-0.22373362
110	0xbec1baac	-0.37837732
111	0xbe8766a1	-0.26445487
112	0xbe48fb62	-0.19627145
113	0xbebaf78e	-0.36516994
114	0xbdca5a4e	-0.098805055
115	0xbe363f8a	-0.17797676
116	0xbec2570a	-0.3795703
117	0xbdcffe2b	-0.101559006
118	0xbe242c41	-0.16032507
119	0xbdfb33d7	-0.12265747
120	0xbe4bbf25	-0.19897135
121	0xbe324bb3	-0.1741169
122	0xbe8ab90a	-0.270943
123	0x3c378e69	0.011203387
124	0xbe96fd33	-0.2949005
125	0xbe9f1175	-0.31068006
126	0xbe2533a2	-0.16132978
127	0xbe585d0e	-0.21129248
