experiments/pedestrians/models/06_Aug_2023_21_23_08/model_registrar-68.pt (torch, 713991 bytes, 82 tensors)

weight f4 [64, 10]
00000000: 0b45 adbc 213a aebc 5cb6 183e 40bc e73c
00000010: 95e6 34bf 5f07 5f3f 0d37 b53c e46e 74be
00000020: f287 1ebe 1416 023e 9a2e 2b3d b550 993e
00000030: 911f bd3e 00ff 753d d2eb 6ebe 4171 37be
00000040: d6d0 96be 066b c1be 5a1a f4bd ba4e ab3d
00000050: ddc7 a83b 7c66 bc3d 1597 40bd fea4 003f
00000060: fc00 cabd 3c46 1abd 9c99 8bbe e0ba 10bd
00000070: 58c2 70bb c3e6 25be ae16 36b9 871f b63c
00000080: 92c2 24bd 43e7 5cbd 8ca8 1fbf 4521 3f3f
00000090: 1dbb 89be c47d 54be 3bbb fabc 157f 7fbe
000000a0: f636 273d 0f64 2dbd 096e 493d 8023 f43d
000000b0: 723b 1c3f 49c7 df3e f805 8d3e 31da 1f3e
000000c0: 3e7f 82be 9f6e 2b3e f1e8 a338 8934 683d
000000d0: 8dee c03e 80fd 33be 6572 053a f9ea dc3e
000000e0: 89a7 353e 58f2 d3bb 19df 5cbd b341 a43d
000000f0: f849 2ebd 50fa 543e 1ee3 ea3e c84a 753c
00000100: fbbd 013f 2e44 fdbe c93b 86be 4413 893e
00000110: 5080 9e3e 1326 693e 2b6e 0cbd bc70 0dbe
00000120: c025 483d 6c5f bcbe 96e5 38bf d96f b7be
00000130: c1ed c43e e151 0c3c 6baf 033d 0b55 b03c
00000140: f4c4 193e 6378 8e3d 0e50 d4be 6a76 863c
00000150: 0d54 34bf 0e99 38be 867f 1dbe 9200 36be
00000160: 4030 663e 0974 c53d 5a55 1cbd 8cf1 e93d
00000170: a881 003f 222e a33e 3596 513d fa01 cd3e
00000180: 3c0f 113e caa0 76be 8102 953e f190 863e
00000190: c6ec 4cbe 921e ff3d 3a04 923e 8eb2 5d3e
000001a0: f481 88be d797 c6bc b72b f9bd 2f8f 073e
000001b0: d861 6d3e dda0 82be 13ac 273c 75d0 44bd
000001c0: 66ba 0e3f b524 be3c 3ab6 4cbf 73dc 5ebf
000001d0: 067d 083e be8c e23e 6109 afbd 03bb cfbc
000001e0: c531 06be d4a5 093e f1b7 b13e 80ac 0a3e
000001f0: bef9 333e ddc3 7f3e 0a0a 5c3e 847c 8bbd
00000200: ea75 573d d03a 2dbe a680 44bc 9693 193e
00000210: 10b4 253c 8d94 25bf b48e 53bd b28a 963c
00000220: a3ea 38bd f823 9fbe b45f 38be 9818 aebe
00000230: 409c 163d e4fa 26be 40b9 a9be bed2 b53e
00000240: e8b2 37be 265d b2bc 287c aa3e 6ace dc3d
00000250: 34d8 963d d0cc e13e f106 933c 8a1a a13c
00000260: cbca 3a3d 0e30 b9be d0f8 ce3e 9cf2 4abf
00000270: e799 67be 59cd 2d3e 934e 56be 8834 dc3d
00000280: 4ad4 3dbe a973 803e 986a 9cbc 1a6f 7a3d
00000290: 75f5 58bf 42d1 fbbd ac28 d03c 9f6f 4a3e
000002a0: a75f 4ebd 640b b73e 0cea 8d3e 4ccb c13e
000002b0: 24a4 343e e685 bb3e 15b9 36be cc54 3b3f
000002c0: 6a38 653c d29c a03c e05b 56bd e5bb ef3d
000002d0: d77d d63c db7f 0c3e 4c07 283f 7806 66be
000002e0: 1f18 ecbd cb25 293e 00ba 803e 6556 e43a
000002f0: 078c 303e f254 8e3e 2c86 8e3e 1fb4 503e
00000300: 5f99 e6be 2f9e f1bd a730 10bf cd70 38be
00000310: bd8f b33d 0290 0f3e 16d1 68be 1afd 703e
00000320: 8154 3c3b ae4c 593d b682 80be a258 883e
00000330: a272 b43e aef7 18bf 2440 e6bc adc2 29be
00000340: bd2e 503e 6dec fabd eb5e 73be f2cc 23bd
00000350: 19cc 34ba 1394 4e3d c8c2 153f ca22 743f
00000360: 1540 bf3e a527 393e 5513 5d3e 8e41 06bc
00000370: c040 d43a 888d 8b3e a30b 83be f062 7c3d
00000380: 604d ed3e 67a0 d83e ef97 683e 11ac 803e
00000390: da1e be3d b396 25be c559 60bb 58b4 61be
000003a0: a3e2 0bbe 8b22 063f 6e4b a2bd 2685 01bf
000003b0: 3257 0cbe 5dc8 703d e6fb 0ebe cfa3 f43d
000003c0: 31c7 d63d fe6d 84be 397c 0b3e 6fd3 5ebe
000003d0: 8678 b53e b904 d43e c26a 36bd e9c2 cbbe
000003e0: 1305 0cbe a98b bfbe c347 0cbe 7c65 efbd
000003f0: 5638 553e 136d ee3e f09c 58be e14c f8be
-0.021151086 -0.021267952 0.14913315 0.028288007 -0.7066434 0.8712062 0.022120977 -0.23870426
-0.15481547 0.12703735 0.04179249 0.29944387 0.36938146 0.06005764 -0.23332146 -0.17914297
-0.29456204 -0.37776965 -0.11919089 0.08364625 0.0051507787 0.09199235 -0.047019083 0.5025176
-0.09863469 -0.037664637 -0.27265632 -0.035334468 -0.0036736932 -0.1620131 -0.00017365321 0.02223183
-0.04022462 -0.053931486 -0.6236656 0.7466014 -0.2690057 -0.20751101 -0.030606857 -0.24950822
0.0408239 -0.04233175 0.049177203 0.119208336 0.61028206 0.4370673 0.27543616 0.15610577
-0.25487703 0.16741417 7.8158344e-05 0.056690726 0.37682 -0.17577171 0.00050905935 0.4314802
0.17739691 -0.0064680986 -0.0539237 0.08020344 -0.04255101 0.20798612 0.45876402 0.0149714425
0.5068051 -0.4946608 -0.26217487 0.2677251 0.3095727 0.2276843 -0.03428475 -0.13812536
0.048864126 -0.3679155 -0.7222532 -0.3582752 0.38462642 0.008564443 0.032149713 0.021524927
0.15016538 0.06956556 -0.41467327 0.016413886 -0.7044075 -0.18027136 -0.15380678 -0.17773655
0.22479343 0.096412726 -0.038167335 0.114230245 0.5019784 0.31871134 0.05116864 0.4004057
0.14165968 -0.24084774 0.29103473 0.26282457 -0.20012197 0.12457003 0.2851885 0.21650144
-0.26661646 -0.024242325 -0.12166541 0.13238214 0.23181856 -0.25513354 0.010233897 -0.048050363
0.5575317 0.023210863 -0.79965556 -0.8705513 0.13328943 0.44248003 -0.08546711 -0.025357729
-0.13104923 0.13442165 0.3471065 0.13542366 0.17575738 0.2497706 0.21488205 -0.06810859
0.052602686 -0.16916966 -0.011993563 0.14997706 0.010113731 -0.64679796 -0.051649764 0.018376682
-0.045145642 -0.3108213 -0.18005258 -0.3400314 0.036770105 -0.16306645 -0.33149147 0.35512346
-0.17939341 -0.021772932 0.3329785 0.10781558 0.07365456 0.44101572 0.017947646 0.019665975
0.045603555 -0.36169475 0.40424204 -0.7927644 -0.22617303 0.16972865 -0.20928411 0.10752207
-0.18538013 0.25088242 -0.019093797 0.06114111 -0.8474954 -0.12295772 0.025410019 0.19769143
-0.05038419 0.35750878 0.27717626 0.37850416 0.1764074 0.36625594 -0.1784404 0.73176265
0.013990501 0.019606028 -0.052333713 0.1170576 0.026183052 0.13720648 0.65636134 -0.22463405
-0.11528038 0.16518323 0.25141907 0.0017420767 0.17240916 0.27799183 0.2783674 0.2038121
-0.45038888 -0.11797749 -0.5632424 -0.1801178 0.0876765 0.14019778 -0.2273601 0.2353405
0.0028736892 0.053051643 -0.25099725 0.2663012 0.35243708 -0.5975293 -0.028106757 -0.16578169
0.20330329 -0.12252126 -0.23766677 -0.039990373 -0.0006896868 0.050434183 0.5850034 0.95365584
0.37353578 0.1808153 0.21589406 -0.00819434 0.0016193613 0.27256417 -0.25594816 0.06161779
0.46348095 0.42309877 0.22714208 0.25131276 0.09283228 -0.16170768 -0.0034233194 -0.22041452
-0.13660674 0.5239646 -0.07924543 -0.50593793 -0.13705137 0.05878483 -0.13963279 0.119453065
0.104872115 -0.25865167 0.13621606 -0.21760343 0.35443515 0.41409853 -0.044535406 -0.39797142
-0.1367381 -0.3741124 -0.1369925 -0.116892785 0.20822272 0.46567592 -0.21153617 -0.48496154

bias f4 [64]
00000000: ad27 4dbe 57d4 e1bd 7e32 80be f58d 943e
00000010: c1f5 0a3e 8544 943e 32f8 8dbe a352 80bb
00000020: e38f 9b3d c184 6d3e 7b5a cebc 5327 f53e
00000030: 463d e4bd 2b16 1e3d 988b a0bc 478a 40bd
00000040: 6b62 07be 9158 6ebe 5255 6e3e fc72 063e
00000050: 9ca7 c8bd a1c3 2e3e ae4f 2b3e 38a9 0ebe
00000060: dbae 4cbe e32b cc3d ad40 f23c 7590 1bbe
00000070: 3e51 9abe 6102 e63c 0ba0 253e b9e8 8dbe
00000080: 8015 1cbe 426a d93d 51f6 97be a87a 7d3e
00000090: 22e8 5e3e 8092 dbbd 2049 12be bd52 d83d
000000a0: c3fa 1fbe dfd5 953e 5857 aa3c 3d90 e7bd
000000b0: 2847 4cbe 3975 d23d afbc 1bbe 1e4b 8fbe
000000c0: 478a 0d3e f2e6 08be 011d 423a 4f23 773e
000000d0: ba49 c0be fcac b4be d962 e5be ff24 e43d
000000e0: 0a22 f53c 9872 893e abc9 553e 97e3 be3e
000000f0: 2a3e aebe bef4 063e 1b27 b43e 0341 04be
-0.20034666 -0.11026829 -0.25038522 0.29014555 0.1357031 0.28958526 -0.2772842 -0.003916101
0.075958036 0.23195173 -0.025189629 0.47881564 -0.111444995 0.03859536 -0.019597813 -0.04700687
-0.13221137 -0.23275973 0.23274735 0.131298 -0.09797594 0.17066814 0.16729614 -0.1393174
-0.19988577 0.09969308 0.029571855 -0.15191825 -0.30140108 0.028077306 0.16174333 -0.27716616
-0.15242577 0.1061597 -0.29680112 0.24753821 0.21768239 -0.10721302 -0.14285707 0.10562656
-0.15623002 0.29264733 0.020793602 -0.11306808 -0.19949019 0.10276265 -0.15208696 -0.27986997
0.1382228 -0.13369349 0.00074048346 0.24134563 -0.3755625 -0.35288227 -0.44801977 0.11139869
0.029923458 0.2684524 0.20877711 0.37283012 -0.34031802 0.13179299 0.35186085 -0.12915425

weight f4 [32, 32]
00000000: e0c2 c9bd 8a1e 4bbe 418c 583e 6e5e 253c
00000010: b8ac 19be 50ab 673c cfcb 80bd 3a7e ac3d
00000020: dd3a 24be 7232 0cbf b971 da3d 907a 6e3d
00000030: 8b09 0dbd ea69 4b3e 3e7c 4abe 8364 933e
00000040: 6bc1 893c 6535 893e 287c 3f3e 36ae b03e
00000050: 672f 9abe 1d25 483e 8844 193c 49a7 02bf
00000060: a2dc 3fbd 3ba5 073e d64d 2a3e 3d63 0a3e
00000070: 8e63 213e a0b5 f03d ebae 8cbd 9a66 a43e
00000080: 9591 303e 2848 35bd 8dae 13bf 2050 9f3d
00000090: 713f 59be 0acf 6b3d 1ebc 2f3e fe77 8dbd
000000a0: 89fb b2be 6934 aebe b452 8ebe da67 9fbe
000000b0: 5c9a a73e a7a8 12bd 0f0c 42bd e582 cfbd
000000c0: 196f 5b3c 9f1f 513e 462d 7a3e 682e f03e
000000d0: 5511 313e 31eb d7bd 16c8 d9bc b159 833d
000000e0: 9545 ba3d 5ae7 fdbc ed21 203e 5fc3 1c3e
000000f0: 3d40 52be 4d13 a3be 60cf 643e a008 e1bd
00000100: 2cee 963e ad5c 60be d4df 243e 38b5 21bf
00000110: 7e64 80be be16 153d 3c5c 5dbe 2f9d 58be
00000120: 0cf1 47be 6d09 643e fa17 293e db45 cabd
00000130: a828 dabe 5492 c23e 2264 c7be 2ee2 9a3c
00000140: 290c 613d b502 cb3e b675 c03e ca37 02bf
00000150: 22b6 a9bd abc1 9f3d a840 0abe 4f87 b7be
00000160: 3e37 d2bd dcc2 b5bd d571 e03c 4c8f cabd
00000170: b2b3 5a3e ac1a 72be 478a 8cbe 2535 5bbd
00000180: 97cc a83e aeed 4bbe dcdb 363e 8ba7 393e
00000190: 6d47 f2bd d6b7 463e 02c7 bc3e f2f2 6cbe
000001a0: 8194 54be 4075 933e d0b3 053e 3074 14be
000001b0: 6873 b33e 5bda 34be 6b23 42bd fa33 85bc
000001c0: d0c6 82be fa46 153d ed13 1fbe e935 933e
000001d0: f8f1 41bd 0436 2f3d 3060 283e 18b1 763d
000001e0: 35b4 7bbd 5d37 163c 6fd8 b53d cb9f b73e
000001f0: e44d e2bd 31ce 1cbb 45df 783e 1958 993d
00000200: 3261 a5be 8705 36bd e58b 613e 654c edbd
00000210: 926c 423e 0fb9 cebd 1f50 b23d 8100 903e
00000220: a31d a23d 5752 92be 3e87 ca3d fdad 4c3e
00000230: 8c19 06be f355 b53d fcba df3c 454a 6f3d
00000240: 6af3 a1bd 1916 e6bb 4524 9e3d 4891 933e
00000250: 76cc 3e3e ba89 b4be c1ff 183e 0648 2c3e
00000260: 08a3 263e 27e8 c33e 526d 62ba 02af 72be
00000270: 0d12 aa3d cfe6 bc3e 2b4b ea3c 33b3 25be
00000280: b9ec fb3e b2dd 53bd aa24 e43b 1daa 00bf
00000290: f3fb d2bc 4e4c 6e3e 82b7 d3bc ed41 04be
000002a0: 8fed 8ebc b816 143e f234 d93d 4e80 cb3d
000002b0: f1a5 18be 23f4 223e 726c 70be 1afe eebd
000002c0: ae79 b7bd 37d4 0abe 2392 f73d 4337 c3be
000002d0: f271 09be 01d9 e93d da03 5dbe 20f0 8dbb
000002e0: 4020 4ebe c2ec a73e 3c3e cf3c 2c6e 083d
000002f0: 33b2 d2bd b3e2 91be 9860 69bd 773a 133d
00000300: 51a0 39be e8ce 483c 0ce9 f83d 7e9f 373d
00000310: d8a1 b33c 053e febd a2d9 043f c9d6 943e
00000320: f2a7 e63d 135d 343e c038 673d c599 ba3e
00000330: 2461 4ebe f4f8 3dbe 230f 663e b291 20be
00000340: 37fd 9ebd b20b 94be 013b 84be cc90 843d
00000350: 8975 4c3d 591f b5be 2fe5 bb3e 365e eb3e
00000360: 9b61 403e 8930 483e d545 5c3d ceb3 05be
00000370: c76c d9bd 3c47 15bc 3702 b43d 072f b6bd
00000380: ae9a 6c3e 1216 d6bc cbfe 263e f5ef 8cbe
00000390: cb7f b23d f3e8 773e f98c 973e d53f 3b3e
000003a0: 5d48 fabd f1de 043c 63a1 eabd dedc 493e
000003b0: 035e 913e b351 e93d 82e5 f6bc 6870 8b3e
000003c0: dc9f ae3d b047 1c3e 3cd2 1b3d 5074 f83e
000003d0: 9547 173e 698c 983d bc0d ca3d e767 63bd
000003e0: 2ab7 2a3e 483a ca3d 023e 9e3d 79b6 553e
000003f0: 24b2 f63c 08d8 93bd f632 2e3e 7c01 c2bd
-0.098516226 -0.19835868 0.21147253 0.010093315 -0.15007293 0.014139965 -0.062888734 0.08422513
-0.1603808 -0.54764473 0.10666222 0.058222353 -0.03443293 0.19864622 -0.19773957 0.28787622
0.016815862 0.2679855 0.18699706 0.34507912 -0.3011429 0.19545408 0.009354718 -0.51036507
-0.04684127 0.13246624 0.16631255 0.13514419 0.15760633 0.11753392 -0.068693005 0.3210953
0.17243035 -0.044258267 -0.5768822 0.077789545 -0.21215607 0.057570495 0.17161605 -0.06907652
-0.3495753 -0.3402436 -0.27797472 -0.3113392 0.32734954 -0.03580537 -0.04737478 -0.10132388
0.013393187 0.20422219 0.24431333 0.46910405 0.17291768 -0.10542906 -0.026584666 0.06413592
0.09095303 -0.030994106 0.15637942 0.15308903 -0.20532317 -0.31850663 0.22344732 -0.10987973
0.29478586 -0.21910353 0.16101009 -0.6316714 -0.2507667 0.03639864 -0.21617216 -0.21153711
-0.19525546 0.2226922 0.16513053 -0.09876605 -0.42609143 0.38002264 -0.38943583 0.018906679
0.054943237 0.39650503 0.37589806 -0.5086638 -0.08286692 0.07800611 -0.13501227 -0.3584542
-0.10264443 -0.08875057 0.02739803 -0.09890613 0.21357611 -0.23642987 -0.27449247 -0.05351748
0.3296859 -0.19914886 0.17857307 0.18130319 -0.1183003 0.19406065 0.3687058 -0.23139551
-0.20759775 0.28800392 0.13056874 -0.14497447 0.35048985 -0.17661421 -0.04739706 -0.016260136
-0.25542307 0.03644464 -0.15534945 0.28752068 -0.0473499 0.042776123 0.16442943 0.060227484
-0.061451156 0.009168473 0.08879172 0.358641 -0.11050013 -0.002392661 0.2430392 0.074875064
-0.32300717 -0.044438865 0.22026022 -0.11586837 0.18986729 -0.10093891 0.08706688 0.28125384
0.07915809 -0.28578445 0.09889077 0.19988246 -0.13095683 0.08854284 0.02731084 0.05842044
-0.07907756 -0.007021677 0.077217616 0.28821778 0.18632683 -0.35261327 0.14941312 0.1682435
0.16273129 0.38263056 -0.0008637506 -0.23699573 0.08304224 0.36894843 0.028600296 -0.1618164
0.49204043 -0.051725097 0.0069623785 -0.5025957 -0.025754904 0.23271295 -0.02584434 -0.12915774
-0.017447261 0.14461792 0.10605802 0.099365816 -0.14907052 0.15913443 -0.23478869 -0.1166956
-0.089587554 -0.13557516 0.1208842 -0.381281 -0.13422373 0.11418343 -0.215835 -0.0043316036
-0.2012949 0.3279782 0.02529823 0.033308193 -0.10287895 -0.2849327 -0.056976885 0.03594443
-0.18127562 0.012256362 0.12153825 0.044829838 0.021927759 -0.12414173 0.5189458 0.29070118
0.11262502 0.1761363 0.056450605 0.36445442 -0.20154244 -0.18552 0.22466712 -0.15680578
-0.07763141 -0.28915173 -0.25826266 0.0647293 0.049916778 -0.3537548 0.3669829 0.45970315
0.18787234 0.19549765 0.053777535 -0.13056871 -0.10616451 -0.009111222 0.08789485 -0.088956885
0.2310588 -0.02613357 0.16308133 -0.27526823 0.08715781 0.24209957 0.2959974 0.18286069
-0.122208335 0.008109794 -0.11456563 0.1971316 0.28392038 0.11392536 -0.030138735 0.27234197
0.085265845 0.15261722 0.038042292 0.4852624 0.147734 0.07448656 0.09865901 -0.05551901
0.16671434 0.098743975 0.07726671 0.20870389 0.030114241 -0.07218939 0.17011628 -0.09472939

bias f4 [32]
00000000: 04f2 27be 90c4 a4bd a2ee 603e 61ed 92bd
00000010: b83f 62be 211e f53d 22f3 863d 236b 1e3e
00000020: 52b6 ca3d 3e00 c5bc 0363 f63d 90e7 233e
00000030: bdeb d0bd 84bb 4fbb 13d9 0bbd 3a3d 353e
00000040: 3a4d 42be bb21 b73d c4ff 4b3d a30d 2bbd
00000050: 67c0 213e 8e29 ffbd 3932 b2bd 08c5 b43d
00000060: 654c bebd c629 7a3d a129 3bbe 69e6 83be
00000070: a6d3 4fbe 4610 39be 2c36 ddbc a56d 82bc
-0.16400915 -0.08045304 0.21966031 -0.07174183 -0.2209462 0.11968637 0.06589343 0.15470557
0.09898056 -0.024047967 0.12030604 0.16006303 -0.102012135 -0.0031697461 -0.034142565 0.17699137
-0.18974772 0.089419805 0.049804464 -0.041761052 0.15796052 -0.12459098 -0.087009855 0.08826643
-0.09291915 0.061074995 -0.18277599 -0.25761726 -0.20295581 -0.18072614 -0.02700337 -0.015921423

weight f4 [32, 64]
00000000: 08c8 50bd a0ad 873b 084a 7ebd 0815 413d
00000010: 4820 dabd c4a8 bb3d 3412 babd de87 cbbd
00000020: 5ac3 a1bd a8e1 673d 142e 3dbd e498 3f3d
00000030: 5446 d9bd 3e52 9bbd 80fe 3bbd 783c c9bc
00000040: 044b c3bd 5ea0 a73d b87d f1bc 8058 243d
00000050: 5c07 b53d 00c7 be3c bc01 0c3d 321b f73d
00000060: b4ea 66bd 382d 223d 0ccc 63bd 48f3 b63d
00000070: c074 cc3d 6006 ecbd 8888 da3d c47c 743d
00000080: dc1c 5f3d 0cc7 523d 04d0 d43d 6035 87bc
00000090: b27f d8bd f8ea 12bd 584b b4bd f062 073c
000000a0: 4030 bfbc 8650 89bd 0035 3abc 0e89 f23d
000000b0: 7089 21bc 600c 823b 20b4 9fbc e0fa a03c
000000c0: 6819 e43d cc8a 9c3d 84bd 353d a886 de3c
000000d0: b073 f13c 78cd 453d 2853 84bc bced edbd
000000e0: 3e50 9ebd 9884 da3d 00d5 f43b fa60 cfbd
000000f0: 5083 a13c 8a86 d33d 80eb f1bd 6a59 acbd
00000100: 78e9 4bbd 4067 a43b b0d3 eebc a00e 61bc
00000110: 6692 f9bd 48c2 6f3d c8b3 e03d 1e7a 9c3d
00000120: 2a48 b5bd ca5c cebd f49b 543d 00fb 373b
00000130: 78e2 513d 9826 fabd 4037 f4bb da8a b43d
00000140: cc85 6d3d 4093 953b 8056 c93c a0e7 41bc
00000150: e4c1 8cbd 047c 41bd 18e6 9bbd cea2 d43d
00000160: 96df 8c3d d80e 333d 7250 c4bd 0289 c53d
00000170: ac88 203d 7419 b13d 6c6a 49bd b815 d93c
00000180: 32f4 f93d 6433 ac3d a84f cd3d 4006 d7bc
00000190: 620a c33d e881 c8bd 2021 313c 5e24 90bd
000001a0: f8cf eebc 341f 03bd c03a 193c eafe e83d
000001b0: a47b 7d3d 00d0 0aba 70b8 b53d 4a30 83bd
000001c0: 62ef 833d a0ea 3dbc e82f b2bc 30c4 6f3c
000001d0: ea1e c4bd 50a9 6c3c 6427 2c3d cedc da3d
000001e0: 5c68 1fbd 8855 383d 06e0 ff3d d4a1 5bbd
000001f0: 065a f33d 3434 7ebd e0af 613d 7893 483d
00000200: 1804 0f3d 1272 ca3d a4ee 4ebd 3890 063d
00000210: 00e6 373a 5a8c c0bd 38a4 f8bc 74f6 aabd
00000220: 3062 623d 601b 383c b0a1 483c 6853 1bbd
00000230: 0091 1d3a 0c41 1fbd b81d 133d 949e f83d
00000240: 181b 9b3c 30c6 62bd 3a5f 9cbd 108c 1c3c
00000250: a2e9 bdbd 266c c0bd e09f a6bd ece5 2dbd
00000260: 8096 173c da48 b03d 5851 463d 5c20 c43d
00000270: e2bd a0bd b0d3 2c3c b08d e3bd 32db 923d
00000280: 6869 d53c 629b f73d 0012 b6bd 464b cd3d
00000290: 3a1f d83d 02fb ce3d 981e 923c 88c6 e83d
000002a0: 3cf7 aa3d 0eff be3d 300a 05bc 3474 c4bd
000002b0: 00e2 cbba 080a c03c 1861 aebd 04da 92bd
000002c0: 6870 f5bd f47a 33bd 58fe de3d 9819 af3c
000002d0: 202f fabb c07c a43b b0a0 9f3d 7410 e2bd
000002e0: e686 c5bd 9039 2abd 2855 93bd 7e0a 843d
000002f0: a8e2 b43d b860 f8bd 1243 d9bd 204c f9bd
00000300: 8027 413d f20a ce3d b07c c6bd a008 6dbd
00000310: d0ed 223d 0c2a a7bd 7e77 d93d d0c1 ee3c
00000320: 4c88 0ebd d004 053c 20a0 1f3d c80c 35bd
00000330: f45c c6bd 0041 5c3a 8037 153b 8031 253b
00000340: c06e 95bc ee5e a43d d8e0 0ebd 403b 46bc
00000350: 3087 523d ce22 a1bd a817 093d 286c e2bc
00000360: c497 753d f2de 8abd a061 973b c05a 483c
00000370: 0afa cdbd fe25 babd dc5b 443d 5c05 15bd
00000380: 9c09 983d 90e4 fcbd a418 7dbd 82db d2bd
00000390: 8487 4c3d 407f 6dbb 78ff bebc 405d aabc
000003a0: 241a c8bd 5c33 113d 4031 4c3b 3eab b0bd
000003b0: c8a8 403d c0a6 24bb fc96 f7bd 24b5 893d
000003c0: 5cee 883d 98ee c0bc 8ec0 b0bd 6074 a43b
000003d0: 242c c13d b653 ea3d a43a c1bd 2841 67bd
000003e0: ee53 c73d 2441 7a3d a277 9e3d 08d7 7ebd
000003f0: 868d dc3d ea72 d2bd c04c c5bb 0017 2a3b
-0.050972015 0.0041405708 -0.06208232 0.047139198 -0.106506884 0.09163049 -0.09085503 -0.09938024
-0.078985885 0.056611687 -0.04618652 0.046776667 -0.10609117 -0.07584046 -0.045897007 -0.024564967
-0.095357925 0.081848845 -0.029478893 0.040123463 0.08839294 0.02328825 0.03418134 0.12065734
-0.056376174 0.039593905 -0.055614516 0.08933121 0.09983206 -0.115246534 0.106705725 0.0596893
0.05447088 0.051459357 0.10391238 -0.016504943 -0.10571231 -0.035868615 -0.08803433 0.008263335
-0.023338437 -0.06704812 -0.011365175 0.11842547 -0.009859428 0.0039687604 -0.01949507 0.019650877
0.11137658 0.07643661 0.04437019 0.027163818 0.02947411 0.048291653 -0.016152933 -0.1161761
-0.07730149 0.106698215 0.0074716806 -0.10125919 0.019715935 0.10328396 -0.11812496 -0.08415492
-0.0497832 0.005017191 -0.029153675 -0.013736397 -0.121861264 0.05853489 0.109717906 0.076404795
-0.08851655 -0.10076292 0.05190654 0.0028073192 0.051241368 -0.122143924 -0.0074528754 0.08815546
0.057988927 0.0045646727 0.02457738 -0.011835009 -0.06872919 -0.04723741 -0.07612246 0.10382615
0.06878583 0.043715328 -0.09585656 0.09645273 0.03919284 0.08647433 -0.049173757 0.026499614
0.1220478 0.084082395 0.10024959 -0.026248097 0.09523465 -0.09790403 0.01081112 -0.070381865
-0.029151902 -0.03201218 0.009352386 0.11376746 0.06188549 -0.00052952766 0.08873069 -0.06405695
0.06442143 -0.0115915835 -0.02175136 0.014634177 -0.09576209 0.014444664 0.042029753 0.106866464
-0.038917884 0.045003444 0.12493901 -0.05362113 0.11882405 -0.062061504 0.055099368 0.048968762
0.034916013 0.098850384 -0.050520554 0.03285238 0.00070151687 -0.0940177 -0.030351743 -0.083477885
0.05526942 0.011236995 0.012245581 -0.03792134 0.00060106814 -0.038880393 0.035917014 0.121396214
0.018933818 -0.055364788 -0.076353505 0.009554878 -0.092730775 -0.09395628 -0.081359625 -0.0424556
0.009252191 0.08607645 0.04841742 0.095764846 -0.07848717 0.010548517 -0.11111009 0.071707144
0.026051238 0.12090184 -0.08890152 0.10024123 0.10552831 0.1010647 0.017836854 0.11365992
0.083479375 0.093259916 -0.008120105 -0.095924765 -0.0015555024 0.023442283 -0.08514613 -0.071704894
-0.119843304 -0.04381843 0.10888356 0.021374509 -0.0076350123 0.005019754 0.077943206 -0.110382944
-0.096448705 -0.041558802 -0.07193977 0.06447314 0.08832294 -0.12127823 -0.10608496 -0.12172723
0.04715681 0.100606814 -0.09691751 -0.057869554 0.039777577 -0.08162317 0.106184945 0.029145151
-0.03479795 0.008118823 0.038971066 -0.044201642 -0.09685698 0.000840202 0.0022768676 0.0025206506
-0.018241286 0.08025919 -0.034882396 -0.012099087 0.051398456 -0.078679666 0.033469826 -0.027639464
0.059959188 -0.06780805 0.004619792 0.012228668 -0.10057457 -0.09089278 0.047939166 -0.036382064
0.07423708 -0.12348282 -0.061791077 -0.10295774 0.049933925 -0.0036239177 -0.023315176 -0.020796418
-0.09770611 0.03544937 0.0031157285 -0.08626412 0.047035962 -0.0025123805 -0.12089345 0.06724003
0.066860884 -0.02355127 -0.08630477 0.005018756 0.09432247 0.11441748 -0.09435013 -0.056458622
0.09732805 0.06109728 0.07737662 -0.06221679 0.10769181 -0.10275824 -0.006021112 0.002595365

bias f4 [32]
00000000: e0a0 c43b fa90 f5bd 2842 823c 5c20 343d
00000010: f61a e53d 3cf4 25bd 5cac 383d 4091 2bbd
00000020: b40b 34bd e8d6 e2bd a823 d83c c2c6 ab3d
00000030: 7269 8ebd e452 513d f8ba 9fbc a4c1 b5bd
00000040: 4060 5a3c e278 f9bd 9e3b 893d 9841 e2bc
00000050: 34c5 eb3d 2035 973b 8a30 f8bd d2a8 c63d
00000060: 10fb dfbc e65a afbd bc5c ec3d 6047 3f3c
00000070: 34ff 253d 5276 ddbd 78d2 34bd e666 cd3d
0.006000623 -0.11990543 0.015900686 0.043976173 0.11186783 -0.040516123 0.04508625 -0.041886568
-0.043956473 -0.11076146 0.02638419 0.083875194 -0.06953706 0.05110444 -0.019498333 -0.08874825
0.013328612 -0.1218126 0.06700824 -0.027619168 0.11512223 0.0046144873 -0.12118633 0.09700169
-0.027341396 -0.085622594 0.11541125 0.011674732 0.040526584 -0.108135834 -0.04414603 0.10029392

weight_ih_l0 f4 [128, 32]
00000000: a462 4dbd 9aca 483d caac 9cbd 9e92 4cbc
00000010: 756c 32be aa50 593e bcbd 0fbe 529a bcbe
00000020: 354f e2bd 9f5b 833e 5ba0 55be e574 03be
00000030: 3499 583c 7acc 95bd 77f4 cc3d d843 633e
00000040: 8b2a 873d e5b4 1f3e f9e3 8dbe de1b 303d
00000050: 2392 97be 256b b5bd 3f9e 82be fd9b a1be
00000060: c361 39be ea31 7fbe 7f76 6bbd 00e8 c8bc
00000070: 4022 563d a177 78be 51c0 8c3e 6866 dabe
00000080: 8ec8 8f3c 1971 efbd ca86 88be aa67 2bbe
00000090: 7a3a bd3d 08c3 6c3d 453b a23d 6ae5 84be
000000a0: d0c1 dbbd 3c92 923e e7fa 103e 53bc 58bc
000000b0: 2b41 aa3e d367 e43c d4da a7bd 355f 5fbe
000000c0: 96a1 b13c d4a1 bb3d b146 bcbd c965 ed3d
000000d0: 5a35 a9be ff98 a0bd fc47 2abd da2e dcbe
000000e0: cfc5 623d 9409 3f3c 55fa 573e 6f86 3d3d
000000f0: aa3a 10bd 134d 503c f3b9 153e 7db4 1abe
00000100: 1248 f43d 71e2 853e 589e c03d e928 4dbe
00000110: 204a a03d a76f 5ebe eb78 7e3d 9002 a7be
00000120: 0022 5d3c 89d6 833e 3c1d 4f3e 19be 8cbe
00000130: 24b4 a9bd 5421 d8bd 1c72 033d 09f4 0abe
00000140: efab c53e 3a23 e93e afe0 debc 9fa3 f83d
00000150: ec02 3cbd a588 ee3d d2bf 85be 07d9 1abf
00000160: 5bd4 b5bd 9f51 d0be 9a37 f73d 89e9 8d3e
00000170: 2675 073e cfea 34be aced 873c d11c 9dbb
00000180: 3fed 433d 63d3 123d 57e5 10be c89d 09bf
00000190: 7d02 45be ec4d ccbd 60ac 8b3d 281a 1ebf
000001a0: 7f8f bb3d 2080 833e 5285 00be 2cbc 463e
000001b0: 0b2e ae3e ed2b 1cbe 3418 133e 2c76 ab3e
000001c0: 34ab a43d ddf8 6b3e de9d 5bbe e793 63be
000001d0: c8b0 143d dd93 79be 1ffa 30be be02 12bf
000001e0: c2c6 24be b89a 99be fd4b 41bd 49b1 9a3d
000001f0: f913 4abc b324 ba3d 91a7 6d3c 9fcf 10bd
00000200: f2ef 03be 39db 903b cdd5 e33d 4978 e3be
00000210: a8c3 8abe 2664 b1bd b14c afbd 5fdc c9be
00000220: fe1d 28bd 7558 253e 4f79 9f3d 9b6f 513e
00000230: 07f1 cf3e 042c 50be dd75 3ebc 2870 073e
00000240: ed75 9e3d 9158 143f dd12 9abe 11b0 92be
00000250: 7ffb 47bd 6be4 a9be 9e5d 24be 745e 09bf
00000260: 3310 6fbe efb0 8abe da5c 953d 1648 4b3e
00000270: f6ec 4f3e 28f7 efbd 8456 25be 12a8 94bd
00000280: e61f 2abe 5a84 52bc 45ac 20be 4735 41be
00000290: a006 58be 0663 1a3e 3447 2ebe 1957 81be
000002a0: 26a9 99be ed1e 143e 1ebd 65be a2b6 523c
000002b0: 93e3 343e 424c 653d 90f9 273d 2998 8a3e
000002c0: f0fb a63e 235e b13d fc1a 4d3d 7afd 91be
000002d0: e8b1 b3be 69b3 d4bd 8bb2 513d 18e4 d1be
000002e0: 7243 0abe 9d1d 8cbe 2e8b 713d a97b cd3d
000002f0: 5425 6a3d 53bf b6bd 7506 83be a8ce 6abe
00000300: 50fe 653e ec76 e73d 183d c3be 6986 953d
00000310: 3d63 413e 1bc9 90bd 6523 c93d 069f 7abe
00000320: a3f6 9cbd 7480 06be 6ac9 febd 5b26 59be
00000330: 7d4f 40bd 8dd9 b6bc 13e7 e43c 6139 0cbe
00000340: 13c0 373e f797 1e3e 0dc1 2cbe 83f5 c63d
00000350: de65 73be c7b6 8f3b 3908 d03c 6f47 e5be
00000360: be82 12bd ab7d 563d a8a7 21bc af6a 193e
00000370: 2f65 b2b9 fcde 23bd 4253 e1bd 2f91 13be
00000380: 7ef2 ea3b 3135 e33e a377 94bd 33e7 c6be
00000390: 8066 07be ee19 fcbe 2aa8 c7bd 6ba4 1abf
000003a0: e13a 57be 4893 4f3e 7dc9 463d 2ee9 81be
000003b0: c83f 023d 3f11 18bf 63e8 6a3c ef37 cebd
000003c0: 8d78 443e ae9a 953e 4adf 65be 74e8 103e
000003d0: 7b03 b0bd a8b6 9d3d 58c4 df3c dc09 27bf
000003e0: 7096 863e f5d2 bebe d6a2 083f f1ef b13e
000003f0: c94f 923e 5a70 473d 4884 6ebe d640 3a3e
-0.0501429 0.04902134 -0.076501444 -0.012486128 -0.17424186 0.21222177 -0.14037222 -0.36836487
-0.11050264 0.2565584 -0.20861952 -0.1283756 0.01322012 -0.073143914 0.100075655 0.22193849
0.06599911 0.1559635 -0.27712992 0.042995326 -0.2960368 -0.08858327 -0.25511357 -0.31564322
-0.181037 -0.24921384 -0.057486054 -0.024524689 0.052278757 -0.24264385 0.27490476 -0.42656255
0.017551687 -0.116914935 -0.26665336 -0.16738763 0.09239669 0.057803184 0.07921461 -0.2595628
-0.10730326 0.28627193 0.14158212 -0.013228494 0.33252844 0.027881538 -0.08196035 -0.21813662
0.021683495 0.09161726 -0.09193171 0.115916796 -0.33048517 -0.07841682 -0.041572556 -0.43004495
0.055364426 0.011659998 0.21091588 0.046270784 -0.035212196 0.012713688 0.14621715 -0.15107913
0.11927809 0.26149324 0.09405202 -0.20035137 0.07826638 -0.2172228 0.062127035 -0.32619143
0.013496876 0.25749615 0.20225996 -0.27488783 -0.08286312 -0.10553232 0.032091245 -0.13569655
0.38607737 0.45534688 -0.027206747 0.12140583 -0.045901224 0.116471566 -0.2612291 -0.6048741
-0.08878394 -0.40687272 0.12071152 0.27717236 0.13228282 -0.17667697 0.016592823 -0.004794695
0.047833677 0.035846125 -0.14149986 -0.5375638 -0.1923923 -0.099758 0.06819987 -0.6175866
0.09158229 0.2568369 -0.12550858 0.1940772 0.34019503 -0.15251131 0.14364702 0.33488595
0.08040467 0.23044153 -0.2144694 -0.22224389 0.036301404 -0.24372812 -0.17282914 -0.57035434
-0.16091445 -0.30000854 -0.04719161 0.07553346 -0.012333863 0.09089031 0.014505283 -0.035354253
-0.128845 0.0044206646 0.11124764 -0.44427708 -0.271024 -0.0866168 -0.085595496 -0.39425942
-0.041044228 0.16147025 0.0778681 0.2045273 0.40613577 -0.2032929 -0.0116247805 0.13226378
0.07737336 0.5794764 -0.30092517 -0.28649953 -0.04882383 -0.33182082 -0.16051337 -0.5365975
-0.23346023 -0.27088115 0.07293101 0.19851717 0.20305237 -0.11717063 -0.16146284 -0.07258619
-0.16613731 -0.012848938 -0.15690716 -0.1886798 -0.21096277 0.15076837 -0.1701935 -0.25261763
-0.30011863 0.14464922 -0.22435424 0.012860926 0.17664938 0.05598093 0.041009486 0.27069214
0.32614088 0.08660533 0.050074562 -0.285137 -0.3509667 -0.10385782 0.051195662 -0.40994334
-0.13502291 -0.27366343 0.058970623 0.10033352 0.057164505 -0.08923211 -0.25590864 -0.22930396
0.22460294 0.113019794 -0.38132548 0.07301027 0.18885513 -0.07069608 0.09821204 -0.24474725
-0.0766423 -0.13134938 -0.124407604 -0.21206038 -0.046950806 -0.022320533 0.027942216 -0.13693763
0.17944364 0.15487657 -0.16870518 0.097147964 -0.23769328 0.0043858024 0.025394546 -0.44781062
-0.035769217 0.05236594 -0.0098666325 0.14982103 -0.00034026193 -0.040007576 -0.11002208 -0.14410852
0.0071700206 0.4437652 -0.072493814 -0.38848266 -0.13222694 -0.49238533 -0.097488716 -0.6040713
-0.21018554 0.20271027 0.048531998 -0.25373214 0.031799108 -0.59401315 0.014337632 -0.10069262
0.19186611 0.29219574 -0.2244846 0.14151174 -0.08594414 0.077008545 0.027315304 -0.6524942
0.2628665 -0.37270322 0.5337347 0.34753373 0.28576496 0.04869113 -0.23292649 0.18188795

weight_hh_l0 f4 [128, 32]
00000000: c806 44bc 5db6 203e 7bf2 bfbd 95c9 21be
00000010: f529 fabd 2b8e bb3c de6a 963e fca2 513d
00000020: 24c3 2d3e ae0b b7bd fc75 81bd 288b 95bc
00000030: 25a3 413c 6611 c6bd ed73 f93d c7ae c63d
00000040: 8c06 94bb 77b5 49bc 7c0e 273e c2c1 12bd
00000050: a008 873e a3b6 15bd 78c5 d4bd 095c 1fbe
00000060: 38ed 453e c965 20be ad29 a43d 1344 433e
00000070: 3c2c eabd 3c73 cebd 55f0 bc3d d6d1 7bbd
00000080: 890d dd3b 736f 123e a7fc 5abd 9312 983e
00000090: b2ec e4bc 3236 053d 8485 353e fee7 d1bd
000000a0: 704e 213e 6c01 0a3e 1c51 f1bd e038 c1bc
000000b0: bb6d 9a3d bdfc 49bd b1d9 503d 2075 b2bc
000000c0: e74f 08be a9a1 0a3d 3ea7 d83d 255b ebbd
000000d0: 3e99 723d 0b2e 0ebe 4be1 a7bd ae71 91be
000000e0: 79b5 5d3d 7eef 03bd 122c 1a3e cbc0 1ebc
000000f0: daba 263e 4be0 d1bc fdee cb3d 828d b4bd
00000100: bc8f 8fbd db62 e93d 13be 2abe c122 023d
00000110: 200c 753e 8752 213e 217e 8b3e 3634 023d
00000120: 9593 223e 95fa 0c3e 0387 57be 6867 013e
00000130: c74c c33b 324a b23d 4450 efbd c740 3e3e
00000140: 96f6 e13d 3e4a 053e b2d2 ad3a a4c7 1dbe
00000150: 03ef ffbd 4f80 c8bd 95e9 823c 1b4c acbe
00000160: 142f 833e 419e 0fbe 81ca d23d a5d7 4cbd
00000170: c806 623d 0a08 10bd 5914 81bd 806c 9ebd
00000180: b757 bd3d ab8c 703e ea6d 553d e35f 21be
00000190: 053e 79bd b45e a8bd 34ef 25bc 93b5 483e
000001a0: ee22 143c 0314 693e f79f a13d db6a 33be
000001b0: fe71 0ebe 51ec 1abe 3388 05be d53f d53d
000001c0: 5788 38be 195e 50be 2d70 97be 28f6 073d
000001d0: 10b0 133d f671 383d 94af 23be 2838 f1bd
000001e0: e181 8f3d b290 613e 85e7 61bd 8ccd 093e
000001f0: ccd8 393e a14b 3d3e f5ab 9fbd dfb6 583e
00000200: 0588 463c 7e01 5e3e 5bdb 153e 5d52 28bd
00000210: 4ae3 2bbe 7605 a9be 931e 9cbd d5db 9ebd
00000220: a750 b4bd f87b d33c bfe9 3d3d 12ba 8bbd
00000230: 442d 7d3b 9d7b 6fbe 611f d9bc a2b9 0ebc
00000240: 3877 de3d 28cb 8abe c2df 52be a8b1 36be
00000250: c17b c63d 6018 50bc 8b18 f0bc e985 9e3d
00000260: f961 823e 378c 1c3c 3e82 dcbc 73cf 223e
00000270: 5a67 373e f367 9a3d 7daa d2bd 8ff3 aa3d
00000280: 9fc0 33be 6f70 3bbd 3058 1cbd 29a6 f3bc
00000290: 7745 113d cc62 203e bada 133e 5091 4c3d
000002a0: e246 203e 69a0 ed3d 66f9 8f3c 7b10 db3d
000002b0: 898a 703e f29b 83bd a2f7 c83d 19bf e5bc
000002c0: a954 0ebc 5fa0 27be 0d4c 963c e6b8 40be
000002d0: 8835 d2bc 1d91 7ebe 336b 41be d472 a2bd
000002e0: dd21 e13d e2a3 05be 31b2 b5bd a8b1 bcbd
000002f0: 3120 e23d 0594 27be bc7b b33d 6626 193e
00000300: c39d 50be 2c8d 9f3e 8f97 be3e 5aaf d83e
00000310: b0e9 6f3e 9773 5f3e d55c ca3c 3dd0 27bb
00000320: fe17 953e 7639 5d3e 9dba 75bb 64be 1d3e
00000330: 9d13 af3d ec4c 223e 54df 793c 9f58 90bd
00000340: 4147 47be b5e5 3cbe ce77 973e 282e de3d
00000350: bd20 9abd 65e5 58bd bbbb 123e ddb4 54be
00000360: 874a fd3d c460 01be 225d d5bd 5bcd 153b
00000370: ca77 35be 19b7 af3d 62ec 193e b051 463e
00000380: b2d6 dd3d 3a8c b1bd 8e3f 06bd eca0 353e
00000390: 5ed8 a13d 48ca 0b3e 4abf 3f3e f00a 2b3c
000003a0: 3344 a4bd bfc8 c53c e7cb 22bd 8c46 b13d
000003b0: 3449 b63d 067f c03c a4ea e6bd c5aa c7bc
000003c0: 4053 27be b55f a6bb 6728 883e 0f1c 0c3e
000003d0: eecc 08be 259e 07be 430a bd3d baad 20be
000003e0: 7cb8 ac3b c2af 5ebd 8ae6 c1bd 51f7 95bd
000003f0: cc2c 2fbd a9c4 843b 90ec 083e e96e 623e
-0.011964507 0.15694566 -0.09372421 -0.15799554 -0.12215034 0.02289494 0.29378408 0.051180825
0.16968971 -0.089377746 -0.06321332 -0.018254831 0.011818682 -0.09671287 0.12180314 0.09701305
-0.004517382 -0.012311331 0.16314119 -0.035829313 0.26373768 -0.03655113 -0.10389227 -0.15562452
0.19328773 -0.15663828 0.080157615 0.19068937 -0.11434218 -0.10080573 0.09225527 -0.061479412
0.0067459983 0.14300327 -0.053463604 0.2970167 -0.027944896 0.032522388 0.17726713 -0.10249327
0.15752578 0.13477105 -0.117830485 -0.02358669 0.07540461 -0.049313296 0.050988857 -0.021784365
-0.1331173 0.033845577 0.10578774 -0.11491994 0.059228174 -0.13884751 -0.08197268 -0.28407043
0.054128144 -0.03221082 0.15055874 -0.00968952 0.16282216 -0.025619647 0.09957693 -0.08816053
-0.07009837 0.11395808 -0.1667407 0.031771425 0.23930407 0.15754138 0.27244666 0.031788073
0.1587661 0.13767464 -0.21047597 0.12637103 0.0059600803 0.08705558 -0.11685231 0.18579398
0.11033361 0.13016602 0.0013261645 -0.15408188 -0.1249676 -0.09790098 0.015980521 -0.33651814
0.25621855 -0.14025213 0.10292531 -0.050010342 0.05518225 -0.035163917 -0.06302709 -0.077355385
0.09245246 0.2349116 0.052106775 -0.15759234 -0.060850162 -0.08221188 -0.010127831 0.19600515
0.009041531 0.2276154 0.07891839 -0.17521231 -0.13910672 -0.1512921 -0.13040237 0.104125656
-0.1802076 -0.20348395 -0.2957777 0.033193737 0.03605658 0.045030557 -0.15984946 -0.11778289
0.07007194 0.22027853 -0.055152435 0.13457316 0.18149108 0.18485881 -0.0779647 0.2116351
0.0121173905 0.21680257 0.14634459 -0.041094173 -0.16785923 -0.3301198 -0.07623019 -0.077567734
-0.08804446 0.025815949 0.046365496 -0.068225995 0.0038631717 -0.23386998 -0.02650422 -0.0087112505
0.10862583 -0.2710812 -0.2059317 -0.17841208 0.09691573 -0.012701124 -0.029308578 0.07740385
0.25465372 0.009554914 -0.026917573 0.15899448 0.17910519 0.07539358 -0.10286424 0.08347236
-0.17553948 -0.045761522 -0.03817004 -0.029742317 0.035466637 0.15662688 0.14438906 0.04994327
0.1565204 0.116028614 0.017574977 0.10696503 0.23490347 -0.064262286 0.09812857 -0.028045224
-0.008687177 -0.1636977 0.01834681 -0.18820533 -0.025660291 -0.24860044 -0.1888855 -0.07932058
0.10992787 -0.13050798 -0.08871878 -0.09213573 0.11041296 -0.16365059 0.08763835 0.14956054
-0.20372681 0.31162393 0.37225005 0.42321283 0.23428988 0.21821438 0.024702469 -0.0025606297
0.29119867 0.21603951 -0.0037495263 0.1540466 0.08548663 0.15849656 0.0152509995 -0.07048153
-0.19460775 -0.18447001 0.2958359 0.10848647 -0.075257756 -0.052953143 0.14329426 -0.20772119
0.123677306 -0.1263457 -0.10418154 0.0022857997 -0.17721477 0.08579845 0.15031579 0.19367099
0.108319655 -0.08669324 -0.032775454 0.17737168 0.07902597 0.13651383 0.18725315 0.010439619
-0.080208205 0.024143575 -0.039745238 0.08656034 0.08900681 0.02349807 -0.11275223 -0.024373421
-0.16340351 -0.005077327 0.26593325 0.13682579 -0.13359424 -0.13243921 0.09230473 -0.15691271
0.0052710157 -0.054366834 -0.094678 -0.073225625 -0.04276733 0.004051764 0.13371491 0.22112621

bias_ih_l0 f4 [128]
00000000: c7b6 2abe b8ab b8bd b740 ccbe 3c5f 0bbc
00000010: a1ec 87bc 5a6b 82bd 254d 14be 408f 14bf
00000020: 418f b7be 9cb4 6ebe 2641 c9bd 7b80 943b
00000030: ca23 41bd 31d0 cbbe 5b08 e3be 03d7 64be
00000040: 4a73 4cbe d060 f0be 37ec 9b3d cf14 55be
00000050: 403a 97be a388 88be 13ba b8bd be49 d1bd
00000060: 8401 b3be 3836 03be 582a 86be e64c 1bbe
00000070: 1b35 b7be 437a 26be b534 54be c588 0dbe
00000080: 1a87 0c3d daa2 dc3d 7877 7b3c dab2 b2bc
00000090: c5c1 223d 5733 4abd 90e2 883d 5114 01be
000000a0: a82a ea3b 8623 a03d 4be9 2b3d d462 ffbd
000000b0: e0ba 1abe 960a 2abe d791 9fbe 4bc3 eebd
000000c0: 0b2e b83d 8b2a c9be 3567 b93d 12ac c4bd
000000d0: c995 39be a750 b5bd 661a 29be ed98 1e3e
000000e0: 224b 04be 8c59 a93d 4c14 23bc 4abc f83c
000000f0: 3b6c d8bc 03d2 64bd f97e 95bd f7af 7abe
00000100: fb5f 833d 0647 98bd ffa8 793d d5cc 42be
00000110: f647 423d 054e 90bd b4fc b6bd 5cde 8bbd
00000120: 071f 1c3e 58d4 1cbe 5864 d73d b813 c9bd
00000130: de95 febd 123c 383b 1a73 8dbd a4e5 88bd
00000140: eb1b 143e fd8c 033d 7163 35be ac37 af3d
00000150: 13ab 84bd 8f5c bd3d 8bfe d1bd 4d83 dc3d
00000160: 90a4 0dbe fc3c 153d ec66 903d e347 f53d
00000170: b6b9 6dbd cdd1 55bd 4d2f 6dbb 1302 503d
00000180: 1fd8 9bbd 72af 3b3d 213c a2be 14bc d8bd
00000190: 1552 1abe ca51 06be f305 cabc 08bd 97be
000001a0: febc 01be 1fb3 94be f578 bcbc 21f9 44bd
000001b0: ffe4 1dbe 04fe a6be a22a 56be 641b cebd
000001c0: 5ad9 4ebe 734c 7cbe 39c5 903d bd64 bfbc
000001d0: 85e8 d0bd 4d3d 98be 70f1 47be 8916 dbbd
000001e0: 9f62 cabe ee05 893d d58e 0dbe 4d01 80bd
000001f0: 10f1 43be d178 6cbe db3b 59be ae31 36bc
-0.16671287 -0.09017128 -0.39893124 -0.008506592 -0.016592326 -0.06368132 -0.14482553 -0.5803108
-0.35851482 -0.23311085 -0.09826879 0.0045319176 -0.04715327 -0.39807275 -0.44342312 -0.22347645
-0.19965854 -0.46948862 0.07613414 -0.20808719 -0.2953663 -0.26666746 -0.09019866 -0.10219143
-0.34962094 -0.12813652 -0.2620418 -0.15166053 -0.35782704 -0.16257577 -0.20723231 -0.13821705
0.03430853 0.10773249 0.015348308 -0.021813799 0.039735574 -0.049365368 0.06683838 -0.12605406
0.0071461983 0.078192756 0.041970532 -0.12470022 -0.1511035 -0.166056 -0.31165954 -0.11658343
0.08993157 -0.3929027 0.09052888 -0.09603132 -0.18123545 -0.08853274 -0.16513976 0.15488024
-0.12919286 0.08269033 -0.00995357 0.03036322 -0.026418796 -0.055864345 -0.07299609 -0.24481188
0.06414791 -0.07435422 0.060952183 -0.1902345 0.04743191 -0.07046131 -0.08934918 -0.06829521
0.15246211 -0.15315378 0.10517186 -0.09818214 -0.12430929 0.0028111977 -0.069067195 -0.066844255
0.14463775 0.03211688 -0.17713715 0.085555404 -0.06477942 0.0924617 -0.10253628 0.10767231
-0.13832307 0.036435112 0.07050881 0.11976602 -0.058038436 -0.052202035 -0.0036191524 0.050783228
-0.07609581 0.045821615 -0.316865 -0.10582748 -0.15070374 -0.13117138 -0.02466104 -0.29636407
-0.12669751 -0.2904291 -0.023006896 -0.04808915 -0.15419386 -0.32615674 -0.209147 -0.10063818
-0.202001 -0.24638538 0.07068867 -0.023363465 -0.102005996 -0.2973427 -0.19525695 -0.106976576
-0.39528367 0.06690584 -0.13824017 -0.06250248 -0.19134927 -0.23092963 -0.2121424 -0.011120243

bias_hh_l0 f4 [128]
00000000: 1757 89be 84c7 23be 9cd8 85bd f93f 8bbe
00000010: 8b53 1ebe ad08 b2be 701e 82bd 320b bebe
00000020: 5e35 66be 3971 3cbd ae07 32be b154 75bd
00000030: bab3 01be 8608 19be 66bc 1fbe a9fb bdbe
00000040: cf78 533d 6104 82be ff02 37be fe4d 9c3c
00000050: 38bf 01be b745 6cbe 4b94 81be 3ef3 a2bd
00000060: 6470 c7be 5c19 c0bc c0c8 cabe 523f 91be
00000070: 1367 aabe e9f8 a03b 1731 09be bd68 a3be
00000080: 19ff 37be cb2d b4bd dd7b 98be a3cb 04bb
00000090: 59ec 813d 37f5 66be 2a55 a73d 8df6 c4be
000000a0: 2e16 08be 9408 56bd 6674 ad3d 6309 95bb
000000b0: 2746 73be 33c0 093d b7e1 1abe d544 81bd
000000c0: 097f 20be fb34 87be 766b dabd 44f7 053e
000000d0: 279a 8fbe 8ccd 94be 9fd2 b2bd a8d4 16bd
000000e0: 9531 aabe e7b4 c4bb 0b1e 64be 7f9d 3dbe
000000f0: 59b2 53be c766 7bbe 3e3a 48be ea92 2cbe
00000100: 6cf3 34bc fc58 89bd 09e7 2ebc a236 ae3b
00000110: 4e4c d63c 7a09 d7bb 6f15 00bd 8e38 753d
00000120: de1c 24bc f2dd fd3d da5f 2c3d 56c1 1f3e
00000130: dd4a 063e 9e1f 96bd e847 e23d c8f7 e2bd
00000140: b8ba 0fbe ea1e 01be 4a22 b53c b50f ef3c
00000150: 6cac bb3d 03cd 103d 8318 03be 6394 cebd
00000160: 076f c73b 3507 8b3d 394e 533d b123 b43d
00000170: c2e3 bebc cbd3 913d 3b54 94bd 8e54 a9bd
00000180: 7122 94be 3d08 783d 6830 1dbe af9f e7bd
00000190: 2062 f3bc 63ad 0dbe 93c2 133e 95c6 1ebf
000001a0: 3040 b6be ae74 9cbd 3e73 45be 26f9 4ebd
000001b0: ba5a 57be a038 26be b7d5 b6be 49d5 53be
000001c0: 2f5b 4cbe 1345 9dbe c77a debc b2be 32be
000001d0: 2f0b cfbe 10d2 ffbd 15b0 ffbd be63 d6bc
000001e0: de5b 43be 1c0a 7bbd e161 8dbe 19f7 11bc
000001f0: 9210 81be 06dc 7dbe cbfb 07be 93b4 47be
-0.26824257 -0.15994078 -0.065354556 -0.27197245 -0.15461557 -0.34772244 -0.06353462 -0.37117916
-0.22481295 -0.046006415 -0.17385742 -0.05989522 -0.12666216 -0.14944658 -0.15599212 -0.37106064
0.051628884 -0.25393966 -0.17872237 0.019080158 -0.126706 -0.23073469 -0.2530845 -0.07956551
-0.38952935 -0.023449592 -0.39606285 -0.28368622 -0.33281764 0.004912485 -0.13397633 -0.31915846
-0.17968406 -0.08797797 -0.29782 -0.0020262979 0.06343908 -0.2255448 0.08170541 -0.38469353
-0.13289711 -0.052254274 0.08469467 -0.004548238 -0.2375723 0.03363056 -0.15125166 -0.06311957
-0.1567346 -0.26407608 -0.10665028 0.13082606 -0.28047296 -0.2906307 -0.08731579 -0.0368239
-0.33240953 -0.0060030106 -0.22277085 -0.18517111 -0.20673503 -0.24550925 -0.19553468 -0.16852918
-0.011044364 -0.067064255 -0.0106752 0.0053165713 0.026159432 -0.006562409 -0.03127044 0.059868388
-0.010016648 0.12395848 0.0420836 0.15601096 0.13114496 -0.07330249 0.11048871 -0.11082417
-0.14036071 -0.12609449 0.022111077 0.029182294 0.09163746 0.035351764 -0.12802319 -0.10086896
0.0060862335 0.06788484 0.05158827 0.0879587 -0.023301963 0.071204744 -0.07242628 -0.08268081
-0.28932527 0.06055473 -0.15350497 -0.11309754 -0.029709876 -0.13835673 0.14429693 -0.6202176
-0.35595846 -0.076394424 -0.19282243 -0.050530575 -0.21030703 -0.16232538 -0.35709926 -0.2068683
-0.19956659 -0.30716762 -0.027158154 -0.17455557 -0.4043822 -0.12491238 -0.12484757 -0.026170608
-0.19078013 -0.061288938 -0.27613738 -0.00890901 -0.25207955 -0.24790964 -0.13279645 -0.19502477

weight f4 [64, 4]
00000000: 9e03 14be 4910 4a3f fa50 1e3f e500 e0be
00000010: c91b 0abf 149a 9dbe b03b c63e 65ed f63d
00000020: 07ac 233e 807b 213e de06 c3bd 9d3d 163f
00000030: 20b3 2fbf 7920 013e 717f b6bc 084f 8d3c
00000040: 76f8 143f 9265 79be 9d56 f2be 8c71 a1be
00000050: b429 c73d 8617 14bf 4bf1 05bf 8a42 47bd
00000060: 478d cebe 42f8 ab3c 2277 b73e b11b 863e
00000070: 5afc 45bc 0590 293e ac88 e8be 9fcb 17bf
00000080: 490c cdbe 26c0 8e3e 1583 e03e 6b9c 39bd
00000090: ece9 f23e 00c8 e1bd 3928 4b3c c580 bb3e
000000a0: 06be 443e 7a3e e33e f47b d6be 5b0c d1be
000000b0: dff5 58be ebdf ecbd 0bf8 023f 2c3a 533f
000000c0: 7df4 db3e bac4 b53d bc46 5ebe aada 333e
000000d0: c17a 8c3e 3b71 a53e a63c 4abd fb8c 4abe
000000e0: ab3c 0e3e 523b 4f3d 89b3 adbe 7b4b 113e
000000f0: efb8 51be 4db9 c3be 1fc5 ff3e 5470 c9be
00000100: 9bbb 98be f49b fabd a17f 383d 9c43 95be
00000110: 35f7 43bf 5971 cabe bb4b be3e 4f18 e2be
00000120: 7a3c 8ebe bf0e f43e fe8e 773d fe9e dcbe
00000130: 6843 f43e d94a 213f 13fa aabe 0d6a 83be
00000140: 15bb 343d 1cd1 b0be 99e7 0f3e bae7 a73b
00000150: 61e2 b4be 81a1 15bf baf9 d33e 8041 2c3e
00000160: e831 fcbe 8a5d 89be 5ec8 873e 53a2 b63e
00000170: 5537 8b3d 0b60 813e a48f 103f 8a81 04be
00000180: 299d 23bf 15fc a93e 0021 0c3f 671b e6bd
00000190: aaec e43c 612b 2b3e 19a2 853e 51ee 27be
000001a0: 2af9 05bf f531 f33e 570b 7dbd 12b6 57be
000001b0: 071d 06bf 4e3a f23e 0a91 8ebe c60a b8be
000001c0: 817c 03bf 6d88 8bbe 1772 163f 7bbe 2fbd
000001d0: 49ef 4fbe 0ef9 12bc 1130 553e c012 02bf
000001e0: aad2 19bf 733d 1dbf 3bfb babe fe93 4a3e
000001f0: a715 8bbe 3280 44be 5a94 5d3e a3ae 01bf
00000200: d77c 013f 3ad6 f6bd af81 323e 1b60 fc3e
00000210: 8075 c03e c895 10bf 54d7 823e d518 d83e
00000220: 221f d1be a2d6 00bf d9c3 af3d 3a0e 0fbe
00000230: df7b 863e 5895 233f 85fc 71be fba3 21bf
00000240: 9793 b0be 695c 613e 77da 92bd a2d0 793e
00000250: 19a7 53bf 2c87 3a3d ed40 893e 469b fdbe
00000260: b245 2dbe 175c a33e 7864 603d 203c e1be
00000270: e349 423d 2175 a73d 6cca aebe 55fd 7cbc
00000280: 594e 78bd ea58 933e adee 193f 003d ab3e
00000290: cc20 04bf 4f26 13bf ba7e b93e 9382 ce3e
000002a0: e0ef 49bd 9025 08bf d1c2 643e eb73 1abf
000002b0: 39d8 19bf 0dd5 163e ebca cf3e 8c43 a5be
000002c0: 937e aa3e b2d0 203f 6e2c f63e 5677 93be
000002d0: bc4c a13d 9ecd cdbd 6cbf e5bd 26ed a1be
000002e0: 40da 0ebf 6c11 293e 52bf b83d 3f9f 1cbf
000002f0: fb88 9cbd 1689 0d3c fac6 5c3e ca81 b6be
00000300: 6e18 d03e 9aeb 613e c621 17be c437 893e
00000310: 8e35 0fbf ad4b 493e 151f 833e 2980 803d
00000320: a2b1 a5be 8e95 b6bd 1fa7 42bb b979 8bbe
00000330: 25fd 0b3f 7cf4 ce3d f465 c5bb f585 cabc
00000340: acdb c43e 7914 bcbc 4d00 c0be 7152 4fbd
00000350: ecab babd fed4 873e 418e bdbe 1f42 003e
00000360: f229 113f 4ef8 c5be 2f93 2a3e 6387 58bf
00000370: e6cc c1be 3e7f e7be 9cb1 99bd b6af 17be
00000380: b96d 983e 645c d13e beb3 d6bd 6305 29bf
00000390: 8bc4 ec3d d58e 313e 72df 18bf 2a50 a03e
000003a0: f09d 20bf ec8f ee3e e824 00bf 9189 9a3e
000003b0: b79e 85bb 4498 21bf 235a 573c 670e 38be
000003c0: 604d c4be 190a 533d 61f8 8bbe 8d1c 383d
000003d0: 02f7 cf3e 6ff3 21be d67a 26bf 4aa7 8b3e
000003e0: a820 edbe 5dc4 3cbf 2b08 0c3f 8dca ebbe
000003f0: df1c f13c ee98 223f 0485 703e b8bd 1bbf
-0.14454505 0.789311 0.6184231 -0.43750682 -0.53948647 -0.30781615 0.38717413 0.12056998
0.15983592 0.15769768 -0.09522794 0.58687764 -0.686327 0.12610044 -0.022277566 0.0172496
0.5819162 -0.24355152 -0.47331706 -0.31531942 0.09724751 -0.57848394 -0.5232131 -0.04864744
-0.4034216 0.020992402 0.3583308 0.26193002 -0.012084091 0.16558845 -0.45416772 -0.59295076
-0.40048435 0.27880973 0.43850008 -0.045315187 0.47444093 -0.11024475 0.012399727 0.3662168
0.19213113 0.44383603 -0.41891444 -0.4082974 -0.21187542 -0.115661465 0.51159734 0.8251064
0.42959967 0.08875413 -0.2170667 0.17563882 0.27437404 0.3231295 -0.049374245 -0.19780342
0.1389033 0.05059368 -0.33926037 0.1418895 -0.20480703 -0.3822731 0.4995508 -0.39343512
-0.29830632 -0.12236777 0.04504359 -0.29153144 -0.76549083 -0.39539602 0.37167153 -0.4415917
-0.27780515 0.476675 0.060439102 -0.4309005 0.47707677 0.63004833 -0.33393916 -0.25666848
0.044123728 -0.34534538 0.14053191 0.0051240595 -0.35328963 -0.5844956 0.41401464 0.16821861
-0.49256825 -0.26829177 0.26520056 0.3567072 0.06797663 0.25268587 0.5646918 -0.1294004
-0.6391168 0.33200136 0.54737854 -0.11235695 0.027944881 0.16715766 0.26100233 -0.16399504
-0.5233332 0.47499052 -0.061778393 -0.21065548 -0.5238804 0.47310108 -0.2784503 -0.3594572
-0.5136185 -0.27252522 0.5876784 -0.042906266 -0.20306124 -0.008970512 0.20819117 -0.5080986
-0.6008707 -0.6142189 -0.365198 0.19783017 -0.27164957 -0.19189528 0.21638623 -0.506571
0.50581115 -0.12052579 0.17432283 0.49292073 0.37589645 -0.5647855 0.25554907 0.42206445
-0.40844065 -0.50327504 0.08582277 -0.13970271 0.2626638 0.63899755 -0.23631485 -0.6314084
-0.34487602 0.22007908 -0.07170575 0.24395993 -0.82676846 0.045539066 0.26807347 -0.49532527
-0.16921118 0.31906196 0.054783314 -0.43991184 0.047433745 0.081766374 -0.3413881 -0.015441258
-0.060621593 0.28778774 0.60129815 0.33444977 -0.51612544 -0.5748033 0.36229497 0.40333995
-0.04930103 -0.53182316 0.22339942 -0.60333127 -0.60095555 0.1472971 0.40584502 -0.32278097
0.33299693 0.62818444 0.48080772 -0.28801984 0.07875964 -0.10048984 -0.112181515 -0.31626242
-0.55801773 0.16510552 0.090208665 -0.6118049 -0.076433145 0.008638641 0.21560279 -0.35645896
0.40643638 0.22062531 -0.14758977 0.26800358 -0.5594109 0.19657774 0.2560965 0.062744446
-0.32362086 -0.08915244 -0.0029701663 -0.27241305 0.5468314 0.101052254 -0.0060241167 -0.024722079
0.38448846 -0.02295898 -0.3750023 -0.05061573 -0.09114823 0.26529688 -0.37022594 0.12525223
0.5670463 -0.38666004 0.16657709 -0.84581584 -0.37851638 -0.45214266 -0.075045794 -0.14813122
0.29771212 0.408908 -0.10483502 -0.66023844 0.11560925 0.17339642 -0.5971595 0.3131116
-0.62740993 0.4659418 -0.50056314 0.3018308 -0.004077758 -0.63122964 0.013144049 -0.17974244
-0.38340282 0.0515233 -0.27337936 0.044949103 0.4061814 -0.15815519 -0.6503118 0.2727607
-0.46313977 -0.73737127 0.54699963 -0.4605297 0.029432712 0.635146 0.23488241 -0.6083636

bias f4 [64]
00000000: af1a e53e 4031 4b3e 9972 1bbe 3467 0dbd
00000010: f72b 9c3d b543 f03e a76e 1b3e 1769 e63c
00000020: a4ec 013f 1a78 323e ff52 99bb eb23 94bd
00000030: 7ac6 dbbe 70ad f63e cad6 80be a5f4 a03e
00000040: a01d efbe aefd de3e cc3a ab3e 7bd0 b63e
00000050: c283 cd3e 12e9 9a3d 4d9a b13d 809a a1be
00000060: 33c6 513b 7f8b ecbd 66c4 69be 6387 a03c
00000070: 58e2 dcbd afba 88be 1ee9 543e 90a4 0bbf
00000080: 3d8c d0be 8047 b93e 01db 54be 8b69 d53c
00000090: d1b5 b4be 72a6 da3e 2381 a1be e058 643e
000000a0: f05d ba3d 2b51 3a3e 32cc dabe b8be ecbc
000000b0: 0e88 ebbd 8f9e f23e c3c1 e3be 46dd 54be
000000c0: 9c54 8bbe bb3e bcbd 541c ee3e 4d49 043f
000000d0: adb6 37bd 99ad e33d 001f cd3e 9a87 9ebd
000000e0: a4e8 aa3e 2b3f 853c 7835 493d 41a7 ff3e
000000f0: a907 183e 11b3 24be 6917 abbe 9e87 7e3e
0.4474692 0.19843006 -0.15180434 -0.03452225 0.07625573 0.46926656 0.1517893 0.028126283
0.5075171 0.17428628 -0.0046790834 -0.07233413 -0.42924863 0.48179197 -0.2516387 0.3143665
-0.4670229 0.43552917 0.33443296 0.35705933 0.40139586 0.07563986 0.08672009 -0.31563187
0.0032009005 -0.11550044 -0.22828826 0.019595807 -0.10785359 -0.26704928 0.20792052 -0.5454798
-0.40731993 0.36187363 -0.20786668 0.026051303 -0.35294965 0.42705113 -0.31543836 0.22299528
0.090999484 0.18195026 -0.42733914 -0.028899536 -0.1150056 0.47386596 -0.44483766 -0.20787534
-0.2721299 -0.091916524 0.46505988 0.5167435 -0.044851948 0.111170955 0.40062714 -0.07740708
0.33380616 0.016265472 0.049123257 0.49932292 0.14846672 -0.16083933 -0.33416298 0.24856421
