experiments/pedestrians/models/06_Aug_2023_21_23_08/model_registrar-29.pt (torch, 713991 bytes, 82 tensors)

weight f4 [64, 10]
0	0xbcd18f01	-0.025580885
1	0xbd43bc1d	-0.04778682
2	0x3e4ae7b2	0.19814947
3	0x3d278802	0.04090119
4	0xbf3160b9	-0.6928821
5	0x3f54c3e5	0.8311141
6	0xbbb00d43	-0.0053726747
7	0xbe884b4b	-0.26619944
8	0xbe3aaf28	-0.1823088
9	0x3dcbdd93	0.09954371
10	0x3d662cc3	0.05619503
11	0x3e8e3f8a	0.2778285
12	0x3ec14bcb	0.37753138
13	0xbd2091ea	-0.039201654
14	0xbe4f50b5	-0.20245631
15	0xbdfb2cba	-0.1226439
16	0xbe8578fd	-0.2606887
17	0xbeb0132d	-0.3438963
18	0xbdaebbc5	-0.08531908
19	0x3df0ad4d	0.117518045
20	0x3d7dc454	0.06195481
21	0xbd286c1a	-0.04111872
22	0xbdc17db6	-0.094478056
23	0x3f0842ec	0.53227115
24	0xbd67cfb0	-0.05659455
25	0x3cdc129e	0.026864346
26	0xbe983cad	-0.29733792
27	0xbd75d2ac	-0.060015365
28	0xbce847b4	-0.028354503
29	0xbe3f2ca5	-0.18669374
30	0xbc0d03a3	-0.008606824
31	0x3d62e196	0.055390917
32	0x3afe3a26	0.0019395992
33	0xbd88ac27	-0.066734605
34	0xbf1d1e45	-0.6137431
35	0x3f2ee19a	0.6831299
36	0xbe83ea05	-0.2576448
37	0xbe48dbe5	-0.19615133
38	0xbc9da9cd	-0.019246006
39	0xbe73dd81	-0.23814966
40	0x3cc6be50	0.02426067
41	0xbcfde7b8	-0.030994281
42	0x3db6d8f9	0.08928103
43	0x3e27273f	0.16323565
44	0x3f0f6f87	0.5602955
45	0x3edba180	0.42896652
46	0x3e91017e	0.2832145
47	0x3e27d0ec	0.16388291
48	0xbe7d07e3	-0.2471004
49	0x3e33655a	0.17519131
50	0xbc5c9e9f	-0.013465553
51	0x3de13aa0	0.1099751
52	0x3ec02cab	0.3753408
53	0xbdd4897c	-0.103777856
54	0xbc17bb26	-0.009260928
55	0x3ef72e3a	0.48277456
56	0x3e406b77	0.18790995
57	0x3b848aaf	0.0040448527
58	0xbd31cf50	-0.0434106
59	0x3db9c9bd	0.09071682
60	0xbdb40c5b	-0.08791419
61	0x3e0e5b9c	0.13902134
62	0x3eecb2d2	0.4623018
63	0x3dc9b122	0.098482385
64	0x3ef5756e	0.47941154
65	0xbee896a7	-0.4542744
66	0xbe6dcdfd	-0.2322311
67	0x3e986829	0.29766968
68	0x3eadd535	0.33951727
69	0x3e83e7e3	0.25762853
70	0xbd2a0371	-0.04150719
71	0xbe0d063a	-0.13771906
72	0x3dc74525	0.09729985
73	0xbe983aec	-0.29732454
74	0xbf245f0a	-0.6420752
75	0xbeb83b5c	-0.35982788
76	0x3ec0223f	0.37526128
77	0xba51f0ad	-0.0008008581
78	0x3cbaa63f	0.02278435
79	0x3c473913	0.012159604
80	0x3deb54d1	0.11490787
81	0x3d5a23ea	0.053256907
82	0xbeadb9b2	-0.33930737
83	0xbd6e5abc	-0.058192
84	0xbf2830c7	-0.6569943
85	0xbda82d7c	-0.082118005
86	0xbe27544d	-0.16340752
87	0xbe3fd559	-0.1873373
88	0x3e5c5b79	0.21519269
89	0x3db1ca4d	0.08681164
90	0xbd1c83da	-0.03821168
91	0x3e17f1e2	0.14838365
92	0x3ed963b4	0.4245888
93	0x3ea70fd9	0.32629278
94	0x3d3f5029	0.046707306
95	0x3eb2b440	0.34903145
96	0x3e0d674c	0.13808936
97	0xbe7a48b8	-0.24441803
98	0x3e932e7e	0.28746408
99	0x3e84bce4	0.25925362
100	0xbe480a11	-0.1953509
101	0x3dd127a9	0.10212643
102	0x3e816e81	0.2527962
103	0x3e63817f	0.22217368
104	0xbe530ca4	-0.20610291
105	0xbd11212e	-0.035432033
106	0xbe0fae88	-0.14031422
107	0x3de8ec8c	0.11373243
108	0x3e5a48f2	0.21316889
109	0xbe8c2d3f	-0.2737827
110	0x3d23ba80	0.039972782
111	0xbdb26965	-0.08711509
112	0x3f036c15	0.51336795
113	0xbda3296d	-0.07966886
114	0xbf48b2f5	-0.78398067
115	0xbf5dc594	-0.86629605
116	0x3dcadea0	0.099057436
117	0x3ed105d7	0.40824768
118	0xbdf524c4	-0.11969903
119	0xbd741438	-0.059589595
120	0xbe53db68	-0.20689166
121	0x3e22fea6	0.15917453
122	0x3eb2c8c2	0.3491879
123	0x3e456a23	0.19278769
124	0x3e34c445	0.17652996
125	0x3e585300	0.21125412
126	0x3e5c107c	0.21490663
127	0xbd8b6fb1	-0.06808413
128	0x3d578f71	0.05262703
129	0xbe2d345e	-0.16914508
130	0xbcbcf5b7	-0.023066385
131	0x3dbe0164	0.09277609
132	0xbd61a6c1	-0.05509067
133	0xbf1bb7e7	-0.6082749
134	0x3db54e1c	0.08852789
135	0x3b92c49b	0.0044790036
136	0xbb903008	-0.004400257
137	0xbe8a476a	-0.2700761
138	0xbe0ea67f	-0.139307
139	0xbe993c0a	-0.2992862
140	0x3df4e041	0.119568355
141	0xbdddbacc	-0.10826644
142	0xbe97d723	-0.29656324
143	0x3ec3c87c	0.38238895
144	0xbe05b405	-0.13056953
145	0xbd977928	-0.073961556
146	0x3e86602f	0.26245257
147	0x3d18bd6b	0.037290018
148	0x3b4d0d5a	0.0031288476
149	0x3ebdb0d6	0.37048978
150	0x3b57afa8	0.0032911096
151	0x3d15135e	0.036395423
152	0x3d6970cb	0.056992333
153	0xbe8b15e4	-0.2716514
154	0x3ec9b4af	0.39395663
155	0xbf2dbe73	-0.6786873
156	0xbe80c5b4	-0.25150836
157	0x3e13dbc1	0.14439298
158	0xbe70402b	-0.23461978
159	0x3da85162	0.082186475
160	0xbe28418b	-0.16431253
161	0x3e744325	0.23853739
162	0x3d4c6dd5	0.04990943
163	0x3d86c885	0.06581215
164	0xbf3c2443	-0.7349283
165	0xbdedfaaf	-0.1162008
166	0x3de6d69d	0.11271403
167	0x3e91eb09	0.2849963
168	0x3d17392d	0.03691976
169	0x3ee3be89	0.44481304
170	0x3e9e2fe7	0.30895922
171	0x3eac7603	0.33683786
172	0x3e21d96d	0.15805598
173	0x3ec72334	0.38894045
174	0xbe12d7ab	-0.14340083
175	0x3f3c8a1c	0.7364824
176	0x3d92fa77	0.07176679
177	0x3d9e7a9f	0.07738232
178	0x3bb258f9	0.0054427353
179	0x3e3307b5	0.17483409
180	0x3d295ee4	0.04135026
181	0x3e0303d2	0.12794426
182	0x3f1daa28	0.6158776
183	0xbe210956	-0.15726218
184	0xbde1a78b	-0.110182844
185	0x3db08998	0.08619994
186	0x3e81caa2	0.2534991
187	0x3b7a7573	0.0038216978
188	0x3e32ad2a	0.1744887
189	0x3e8f659f	0.28007218
190	0x3e8ac0a2	0.27100092
191	0x3e137f82	0.14404109
192	0xbee0b23a	-0.43885976
193	0xbdaa3a6b	-0.083119236
194	0xbefd12be	-0.49428362
195	0xbe1294a3	-0.14314513
196	0x3dfed32c	0.124426216
197	0x3e3531a6	0.1769472
198	0xbe432f72	-0.19061068
199	0x3e8b4f6a	0.27209026
200	0xbd1d2c98	-0.038372606
201	0x3c90280e	0.017597225
202	0xbe783983	-0.24240689
203	0x3e3db4aa	0.18525949
204	0x3ec60fd0	0.3868394
205	0xbf20d9cc	-0.6283233
206	0xbd1ce765	-0.038306613
207	0xbe343495	-0.17598183
208	0x3e45bcd5	0.19310315
209	0xbe07e7fd	-0.1327209
210	0xbe6ca2e5	-0.23109014
211	0xbd194b78	-0.03742549
212	0x3ce41e38	0.02784644
213	0x3d865bac	0.06560454
214	0x3f08b714	0.53404355
215	0x3f7b8bdc	0.98260283
216	0x3ec77930	0.38959646
217	0x3e499a26	0.19687709
218	0x3e6d85d6	0.23195586
219	0x3c00e4d2	0.007867055
220	0x3c74fbd6	0.0149526205
221	0x3e790a86	0.2432042
222	0xbe758f49	-0.2398044
223	0x3d462be6	0.04838171
224	0x3ed89def	0.42307994
225	0x3eef1759	0.466975
226	0x3e716dc2	0.23577026
227	0x3e8516fe	0.25994104
228	0x3dcfca31	0.10145987
229	0xbe1cc0e0	-0.15307951
230	0x3c436bc7	0.011927552
231	0xbe30fbfc	-0.17283624
232	0xbdd8d7a1	-0.10588003
233	0x3ee3bb25	0.44478717
234	0xbc0b2e40	-0.008494914
235	0xbf008c66	-0.5021423
236	0xbdfc1dee	-0.12310396
237	0x3d94f4be	0.07273243
238	0xbe00b3a7	-0.12568532
239	0x3e089a05	0.13340004
240	0x3de2381f	0.110458605
241	0xbe624f73	-0.2210062
242	0x3d00eefa	0.031477906
243	0xbe5cd03e	-0.21563813
244	0x3ebe3ee4	0.37157357
245	0x3ece25f8	0.40263343
246	0x3bc4f642	0.0060108015
247	0xbeb1e1a2	-0.34742457
248	0xbdb0852b	-0.0861915
249	0xbea5aa62	-0.32356554
250	0xbdf6cad3	-0.120504044
251	0xbe209ed3	-0.15685587
252	0x3e53465b	0.20632307
253	0x3eda98aa	0.42694598
254	0xbe37252a	-0.1788527
255	0xbeebbcab	-0.4604238

bias f4 [64]
0	0xbe63601c	-0.22204632
1	0xbd9c75c4	-0.076396495
2	0xbe8cd567	-0.27506563
3	0x3e9b623e	0.3034839
4	0x3e0af371	0.13569428
5	0x3e99349d	0.29922953
6	0xbe7d469e	-0.2473397
7	0xbc893f34	-0.01675377
8	0x3d87e631	0.066357024
9	0x3e6bfa06	0.23044595
10	0xbd448bb8	-0.04798481
11	0x3ee37fa2	0.44433314
12	0xbde430af	-0.11142098
13	0x3da27d67	0.07934075
14	0xbdb892b0	-0.090123534
15	0xbd8b2c64	-0.06795576
16	0xbd37f10d	-0.04490762
17	0xbe332ec6	-0.17498311
18	0x3e73ba89	0.23801626
19	0x3e2c14a1	0.16804744
20	0xbdcc3bf8	-0.09972376
21	0x3e39d67e	0.18148229
22	0x3e3413bc	0.17585653
23	0xbe0060fd	-0.12536998
24	0xbe19d540	-0.15022755
25	0x3dee490c	0.11635026
26	0xbc7a717f	-0.015285849
27	0xbe3b5b4a	-0.18296543
28	0xbea7f425	-0.32803455
29	0x3d52d615	0.051473696
30	0x3e2099d0	0.15683675
31	0xbe659b1f	-0.22422455
32	0xbe198724	-0.14992958
33	0x3de90996	0.113787815
34	0xbe9db3da	-0.30801278
35	0x3e861ae4	0.2619239
36	0x3e2446e7	0.16042672
37	0xbdf8bb72	-0.12145127
38	0xbe026a4f	-0.12735866
39	0x3d6fd862	0.058555968
40	0xbe5e0db3	-0.21684913
41	0x3e8b0f0c	0.27159917
42	0xbcbdbf03	-0.02316237
43	0xbdf5e246	-0.12006049
44	0xbe6b1fdf	-0.22961377
45	0x3dd70dbf	0.10500669
46	0xbdf62a58	-0.12019795
47	0xbe8bc641	-0.27299693
48	0x3df36a55	0.118855156
49	0xbe15061b	-0.1455311
50	0x3ae4595a	0.0017421648
51	0x3e6f6159	0.23376979
52	0xbea6b71f	-0.32561585
53	0xbea4b1ae	-0.3216681
54	0xbecd7d30	-0.40134573
55	0x3dae4f8c	0.08511266
56	0x3ce3c358	0.027803108
57	0x3e7ca25b	0.24671309
58	0x3e3b7eb5	0.18310054
59	0x3eaac557	0.33353683
60	0xbea2854d	-0.31742325
61	0x3e1e31ad	0.15448637
62	0x3ebfd822	0.37469584
63	0xbe2e3b14	-0.17014724

weight f4 [32, 32]
0	0xbe04a174	-0.12952214
1	0xbe461d10	-0.19347024
2	0x3e4d8268	0.20069277
3	0x3d1b1903	0.03786565
4	0xbdf0481c	-0.11732504
5	0x3b267bb2	0.0025403318
6	0xbd57561b	-0.05257235
7	0x3d867646	0.065655276
8	0xbe23cabf	-0.1599531
9	0xbf0007ba	-0.5001179
10	0x3db387ac	0.08766112
11	0x3db01664	0.08598021
12	0xbcf2405d	-0.029571706
13	0x3e3fdea6	0.18737277
14	0xbe248108	-0.16064847
15	0x3e7d5c1a	0.24742165
16	0x3c280847	0.01025588
17	0x3e9c953a	0.305826
18	0x3e42289d	0.18960805
19	0x3e9eff24	0.31054032
20	0xbe9e1f9e	-0.30883497
21	0x3e4b9fde	0.19885203
22	0xbb971f9c	-0.0046119224
23	0xbed87298	-0.42274928
24	0xbd9ebac2	-0.07750465
25	0x3de4e06e	0.11175619
26	0x3e11701f	0.14202927
27	0x3e028b2d	0.12748404
28	0x3e291069	0.16510166
29	0x3d99f33d	0.07517097
30	0xbd6d4881	-0.057930473
31	0x3e8ba655	0.2727534
32	0x3dbed94b	0.09318789
33	0xbd36367d	-0.044485558
34	0xbef123d3	-0.47097644
35	0x3d59410c	0.05304055
36	0xbe348a1b	-0.17630808
37	0x3d62c3bb	0.055362444
38	0x3e19f87b	0.15036194
39	0xbd3fe3a9	-0.046847973
40	0xbead069a	-0.337941
41	0xbeba8e2e	-0.364366
42	0xbe953ae1	-0.29146484
43	0xbe93e8d9	-0.28888586
44	0x3e654b13	0.2239192
45	0xbc911525	-0.017710278
46	0xbda71118	-0.08157557
47	0xbdd36177	-0.10321324
48	0x3c39b10f	0.011333718
49	0x3e2679d1	0.16257407
50	0x3e2f0916	0.1709331
51	0x3ec9f706	0.39446276
52	0x3e5608fd	0.20901866
53	0xbdf70826	-0.12062101
54	0x3d9fd3a5	0.0780404
55	0x3d608ed3	0.054823708
56	0x3d0e68e5	0.034768004
57	0xbcb13485	-0.021631489
58	0x3e076efa	0.13225928
59	0x3e258ead	0.16167708
60	0xbe470de1	-0.19438888
61	0xbe8622f2	-0.26198536
62	0x3e19ace9	0.15007366
63	0xbdb48b6e	-0.088156566
64	0x3ea48f07	0.3214037
65	0xbe2bf9f0	-0.16794562
66	0x3dd9681a	0.10615559
67	0xbefbf765	-0.49212185
68	0xbe6ba794	-0.23013145
69	0x3c7e17db	0.015508617
70	0xbe5214f6	-0.20515808
71	0xbe4615ee	-0.19344303
72	0xbe31808d	-0.17334194
73	0x3e423dc7	0.18968879
74	0x3e3d088d	0.18460293
75	0xbdf9b7e5	-0.12193278
76	0xbeae942f	-0.3409743
77	0x3ea6509f	0.32483384
78	0xbea1f6e5	-0.31633678
79	0x38a490ac	7.8470766e-05
80	0x3c84bc00	0.016202927
81	0x3ec98da9	0.3936589
82	0x3eb4e931	0.3533416
83	0xbf04ddbf	-0.5190086
84	0xbe17720f	-0.14789604
85	0x3d8ed1a4	0.069735795
86	0xbe601967	-0.2188469
87	0xbe8c39b0	-0.27387762
88	0xbdb2268f	-0.08698761
89	0xbdbfa76f	-0.09358107
90	0x3d18a6a5	0.0372683
91	0xbde7a81d	-0.11311362
92	0x3e5b33ec	0.21406525
93	0xbe8966ee	-0.26836342
94	0xbe87950c	-0.264809
95	0xbda2e955	-0.07954661
96	0x3e70a3bb	0.23499958
97	0xbe2a26e9	-0.16616406
98	0x3d93de2f	0.072201125
99	0x3de41751	0.1113726
100	0xbd9789af	-0.07399308
101	0x3e1e4fb2	0.15460089
102	0x3e960bdb	0.2930592
103	0xbe56279f	-0.20913552
104	0xbe388f65	-0.1802345
105	0x3e7cac87	0.24675189
106	0x3d9e321d	0.07724402
107	0xbe1cb4fc	-0.15303415
108	0x3ea68ab6	0.32527703
109	0xbdf87d6d	-0.12133298
110	0xbdbdfa2b	-0.092762314
111	0xbd327c08	-0.043575317
112	0xbe7390d7	-0.23785721
113	0x3d27fafc	0.04101084
114	0xbe119bd0	-0.14219594
115	0x3e90c376	0.28274125
116	0xba713902	-0.0009201915
117	0x3d5442ce	0.051821522
118	0x3e47684a	0.19473377
119	0x3d54dc65	0.051967997
120	0xbd7a59ce	-0.0611208
121	0x3c530cee	0.012881501
122	0x3d53758c	0.051625773
123	0x3e877185	0.26453796
124	0xbdce0a1e	-0.100605235
125	0x3c64fdf5	0.013976564
126	0x3e755ae0	0.23960447
127	0x3d84f9db	0.06492969
128	0xbeb15874	-0.34637797
129	0xbd5b5312	-0.05354602
130	0x3e4e47d9	0.20144595
131	0xbc3c6ab7	-0.011500052
132	0x3e3cc7ed	0.1843564
133	0xbd9f081e	-0.0776522
134	0x3dd50866	0.104019925
135	0x3e888bf5	0.2666928
136	0x3dc3c2c6	0.095586345
137	0xbe69bb57	-0.2282537
138	0x3e1785f0	0.14797187
139	0x3e160eb5	0.14654048
140	0xbe45d0a7	-0.19317876
141	0x3decf837	0.11570781
142	0x3cf61a15	0.030041734
143	0x3d5e62dd	0.054293502
144	0xbd864b1c	-0.06557295
145	0xbc9a8ebe	-0.018866893
146	0x3e076dcb	0.13225476
147	0x3ea496ab	0.321462
148	0x3e49472d	0.19656058
149	0xbe9db8fc	-0.30805194
150	0x3e3cb51a	0.1842846
151	0x3e150c63	0.14555506
152	0x3e3acee2	0.18242982
153	0x3e8ffded	0.28123417
154	0x3d870895	0.06593434
155	0xbe108456	-0.14112982
156	0x3d72aeee	0.059248857
157	0x3eabc1c8	0.3354628
158	0x3da2f3f1	0.079566844
159	0xbdf5f933	-0.120104216
160	0x3ecfc92f	0.40583178
161	0xba828919	-0.0009959071
162	0xbd052f96	-0.032516085
163	0xbecc0335	-0.39846197
164	0xbcf0b0da	-0.029381204
165	0x3e54bf5d	0.20776124
166	0xbc5e51a7	-0.013569272
167	0xbe2c2995	-0.16812737
168	0xbd220371	-0.039554063
169	0x3deaab6a	0.11458476
170	0x3e36491b	0.17801325
171	0x3d50dceb	0.050991934
172	0xbd841183	-0.064486526
173	0x3e0000cd	0.12500305
174	0xbe3ce6b4	-0.18447381
175	0xbda3ddb1	-0.08001269
176	0xbe085993	-0.1331542
177	0xbe1e4afc	-0.15458292
178	0x3d7df3ad	0.061999965
179	0xbeac0199	-0.3359497
180	0xbde483c7	-0.11157947
181	0x3dbc2f39	0.091886945
182	0xbe600c8d	-0.21879788
183	0x3c3eee3e	0.011653481
184	0xbe027a75	-0.12742026
185	0x3e5e7803	0.21725468
186	0x3d4574fa	0.04820726
187	0x3d423b87	0.04742005
188	0xbd716a00	-0.05893898
189	0xbe9824a5	-0.29715458
190	0xbd9407d9	-0.07228059
191	0x3cdd9b17	0.027051492
192	0xbe26ccde	-0.16289088
193	0x3c6c3efc	0.0144193135
194	0x3db763f4	0.089546114
195	0xbd779f0a	-0.060454406
196	0x3c6b7722	0.014371665
197	0xbd7de646	-0.061987184
198	0x3f048022	0.51758015
199	0x3e985aaf	0.29756686
200	0x3de89203	0.113559745
201	0x3e58cde7	0.21172296
202	0x3d813967	0.06309777
203	0x3eb661d2	0.35621506
204	0xbe2f4a6a	-0.1711823
205	0xbe2378be	-0.15964028
206	0x3e510240	0.20411015
207	0xbe0a7231	-0.13520123
208	0xbcdfdba6	-0.027326416
209	0xbe66941b	-0.22517435
210	0xbe573fbc	-0.21020406
211	0x3e0f8ba8	0.14018118
212	0x3dabfa78	0.083973825
213	0xbe9df391	-0.3084989
214	0x3ed4319a	0.41444093
215	0x3edbfc2a	0.42965823
216	0x3e6400b3	0.22265892
217	0x3e2f1fc1	0.17101957
218	0x3d78515e	0.060624473
219	0xbdd2b6b8	-0.10288757
220	0xbdab29cc	-0.083575815
221	0x3d025b94	0.031825617
222	0x3dc77421	0.09738947
223	0xbd3f6bcf	-0.046733674
224	0x3e0aa643	0.13539986
225	0xbd37398c	-0.044732615
226	0x3d868759	0.06568784
227	0xbe9c524c	-0.30531538
228	0x3d37971b	0.04482184
229	0x3e8dcb5e	0.2769422
230	0x3eabb1d8	0.33534122
231	0x3e22ae8f	0.15886901
232	0xbe05b952	-0.13058975
233	0x3d8b2126	0.06793432
234	0xbd4cb5d1	-0.04997808
235	0x3e53a968	0.20670092
236	0x3e8a0ae1	0.26961425
237	0x3e0caf8e	0.13738844
238	0xbd8bc3c6	-0.0682445
239	0x3e5dffce	0.21679613
240	0x3d4ad573	0.049519967
241	0x3e5f8e26	0.21831569
242	0x3cd61bf5	0.026136378
243	0x3ee56740	0.44805336
244	0x3e1adf26	0.15124187
245	0x3d7d227f	0.061800476
246	0x3e14ea6e	0.14542553
247	0xbd1d54e9	-0.038411055
248	0x3d55f158	0.052232116
249	0x3e18567d	0.14876743
250	0x3d8db959	0.06920118
251	0x3e483974	0.19553167
252	0x3d1a12af	0.037615474
253	0xbdb30445	-0.08741049
254	0x3e47d6b6	0.195155
255	0xbdbce510	-0.09223378

bias f4 [32]
0	0xbe0eae2a	-0.13933626
1	0xbd875f27	-0.06609946
2	0x3e51703b	0.20452969
3	0xbd1c6f93	-0.038192343
4	0xbe565e11	-0.20934321
5	0x3e178b96	0.14799342
6	0x3d7a8b87	0.06116822
7	0x3e256886	0.16153154
8	0x3df73c90	0.12072098
9	0xbce904ec	-0.02844473
10	0x3dd2ef0c	0.10299501
11	0x3e1a0c46	0.15043744
12	0xbd818ecb	-0.06326064
13	0x3c4b23b8	0.012398653
14	0xbd36e575	-0.04465242
15	0x3e07b7d2	0.13253716
16	0xbe2eaae8	-0.17057383
17	0x3df9d602	0.12199022
18	0x3daa4f8f	0.08315956
19	0xbd198a25	-0.03748526
20	0x3e1b2c2e	0.15153572
21	0xbe0d860b	-0.13820665
22	0xbdcdfd0a	-0.10058029
23	0x3d61fef8	0.055174798
24	0xbdbfc1b2	-0.09363116
25	0x3d7d4aaa	0.061838783
26	0xbe1a2661	-0.15053703
27	0xbe664b9b	-0.22489779
28	0xbe29d701	-0.16585924
29	0xbe493e11	-0.19652583
30	0xbd1505cf	-0.036382493
31	0xbca95906	-0.020672332

weight f4 [32, 64]
0	0xbd50c808	-0.050972015
1	0x3b87ada0	0.0041405708
2	0xbd7e4a08	-0.06208232
3	0x3d411508	0.047139198
4	0xbdda2048	-0.106506884
5	0x3dbba8c4	0.09163049
6	0xbdba1234	-0.09085503
7	0xbdcb87de	-0.09938024
8	0xbda1c35a	-0.078985885
9	0x3d67e1a8	0.056611687
10	0xbd3d2e14	-0.04618652
11	0x3d3f98e4	0.046776667
12	0xbdd94654	-0.10609117
13	0xbd9b523e	-0.07584046
14	0xbd3bfe80	-0.045897007
15	0xbcc93c78	-0.024564967
16	0xbdc34b04	-0.095357925
17	0x3da7a05e	0.081848845
18	0xbcf17db8	-0.029478893
19	0x3d245880	0.040123463
20	0x3db5075c	0.08839294
21	0x3cbec700	0.02328825
22	0x3d0c01bc	0.03418134
23	0x3df71b32	0.12065734
24	0xbd66eab4	-0.056376174
25	0x3d222d38	0.039593905
26	0xbd63cc0c	-0.055614516
27	0x3db6f348	0.08933121
28	0x3dcc74c0	0.09983206
29	0xbdec0660	-0.115246534
30	0x3dda8888	0.106705725
31	0x3d747cc4	0.0596893
32	0x3d5f1cdc	0.05447088
33	0x3d52c70c	0.051459357
34	0x3dd4d004	0.10391238
35	0xbc873560	-0.016504943
36	0xbdd87fb2	-0.10571231
37	0xbd12eaf8	-0.035868615
38	0xbdb44b58	-0.08803433
39	0x3c0762f0	0.008263335
40	0xbcbf3040	-0.023338437
41	0xbd895086	-0.06704812
42	0xbc3a3500	-0.011365175
43	0x3df2890e	0.11842547
44	0xbc218970	-0.009859428
45	0x3b820c60	0.0039687604
46	0xbc9fb420	-0.01949507
47	0x3ca0fae0	0.019650877
48	0x3de41968	0.11137658
49	0x3d9c8acc	0.07643661
50	0x3d35bd84	0.04437019
51	0x3cde86a8	0.027163818
52	0x3cf173b0	0.02947411
53	0x3d45cd78	0.048291653
54	0xbc845328	-0.016152933
55	0xbdededbc	-0.1161761
56	0xbd9e503e	-0.07730149
57	0x3dda8498	0.106698215
58	0x3bf4d500	0.0074716806
59	0xbdcf60fa	-0.10125919
60	0x3ca18350	0.019715935
61	0x3dd3868a	0.10328396
62	0xbdf1eb80	-0.11812496
63	0xbdac596a	-0.08415492
64	0xbd4be978	-0.0497832
65	0x3ba46740	0.005017191
66	0xbceed3b0	-0.029153675
67	0xbc610ea0	-0.013736397
68	0xbdf99266	-0.121861264
69	0x3d6fc248	0.05853489
70	0x3de0b3c8	0.109717906
71	0x3d9c7a1e	0.076404795
72	0xbdb5482a	-0.08851655
73	0xbdce5cca	-0.10076292
74	0x3d549bf4	0.05190654
75	0x3b37fb00	0.0028073192
76	0x3d51e278	0.051241368
77	0xbdfa2698	-0.122143924
78	0xbbf43740	-0.0074528754
79	0x3db48ada	0.08815546
80	0x3d6d85cc	0.057988927
81	0x3b959340	0.0045646727
82	0x3cc95680	0.02457738
83	0xbc41e7a0	-0.011835009
84	0xbd8cc1e4	-0.06872919
85	0xbd417c04	-0.04723741
86	0xbd9be618	-0.07612246
87	0x3dd4a2ce	0.10382615
88	0x3d8cdf96	0.06878583
89	0x3d330ed8	0.043715328
90	0xbdc45072	-0.09585656
91	0x3dc58902	0.09645273
92	0x3d2088ac	0.03919284
93	0x3db11974	0.08647433
94	0xbd496a6c	-0.049173757
95	0x3cd915b8	0.026499614
96	0x3df9f432	0.1220478
97	0x3dac3364	0.084082395
98	0x3dcd4fa8	0.10024959
99	0xbcd70640	-0.026248097
100	0x3dc30a62	0.09523465
101	0xbdc881e8	-0.09790403
102	0x3c312120	0.01081112
103	0xbd90245e	-0.070381865
104	0xbceecff8	-0.029151902
105	0xbd031f34	-0.03201218
106	0x3c193ac0	0.009352386
107	0x3de8feea	0.11376746
108	0x3d7d7ba4	0.06188549
109	0xba0ad000	-0.00052952766
110	0x3db5b870	0.08873069
111	0xbd83304a	-0.06405695
112	0x3d83ef62	0.06442143
113	0xbc3deaa0	-0.0115915835
114	0xbcb22fe8	-0.02175136
115	0x3c6fc430	0.014634177
116	0xbdc41eea	-0.09576209
117	0x3c6ca950	0.014444664
118	0x3d2c2764	0.042029753
119	0x3ddadcce	0.106866464
120	0xbd1f685c	-0.038917884
121	0x3d385588	0.045003444
122	0x3dffe006	0.12493901
123	0xbd5ba1d4	-0.05362113
124	0x3df35a06	0.11882405
125	0xbd7e3434	-0.062061504
126	0x3d61afe0	0.055099368
127	0x3d489378	0.048968762
128	0x3d0f0418	0.034916013
129	0x3dca7212	0.098850384
130	0xbd4eeea4	-0.050520554
131	0x3d069038	0.03285238
132	0x3a37e600	0.00070151687
133	0xbdc08c5a	-0.0940177
134	0xbcf8a438	-0.030351743
135	0xbdaaf674	-0.083477885
136	0x3d626230	0.05526942
137	0x3c381b60	0.011236995
138	0x3c48a1b0	0.012245581
139	0xbd1b5368	-0.03792134
140	0x3a1d9100	0.00060106814
141	0xbd1f410c	-0.038880393
142	0x3d131db8	0.035917014
143	0x3df89e94	0.121396214
144	0x3c9b1b18	0.018933818
145	0xbd62c630	-0.055364788
146	0xbd9c5f3a	-0.076353505
147	0x3c1c8c10	0.009554878
148	0xbdbde9a2	-0.092730775
149	0xbdc06c26	-0.09395628
150	0xbda69fe0	-0.081359625
151	0xbd2de5ec	-0.0424556
152	0x3c179680	0.009252191
153	0x3db048da	0.08607645
154	0x3d465158	0.04841742
155	0x3dc4205c	0.095764846
156	0xbda0bde2	-0.07848717
157	0x3c2cd3b0	0.010548517
158	0xbde38db0	-0.11111009
159	0x3d92db32	0.071707144
160	0x3cd56968	0.026051238
161	0x3df79b62	0.12090184
162	0xbdb61200	-0.08890152
163	0x3dcd4b46	0.10024123
164	0x3dd81f3a	0.10552831
165	0x3dcefb02	0.1010647
166	0x3c921e98	0.017836854
167	0x3de8c688	0.11365992
168	0x3daaf73c	0.083479375
169	0x3dbeff0e	0.093259916
170	0xbc050a30	-0.008120105
171	0xbdc47434	-0.095924765
172	0xbacbe200	-0.0015555024
173	0x3cc00a08	0.023442283
174	0xbdae6118	-0.08514613
175	0xbd92da04	-0.071704894
176	0xbdf57068	-0.119843304
177	0xbd337af4	-0.04381843
178	0x3ddefe58	0.10888356
179	0x3caf1998	0.021374509
180	0xbbfa2f20	-0.0076350123
181	0x3ba47cc0	0.005019754
182	0x3d9fa0b0	0.077943206
183	0xbde21074	-0.110382944
184	0xbdc586e6	-0.096448705
185	0xbd2a3990	-0.041558802
186	0xbd935528	-0.07193977
187	0x3d840a7e	0.06447314
188	0x3db4e2a8	0.08832294
189	0xbdf860b8	-0.12127823
190	0xbdd94312	-0.10608496
191	0xbdf94c20	-0.12172723
192	0x3d412780	0.04715681
193	0x3dce0af2	0.100606814
194	0xbdc67cb0	-0.09691751
195	0xbd6d08a0	-0.057869554
196	0x3d22edd0	0.039777577
197	0xbda72a0c	-0.08162317
198	0x3dd9777e	0.106184945
199	0x3ceec1d0	0.029145151
200	0xbd0e884c	-0.03479795
201	0x3c0504d0	0.008118823
202	0x3d1fa020	0.038971066
203	0xbd350cc8	-0.044201642
204	0xbdc65cf4	-0.09685698
205	0x3a5c4100	0.000840202
206	0x3b153780	0.0022768676
207	0x3b253180	0.0025206506
208	0xbc956ec0	-0.018241286
209	0x3da45eee	0.08025919
210	0xbd0ee0d8	-0.034882396
211	0xbc463b40	-0.012099087
212	0x3d528730	0.051398456
213	0xbda122ce	-0.078679666
214	0x3d0917a8	0.033469826
215	0xbce26c28	-0.027639464
216	0x3d7597c4	0.059959188
217	0xbd8adef2	-0.06780805
218	0x3b9761a0	0.004619792
219	0x3c485ac0	0.012228668
220	0xbdcdfa0a	-0.10057457
221	0xbdba25fe	-0.09089278
222	0x3d445bdc	0.047939166
223	0xbd15055c	-0.036382064
224	0x3d98099c	0.07423708
225	0xbdfce490	-0.12348282
226	0xbd7d18a4	-0.061791077
227	0xbdd2db82	-0.10295774
228	0x3d4c8784	0.049933925
229	0xbb6d7f40	-0.0036239177
230	0xbcbeff78	-0.023315176
231	0xbcaa5d40	-0.020796418
232	0xbdc81a24	-0.09770611
233	0x3d11335c	0.03544937
234	0x3b4c3140	0.0031157285
235	0xbdb0ab3e	-0.08626412
236	0x3d40a8c8	0.047035962
237	0xbb24a6c0	-0.0025123805
238	0xbdf796fc	-0.12089345
239	0x3d89b524	0.06724003
240	0x3d88ee5c	0.066860884
241	0xbcc0ee98	-0.02355127
242	0xbdb0c08e	-0.08630477
243	0x3ba47460	0.005018756
244	0x3dc12c24	0.09432247
245	0x3dea53b6	0.11441748
246	0xbdc13aa4	-0.09435013
247	0xbd674128	-0.056458622
248	0x3dc753ee	0.09732805
249	0x3d7a4124	0.06109728
250	0x3d9e77a2	0.07737662
251	0xbd7ed708	-0.06221679
252	0x3ddc8d86	0.10769181
253	0xbdd272ea	-0.10275824
254	0xbbc54cc0	-0.006021112
255	0x3b2a1700	0.002595365

bias f4 [32]
0	0x3bc4a0e0	0.006000623
1	0xbdf590fa	-0.11990543
2	0x3c824228	0.015900686
3	0x3d34205c	0.043976173
4	0x3de51af6	0.11186783
5	0xbd25f43c	-0.040516123
6	0x3d38ac5c	0.04508625
7	0xbd2b9140	-0.041886568
8	0xbd340bb4	-0.043956473
9	0xbde2d6e8	-0.11076146
10	0x3cd823a8	0.02638419
11	0x3dabc6c2	0.083875194
12	0xbd8e6972	-0.06953706
13	0x3d5152e4	0.05110444
14	0xbc9fbaf8	-0.019498333
15	0xbdb5c1a4	-0.08874825
16	0x3c5a6040	0.013328612
17	0xbdf978e2	-0.1218126
18	0x3d893b9e	0.06700824
19	0xbce24198	-0.027619168
20	0x3debc534	0.11512223
21	0x3b973520	0.0046144873
22	0xbdf8308a	-0.12118633
23	0x3dc6a8d2	0.09700169
24	0xbcdffb10	-0.027341396
25	0xbdaf5ae6	-0.085622594
26	0x3dec5cbc	0.11541125
27	0x3c3f4760	0.011674732
28	0x3d25ff34	0.040526584
29	0xbddd7652	-0.108135834
30	0xbd34d278	-0.04414603
31	0x3dcd66e6	0.10029392

weight_ih_l0 f4 [128, 32]
0	0x3d895dfb	0.067073785
1	0x3e07b54b	0.13252752
2	0xbdb68926	-0.08912878
3	0xbd871b81	-0.06597043
4	0xbdfeb117	-0.12436121
5	0xbd91e339	-0.071234174
6	0xbeaab7f0	-0.33343458
7	0xbf0494ab	-0.5178935
8	0xbe63b975	-0.22238715
9	0x3eb63e6d	0.35594502
10	0x3df3ad5d	0.11898301
11	0xbe09174d	-0.13387795
12	0x3e179837	0.14804159
13	0xbe90c286	-0.2827341
14	0x3e09632f	0.13416742
15	0x3d7eb38d	0.06218295
16	0x3e0476ba	0.12935916
17	0x3eb5c1d0	0.3549943
18	0xbe4a6dce	-0.1976845
19	0x3dcde4df	0.10053419
20	0xbecb6752	-0.39727265
21	0x3c4c2cae	0.012461824
22	0xbe6f55d7	-0.23372589
23	0xbee88bf9	-0.4541929
24	0xbd9842c6	-0.07434611
25	0xbe8ba054	-0.27270758
26	0x3d9b115c	0.075716704
27	0x3e1e9373	0.15485935
28	0x3e1f651f	0.15565918
29	0xbe0d7525	-0.13814218
30	0x3deafbf7	0.1147384
31	0xbe506fb6	-0.20355114
32	0x3df226f0	0.11823833
33	0x398e76ee	0.0002717296
34	0xbe0aaf01	-0.13543321
35	0xbe63c434	-0.22242814
36	0x3d2f70ba	0.042832114
37	0xbd33c8bc	-0.043892607
38	0xbbe601b2	-0.007019245
39	0xbeb66116	-0.35620946
40	0xbe188b5a	-0.14896908
41	0x3eb52cfa	0.35385877
42	0x3e7119ef	0.23545049
43	0x3c121dee	0.008918269
44	0x3e9b822c	0.3037275
45	0xbd917591	-0.07102502
46	0xbe025739	-0.12728585
47	0xbdae74cd	-0.08518372
48	0x3e02dc7d	0.12779422
49	0x3e6c73e2	0.23091081
50	0xbd13427f	-0.035952087
51	0x3e086779	0.13320722
52	0xbeae4e32	-0.34044033
53	0xbd8441df	-0.064578764
54	0xbe1055ab	-0.1409518
55	0xbf085ad0	-0.5326357
56	0x3d50511a	0.050858594
57	0xbdf6309e	-0.12020992
58	0x3e969c8d	0.29416314
59	0x3e209481	0.1568165
60	0x3d733e38	0.05938551
61	0x3cf5ebae	0.030019607
62	0x3da20a35	0.07912103
63	0xbe00d412	-0.12580898
64	0x3e30e672	0.17275408
65	0x3e6477a9	0.22311272
66	0x3d544aa3	0.05182899
67	0xbe8bc9b3	-0.27302322
68	0x3df20acf	0.11818468
69	0xbe9ecc1e	-0.31015104
70	0xbd1dd480	-0.038532734
71	0xbecf461a	-0.4048317
72	0xbd845237	-0.06460994
73	0x3e941e9e	0.2892961
74	0x3e943517	0.28946754
75	0xbe9fa6de	-0.31181997
76	0x3d2f4902	0.042794235
77	0xbe20b0aa	-0.15692392
78	0xbb9eb999	-0.0048439023
79	0xbe08a207	-0.13343059
80	0x3e922912	0.2854696
81	0x3effc551	0.49955228
82	0xbd94154b	-0.07230624
83	0x3dfbb61d	0.12290595
84	0xbdb17112	-0.086641446
85	0x3dd48825	0.1037753
86	0xbe5938c6	-0.21213064
87	0xbf232883	-0.6373369
88	0xbd9c8122	-0.07641818
89	0xbecd0bc7	-0.40048048
90	0x3e0f3dab	0.13988368
91	0x3eab430b	0.33449587
92	0x3e0a6ee0	0.13518858
93	0xbd54b1ff	-0.051927563
94	0x3c692447	0.014229841
95	0x3d458541	0.048222784
96	0x3e389c04	0.18028265
97	0x3d9e8a30	0.07741201
98	0xbe298206	-0.16553506
99	0xbeee4d23	-0.46543226
100	0xbdf90355	-0.12158839
101	0xbe559c0a	-0.20860305
102	0xbcada20a	-0.02119543
103	0xbf1f3e9e	-0.6220492
104	0x3e14cc44	0.14531046
105	0x3e4cddaa	0.20006433
106	0xbc4452df	-0.011982649
107	0x3dd2f42c	0.10300478
108	0x3d567861	0.052360896
109	0xbe636afd	-0.22208782
110	0x3defc4c8	0.11707455
111	0x3e45e06d	0.19323893
112	0x3da1f0c5	0.07907251
113	0x3e84d8f0	0.2594676
114	0xbde585b9	-0.11207146
115	0xbda0aef4	-0.0784587
116	0xbd8a7994	-0.067614704
117	0xbe65270c	-0.22378176
118	0xbe5f9bde	-0.21836802
119	0xbf120f73	-0.57054824
120	0xbe12fe27	-0.14354764
121	0xbe9496f8	-0.2902143
122	0xbb9bee85	-0.0047586584
123	0x3dcd65ef	0.10029208
124	0x3d9dc5ec	0.07703766
125	0x3d548042	0.05188013
126	0xbdd61fb6	-0.10455267
127	0xbc0a7af9	-0.0084521705
128	0xbd75767a	-0.05992744
129	0xbced70d9	-0.028984474
130	0x3dc953fe	0.09830473
131	0xbed1883e	-0.40924257
132	0xbe38943d	-0.18025298
133	0xbdf67c6c	-0.1203545
134	0xbddffee4	-0.109372884
135	0xbeb42529	-0.351846
136	0xbd64dfa1	-0.05587733
137	0x3db8a9f8	0.09016794
138	0x3e473879	0.19455136
139	0x3e1cb5a6	0.15303668
140	0x3e730f7a	0.23736373
141	0xbe8637f4	-0.26214564
142	0x3cb8fb85	0.022580871
143	0x3cb484a6	0.022035908
144	0x3d5c7f91	0.053832594
145	0x3f14cf83	0.5812914
146	0xbe78b5cd	-0.24288101
147	0xbe7bc750	-0.2458775
148	0xbde013d6	-0.109412834
149	0xbe7b7ef2	-0.24560145
150	0xbe0bc3a5	-0.13648851
151	0xbf0030cf	-0.50074476
152	0xbe2b2c32	-0.16716078
153	0xbe637b8e	-0.22215101
154	0x3da3ac39	0.07991833
155	0x3e3fbb36	0.18723759
156	0x3e5e23b6	0.2169331
157	0xbdcdec3a	-0.10054822
158	0xbe84bf30	-0.25927114
159	0xbcc401eb	-0.023926696
160	0xbd7e1398	-0.062030405
161	0x3c9def3a	0.019279111
162	0xbde2b633	-0.11069908
163	0xbe8e47de	-0.27789205
164	0xbe529484	-0.20564467
165	0xbc77e90c	-0.015131246
166	0xbea7b44a	-0.32754737
167	0xbec0905d	-0.3761014
168	0xbea4537c	-0.32094944
169	0x3e59c991	0.21268298
170	0x3bbbc32f	0.005730055
171	0xbb2be2c6	-0.0026227697
172	0x3e356760	0.17715216
173	0xbda7fe7e	-0.082028374
174	0x3de4bb7a	0.11168571
175	0x3e08b6b7	0.1335095
176	0x3e886824	0.26641953
177	0x3e68f0f3	0.22748165
178	0x3dca791a	0.098863795
179	0xbe1d0c85	-0.15336807
180	0xbed03183	-0.40662774
181	0xbd44608a	-0.04794363
182	0x3d0708af	0.032967266
183	0xbf032608	-0.51229906
184	0xbb97f35f	-0.0046371664
185	0xbe98e5f8	-0.29862952
186	0x3e101d54	0.14073688
187	0x3e69b1ea	0.22821775
188	0x3e1caab3	0.15299492
189	0xbcae8631	-0.021304222
190	0xbeb599e7	-0.3546898
191	0xbd079abd	-0.033106554
192	0x3e53d619	0.2068714
193	0x3e1e757e	0.15474507
194	0xbe734e8d	-0.23760433
195	0xbd446fb6	-0.0479581
196	0x3dac1d8f	0.08404075
197	0xbdb4c6b3	-0.08826961
198	0xbd263a7f	-0.04058313
199	0xbee23a44	-0.44185078
200	0xbcd15cc6	-0.025556933
201	0x3d2bbd81	0.041928772
202	0x3c4d8be5	0.0125455605
203	0xbdface1b	-0.12246343
204	0x3d3f3907	0.046685245
205	0xbe0e8d1a	-0.13921013
206	0xbcd668c5	-0.026173005
207	0xbcdbcb28	-0.02683027
208	0x3e35e994	0.17764884
209	0x3ebb8e8a	0.36632186
210	0xbe402d93	-0.18767385
211	0x3d08cfec	0.033401415
212	0xbea05b69	-0.3131974
213	0xbb85fa1c	-0.0040886533
214	0xbd66b2b0	-0.056322753
215	0xbf261d34	-0.6488831
216	0xbd8f14dd	-0.06986401
217	0xbe181286	-0.14850816
218	0x3dcd66ed	0.10029397
219	0x3eb223fd	0.34793082
220	0x3d78c117	0.06073102
221	0x3c399b87	0.0113285845
222	0xbe2578f1	-0.16159417
223	0xbde6d59d	-0.11271212
224	0xbca5b331	-0.020227047
225	0x3eda8caf	0.42685458
226	0xbbf5af2d	-0.007497689
227	0xbed7d927	-0.42157862
228	0xbe41de78	-0.18932521
229	0xbebd6fb4	-0.36999285
230	0xbd9e6a16	-0.07735078
231	0xbf15c1f0	-0.5849905
232	0xbe20ee56	-0.15715918
233	0x3e16c7dc	0.14724678
234	0x3cc0fc9b	0.023557952
235	0xbe8a43e5	-0.27004924
236	0x3dd1cade	0.10243772
237	0xbedbf149	-0.42957523
238	0xbc0ad627	-0.008473909
239	0xbe071acb	-0.13193814
240	0x3e800896	0.2500655
241	0x3e8cb0f4	0.27478755
242	0xbe6d99f0	-0.23203254
243	0x3ddcc0ba	0.10778947
244	0xbe22cf80	-0.15899467
245	0xbc6eda1c	-0.0145783685
246	0x3d03cd2d	0.032178093
247	0xbf21f987	-0.63271374
248	0x3e451d6e	0.19249508
249	0xbec7fa85	-0.3905832
250	0x3edbbf61	0.42919448
251	0x3ea66563	0.32499227
252	0x3e92a8ee	0.28644508
253	0x3c420490	0.011841908
254	0xbe1d6b5c	-0.15372986
255	0x3e175f72	0.14782503

weight_hh_l0 f4 [128, 32]
0	0x3d87deee	0.06634317
1	0x3d2345e7	0.039861586
2	0xbdeb835e	-0.11499666
3	0xbe00950d	-0.12556858
4	0xbcd7b512	-0.026331458
5	0xbd7fad13	-0.062420916
6	0x3e17b199	0.14813842
7	0x3cc128a4	0.02357895
8	0x3e2006f0	0.15627646
9	0xbe07c439	-0.13258447
10	0xbd372476	-0.044712506
11	0xbde96b48	-0.113974154
12	0xbe27fb87	-0.16404544
13	0xbcc08a9c	-0.023503594
14	0x3d95f257	0.07321613
15	0x3d90900d	0.070587255
16	0x3dd437e3	0.10362222
17	0x3b69ad59	0.0035656302
18	0x3e4c108e	0.1992819
19	0x3d878f29	0.066191025
20	0x3e3aa165	0.1822563
21	0x3d94541d	0.07242606
22	0xbc41f002	-0.0118370075
23	0xbd07e0d2	-0.03317339
24	0x3dce5b3d	0.10075996
25	0xbdc7411b	-0.09729215
26	0x3dae0c23	0.08498409
27	0x3dd86982	0.10566999
28	0xbdf98ab0	-0.12184656
29	0xbda15d66	-0.078791425
30	0x3dfcb40d	0.123390295
31	0xbe00d447	-0.12580977
32	0x3e317a4b	0.17331807
33	0x3dcd74a0	0.1003201
34	0xbe1ff0ea	-0.15619245
35	0x3dda1900	0.106492996
36	0xbdacfb73	-0.08446398
37	0xbe539761	-0.20663215
38	0x3df43666	0.11924438
39	0xbe287738	-0.16451728
40	0x3dd5396b	0.10411342
41	0x3d4f2ce0	0.050579906
42	0xbdb928a7	-0.09040957
43	0xbd9b6b6b	-0.07588848
44	0x3a635477	0.0008671949
45	0xbb13b3ab	-0.002253751
46	0x3d1e7fcc	0.038696095
47	0x3c715558	0.01472982
48	0xbd99c694	-0.07508579
49	0x3d5d2d66	0.053998373
50	0xbdcff9ec	-0.10155091
51	0xbd9a5343	-0.07535412
52	0x3e1ccee8	0.15313303
53	0xbd815425	-0.063148774
54	0xbd9d177d	-0.07670496
55	0xbe414cca	-0.18876949
56	0x3ceaab28	0.028646067
57	0x3d73348c	0.059376284
58	0x3dbf9670	0.093548656
59	0x3ddb39a2	0.10704352
60	0x3e4537f3	0.19259624
61	0xbd769865	-0.06020393
62	0x3d3e827f	0.04651117
63	0xbdbf472a	-0.09339745
64	0x3d51a468	0.05118218
65	0xbc5a2343	-0.013314071
66	0xbe28b452	-0.16475037
67	0xbc586b3b	-0.0132091595
68	0x3e60d40a	0.21955886
69	0x3da856bd	0.08219669
70	0x3e4aab51	0.19791915
71	0x3d3c4ed7	0.045973625
72	0x3e068669	0.13137211
73	0x3ded11a6	0.11575632
74	0xbe19f31d	-0.15034147
75	0x3d705ef5	0.058684308
76	0xbd752b89	-0.05985597
77	0x3def6c64	0.11690596
78	0xbe0afcb7	-0.13572966
79	0x3e4ce922	0.20010808
80	0x3e12c371	0.14332367
81	0x3dfdede9	0.123988934
82	0x3a6c80a6	0.00090218557
83	0xbe199d0e	-0.15001318
84	0xbdd19d71	-0.10235108
85	0x3d1ec0c5	0.038758058
86	0x3da75e13	0.0817224
87	0xbe661579	-0.22469129
88	0x3e34d5da	0.17659703
89	0xbd199cab	-0.037502926
90	0x3dbcb127	0.09213477
91	0xbbef2f9e	-0.0072993776
92	0x3d212f58	0.03935179
93	0x3cf051b5	0.029335836
94	0xbd7416c3	-0.05959202
95	0xbd91009d	-0.07080195
96	0x3d7b75d4	0.061391667
97	0x3e1ec4c6	0.1550475
98	0x3dfaccd6	0.122461006
99	0xbdb7edb6	-0.08980887
100	0x3d179e84	0.037016407
101	0xbc738960	-0.014864296
102	0xbd58cedb	-0.052931648
103	0x3e02a0bb	0.12756626
104	0x3cff193a	0.031139959
105	0x3e511a96	0.20420298
106	0x3de2eeb0	0.11080682
107	0xbe342e72	-0.17595842
108	0xbe4d3eb0	-0.20043445
109	0xbd2fef37	-0.042952742
110	0xbe1bd7f2	-0.15219095
111	0x3d79c361	0.060977343
112	0xbdd48001	-0.10375977
113	0xbdb13929	-0.086534806
114	0xbe2755bc	-0.16341299
115	0x3db1c7b5	0.08680669
116	0xba8afd7d	-0.001060411
117	0x3d376444	0.044773355
118	0xbd890bec	-0.06691727
119	0xbe285375	-0.16438086
120	0xbdeb92af	-0.11502587
121	0x3db94dc4	0.09048036
122	0xbd324b2f	-0.043528732
123	0x3d5e70e3	0.054306876
124	0x3ddb3dfc	0.10705182
125	0x3e4621c9	0.19348826
126	0xbd5fc666	-0.054632567
127	0x3e42c1d0	0.19019246
128	0xb92d79f2	-0.00016543994
129	0x3e238b36	0.15971074
130	0x3e353463	0.17695765
131	0xbcfbafb4	-0.03072343
132	0xbe27760e	-0.16353628
133	0xbe8f2fa8	-0.27966046
134	0xbd9c5b52	-0.076346055
135	0xbde77b2d	-0.11302791
136	0xbdf290a9	-0.11843998
137	0x38b14e69	8.454623e-05
138	0x3d69722b	0.056993645
139	0xbce72fa2	-0.028220955
140	0x3cabada2	0.020956818
141	0xbe4317ec	-0.19052094
142	0xbcb1a160	-0.021683395
143	0xbc2a09cd	-0.010378313
144	0x3dde45d5	0.10853163
145	0xbe25c48d	-0.1618826
146	0xbe1b9f5e	-0.15197513
147	0xbe406a42	-0.18790534
148	0x3e0312ec	0.12800187
149	0xbcd9ca4e	-0.026585724
150	0x3d6fc2e9	0.05853549
151	0x3e0f25d4	0.13979274
152	0x3db0b079	0.086274095
153	0xbd444643	-0.04791857
154	0xbd87efb3	-0.06637516
155	0x3e100b37	0.14066778
156	0x3dd83907	0.10557752
157	0x3e05e04e	0.13073847
158	0xbdd7513a	-0.105135396
159	0x3da311bb	0.07962366
160	0xbdd23912	-0.102647915
161	0xbe1299fa	-0.1431655
162	0xbd96ec5a	-0.07369299
163	0x3d3c3a42	0.045953996
164	0x3e23c173	0.15991764
165	0x3e0fd63f	0.14046572
166	0x3cdcc78b	0.026950618
167	0xbc301da4	-0.010749254
168	0x3e110030	0.14160228
169	0x3da68abf	0.081319325
170	0x3d156434	0.036472514
171	0x3d9807a0	0.07423329
172	0x3d9fa95f	0.07795977
173	0xbb1cc8d6	-0.0023923418
174	0x3cad5a5f	0.021161256
175	0xbc550bf7	-0.013003341
176	0x3d699054	0.057022408
177	0xbd8b2aeb	-0.06795295
178	0x3e0837d4	0.13302547
179	0xbdad2330	-0.08453977
180	0xbdd3e553	-0.103464745
181	0xbe368750	-0.17825055
182	0xbe0cfef5	-0.13769133
183	0xbbbbecf7	-0.0057350355
184	0x3d0247b0	0.031806648
185	0xbe071518	-0.1319164
186	0xbdd3657e	-0.103220925
187	0xbe498c7b	-0.19682495
188	0x3de91005	0.113800086
189	0xbdf48bf3	-0.11940756
190	0x3de44224	0.11145428
191	0x3dc41ab0	0.09575403
192	0x3dae12f4	0.08499709
193	0x3e2cec4c	0.16887015
194	0x3de61216	0.11233918
195	0x3e2b909d	0.16754384
196	0x3d06f8b1	0.032952014
197	0xbdfba02a	-0.12286408
198	0xbdd6e8e2	-0.104936376
199	0x3c111e81	0.00885737
200	0x3dc8fb23	0.098135255
201	0x3e47efff	0.19525145
202	0xbd3e4a83	-0.04645778
203	0x3dd809f2	0.10548772
204	0xbdb58683	-0.08863547
205	0x3d5daa8c	0.054117724
206	0xbd77cfaa	-0.06050078
207	0x3d9ab841	0.07554675
208	0xbe2ad41e	-0.16682479
209	0xbe1a5bdd	-0.15074106
210	0x3b07dd7b	0.0020731378
211	0x3dfdc0e9	0.1239031
212	0x3d7ac282	0.061220653
213	0x3de41b10	0.11137974
214	0x3e3671b3	0.1781681
215	0x3c11c5c8	0.008897252
216	0x3e42f86f	0.19040082
217	0x3dbf6604	0.0934563
218	0xbe0edd08	-0.13951504
219	0x3dfed4d7	0.1244294
220	0xbda349be	-0.079730496
221	0x3df4816c	0.11938748
222	0x3d1bf14b	0.03807191
223	0x3dd7ad4c	0.10531101
224	0x3dfd0550	0.12354529
225	0xbdc3890f	-0.09547626
226	0xbd658fb1	-0.056045238
227	0x3e15d709	0.1463281
228	0x3d61426f	0.054994997
229	0x3dfc05ef	0.12305819
230	0x3e16c8be	0.14725015
231	0x3cc30935	0.023808101
232	0xbddb7be0	-0.10716987
233	0x3d61e965	0.055154223
234	0xbd94e44b	-0.07270106
235	0x3db664b1	0.08905924
236	0x3ddefe66	0.108883664
237	0x3ce075af	0.027399866
238	0xbdf71dd4	-0.12066236
239	0xbb32fe77	-0.0027312317
240	0xbe4ac666	-0.19802245
241	0x3bbeaed0	0.005819179
242	0x3e6428aa	0.22281137
243	0x3de7ccbd	0.113183476
244	0xbdcbc4ed	-0.0994967
245	0xbe024d64	-0.12724835
246	0x3d7b41d4	0.061342075
247	0xbe177722	-0.1479154
248	0x3dc1a541	0.09455348
249	0xbd20fc7a	-0.03930328
250	0xbdbf7a2d	-0.09349475
251	0xbd8cd0a1	-0.0687573
252	0xbcb7afeb	-0.022422751
253	0x3bd62dca	0.00653622
254	0x3de24876	0.11048977
255	0x3e3fb0a5	0.18719728

bias_ih_l0 f4 [128]
0	0xbea85483	-0.32876977
1	0xbe2e17d3	-0.17001276
2	0xbeea9610	-0.45817614
3	0xbd945ea3	-0.07244613
4	0xbd01e3f7	-0.031711545
5	0xbe326448	-0.17421067
6	0xbe943186	-0.28944033
7	0xbf0e2e55	-0.5553945
8	0xbec85bbb	-0.39132485
9	0xbe840701	-0.25786594
10	0xbe03d2ff	-0.12873457
11	0xbe0c60bf	-0.1370878
12	0xbe2f4d0c	-0.17119235
13	0xbee44484	-0.44583523
14	0xbedcc37d	-0.43117896
15	0xbe85d918	-0.26142192
16	0xbe75a16f	-0.23987363
17	0xbef90526	-0.4863674
18	0x3c887a4e	0.016659882
19	0xbe9d434c	-0.30715406
20	0xbe82c8de	-0.25543875
21	0xbe937bcd	-0.2880539
22	0xbe02106d	-0.12701578
23	0xbe70888f	-0.23489593
24	0xbeb28fdf	-0.3487539
25	0xbeaa6a97	-0.33284447
26	0xbe6f254a	-0.23354068
27	0xbe02bf1a	-0.12768212
28	0xbec26883	-0.3797036
29	0xbe4b6830	-0.19863963
30	0xbe274e76	-0.16338524
31	0xbe0a9bbb	-0.13535969
32	0xbe0928bc	-0.13394445
33	0x3d0cb5e6	0.03435316
34	0xbda8902f	-0.08230626
35	0xbdf7ae01	-0.120937355
36	0xbc4b5874	-0.012411226
37	0xbe255aa1	-0.16147853
38	0xbd4094f5	-0.047017056
39	0xbe0b094b	-0.13577764
40	0xbc82e801	-0.015979769
41	0x3d4c67e9	0.049903784
42	0xbd1f06c8	-0.038824826
43	0xbe90ddf9	-0.28294352
44	0xbe7b825a	-0.24561444
45	0xbe8e722f	-0.2782149
46	0xbea0b4cd	-0.3138794
47	0xbe26aea8	-0.16277564
48	0x3d2e5003	0.042556774
49	0xbecebbf5	-0.40377775
50	0xbbb02f15	-0.0053767064
51	0xbe51e333	-0.20496826
52	0xbe271f14	-0.16320449
53	0xbddc4370	-0.1075505
54	0xbe43fad5	-0.19138654
55	0x3ce1b719	0.027553128
56	0xbdf122eb	-0.11774238
57	0xbde28ef6	-0.11062424
58	0x3d086030	0.033294857
59	0x3d2b4fc6	0.041824125
60	0xbd867253	-0.06564774
61	0xbd99bd96	-0.07506864
62	0xbd5797f2	-0.05263514
63	0xbe820f4f	-0.25402305
64	0x3d4aa578	0.04947421
65	0xbdbd7956	-0.092516586
66	0x3d858278	0.065190256
67	0xbe247247	-0.16059218
68	0x3d005c9d	0.031338323
69	0xbd812a8e	-0.06306945
70	0xbdad0b3b	-0.08449408
71	0xbd3bbce8	-0.045834452
72	0x3e00f8f2	0.12594965
73	0xbe089f0d	-0.13341923
74	0x3de8cb0c	0.11366853
75	0xbdf96a58	-0.121784866
76	0xbe1a632f	-0.15076898
77	0x3d0b9d4f	0.034085568
78	0xbd8f62f8	-0.07001299
79	0xbd4c8f70	-0.04994148
80	0x3e0dfb65	0.1386543
81	0x3d857003	0.06515505
82	0xbe354e4a	-0.17705646
83	0x3d82b652	0.06382431
84	0xbd6c707c	-0.05772446
85	0x3d9f6644	0.077831775
86	0xbdb7cd4b	-0.089747034
87	0x3df9ea68	0.122029126
88	0xbe03b9b9	-0.12863816
89	0x3ccfbddd	0.025359089
90	0x3d7ebde2	0.062192805
91	0x3df00c9e	0.117211565
92	0xbd78a53a	-0.060704447
93	0xbd0f1f15	-0.03494175
94	0x3c39645b	0.0113154305
95	0x3d1fcdbe	0.03901457
96	0xbe7888c0	-0.24270916
97	0xbd22b318	-0.03972158
98	0xbec08182	-0.37598807
99	0xbe2db86c	-0.16964883
100	0xbe2619db	-0.162208
101	0xbe743f85	-0.23852356
102	0xbe32afa8	-0.1744982
103	0xbe8b5f56	-0.27221173
104	0xbe24a5b1	-0.16078831
105	0xbea20198	-0.3164184
106	0xbd3f7918	-0.046746343
107	0xbe3a1633	-0.18172531
108	0xbe8db71e	-0.2767877
109	0xbebf122e	-0.37318558
110	0xbe49896d	-0.1968133
111	0xbe0ef56d	-0.1396081
112	0xbe7ac502	-0.24489215
113	0xbe85aab5	-0.26106802
114	0x3c457796	0.012052437
115	0xbde930f8	-0.11386293
116	0xbd709e78	-0.058744878
117	0xbea1d065	-0.31604305
118	0xbe6e3a0b	-0.23264329
119	0xbe7442e3	-0.2385364
120	0xbecb7a40	-0.39741707
121	0xbe13dc62	-0.14439538
122	0xbde188df	-0.11012434
123	0xbceb1819	-0.028698014
124	0xbe57db38	-0.21079719
125	0xbe882fa2	-0.2659884
126	0xbe2df4ea	-0.16987959
127	0xbc1ea1bc	-0.009682115

bias_hh_l0 f4 [128]
0	0xbedc5041	-0.4302998
1	0xbe75897c	-0.23978227
2	0xbdff2e56	-0.1246001
3	0xbeabfcc2	-0.33591276
4	0xbe2dcf00	-0.16973495
5	0xbeea9fe5	-0.45825115
6	0xbe55252d	-0.20814963
7	0xbeb14929	-0.3462613
8	0xbe83e716	-0.25762242
9	0xbd90eb2c	-0.070761055
10	0xbe513a2b	-0.20432346
11	0xbe4e5a0d	-0.20151539
12	0xbe805bed	-0.25070134
13	0xbe49f0ec	-0.1972081
14	0xbe13327a	-0.14374724
15	0xbed16922	-0.40900522
16	0x3c3b006d	0.011413676
17	0xbe8aa87f	-0.27081677
18	0xbe73e988	-0.23819554
19	0xbda3d003	-0.079986595
20	0xbdb1b8a6	-0.08677797
21	0xbe8115d6	-0.25211972
22	0xbe946df3	-0.28990135
23	0xbe595d42	-0.21226981
24	0xbec6febb	-0.3886622
25	0xbe69a27e	-0.22815892
26	0xbebc3112	-0.36756188
27	0xbe84f83e	-0.25970644
28	0xbeb59a7d	-0.35469428
29	0xbcff32ff	-0.031152247
30	0xbdb89593	-0.09012904
31	0xbea1f264	-0.31630242
32	0xbeb224f4	-0.34793818
33	0xbe253ac8	-0.16135705
34	0xbeca7bbb	-0.39547524
35	0xbdcf278f	-0.10114967
36	0x3c39033b	0.011292274
37	0xbeace18b	-0.33765826
38	0xbd03afa7	-0.032149937
39	0xbec9f0f6	-0.3944165
40	0xbe1fc47f	-0.15602301
41	0xbda4f3b0	-0.08054292
42	0x3b7f8a9e	0.0038992534
43	0xbe26b2af	-0.162791
44	0xbeaa06da	-0.33208352
45	0xbda0d2f3	-0.07852735
46	0xbe1d2800	-0.1534729
47	0xbddfdf09	-0.109312125
48	0xbe510218	-0.20410955
49	0xbe8cc668	-0.27495122
50	0xbe4f6ae1	-0.20255615
51	0x3cb35105	0.021889219
52	0xbe865efb	-0.2624434
53	0xbe9e8a33	-0.30964813
54	0xbde89410	-0.11356366
55	0xbe281744	-0.16415125
56	0xbea4549e	-0.32095808
57	0xbe4c1a05	-0.199318
58	0xbe37d4a5	-0.17952211
59	0xbe31e111	-0.17371012
60	0xbe7bdde6	-0.24596366
61	0xbe8788bd	-0.2647151
62	0xbe3360a2	-0.17517331
63	0xbe360190	-0.17774034
64	0xbcd2aece	-0.025718119
65	0xbdae8b42	-0.08522655
66	0xbbd2ec28	-0.0064368434
67	0x3d0f314a	0.034959115
68	0x3c24ea04	0.010065559
69	0x3a595943	0.0008291194
70	0xbcd86481	-0.026415111
71	0x3da89c24	0.082329065
72	0xbd159f95	-0.036529142
73	0x3e13243c	0.14369291
74	0x3d4f2d3f	0.05058026
75	0x3e0795c5	0.13240726
76	0x3dd664fb	0.10468479
77	0xbd2c25cb	-0.04202823
78	0x3de0580e	0.10954295
79	0xbdc059bc	-0.093921155
80	0xbe15db68	-0.14634478
81	0xbdbe9475	-0.0930566
82	0x3cb5cc45	0.02219213
83	0x3bf42770	0.0074509904
84	0x3dca1f55	0.09869257
85	0x3ca9c172	0.020722125
86	0xbdebff9f	-0.11523365
87	0xbdb12d65	-0.086512364
88	0x3c813253	0.015771067
89	0x3d68b060	0.05680883
90	0x3d313e19	0.04327211
91	0x3daee874	0.08540431
92	0xbcd4bac6	-0.025967967
93	0x3db52d41	0.08846522
94	0xbd6b7c7b	-0.05749176
95	0xbdc16ed6	-0.094449684
96	0xbee970a5	-0.45593753
97	0xbcccb50f	-0.02498868
98	0xbe59bb28	-0.212628
99	0xbe352a30	-0.17691875
100	0xbd28d06b	-0.041214388
101	0xbe7b9b40	-0.24570942
102	0xbbb5893d	-0.0055400417
103	0xbf1897de	-0.5960673
104	0xbec7b48f	-0.39004943
105	0xbdd1ae6c	-0.102383465
106	0xbe5dc273	-0.21656208
107	0xbe3c9632	-0.1841667
108	0xbeaa7207	-0.3329012
109	0xbe56613f	-0.20935534
110	0xbeb084d6	-0.34476346
111	0xbe7bbcb8	-0.24583709
112	0xbe7846d0	-0.24245763
113	0xbea4c98d	-0.3218502
114	0xbdafb4b2	-0.08579387
115	0xbe87b54c	-0.26505506
116	0xbeb8e4ba	-0.36112005
117	0xbe130f27	-0.14361249
118	0xbe2620a8	-0.16223395
119	0xbe21841b	-0.1577305
120	0xbe458af0	-0.19291282
121	0xbe8b90d4	-0.27258933
122	0xbe7df9e3	-0.24802355
123	0x3ccbf0e5	0.02489514
124	0xbe8b0576	-0.27152604
125	0xbe90e13a	-0.28296834
126	0xbdb9698b	-0.09053334
127	0xbe463b89	-0.19358648
