experiments/pedestrians/models/06_Aug_2023_21_23_08/model_registrar-75.pt (torch, 713991 bytes, 82 tensors)

weight f4 [64, 10]
0	0xbc83e854	-0.016101994
1	0xbc9983a1	-0.018739523
2	0x3e0e5893	0.13900976
3	0x3ca42f03	0.020041948
4	0xbf35ce9f	-0.71018404
5	0x3f5d2ab0	0.8639326
6	0x3caf747f	0.021417854
7	0xbe752718	-0.23940694
8	0xbe1f4026	-0.15551814
9	0x3e015de2	0.1263347
10	0x3d1a6177	0.037690606
11	0x3e962384	0.2932397
12	0x3ebc9821	0.36834815
13	0x3d764b7b	0.060130578
14	0xbe68a84a	-0.22720447
15	0xbe375e2a	-0.17907014
16	0xbe9930ed	-0.2992014
17	0xbec3cb1d	-0.382409
18	0xbdfd9ab5	-0.12383024
19	0x3da1ce5d	0.07900689
20	0xbb5456f5	-0.0032400463
21	0x3dd4d513	0.10392203
22	0xbd1f845e	-0.038944595
23	0x3f01289a	0.5045258
24	0xbde6fdeb	-0.112789
25	0xbd00585e	-0.031334274
26	0xbe894336	-0.2680909
27	0xbcfc0cec	-0.03076788
28	0x3a6a160b	0.0008929676
29	0xbe21397d	-0.15744586
30	0x3b9c10b5	0.004762734
31	0x3cbdfdd1	0.023192318
32	0xbd402ced	-0.046917845
33	0xbd7f420c	-0.062318847
34	0xbf20ab20	-0.62761116
35	0x3f3de7f8	0.7418208
36	0xbe8a1c4d	-0.26974717
37	0xbe554035	-0.20825274
38	0xbd00678c	-0.03134875
39	0xbe8020c0	-0.25024986
40	0x3d3fb13c	0.046799883
41	0xbd2aae3a	-0.04167006
42	0x3d356573	0.044286203
43	0x3dfddeb8	0.12395996
44	0x3f1dd61e	0.6165484
45	0x3ee50bbc	0.44735515
46	0x3e8e0345	0.2773687
47	0x3e21d4b4	0.15803796
48	0xbe8181f1	-0.2529445
49	0x3e2d6922	0.16934636
50	0x3b995d93	0.0046803444
51	0x3d59062f	0.052984413
52	0x3ec53083	0.38513574
53	0xbe2e18a9	-0.17001595
54	0x3ac26415	0.0014830852
55	0x3edbbc73	0.42917213
56	0x3e353f8e	0.17700025
57	0xbbe0f0b9	-0.006864634
58	0xbd5e7ef7	-0.0543203
59	0x3da371cc	0.079806894
60	0xbd22888b	-0.039681
61	0x3e537832	0.2065132
62	0x3ee5f7ce	0.44915622
63	0x3a3710dc	0.0006983408
64	0x3f0096c8	0.50230074
65	0xbefef7f4	-0.49798548
66	0xbe8b9b7a	-0.27267057
67	0x3e83b393	0.25722942
68	0x3e99209f	0.299077
69	0x3e5e66b0	0.2171886
70	0xbd127e32	-0.03576488
71	0xbe11b8b3	-0.14230613
72	0x3d6e25a7	0.058141377
73	0xbebc967c	-0.3683356
74	0xbf3879c8	-0.72060823
75	0xbeb55e2e	-0.35423416
76	0x3ec5ecc6	0.38657206
77	0x3c2c3134	0.010509778
78	0x3d0ba755	0.034095127
79	0x3cc044b8	0.023470268
80	0x3e1bbaed	0.15208025
81	0x3d8c392f	0.068468444
82	0xbed5640e	-0.41677898
83	0x3c38aa51	0.011271075
84	0xbf3744d0	-0.71589375
85	0xbe35959b	-0.17732851
86	0xbe1af9a1	-0.15134288
87	0xbe337aad	-0.17527266
88	0x3e68b625	0.22725733
89	0x3dca7fef	0.09887683
90	0xbd1eefb4	-0.038802817
91	0x3ddb83a6	0.10718469
92	0x3f00ec68	0.5036073
93	0x3ea117e6	0.31463546
94	0x3d65ce08	0.05610469
95	0x3ec7edea	0.39048702
96	0x3e15d00b	0.14630143
97	0xbe71dffb	-0.23620598
98	0x3e9762e0	0.29567623
99	0x3e88f150	0.26746607
100	0xbe47c394	-0.19508201
101	0x3e01b723	0.12667517
102	0x3e95fa41	0.2929249
103	0x3e59ed73	0.21281986
104	0xbe8c16b3	-0.27361068
105	0xbc387b67	-0.01125989
106	0xbdf3afd1	-0.11898769
107	0x3e0a4d32	0.1350601
108	0x3e701fdb	0.23449652
109	0xbe8141ed	-0.2524561
110	0x3c848290	0.016175538
111	0xbd545a91	-0.051844183
112	0x3f114218	0.56741476
113	0x3cc94ae6	0.024571847
114	0xbf4c4b6e	-0.79802597
115	0xbf5f4f73	-0.87230605
116	0x3e137911	0.14401652
117	0x3ee80aca	0.4532073
118	0xbd99113b	-0.074739896
119	0xbc6fb4a6	-0.014630472
120	0xbe05cc11	-0.13066126
121	0x3e11b385	0.14228638
122	0x3eb1bcf8	0.34714484
123	0x3e0a8cf2	0.13530329
124	0x3e2e583c	0.17025846
125	0x3e7f63ae	0.24940369
126	0x3e578759	0.21047725
127	0xbd9481f6	-0.072513506
128	0x3d456b46	0.048198007
129	0xbe31bd81	-0.17357446
130	0xbbc09184	-0.005876722
131	0x3e1aa7f4	0.15103132
132	0xbb50b3a6	-0.003184536
133	0xbf25d8bd	-0.6478384
134	0xbd570a2a	-0.052499928
135	0x3c540639	0.012940937
136	0xbd2fd492	-0.042927332
137	0xbe9e0125	-0.30860248
138	0xbe361a12	-0.17783383
139	0xbeacf5c5	-0.33781257
140	0x3d07f724	0.033194676
141	0xbe26bc53	-0.16282777
142	0xbeaaa5fd	-0.33329764
143	0x3eb69841	0.35663036
144	0xbe3ce9fa	-0.1844863
145	0xbcb3dd08	-0.021955982
146	0x3eab57d7	0.33465454
147	0x3de03d9c	0.10949251
148	0x3d9a4766	0.075331494
149	0x3ee2a87f	0.44269177
150	0x3c9b515b	0.018959692
151	0x3cdbdb54	0.026837982
152	0x3d2e5067	0.042557146
153	0xbeba043a	-0.3633135
154	0x3ecdbcb7	0.4018304
155	0xbf4df9f4	-0.80459523
156	0xbe63ade2	-0.222343
157	0x3e31b95e	0.17355868
158	0xbe52628e	-0.20545408
159	0x3de40c8e	0.11135207
160	0xbe382724	-0.17983681
161	0x3e81a6a9	0.25322464
162	0xbcb55c44	-0.022138722
163	0x3d6c640c	0.0577126
164	0xbf5b373f	-0.85631174
165	0xbe00dc06	-0.12583932
166	0x3cc49720	0.023997843
167	0x3e48fd67	0.19627915
168	0xbd542857	-0.051796284
169	0x3eb65252	0.3560968
170	0x3e91fdd4	0.28513968
171	0x3ec44cb3	0.38339767
172	0x3e3959b9	0.18100633
173	0x3ebfe0c6	0.37476176
174	0xbe3c6c5d	-0.18400712
175	0x3f3b8a90	0.73258305
176	0x3bffa60d	0.007801777
177	0x3c5bd43e	0.013417302
178	0xbd6fb53b	-0.058522444
179	0x3de30f3a	0.110868886
180	0x3cf04684	0.0293305
181	0x3e0e5080	0.13897896
182	0x3f283a1f	0.65713686
183	0xbe6f9a02	-0.23398593
184	0xbdfdaf52	-0.12386955
185	0x3e2888dc	0.16458458
186	0x3e81f13d	0.25379363
187	0x3b86e154	0.0041162167
188	0x3e32fa6b	0.1747834
189	0x3e8f8c2f	0.2803664
190	0x3e8f67b8	0.2800882
191	0x3e533fb1	0.20629765
192	0xbee4f835	-0.44720617
193	0xbe002813	-0.12515287
194	0xbf12fa9e	-0.5741366
195	0xbe34ef0e	-0.17669317
196	0x3d9c53a2	0.07633139
197	0x3e03f20f	0.12885307
198	0xbe746f09	-0.23870482
199	0x3e655f27	0.22399579
200	0xba041d12	-0.0005039732
201	0x3d67de66	0.05660858
202	0xbe83633a	-0.2566164
203	0x3e91074e	0.28325886
204	0x3eb29341	0.3487797
205	0xbf171247	-0.59012264
206	0xbcfeaa4c	-0.031087063
207	0xbe2ccff9	-0.1687621
208	0x3e4d2171	0.20032288
209	0xbe008380	-0.12550163
210	0xbe712848	-0.23550522
211	0xbd3ed4f9	-0.046589825
212	0xbb3beda9	-0.0028675592
213	0x3d780928	0.060555607
214	0x3f15aabd	0.5846365
215	0x3f75336e	0.957816
216	0x3ebce215	0.36891237
217	0x3e346bb1	0.17619206
218	0x3e585761	0.21127082
219	0xbc5201ac	-0.012817781
220	0x3ab768d4	0.0013993033
221	0x3e8ea54f	0.27860495
222	0xbe8748a6	-0.26422614
223	0x3d8195b6	0.06327383
224	0x3ef24113	0.47315273
225	0x3ed92d3d	0.42417327
226	0x3e6d219c	0.23157352
227	0x3e82f0e1	0.255744
228	0x3dc73243	0.097263835
229	0xbe210d06	-0.15727624
230	0xbbe72e95	-0.0070551136
231	0xbe5b31d3	-0.21405725
232	0xbe1048c6	-0.14090261
233	0x3f0a67f6	0.5406488
234	0xbdb7d11c	-0.08975431
235	0xbf037960	-0.5135708
236	0xbe0fa7e2	-0.14028886
237	0x3d638557	0.055547085
238	0xbe124c96	-0.14287028
239	0x3dee024c	0.11621532
240	0x3de01282	0.1094103
241	0xbe859af6	-0.26094788
242	0x3e15125e	0.14557788
243	0xbe62dd34	-0.22154695
244	0x3eb6343f	0.35586736
245	0x3ed6c0e3	0.41944036
246	0xbd2725b1	-0.04080743
247	0xbec9da37	-0.39424297
248	0xbe0833db	-0.13301031
249	0xbebda2f7	-0.37038395
250	0xbe100f3e	-0.14068314
251	0xbdf5d2a5	-0.12003068
252	0x3e4f8d83	0.20268826
253	0x3eeebfa7	0.46630594
254	0xbe60c4cf	-0.21950077
255	0xbef5a791	-0.47979406

bias f4 [64]
0	0xbe52288d	-0.20523281
1	0xbdeb2232	-0.114811316
2	0xbe7bb80e	-0.2458193
3	0x3e920283	0.2851754
4	0x3e110bd1	0.14164664
5	0x3e94e7be	0.29083055
6	0xbe9357e3	-0.2877799
7	0xbad802cc	-0.0016480326
8	0x3d9e30c8	0.07724148
9	0x3e6ec4a4	0.233172
10	0xbcb686a8	-0.022281006
11	0x3efaa64a	0.48954993
12	0xbdeaa112	-0.11456503
13	0x3d272c42	0.040813692
14	0xbc947578	-0.01812242
15	0xbd3e3b3a	-0.0464432
16	0xbe09cd74	-0.1345728
17	0xbe71d7c2	-0.23617461
18	0x3e6d2e46	0.23162183
19	0x3df5aa03	0.11995318
20	0xbdd4f951	-0.10399116
21	0x3e305833	0.17221145
22	0x3e3243a4	0.17408615
23	0xbe11f9e9	-0.1425549
24	0xbe487520	-0.1957593
25	0x3dc9ab46	0.09847121
26	0x3d0619f5	0.0327396
27	0xbe1be899	-0.15225448
28	0xbe9c7bff	-0.30563352
29	0x3d10f285	0.035387535
30	0x3e20630b	0.15662782
31	0xbe8fd659	-0.28093222
32	0xbe1e9b8a	-0.15489021
33	0x3dd46484	0.10370734
34	0xbe94122f	-0.28920123
35	0x3e77e490	0.24208283
36	0x3e60b632	0.21944502
37	0xbde4bdf1	-0.11169041
38	0xbe13c1d3	-0.14429407
39	0x3dc61361	0.09671665
40	0xbe1c0842	-0.15237525
41	0x3e97716d	0.29578725
42	0x3ce0f184	0.027458914
43	0xbde0ea51	-0.10982192
44	0xbe4a30f3	-0.19745235
45	0x3dd7e9ee	0.105426654
46	0xbe1b754a	-0.15181461
47	0xbe900726	-0.28130454
48	0x3e0f5897	0.13998638
49	0xbe0a7c0c	-0.13523883
50	0xbabb5ec1	-0.0014295207
51	0x3e788cd0	0.24272466
52	0xbebe4ff5	-0.37170377
53	0xbeb4732b	-0.35244116
54	0xbee7c9f6	-0.4527127
55	0x3debb60b	0.11509331
56	0x3d03e4aa	0.032200493
57	0x3e8f05cb	0.27934107
58	0x3e652d88	0.2238065
59	0x3ebd75e7	0.37004015
60	0xbeae68aa	-0.34064227
61	0x3e04470c	0.12917727
62	0x3eb4cc2b	0.35312018
63	0xbe015663	-0.1263061

weight f4 [32, 32]
0	0xbdc97013	-0.098358296
1	0xbe4310ed	-0.19049425
2	0x3e5a8293	0.21338873
3	0x3c7e0e8a	0.015506396
4	0xbe18656f	-0.14882444
5	0x3c83d030	0.016090482
6	0xbd7dd39f	-0.061969396
7	0x3db141b7	0.08655112
8	0xbe253f82	-0.16137508
9	0xbf0bcd43	-0.5461008
10	0x3de918ef	0.11381709
11	0x3d6bf834	0.05760975
12	0xbd0b9c26	-0.03408446
13	0x3e4b2a22	0.19840291
14	0xbe4aef0e	-0.19817755
15	0x3e972ed0	0.29527903
16	0x3c5ee873	0.013605225
17	0x3e875774	0.2643391
18	0x3e3a4188	0.1818906
19	0x3eb2df07	0.3493578
20	0xbe99b9e3	-0.30024633
21	0x3e45e80d	0.19326802
22	0x3c15c5d6	0.009141406
23	0xbf0415bc	-0.51595664
24	0xbd3f748e	-0.046742015
25	0x3e095fb5	0.13415416
26	0x3e2dff8b	0.16992013
27	0x3e05f409	0.13081373
28	0x3e21628b	0.15760247
29	0x3df0003f	0.11718797
30	0xbd87db8b	-0.066336714
31	0x3ea7d896	0.3278243
32	0x3e314cfc	0.17314523
33	0xbd4658f7	-0.048424687
34	0xbf156f09	-0.5837255
35	0x3dadaa19	0.08479709
36	0xbe5c15e8	-0.21492732
37	0x3d6b5596	0.057454668
38	0x3e38a7c5	0.18032749
39	0xbd990a1f	-0.074726336
40	0xbeb63105	-0.35584274
41	0xbeb037e7	-0.3441765
42	0xbe8d2cc6	-0.27573222
43	0xbe9ff97e	-0.31245035
44	0x3ea8e8db	0.32990155
45	0xbd004eb9	-0.031325076
46	0xbd409af5	-0.04702278
47	0xbdd410cc	-0.10354766
48	0x3c483f3a	0.012222106
49	0x3e57327d	0.21015354
50	0x3e7ce29a	0.24695817
51	0x3eef97dd	0.4679555
52	0x3e3463f9	0.17616262
53	0xbddd92dc	-0.10819027
54	0xbd1a133d	-0.037616003
55	0x3d8a269e	0.06745647
56	0x3dc224a0	0.09479642
57	0xbcc924ed	-0.02455374
58	0x3e232485	0.159319
59	0x3e1aaa51	0.15104033
60	0xbe4f380a	-0.20236221
61	0xbea57e50	-0.3232293
62	0x3e677e7f	0.22606848
63	0xbde99053	-0.11404481
64	0x3e94c552	0.29056793
65	0xbe5c3a17	-0.21506535
66	0x3e2b1cde	0.1671023
67	0xbf22bc9a	-0.63569033
68	0xbe7f49f0	-0.24930549
69	0x3d18b8c9	0.0372856
70	0xbe5f2452	-0.21791199
71	0xbe5cb266	-0.21552429
72	0xbe493685	-0.19649704
73	0x3e6a3f18	0.22875631
74	0x3e2e07db	0.16995184
75	0xbdc7a87f	-0.09748935
76	0xbed89b21	-0.42305854
77	0x3ec3f021	0.3826914
78	0xbec8ca32	-0.39216763
79	0x3cb50ce4	0.022100873
80	0x3d5b31e9	0.053514395
81	0x3ec9eb7f	0.39437482
82	0x3ec04120	0.37549686
83	0xbf020cb5	-0.5080064
84	0xbda6413a	-0.0811791
85	0x3d9bf1bb	0.07614466
86	0xbe05ab77	-0.1305369
87	0xbebd1561	-0.36930373
88	0xbdcfa7de	-0.1013944
89	0xbdb36ec5	-0.08761362
90	0x3cef38f2	0.029201958
91	0xbdd82de0	-0.10555625
92	0x3e5aaa9b	0.21354143
93	0xbe6fbc40	-0.23411655
94	0xbe8a7643	-0.27043352
95	0xbd333005	-0.043746967
96	0x3ea8bcfd	0.32956687
97	0xbe513327	-0.2042967
98	0x3e417f38	0.18896186
99	0x3e407ece	0.18798372
100	0xbe021cfb	-0.12706368
101	0x3e42a45a	0.19008008
102	0x3ebfea53	0.37483463
103	0xbe75b385	-0.23994263
104	0xbe5a0eeb	-0.21294753
105	0x3e99cda7	0.30039713
106	0x3e05b977	0.1305903
107	0xbe1c454d	-0.15260811
108	0x3eac45e3	0.3364707
109	0xbe38e117	-0.18054615
110	0xbd352d7b	-0.044232827
111	0xbc43a55f	-0.011941283
112	0xbe8703c4	-0.2637006
113	0x3d16936d	0.03676169
114	0xbe237df7	-0.1596602
115	0x3e943c3e	0.2895221
116	0xbd4fd6fc	-0.050742134
117	0x3d164fc2	0.036697157
118	0x3e24f3cf	0.1610863
119	0x3d67bdc6	0.056577466
120	0xbd8f16fe	-0.06986807
121	0x3b8262fd	0.0039790855
122	0x3db61982	0.08891584
123	0x3eb57eff	0.35448453
124	0xbddb54a4	-0.10709503
125	0xbb6f7ae0	-0.0036541745
126	0x3e789448	0.24275315
127	0x3d842158	0.06451672
128	0xbea5e344	-0.32399952
129	0xbd42e3f8	-0.04758069
130	0x3e60c50d	0.21950169
131	0xbe00ed34	-0.12590486
132	0x3e40e6eb	0.18838088
133	0xbdca104d	-0.098663904
134	0x3db0a568	0.08625299
135	0x3e8e613a	0.27808553
136	0x3d9c6ff0	0.07638538
137	0xbe940a18	-0.2891395
138	0x3dc25e55	0.09490649
139	0x3e4746a9	0.19460548
140	0xbdfd8d42	-0.123804584
141	0x3daff382	0.08591367
142	0x3d05fc88	0.032711536
143	0x3d7793b0	0.06044358
144	0xbdabc0e5	-0.08386401
145	0x3b37b268	0.0028029922
146	0x3d910544	0.070810825
147	0x3e934e5c	0.2877072
148	0x3e3e8ea4	0.186091
149	0xbeb67c90	-0.3564191
150	0x3e15b992	0.1462157
151	0x3e288d86	0.16460237
152	0x3e25394e	0.16135141
153	0x3ec703f2	0.38870198
154	0xbba60e67	-0.005067635
155	0xbe7a512f	-0.24445032
156	0x3da6e24f	0.08148634
157	0x3ebd78a4	0.37006104
158	0x3cb99b3c	0.02265703
159	0xbe28ac6d	-0.16472025
160	0x3ef87064	0.48523247
161	0xbd3faed2	-0.04679758
162	0x3c5e27e7	0.013559318
163	0xbf035ce1	-0.51313597
164	0xbcb09ab6	-0.021558147
165	0x3e72e651	0.23720671
166	0xbcbc5024	-0.022987433
167	0xbe046071	-0.12927414
168	0xbcb647df	-0.022251068
169	0x3e1b7aaf	0.15183519
170	0x3dded1ab	0.10879835
171	0x3dcf5893	0.10124316
172	0xbe126d2a	-0.14299455
173	0x3e24a70c	0.16079348
174	0xbe7627e3	-0.24038653
175	0xbde9e668	-0.114209
176	0xbdbca83d	-0.092117764
177	0xbe04690a	-0.12930694
178	0x3df28443	0.11841633
179	0xbec52837	-0.38507244
180	0xbe0b1c6d	-0.13585062
181	0x3de14dd6	0.11001174
182	0xbe5ccefe	-0.21563336
183	0xbbeccb28	-0.0072263665
184	0xbe5fb9f4	-0.21848279
185	0x3eaf8533	0.3428131
186	0x3ce954bd	0.02848279
187	0x3d07c0a3	0.033142697
188	0xbdca17c0	-0.09867811
189	0xbe9087d6	-0.28228635
190	0xbd640a5e	-0.05567395
191	0x3d33d212	0.04390151
192	0xbe33da31	-0.17563702
193	0x3b94e557	0.004543941
194	0x3df8ba77	0.1214494
195	0x3d4688f1	0.04847044
196	0x3c9ca03c	0.019119374
197	0xbdff8c44	-0.124779254
198	0x3f04aa81	0.5182267
199	0x3e9478ad	0.28998318
200	0x3de84b0d	0.1134244
201	0x3e3147b1	0.17312504
202	0x3d5279c5	0.05138566
203	0x3ebaa2b0	0.36452246
204	0xbe501dc9	-0.20323862
205	0xbe408842	-0.18801978
206	0x3e6c2690	0.23061585
207	0xbe24f2b8	-0.16108215
208	0xbdab0dd8	-0.0835225
209	0xbe965777	-0.29363605
210	0xbe85a31d	-0.26101008
211	0x3d86820d	0.06567774
212	0x3d485905	0.04891302
213	0xbeb6e07b	-0.3571814
214	0x3ebb4ed2	0.36583573
215	0x3ee972c3	0.4559537
216	0x3e396888	0.18106282
217	0x3e4b5f9e	0.19860694
218	0x3d4a25d5	0.049352486
219	0xbe013b0f	-0.12620185
220	0xbde10e15	-0.10989014
221	0xbc1feb0c	-0.009760629
222	0x3dabf6ff	0.0839672
223	0xbdc653e2	-0.09683968
224	0x3e713f54	0.23559314
225	0xbcd492c5	-0.025948891
226	0x3e31651a	0.17323723
227	0xbe8a901c	-0.27063072
228	0x3dba816b	0.09106716
229	0x3e766e74	0.24065572
230	0x3e9a9e72	0.3019901
231	0x3e37dc08	0.17955029
232	0xbe02a19d	-0.12756963
233	0x3c020988	0.007936843
234	0xbddade9a	-0.10686989
235	0x3e480345	0.19532497
236	0x3e92c300	0.28664398
237	0x3defb9c6	0.11705355
238	0xbcc73706	-0.02431823
239	0x3e8ed5ae	0.278974
240	0x3da7db0b	0.08196076
241	0x3e17b45f	0.148149
242	0x3d0b780c	0.034050032
243	0x3ef5fc53	0.4804407
244	0x3e1f4d3c	0.15556806
245	0x3d8f7fe8	0.07006818
246	0x3dc9d639	0.09855313
247	0xbd7f485d	-0.06232487
248	0x3e2d50d8	0.1692537
249	0x3dc93b66	0.098257825
250	0x3da96353	0.08270898
251	0x3e551615	0.20809205
252	0x3d156040	0.036468744
253	0xbd8fa10e	-0.070131406
254	0x3e3093fc	0.17243952
255	0xbdc0c56c	-0.09412655

bias f4 [32]
0	0xbe2bc43c	-0.16774076
1	0xbda28ab0	-0.07936609
2	0x3e617de9	0.22020687
3	0xbd9e2ffc	-0.07723996
4	0xbe5f7309	-0.21821226
5	0x3df0a3c8	0.11749989
6	0x3d8961d0	0.067081094
7	0x3e1ff051	0.15619017
8	0x3dc21f50	0.09478629
9	0xbcade39f	-0.021226702
10	0x3dfb9e71	0.1228608
11	0x3e2371b6	0.15961346
12	0xbdd78640	-0.10523653
13	0xbb9d5e69	-0.0048025143
14	0xbd124eeb	-0.035719793
15	0x3e3b984b	0.18319814
16	0xbe40b56c	-0.18819207
17	0x3db0a890	0.08625901
18	0x3d3baefc	0.045821175
19	0xbd2c200a	-0.042022742
20	0x3e1ea13b	0.15491192
21	0xbde6485d	-0.11244271
22	0xbdb2d944	-0.087328464
23	0x3dbe31bc	0.0928683
24	0xbdbdc391	-0.09265817
25	0x3d85ef75	0.065398134
26	0xbe38bac4	-0.18039995
27	0xbe857e4c	-0.2607292
28	0xbe5172e0	-0.20453978
29	0xbe380fab	-0.17974727
30	0xbcaaea9c	-0.020863824
31	0xbc9b467b	-0.018954506

weight f4 [32, 64]
0	0xbd50c808	-0.050972015
1	0x3b87ada0	0.0041405708
2	0xbd7e4a08	-0.06208232
3	0x3d411508	0.047139198
4	0xbdda2048	-0.106506884
5	0x3dbba8c4	0.09163049
6	0xbdba1234	-0.09085503
7	0xbdcb87de	-0.09938024
8	0xbda1c35a	-0.078985885
9	0x3d67e1a8	0.056611687
10	0xbd3d2e14	-0.04618652
11	0x3d3f98e4	0.046776667
12	0xbdd94654	-0.10609117
13	0xbd9b523e	-0.07584046
14	0xbd3bfe80	-0.045897007
15	0xbcc93c78	-0.024564967
16	0xbdc34b04	-0.095357925
17	0x3da7a05e	0.081848845
18	0xbcf17db8	-0.029478893
19	0x3d245880	0.040123463
20	0x3db5075c	0.08839294
21	0x3cbec700	0.02328825
22	0x3d0c01bc	0.03418134
23	0x3df71b32	0.12065734
24	0xbd66eab4	-0.056376174
25	0x3d222d38	0.039593905
26	0xbd63cc0c	-0.055614516
27	0x3db6f348	0.08933121
28	0x3dcc74c0	0.09983206
29	0xbdec0660	-0.115246534
30	0x3dda8888	0.106705725
31	0x3d747cc4	0.0596893
32	0x3d5f1cdc	0.05447088
33	0x3d52c70c	0.051459357
34	0x3dd4d004	0.10391238
35	0xbc873560	-0.016504943
36	0xbdd87fb2	-0.10571231
37	0xbd12eaf8	-0.035868615
38	0xbdb44b58	-0.08803433
39	0x3c0762f0	0.008263335
40	0xbcbf3040	-0.023338437
41	0xbd895086	-0.06704812
42	0xbc3a3500	-0.011365175
43	0x3df2890e	0.11842547
44	0xbc218970	-0.009859428
45	0x3b820c60	0.0039687604
46	0xbc9fb420	-0.01949507
47	0x3ca0fae0	0.019650877
48	0x3de41968	0.11137658
49	0x3d9c8acc	0.07643661
50	0x3d35bd84	0.04437019
51	0x3cde86a8	0.027163818
52	0x3cf173b0	0.02947411
53	0x3d45cd78	0.048291653
54	0xbc845328	-0.016152933
55	0xbdededbc	-0.1161761
56	0xbd9e503e	-0.07730149
57	0x3dda8498	0.106698215
58	0x3bf4d500	0.0074716806
59	0xbdcf60fa	-0.10125919
60	0x3ca18350	0.019715935
61	0x3dd3868a	0.10328396
62	0xbdf1eb80	-0.11812496
63	0xbdac596a	-0.08415492
64	0xbd4be978	-0.0497832
65	0x3ba46740	0.005017191
66	0xbceed3b0	-0.029153675
67	0xbc610ea0	-0.013736397
68	0xbdf99266	-0.121861264
69	0x3d6fc248	0.05853489
70	0x3de0b3c8	0.109717906
71	0x3d9c7a1e	0.076404795
72	0xbdb5482a	-0.08851655
73	0xbdce5cca	-0.10076292
74	0x3d549bf4	0.05190654
75	0x3b37fb00	0.0028073192
76	0x3d51e278	0.051241368
77	0xbdfa2698	-0.122143924
78	0xbbf43740	-0.0074528754
79	0x3db48ada	0.08815546
80	0x3d6d85cc	0.057988927
81	0x3b959340	0.0045646727
82	0x3cc95680	0.02457738
83	0xbc41e7a0	-0.011835009
84	0xbd8cc1e4	-0.06872919
85	0xbd417c04	-0.04723741
86	0xbd9be618	-0.07612246
87	0x3dd4a2ce	0.10382615
88	0x3d8cdf96	0.06878583
89	0x3d330ed8	0.043715328
90	0xbdc45072	-0.09585656
91	0x3dc58902	0.09645273
92	0x3d2088ac	0.03919284
93	0x3db11974	0.08647433
94	0xbd496a6c	-0.049173757
95	0x3cd915b8	0.026499614
96	0x3df9f432	0.1220478
97	0x3dac3364	0.084082395
98	0x3dcd4fa8	0.10024959
99	0xbcd70640	-0.026248097
100	0x3dc30a62	0.09523465
101	0xbdc881e8	-0.09790403
102	0x3c312120	0.01081112
103	0xbd90245e	-0.070381865
104	0xbceecff8	-0.029151902
105	0xbd031f34	-0.03201218
106	0x3c193ac0	0.009352386
107	0x3de8feea	0.11376746
108	0x3d7d7ba4	0.06188549
109	0xba0ad000	-0.00052952766
110	0x3db5b870	0.08873069
111	0xbd83304a	-0.06405695
112	0x3d83ef62	0.06442143
113	0xbc3deaa0	-0.0115915835
114	0xbcb22fe8	-0.02175136
115	0x3c6fc430	0.014634177
116	0xbdc41eea	-0.09576209
117	0x3c6ca950	0.014444664
118	0x3d2c2764	0.042029753
119	0x3ddadcce	0.106866464
120	0xbd1f685c	-0.038917884
121	0x3d385588	0.045003444
122	0x3dffe006	0.12493901
123	0xbd5ba1d4	-0.05362113
124	0x3df35a06	0.11882405
125	0xbd7e3434	-0.062061504
126	0x3d61afe0	0.055099368
127	0x3d489378	0.048968762
128	0x3d0f0418	0.034916013
129	0x3dca7212	0.098850384
130	0xbd4eeea4	-0.050520554
131	0x3d069038	0.03285238
132	0x3a37e600	0.00070151687
133	0xbdc08c5a	-0.0940177
134	0xbcf8a438	-0.030351743
135	0xbdaaf674	-0.083477885
136	0x3d626230	0.05526942
137	0x3c381b60	0.011236995
138	0x3c48a1b0	0.012245581
139	0xbd1b5368	-0.03792134
140	0x3a1d9100	0.00060106814
141	0xbd1f410c	-0.038880393
142	0x3d131db8	0.035917014
143	0x3df89e94	0.121396214
144	0x3c9b1b18	0.018933818
145	0xbd62c630	-0.055364788
146	0xbd9c5f3a	-0.076353505
147	0x3c1c8c10	0.009554878
148	0xbdbde9a2	-0.092730775
149	0xbdc06c26	-0.09395628
150	0xbda69fe0	-0.081359625
151	0xbd2de5ec	-0.0424556
152	0x3c179680	0.009252191
153	0x3db048da	0.08607645
154	0x3d465158	0.04841742
155	0x3dc4205c	0.095764846
156	0xbda0bde2	-0.07848717
157	0x3c2cd3b0	0.010548517
158	0xbde38db0	-0.11111009
159	0x3d92db32	0.071707144
160	0x3cd56968	0.026051238
161	0x3df79b62	0.12090184
162	0xbdb61200	-0.08890152
163	0x3dcd4b46	0.10024123
164	0x3dd81f3a	0.10552831
165	0x3dcefb02	0.1010647
166	0x3c921e98	0.017836854
167	0x3de8c688	0.11365992
168	0x3daaf73c	0.083479375
169	0x3dbeff0e	0.093259916
170	0xbc050a30	-0.008120105
171	0xbdc47434	-0.095924765
172	0xbacbe200	-0.0015555024
173	0x3cc00a08	0.023442283
174	0xbdae6118	-0.08514613
175	0xbd92da04	-0.071704894
176	0xbdf57068	-0.119843304
177	0xbd337af4	-0.04381843
178	0x3ddefe58	0.10888356
179	0x3caf1998	0.021374509
180	0xbbfa2f20	-0.0076350123
181	0x3ba47cc0	0.005019754
182	0x3d9fa0b0	0.077943206
183	0xbde21074	-0.110382944
184	0xbdc586e6	-0.096448705
185	0xbd2a3990	-0.041558802
186	0xbd935528	-0.07193977
187	0x3d840a7e	0.06447314
188	0x3db4e2a8	0.08832294
189	0xbdf860b8	-0.12127823
190	0xbdd94312	-0.10608496
191	0xbdf94c20	-0.12172723
192	0x3d412780	0.04715681
193	0x3dce0af2	0.100606814
194	0xbdc67cb0	-0.09691751
195	0xbd6d08a0	-0.057869554
196	0x3d22edd0	0.039777577
197	0xbda72a0c	-0.08162317
198	0x3dd9777e	0.106184945
199	0x3ceec1d0	0.029145151
200	0xbd0e884c	-0.03479795
201	0x3c0504d0	0.008118823
202	0x3d1fa020	0.038971066
203	0xbd350cc8	-0.044201642
204	0xbdc65cf4	-0.09685698
205	0x3a5c4100	0.000840202
206	0x3b153780	0.0022768676
207	0x3b253180	0.0025206506
208	0xbc956ec0	-0.018241286
209	0x3da45eee	0.08025919
210	0xbd0ee0d8	-0.034882396
211	0xbc463b40	-0.012099087
212	0x3d528730	0.051398456
213	0xbda122ce	-0.078679666
214	0x3d0917a8	0.033469826
215	0xbce26c28	-0.027639464
216	0x3d7597c4	0.059959188
217	0xbd8adef2	-0.06780805
218	0x3b9761a0	0.004619792
219	0x3c485ac0	0.012228668
220	0xbdcdfa0a	-0.10057457
221	0xbdba25fe	-0.09089278
222	0x3d445bdc	0.047939166
223	0xbd15055c	-0.036382064
224	0x3d98099c	0.07423708
225	0xbdfce490	-0.12348282
226	0xbd7d18a4	-0.061791077
227	0xbdd2db82	-0.10295774
228	0x3d4c8784	0.049933925
229	0xbb6d7f40	-0.0036239177
230	0xbcbeff78	-0.023315176
231	0xbcaa5d40	-0.020796418
232	0xbdc81a24	-0.09770611
233	0x3d11335c	0.03544937
234	0x3b4c3140	0.0031157285
235	0xbdb0ab3e	-0.08626412
236	0x3d40a8c8	0.047035962
237	0xbb24a6c0	-0.0025123805
238	0xbdf796fc	-0.12089345
239	0x3d89b524	0.06724003
240	0x3d88ee5c	0.066860884
241	0xbcc0ee98	-0.02355127
242	0xbdb0c08e	-0.08630477
243	0x3ba47460	0.005018756
244	0x3dc12c24	0.09432247
245	0x3dea53b6	0.11441748
246	0xbdc13aa4	-0.09435013
247	0xbd674128	-0.056458622
248	0x3dc753ee	0.09732805
249	0x3d7a4124	0.06109728
250	0x3d9e77a2	0.07737662
251	0xbd7ed708	-0.06221679
252	0x3ddc8d86	0.10769181
253	0xbdd272ea	-0.10275824
254	0xbbc54cc0	-0.006021112
255	0x3b2a1700	0.002595365

bias f4 [32]
0	0x3bc4a0e0	0.006000623
1	0xbdf590fa	-0.11990543
2	0x3c824228	0.015900686
3	0x3d34205c	0.043976173
4	0x3de51af6	0.11186783
5	0xbd25f43c	-0.040516123
6	0x3d38ac5c	0.04508625
7	0xbd2b9140	-0.041886568
8	0xbd340bb4	-0.043956473
9	0xbde2d6e8	-0.11076146
10	0x3cd823a8	0.02638419
11	0x3dabc6c2	0.083875194
12	0xbd8e6972	-0.06953706
13	0x3d5152e4	0.05110444
14	0xbc9fbaf8	-0.019498333
15	0xbdb5c1a4	-0.08874825
16	0x3c5a6040	0.013328612
17	0xbdf978e2	-0.1218126
18	0x3d893b9e	0.06700824
19	0xbce24198	-0.027619168
20	0x3debc534	0.11512223
21	0x3b973520	0.0046144873
22	0xbdf8308a	-0.12118633
23	0x3dc6a8d2	0.09700169
24	0xbcdffb10	-0.027341396
25	0xbdaf5ae6	-0.085622594
26	0x3dec5cbc	0.11541125
27	0x3c3f4760	0.011674732
28	0x3d25ff34	0.040526584
29	0xbddd7652	-0.108135834
30	0xbd34d278	-0.04414603
31	0x3dcd66e6	0.10029392

weight_ih_l0 f4 [128, 32]
0	0xbd0328fb	-0.032021504
1	0x3da02433	0.078194045
2	0xbdbdd173	-0.09268465
3	0x3c45a4b7	0.012063197
4	0xbe369378	-0.17829692
5	0x3e3d97df	0.18514965
6	0xbe252e7e	-0.16131017
7	0xbec2a0ba	-0.3801325
8	0xbe008bf0	-0.12553382
9	0x3e8eadfc	0.27867115
10	0xbe4c8724	-0.19973427
11	0xbe07b34f	-0.13251995
12	0x3d08f40e	0.033435874
13	0xbdb7d17c	-0.08975503
14	0x3de9787a	0.11399932
15	0x3e52732e	0.2055175
16	0x3d9ea445	0.07746176
17	0x3e25c8ac	0.16189831
18	0xbe8af606	-0.27140826
19	0x3d5a6552	0.053319283
20	0xbe9a6277	-0.30153248
21	0xbd916ab3	-0.071004294
22	0xbe84ad44	-0.2591344
23	0xbea660d8	-0.3249576
24	0xbe293c8a	-0.16527
25	0xbe817b47	-0.25289366
26	0xbd138613	-0.036016535
27	0xbc640fa5	-0.013919746
28	0x3d8bc3af	0.06824433
29	0xbe4bc8c5	-0.19900806
30	0x3e8f61ad	0.28004208
31	0xbecded86	-0.40220279
32	0xbab37924	-0.0013692719
33	0xbdfe5c63	-0.12419965
34	0xbe8a2741	-0.26983073
35	0xbe20f1f3	-0.15717296
36	0x3da751da	0.08169909
37	0x3d635aa9	0.055506382
38	0x3dacfecb	0.084470354
39	0xbe7c1427	-0.24617063
40	0xbdd983b6	-0.10620825
41	0x3e944f09	0.2896655
42	0x3e13dcc9	0.14439692
43	0xbb410b62	-0.0029456248
44	0x3eb158d4	0.34638083
45	0x3d1c8c61	0.038219813
46	0xbd935f2d	-0.07195888
47	0xbe717bd0	-0.23582387
48	0x3c097b02	0.008391144
49	0x3d9930b8	0.074799955
50	0xbdcc0a20	-0.09962869
51	0x3e02792c	0.12741536
52	0xbea5c71a	-0.32378465
53	0xbd725339	-0.0591614
54	0xbcfe0bcb	-0.031011483
55	0xbed4078d	-0.4141201
56	0x3d9ca731	0.07649077
57	0x3d0550bc	0.032547697
58	0x3e459a13	0.19297056
59	0x3cba127e	0.022713896
60	0xbd69f72b	-0.057120483
61	0x3ced9a0b	0.029004117
62	0x3e2c6280	0.1683445
63	0xbe1440f2	-0.144779
64	0x3e13cfe9	0.1443478
65	0x3e8f9492	0.28043038
66	0x3dca87e7	0.098892026
67	0xbe2cb0a4	-0.16864258
68	0x3dac108f	0.08401596
69	0xbe705978	-0.2347163
70	0x3d332d21	0.04374421
71	0xbeaa6bf0	-0.33285475
72	0x3c775054	0.015094835
73	0x3e88c944	0.26716053
74	0x3e47ec71	0.19523789
75	0xbe951640	-0.29118538
76	0xbdb0f6cf	-0.08640825
77	0xbdd3bc73	-0.10338678
78	0x3c858140	0.016296983
79	0xbe131cef	-0.14366506
80	0x3ed32754	0.41240942
81	0x3eee1d40	0.4650669
82	0xbc8f9d49	-0.017531054
83	0x3e08203f	0.13293551
84	0xbd5fe1fb	-0.05465887
85	0x3e05a6b6	0.13051876
86	0xbe95d32d	-0.29262677
87	0xbf1cc165	-0.61232597
88	0xbdb7c766	-0.08973579
89	0xbedd959f	-0.43278214
90	0x3e09d8f2	0.13461664
91	0x3e92655b	0.28592953
92	0x3e1932f4	0.14960843
93	0xbe280c61	-0.16410972
94	0x3cbefa92	0.02331284
95	0xbc364a5a	-0.011126125
96	0x3d3fe610	0.046850264
97	0x3d212306	0.03934004
98	0xbe1999b2	-0.15000036
99	0xbf098feb	-0.53735226
100	0xbe47ec5d	-0.19523759
101	0xbdc6d590	-0.097087026
102	0x3d6a7168	0.05723706
103	0xbf23832c	-0.6387203
104	0x3d8f6925	0.070024766
105	0x3e8b11f4	0.27162135
106	0xbdf47294	-0.119359165
107	0x3e4bffa6	0.19921741
108	0x3ebdefda	0.37097055
109	0xbe1d74d4	-0.15376598
110	0x3e16b3bf	0.14717005
111	0x3ea88c62	0.32919604
112	0x3d9cb4d4	0.07651678
113	0x3e776eb9	0.24163331
114	0xbe607c51	-0.21922423
115	0xbe6af772	-0.22945955
116	0x3c9d0c39	0.019170867
117	0xbe789e80	-0.24279213
118	0xbe32e092	-0.1746848
119	0xbf154a8a	-0.5831686
120	0xbe173060	-0.14764547
121	0xbea0a644	-0.3137685
122	0xbd1d8ca1	-0.038464192
123	0x3db89116	0.09012048
124	0xbc0101ae	-0.007873936
125	0x3dd0fa45	0.10203985
126	0x3d239a8a	0.0399423
127	0xbd01de72	-0.03170628
128	0xbdff2d53	-0.12459817
129	0x3c4c0bbf	0.012453972
130	0x3dd283f6	0.10279076
131	0xbee05683	-0.43816003
132	0xbe8c4432	-0.2739578
133	0xbdafd13e	-0.08584832
134	0xbdd231c9	-0.10263402
135	0xbed8905f	-0.42297646
136	0xbd320abf	-0.04346728
137	0x3e3d10a4	0.18463379
138	0x3d938bc7	0.07204395
139	0x3e4ceed9	0.20012988
140	0x3edbb714	0.42913115
141	0xbe4fc4c1	-0.202899
142	0xbca0d5f3	-0.019633269
143	0x3e0a070f	0.13479255
144	0x3da1817b	0.078860246
145	0x3f18d8cb	0.597058
146	0xbe99b49c	-0.30020607
147	0xbe95b094	-0.2923628
148	0xbd838083	-0.06420996
149	0xbeac0982	-0.33601004
150	0xbe329ba3	-0.17442183
151	0xbf0efa85	-0.5585101
152	0xbe76fb6b	-0.24119346
153	0xbe9509f6	-0.29109162
154	0x3db00a5b	0.08595725
155	0x3e60dc7c	0.21959108
156	0x3e5daf8d	0.21648999
157	0xbde732d7	-0.11288994
158	0xbe1d3db2	-0.15355566
159	0xbd9892ac	-0.074498504
160	0xbe3144f7	-0.17311464
161	0x39232d1f	0.000155617
162	0xbe382479	-0.17982663
163	0xbe2cd8e6	-0.16879615
164	0xbe6c008f	-0.23047088
165	0x3e11c8b2	0.14236715
166	0xbe4b1587	-0.19832431
167	0xbe88657c	-0.26639926
168	0xbea84e1d	-0.32872096
169	0x3e26195a	0.16220608
170	0xbe67d604	-0.22640234
171	0x3c8f967f	0.017527817
172	0x3e4e37ab	0.20138423
173	0x3d7a47c1	0.061103586
174	0x3d5e5f33	0.054290008
175	0x3e7d8642	0.24758247
176	0x3ea27460	0.31729412
177	0x3dafb0fb	0.08578678
178	0x3d300c73	0.042980623
179	0xbe92ec07	-0.286957
180	0xbebf6413	-0.37381038
181	0xbdd21489	-0.10257823
182	0x3d639fc0	0.05557227
183	0xbed51245	-0.416155
184	0xbdec68d5	-0.115434326
185	0xbe8a2615	-0.2698218
186	0x3d803e01	0.06261826
187	0x3de1f66c	0.11033329
188	0x3d82596d	0.06364713
189	0xbd2b3a7c	-0.041803822
190	0xbe80a8d9	-0.2512882
191	0xbe5949ea	-0.21219602
192	0x3e65fa88	0.22458851
193	0x3df379b9	0.11888451
194	0xbebf75d3	-0.3739458
195	0x3dbc2063	0.09185865
196	0x3e34dc0a	0.17662063
197	0xbd98a417	-0.07453173
198	0x3dc572b9	0.09641022
199	0xbe6bcb60	-0.230268
200	0xbdad5da4	-0.08465126
201	0xbe0743f0	-0.1320951
202	0xbde803f3	-0.11328878
203	0xbe5b1305	-0.21393974
204	0xbd28a0f9	-0.04116914
205	0xbc5c8084	-0.013458375
206	0x3d3b82ba	0.045778967
207	0xbe2c72f4	-0.16840726
208	0x3e26bd35	0.16283114
209	0x3e0d1352	0.13776901
210	0xbe38dc3e	-0.18052766
211	0x3de64df5	0.11245338
212	0xbe758760	-0.23977423
213	0x3cd7fce3	0.026365703
214	0x3d219bd9	0.03945527
215	0xbedcb44e	-0.43106312
216	0xbc441537	-0.011967949
217	0x3da2f0d4	0.079560906
218	0xbcd08a05	-0.025456438
219	0x3e0749e7	0.13211785
220	0xbc687b22	-0.014189513
221	0x3a5824ff	0.0008245259
222	0xbdbb823e	-0.09155701
223	0xbdd7b1dc	-0.10531971
224	0xbb0e2784	-0.0021691034
225	0x3ee046f1	0.43804124
226	0xbdd2520d	-0.10269556
227	0xbec046a8	-0.37553906
228	0xbde07359	-0.10959501
229	0xbf08101d	-0.53149587
230	0xbd8f5ef7	-0.07000535
231	0xbf1623d7	-0.5864844
232	0xbe688b68	-0.2270943
233	0x3e35982d	0.17733832
234	0x3d6c5908	0.057702094
235	0xbe6ba08b	-0.23010461
236	0x3c82b48f	0.015955238
237	0xbf1ca6f2	-0.6119224
238	0x3d27003b	0.040771704
239	0xbdc85f8d	-0.0978385
240	0x3e48d1db	0.19611304
241	0x3e9124bd	0.28348342
242	0xbe6f0518	-0.23341787
243	0x3dfcea43	0.123493694
244	0xbd5673d6	-0.052356564
245	0x3db8d13f	0.090242855
246	0x3d595452	0.05305893
247	0xbf239fbe	-0.6391562
248	0x3e8f1f67	0.27953646
249	0xbeb2db28	-0.34932828
250	0x3f09b0e2	0.53785527
251	0x3eb0e226	0.34547538
252	0x3e87ea61	0.26546004
253	0x3d3f3e87	0.04669049
254	0xbe86ecc3	-0.2635251
255	0x3e3d63d0	0.18495107

weight_hh_l0 f4 [128, 32]
0	0xbbc6a911	-0.0060626348
1	0x3e01e5c5	0.12685306
2	0xbdceec3a	-0.101036504
3	0xbe14d2e5	-0.14533575
4	0xbde12cc9	-0.1099487
5	0x3c7dc7e6	0.015489554
6	0x3e8b14d2	0.27164322
7	0x3da54c33	0.080711745
8	0x3e126f5c	0.14300293
9	0xbda16eb2	-0.078824416
10	0xbd40f4dd	-0.04710852
11	0xbd2b14c1	-0.04176784
12	0xb9f5c981	-0.00046880174
13	0xbd9bd33c	-0.07608649
14	0x3de09940	0.1096673
15	0x3df616d2	0.120160714
16	0x3c186558	0.009301506
17	0xbab0a8bc	-0.0013478021
18	0x3e2e6f1a	0.1703457
19	0xbd2b910f	-0.041886386
20	0x3e839fbb	0.25707802
21	0xbcd6d468	-0.02622433
22	0xbda551a1	-0.0807221
23	0xbe072e8f	-0.13201354
24	0x3e5a3c7f	0.2131214
25	0xbe10b46c	-0.14131325
26	0x3db2ab3a	0.08724065
27	0x3e36d452	0.17854431
28	0xbdee1ee1	-0.116269834
29	0xbd9d9247	-0.07693916
30	0x3de06633	0.10956993
31	0xbd9b1dcd	-0.075740434
32	0x3bc4bd45	0.006004008
33	0x3e2158fb	0.157566
34	0xbd80c753	-0.06288018
35	0x3e8f46ce	0.27983707
36	0xbd87072d	-0.065931655
37	0x3d1b896b	0.03797285
38	0x3e398c54	0.18119937
39	0xbdb36e48	-0.08761269
40	0x3e1397b3	0.14413337
41	0x3e21b9b4	0.15793496
42	0xbe0eb68c	-0.13936824
43	0xbc490de8	-0.012271382
44	0x3db8f436	0.090309545
45	0xbd9afdd0	-0.07567942
46	0x3cdd2a2c	0.026997648
47	0xbc3d9f71	-0.011573658
48	0xbe221dd2	-0.15831688
49	0x3c8c4cf2	0.017126534
50	0x3dd62273	0.104557894
51	0xbe069b46	-0.1314517
52	0x3d9b1b30	0.07573545
53	0xbe0174a0	-0.12642145
54	0xbdc4d4e4	-0.09610918
55	0xbe90385d	-0.28168002
56	0x3d87f9f4	0.06639472
57	0xbd0b1382	-0.03395415
58	0x3e26551a	0.16243401
59	0xbb8ebbef	-0.0043558995
60	0x3e3e54b2	0.18586996
61	0xbc9d202a	-0.019180376
62	0x3dbd5d5c	0.092463225
63	0xbdc0c602	-0.09412767
64	0xbd8e28ad	-0.06941352
65	0x3dc15595	0.094401516
66	0xbe2b06a4	-0.16701752
67	0x3d4e1578	0.050313443
68	0x3e7fb240	0.2497034
69	0x3e1d9855	0.15390141
70	0x3e86ddb2	0.26341015
71	0x3d1141fa	0.03546331
72	0x3e1fb40a	0.15596023
73	0x3e11baa7	0.14231358
74	0xbe4b9734	-0.19881898
75	0x3dd2f0b1	0.102998145
76	0xbbf1c132	-0.007377767
77	0x3dbd5cf1	0.09246243
78	0xbddcdf91	-0.107848294
79	0x3e440dc6	0.19145879
80	0x3df3d7eb	0.119064175
81	0x3e0b0b0f	0.13578437
82	0x39b3bb0a	0.00034280895
83	0xbe10be40	-0.14135075
84	0xbe099fb3	-0.13439827
85	0xbdc502e2	-0.096196905
86	0x3ce099c1	0.027417066
87	0xbea76f48	-0.32702088
88	0x3e8e78b9	0.2782648
89	0xbe09327e	-0.13398167
90	0x3e01bf2e	0.12670586
91	0xbd82004f	-0.06347715
92	0x3d63537c	0.05549954
93	0xbccf1fa2	-0.025283638
94	0xbd4d8b7d	-0.050181855
95	0xbdae8e1d	-0.085232
96	0x3dc1ac97	0.09456747
97	0x3e62209b	0.2208275
98	0x3d24547f	0.040119644
99	0xbe29622e	-0.16541359
100	0xbd822d2b	-0.06356271
101	0xbdb7608f	-0.08953964
102	0xbd1ceb01	-0.038310055
103	0x3e5f0dd1	0.21782614
104	0xbc84706e	-0.016166892
105	0x3e7fc548	0.249776
106	0x3d98c188	0.07458788
107	0xbe36ce72	-0.1785219
108	0xbe17febe	-0.1484327
109	0xbe1a0a05	-0.15042885
110	0xbe1d12f8	-0.15339267
111	0x3e10b7d7	0.1413263
112	0xbe3f00c9	-0.18652643
113	0xbe37cc56	-0.17949042
114	0xbe950a8e	-0.29109615
115	0x3cad70ae	0.021171894
116	0x3d2c7929	0.042107735
117	0x3d6df8de	0.058098666
118	0xbe29ed2c	-0.1659438
119	0xbdb034b7	-0.086038046
120	0x3d8c8f88	0.06863314
121	0x3e80197c	0.25019443
122	0xbd9b0349	-0.07568986
123	0x3e0abc6c	0.1354844
124	0x3e45d8ef	0.19321035
125	0x3e438670	0.19094253
126	0xbdb380a1	-0.087647684
127	0x3e4a0548	0.19728577
128	0x3bfb3876	0.007666643
129	0x3e45446b	0.1926438
130	0x3e1317ce	0.1436455
131	0xbd181614	-0.03713043
132	0xbe2592da	-0.161693
133	0xbea7b205	-0.32753006
134	0xbde73bc6	-0.11290698
135	0xbd81b308	-0.063329756
136	0xbdc974fe	-0.098367676
137	0x3d2852e2	0.04109467
138	0x3d51e47f	0.0512433
139	0xbd9d2b53	-0.07674279
140	0xbc6d6c5a	-0.014491165
141	0xbe6a31cc	-0.22870559
142	0xbd036916	-0.03208264
143	0x3c2b6e3d	0.010463295
144	0x3de47b52	0.11156334
145	0xbe7033da	-0.2345728
146	0xbe4afadc	-0.19822258
147	0xbe386257	-0.18006264
148	0x3dbe83c0	0.09302473
149	0xbc257081	-0.010097624
150	0xbcd5cdfd	-0.0260992
151	0x3dc748e1	0.097306974
152	0x3e8e6f58	0.27819324
153	0x3cd3509a	0.02579527
154	0xbccae72b	-0.024768433
155	0x3e1dd649	0.15413775
156	0x3e391638	0.18074882
157	0x3dbdbe39	0.09264798
158	0xbdcd743f	-0.10031938
159	0x3d96f099	0.07370109
160	0xbe31dbbc	-0.17368978
161	0xbd795337	-0.060870375
162	0xbd33557d	-0.0437827
163	0xbcbd113e	-0.02307951
164	0x3d26ea1c	0.040750608
165	0x3e1ed3d7	0.15510498
166	0x3e041a09	0.12900557
167	0x3dc0397d	0.09385965
168	0x3e0409e9	0.12894405
169	0x3e0fea03	0.14054112
170	0x3ca04238	0.019562826
171	0x3dc89954	0.0979487
172	0x3e6acdf1	0.22930123
173	0xbd591937	-0.053002562
174	0x3daecfb5	0.08535711
175	0xba7b51bf	-0.0009587071
176	0xbc133891	-0.008985654
177	0xbe133b36	-0.14378056
178	0x3caf5cef	0.021406619
179	0xbe5059fe	-0.2034683
180	0xbcd39818	-0.02582936
181	0xbe754299	-0.23951186
182	0xbe37b6dc	-0.17940849
183	0xbd87efed	-0.06637559
184	0x3e050791	0.12991168
185	0xbdeab62e	-0.11460529
186	0xbd9cf233	-0.07663383
187	0xbdcdfb0d	-0.1005765
188	0x3df38eef	0.11892497
189	0xbe10eb28	-0.14152205
190	0x3dc3a041	0.095520504
191	0x3df7953e	0.120890126
192	0xbe48f902	-0.19626239
193	0x3ea42ae4	0.32063973
194	0x3ebcac95	0.3685042
195	0x3ecc119c	0.39857185
196	0x3e4559c9	0.19272532
197	0x3e5b039b	0.21388094
198	0x3cc8f5c1	0.024531247
199	0x3c8cda42	0.017193917
200	0x3e8c9774	0.274593
201	0x3e66207b	0.22473328
202	0xbca948c5	-0.020664582
203	0x3e257278	0.16156948
204	0x3dcc1b0c	0.09966096
205	0x3e0c2f9a	0.13690034
206	0xbc16a716	-0.00919511
207	0xbd8254ea	-0.06363852
208	0xbe604c6e	-0.21904156
209	0xbe4b2912	-0.19839886
210	0x3e907b56	0.28219098
211	0x3dab574e	0.083662614
212	0xbd66750f	-0.05626398
213	0xbd0d1ccb	-0.034451287
214	0x3e077f44	0.13232142
215	0xbe4d5130	-0.20050502
216	0x3dfa6122	0.12225558
217	0xbdfd8835	-0.12379495
218	0xbdbbad75	-0.09163944
219	0x3ca3d7c1	0.02000034
220	0xbe21e24f	-0.15808986
221	0x3db23cf6	0.087030336
222	0x3e0b8eae	0.13628647
223	0x3e43195d	0.19052644
224	0x3dc4231a	0.095770076
225	0xbd7e48b2	-0.062081046
226	0xbc9e6c62	-0.01933879
227	0x3e3689d1	0.1782601
228	0x3dbc3150	0.09189093
229	0x3e17afab	0.14813106
230	0x3e5b079a	0.21389619
231	0x3c93120b	0.01795294
232	0xbd82091d	-0.063493945
233	0x3cbc61f4	0.022995926
234	0xbd1c420d	-0.03814893
235	0x3dc30e04	0.09524158
236	0x3dd62c40	0.10457659
237	0x3cccf97b	0.025021305
238	0xbde4e226	-0.11175947
239	0xbd1429f2	-0.036172815
240	0xbe154e78	-0.14580715
241	0xbc497782	-0.012296559
242	0x3e98a54f	0.2981362
243	0x3e0fb088	0.14032185
244	0xbe0c7789	-0.13717474
245	0xbe1c7c79	-0.15281858
246	0x3dd00472	0.10157098
247	0xbe35b6eb	-0.17745559
248	0xbcbca02e	-0.023025598
249	0xbda34c5b	-0.07973548
250	0xbdca695c	-0.09883377
251	0xbda0a90c	-0.07844743
252	0xbd3958fa	-0.04525087
253	0xbc42965f	-0.011876672
254	0x3e0b1bcf	0.13584827
255	0x3e6c1054	0.23053104

bias_ih_l0 f4 [128]
0	0xbe43a008	-0.19104016
1	0xbd9ca1a3	-0.07648017
2	0xbed4765b	-0.41496548
3	0xbca464ed	-0.020067656
4	0xbd07ec5b	-0.03318439
5	0xbdab0d0f	-0.083521
6	0xbe0a6394	-0.13514549
7	0xbf10fb4c	-0.5663345
8	0xbec0dfe3	-0.37670812
9	0xbe67a1fe	-0.22620389
10	0xbdcab50d	-0.09897814
11	0x3ac4917f	0.0014996974
12	0xbd4ec95f	-0.05048501
13	0xbed6dcfa	-0.41965467
14	0xbeeb148b	-0.4591411
15	0xbe72aa02	-0.23697665
16	0xbe45bd1c	-0.19310421
17	0xbeee820a	-0.46583587
18	0x3d4b2026	0.049591206
19	0xbe56acbc	-0.2096433
20	0xbea0379a	-0.3129242
21	0xbe8fd45c	-0.28091705
22	0xbdb24b69	-0.087057896
23	0xbdeaa711	-0.11457647
24	0xbead7ce3	-0.33884344
25	0xbe127d80	-0.14305687
26	0xbe81eeed	-0.25377598
27	0xbe2a519f	-0.16632698
28	0xbeb99ecd	-0.36253968
29	0xbe235bff	-0.15953062
30	0xbe5f95fe	-0.21834561
31	0xbe0b3d4c	-0.13597602
32	0x3b778f8e	0.0037774774
33	0x3e00d0bb	0.12579624
34	0x3ab28021	0.0013618508
35	0xbce75027	-0.028236462
36	0x3ce4f187	0.0279472
37	0xbd98e8fa	-0.07466312
38	0x3d8e4dc0	0.069484234
39	0xbdd01a89	-0.10161311
40	0xbc0eeb21	-0.008723051
41	0x3da42d55	0.08016459
42	0x3d4ece55	0.050489742
43	0xbe0108af	-0.12600969
44	0xbe1af529	-0.15132584
45	0xbe371716	-0.178799
46	0xbea745d1	-0.32670453
47	0xbe076389	-0.13221563
48	0x3dda1b4d	0.106497385
49	0xbec9c36f	-0.39406916
50	0x3d89f72a	0.06736596
51	0xbdbe9383	-0.093054794
52	0xbe437530	-0.19087672
53	0xbdd97766	-0.106184766
54	0xbe1e9e8f	-0.15490173
55	0x3e0f31ea	0.13983884
56	0xbdd8595f	-0.10563921
57	0x3d8975db	0.06711932
58	0xbb17d0dc	-0.0023165261
59	0x3c75cf41	0.015003026
60	0xbce314ba	-0.027719844
61	0xbd7aa137	-0.061188903
62	0xbda04108	-0.07824904
63	0xbe753991	-0.23947741
64	0x3d5c662c	0.053808376
65	0xbd87984c	-0.06620845
66	0x3d8d2d6a	0.06893428
67	0xbe37ea48	-0.17960465
68	0x3d87c0d8	0.06628579
69	0xbd71bea6	-0.059019707
70	0xbd96d600	-0.07365036
71	0xbd79b57c	-0.060964093
72	0x3e13a5c2	0.144187
73	0xbe06c71f	-0.13161896
74	0x3dd953a2	0.10611655
75	0xbdd1bfea	-0.10241683
76	0xbe03fde9	-0.12889828
77	0x3c7d158a	0.01544703
78	0xbd9303bf	-0.07178449
79	0xbd7dec4b	-0.061992925
80	0x3e0e9dc9	0.13927378
81	0x3d2e6e13	0.042585444
82	0xbe1f9389	-0.15583624
83	0x3d9558e7	0.072923474
84	0xbd874c98	-0.06606406
85	0x3d9eeedc	0.077604026
86	0xbdd361de	-0.10321401
87	0x3dcd8119	0.10034389
88	0xbe04790e	-0.12936804
89	0x3cf2f501	0.029657843
90	0x3d89ec1a	0.06734486
91	0x3de11957	0.10991161
92	0xbd67591c	-0.056481466
93	0xbd59462e	-0.053045444
94	0x3ba5a231	0.005054735
95	0x3d304dbe	0.04304289
96	0xbdcf0e3b	-0.10110136
97	0x3d7cad46	0.061688684
98	0xbeaa12ae	-0.33217376
99	0xbdec75f3	-0.115459345
100	0xbe2aebb6	-0.16691479
101	0xbe196517	-0.14979969
102	0xbc7ba4ff	-0.015359162
103	0xbe903df4	-0.28172266
104	0xbe14be27	-0.14525662
105	0xbe913d11	-0.28366902
106	0xbcd10469	-0.025514798
107	0xbd57a61d	-0.052648652
108	0xbe21585f	-0.15756367
109	0xbeb1f978	-0.34760642
110	0xbe6669a2	-0.22501233
111	0xbde87eb7	-0.11352294
112	0xbe47955b	-0.19490568
113	0xbe792963	-0.24332194
114	0x3d341009	0.043960605
115	0xbcd4e200	-0.025986671
116	0xbdf71fd6	-0.12066619
117	0xbe9f7c3f	-0.3114948
118	0xbe441a92	-0.19150761
119	0xbdf84127	-0.12121802
120	0xbec3d6ce	-0.3824982
121	0x3d4dac12	0.050212927
122	0xbe055baf	-0.13023256
123	0xbd9c800d	-0.07641611
124	0xbe487871	-0.19577195
125	0xbe6a1105	-0.22858055
126	0xbe6489ff	-0.22318266
127	0xbc0fee5c	-0.008784857

bias_hh_l0 f4 [128]
0	0xbe95cbad	-0.29256955
1	0xbe15c269	-0.14624943
2	0xbda6af5f	-0.08138918
3	0xbe912b4b	-0.28353342
4	0xbe2f5113	-0.17120771
5	0xbebc3127	-0.3675625
6	0xbd5c965c	-0.05385433
7	0xbeb6e331	-0.35720208
8	0xbe78d6cc	-0.24300689
9	0xbd2026b8	-0.039099425
10	0xbe32c1a6	-0.17456684
11	0xbd80e01d	-0.06292746
12	0xbe051d24	-0.12999398
13	0xbe2f220f	-0.17102836
14	0xbe2fd4cb	-0.17171018
15	0xbec4e521	-0.3845606
16	0x3d6e515b	0.058183055
17	0xbe80259f	-0.25028703
18	0xbe523114	-0.20526534
19	0x3c8f8f90	0.01752451
20	0xbe13b9ee	-0.14426395
21	0xbe7add45	-0.2449847
22	0xbe7ff15f	-0.2499442
23	0xbdbc5090	-0.091950536
24	0xbec1ebc5	-0.3787519
25	0xbd1d29cb	-0.038369935
26	0xbec68d54	-0.387797
27	0xbe98c1ab	-0.29835257
28	0xbeacd0c5	-0.3375303
29	0x3c02615c	0.007957783
30	0xbe149260	-0.14508963
31	0xbea24309	-0.3169177
32	0xbe5742a7	-0.2102152
33	0xbd8f2f3a	-0.069914296
34	0xbe9fa524	-0.3118068
35	0xbc0a6d84	-0.008448962
36	0x3d538fb5	0.05165072
37	0xbe806e6f	-0.25084254
38	0x3dacc05a	0.08435126
39	0xbeb872fb	-0.36025223
40	0xbe185630	-0.14876628
41	0xbd4df4fc	-0.050282463
42	0x3dbee6d8	0.09321374
43	0xbbbff12b	-0.005857607
44	0xbe738070	-0.23779464
45	0x3cab1c3b	0.020887485
46	0xbe2a4999	-0.16629638
47	0xbda14883	-0.07875159
48	0xbe0f887d	-0.1401691
49	0xbe87cddf	-0.26524255
50	0xbe04edb8	-0.12981308
51	0x3e09039c	0.13380283
52	0xbe9489e2	-0.29011446
53	0xbe9dd73a	-0.30828267
54	0xbd9ddacb	-0.07707747
55	0xbd54708c	-0.051865146
56	0xbe9e2248	-0.3088553
57	0xbcb0bc10	-0.02157405
58	0xbe5c4bfe	-0.21513364
59	0xbe4d5814	-0.2005313
60	0xbe55076f	-0.20803617
61	0xbe806d4d	-0.2508339
62	0xbe4d9b33	-0.20078735
63	0xbe271c84	-0.16319472
64	0xbcaf2d31	-0.021383854
65	0xbd715473	-0.058918428
66	0xbb307f2d	-0.0026931271
67	0x3c82a1d3	0.015946304
68	0x3d385fcc	0.045013234
69	0x3b9fe144	0.0048791487
70	0xbc7f2031	-0.01557164
71	0x3d899ff0	0.06719959
72	0xbc95d8e8	-0.018291906
73	0x3e14fc36	0.14549336
74	0x3d303e6c	0.04302828
75	0x3e1b6b4a	0.15177646
76	0x3e0197ed	0.12655611
77	0xbd787d97	-0.060666647
78	0x3ddcb744	0.10777143
79	0xbdd90847	-0.10597282
80	0xbe1538d8	-0.14572465
81	0xbdeccd47	-0.11562591
82	0x3d31d0fe	0.0434122
83	0x3c879490	0.016550332
84	0x3db90ae7	0.090352826
85	0x3ca7e31a	0.020494033
86	0xbe03ca32	-0.128701
87	0xbddd9698	-0.10819739
88	0x3c766f06	0.0150411185
89	0x3d7a4c16	0.061107717
90	0x3d46589f	0.04842436
91	0x3d9ff523	0.07810428
92	0xbcb2228a	-0.021744985
93	0x3d9019a9	0.07036144
94	0xbd8290a4	-0.06375244
95	0xbdb92e97	-0.090420894
96	0xbea0f013	-0.31433162
97	0x3d9c8308	0.0764218
98	0xbe2cdd86	-0.1688138
99	0xbdfb5984	-0.12272933
100	0xbd3c1743	-0.04592062
101	0xbe20c0b1	-0.15698506
102	0x3e1d48f2	0.15359858
103	0xbf1b06fc	-0.6055753
104	0xbebfc0ae	-0.3745169
105	0xbd8e9cae	-0.06963478
106	0xbe480497	-0.19533001
107	0xbd61a61e	-0.055090062
108	0xbe5ace1a	-0.21367684
109	0xbe3c2f36	-0.18377385
110	0xbebef545	-0.372965
111	0xbe6106ff	-0.21975325
112	0xbe45172e	-0.19247124
113	0xbe9bb378	-0.3041036
114	0xbd5cb7d4	-0.05388625
115	0xbe356e44	-0.17717844
116	0xbed898f2	-0.42304188
117	0xbe0e66f7	-0.13906465
118	0xbdf8023b	-0.121098004
119	0xbd258704	-0.040411964
120	0xbe36442f	-0.17799447
121	0xbd9fb4fb	-0.07798191
122	0xbe894867	-0.2681305
123	0xbcbaf69b	-0.022822669
124	0xbe835448	-0.2565024
125	0xbe7b743b	-0.24556057
126	0xbe1349ee	-0.1438367
127	0xbe455054	-0.19268924
