experiments/pedestrians/models/06_Aug_2023_21_23_08/model_registrar-1.pt (torch, 713991 bytes, 82 tensors)

weight f4 [64, 10]
-0.22170658 -0.26692766 0.15482436 -0.10380525 -0.057206158 0.23431455 0.09777372 -0.16305327
-0.0791625 0.20269023 -0.11486103 0.24687515 0.2805004 0.013304801 0.078582786 -0.23362526
-0.1915554 -0.2747634 -0.016185418 0.18665163 0.13464127 0.024536721 -0.35873705 0.22262056
-0.03464388 0.046942435 -0.16336614 0.073957935 0.10561824 -0.052720692 -0.104494914 0.14200082
0.015054455 0.30185995 -0.3075496 0.32617489 -0.2496842 -0.18819046 -0.011284813 -0.2301893
0.20606309 -0.060901873 0.0073590307 0.15276738 0.13454933 0.22382435 0.214922 0.09559129
-0.31539097 0.106899634 -0.04620774 0.08612271 0.26128182 -0.08297956 0.030856874 -0.19646904
0.079586715 -0.104278624 -0.15173441 -0.01760652 0.043422677 0.13999 0.32577908 0.17140667
0.28691462 -0.18458305 -0.25999457 0.2699065 0.31175473 0.22986409 -0.24845967 -0.11207372
0.32262248 -0.18742067 -0.23644073 -0.094359346 0.27863467 -0.09742814 -0.07384291 -0.08446771
-0.16699123 -0.017567234 -0.051728938 0.11414581 -0.25960085 -0.14593063 -0.27476284 -0.29869193
0.10383747 -0.024543123 -0.22808906 -0.014941953 0.20485084 0.25868687 0.17326947 -0.25643948
0.06255496 -0.31995225 0.21192914 0.18371832 -0.24029046 0.0192349 0.13928649 0.08456195
-0.26784497 0.2874296 -0.19969067 0.054356005 0.15379247 -0.33315948 -0.09466001 -0.13968658
0.331302 -0.17368533 -0.38780192 -0.36530465 -0.021831827 0.28735843 -0.24058795 -0.1804788
-0.30230224 0.2967186 0.22959039 0.12306627 0.2905232 0.0875686 0.23321113 -0.049779948
0.070930906 -0.15084094 -0.07211214 0.02292235 -0.16296579 -0.20509097 -0.16326976 0.14925337
0.14289056 -0.12278522 0.00798356 -0.15199524 0.2244479 -0.2479661 -0.14552401 0.22309867
-0.24594046 -0.015918078 0.16234826 -0.06281489 -0.0969763 0.27038425 -0.04141647 0.29888925
-0.10106165 -0.18726905 0.2609751 -0.2254873 -0.22723943 0.16866231 -0.2103506 0.10645519
-0.18448414 0.27763492 0.13924046 0.22724026 -0.32757744 0.08698183 -0.0098453 0.16243665
-0.08563902 0.32225388 0.3009767 0.23411772 -0.21984641 0.23240918 -0.22883917 0.14287756
0.15812412 0.16373977 0.09180019 0.2611905 -0.13428842 0.26798126 0.19159661 -0.040425763
-0.006166534 -0.011545077 0.25342873 0.0037518307 0.17441913 0.2800019 0.13543044 0.04048854
0.0062560625 -0.20303072 -0.30879557 0.104881264 0.048907064 0.10142759 -0.2661307 0.19657095
-0.0657544 0.10416707 -0.21611832 0.07158034 0.18745907 -0.23383714 0.07406753 -0.06360764
0.30547714 -0.020346556 -0.1857005 -0.18512876 -0.0011947299 0.18448272 0.22461373 0.37350407
0.26484945 0.0721289 0.107207686 -0.11688107 0.08071485 0.17841077 -0.061914057 0.071908094
-0.14168885 0.19055495 0.24275807 0.26692873 0.108447716 -0.14609167 0.028093698 -0.16487744
-0.09371304 0.3116186 -0.0376558 -0.12826869 -0.053745627 0.14209042 -0.056327015 0.20275839
0.21427476 -0.24913873 -0.19621417 0.038369697 0.088804945 0.169304 0.15792271 -0.1955126
0.06572037 -0.17165369 -0.24966623 -0.31177405 0.0042342977 0.148737 -0.12510717 0.059674118
00000000: 0d07 63be beaa 88be 478a 1e3e d997 d4bd
00000010: 0151 6abd 27f0 6f3e 973d c83d 70f7 26be
00000020: f31f a2bd 078e 4f3e 423c ebbd d7cc 7c3e
00000030: c09d 8f3e 61fc 593c 03f0 a03d 763b 6fbe
00000040: 1927 44be caad 8cbe 4897 84bc 9b21 3f3e
00000050: 67df 093e 3c01 c93c 62ac b7be a5f6 633e
00000060: bee6 0dbd b646 403d 7449 27be 4277 973d
00000070: 604e d83d a7f1 57bd 6e01 d6bd aa68 113e
00000080: f6a6 763c 638d 9a3e 2477 9dbe 6500 a73e
00000090: 37ad 7fbe 00b5 40be f0e3 38bc beb6 6bbe
000000a0: 3402 533e 3e74 79bd 0624 f13b 0d6f 1c3e
000000b0: 4dc7 093e 3632 653e 8314 5c3e 5ec5 c33d
000000c0: ed7a a1be 32ee da3d 5444 3dbd 1a61 b03d
000000d0: bbc6 853e 30f1 a9bd 8ec7 fc3c 2e2f 49be
000000e0: 5cfe a23d 0890 d5bd 4460 1bbe 8c3b 90bc
000000f0: fadb 313d 8a59 0f3e 84cc a63e 3b85 2f3e
00000100: 79e6 923e 5703 3dbe 021e 85be 2f31 8a3e
00000110: 519e 9f3e 7e61 6b3e 366c 7ebe e886 e5bd
00000120: c62e a53e 34eb 3fbe 851d 72be 793f c1bd
00000130: 34a9 8e3e 6888 c7bd f43a 97bd 68fd acbd
00000140: c0ff 2abe 29e9 8fbc b9e1 53bd 47c5 e93d
00000150: 67ea 84be d76e 15be b7ad 8cbe 26ee 98be
00000160: bda8 d43d a90e c9bc 2e90 69be 18cf 74bc
00000170: 6bc4 513e 9b72 843e 8d6d 313e 094c 83be
00000180: d11c 803d c8d0 a3be f403 593e a820 3c3e
00000190: b40e 76be 8292 9d3c 1ea1 0e3e d12e ad3d
000001a0: fa22 89be f929 933e b67b 4cbe 67a4 5e3d
000001b0: c67b 1d3e e193 aabe 1bdd c1bd 000a 0fbe
000001c0: 6aa0 a93e 91da 31be f98d c6be 3609 bbbe
000001d0: a9d8 b2bc a520 933e b05c 76be 6fcf 38be
000001e0: 5cc7 9abe 80eb 973e be19 6b3e 2b0a fc3d
000001f0: 75bf 943e 2b57 b33d e6ce 6e3e 0fe6 4bbd
00000200: 3944 913d 0c76 1abe 88af 93bd a7c7 bb3c
00000210: 81e0 26be 5e03 52be 3030 27be e0d5 183e
00000220: e751 123e d176 fbbd 7acd 023c a4a4 1bbe
00000230: acd5 653e d3ea 7dbe 3f04 15be fa73 643e
00000240: d1d7 7bbe a166 82bc 9f3e 263e 18a5 80bd
00000250: 839b c6bd ce6f 8a3e 51a4 29bd 0308 993e
00000260: 69f9 cebd 75c3 3fbe 879e 853e 25e6 66be
00000270: 74b1 68be d0b5 2c3e 2666 57be 2e05 da3d
00000280: 69e9 3cbe 2a26 8e3e 0d95 0e3e acb1 683e
00000290: 3bb8 a7be 8823 b23d 2e4e 21bc cb55 263e
000002a0: 8363 afbd 76fe a43e 9e19 9a3e 8ebc 6f3e
000002b0: 6b1f 61be acfc 6d3e d154 6abe 7f4e 123e
000002c0: 4aeb 213e 66ab 273e bd01 bc3d c3ba 853e
000002d0: e782 09be d734 893e e731 443e 7c95 25bd
000002e0: a310 cabb 9027 3dbc 69c1 813e 46e1 753b
000002f0: ee9a 323e 695c 8f3e 47ae 0a3e 50d7 253d
00000300: a8ff cc3b 49e7 4fbe 741a 9ebe fdcb d63d
00000310: c652 483d 45b9 cf3d 4842 88be e549 493e
00000320: 3eaa 86bd 8b55 d53d 1f4e 5dbe b798 923d
00000330: 45f5 3f3e 0173 6fbe b8b0 973d b944 82bd
00000340: 8067 9c3e d2ad a6bc 4628 3ebe 6592 3dbe
00000350: 7c98 9cba 0ae9 3c3e 2401 663e ed3b bf3e
00000360: 599a 873e 51b8 933d b48f db3d 585f efbd
00000370: d44d a53d 50b1 363e 9899 7dbd 8d44 933d
00000380: e216 11be d620 433e 9295 783e e2aa 883e
00000390: d619 de3d 0e99 15be c124 e63c a2d5 28be
000003a0: 9fec bfbd 798c 9f3e f83c 1abd de58 03be
000003b0: 6024 5cbd 2780 113e 28b7 66bd e59f 4f3e
000003c0: d86a 5b3e 391e 7fbe 5eec 48be 8b29 1d3d
000003d0: 5edf b53d 075e 2d3e 7eb6 213e 7434 48be
000003e0: 6798 863d fcc5 2fbe 81a8 7fbe d9a0 9fbe
000003f0: ddbf 8a3b 834e 183e 181c 00be d96c 743d

bias f4 [64]
-0.118071906 -0.0072626206 -0.1410933 0.31144512 0.067402825 0.1909053 -0.27510294 -0.11338102
-0.04499767 0.15491138 -0.10736118 0.32344365 -0.09311712 0.22663142 -0.190229 -0.043686606
-0.16746674 -0.08862579 0.23794597 0.092527814 0.012650525 0.056733977 0.18284434 -0.05601173
0.001684087 0.16266616 -0.16569744 -0.113900095 -0.32215977 0.21515487 0.08167317 -0.23858495
-0.30032286 0.10255194 -0.2876567 0.28269607 0.2919667 -0.16473016 -0.15213159 -0.14925613
-0.21097162 0.15648234 -0.056402925 -0.124944314 -0.21302986 0.17271753 -0.23313598 -0.108981274
0.15651846 -0.14172632 -0.11735903 0.17018701 -0.29957542 -0.29574245 -0.26722115 -0.00094631966
0.14794274 0.20306583 0.21975607 0.22006252 -0.16314206 0.03982388 0.31877977 -0.21279094
00000000: afcf f1bd 47fb edbb c37a 10be bc75 9f3e
00000010: 7e0a 8a3d ae7c 433e 4bda 8cbe 4f34 e8bd
00000020: 7a4f 38bd 17a1 1e3e 2ee0 dbbd 689a a53e
00000030: 30b4 bebd 1112 683e 64cb 42be baf0 32bd
00000040: 677c 2bbe 7081 b5bd 1ca8 733e 397f bd3d
00000050: 2644 4f3c e361 683d 8c3b 3b3e 8e6c 65bd
00000060: 95bc dc3a f591 263e 97ac 29be 7444 e9bd
00000070: 20f2 a4be 8f51 5c3e 4344 a73d 9d4f 74be
00000080: ebc3 99be c006 d23d bd47 93be 8abd 903e
00000090: a97c 953e 06af 28be 62c8 1bbe 99d6 18be
000000a0: f208 58be e83c 203e c106 67bd cee2 ffbd
000000b0: 8024 5abe dddc 303e 33bb 6ebe 9331 dfbd
000000c0: 6046 203e b420 11be ee59 f0bd 8145 2e3e
000000d0: f361 99be 8e6b 97be 36d1 88be 7012 78ba
000000e0: 4d7e 173e 7df0 4f3e bc07 613e 1258 613e
000000f0: b60e 27be 5d1e 233d 1a37 a33e dee5 59be

weight f4 [32, 32]
-0.16732854 -0.06638843 0.21450199 -0.096605234 -0.09045765 -0.016590713 0.02076958 0.013887756
-0.11117153 -0.15238841 0.034056738 0.05667463 -0.035309352 0.0957704 -0.100796655 0.090197586
-0.043417312 0.13619868 0.14781126 0.1321687 -0.11842118 0.13357024 0.17167474 -0.14890942
-0.058699545 0.038050987 0.06362753 0.1669091 0.18152466 0.08330071 0.16113856 0.10219851
0.12537593 0.041480865 -0.095774315 -0.06520122 -0.16291125 0.10631794 0.096280776 0.092963666
-0.14843948 -0.04568881 -0.10455573 -0.090208784 -0.0067121703 0.054437555 -0.079111345 -0.065774485
0.0064543937 0.13517271 0.010455153 0.1381586 0.100308195 -0.074756704 0.15936534 -0.03793463
-0.024186471 -0.04112283 0.17096233 0.07733811 -0.09021524 -0.012685483 -0.006792677 -0.015042794
0.12841012 -0.07339734 0.0066631036 -0.13906313 -0.19369571 -0.09489397 -0.0061689587 -0.008469463
-0.12230812 0.14402778 0.15162857 -0.0666635 -0.07565751 0.15455611 -0.19511828 -0.13329986
0.121135876 0.17187299 0.15123852 0.0689182 0.11456011 -0.004183865 -0.015382175 -0.058160465
-0.15863259 -0.15869294 -0.024858866 -0.110971175 0.13295433 -0.13762505 -0.017458497 -0.11210416
0.15242492 -0.12338194 0.06584488 0.16030054 -0.048808873 0.16730863 0.007943701 -0.10169865
-0.1683314 0.08176046 0.077544935 -0.07732298 0.13146399 0.06427542 -0.1315 -0.03446257
-0.08105278 0.10807352 -0.047411505 0.145118 0.01840371 0.12039197 0.16020922 0.02237384
-0.03868156 0.08340295 0.0071836174 0.14853276 -0.03146038 0.16153212 0.096692465 0.1537553
-0.08681918 -0.027706055 0.15924332 -0.009104741 0.15447162 0.01573691 0.071379565 0.19388038
0.14002728 -0.14879818 0.14077237 0.09081964 -0.19171245 0.1312782 0.07642436 0.078489006
-0.14479066 0.012414224 0.14467461 0.14794207 0.114186496 -0.14492224 0.124035165 0.009378899
0.097646855 0.15400922 0.13242777 0.0031993047 0.08051597 0.21456769 0.06903185 -0.07997246
0.10784443 -0.010204719 -0.028356148 -0.21358751 -0.07522865 0.1638616 -0.040716935 -0.023526698
0.05981639 -0.11143347 0.1322732 0.12966861 -0.03971658 0.040241927 -0.19563206 -0.14303426
0.022696178 -0.14336817 -0.096077465 0.12112882 0.13453718 -0.012808424 -0.03605938 0.14464371
-0.1826333 0.16724737 -0.10888893 -0.015843632 -0.02734288 -0.11444221 0.006526474 -0.043839287
5.2801013e-05 0.060998447 0.102839336 -0.030526672 -0.058940593 -0.036735453 0.24531725 0.1970143
0.10315076 0.14431527 0.05683801 0.20249148 -0.14378072 -0.03457362 0.2153628 -0.025762878
-0.055782784 -0.12964223 -0.12622128 0.09489478 -0.04431202 -0.11838323 0.22506689 0.13157865
0.1804735 0.10086556 0.06128253 -0.080900535 -0.10180604 -0.014006877 -0.13773976 0.038834345
0.01925177 0.16177249 -0.03552568 -0.14061628 -0.059177343 0.16996147 0.19233978 0.14175802
-0.13232446 -0.043252453 -0.04101626 0.12378371 0.05758048 0.09899221 -0.011096584 0.18153237
0.06082987 0.15369493 -0.008286242 0.28233966 0.17505237 0.03997085 0.1525153 -0.111786
-0.023730377 0.03048638 0.036332346 0.07306203 -0.009770443 0.030261809 0.12604393 -0.1058501
00000000: 2c58 2bbe a8f6 87bd 69a6 5b3e f7d8 c5bd
00000010: dc41 b9bd 3fe9 87bc f724 aa3c 7889 633c
00000020: e6ad e3bd b50b 1cbe 147f 0b3d a823 683d
00000030: 8aa0 10bd 4523 c43d 7a6e cebd 83b9 b83d
00000040: 5ad6 31bd ab77 0b3e d65b 173e 3b57 073e
00000050: ce86 f2bd a3c6 083e 81cb 2f3e b67b 18be
00000060: ef6e 70bd 5adb 1b3d 274f 823d 38ea 2a3e
00000070: 9ae1 393e 9099 aa3d 8201 253e 744d d13d
00000080: 8c62 003e d7e7 293d 5325 c4bd 3888 85bd
00000090: 35d2 26be 38bd d93d db2e c53d bc63 be3d
000000a0: 8500 18be 3124 3bbd 5121 d6bd 62bf b8bd
000000b0: c4f1 dbbb eaf9 5e3d 2105 a2bd c6b4 86bd
000000c0: 617f d33b b76a 0a3e 174c 2b3c 7379 0d3e
000000d0: 626e cd3d 0b1a 99bd ab30 233e 5861 1bbd
000000e0: b522 c6bc 6a70 28bd c010 2f3e 7163 9e3d
000000f0: c5c2 b8bd c6d6 4fbc 1b95 debb 0d76 76bc
00000100: f17d 033e 5851 96bd 2a56 da3b 9166 0ebe
00000110: 2b58 46be c557 c2bd fa24 cabb 81c3 0abc
00000120: ae7c fabd 057c 133e 8544 1b3e e086 88bd
00000130: 53f2 9abd f543 1e3e 16cd 47be c27f 08be
00000140: 1616 f83d 79ff 2f3e 45de 1a3e fc24 8d3d
00000150: 7e9e ea3d ce18 89bb 8505 7cbc ab39 6ebd
00000160: 9570 22be 6780 22be d2a4 cbbc db44 e3bd
00000170: 2e25 083e 95ed 0cbe 1f05 8fbc de96 e5bd
00000180: 4715 1c3e acaf fcbd aed9 863d d325 243e
00000190: d0eb 47bd f452 2b3e 4c26 023c 6247 d0bd
000001a0: 115f 2cbe 0772 a73d e1cf 9e3d 835b 9ebd
000001b0: 7f9e 063e d5a2 833d f0a7 06be a028 0dbd
000001c0: 00ff a5bd a655 dd3d 9132 42bd d099 143e
000001d0: 61c3 963c 1190 f63d e30d 243e 5849 b73c
000001e0: 8e70 1ebd 2acf aa3d 8d64 eb3b f918 183e
000001f0: 99dc 00bd ad68 253e b306 c63d 0872 1d3e
00000200: 41ce b1bd cff7 e2bc ae10 233e 0d2c 15bc
00000210: cf2d 1e3e b1ea 803c 732f 923d 9488 463e
00000220: 5063 0f3e 8d5e 18be a226 103e a6ff b93d
00000230: 4550 44be cb6d 063e 6084 9c3d d8be a03d
00000240: 0144 14be 0865 4b3c 9525 143e 207e 173e
00000250: 9cda e93d 7f66 14be 2606 fe3d f4a9 193c
00000260: 13fb c73d 98b4 1d3e 259b 073e 6dab 513b
00000270: 8fe5 a43d a2b7 5b3e 9260 8d3d 9ac8 a3bd
00000280: 8add dc3d b231 27bc 274b e8bc afb6 5abe
00000290: 7a11 9abd 56cb 273e cdc6 26bd 10bb c0bc
000002a0: 0802 753d 3b37 e4bd a072 073e d9c7 043e
000002b0: daad 22bd b8d4 243d c553 48be 9377 12be
000002c0: 56ed b93c 1bcf 12be 43c4 c4bd 6312 f83d
000002d0: 1dc4 093e 6dda 51bc 00b3 13bd 7b1d 143e
000002e0: 3904 3bbe e542 2b3e 2901 dfbd 81ca 81bc
000002f0: 2dfe dfbc ad60 eabd 08dc d53b d390 33bd
00000300: a876 5d38 82d9 793d 6e9d d23d 1213 fabc
00000310: b16b 71bd ea77 16bd 7234 7b3e 1ebe 493e
00000320: b540 d33d 62c7 133e f9ce 683d ed59 4f3e
00000330: 413b 13be 119d 0dbd 1188 5c3e ac0c d3bc
00000340: 7d7c 64bd efc0 04be 2740 01be 3258 c23d
00000350: 8580 35bd e872 f2bd ef77 663e 8ebc 063e
00000360: 0cce 383e 9a92 ce3d 6403 7b3d 2eaf a5bd
00000370: af7f d0bd 1a7d 65bc a70b 0dbe c310 1f3d
00000380: e3b5 9d3c b0a7 253e 6083 11bd b7fd 0fbe
00000390: f163 72bd 610a 2e3e b8f4 443e 0429 113e
000003a0: 1080 07be 7c29 31bd aa00 28bd 5082 fd3d
000003b0: 82d9 6b3d 6ebc ca3d 72ce 35bc 9fe3 393e
000003c0: be28 793d 3462 1d3e 05c3 07bc d38e 903e
000003d0: ee40 333e 79b8 233d f92c 1c3e 0ff0 e4bd
000003e0: 3566 c2bc 93be f93c 3ad1 143d 8ca1 953d
000003f0: 3514 20bc 9de7 f73c a911 013e f0c7 d8bd

bias f4 [32]
-0.14320517 -0.04431396 0.162642 0.00705848 -0.13996035 0.1384656 0.047469694 0.11584506
0.10104816 0.01817065 0.06843993 0.12863882 -0.02203995 0.018333612 -0.038682546 0.13844864
-0.13368478 0.116499506 0.04901386 -0.036996562 0.1650216 -0.10261403 -0.07517336 -0.022898754
-0.07357814 0.022504916 -0.11827577 -0.13171005 -0.13856557 -0.15408158 0.014272356 -0.058652528
00000000: 60a4 12be 8e82 35bd a08b 263e d24a e73b
00000010: c451 0fbe edc9 0d3e 956f 423d 2d40 ed3d
00000020: 56f2 ce3d 9dda 943c 3c2a 8c3d e5b9 033e
00000030: 208d b4bc 5f30 963c 9771 1ebd 7bc5 0d3e
00000040: aae4 08be 4b97 ee3d c2c2 483d b589 17bd
00000050: 6cfb 283e 4e27 d2bd 7ef4 99bd 2b96 bbbc
00000060: 23b0 96bd 3b5c b83c 913a f2bd 00df 06be
00000070: 22e4 0dbe 90c7 1dbe 9ad6 693c a23d 70bd

weight f4 [32, 64]
-0.050972015 0.0041405708 -0.06208232 0.047139198 -0.106506884 0.09163049 -0.09085503 -0.09938024
-0.078985885 0.056611687 -0.04618652 0.046776667 -0.10609117 -0.07584046 -0.045897007 -0.024564967
-0.095357925 0.081848845 -0.029478893 0.040123463 0.08839294 0.02328825 0.03418134 0.12065734
-0.056376174 0.039593905 -0.055614516 0.08933121 0.09983206 -0.115246534 0.106705725 0.0596893
0.05447088 0.051459357 0.10391238 -0.016504943 -0.10571231 -0.035868615 -0.08803433 0.008263335
-0.023338437 -0.06704812 -0.011365175 0.11842547 -0.009859428 0.0039687604 -0.01949507 0.019650877
0.11137658 0.07643661 0.04437019 0.027163818 0.02947411 0.048291653 -0.016152933 -0.1161761
-0.07730149 0.106698215 0.0074716806 -0.10125919 0.019715935 0.10328396 -0.11812496 -0.08415492
-0.0497832 0.005017191 -0.029153675 -0.013736397 -0.121861264 0.05853489 0.109717906 0.076404795
-0.08851655 -0.10076292 0.05190654 0.0028073192 0.051241368 -0.122143924 -0.0074528754 0.08815546
0.057988927 0.0045646727 0.02457738 -0.011835009 -0.06872919 -0.04723741 -0.07612246 0.10382615
0.06878583 0.043715328 -0.09585656 0.09645273 0.03919284 0.08647433 -0.049173757 0.026499614
0.1220478 0.084082395 0.10024959 -0.026248097 0.09523465 -0.09790403 0.01081112 -0.070381865
-0.029151902 -0.03201218 0.009352386 0.11376746 0.06188549 -0.00052952766 0.08873069 -0.06405695
0.06442143 -0.0115915835 -0.02175136 0.014634177 -0.09576209 0.014444664 0.042029753 0.106866464
-0.038917884 0.045003444 0.12493901 -0.05362113 0.11882405 -0.062061504 0.055099368 0.048968762
0.034916013 0.098850384 -0.050520554 0.03285238 0.00070151687 -0.0940177 -0.030351743 -0.083477885
0.05526942 0.011236995 0.012245581 -0.03792134 0.00060106814 -0.038880393 0.035917014 0.121396214
0.018933818 -0.055364788 -0.076353505 0.009554878 -0.092730775 -0.09395628 -0.081359625 -0.0424556
0.009252191 0.08607645 0.04841742 0.095764846 -0.07848717 0.010548517 -0.11111009 0.071707144
0.026051238 0.12090184 -0.08890152 0.10024123 0.10552831 0.1010647 0.017836854 0.11365992
0.083479375 0.093259916 -0.008120105 -0.095924765 -0.0015555024 0.023442283 -0.08514613 -0.071704894
-0.119843304 -0.04381843 0.10888356 0.021374509 -0.0076350123 0.005019754 0.077943206 -0.110382944
-0.096448705 -0.041558802 -0.07193977 0.06447314 0.08832294 -0.12127823 -0.10608496 -0.12172723
0.04715681 0.100606814 -0.09691751 -0.057869554 0.039777577 -0.08162317 0.106184945 0.029145151
-0.03479795 0.008118823 0.038971066 -0.044201642 -0.09685698 0.000840202 0.0022768676 0.0025206506
-0.018241286 0.08025919 -0.034882396 -0.012099087 0.051398456 -0.078679666 0.033469826 -0.027639464
0.059959188 -0.06780805 0.004619792 0.012228668 -0.10057457 -0.09089278 0.047939166 -0.036382064
0.07423708 -0.12348282 -0.061791077 -0.10295774 0.049933925 -0.0036239177 -0.023315176 -0.020796418
-0.09770611 0.03544937 0.0031157285 -0.08626412 0.047035962 -0.0025123805 -0.12089345 0.06724003
0.066860884 -0.02355127 -0.08630477 0.005018756 0.09432247 0.11441748 -0.09435013 -0.056458622
0.09732805 0.06109728 0.07737662 -0.06221679 0.10769181 -0.10275824 -0.006021112 0.002595365
00000000: 08c8 50bd a0ad 873b 084a 7ebd 0815 413d
00000010: 4820 dabd c4a8 bb3d 3412 babd de87 cbbd
00000020: 5ac3 a1bd a8e1 673d 142e 3dbd e498 3f3d
00000030: 5446 d9bd 3e52 9bbd 80fe 3bbd 783c c9bc
00000040: 044b c3bd 5ea0 a73d b87d f1bc 8058 243d
00000050: 5c07 b53d 00c7 be3c bc01 0c3d 321b f73d
00000060: b4ea 66bd 382d 223d 0ccc 63bd 48f3 b63d
00000070: c074 cc3d 6006 ecbd 8888 da3d c47c 743d
00000080: dc1c 5f3d 0cc7 523d 04d0 d43d 6035 87bc
00000090: b27f d8bd f8ea 12bd 584b b4bd f062 073c
000000a0: 4030 bfbc 8650 89bd 0035 3abc 0e89 f23d
000000b0: 7089 21bc 600c 823b 20b4 9fbc e0fa a03c
000000c0: 6819 e43d cc8a 9c3d 84bd 353d a886 de3c
000000d0: b073 f13c 78cd 453d 2853 84bc bced edbd
000000e0: 3e50 9ebd 9884 da3d 00d5 f43b fa60 cfbd
000000f0: 5083 a13c 8a86 d33d 80eb f1bd 6a59 acbd
00000100: 78e9 4bbd 4067 a43b b0d3 eebc a00e 61bc
00000110: 6692 f9bd 48c2 6f3d c8b3 e03d 1e7a 9c3d
00000120: 2a48 b5bd ca5c cebd f49b 543d 00fb 373b
00000130: 78e2 513d 9826 fabd 4037 f4bb da8a b43d
00000140: cc85 6d3d 4093 953b 8056 c93c a0e7 41bc
00000150: e4c1 8cbd 047c 41bd 18e6 9bbd cea2 d43d
00000160: 96df 8c3d d80e 333d 7250 c4bd 0289 c53d
00000170: ac88 203d 7419 b13d 6c6a 49bd b815 d93c
00000180: 32f4 f93d 6433 ac3d a84f cd3d 4006 d7bc
00000190: 620a c33d e881 c8bd 2021 313c 5e24 90bd
000001a0: f8cf eebc 341f 03bd c03a 193c eafe e83d
000001b0: a47b 7d3d 00d0 0aba 70b8 b53d 4a30 83bd
000001c0: 62ef 833d a0ea 3dbc e82f b2bc 30c4 6f3c
000001d0: ea1e c4bd 50a9 6c3c 6427 2c3d cedc da3d
000001e0: 5c68 1fbd 8855 383d 06e0 ff3d d4a1 5bbd
000001f0: 065a f33d 3434 7ebd e0af 613d 7893 483d
00000200: 1804 0f3d 1272 ca3d a4ee 4ebd 3890 063d
00000210: 00e6 373a 5a8c c0bd 38a4 f8bc 74f6 aabd
00000220: 3062 623d 601b 383c b0a1 483c 6853 1bbd
00000230: 0091 1d3a 0c41 1fbd b81d 133d 949e f83d
00000240: 181b 9b3c 30c6 62bd 3a5f 9cbd 108c 1c3c
00000250: a2e9 bdbd 266c c0bd e09f a6bd ece5 2dbd
00000260: 8096 173c da48 b03d 5851 463d 5c20 c43d
00000270: e2bd a0bd b0d3 2c3c b08d e3bd 32db 923d
00000280: 6869 d53c 629b f73d 0012 b6bd 464b cd3d
00000290: 3a1f d83d 02fb ce3d 981e 923c 88c6 e83d
000002a0: 3cf7 aa3d 0eff be3d 300a 05bc 3474 c4bd
000002b0: 00e2 cbba 080a c03c 1861 aebd 04da 92bd
000002c0: 6870 f5bd f47a 33bd 58fe de3d 9819 af3c
000002d0: 202f fabb c07c a43b b0a0 9f3d 7410 e2bd
000002e0: e686 c5bd 9039 2abd 2855 93bd 7e0a 843d
000002f0: a8e2 b43d b860 f8bd 1243 d9bd 204c f9bd
00000300: 8027 413d f20a ce3d b07c c6bd a008 6dbd
00000310: d0ed 223d 0c2a a7bd 7e77 d93d d0c1 ee3c
00000320: 4c88 0ebd d004 053c 20a0 1f3d c80c 35bd
00000330: f45c c6bd 0041 5c3a 8037 153b 8031 253b
00000340: c06e 95bc ee5e a43d d8e0 0ebd 403b 46bc
00000350: 3087 523d ce22 a1bd a817 093d 286c e2bc
00000360: c497 753d f2de 8abd a061 973b c05a 483c
00000370: 0afa cdbd fe25 babd dc5b 443d 5c05 15bd
00000380: 9c09 983d 90e4 fcbd a418 7dbd 82db d2bd
00000390: 8487 4c3d 407f 6dbb 78ff bebc 405d aabc
000003a0: 241a c8bd 5c33 113d 4031 4c3b 3eab b0bd
000003b0: c8a8 403d c0a6 24bb fc96 f7bd 24b5 893d
000003c0: 5cee 883d 98ee c0bc 8ec0 b0bd 6074 a43b
000003d0: 242c c13d b653 ea3d a43a c1bd 2841 67bd
000003e0: ee53 c73d 2441 7a3d a277 9e3d 08d7 7ebd
000003f0: 868d dc3d ea72 d2bd c04c c5bb 0017 2a3b

bias f4 [32]
0.006000623 -0.11990543 0.015900686 0.043976173 0.11186783 -0.040516123 0.04508625 -0.041886568
-0.043956473 -0.11076146 0.02638419 0.083875194 -0.06953706 0.05110444 -0.019498333 -0.08874825
0.013328612 -0.1218126 0.06700824 -0.027619168 0.11512223 0.0046144873 -0.12118633 0.09700169
-0.027341396 -0.085622594 0.11541125 0.011674732 0.040526584 -0.108135834 -0.04414603 0.10029392
00000000: e0a0 c43b fa90 f5bd 2842 823c 5c20 343d
00000010: f61a e53d 3cf4 25bd 5cac 383d 4091 2bbd
00000020: b40b 34bd e8d6 e2bd a823 d83c c2c6 ab3d
00000030: 7269 8ebd e452 513d f8ba 9fbc a4c1 b5bd
00000040: 4060 5a3c e278 f9bd 9e3b 893d 9841 e2bc
00000050: 34c5 eb3d 2035 973b 8a30 f8bd d2a8 c63d
00000060: 10fb dfbc e65a afbd bc5c ec3d 6047 3f3c
00000070: 34ff 253d 5276 ddbd 78d2 34bd e666 cd3d

weight_ih_l0 f4 [128, 32]
-0.14299464 -0.057162575 -0.053092815 0.120732434 -0.097300455 0.10785376 -0.06599504 0.0011477692
-0.046815783 0.0936089 0.022412414 -0.07793241 -0.0763503 0.032072 0.1600118 -0.06021068
-0.0022201608 0.014770247 -0.17000358 0.010043182 -0.06708748 -0.08673735 -0.07574308 0.076800466
-0.15374464 0.092878364 -0.1148621 -0.14110218 -0.10546913 -0.17493239 0.17241105 -0.13236023
0.016058462 -0.10247723 -0.07544918 -0.14510398 0.026776247 0.035538044 0.0758729 -0.0530196
-0.047976505 0.20452128 0.19024248 0.025142927 0.18283674 0.10898048 -0.13705055 -0.13177104
0.080775335 -0.07144597 0.0074112485 -0.042073365 -0.051126055 -0.10240972 0.024951864 0.017884962
-0.07314691 0.07492552 0.20003687 -0.011111815 -0.04469969 0.012871049 0.082479276 -0.08854806
0.06531375 0.11734688 0.11622253 -0.19154371 0.1504822 -0.110997 0.21030478 0.014049939
0.06730756 0.09877784 0.0851045 -0.2170212 -0.003223465 0.026828576 -0.051720567 -0.12733816
0.16994241 0.18997726 -0.109074794 0.10488218 0.1318287 0.02886245 -0.13768716 -0.16046716
-0.09483384 -0.15539052 -0.028688494 0.020575173 -0.040918358 -0.085848846 0.15409218 0.059560224
0.16556041 0.034549404 -0.1536905 -0.2310731 0.056265175 -0.17992182 0.07823705 -0.3086199
0.12960015 0.105455525 -0.051390573 0.052659817 -0.03402374 -0.16804065 0.16266535 0.08494863
0.043366946 0.07142563 -0.1033723 -0.009814109 0.09987478 -0.096255146 -0.14621142 -0.22751734
-0.052655835 -0.048523385 -0.032557815 -0.086018294 -0.09107496 0.119087115 -0.053457715 0.0038280638
-0.06541972 -0.050057214 0.100679345 0.0333702 -0.003082937 -0.028278384 -0.010373655 0.031805914
-0.04663154 -0.07239644 0.09156763 -0.017360104 -0.06914949 -0.03247649 0.09964804 -0.08573758
0.058863927 0.24873002 -0.17537157 -0.17248093 0.031482458 -0.09922959 -0.06539382 -0.07321485
-0.07483837 -0.016473576 -0.022082655 -0.03319118 0.1303949 -0.060306698 -0.15300652 0.005077622
-0.109356664 -0.06373124 0.053453155 0.011875943 -0.1034037 0.048155434 -0.08948294 0.09947443
-0.14835064 0.032420978 -0.032806616 0.085408054 -0.014960183 0.05524014 0.12882943 0.048641562
0.11916324 -0.05500259 0.16925143 -0.061612096 -0.06785894 0.017666807 0.13543819 -0.041245613
0.07117398 0.029272104 0.032176685 -0.09359865 0.0046134414 -0.009542247 -0.14168657 0.06312848
0.13027485 0.058301304 -0.07950259 0.034717012 0.14215758 0.026728207 0.048262756 0.0056943907
0.08086085 -0.05620455 0.016293043 -0.13406314 -0.05339571 0.07154409 -0.034137394 -0.10631907
0.102188095 0.15004991 -0.17949186 0.018574245 -0.085054606 0.044238787 0.039321657 -0.123079956
-0.08806793 0.10921752 0.0014652611 0.1765493 -0.06435433 0.03961032 -0.07127308 -0.01056309
-0.1613937 0.22816081 0.13469943 -0.19889049 -0.13049513 -0.12196369 0.1672659 -0.09637781
-0.016565349 -0.071992405 -0.064040385 -0.17449148 -0.09080482 -0.13048531 -0.1417364 -0.115398474
0.035787072 0.037968706 -0.13839446 0.041725207 0.13222195 -0.15567225 0.13674067 -0.17909189
0.09907171 -0.02748257 0.22871149 -0.04455569 0.03841136 -0.14714329 -0.021378243 0.11143148
00000000: 306d 12be 4e23 6abd da77 59bd 9142 f73d
00000010: 7645 c7bd 6fe2 dc3d 6828 87bd be70 963a
00000020: e8c1 3fbd 06b6 bf3d 3d9a b73c 079b 9fbd
00000030: 8c5d 9cbd ee5d 033d 22da 233e 799f 76bd
00000040: 1e80 11bb e8fe 713c 6b15 2ebe 298c 243c
00000050: 2965 89bd 5aa3 b1bd 301f 9bbd 9049 9d3d
00000060: 3c6f 1dbe 0337 be3d d23c ebbd 177d 10be
00000070: 3300 d8bd 7a21 33be 868c 303e 7189 07be
00000080: 098d 833c 95df d1bd 1a85 9abd 2396 14be
00000090: dc59 db3c 5790 113d 4063 9b3d 152b 59bd
000000a0: 0383 44bd 076e 513e edce 423e 8af8 cd3c
000000b0: 8e39 3b3e 2831 df3d fb56 0cbe fdee 06be
000000c0: 8a6d a53d 4452 92bd 0fda f23b 1f55 2cbd
000000d0: 8e69 51bd 30bc d1bd da67 cc3c 7c83 923c
000000e0: 0cce 95bd 8d72 993d 77d6 4c3e 550e 36bc
000000f0: 0617 37bd 18e1 523c e5ea a83d af58 b5bd
00000100: 37c3 853d 9053 f03d 1406 ee3d 0924 44be
00000110: 0118 1a3e 6552 e3bd 235a 573e b731 663c
00000120: 8cd8 893d 094c ca3d 454b ae3d ce3a 5ebe
00000130: c540 53bb 9ac7 db3c f2d8 53bd ef64 02be
00000140: 6205 2e3e 6689 423e 9b62 dfbd 78cc d63d
00000150: 1afe 063e f270 ec3c ddfd 0cbe 8151 24be
00000160: 3f38 c2bd b11e 1fbe 2204 ebbc 448d a83c
00000170: 029a 27bd 85d1 afbd 57ca 1d3e 6cf5 733d
00000180: ab88 293e ad83 0d3d 0b61 1dbe 6d9e 6cbe
00000190: 5076 663d 6d3d 38be bf3a a03d 6d03 9ebe
000001a0: e7b5 043e 11f9 d73d ec7e 52bd d2b1 573d
000001b0: 7a5c 0bbd d912 2cbe bf91 263e 8cf9 ad3d
000001c0: 8aa1 313d 9a47 923d dbb4 d3bd 5bcb 20bc
000001d0: 268b cc3d 6b21 c5bd 72b8 15be 4efa 68be
000001e0: a5ad 57bd 75c0 46bd 585b 05bd 5c2a b0bd
000001f0: 8285 babd f2e3 f33d 7af6 5abd 41e0 7a3b
00000200: c6fa 85bd cb08 4dbd f930 ce3d 31af 083d
00000210: 1a0b 4abb 12a8 e7bc 43f6 29bc eb46 023d
00000220: b700 3fbd 9644 94bd cf87 bb3d c736 8ebc
00000230: 3f9e 8dbd 1106 05bd 4614 cc3d 2f97 afbd
00000240: 4d1b 713d 15b3 7e3e 9b94 33be d79e 30be
00000250: c0f3 003d e238 cbbd 32ed 85bd abf1 95bd
00000260: dc44 99bd 98f3 86bc afe6 b4bc 7af3 07bd
00000270: 3e86 053e 2804 77bd bead 1cbe 2e62 a63b
00000280: 63f6 dfbd 8685 82bd b2f1 5a3d 5193 423c
00000290: 52c5 d3bd a23e 453d d542 b7bd 40b9 cb3d
000002a0: 3be9 17be dccb 043d 3b60 06bd 6bea ae3d
000002b0: 8e1b 75bc 7c43 623d ddeb 033e 603c 473d
000002c0: db0b f43d 654a 61bd 3f50 2d3e f75c 7cbd
000002d0: a1f9 8abd fbb9 903c 4fb0 0a3e 29f1 28bd
000002e0: aac3 913d 0dcc ef3c b3cb 033d a6b0 bfbd
000002f0: 5a2c 973b 1657 1cbc 4916 11be 8149 813d
00000300: c566 053e 59cd 6e3d 41d2 a2bd 6d33 0e3d
00000310: c291 113e 1df5 da3c 2baf 453d 0398 ba3b
00000320: 609a a53d be36 66bd fd78 853c d947 09be
00000330: 76b5 5abd b585 923d a7d3 0bbd d0bd d9bd
00000340: fe47 d13d afa6 193e b7cc 37be 0429 983c
00000350: 1c31 aebd bb33 353d bf0f 213d 5811 fcbd
00000360: f55c b4bd 6fad df3d 010e c03a 57c9 343e
00000370: 34cc 83bd 6e3e 223d 9ff7 91bd d010 2dbc
00000380: 6444 25be fda2 693e a6ee 093e f3a9 4bbe
00000390: 84a0 05be 19c8 f9bd c147 2b3e bb61 c5bd
000003a0: 0eb4 87bc c170 93bd 9b27 83bd e5ad 32be
000003b0: e1f7 b9bd f19d 05be 5923 11be 0956 ecbd
000003c0: 7795 123d 1385 1b3d 47b7 0dbe 0de8 2a3d
000003d0: 3165 073e 8c68 1fbe bf05 0c3e dd63 37be
000003e0: 1ce6 ca3d 2023 e1bc 5833 6a3e 0780 36bd
000003f0: 3b55 1d3d bbac 16be 6d21 afbc 3036 e43d

weight_hh_l0 f4 [128, 32]
0.07694307 0.038951296 -0.13706072 -0.11412247 -0.10140866 -0.061677292 0.15128972 0.01995146
0.13598776 -0.13927507 -0.044945896 -0.08062726 -0.15816464 -0.0259411 0.06527042 0.07168463
0.057478275 -0.0086786775 0.15119496 0.06125403 0.19188377 0.122936286 -0.012295469 0.0016295491
0.07387799 -0.10051247 0.08129529 0.12185364 -0.1165007 -0.07124486 0.12555978 -0.11839963
0.17503734 0.09941761 -0.16656409 0.10827761 -0.10602292 -0.20539244 0.11767735 -0.1650093
0.099126995 0.04916357 -0.09019776 -0.0645684 0.0028921005 0.0019426922 0.03779333 0.014659242
-0.079861924 0.049794663 -0.11408475 -0.07633047 0.15837438 -0.057288334 -0.076429956 -0.17470735
0.019439658 0.059137948 0.09183398 0.11053525 0.19303556 -0.056022197 0.043926157 -0.09288254
0.06932563 -0.015346426 -0.17510462 -0.05317865 0.14636108 0.06840664 0.1809489 0.047345
0.11100135 0.11459341 -0.15694663 0.04165208 -0.051077735 0.10215688 -0.14001791 0.19853121
0.1241342 0.113223754 -0.05729946 -0.15639305 -0.07764238 0.058186993 0.080217935 -0.17133944
0.1514106 -0.03713346 0.08622555 0.04017011 0.0388191 0.035234317 -0.08562187 -0.070519686
0.061313037 0.15992224 0.114187 -0.05215803 0.05463564 -0.0073845624 -0.0437237 0.124017194
0.032071576 0.19740549 0.100424275 -0.1698711 -0.1766789 -0.049529444 -0.16005135 0.06316541
-0.10575412 -0.09817766 -0.123958774 0.08796928 -0.009010974 0.011890851 -0.068631366 -0.14672421
-0.08894105 0.09983074 -0.038170375 -1.7061684e-06 0.103373066 0.18562269 -0.049872085 0.19706495
-0.020075545 0.18710548 0.15833881 0.13142891 -0.12642129 -0.14926124 0.05623346 -0.12452402
-0.114195205 0.011337471 0.03451771 0.033611566 0.07119737 -0.15978956 -0.040526852 -0.0133187855
0.12820047 -0.1348764 -0.03463854 -0.18485142 0.046629243 -0.1238279 0.078103885 0.047906555
0.19173388 -0.097953185 -0.048512325 -0.033510387 0.11271555 0.083644316 0.030849678 0.09202533
-0.09894646 -0.14467268 -0.10409808 0.06556605 0.092019364 0.13850304 0.023110377 -0.011110831
0.13741352 0.07721614 0.043299332 0.074271336 0.071746185 0.015409926 0.0138803935 -0.020268915
0.042924907 -0.058074526 0.11300883 -0.08446635 -0.12665215 -0.17003168 -0.13831952 0.059790134
0.010371332 -0.13802229 -0.10509619 -0.15962777 0.117299244 -0.135092 0.111794 0.10275431
0.09029767 0.16785915 0.09860732 0.16926709 -0.022830743 -0.12636353 -0.10612001 0.007371672
0.08945308 0.19305074 -0.04730989 0.108885616 -0.08603465 0.05423356 -0.068411 0.07401912
-0.1716534 -0.15187111 -0.008555971 0.122836635 0.06317417 0.11560385 0.17856194 0.0890876
0.18540674 0.092230886 -0.14034927 0.13773347 -0.07972503 0.119548984 0.036407012 0.10638533
0.13369422 -0.09806963 -0.06759898 0.15250678 -0.0059331963 0.12064478 0.14064646 0.021567086
-0.113086045 0.049485777 -0.07122714 0.08482697 0.11563075 0.04146544 -0.121029526 -0.0050344085
-0.20644364 -0.0045690546 0.18732046 0.11324632 -0.09168661 -0.11437072 0.060467508 -0.07858691
0.056194544 -0.03556571 -0.09554075 -0.043185644 -0.021359192 0.0053818016 0.08939973 0.19037396
00000000: 5494 9d3d 658b 1f3d a559 0cbe 0bb9 e9bd
00000010: 58af cfbd 54a1 7cbd b1eb 1a3e 3f71 a33c
00000020: 6040 0b3e 209e 0ebe 3019 38bd e81f a5bd
00000030: e9f5 21be 6e82 d4bc 7fac 853d 64cf 923d
00000040: 576e 6b3d 0331 0ebc dad2 1a3e 81e5 7a3d
00000050: 2e7d 443e 05c6 fb3d ef72 49bc 9896 d53a
00000060: 584d 973d 7bd9 cdbd 257e a63d 678e f93d
00000070: eb97 eebd d3e8 91bd be92 003e 817b f2bd
00000080: fd3c 333e 769b cb3d c78f 2abe a7c0 dd3d
00000090: 8b22 d9bd 6552 52be d300 f13d 33f8 28be
000000a0: 1803 cb3d bd5f 493d 9ab9 b8bd 703c 84bd
000000b0: 6589 3d3b efa1 fe3a 2ecd 1a3d 512d 703c
000000c0: a68e a3bd 7df5 4b3d 44a5 e9bd 2653 9cbd
000000d0: e52c 223e 2ca7 6abd 4f87 9cbd 7ce6 32be
000000e0: eb3f 9f3c a23a 723d 7413 bc3d 4e60 e23d
000000f0: 1dab 453e 8877 65bd eaeb 333d 3339 bebd
00000100: 99fa 8d3d 936f 7bbc a04e 33be dbd1 59bd
00000110: aedf 153e c818 8c3d ab4a 393e d5ec 413d
00000120: ad54 e33d f3af ea3d 9eb6 20be 5f9b 2a3d
00000130: e336 51bd a037 d13d db60 0fbe c44b 4b3e
00000140: 123a fe3d dbe1 e73d d7b2 6abd 8025 20be
00000150: f802 9fbd 7c55 6e3d 4d49 a43d 9b73 2fbe
00000160: 610b 1b3e 4119 18bd 0597 b03d 6a89 243d
00000170: c700 1f3d dc51 103d 855a afbd a06c 90bd
00000180: 6123 7b3d a8c2 233e e0da e93d a9a3 55bd
00000190: 9fc9 5f3d 33fa f1bb 9f17 33bd bafc fd3d
000001a0: 7c5d 033d aa24 4a3e 3eab cd3d b1f2 2dbe
000001b0: 50eb 34be 63df 4abd 80e4 23be de5c 813d
000001c0: 9e95 d8bd 5e11 c9bd 19de fdbd 3d29 b43d
000001d0: c4a2 13bc d8d1 423c 9a8e 8cbd df3e 16be
000001e0: ba26 b6bd 0f74 cc3d 8a58 1cbd 80ff e4b5
000001f0: 42b5 d33d e013 3e3e ac46 4cbd 65cb 493e
00000200: 7875 a4bc 9498 3f3e 9223 223e 4d95 063e
00000210: 9574 01be f0d7 18be 0e55 663d 7306 ffbd
00000220: 2ddf e9bd cdc0 393c 7162 0d3d 48ac 093d
00000230: edcf 913d e09f 23be 7cff 25bd 0937 5abc
00000240: fc46 033e 0a1d 0abe 24e1 0dbd b149 3dbe
00000250: 4efe 3e3d 7b99 fdbd eef4 9f3d aa39 443d
00000260: e355 443e ae9b c8bd dcb4 46bd 3042 09bd
00000270: 69d7 e63d b64d ab3d 77b8 fc3c c777 bc3d
00000280: 71a4 cabd 1325 14be 6031 d5bd 7e47 863d
00000290: a674 bc3d bed3 0d3e f951 bd3c 340a 36bc
000002a0: 21b6 0c3e 7f23 9e3d a45a 313d 921b 983d
000002b0: aaef 923d ea79 7c3c 976a 633c ff0a a6bc
000002c0: 07d2 2f3d 8edf 6dbd 2c71 e73d b2fc acbd
000002d0: 1ab1 01be c91c 2ebe a2a3 0dbe 80e6 743d
000002e0: 85ec 293c b755 0dbe ac3c d7bd 7675 23be
000002f0: 963a f03d 8f55 0abe 41f4 e43d da70 d23d
00000300: fced b83d 45e3 2b3e a2f2 c93d 5a54 2d3e
00000310: 8a07 bbbc 7165 01be 7355 d9bd 118e f13b
00000320: 2d33 b73d 18af 453e 04c8 41bd 6cff de3d
00000330: ef32 b0bd 0224 5e3d 111b 8cbd 5697 973d
00000340: e9c5 2fbe 1a84 1bbe 582e 0cbc c691 fb3d
00000350: 7661 813d b6c1 ec3d f1d8 363e 8f73 b63d
00000360: 44db 3d3e 8ce3 bc3d b8b7 0fbe 010a 0d3e
00000370: e046 a3bd 19d6 f43d 851f 153d 8de0 d93d
00000380: 23e7 083e bbd8 c8bd 5671 8abd bd2a 1c3e
00000390: 426b c2bb 9c14 f73d a005 103e 75ad b03c
000003a0: a899 e7bd 99b1 4a3d 89df 91bd c3b9 ad3d
000003b0: d1cf ec3d aad7 293d 54de f7bd aef7 a4bb
000003c0: f665 53be 02b8 95bb efd0 3f3e b0ed e73d
000003d0: 30c6 bbbd 323b eabd c7ac 773d 2df2 a0bd
000003e0: 402c 663d 5aad 11bd deaa c3bd 6ee3 30bd
000003f0: 79f9 aebc d359 b03b 3517 b73d 64f1 423e

bias_ih_l0 f4 [128]
-0.056753993 -0.06908279 -0.21679002 0.063548 0.07012078 0.0839136 -0.1680742 -0.2106825
-0.20273663 -0.10252573 0.016768832 0.08674137 0.055124246 -0.16197778 -0.21720536 -0.009816795
-0.093502976 -0.18116987 0.08758739 -0.1029759 -0.06058821 -0.10852084 0.11340435 -0.09181741
-0.15383771 -0.15759039 -0.077410676 -0.03293909 -0.19941403 -0.034272544 0.029797427 0.017463956
0.00702989 0.099410556 0.08175528 -0.074033305 0.0129055185 -0.0030950713 0.041670192 0.07886671
0.11445361 0.14829966 0.057544954 -0.15712197 -0.09863902 -0.107353985 -0.19101006 -0.022232855
0.12401876 -0.24097987 -0.0017386216 -0.08189538 -0.06093646 0.011106961 -0.054800693 0.13256335
0.011118121 -0.019176487 0.12952073 0.097007945 0.039580774 0.021718616 0.05938336 -0.17750661
0.05342509 -0.10332622 0.07382174 -0.14404452 0.07043611 -0.061155904 -0.0913379 -0.046234466
0.12522271 -0.15711515 0.12886766 -0.13540241 -0.13860428 0.04199066 -0.058075346 -0.053487737
0.14214507 0.0720165 -0.15504202 0.06576329 -0.09206112 0.073987626 -0.08530616 0.11677716
-0.13529848 0.03494873 0.07011431 0.10239269 -0.056024823 -0.059843108 0.019571958 0.027000714
0.015277806 0.056812286 -0.11770604 -0.051245537 -0.059182 0.019651057 -0.02939884 0.08389617
0.030308476 -0.18217435 0.100046284 0.05664012 -0.05714644 -0.0738085 0.0152332885 0.11714364
-0.118076526 0.05337824 0.082424834 0.06901126 0.12648118 -0.1422254 -0.02075056 -0.098732896
-0.18796085 0.03390474 0.046730142 0.062849246 -0.014337068 -0.116424926 0.015064491 0.13123628
00000000: e076 68bd 477b 8dbd 34fe 5dbe 7425 823d
00000010: 7c9b 8f3d e5da ab3d a51b 2cbe 27bd 57be
00000020: 319a 4fbe 03f9 d1bd ca5e 893c 76a5 b13d
00000030: f6c9 613d 81dd 25be 156b 5ebe 9fd6 20bc
00000040: 7d7e bfbd 9884 39be 0461 b33d 07e5 d2bd
00000050: 582b 78bd 2d40 debd 8a40 e83d c40a bcbd
00000060: a287 1dbe 605f 21be 7d89 9ebd 24eb 06bd
00000070: 3133 4cbe 5e61 0cbd bc19 f43c 9210 8f3c
00000080: fe5a e63b c397 cb3d 506f a73d c69e 97bd
00000090: ab71 533c aed6 4abb 5dae 2a3d df84 a13d
000000a0: a766 ea3d dedb 173e 42b4 6b3d 95e4 20be
000000b0: 4103 cabd 68dc dbbd 2498 43be ad21 b6bc
000000c0: 8cfd fd3d 6dc3 76be 76e2 e3ba c4b8 a7bd
000000d0: 8298 79bd f9f9 353c b176 60bd b0be 073e
000000e0: c828 363c 0218 9dbc 15a1 043e 1aac c63d
000000f0: 731f 223d 3deb b13c f73b 733d 4bc4 35be
00000100: 44d4 5a3d b29c d3bd da2f 973d 6880 13be
00000110: cf40 903d 9d7e 7abd 5d0f bbbd 5a60 3dbd
00000120: 623a 003e cbe2 20be e2f5 033e eea6 0abe
00000130: 48ee 0dbe 66fe 2b3d 6ae0 6dbd f515 5bbd
00000140: 7a8e 113e 637d 933d 56c3 1ebe e7ae 863d
00000150: 8a8a bcbd d386 973d ffb4 aebd dd28 ef3d
00000160: af8b 0abe 6626 0f3d 1798 8f3d 42b3 d13d
00000170: 497a 65bd 0c1e 75bd 5f55 a03c 9a30 dd3c
00000180: c34f 7a3c 00b4 683d dd0f f1bd d7e6 51bd
00000190: d368 72bd 41fb a03c d6d5 f0bc c1d1 ab3d
000001a0: 7b49 f83c ea8b 3abe 11e5 cc3d 78ff 673d
000001b0: 6312 6abd e928 97bd 0b95 793c 01e9 ef3d
000001c0: 1bd2 f1bd 24a3 5a3d 5ace a83d c755 8d3d
000001d0: 4884 013e 89a3 11be 14fd a9bc 7934 cabd
000001e0: cf78 40be b2df 0a3d 1b68 3f3d 1bb7 803d
000001f0: 06e6 6abc 3170 eebd 0ed1 763c ce62 063e

bias_hh_l0 f4 [128]
-0.15828438 -0.13885234 0.11678552 -0.1999181 -0.06790284 -0.20012745 -0.08678247 -0.0015509271
-0.06903529 0.084579326 -0.058819465 0.022313854 -0.024384687 0.08664957 0.07022745 -0.15740123
0.1577844 0.034380697 -0.16726838 0.12419104 0.10807193 -0.07258679 -0.049482472 -0.06919131
-0.19374584 -0.052905157 -0.21143214 -0.16496538 -0.17440452 0.13321517 0.10305387 -0.16347882
-0.206965 -0.096299246 -0.23141386 -0.054245546 0.03660897 -0.17927592 0.056537505 -0.17977305
-0.02558965 0.017852858 0.10026907 -0.03697103 -0.18510787 0.092333764 -0.030603444 0.031230021
-0.12264824 -0.112153895 -0.19891806 0.14496234 -0.1601745 -0.19099064 0.023022147 -0.05914089
-0.19209753 -0.10787044 -0.08329647 -0.11852661 -0.14073558 -0.16792844 -0.063154936 -0.10122433
-0.021767247 -0.096036166 0.002194401 0.051506355 0.049163226 0.0027426868 -0.033258893 0.08192889
-0.03725568 0.119997114 0.06577949 0.11878978 0.11684891 -0.03412314 0.12148053 -0.0974676
-0.14285405 -0.0861952 0.044206865 0.009389665 0.064356014 0.01687792 -0.110792786 -0.091763936
0.009111091 0.06639852 0.051193643 0.070585474 -0.021288294 0.06356335 -0.049235173 -0.10646338
-0.19794963 0.07154516 0.045653597 -0.05851541 0.06181138 0.012465394 0.13955872 -0.239959
-0.19895327 0.031860985 -0.0697699 0.054198746 -0.11325895 0.09002048 -0.1327169 0.010914604
-0.115641825 -0.0074049365 -0.015421538 -0.08218102 -0.17589228 0.030205136 0.049658924 -0.017927043
0.016543062 -0.094287604 -0.091169655 0.116442285 -0.0750659 -0.13340507 0.09441038 -0.052667886
00000000: 4d15 22be 4f2f 0ebe 3f2d ef3d 55b7 4cbe
00000010: a510 8bbd 36ee 4cbe 02bb b1bd 7a48 cbba
00000020: 6062 8dbd ed37 ad3d aeec 70bd 8bcb b63c
00000030: 65c2 c7bc 5475 b13d 69d3 8f3d ca2d 21be
00000040: 3c92 213e c6d2 0c3d 6748 2bbe df57 fe3d
00000050: d154 dd3d 62a8 94bd 22ae 4abd 2cb4 8dbd
00000060: 4f65 46be 14b3 58bd ab81 58be afec 28be
00000070: 1997 32be 8f69 083e e80d d33d fe66 27be
00000080: a2ee 53be 8a38 c5bd c1f7 6cbe 9430 5ebd
00000090: 4af3 153d 1b94 37be df93 673d 6d16 38be
000000a0: 63a1 d1bc 2840 923c df59 cd3d ef6e 17bd
000000b0: eb8c 3dbe 7c19 bd3d 13b4 fabc 1ad6 ff3c
000000c0: 002f fbbd f1b0 e5bd 2db1 4bbe 0271 143e
000000d0: c904 24be 0d93 43be f198 bc3c b83d 72bd
000000e0: 37b5 44be 2deb dcbd 5797 aabd 14be f2bd
000000f0: fd1c 10be 6ff5 2bbe 6057 81bd b44e cfbd
00000100: 3a51 b2bc 9cae c4bd f1cf 0f3b 54f8 523d
00000110: 615f 493d a6be 333b 7a3a 08bd 55ca a73d
00000120: 6999 18bd 0cc1 f53d 66b7 863d 0e48 f33d
00000130: 7b4e ef3d b5c4 0bbd c9ca f83d 189d c7bd
00000140: 5548 12be 1c87 b0bd 4212 353d 1cd7 193c
00000150: 16cd 833d 9043 8a3c 54e7 e2bd bbee bbbd
00000160: af46 153c f2fb 873d 6db0 513d 1e8f 903d
00000170: ca64 aebc 802d 823d d2aa 49bd 7909 dabd
00000180: 4fb3 4abe 4586 923d 44ff 3a3d dbad 6fbd
00000190: ee2d 7d3d a73b 4c3c 7be8 0e3e d0b7 75be
000001a0: 68ba 4bbe aa80 023d 85e3 8ebd 81ff 5d3d
000001b0: 4ff4 e7bd a85c b83d f0e6 07be 2bd3 323c
000001c0: 9fd5 ecbd 1ca5 f2bb 9eaa 7cbc 864e a8bd
000001d0: 1b1d 34be c370 f73c 2867 4b3d bcdb 92bc
000001e0: 5185 873c dc19 c1bd 28b7 babd 4b79 ee3d
000001f0: 27bc 99bd 579b 08be 3b5a c13d 48ba 57bd

weight f4 [64, 4]
-0.11931767 0.5453303 0.49506688 -0.33706126 -0.38484666 -0.25926608 0.34604242 0.06289301
0.23781058 0.19210064 -0.101242095 0.45145506 -0.512708 0.09414745 -0.163311 -0.118413955
0.18865864 -0.27945474 -0.42201602 -0.3318215 0.12378929 -0.49928844 -0.50111073 0.16124682
-0.3325525 0.16831428 0.38391533 0.27346066 -0.14440455 0.06883424 -0.35632524 -0.46925578
-0.22963418 0.2047364 0.39691368 -0.013786335 0.42025048 0.29484174 -0.009602896 0.37780637
0.09994876 0.30704308 -0.3325344 -0.4100486 -0.10735315 -0.12250757 0.41302893 0.7448638
0.21465318 -0.1816274 -0.16921315 0.19324845 0.14427778 0.19860536 0.038813405 -0.16046019
0.15887961 0.066666104 -0.33192068 -0.039351083 -0.15257049 -0.30121672 0.4457968 -0.30450705
-0.0758376 -0.06591312 -0.03875429 -0.30750987 -0.51620203 -0.17350501 0.31618187 -0.426602
-0.13723294 0.32636657 0.04619139 -0.42067176 0.46952274 0.4770381 -0.24423845 -0.12778385
-0.05394681 -0.22961897 0.061029095 -0.016689723 -0.20278065 -0.56574434 0.37386084 0.1532746
-0.15305044 -0.25984246 0.021853546 0.36524132 0.07151089 0.26030868 0.41875452 -0.29964283
-0.3248129 0.4110896 0.45605674 -0.17554036 -0.09130367 0.29918206 0.24879831 -0.29337645
-0.25788295 0.48871735 -0.18128245 -0.13895503 -0.2792323 0.410211 -0.25547367 -0.33395463
-0.3783019 -0.22743599 0.48791102 -0.060563393 -0.17026615 -0.097571336 0.20148596 -0.33414704
-0.4215313 -0.57559544 -0.49867475 0.010864911 -0.40904954 -0.32780528 0.18752633 -0.31876734
0.5229619 -0.16351672 0.13392472 0.2056135 0.23520899 -0.49220917 0.26441464 0.24148849
-0.30446452 -0.2824177 -0.06375267 -0.19400027 0.29521465 0.5802151 -0.22003648 -0.5313459
-0.20290495 0.44440985 -0.16398844 0.17058446 -0.45821488 0.151267 0.23537068 -0.51977766
0.03094624 0.2948607 0.094588935 -0.22626068 -0.0399471 0.060060535 -0.34762296 -0.015344827
-0.12183926 0.3398981 0.5312489 0.18725112 -0.33545807 -0.4572514 0.18116802 0.25985342
-0.24475189 -0.100210354 0.24200553 -0.36017668 -0.30169243 0.16233173 0.2891203 -0.47335365
0.2269498 0.3474805 0.49748406 -0.07452947 0.025581427 -0.22028433 -0.24270602 -0.23885018
-0.423972 0.24103704 -0.052221548 -0.5511594 0.024780158 -0.08794866 0.1608319 -0.43447047
0.3477999 0.36394912 0.054696348 0.38923565 -0.22588533 0.06496981 -0.009932792 0.24656513
-0.47762567 0.044162147 -0.055281132 -0.42786115 0.43955037 0.119418025 0.18010163 -0.20146103
0.2719977 0.061111744 -0.22004887 0.083408274 -0.14815906 0.11351158 -0.28521374 0.12180276
0.43982586 -0.33760476 0.18437758 -0.6041984 -0.42138425 -0.31443155 -0.016028557 0.05947035
0.20405339 0.17009465 -0.17336527 -0.50852543 0.12548088 0.30870554 -0.48516944 0.30542767
-0.5093309 0.44649816 -0.46035743 0.1916622 -0.12397018 -0.6130207 0.014012304 -0.120564185
-0.14555164 0.061586156 -0.31801316 0.047241066 0.3871743 -0.11970453 -0.52658767 0.20113307
-0.4728691 -0.40219516 0.50858074 -0.38004613 0.061911933 0.38892207 0.15552872 -0.44248086
00000000: d35c f4bd c49a 0b3f 6879 fd3e 4b93 acbe
00000010: 9f0a c5be 86be 84be 792c b13e 0dce 803d
00000020: 9e84 733e 08b6 443e 0458 cfbd 1e25 e73e
00000030: d540 03bf 61d0 c03d 003b 27be 0483 f2bd
00000040: bb2f 413e b114 8fbe 7c12 d8be 82e4 a9be
00000050: 3d85 fd3d bca2 ffbe cb48 00bf e31d 253e
00000060: 5244 aabe 945a 2c3e 8d90 c43e 0903 8c3e
00000070: c9de 13be f7f8 8c3d 4370 b6be 4b42 f0be
00000080: 3925 6bbe 6ba6 513e 4538 cb3e 14e0 61bc
00000090: 122b d73e 7ff5 963e 7755 1dbc d66f c13e
000000a0: efb1 cc3d c034 9d3e f341 aabe e4f1 d1be
000000b0: f8db dbbd 40e5 fabd 8778 d33e 65af 3e3f
000000c0: 0bce 5b3e 88fc 39be 3646 2dbe ece2 453e
000000d0: 8ebd 133e 345f 4b3e cefa 1e3d ad4f 24be
000000e0: 56b1 223e 3d88 883d 82f1 a9be 9a2e 21bd
000000f0: 703b 1cbe 1439 9abe 7a3f e43e 59e8 9bbe
00000100: be50 9bbd 75fd 86bd d2bc 1ebd ef71 9dbe
00000110: d125 04bf 4cab 31be 97e2 a13e 946b dabe
00000120: cb86 0cbe 8519 a73e 2f33 3d3d 4a62 d7be
00000130: 4965 f03e 563e f43e a519 7abe c5d9 02be
00000140: 55f7 5cbd 3c21 6bbe a5f9 793d e3b8 88bc
00000150: bba5 4fbe 9fd4 10bf b06a bf3e 04f4 1c3e
00000160: 41b9 1cbe 120a 85be 3506 b33c e900 bb3e
00000170: 4d74 923d 2e47 853e fe66 d63e c96a 99be
00000180: e04d a6be 567a d23e 4580 e93e dac0 33be
00000190: 6bfd babd 642e 993e fcc4 7e3e 7035 96be
000001a0: 3c09 84be 2939 fa3e 1ba2 39be 3a4a 0ebe
000001b0: 89f7 8ebe 2d07 d23e 72cd 82be 1afc aabe
000001c0: c9b0 c1be fbe4 68be 79cf f93e 5211 78bd
000001d0: 405a 2ebe 7bd3 c7bd 5652 4e3e 5215 abbe
000001e0: f3d2 d7be 395a 13bf 4c52 ffbe bd02 323c
000001f0: f16e d1be 18d6 a7be e706 403e 7935 a3be
00000200: d5e0 053f ed70 27be 9023 093e 588c 523e
00000210: a0da 703e d702 fcbe 5b61 873e c248 773e
00000220: c6e2 9bbe 0e99 90be c390 82bd 02a8 46be
00000230: 6026 973e fa88 143f 3e51 61be 4906 08bf
00000240: 51c6 4fbe b089 e33e 96ec 27be b1ad 2e3e
00000250: 249b eabe bde5 1a3e 0305 713e 2610 05bf
00000260: f882 fd3c fbf7 963e d8b7 c13d e1b0 67be
00000270: 929f 23bd 0902 763d a3fb b1be df68 7bbc
00000280: dd86 f9bd 2007 ae3e eeff 073f c2be 3f3e
00000290: 29c1 abbe db1c eabe 1c84 393e 820b 853e
000002a0: 3da0 7abe 163b cdbd 4cd0 773e 1469 b8be
000002b0: 6e77 9abe 4a3a 263e 9307 943e 695b f2be
000002c0: 8765 683e f7e8 b13e 3bb6 fe3e e8a2 98bd
000002d0: 2490 d13c 3792 61be ed87 78be 2495 74be
000002e0: dc12 d9be 6ad2 763e 43e6 55bd c818 0dbf
000002f0: c2ff ca3c 6d1e b4bd 1eb1 243e ea72 debe
00000300: d412 b23e 8a57 ba3e 4709 603d e549 c73e
00000310: 7c4e 67be e40e 853d 26bd 22bc 927b 7c3e
00000320: 5a8b f4be 5ee3 343d 786e 62bd 9e10 dbbe
00000330: bf0c e13e 7091 f43d 906c 383e cd4b 4ebe
00000340: 4843 8b3e 4f50 7a3d 7e54 61be f5d1 aa3d
00000350: 02b7 17be c278 e83d 8907 92be ba73 f93d
00000360: db30 e13e 88da acbe 7acd 3c3e bfac 1abf
00000370: adbf d7be 2cfd a0be 524e 83bc 2f97 733d
00000380: 5ff3 503e 4b2d 2e3e aa86 31be b92e 02bf
00000390: 0f7e 003e a70e 9e3e 2168 f8be 0461 9c3e
000003a0: 8363 02bf 689b e43e f8b3 ebbe 1943 443e
000003b0: 14e4 fdbd edee 1cbf dd93 653c 5bea f6bd
000003c0: 7d0b 15be c441 7c3d 9fd2 a2be d97f 413d
000003d0: b63b c63e a627 f5bd 73ce 06bf d4f5 4d3e
000003e0: e61b f2be 86ec cdbe 5932 023f 6895 c2be
000003f0: 5e97 7d3d cb20 c73e ec42 1f3e da8c e2be

bias f4 [64]
0.52116984 0.10791657 -0.2091069 -0.20111708 0.03130643 0.51010984 0.16701229 0.089631245
0.53239936 0.2006537 -0.07740711 -0.13311818 -0.39926454 0.45984775 -0.27365094 0.23815595
-0.40335304 0.45455512 0.3627468 0.32273608 0.3761302 0.042372838 -0.084074 -0.3307506
-0.0313225 -0.08308693 -0.24394967 0.012605011 -0.16266058 -0.14097187 0.18591566 -0.3856465
-0.29621547 0.16251975 -0.26123682 -0.242079 -0.20610474 0.39055 -0.31870097 0.041230604
0.1460997 0.06466385 -0.40686697 -0.0088267615 -0.26670444 0.4000429 -0.25482386 -0.15518983
-0.034876693 -0.10310153 0.41424 0.45203295 -0.03251103 0.12512495 0.477025 -0.061181035
0.27250895 0.08218489 0.13246317 0.45245144 0.20028035 -0.19745195 -0.4170385 0.25261945
00000000: 636b 053f 5d03 dd3d 1f20 56be a3f1 4dbe
00000010: 2c3b 003d 8f96 023f 4505 2b3e 9690 b73d
00000020: 534b 083f 2a78 4d3e 9e87 9ebd 2250 08be
00000030: 676c ccbe 2a71 eb3e fa1b 8cbe 27df 733e
00000040: 4a84 cebe 73bb e83e f3b9 b93e aa3d a53e
00000050: 2394 c03e 248f 2d3d fd2e acbd 2558 a9be
00000060: 064c 00bd 7b29 aabd f1cd 79be 4085 4e3c
00000070: 7f90 26be ee5a 10be ad60 3e3e 7573 c5be
00000080: 8ea9 97be 946b 263e d5c0 85be 8fe3 77be
00000090: 1f0d 53be 2bf6 c73e c62c a3be 6ce1 283d
000000a0: 299b 153e 7b6e 843d de50 d0be 1f9e 10bc
000000b0: 7c8d 88be 6cd2 cc3e 4678 82be 15ea 1ebe
000000c0: ddda 0ebd e526 d3bd 4417 d43e dd70 e73e
000000d0: 492a 05bd c120 003e 9f3c f43e f798 7abd
000000e0: 4b86 8b3e 8d50 a83d 6da4 073e b7a7 e73e
000000f0: 4b16 4d3e d830 4abe 1286 d5be 5657 813e
