experiments/pedestrians/models/06_Aug_2023_21_23_08/model_registrar-14.pt (torch, 713991 bytes, 82 tensors)

weight f4 [64, 10]
000000 15 4c 28 be 6c a8 e3 bd e2 39 98 3e a8 37 ae 3d
       -0.16435273 -0.11116108 0.2973166 0.08506709
000010 f0 99 f9 be 53 4c 46 3f 6d bd 0b bc 06 e9 89 be
       -0.48750257 0.7746021 -0.008529049 -0.26935595
000020 97 ea 3d be c8 66 c5 3d d6 6b a5 bc 2c d0 52 3e
       -0.1854652 0.096387446 -0.020193022 0.20587224
000030 7e b3 9b 3e 15 ad cf bd 8e 34 9e bd 35 6f c0 be
       0.3041038 -0.10140435 -0.07724868 -0.37584844
000040 e4 de 9c be 14 79 c7 be a9 29 06 be be 15 93 3d
       -0.30638802 -0.38959563 -0.1310183 0.07181881
000050 37 4e 18 3e 0d 17 04 3c 60 1d 14 be 82 22 13 3f
       0.14873587 0.008062136 -0.1446433 0.5747453
000060 22 24 bd 3d fe c7 b8 3c 3a 05 75 be c2 0c 00 bb
       0.092354074 0.022556301 -0.23927775 -0.0019538854
000070 7c 5b f3 3c 35 b8 03 be d6 e1 c7 bd c4 46 50 3d
       0.02970671 -0.12863238 -0.09759872 0.050848737
000080 3b 26 e2 3c 19 a6 ba 3c 58 58 e5 be c1 59 0f 3f
       0.02760612 0.02278428 -0.44793963 0.5599633
000090 d3 44 a8 be dd c8 88 be b6 d5 b8 bd a1 49 9e be
       -0.3286501 -0.26715747 -0.09025137 -0.3091555
0000a0 b3 df b5 3d f3 9f 91 bc ce c5 ae 3d f0 92 10 3e
       0.08880558 -0.017776465 0.08533822 0.14118552
0000b0 e0 51 eb 3e 5f e9 53 3e d6 48 5b 3e cb 2d c2 3d
       0.45960903 0.20694493 0.21414503 0.094813906
0000c0 f2 e0 a1 be 9f 56 d9 3d a1 35 35 3d d1 21 4a 3e
       -0.31616932 0.10612225 0.044240598 0.19739462
0000d0 0d 3b 8b 3e f0 58 83 3c 9d ea 69 bd 84 d4 ca 3e
       0.2719349 0.01603362 -0.05710851 0.39615262
0000e0 8c 48 05 3e 8b fa 5b bd bc 2d cf bd 93 07 07 3d
       0.13015956 -0.053705733 -0.10116145 0.032966208
0000f0 e7 df fc bc f2 3a 15 3e b5 63 e6 3e 8e fa 27 3e
       -0.030868484 0.14573267 0.44997945 0.16404173
000100 04 30 ae 3e 16 84 d7 be 80 cd 93 be 7e 03 77 3e
       0.34021008 -0.4209296 -0.28867722 0.24122426
000110 ce ee 90 3e b4 02 4e 3e cb 00 bd bd 44 1d f7 bd
       0.28307194 0.20118219 -0.09228667 -0.12066129
000120 42 41 39 3e 89 9c b8 be 59 3b 0d bf d0 d7 a8 be
       0.180913 -0.36056927 -0.5516868 -0.32977152
000130 e1 7c b3 3e c8 e5 d0 bc 28 00 fb ba b9 73 4d bc
       0.35056213 -0.025500193 -0.0019149827 -0.012539797
000140 17 9f 2a bd ae 24 9d 3c 23 76 95 be 97 b8 c0 3c
       -0.041655626 0.01918253 -0.29191694 0.02352552
000150 38 4b 18 bf f7 ec 8e 3c 1d 37 66 be 2c b8 7e be
       -0.59489775 0.017446978 -0.22481962 -0.24874943
000160 a9 78 1d 3e 24 13 d0 3c e5 81 50 bd 36 5d 44 3d
       0.1537806 0.025399752 -0.050905127 0.047940455
000170 3a 5f b9 3e cd 0c 97 3e 1f bf 79 3d 51 fb f6 3e
       0.36205465 0.29501954 0.060973283 0.48238614
000180 cf 11 06 3e 18 cf 80 be a3 83 8f 3e 05 12 81 3e
       0.13092731 -0.25158 0.28030118 0.2520906
000190 c4 12 2e be e3 10 1c 3c 21 5c 16 3e db 2f 3f 3e
       -0.16999346 0.0095255105 0.14683582 0.18670599
0001a0 28 13 bc be 11 1e 01 be ad 1c 3e be 59 10 8c 3d
       -0.36733365 -0.12609126 -0.18565626 0.068390556
0001b0 cf da 2b 3e 41 64 a3 be bf 84 82 3c f5 2a 54 be
       0.16782688 -0.31912425 0.015932439 -0.20719512
0001c0 59 98 f3 3e ac 08 8c be d8 e6 1c bf a1 cd 20 bf
       0.4757717 -0.27350366 -0.6128974 -0.62813765
0001d0 1a f9 71 3d 4a 8d bc 3e 5d 83 23 be 2d ec cb bd
       0.059075452 0.36826545 -0.1596808 -0.09957156
0001e0 58 9d 80 be e9 dc 5b 3e 9e 87 d4 3e 59 4e 8a 3e
       -0.25120044 0.2147099 0.41509718 0.270129
0001f0 bd 48 8b 3e a5 a9 62 3e 28 31 67 3e c5 5c 6a bd
       0.27203932 0.22135027 0.22577345 -0.05721738
000200 05 09 82 3d b2 13 22 be fe 53 54 bd ac a2 af 3d
       0.063493766 -0.15827826 -0.051837914 0.08575949
000210 e4 44 0b be 62 6c 0a bf 73 b4 71 3e e8 d5 19 be
       -0.13600498 -0.5407163 0.23603992 -0.15023005
000220 fb 9c d9 3d d3 3e 23 be 6a b4 ea bc 11 28 41 be
       0.10625645 -0.15941934 -0.028650481 -0.1886294
000230 0e 55 66 3e b5 e7 36 be 69 50 04 be e1 95 ed 3e
       0.22493383 -0.17861827 -0.12921299 0.4640341
000240 53 a4 3b be 12 12 94 3d 26 a3 48 3e d4 6f ef bc
       -0.18324403 0.07230009 0.19593486 -0.029228128
000250 47 d2 81 bd 2f a2 9b 3e e5 5b 59 3b d6 b5 6d 3e
       -0.06338935 0.30397174 0.0033166346 0.23213896
000260 25 01 fe 3c 26 76 07 be 0b 1a ac 3e 60 63 cc be
       0.031006405 -0.13228664 0.3361362 -0.39919567
000270 ec e3 6d be 54 83 27 3e 98 98 5c be 41 a0 cf 3d
       -0.23231477 0.16358691 -0.21542585 0.10137988
000280 e8 13 82 be a7 53 5e 3e 89 b7 12 3e 94 f4 23 3e
       -0.25405812 0.21711598 0.14327826 0.16011268
000290 cf 49 37 bf b5 2a 25 3e 2d d0 df 3d 76 29 90 3e
       -0.71597 0.16129573 0.10928378 0.28156632
0002a0 98 2c 09 3d f6 fc e1 3e ba c0 8c 3e 14 0c 99 3e
       0.033489794 0.44138306 0.2749079 0.29892027
0002b0 f4 18 8e 3d 48 02 be 3e 0b ff 05 be e7 2e cb 3e
       0.06938353 0.37111115 -0.13085572 0.3968422
0002c0 2f b3 fc 3c e8 59 15 3d 23 50 11 bd d5 20 09 3e
       0.03084716 0.036462694 -0.035476815 0.1339143
0002d0 c9 3f cc bc 0b d9 1a 3e 84 a2 06 3f 56 a6 d4 bd
       -0.024932759 0.15121858 0.5259173 -0.103832886
0002e0 6b 2a 42 be 59 3c 55 3e cb ee 91 3e da c8 10 3d
       -0.18961494 0.20823802 0.28502497 0.035347797
0002f0 9c f5 52 3e c9 89 9f 3e fe f6 85 3e c9 d8 55 3d
       0.20601505 0.3115981 0.26165003 0.052208696
000300 71 7f d3 be d6 af 36 be 96 fa b7 be 63 b8 fa bd
       -0.41308168 -0.17840514 -0.3593337 -0.122422
000310 d5 25 d0 3d e9 da 1d 3e 29 86 5a be 37 48 7f 3e
       0.10163466 0.15415539 -0.2134024 0.24929892
000320 3b 31 03 be 63 bb a5 3d d4 d2 ae be 58 7e a4 3e
       -0.12811749 0.08092382 -0.34145224 0.32127643
000330 64 0d d3 3e b4 ac 65 be 37 7e 66 3d 5b b6 a6 bd
       0.41221154 -0.22429162 0.05627271 -0.0814025
000340 1e 4b 93 3e 46 3a 1c bd 0b 6f 4d be c6 cf e0 bc
       0.28768247 -0.03814151 -0.20061891 -0.027442824
000350 ea 38 d2 3d 71 87 64 3d f4 03 d9 3e 46 a9 69 3f
       0.10264762 0.05579323 0.42385828 0.91273916
000360 07 59 85 3e 62 b3 8a 3d c7 8a d2 3d 25 64 f8 bd
       0.26044485 0.06772496 0.10280376 -0.12128476
000370 70 15 76 3d 84 f7 98 3e c2 d5 40 be 10 89 85 3d
       0.06007904 0.2987634 -0.18831542 0.06520283
000380 10 9f 25 3e 62 2d d8 3e 1f 9a 47 3e 47 5a 60 3e
       0.16173959 0.42222124 0.19492386 0.21909438
000390 b0 45 78 3d 81 94 46 be c7 24 65 3d 1d 94 33 be
       0.060613334 -0.19392587 0.055943277 -0.1753697
0003a0 90 15 04 be dc ff d3 3e e6 d3 77 3c eb b4 99 be
       -0.1289885 0.41406143 0.015126204 -0.30020842
0003b0 8b de c9 bd f3 33 c7 3d ec 27 cf bd bb b9 21 3e
       -0.098569 0.097267054 -0.10115036 0.15793507
0003c0 2b a4 3e 3e 6e 3b 20 be f8 0e 04 be 4b fe 13 be
       0.18617313 -0.1564767 -0.12896335 -0.14452474
0003d0 83 25 b4 3e d7 9a 7b 3e e4 1a 1c 3d 17 72 a1 be
       0.3518487 0.24570785 0.038111582 -0.31532356
0003e0 52 8e 5d bd d7 3a 95 be a3 73 49 be 83 d8 47 be
       -0.054090805 -0.29146454 -0.19673018 -0.19516186
0003f0 26 3f 0f 3e e2 ee d4 3e 47 d4 26 be a1 f6 bc be
       0.13988933 0.41588503 -0.16291915 -0.36906913

bias f4 [64]
000000 91 c2 65 be 69 0d fa bd 94 36 5e be f7 0e 6e 3e
       -0.22437502 -0.12209589 -0.21700507 0.23247896
000010 e7 72 88 3d 1b 46 77 3e c5 89 9b be b4 ca 29 bd
       0.06662541 0.24147837 -0.30378547 -0.04145308
000020 f8 0b a2 3b 9a a4 64 3e 05 22 bf bd 15 07 cf 3e
       0.0049452744 0.22328416 -0.093326606 0.4043509
000030 61 ef cd bd a2 8e 42 3e bd 66 20 be f4 ba 47 bd
       -0.100554235 0.18999723 -0.15664192 -0.048762277
000040 b3 fd 45 bd ad 15 5d be 6e 01 8a 3e e4 bd 14 3e
       -0.04833765 -0.215903 0.26954216 0.14525563
000050 2e 91 a8 bb 34 58 56 3d 10 40 0a 3e a1 82 ce bd
       -0.00514426 0.05233021 0.13501 -0.10083509
000060 ac ec f1 bd b7 f6 16 3e 62 fb 48 bd aa d3 1c be
       -0.1181272 0.14742552 -0.049067862 -0.15315118
000070 6f cd 88 be 6c 02 dd 3d af ed c9 3d 95 cc 5e be
       -0.26719233 0.107914776 0.09859788 -0.2175773
000080 90 56 28 be 72 c9 32 3e 16 65 bb be f3 c6 69 3e
       -0.16439271 0.17459658 -0.3660056 0.228298
000090 e9 45 f7 3d 9e 62 e8 bd f0 eb dd bd f7 08 51 bd
       0.12073881 -0.11346935 -0.10836017 -0.05103394
0000a0 70 b1 85 be 4f 55 51 3e 11 51 7e bd e1 16 fd bd
       -0.26111937 0.20442699 -0.06208903 -0.123578794
0000b0 7e b5 23 be 8b 67 53 3e 64 35 06 be 14 78 6f be
       -0.15987203 0.20644967 -0.13106304 -0.2338565
0000c0 73 4e 02 3e ef d3 54 be ee cf 16 bd ea 55 21 3e
       0.12725239 -0.20783971 -0.03681939 0.1575543
0000d0 7d 98 a6 be e3 53 b3 be 53 14 b4 be 55 27 c4 3d
       -0.32538214 -0.35024938 -0.35171756 0.095778145
0000e0 de 9e c6 3d 10 4c 51 3e f5 d6 68 3e cd 68 94 3e
       0.0969827 0.20439172 0.2273825 0.28986207
0000f0 b5 e2 69 be 5c ac 31 3e 7d e6 b0 3e 8c 44 24 be
       -0.22840388 0.17350906 0.3455085 -0.16041774

weight f4 [32, 32]
000000 f2 1a 64 be 5d 5e 2e be 95 dd a4 3e 25 a8 84 bc
       -0.22275904 -0.17028184 0.32200304 -0.016193459
000010 35 de f1 bd 64 0e 55 bc 9f 0f 83 bc 31 2f 34 3d
       -0.11809961 -0.013003919 -0.01599866 0.043990318
000020 a4 1a f8 bd 1c 48 be be 9a 10 05 3e f1 9e ae 3d
       -0.12114456 -0.3716439 0.12994614 0.085264094
000030 38 6c ad 3b 26 ba 49 3e 49 4f 3f be 6c 2f 04 3e
       0.0052924417 0.19699916 -0.18682589 0.12908715
000040 e6 63 7b bd cf ff 5a 3e 4d c1 3e 3e 7a 28 83 3e
       -0.061374567 0.21386646 0.18628426 0.2561682
000050 a5 6d 6c be a4 00 28 3e f8 11 be 3d 70 d3 8e be
       -0.23088701 0.16406494 0.09280771 -0.2789569
000060 6a 26 86 bd 1e 93 f5 3d 30 52 99 3d 70 7c f8 3d
       -0.06550296 0.11990951 0.07486379 0.121331096
000070 e0 ea 43 3e 10 6d 99 3d 4d d7 1e 3d b2 b0 15 3e
       0.19132566 0.07491505 0.038779546 0.14618185
000080 03 ab 01 3e 66 12 7d bc 82 0c b4 be d0 b3 0c 3d
       0.12662892 -0.015446281 -0.35165793 0.03435117
000090 fe 22 48 be 64 3d 76 3d e8 48 17 3e 86 6d f8 bd
       -0.19544598 0.06011714 0.14773905 -0.12130265
0000a0 3b 5e 8b be b9 56 60 be 73 f1 65 be 87 22 79 be
       -0.2722033 -0.21908082 -0.22455387 -0.24329577
0000b0 88 0c d7 3c 4b 70 69 3b ad f7 c7 bc 8f 20 b7 bc
       0.026251093 0.003561991 -0.024410093 -0.022354392
0000c0 19 63 eb bc 57 ba 1d 3e 14 dd 24 3e 5f 76 cd 3e
       -0.028733777 0.15403114 0.1609996 0.40129372
0000d0 e6 a6 54 3e 76 af 00 be 54 a8 43 3e 00 a5 a3 bd
       0.20766792 -0.12566933 0.19107181 -0.079904556
0000e0 ac 00 c6 3c a0 02 c6 3c d8 8c 3b 3e 27 d4 6d 3d
       0.024170242 0.024171174 0.18315446 0.058063652
0000f0 91 60 15 be 24 eb e1 bd 71 e5 0e 3e a8 a9 66 bc
       -0.14587618 -0.11031178 0.13954712 -0.014078535
000100 08 bb 9b 3e 85 2f 1e be 9c 4f b8 3d f1 60 ec be
       0.3041613 -0.15447815 0.08999559 -0.4616771
000110 33 05 80 be b4 a7 33 bd 6f 4a 06 be 27 eb e8 bd
       -0.25003967 -0.043861106 -0.13114332 -0.11372977
000120 df fb 08 be 36 1c 3c 3e 52 a9 52 3e ec 6c 17 be
       -0.13377331 0.18370137 0.20572403 -0.14787644
000130 70 c5 84 be a3 29 ab 3e 75 99 a4 be a5 b3 8d bd
       -0.25931883 0.33430204 -0.32148328 -0.0691903
000140 27 c3 ea 3c 5c 8b a6 3e 86 04 ad 3e cc 8e d0 be
       0.028657509 0.32528198 0.33792514 -0.40733945
000150 2a 68 73 bd 3c 46 84 3d 77 4e 01 be 29 56 03 be
       -0.05942551 0.06458709 -0.12627588 -0.12825836
000160 85 1b 06 bd 7c 1b dd bd 0d 37 8b bb c3 79 3b be
       -0.03274109 -0.10796258 -0.004248506 -0.18308167
000170 f1 b9 81 3e 3c 2c 6a be bb 17 02 be 60 2e 3c be
       0.25337175 -0.22868437 -0.12704365 -0.18377066
000180 c3 fb 57 3e ec af d0 bd 57 63 4d 3d 01 58 1f 3e
       0.21092133 -0.101898044 0.050143566 0.15560915
000190 8f 35 6e bd 7b 48 0d 3e 33 94 48 3e d5 36 6f be
       -0.058156546 0.1379718 0.19587784 -0.2336076
0001a0 90 e4 30 be 38 1d 7f 3e 51 52 d8 3d 54 7f 08 be
       -0.1727469 0.2491349 0.105625756 -0.13329822
0001b0 3a 3b 6d 3e 19 9c cc bc 21 ad e1 bd f2 65 39 bd
       0.23167124 -0.024976777 -0.1101935 -0.04526324
0001c0 06 4d 5c be 3a 0f a9 3d 08 83 9c bd eb 1a 71 3e
       -0.21513757 0.08254857 -0.0764218 0.23545425
0001d0 6a c0 91 3d 57 6f 32 3d 5c 56 a4 3e b7 61 5e bb
       0.07116778 0.043563213 0.32097137 -0.0033932754
0001e0 d3 60 af bd f5 8c 43 3d 71 87 3d 3d 3e e1 2e 3e
       -0.0856339 0.04774185 0.046271745 0.1707811
0001f0 aa 8e 0d bd f4 9c 3d 3e 0c 3a 7f 3e 4d c9 ba 3d
       -0.034559883 0.18516904 0.24924487 0.09120426
000200 0b 56 96 be bf a9 d8 bd 7a 8a 82 3e c0 42 29 3d
       -0.2936252 -0.105792515 0.25496274 0.041323423
000210 31 d8 2e 3e 8f c7 81 bc ab 10 dd 3d 8b 1e a1 3e
       0.17074658 -0.015842227 0.10794195 0.31468615
000220 23 71 0b 3e 4b 86 3c be 90 08 5e 3e dd ef 04 3e
       0.13617377 -0.18410604 0.21682954 0.12982126
000230 b2 7b 5f be 50 09 40 3e 06 8a 85 bb 21 70 a5 3d
       -0.2182453 0.18753552 -0.0040752916 0.080780275
000240 f2 76 b1 bd 7d 95 6d 3d 90 d7 54 3e a5 95 b0 3e
       -0.08665265 0.05800389 0.20785356 0.3448917
000250 b0 81 4b 3e 04 c6 87 be 70 12 50 3e af f2 28 3d
       0.1987369 -0.2651826 0.20319533 0.041247066
000260 9d 00 09 3e 42 a6 02 3e 1c 7f e3 3d 38 44 09 be
       0.1337914 0.12758735 0.111082286 -0.1340493
000270 f8 cd f7 3d 98 a2 b4 3e 51 1f 0f 3e ed a7 df bd
       0.12099832 0.352803 0.1397679 -0.10920701
000280 0e af c7 3e 9b 22 64 3c dc 5f ea bd fc 98 d0 be
       0.39000744 0.013924266 -0.11444065 -0.40741718
000290 04 c6 46 bc 53 e6 0e 3e 97 8e f5 bb 81 cf 12 be
       -0.012132172 0.13955049 -0.0074938047 -0.14336969
0002a0 06 da 3b bb 7a e9 f0 3d c9 8e 79 3d 6b ee 03 3e
       -0.0028663888 0.11763282 0.060927186 0.12883918
0002b0 a3 c8 ac bb 09 d7 1e 3e 73 42 12 be 9b 86 16 be
       -0.005272941 0.15511717 -0.14283161 -0.14699785
0002c0 e5 d2 b6 bd b1 43 a4 be 10 d6 88 3d 1c c0 8e be
       -0.08926944 -0.32082894 0.06681454 -0.27880943
0002d0 ec 59 e9 3c e9 4c ac 3d 27 9a e5 3c 77 0a e2 3d
       0.02848526 0.08413107 0.028027607 0.11037152
0002e0 01 2d e6 bd 77 c1 40 3e ed 05 8b bd 0d 11 ca 3c
       -0.112390526 0.18823801 -0.0678824 0.024666334
0002f0 f7 bd 1b bd e7 18 4b be 67 78 be 3c 04 cd 82 bd
       -0.03802296 -0.19833718 0.023250772 -0.0638676
000300 87 11 19 be bc 77 70 3d 8a 07 8b 3d e4 55 05 bc
       -0.14948092 0.058707938 0.06788547 -0.008138154
000310 86 45 2c 3d fb fc f2 bb d3 12 b1 3e c0 f9 a2 3e
       0.04205849 -0.0074154115 0.34584674 0.3183117
000320 8a 46 b9 3d 76 35 0d 3e ab 8f 91 3d b9 71 9b 3e
       0.090466574 0.13789925 0.071074806 0.303602
000330 eb 5f 09 be 9a 8c 0b be 90 9a 55 3e 59 c0 88 bd
       -0.13415496 -0.13627854 0.20859742 -0.066773124
000340 ea 9f e6 3c e1 09 f9 bd 7c 3b 37 be 00 45 f9 3d
       0.028152425 -0.121600874 -0.17893785 0.12171364
000350 8f 78 69 3d 80 7d 7a be 7e 12 b3 3e dc 9c 9d 3e
       0.05699974 -0.24461937 0.34975046 0.30783737
000360 6e 2d 3f 3e c0 a6 b9 3d d5 a3 4a 3d 5f 2f 95 bd
       0.18669674 0.09065008 0.04947265 -0.07284426
000370 06 4c f5 bd 65 36 d8 3d e1 4e bd bc 21 db df 3c
       -0.11977391 0.1055725 -0.023108901 0.027326168
000380 ce 7b e3 3d 91 17 13 3d b1 3e b0 3d 6d db 87 be
       0.11107598 0.035911147 0.086057074 -0.26534596
000390 9a 8c 92 3c 2e 82 6c 3e 00 d6 9f 3e 94 4f fd 3d
       0.01788931 0.23096535 0.31217957 0.12368694
0003a0 1f 5d 09 be f9 5e f0 3d 00 bb ae 3c 83 29 40 3e
       -0.13414429 0.117368646 0.021329403 0.18765835
0003b0 bd e1 65 3e e7 ca 22 3e 79 8e 9a bd e6 55 40 3e
       0.22449394 0.15897714 -0.07546706 0.18782768
0003c0 42 d2 48 3d 69 ac 3d 3e 3d 5c 77 3d 4c 86 c7 3e
       0.049028642 0.185228 0.0603907 0.38969648
0003d0 bb f2 5b 3e 4d 23 17 3d 19 31 93 3e e8 29 9e bd
       0.21479313 0.0368989 0.28748396 -0.07722837
0003e0 86 ac f4 3b fd c0 07 3e 10 b1 28 3d f5 e4 f1 3d
       0.0074668555 0.13257213 0.041184485 0.11811248
0003f0 11 dd 98 3d 7c e0 5e 3d 2a b9 8e 3e bb 8a dd bd
       0.0746404 0.054413304 0.27875644 -0.10817476

bias f4 [32]
000000 fa 4d 06 be c5 ca 16 bd 6d 72 3e 3e a7 4f 60 3c
       -0.13115683 -0.03681447 0.18598337 0.013690866
000010 1f 48 2b be e5 d0 18 3e b4 2e 5b 3d 4d ed 1d 3e
       -0.16726731 0.14923437 0.053511336 0.15422554
000020 74 25 c7 3d e2 e0 83 bb 58 60 87 3d eb 77 19 3e
       0.097239405 -0.004024611 0.06610173 0.14987151
000030 e2 09 27 bd 98 78 83 3c cf b0 5c bd 21 80 0a 3e
       -0.04078091 0.016048715 -0.053879555 0.1352544
000040 9e 51 17 be 36 6e e7 3d 8d 4f a2 3d a9 36 2b bd
       -0.14777228 0.11300318 0.07925329 -0.041800175
000050 e6 6d 1a 3e 01 f5 fe bd eb 09 d2 bd 83 2b fe 3c
       0.15080985 -0.124490745 -0.10255798 0.031026607
000060 21 5e aa bd 44 3f 82 3d a3 9f e2 bd 8d 12 3e be
       -0.08318735 0.06359723 -0.110656045 -0.18561764
000070 4b 3a 1b be 72 ed 2e be 46 11 89 bc 3b 97 54 bd
       -0.15158956 -0.17082766 -0.01673187 -0.051902037

weight f4 [32, 64]
000000 08 c8 50 bd a0 ad 87 3b 08 4a 7e bd 08 15 41 3d
       -0.050972015 0.0041405708 -0.06208232 0.047139198
000010 48 20 da bd c4 a8 bb 3d 34 12 ba bd de 87 cb bd
       -0.106506884 0.09163049 -0.09085503 -0.09938024
000020 5a c3 a1 bd a8 e1 67 3d 14 2e 3d bd e4 98 3f 3d
       -0.078985885 0.056611687 -0.04618652 0.046776667
000030 54 46 d9 bd 3e 52 9b bd 80 fe 3b bd 78 3c c9 bc
       -0.10609117 -0.07584046 -0.045897007 -0.024564967
000040 04 4b c3 bd 5e a0 a7 3d b8 7d f1 bc 80 58 24 3d
       -0.095357925 0.081848845 -0.029478893 0.040123463
000050 5c 07 b5 3d 00 c7 be 3c bc 01 0c 3d 32 1b f7 3d
       0.08839294 0.02328825 0.03418134 0.12065734
000060 b4 ea 66 bd 38 2d 22 3d 0c cc 63 bd 48 f3 b6 3d
       -0.056376174 0.039593905 -0.055614516 0.08933121
000070 c0 74 cc 3d 60 06 ec bd 88 88 da 3d c4 7c 74 3d
       0.09983206 -0.115246534 0.106705725 0.0596893
000080 dc 1c 5f 3d 0c c7 52 3d 04 d0 d4 3d 60 35 87 bc
       0.05447088 0.051459357 0.10391238 -0.016504943
000090 b2 7f d8 bd f8 ea 12 bd 58 4b b4 bd f0 62 07 3c
       -0.10571231 -0.035868615 -0.08803433 0.008263335
0000a0 40 30 bf bc 86 50 89 bd 00 35 3a bc 0e 89 f2 3d
       -0.023338437 -0.06704812 -0.011365175 0.11842547
0000b0 70 89 21 bc 60 0c 82 3b 20 b4 9f bc e0 fa a0 3c
       -0.009859428 0.0039687604 -0.01949507 0.019650877
0000c0 68 19 e4 3d cc 8a 9c 3d 84 bd 35 3d a8 86 de 3c
       0.11137658 0.07643661 0.04437019 0.027163818
0000d0 b0 73 f1 3c 78 cd 45 3d 28 53 84 bc bc ed ed bd
       0.02947411 0.048291653 -0.016152933 -0.1161761
0000e0 3e 50 9e bd 98 84 da 3d 00 d5 f4 3b fa 60 cf bd
       -0.07730149 0.106698215 0.0074716806 -0.10125919
0000f0 50 83 a1 3c 8a 86 d3 3d 80 eb f1 bd 6a 59 ac bd
       0.019715935 0.10328396 -0.11812496 -0.08415492
000100 78 e9 4b bd 40 67 a4 3b b0 d3 ee bc a0 0e 61 bc
       -0.0497832 0.005017191 -0.029153675 -0.013736397
000110 66 92 f9 bd 48 c2 6f 3d c8 b3 e0 3d 1e 7a 9c 3d
       -0.121861264 0.05853489 0.109717906 0.076404795
000120 2a 48 b5 bd ca 5c ce bd f4 9b 54 3d 00 fb 37 3b
       -0.08851655 -0.10076292 0.05190654 0.0028073192
000130 78 e2 51 3d 98 26 fa bd 40 37 f4 bb da 8a b4 3d
       0.051241368 -0.122143924 -0.0074528754 0.08815546
000140 cc 85 6d 3d 40 93 95 3b 80 56 c9 3c a0 e7 41 bc
       0.057988927 0.0045646727 0.02457738 -0.011835009
000150 e4 c1 8c bd 04 7c 41 bd 18 e6 9b bd ce a2 d4 3d
       -0.06872919 -0.04723741 -0.07612246 0.10382615
000160 96 df 8c 3d d8 0e 33 3d 72 50 c4 bd 02 89 c5 3d
       0.06878583 0.043715328 -0.09585656 0.09645273
000170 ac 88 20 3d 74 19 b1 3d 6c 6a 49 bd b8 15 d9 3c
       0.03919284 0.08647433 -0.049173757 0.026499614
000180 32 f4 f9 3d 64 33 ac 3d a8 4f cd 3d 40 06 d7 bc
       0.1220478 0.084082395 0.10024959 -0.026248097
000190 62 0a c3 3d e8 81 c8 bd 20 21 31 3c 5e 24 90 bd
       0.09523465 -0.09790403 0.01081112 -0.070381865
0001a0 f8 cf ee bc 34 1f 03 bd c0 3a 19 3c ea fe e8 3d
       -0.029151902 -0.03201218 0.009352386 0.11376746
0001b0 a4 7b 7d 3d 00 d0 0a ba 70 b8 b5 3d 4a 30 83 bd
       0.06188549 -0.00052952766 0.08873069 -0.06405695
0001c0 62 ef 83 3d a0 ea 3d bc e8 2f b2 bc 30 c4 6f 3c
       0.06442143 -0.0115915835 -0.02175136 0.014634177
0001d0 ea 1e c4 bd 50 a9 6c 3c 64 27 2c 3d ce dc da 3d
       -0.09576209 0.014444664 0.042029753 0.106866464
0001e0 5c 68 1f bd 88 55 38 3d 06 e0 ff 3d d4 a1 5b bd
       -0.038917884 0.045003444 0.12493901 -0.05362113
0001f0 06 5a f3 3d 34 34 7e bd e0 af 61 3d 78 93 48 3d
       0.11882405 -0.062061504 0.055099368 0.048968762
000200 18 04 0f 3d 12 72 ca 3d a4 ee 4e bd 38 90 06 3d
       0.034916013 0.098850384 -0.050520554 0.03285238
000210 00 e6 37 3a 5a 8c c0 bd 38 a4 f8 bc 74 f6 aa bd
       0.00070151687 -0.0940177 -0.030351743 -0.083477885
000220 30 62 62 3d 60 1b 38 3c b0 a1 48 3c 68 53 1b bd
       0.05526942 0.011236995 0.012245581 -0.03792134
000230 00 91 1d 3a 0c 41 1f bd b8 1d 13 3d 94 9e f8 3d
       0.00060106814 -0.038880393 0.035917014 0.121396214
000240 18 1b 9b 3c 30 c6 62 bd 3a 5f 9c bd 10 8c 1c 3c
       0.018933818 -0.055364788 -0.076353505 0.009554878
000250 a2 e9 bd bd 26 6c c0 bd e0 9f a6 bd ec e5 2d bd
       -0.092730775 -0.09395628 -0.081359625 -0.0424556
000260 80 96 17 3c da 48 b0 3d 58 51 46 3d 5c 20 c4 3d
       0.009252191 0.08607645 0.04841742 0.095764846
000270 e2 bd a0 bd b0 d3 2c 3c b0 8d e3 bd 32 db 92 3d
       -0.07848717 0.010548517 -0.11111009 0.071707144
000280 68 69 d5 3c 62 9b f7 3d 00 12 b6 bd 46 4b cd 3d
       0.026051238 0.12090184 -0.08890152 0.10024123
000290 3a 1f d8 3d 02 fb ce 3d 98 1e 92 3c 88 c6 e8 3d
       0.10552831 0.1010647 0.017836854 0.11365992
0002a0 3c f7 aa 3d 0e ff be 3d 30 0a 05 bc 34 74 c4 bd
       0.083479375 0.093259916 -0.008120105 -0.095924765
0002b0 00 e2 cb ba 08 0a c0 3c 18 61 ae bd 04 da 92 bd
       -0.0015555024 0.023442283 -0.08514613 -0.071704894
0002c0 68 70 f5 bd f4 7a 33 bd 58 fe de 3d 98 19 af 3c
       -0.119843304 -0.04381843 0.10888356 0.021374509
0002d0 20 2f fa bb c0 7c a4 3b b0 a0 9f 3d 74 10 e2 bd
       -0.0076350123 0.005019754 0.077943206 -0.110382944
0002e0 e6 86 c5 bd 90 39 2a bd 28 55 93 bd 7e 0a 84 3d
       -0.096448705 -0.041558802 -0.07193977 0.06447314
0002f0 a8 e2 b4 3d b8 60 f8 bd 12 43 d9 bd 20 4c f9 bd
       0.08832294 -0.12127823 -0.10608496 -0.12172723
000300 80 27 41 3d f2 0a ce 3d b0 7c c6 bd a0 08 6d bd
       0.04715681 0.100606814 -0.09691751 -0.057869554
000310 d0 ed 22 3d 0c 2a a7 bd 7e 77 d9 3d d0 c1 ee 3c
       0.039777577 -0.08162317 0.106184945 0.029145151
000320 4c 88 0e bd d0 04 05 3c 20 a0 1f 3d c8 0c 35 bd
       -0.03479795 0.008118823 0.038971066 -0.044201642
000330 f4 5c c6 bd 00 41 5c 3a 80 37 15 3b 80 31 25 3b
       -0.09685698 0.000840202 0.0022768676 0.0025206506
000340 c0 6e 95 bc ee 5e a4 3d d8 e0 0e bd 40 3b 46 bc
       -0.018241286 0.08025919 -0.034882396 -0.012099087
000350 30 87 52 3d ce 22 a1 bd a8 17 09 3d 28 6c e2 bc
       0.051398456 -0.078679666 0.033469826 -0.027639464
000360 c4 97 75 3d f2 de 8a bd a0 61 97 3b c0 5a 48 3c
       0.059959188 -0.06780805 0.004619792 0.012228668
000370 0a fa cd bd fe 25 ba bd dc 5b 44 3d 5c 05 15 bd
       -0.10057457 -0.09089278 0.047939166 -0.036382064
000380 9c 09 98 3d 90 e4 fc bd a4 18 7d bd 82 db d2 bd
       0.07423708 -0.12348282 -0.061791077 -0.10295774
000390 84 87 4c 3d 40 7f 6d bb 78 ff be bc 40 5d aa bc
       0.049933925 -0.0036239177 -0.023315176 -0.020796418
0003a0 24 1a c8 bd 5c 33 11 3d 40 31 4c 3b 3e ab b0 bd
       -0.09770611 0.03544937 0.0031157285 -0.08626412
0003b0 c8 a8 40 3d c0 a6 24 bb fc 96 f7 bd 24 b5 89 3d
       0.047035962 -0.0025123805 -0.12089345 0.06724003
0003c0 5c ee 88 3d 98 ee c0 bc 8e c0 b0 bd 60 74 a4 3b
       0.066860884 -0.02355127 -0.08630477 0.005018756
0003d0 24 2c c1 3d b6 53 ea 3d a4 3a c1 bd 28 41 67 bd
       0.09432247 0.11441748 -0.09435013 -0.056458622
0003e0 ee 53 c7 3d 24 41 7a 3d a2 77 9e 3d 08 d7 7e bd
       0.09732805 0.06109728 0.07737662 -0.06221679
0003f0 86 8d dc 3d ea 72 d2 bd c0 4c c5 bb 00 17 2a 3b
       0.10769181 -0.10275824 -0.006021112 0.002595365

bias f4 [32]
000000 e0 a0 c4 3b fa 90 f5 bd 28 42 82 3c 5c 20 34 3d
       0.006000623 -0.11990543 0.015900686 0.043976173
000010 f6 1a e5 3d 3c f4 25 bd 5c ac 38 3d 40 91 2b bd
       0.11186783 -0.040516123 0.04508625 -0.041886568
000020 b4 0b 34 bd e8 d6 e2 bd a8 23 d8 3c c2 c6 ab 3d
       -0.043956473 -0.11076146 0.02638419 0.083875194
000030 72 69 8e bd e4 52 51 3d f8 ba 9f bc a4 c1 b5 bd
       -0.06953706 0.05110444 -0.019498333 -0.08874825
000040 40 60 5a 3c e2 78 f9 bd 9e 3b 89 3d 98 41 e2 bc
       0.013328612 -0.1218126 0.06700824 -0.027619168
000050 34 c5 eb 3d 20 35 97 3b 8a 30 f8 bd d2 a8 c6 3d
       0.11512223 0.0046144873 -0.12118633 0.09700169
000060 10 fb df bc e6 5a af bd bc 5c ec 3d 60 47 3f 3c
       -0.027341396 -0.085622594 0.11541125 0.011674732
000070 34 ff 25 3d 52 76 dd bd 78 d2 34 bd e6 66 cd 3d
       0.040526584 -0.108135834 -0.04414603 0.10029392

weight_ih_l0 f4 [128, 32]
000000 e6 50 58 3d 1d aa ad 3d 16 be ff bd 02 bd 77 bd
       0.052811526 0.08479712 -0.12487428 -0.060482986
000010 a8 02 f6 bd 33 fb 85 bd 9b 49 8e be ba c8 e0 be
       -0.120122254 -0.06542053 -0.27790532 -0.43903142
000020 f5 68 48 be 1f 67 91 3e 9a 4a 07 3e 76 10 1f be
       -0.19571288 0.28398988 0.13212052 -0.15533623
000030 ab 0e cf 3d 29 30 7c be 66 91 66 3e b5 d3 91 bd
       0.101102196 -0.24627747 0.22516403 -0.07120458
000040 e9 a0 e6 3d f0 a3 97 3e 03 4d 61 be 46 f7 aa 3d
       0.1126116 0.29617262 -0.22002034 0.08347945
000050 ae f4 c2 be 94 97 ea 3c c9 c6 20 be d4 c3 c1 be
       -0.380773 0.028636731 -0.1570083 -0.37844718
000060 dc 44 0e bd 10 f7 4d be b0 31 2d 3d c7 b3 c4 3d
       -0.03473364 -0.20113778 0.042283714 0.09604602
000070 8e 29 e6 3d 99 71 ca bd f9 83 d1 3d 8b 3d 09 be
       0.11238395 -0.09884948 0.1023025 -0.13402383
000080 ac a2 da 3d 43 97 30 bd ab 2c bf bd 7e 01 62 be
       0.106755584 -0.043113004 -0.093346916 -0.22070882
000090 0b 76 85 3d 26 3b bd bc 92 43 d0 3c 58 7c 83 be
       0.065166555 -0.023099493 0.025422845 -0.25680804
0000a0 91 8a ec bd 8c 2b 98 3e 5b f8 60 3e 18 ca 26 bb
       -0.11549867 0.29720724 0.2196974 -0.0025450047
0000b0 98 6f 5c 3e b7 9f 9b bc 6e 0c 03 be d3 f8 ec bd
       0.21526945 -0.018997056 -0.1279771 -0.11570897
0000c0 a3 88 f1 3d ed f2 03 3e b5 62 5d bd 38 94 04 3e
       0.117936395 0.12885638 -0.054049212 0.12947166
0000d0 76 05 86 be 90 dc 94 bd 03 1e a9 bd 4d 82 c2 be
       -0.2617604 -0.072686315 -0.082576774 -0.37990037
0000e0 f4 cf 77 3d 8d 90 8c bd bb 43 86 3e 7d b9 ae 3d
       0.060501054 -0.068635084 0.2622355 0.08531473
0000f0 0f 3b b4 3c e6 cc 47 3c a0 0c a6 3d 41 e2 ce bd
       0.022000818 0.012194848 0.08107877 -0.10101748
000100 f3 f9 07 3e a5 bb 2a 3e c6 3e 83 3d 53 db 9f be
       0.13278942 0.16673143 0.064084575 -0.3122202
000110 36 7e e6 3d b1 ff 7c be 15 cb 0f 3d 88 3f a7 be
       0.112545416 -0.24706914 0.035105783 -0.32665658
000120 77 22 37 bd 1e 4d 5e 3e 8b 22 60 3e 10 3e 96 be
       -0.044710603 0.21709105 0.21888177 -0.29344225
000130 79 47 b8 3d 61 09 d3 bd ae 38 bb 3c 76 14 27 be
       0.08998007 -0.10304523 0.022854175 -0.16316399
000140 07 3b 80 3e e9 32 d3 3e 0c fa 06 be f3 41 a8 3d
       0.25045034 0.4124978 -0.13181323 0.08215704
000150 f9 8e 1f bd e1 4c aa 3d 18 97 15 be 95 62 0f bf
       -0.03895471 0.08315445 -0.14608419 -0.560098
000160 2c 74 8f bd 91 89 b4 be 4e ba a7 3d dc 3d 81 3e
       -0.0700458 -0.35261205 0.08189832 0.25242507
000170 df 6d 87 3d db 8f fb bc e7 14 0d 3c 40 97 93 3d
       0.06612753 -0.030708244 0.008610941 0.07206583
000180 d0 55 72 3e 37 6f d4 3d 22 15 3e be fe 78 bd be
       0.23665547 0.10372775 -0.18562749 -0.37006372
000190 e2 63 bb bd 4e 3e 83 be 7f 4a 21 bd d3 e2 1c bf
       -0.091499105 -0.25633472 -0.039377686 -0.61283606
0001a0 c5 c2 03 3e d6 dd 4b 3e b8 e0 e3 3c 6a e6 f5 3c
       0.12867267 0.19908842 0.027817115 0.030017097
0001b0 f7 de c6 3c 22 52 67 be 4d 2e 3d 3e 81 8d 22 3d
       0.02427624 -0.22589925 0.18474694 0.03968573
0001c0 e8 c3 f2 3d 17 a7 74 3e 26 37 b8 bd b3 02 f9 bc
       0.118537724 0.23891865 -0.08994894 -0.030396795
0001d0 f3 24 21 be 2c 84 e6 bd 33 a9 59 be e3 fb 0f bf
       -0.15736751 -0.112556785 -0.2125595 -0.56243724
0001e0 0d 1a ed bc 69 3a 8f be 81 ca 67 3c cc 97 f0 3d
       -0.028943086 -0.2797425 0.014147402 0.11747703
0001f0 c3 7d d1 3d eb ae e4 3d 9c 80 12 be c2 ce 46 3d
       0.10229065 0.111661755 -0.14306873 0.048537023
000200 98 98 a3 bb 3a 23 e0 3b 5a ee 4e bd 25 e0 28 be
       -0.004992556 0.006840137 -0.05052028 -0.16491754
000210 ba 37 d3 bd 57 e3 f6 bd c4 bc a7 bd 07 13 8a be
       -0.103133634 -0.120550804 -0.08190301 -0.26967642
000220 1f 51 01 be 40 5b a4 3c c3 4e f0 3d 56 05 aa bb
       -0.12628601 0.020063043 0.117337726 -0.0051886244
000230 69 ce 1d 3e 29 0f 3c be c2 c8 25 3e bf 73 14 be
       0.1541077 -0.18365158 0.16189864 -0.14497279
000240 f5 11 0d 3e b1 40 e8 3e d5 f0 81 be 2e 32 35 be
       0.13776381 0.45361856 -0.25379053 -0.17694923
000250 75 4d 7d be 13 fc de bd 77 19 cf bd 4e 64 da be
       -0.24736579 -0.10887923 -0.10112279 -0.4265465
000260 5c 74 58 3d cc dc 30 be 54 56 89 3d e9 ad 16 3e
       0.052845344 -0.17271727 0.06705919 0.14714779
000270 66 e0 5f 3e 4c b3 af 3c 0a 8f 62 be 5b 57 7e 3c
       0.21862945 0.0214478 -0.22124878 0.015523757
000280 ce ea c3 3c e6 fd 7a 3d 81 2b 93 bd dd 6a 61 be
       0.023915675 0.061277293 -0.07186032 -0.22013421
000290 bd c9 04 be c6 fa c6 bd ea b8 93 be 81 31 8e be
       -0.12967582 -0.097158 -0.28852016 -0.27772143
0002a0 8e 01 a9 be 50 bb 36 3e 61 53 7e 3d 2b e4 87 bc
       -0.33009 0.17844892 0.062091235 -0.016588291
0002b0 68 98 14 3e 33 fc 56 be b1 87 38 3e a7 bc bf 3c
       0.14511263 -0.20994644 0.18020512 0.023405386
0002c0 ed 65 82 3e 27 9a 45 3e 93 31 16 3e e7 e3 a3 bd
       0.25468388 0.19297086 0.14667349 -0.08002453
0002d0 3f a8 9b be f1 35 79 3d 23 06 c3 3d 76 fd e1 be
       -0.304018 0.06084246 0.09522655 -0.44138688
0002e0 0a 76 f6 3d 9d 18 71 be 05 75 40 3e 1d 35 22 3e
       0.12034233 -0.23544545 0.1879464 0.15840574
0002f0 dd 6b 0b 3e 51 dd d3 3c 4b e3 b2 be 20 29 4e 3d
       0.13615365 0.025862368 -0.34939036 0.05033219
000300 3c 2f 55 3e bd ac f9 3d 5e ea 42 be 65 60 57 bd
       0.208188 0.1219115 -0.19034716 -0.052582163
000310 8b 58 8c 3d 74 4f 82 bd ad 36 aa bc 19 f4 c4 be
       0.06852826 -0.06362811 -0.020778025 -0.38467482
000320 0f 73 ca 3a 39 e5 cc 3b eb 3e d6 3c c2 34 0a be
       0.0015445667 0.0062529114 0.026153049 -0.13496688
000330 16 6c 17 3d 7d 16 da bd 8a 85 27 3d 3c 05 c5 bd
       0.036968313 -0.106488205 0.040898837 -0.09620139
000340 60 e8 15 3e 26 5e a5 3e d0 ff 5a be 88 df 21 3d
       0.14639425 0.32298392 -0.21386647 0.039519817
000350 f4 29 9e be 72 a6 48 3d 6b b9 45 bc f4 7d 19 bf
       -0.30891383 0.04898686 -0.012068133 -0.59957814
000360 8b fd 45 bc af e7 ef bd 8c 70 86 3d fe f3 9a 3e
       -0.012084375 -0.11714112 0.06564435 0.30264276
000370 9a 6a 08 3d ce c9 96 3d 89 30 13 be 55 0c 37 bd
       0.03330479 0.0736271 -0.14373983 -0.044689495
000380 2b b9 2b bd d5 81 c9 3e 27 63 f1 3c c6 2b d6 be
       -0.041924637 0.39356866 0.029466225 -0.4183027
000390 f1 3e 4f be 23 2b a9 be 7f 2e bf bc aa d7 fc be
       -0.20238854 -0.33040723 -0.0233376 -0.4938329
0003a0 0f 43 f8 bd 9c 63 92 3d c5 88 69 3c 2e 05 87 be
       -0.121221654 0.07147905 0.0142538 -0.2637114
0003b0 26 e0 8b 3d 9e f9 cb be e0 05 86 ba bf 2a 33 be
       0.06829862 -0.3983888 -0.001022514 -0.17496775
0003c0 1e 16 5c 3e af 95 67 3e b8 c2 66 be e5 4d c1 3d
       0.21492812 0.22615694 -0.22535217 0.09438685
0003d0 c8 0c 10 be ca d6 63 bd bb 1a 8c 3d 91 ae 0c bf
       -0.14067376 -0.05562476 0.06841036 -0.5495387
0003e0 54 de 39 3e 50 ec a1 be 07 7b c0 3e de 72 76 3e
       0.18151218 -0.31625605 0.37593862 0.24067256
0003f0 6e 01 78 3e 14 57 64 bc de eb 30 be 2f 4d 33 3e
       0.24219295 -0.013936777 -0.17277476 0.17509912

weight_hh_l0 f4 [128, 32]
000000 41 c4 8c 3d 99 c6 2b 3d 1e 5d 00 be 4b 40 03 be
       0.0687337 0.041937444 -0.12535521 -0.12817495
000010 ab 07 82 bd 37 3b 80 bd 65 0f 17 3e d5 02 ad 3c
       -0.06349119 -0.06261294 0.14751966 0.021119514
000020 67 3a 17 3e ef 4e 08 be e6 e8 54 bd 82 d2 c0 bd
       0.14768372 -0.13311361 -0.05197992 -0.09415151
000030 c8 8c 21 be 00 86 00 bd b3 13 8f 3d f6 fb 93 3d
       -0.1577636 -0.031377792 0.06986179 0.07225792
000040 ad c0 b2 3d 7b 8e dd 3b 06 0d 37 3e 5c 4d 7d 3d
       0.08728156 0.0067613698 0.17876062 0.061841354
000050 06 51 45 3e 3a 47 74 3d 62 72 4b bc 17 03 e2 bc
       0.19269189 0.05963824 -0.012417408 -0.027589364
000060 13 93 c1 3d c6 8b c9 bd 3c fd aa 3d 09 91 ce 3d
       0.0945188 -0.09841113 0.08349082 0.10086257
000070 93 5b f7 bd e9 f8 a3 bd e8 a0 f1 3d e4 57 fd bd
       -0.12078013 -0.0800646 0.117982686 -0.123702794
000080 68 23 32 3e 8a f9 cd 3d 12 be 21 be be c2 ca 3d
       0.17396319 0.100573614 -0.15795162 0.099004254
000090 25 bf ca bd 88 f3 53 be e9 5e f2 3d 02 9c 28 be
       -0.09899739 -0.20698369 0.11834509 -0.16465762
0000a0 bd ec d1 3d 39 6b 4f 3d 6a 88 ba bd 3b 3d 99 bd
       0.10250232 0.050639365 -0.0910805 -0.07482382
0000b0 df 84 9b 3a 63 ec 22 bb ee f7 1d 3d 91 9c 73 3c
       0.001186516 -0.0024860136 0.038566522 0.014868871
0000c0 54 ca 9c bd 39 cd 5f 3d fa 66 df bd de 94 9b bd
       -0.076557785 0.054639075 -0.10908313 -0.075967535
0000d0 ea 27 20 3e 3e 96 80 bd 49 5e 9d bd a8 b7 3b be
       0.15640226 -0.062786564 -0.07683999 -0.18331778
0000e0 44 9a d2 3c 8e ab 72 3d 52 6c be 3d f0 3b e1 3d
       0.025708325 0.05924564 0.09298004 0.1099776
0000f0 de 4b 45 3e 04 b4 74 bd f4 a1 2f 3d 9f f1 be bd
       0.19267222 -0.05974199 0.04287906 -0.09323429
000100 d4 ce 70 3d fe 4c 76 bc 96 2f 2f be cd 03 31 bd
       0.058790997 -0.015033005 -0.17107996 -0.043216515
000110 0c 01 1d 3e 16 12 9a 3d be e8 40 3e 5f 90 3f 3d
       0.1533243 0.07522981 0.18838784 0.046768542
000120 99 28 e8 3d c1 63 ef 3d 38 07 21 be 08 b5 72 3d
       0.113358684 0.116889484 -0.1572541 0.059254676
000130 b4 f6 61 bd ba 2c ce 3d ca a1 0c be 11 ec 4d 3e
       -0.055166915 0.10067125 -0.13733593 0.20109583
000140 ba 71 02 3e 6f d8 f6 3d 13 30 3b bd 87 f2 1f be
       0.12738696 0.12053 -0.045700144 -0.1561986
000150 c6 89 92 bd d8 6f 44 3d 7b 76 a5 3d 74 3b 47 be
       -0.071551844 0.047958225 0.08079239 -0.19456273
000160 87 6e 21 3e 29 93 19 bd 42 d0 b2 3d 0e dc a5 3c
       0.15764819 -0.03749386 0.08731128 0.020246532
000170 c2 9b 23 3d 69 55 1c 3d 4f 18 a7 bd 67 c6 90 bd
       0.039943464 0.03816739 -0.08158933 -0.07069092
000180 6d 73 61 3d 6d da 25 3e ef 1e e9 3d a0 b5 70 bd
       0.05504172 0.16196604 0.11382853 -0.05876696
000190 73 5d 7e 3d f7 4e be 39 8e 57 18 bd 24 40 fb 3d
       0.06210084 0.00036298457 -0.037192874 0.12268093
0001a0 ff 82 f0 3c d1 ce 53 3e 86 07 d1 3d 67 31 22 be
       0.029359339 0.20684363 0.10206513 -0.15839158
0001b0 e1 8a 47 be f5 57 50 bd dd 92 24 be 55 5a 7f 3d
       -0.19486572 -0.050865132 -0.16071649 0.062342007
0001c0 5c 9d d1 bd aa 21 9d bd c2 6b f7 bd 03 ab ad 3d
       -0.10235092 -0.076724365 -0.120811 0.084798835
0001d0 5f 23 88 bc 9e f3 b8 3b a1 aa 84 bd 2d 45 47 be
       -0.016618429 0.005644276 -0.064778574 -0.19459982
0001e0 37 0e b4 bd 26 f7 b4 3d ed 43 27 bd de c3 65 bc
       -0.08791774 0.08836202 -0.040836263 -0.014023749
0001f0 4c 97 e0 3d b1 3f 38 3e e2 b5 15 bd 0b 92 48 3e
       0.109663576 0.17993046 -0.03655041 0.19586961
000200 64 61 03 bd cb 53 3f 3e 34 13 31 3e 7d c4 04 3e
       -0.0320753 0.18684308 0.17292482 0.1296558
000210 83 d5 d6 bd 12 e1 11 be bd ec 2e 3d c0 24 fd bd
       -0.10489943 -0.14246014 0.04270624 -0.12360525
000220 0f f9 cd bd c0 db 82 3c 33 0e 19 3d 15 f0 42 3d
       -0.1005727 0.015973926 0.037367057 0.04759224
000230 42 0f 71 3d 63 a3 24 be 74 d4 17 bd fc 96 5f bc
       0.05885244 -0.16077952 -0.037067845 -0.013646837
000240 81 65 24 3e de 62 e1 bd a4 51 ce bc 18 e5 3b be
       0.16054346 -0.110051855 -0.025185414 -0.18349111
000250 1e 14 6c 3d 01 31 0b be 6d 61 9f 3d a7 0d 29 3d
       0.057636373 -0.13592912 0.07782254 0.041272786
000260 85 6a 4a 3e 25 ea c1 bd a8 c2 43 bd 77 87 20 bd
       0.19767196 -0.09468488 -0.04779306 -0.03919169
000270 74 80 e6 3d 85 a5 9d 3d 15 8b ef 3c ee 8f ba 3d
       0.11254969 0.07697586 0.029241124 0.09109484
000280 f0 e6 d4 bd 81 dc 0f be 79 4b ac bd b2 f0 82 3d
       -0.1039561 -0.1404896 -0.08412833 0.06393565
000290 8f 99 14 3e bb c3 10 3e cc bd da 3c 8d e6 44 bc
       0.14511703 0.14137165 0.02670183 -0.012017858
0002a0 6e 7d 0d 3e d5 31 a2 3d 06 25 08 3d fe 05 af 3d
       0.13817379 0.07919661 0.033238433 0.08546065
0002b0 2b 78 9b 3d 14 1c a0 3b 8c 93 a6 3c 84 6a 4a bc
       0.075912796 0.0048861597 0.020334028 -0.012354497
0002c0 93 5d 69 3d 81 ae 73 bd d5 d1 10 3e 5f 73 af bd
       0.056974005 -0.05949259 0.14142545 -0.08566927
0002d0 80 9f ce bd da a9 46 be e1 4c 0d be 5f d0 b0 3a
       -0.10089016 -0.1940073 -0.13798858 0.0013489834
0002e0 ae 2f 03 3d 84 e2 07 be df ec d6 bd a8 84 50 be
       0.032027893 -0.13270003 -0.10494398 -0.20363104
0002f0 e6 70 eb 3d 8f d5 02 be 9c 71 e1 3d 3a 0b ca 3d
       0.11496143 -0.12776779 0.110079974 0.098654225
000300 d2 cb b0 3d 52 f2 2c 3e a1 7c dd 3d db 81 20 3e
       0.08632626 0.16889313 0.10814787 0.15674536
000310 5f 63 5b bb 46 7f f8 bd 24 48 d7 bd 64 13 0e 3c
       -0.0033475978 -0.121336505 -0.105118066 0.008671615
000320 ab 23 be 3d 18 6e 47 3e 08 bb 46 bd 86 68 e0 3d
       0.09284147 0.19475591 -0.04851821 0.10957436
000330 63 3a b7 bd 0e 58 4d 3d c7 e9 82 bd 97 fd 9a 3d
       -0.08946683 0.050132804 -0.06392246 0.075679
000340 7c 4b 2d be 42 3a 19 be 7d 74 0b bb 39 3a fb 3d
       -0.16923326 -0.1496363 -0.002127915 0.122669645
000350 b9 e8 82 3d 98 01 e3 3d e8 be 36 3e 25 c5 e8 3c
       0.063920446 0.11084288 0.17846262 0.028414318
000360 b9 11 42 3e c5 43 be 3d a7 75 0f be 16 2b 04 3e
       0.18952073 0.0929027 -0.14009725 0.12907061
000370 86 03 a2 bd c8 84 f4 3d d7 ec 13 3d d4 52 d8 3d
       -0.07910828 0.119393885 0.03611454 0.10562673
000380 42 66 03 3e fe 5f c1 bd b5 77 79 bd 74 06 08 3e
       0.12831977 -0.09442137 -0.060905177 0.13283712
000390 5c 99 2b 3b a0 f6 f5 3d 4d f4 10 3e 0d 37 bd 3c
       0.0026183939 0.120099306 0.14155693 0.02309754
0003a0 b3 e1 ef bd 9e a3 64 3d 8a c4 9f bd 7d a0 b9 3d
       -0.117129706 0.0558201 -0.07801159 0.09063814
0003b0 88 b7 e2 3d dc a8 db 3c 34 7b f7 bd 82 e1 10 bb
       0.11070162 0.026813917 -0.12084046 -0.002210707
0003c0 13 4b 50 be 54 18 0f 3c 54 94 3f 3e be 65 e1 3d
       -0.20341139 0.008733828 0.18708926 0.11005734
0003d0 23 1f b4 bd 99 7a 02 be ab 0e 77 3d e1 ca eb bd
       -0.08795001 -0.1274208 0.060316723 -0.115133055
0003e0 28 bc ad 3d 10 f4 23 bd 94 2b c5 bd 64 6e 74 bd
       0.084831536 -0.040027678 -0.096274525 -0.05967559
0003f0 89 ad aa bc 2e b3 13 3c 63 43 c8 3d 00 0b 40 3e
       -0.020834701 0.009014888 0.09778478 0.18754196

bias_ih_l0 f4 [128]
000000 e6 a7 93 be 5c 15 0f be 3e 7e cc be 7b af ed bd
       -0.28839034 -0.13972992 -0.39940065 -0.11605736
000010 84 b9 6b bd 54 ff 0e be 6e b1 88 be e1 1c f6 be
       -0.05754997 -0.13964587 -0.26697868 -0.48068908
000020 5e d9 ab be e0 0f 4d be 84 67 ad bd 55 26 b3 bd
       -0.33564276 -0.20025587 -0.0846701 -0.08747546
000030 fc f6 0c be 50 5e d1 be fe 27 c0 be a1 fb 54 be
       -0.13766092 -0.40892267 -0.37530512 -0.20799114
000040 ff bd 4e be 73 11 d8 be 5d 7c 8a bb 6f 56 8b be
       -0.20189665 -0.42200813 -0.004226251 -0.2721438
000050 bf 02 80 be 25 0a 87 be 14 91 bf bd e2 04 73 be
       -0.25002095 -0.26374927 -0.09353843 -0.23732331
000060 e4 f3 ad be e6 fb a6 be 45 6b 4f be 22 7e 1d be
       -0.33975136 -0.32614058 -0.20255764 -0.15380147
000070 eb 91 ae be 73 d2 15 be 48 64 29 be 7f fb b3 bd
       -0.34095702 -0.14631061 -0.1654216 -0.087882034
000080 66 b9 f7 bd bd 56 41 3d 30 d5 3b bd 07 24 30 be
       -0.12095909 0.04720186 -0.04585761 -0.17201243
000090 3e c2 a1 bd ba 29 1d be 76 6e 06 bd 88 a7 c6 bd
       -0.07898377 -0.15347949 -0.032820188 -0.09699923
0000a0 fd 81 70 3c ff ca 98 3d 25 8d 95 bc 68 18 83 be
       0.014679429 0.074605934 -0.01825578 -0.25604558
0000b0 44 cd 62 be 56 af 86 be 23 0c 96 be 83 74 12 be
       -0.22148615 -0.26305646 -0.29306135 -0.14302258
0000c0 2d 08 67 3d 08 29 c0 be dd c5 6c bd e7 ae 40 be
       0.05640428 -0.37531304 -0.057805885 -0.1881672
0000d0 f0 95 31 be 4c b2 bd bd e4 28 35 be d2 8d 96 3c
       -0.17342353 -0.09262523 -0.1769138 0.018378172
0000e0 50 97 e6 bd 3d 72 e1 bd 23 6f 2f 3d 86 9c 3d 3c
       -0.11259329 -0.11008117 0.042830598 0.011572963
0000f0 b7 83 4c bd 4f 54 42 bd b5 cd 6f bd 4c 3f 74 be
       -0.0499303 -0.047443684 -0.058545787 -0.23852271
000100 15 f9 50 3d 05 91 b8 bd 44 20 8f 3d bc 08 15 be
       0.051018793 -0.09012035 0.06988576 -0.14554113
000110 d4 21 6b 3d e6 ec 86 bd df f3 b8 bd ad 74 4c bd
       0.057405308 -0.065881535 -0.0903089 -0.04991596
000120 63 c0 fd 3d 62 c8 0f be 63 fb de 3d 10 ce 01 be
       0.123902105 -0.14041284 0.10887792 -0.12676263
000130 80 3d 16 be 68 87 24 3d 1d 13 84 bd bc 5b 3e bd
       -0.14671898 0.040168196 -0.06448958 -0.046474203
000140 03 77 13 3e 2d fa 86 3d c2 70 2a be c8 bb 80 3d
       0.14400868 0.06590686 -0.16644576 0.062858164
000150 ea 3f 90 bd 91 b2 97 3d bc 59 b0 bd c6 6c e6 3d
       -0.07043441 0.07407106 -0.086108655 0.11251216
000160 f6 2f 03 be cf 58 c4 3c 0c 63 82 3d 87 25 ca 3d
       -0.12811264 0.023968128 0.06366548 0.09870439
000170 41 07 67 bd 84 57 3e bd e4 2f 8b 3c 1a c7 11 3d
       -0.056403402 -0.04647018 0.01699061 0.03559027
000180 71 f8 50 be 7a c9 27 bc df c5 a1 be 15 a2 59 be
       -0.20407273 -0.010240907 -0.31596276 -0.21253236
000190 c2 37 41 be 95 48 4f be a4 41 19 be b3 15 49 be
       -0.18868926 -0.20242532 -0.14966446 -0.19637184
0001a0 5d 34 d5 bd f3 f5 88 be 52 50 56 bb f5 a0 04 be
       -0.10410378 -0.26750144 -0.0032701683 -0.12952025
0001b0 63 e0 79 be e3 d1 aa be b5 c0 10 be 93 4e aa bd
       -0.24402003 -0.33363256 -0.14136012 -0.08315768
0001c0 76 c4 58 be b1 f9 45 be 99 48 0e bc 24 0c a5 bd
       -0.21168694 -0.19333531 -0.008684301 -0.08058956
0001d0 bf ab 5a bd 23 97 95 be 33 fe 4e be 9e 4e 79 be
       -0.053386446 -0.2921687 -0.20214157 -0.24346396
0001e0 42 f0 c6 be 58 9a 0c be c6 49 a0 bd e3 4f 62 bd
       -0.38855177 -0.13730752 -0.07826571 -0.055251967
0001f0 d1 4a 2b be 2e 7f 5e be 69 63 2f be 41 19 14 3d
       -0.16727759 -0.21728203 -0.17127766 0.036156897

bias_hh_l0 f4 [128]
000000 a3 a3 c7 be 05 87 56 be 64 cf 86 bd f6 50 c2 be
       -0.38992032 -0.20949943 -0.06582525 -0.37952393
000010 7b 44 48 be 72 ed d8 be d9 24 3e be 82 09 8b be
       -0.19557373 -0.42368656 -0.18568744 -0.2715569
000020 93 c9 4e be 7f 77 57 bc cf 1a 24 be 7d 8c 1b be
       -0.20194082 -0.013151049 -0.16025852 -0.15190311
000030 df 61 5e be 45 24 24 be 68 f6 b3 bd 11 0e b6 be
       -0.21717022 -0.1602946 -0.08787233 -0.35557607
000040 f2 4d 4a 3d 90 69 53 be 56 a6 84 be 15 39 38 bd
       0.04939074 -0.20645738 -0.25908154 -0.044976313
000050 5e a0 a6 bd 6b 48 69 be 27 4a 83 be 95 d9 5b be
       -0.08136056 -0.22781532 -0.2564251 -0.2146972
000060 c0 62 c2 be 2b c5 62 be 0b 54 ac be ed 57 92 be
       -0.37965965 -0.22145526 -0.3365787 -0.28582707
000070 e5 c3 a1 be 81 7b ad 3c 0d c1 bc bd 72 a3 89 be
       -0.31594768 0.021177055 -0.09216509 -0.2688251
000080 fc 7e ab be 60 12 18 be 4d d2 b7 be bf e0 1b be
       -0.3349532 -0.1485076 -0.35902634 -0.15222453
000090 93 6d 62 bd 33 c9 a8 be 21 12 93 bc 47 16 b6 be
       -0.05528028 -0.32966003 -0.01795298 -0.3556387
0000a0 48 5f 00 be 45 b9 64 bd d4 71 c8 3c cf 27 0b be
       -0.12536347 -0.05584075 0.02446834 -0.13589405
0000b0 3b ac 9d be aa c7 81 bd c0 d6 07 be 12 6b b7 bd
       -0.30795464 -0.06336911 -0.13265514 -0.08955969
0000c0 07 d4 42 be 08 67 7c be 73 8d 82 be 0c 7a 1e 3d
       -0.19026195 -0.24648678 -0.25498542 0.03869061
0000d0 49 9a 8b be eb e5 96 be 38 f0 ca bd 66 7c 31 be
       -0.27266148 -0.29472288 -0.09909099 -0.1733261
0000e0 ba b1 a1 be 9b 8b 4b be 00 11 2e be 43 db 50 be
       -0.31580907 -0.19877474 -0.16998672 -0.20396142
0000f0 9e c5 6b be fe c7 72 be 1f 6e 39 be 5e 22 26 be
       -0.23024604 -0.23709103 -0.18108414 -0.16224048
000100 d0 07 c6 bc ef a2 a9 bd 33 43 e4 ba fd d6 4c 3d
       -0.024173647 -0.0828303 -0.0017415046 0.050009716
000110 ae ff 13 3d d9 f4 01 bb 7e 03 04 bd 25 40 a0 3d
       0.036132507 -0.0019829778 -0.032229893 0.078247346
000120 29 02 1e bd e7 fa 0b 3e ef 8d 3b 3d f2 7c 02 3e
       -0.03857628 0.1366993 0.045789655 0.12742975
000130 34 b0 de 3d b4 3b 13 bd e8 a7 eb 3d f3 3f b9 bd
       0.10873452 -0.03594561 0.11506635 -0.090454005
000140 cb 5f 10 be 52 0a bd bd b8 5c 06 3d c9 7c d4 3b
       -0.14099042 -0.09230484 0.032803267 0.006484602
000150 b1 17 b0 3d b8 f2 8a 3c 11 8c e4 bd ce aa c4 bd
       0.08598269 0.01696144 -0.11159528 -0.09602891
000160 bc 80 85 3c e2 fd 62 3d 64 46 37 3d 59 01 89 3d
       0.016296737 0.055417903 0.044744864 0.0668971
000170 68 7e b1 bc d7 90 9d 3d a8 3d 54 bd 1d 72 c8 bd
       -0.02166672 0.07693642 -0.051816612 -0.097873904
000180 59 a8 d5 be 3f 31 93 3b 08 44 1c be da 13 61 be
       -0.41730002 0.0044919546 -0.15260327 -0.21980229
000190 01 a4 8a bd 47 a4 56 be d3 0c 9e 3c a1 2d 05 bf
       -0.067695625 -0.20961104 0.019293224 -0.5202275
0001a0 fc ae aa be a9 ff 5a bd 7c 3d 31 be f1 20 07 be
       -0.33336627 -0.053466473 -0.1730861 -0.1319616
0001b0 1b ab 99 be 05 e1 2d be 82 20 94 be 86 ee 41 be
       -0.30013356 -0.1698037 -0.28931051 -0.18938646
0001c0 3a 46 56 be df 1b 82 be ae 2c da bd 36 58 6d be
       -0.20925227 -0.2541189 -0.10653053 -0.23178181
0001d0 46 26 b6 be 22 39 f5 bd d0 e4 06 be d7 8f 26 be
       -0.35576075 -0.11973788 -0.13173223 -0.16265808
0001e0 df 76 3c be b1 ef 87 be 7e 5a 5d be ed 6d d9 ba
       -0.1840472 -0.26550058 -0.21616551 -0.0016588547
0001f0 96 7a 69 be 6a e2 6f be a4 46 bc bd 24 4b 17 be
       -0.22800669 -0.23426214 -0.09193161 -0.14774758
