experiments/pedestrians/models/06_Aug_2023_21_23_08/model_registrar-54.pt (torch, 713991 bytes, 82 tensors)

weight f4 [64, 10]
-0.021995015 -0.011154371 0.15693916 0.027927492 -0.7063858 0.87509245 0.014261324 -0.24656384
-0.16267517 0.11917779 0.06714545 0.28136274 0.37429687 0.044253744 -0.23054662 -0.15338953
-0.2926911 -0.37589872 -0.117320165 0.085516974 0.0096029835 0.07605121 -0.06447186 0.5174335
-0.08330637 -0.027521383 -0.27218452 -0.03486211 -0.0032013175 -0.16154085 0.006480719 0.028412793
-0.037589226 -0.063517824 -0.6229045 0.74745536 -0.26260266 -0.20110734 -0.024203114 -0.24310564
0.034064144 -0.048756532 0.07190821 0.120258406 0.5995263 0.43574697 0.28438452 0.1650536
-0.2459296 0.17636201 -0.005986795 0.054167755 0.37957618 -0.18532294 0.010495171 0.41897073
0.17603397 -0.00783129 -0.055286914 0.07884021 -0.048864525 0.18746139 0.44863436 0.030436598
0.51282 -0.4914743 -0.25870788 0.2711921 0.3130397 0.23115186 -0.033105914 -0.14319673
0.053988595 -0.35902804 -0.69843686 -0.36127385 0.38288602 0.0068243756 0.030409582 0.019784842
0.13469556 0.07629944 -0.3948959 0.007044239 -0.67446214 -0.18593207 -0.15625846 -0.18018824
0.22234175 0.09396083 -0.031862494 0.1470833 0.49730098 0.31041518 0.047107395 0.38969097
0.1378627 -0.24464473 0.28723687 0.2590267 -0.2033506 0.093408294 0.28039837 0.23639025
-0.24748085 -0.015098114 -0.120331235 0.13371558 0.233152 -0.25379953 0.014629054 -0.05363531
0.56214684 0.017800564 -0.7973415 -0.86664194 0.1279158 0.4371065 -0.09084039 -0.030730832
-0.14497189 0.14919749 0.34325567 0.13284862 0.1639756 0.25405592 0.22211115 -0.060879543
0.059831742 -0.16194056 -0.008091804 0.13082261 0.0077076266 -0.6395244 -0.048896905 0.023780428
-0.04280167 -0.30847773 -0.17770843 -0.33768782 0.061211996 -0.14063512 -0.33285296 0.3560849
-0.18987353 -0.011078769 0.32219088 0.0970287 0.062867746 0.4302281 0.018305082 0.024148658
0.037880912 -0.33335713 0.40528324 -0.7727877 -0.2348734 0.16102828 -0.21798448 0.09882189
-0.20417422 0.24680959 -0.015446161 0.05997829 -0.8201456 -0.13515502 0.048404064 0.22068563
-0.027390182 0.38050267 0.28531745 0.38077745 0.16884883 0.34749544 -0.16083209 0.75081587
0.024249922 0.029865466 -0.042074263 0.12731665 0.029614594 0.1479062 0.65482104 -0.227392
-0.11643152 0.15866455 0.25702846 0.0073511642 0.17801811 0.28360158 0.27719492 0.17400523
-0.45001408 -0.08715745 -0.5623516 -0.17278723 0.09810635 0.1506276 -0.21693029 0.24577019
-0.0045091235 0.04656647 -0.24500285 0.23235744 0.35930273 -0.6190384 -0.012958065 -0.15063293
0.21845205 -0.10737249 -0.23179816 -0.028253794 0.019576216 0.034103774 0.58655983 0.946516
0.3801718 0.18745081 0.22252958 -0.0015587324 -0.0051362123 0.262595 -0.2453294 0.068725035
0.4537597 0.4270597 0.22410357 0.24827443 0.08979355 -0.1647462 -0.004768291 -0.21062878
-0.13972203 0.5092702 -0.07922621 -0.4745371 -0.1409472 0.054888766 -0.14352861 0.11555693
0.096667476 -0.2613374 0.11714072 -0.2287778 0.36847696 0.42403218 -0.031966276 -0.38540238
-0.124168694 -0.36154336 -0.13192742 -0.11516942 0.20380731 0.46460158 -0.20790863 -0.47799504
00000000: e42e b4bc d3c0 36bc a9b4 203e 32c8 e43c
00000010: b3d5 34bf 0f06 603f 54a8 693c 3b7b 7cbe
00000020: 5294 26be 7c13 f43d 8e83 893d c70e 903e
00000030: d7a3 bf3e 6a43 353d 6a14 6cbe 2512 1dbe
00000040: 9cdb 95be cc75 c0be 8e45 f0bd 8623 af3d
00000050: d555 1d3c bdc0 9b3d d309 84bd 8676 043f
00000060: 889c aabd 8674 e1bc c55b 8bbe 92cb 0ebd
00000070: 32cd 51bb f76a 25be 365c d43b f2c1 e83c
00000080: 29f7 19bd a215 82bd ab76 1fbf 3c59 3f3f
00000090: db73 86be 15ef 4dbe 9c45 c6bc aff0 78be
000000a0: d886 0b3d eeb4 47bd 9d44 933d 0a4a f63d
000000b0: 8e7a 193f 3a1a df3e d99a 913e d003 293e
000000c0: f8d4 7bbe 3e98 343e e02c c4bb 02df 5d3d
000000d0: cf57 c23e 4cc5 3dbe f0f3 2b3c 5583 d63e
000000e0: 4042 343e d04e 00bc 8874 62bd fa76 a13d
000000f0: 2b26 48bd e1f5 3f3e 67b3 e53e 2c56 f93c
00000100: 2c48 033f 85a2 fbbe 5c75 84be b1d9 8a3e
00000110: bd46 a03e 13b3 6c3e 119a 07bd 2aa2 12be
00000120: 2523 5d3d 86d2 b7be c2cc 32bf e3f8 b8be
00000130: a309 c43e 039f df3b 841d f93c d213 a23c
00000140: a2ed 093e e142 9c3d cc2f cabe 5cd3 e63b
00000150: 8da9 2cbf fa64 3ebe 3802 20be 4483 38be
00000160: 8ead 633e 896e c03d 3f82 02bd 019d 163e
00000170: 3c9e fe3e bdee 9e3e aff3 403d 9385 c73e
00000180: e12b 0d3e 2684 7abe b610 933e 269f 843e
00000190: 243b 50be d94c bf3d 6090 8f3e 4910 723e
000001a0: 9f6b 7dbe 145e 77bc 3970 f6bd bdec 083e
000001b0: 66bf 6e3e 03f2 81be b3ae 6f3c b3b0 5bbd
000001c0: dbe8 0f3f 7dd2 913c 931e 4cbf 3fdc 5dbf
000001d0: 5cfc 023e 6ccc df3e 870a babd 3abf fbbc
000001e0: 8373 14be 3ac7 183e 35bf af3e 7809 083e
000001f0: 38e9 273e 9e13 823e 1b71 633e d45c 79bd
00000200: 2112 753d bfd3 25be 7c93 04bc 5df6 053e
00000210: 4290 fc3b dfb7 23bf 1f48 48bd 2ccf c23c
00000220: ce50 2fbd cbf0 9dbe 33f9 35be 6be5 acbe
00000230: 6eb9 7a3d a702 10be b46b aabe c350 b63e
00000240: 356e 42be ba83 35bc 34f6 a43e fcb6 c63d
00000250: cec0 803d dc46 dc3e 8af4 953c 68d3 c53c
00000260: 0429 1b3d c9ad aabe 4981 cf3e 6ad5 45bf
00000270: a782 70be 99e4 243e 5337 5fbe 2263 ca3d
00000280: 0c13 51be a7bb 7c3e e511 7dbc ccab 753d
00000290: 10f5 51bf 1466 0abe 5743 463d 6afb 613e
000002a0: 6061 e0bc 3fd1 c23e 2115 923e 43f5 c23e
000002b0: b5e6 2c3e ecea b13e 2bb1 24be 7835 403f
000002c0: c6a7 c63c 6ca8 f43c 1056 2cbd 4c5f 023e
000002d0: 4e9a f23c b974 173e 5aa2 273f 73d9 68be
000002e0: a673 eebd f678 223e 3c99 833e 09e2 f03b
000002f0: 614a 363e 3a34 913e 7eec 8d3e 6d2e 323e
00000300: 3f68 e6be 9b7f b2bd 46f6 0fbf 23ef 30be
00000310: fbeb c83d 1f3e 1a3e f922 5ebe 2eab 7b3e
00000320: 45c1 93bb 7cbc 3e3d 07e2 7abe 1cef 6d3e
00000330: 87f6 b73e 4d79 1ebf 104e 54bc 853f 1abe
00000340: e5b1 5f3e 1ce6 dbbd 7f5c 6dbe 8074 e7bc
00000350: 4d5e a03c 66b0 0b3d c928 163f df4e 723f
00000360: e1a5 c23e 1bf3 3f3e cbde 633e 614e ccba
00000370: ac4d a8bb da72 863e a137 7bbe b6bf 8c3d
00000380: 3153 e83e 92a7 da3e 687b 653e a73b 7e3e
00000390: aee5 b73d 3ab3 28be 533f 9cbb 12af 57be
000003a0: 4b13 0fbe 885f 023f 5a41 a2bd 87f6 f2be
000003b0: 7654 10be 0bd3 603d 2af9 12be 1da9 ec3d
000003c0: 99f9 c53d 04ce 85be 79e7 ef3d ba44 6abe
000003d0: 03a9 bc3e bf1a d93e 12ef 02bd 7653 c5be
000003e0: 284c febd 361c b9be fb17 07be f2dd ebbd
000003f0: ddb2 503e 42e0 ed3e 00e6 54be c4bb f4be

bias f4 [64]
-0.20122525 -0.10839758 -0.2499127 0.29852614 0.13686498 0.28735483 -0.27381718 -0.009128498
0.07350615 0.23021938 -0.0258526 0.47319186 -0.10421605 0.040939298 -0.030384574 -0.051320463
-0.109217435 -0.22250064 0.24154595 0.14172782 -0.081842914 0.17205591 0.16418988 -0.14321315
-0.18820454 0.102748275 0.017954528 -0.15169087 -0.30318224 0.033958986 0.15948403 -0.2766657
-0.1411751 0.11199219 -0.3074696 0.2601964 0.20940414 -0.11225618 -0.13471988 0.102509305
-0.17140414 0.29156953 0.003289383 -0.10442532 -0.21255563 0.10129954 -0.15061028 -0.27728015
0.13610825 -0.13961664 0.011377816 0.2290296 -0.35268915 -0.34966284 -0.44179302 0.108542584
0.018953597 0.25327256 0.2070678 0.3700943 -0.3267902 0.13527869 0.3510183 -0.13211747
00000000: fe0d 4ebe 8dff ddbd 1de9 7fbe 6bd8 983e
00000010: 5526 0c3e 2c20 933e c431 8cbe b28f 15bc
00000020: 648a 963d a1be 6b3e d5c8 d3bc 3446 f23e
00000030: 396f d5bd f7af 273d 12e9 f8bc 6835 52bd
00000040: 64ad dfbd 35d7 63be d257 773e 1921 113e
00000050: 429d a7bd 6d2f 303e 6421 283e 78a6 12be
00000060: b1b8 40be b06d d23d 6015 933c da54 1bbe
00000070: b43a 9bbe 9418 0b3d c84f 233e 20a7 8dbe
00000080: 3590 10be 295c e53d a86c 9dbe 7638 853e
00000090: 0a6e 563e 91e6 e5bd 02f4 09be 66f0 d13d
000000a0: 9184 2fbe 9a48 953e b092 573b f1dc d5bd
000000b0: 2fa8 59be 2276 cf3d 9539 1abe aaf7 8dbe
000000c0: f65f 0b3e aaf7 0ebe 056a 3a3c bc86 6a3e
000000d0: ac93 b4be 0207 b3be b232 e2be 934b de3d
000000e0: 9344 9b3c f1ac 813e 9509 543e 007d bd3e
000000f0: 0c51 a7be 7f86 0a3e acb8 b33e cd49 07be

weight f4 [32, 32]
-0.10926226 -0.20084932 0.21008046 0.0030902126 -0.14152546 0.013081519 -0.066340104 0.077548265
-0.15131325 -0.54646313 0.10033586 0.05768398 -0.019529298 0.19640936 -0.1990939 0.27224526
0.017709022 0.28314546 0.19047828 0.34158605 -0.30222562 0.19663656 0.009138742 -0.48930603
-0.055329647 0.12324786 0.15879332 0.13013889 0.15928109 0.10475998 -0.06903374 0.31407714
0.15232728 -0.034784824 -0.55786175 0.05988721 -0.19577122 0.066824555 0.15975642 -0.065830775
-0.3361092 -0.33883396 -0.29014045 -0.30356243 0.32138357 -0.035553645 -0.047540385 -0.10543912
0.013621149 0.19828317 0.23269805 0.45495936 0.18270352 -0.10241999 0.0045026587 0.059933867
0.08729423 -0.0245293 0.14616315 0.16582765 -0.20767541 -0.30987385 0.21160717 -0.10661224
0.29736277 -0.20591941 0.15354697 -0.62443715 -0.2411851 0.03616373 -0.20993952 -0.21197806
-0.18106838 0.22659558 0.17441562 -0.10793412 -0.3985409 0.3702743 -0.3812392 0.018768277
0.0627745 0.40717164 0.384091 -0.51005626 -0.0895548 0.077472575 -0.14690442 -0.33674428
-0.09582379 -0.08979807 0.032669917 -0.092900954 0.22124922 -0.25310835 -0.26871544 -0.04880117
0.29754192 -0.20984031 0.15948972 0.16397835 -0.110708274 0.1864025 0.35319763 -0.2212399
-0.19414438 0.2624111 0.10187252 -0.1424277 0.36360252 -0.15852657 -0.055390675 -0.029712994
-0.25678715 0.032888867 -0.15992348 0.2731044 -0.032049585 0.037402328 0.17037392 0.056994244
-0.062354915 0.011645502 0.06664601 0.34172907 -0.112044446 -0.013487335 0.23508602 0.064669356
-0.34310368 -0.040248733 0.19985647 -0.08321088 0.18985324 -0.10005496 0.09726794 0.27764586
0.07809106 -0.2815177 0.11748677 0.19485758 -0.13861416 0.08934556 0.033087138 0.06093437
-0.06973383 -0.021878527 0.0881548 0.29581884 0.1894289 -0.34184155 0.15604839 0.16235684
0.17550051 0.36692366 0.022750592 -0.21751967 0.08670661 0.37321883 0.040098 -0.15638956
0.46361864 -0.05109054 0.0010430505 -0.48116195 -0.03149439 0.23187505 -0.026043717 -0.13468426
-0.017130738 0.13134536 0.13056959 0.09295062 -0.12715185 0.15849523 -0.24060977 -0.10837608
-0.09077566 -0.13586862 0.1208964 -0.37630126 -0.12740596 0.10984922 -0.22821298 -0.0028875526
-0.1747975 0.2826765 0.028681036 0.04611877 -0.0956884 -0.29955977 -0.056610804 0.03763775
-0.18752295 0.0145884985 0.10225825 0.044781644 0.015420022 -0.12151725 0.52152306 0.29128194
0.099986434 0.17079665 0.05690956 0.3584652 -0.20427695 -0.181992 0.22618859 -0.14731446
-0.071257405 -0.27773577 -0.25796565 0.08145867 0.049681257 -0.34746975 0.36382416 0.4558879
0.19703017 0.1968688 0.06370828 -0.1264984 -0.10403779 -0.0009569534 0.09097199 -0.08546437
0.18263859 -0.032169823 0.13178024 -0.2843586 0.08061654 0.24908426 0.30325678 0.18071924
-0.12040509 0.0062896647 -0.104639456 0.19931749 0.28760335 0.12141969 -0.036490213 0.2670712
0.08157392 0.17108272 0.025963187 0.48269045 0.1440364 0.065804236 0.09627268 -0.04802835
0.15673544 0.11064214 0.07968115 0.21247594 0.02782016 -0.08299216 0.17060176 -0.09128573
00000000: e4c4 dfbd 72ab 4dbe 551f 573e 2a85 4a3b
00000010: 0dec 10be de53 563c 52dd 87bd a0d1 9e3d
00000020: dcf1 1abe 02e5 0bbf e37c cd3d 0946 6c3d
00000030: e8fb 9fbc 891f 493e 45df 4bbe bb63 8b3e
00000040: 8312 913c 71f8 903e bd0c 433e 5ee4 ae3e
00000050: 51bd 9abe 185b 493e aaba 153c 5286 fabe
00000060: 57a1 62bd 6069 fc3d b79a 223e 2143 053e
00000070: 951a 233e 678c d63d 9061 8dbd b8ce a03e
00000080: affb 1b3e 887a 0ebd 07d0 0ebf 4b4c 753d
00000090: 4078 48be 50db 883d 3097 233e 49d2 86bd
000000a0: 8116 acbe a57b adbe 4a8d 94be 896c 9bbe
000000b0: 638c a43e b3a0 11bd b5b9 42bd 77f0 d7bd
000000c0: 3d2b 5f3c be0a 4b3e 6648 6e3e 6ff0 e83e
000000d0: a216 3b3e 92c1 d1bd 0a8b 933b 377d 753d
000000e0: 51c7 b23d acf1 c8bc cbab 153e b9ce 293e
000000f0: dda8 54be c9a7 9ebe 8daf 583e 8557 dabd
00000100: ef3f 983e 8adc 52be 6b3b 1d3e 1ddb 1fbf
00000110: 3af9 76be 6b20 143d 63fa 56be c710 59be
00000120: fd69 39be ac08 683e 029a 323e 900c ddbd
00000130: 8e0d ccbe 9894 bd3e c931 c3be eebf 993c
00000140: eb8f 803d cd78 d03e 93a7 c43e 0c93 02bf
00000150: 8268 b7bd f1a9 9e3d 1d6e 16be bf69 acbe
00000160: 433f c4bd 0de8 b7bd e4d0 053d db42 bebd
00000170: 288f 623e 6b97 81be 1295 89be bce3 47bd
00000180: 6a57 983e 61e0 56be 4651 233e f1e9 273e
00000190: 05bb e2bd 4ce0 3e3e 52d6 b43e b68c 62be
000001a0: c9cd 46be bf5a 863e 8aa2 d03d 91d8 11be
000001b0: 1c2a ba3e ca54 22be 55e1 62bd aa68 f3bc
000001c0: 9b79 83be 7ab6 063d fbc2 23be 57d4 8b3e
000001d0: 6d46 03bd 2f33 193d 8076 2e3e cc72 693d
000001e0: de67 7fbd c7cc 3e3c b47d 883d 1df7 ae3e
000001f0: 8f77 e5bd fcf9 5cbc 64ba 703e 5e71 843d
00000200: 49ab afbe dbdb 24bd 2da7 4c3e 776a aabd
00000210: e368 423e 9de9 ccbd 6a34 c73d 9927 8e3e
00000220: 35ee 9f3d 1723 90be e79c f03d bf88 473e
00000230: dff0 0dbe cefa b63d 6186 073d 5196 793d
00000240: 9cd0 8ebd 993a b3bc 818a b43d 9175 973e
00000250: a6f9 413e db05 afbe 26cb 1f3e df40 263e
00000260: 68b6 333e 6bdd bb3e 735f ba3c 7abd 5ebe
00000270: 3c93 b13d 8a16 bf3e cd3d 243d 9624 20be
00000280: 6c5f ed3e 5044 51bd f8b6 883a dc5a f6be
00000290: 4300 01bd a770 6d3e a259 d5bc acea 09be
000002a0: c355 8cbc 667f 063e 09b4 053e e55c be3d
000002b0: 1834 02be 934c 223e 6862 76be 47f4 ddbd
000002c0: 97e8 b9bd 2521 0bbe 8898 f73d 8faa c0be
000002d0: b576 02be a1f8 e03d aab0 69be 183d 3dbb
000002e0: 1efe 32be f9ba 903e 7ef4 ea3c 09e7 3c3d
000002f0: 48f8 c3bd e65f 99be bbe0 67bd 0b2a 1a3d
00000300: 0406 40be 9904 6f3c c66c d13d f56c 373d
00000310: 43a4 7c3c 09de f8bd 8982 053f e822 953e
00000320: b0c5 cc3d 51e5 2e3e 001a 693d c088 b73e
00000330: fa2d 51be 1c5c 3abe fb9d 673e 9ad9 16be
00000340: 67ef 91bd 6233 8ebe 1314 84be ced3 a63d
00000350: 937e 4b3d 8ee7 b1be 2947 ba3e 246a e93e
00000360: 47c2 493e fa97 493e 7d79 823d cc88 01be
00000370: c411 d5bd 0edc 7aba 864f ba3d f207 afbd
00000380: 9c05 3b3e 81c4 03bd 66f1 063e 7397 91be
00000390: 491a a53d f20f 7f3e 7944 9b3e 770e 393e
000003a0: f296 f6bd 8819 ce3b 364d d6bd e219 4c3e
000003b0: bf40 933e e3aa f83d c376 15bd 8ebd 883e
000003c0: 3a10 a73d 4f30 2f3e c0b0 d43c 3423 f73e
000003d0: 477e 133e 5fc4 863d 9c2a c53d 60b9 44bd
000003e0: 417f 203e 5998 e23d df2f a33d 4b93 593e
000003f0: 1be7 e33c cbf7 a9bd 3ab2 2e3e 03f4 babd

bias f4 [32]
-0.14967605 -0.07560834 0.22468211 -0.066841185 -0.21697855 0.12560946 0.05486554 0.15535939
0.10148809 -0.029410632 0.120912306 0.15698831 -0.0942206 -0.0012082525 -0.036462776 0.15890057
-0.18371245 0.104601525 0.066470064 -0.03739878 0.15975326 -0.13956879 -0.09648873 0.07546676
-0.09686381 0.055748254 -0.18161525 -0.2491797 -0.19062223 -0.1903357 -0.036811832 -0.02000275
00000000: ae44 19be 8cd8 9abd 1113 663e 08e4 88bd
00000010: a02f 5ebe c49f 003e b0ba 603d 8816 1f3e
00000020: fdd8 cf3d 91ee f0bc dfa0 f73d 8bc1 203e
00000030: bbf6 c0bd 3a5e 9eba fe59 15bd d5b6 223e
00000040: 1e1f 3cbe 5339 d63d 7521 883d 772f 19bd
00000050: 5c96 233e 1feb 0ebe e29b c5bd 518e 9a3d
00000060: 8960 c6bd 4858 643d 59f9 39be f728 7fbe
00000070: 7932 43be 5de7 42be 01c8 16bd cfdc a3bc

weight f4 [32, 64]
-0.050972015 0.0041405708 -0.06208232 0.047139198 -0.106506884 0.09163049 -0.09085503 -0.09938024
-0.078985885 0.056611687 -0.04618652 0.046776667 -0.10609117 -0.07584046 -0.045897007 -0.024564967
-0.095357925 0.081848845 -0.029478893 0.040123463 0.08839294 0.02328825 0.03418134 0.12065734
-0.056376174 0.039593905 -0.055614516 0.08933121 0.09983206 -0.115246534 0.106705725 0.0596893
0.05447088 0.051459357 0.10391238 -0.016504943 -0.10571231 -0.035868615 -0.08803433 0.008263335
-0.023338437 -0.06704812 -0.011365175 0.11842547 -0.009859428 0.0039687604 -0.01949507 0.019650877
0.11137658 0.07643661 0.04437019 0.027163818 0.02947411 0.048291653 -0.016152933 -0.1161761
-0.07730149 0.106698215 0.0074716806 -0.10125919 0.019715935 0.10328396 -0.11812496 -0.08415492
-0.0497832 0.005017191 -0.029153675 -0.013736397 -0.121861264 0.05853489 0.109717906 0.076404795
-0.08851655 -0.10076292 0.05190654 0.0028073192 0.051241368 -0.122143924 -0.0074528754 0.08815546
0.057988927 0.0045646727 0.02457738 -0.011835009 -0.06872919 -0.04723741 -0.07612246 0.10382615
0.06878583 0.043715328 -0.09585656 0.09645273 0.03919284 0.08647433 -0.049173757 0.026499614
0.1220478 0.084082395 0.10024959 -0.026248097 0.09523465 -0.09790403 0.01081112 -0.070381865
-0.029151902 -0.03201218 0.009352386 0.11376746 0.06188549 -0.00052952766 0.08873069 -0.06405695
0.06442143 -0.0115915835 -0.02175136 0.014634177 -0.09576209 0.014444664 0.042029753 0.106866464
-0.038917884 0.045003444 0.12493901 -0.05362113 0.11882405 -0.062061504 0.055099368 0.048968762
0.034916013 0.098850384 -0.050520554 0.03285238 0.00070151687 -0.0940177 -0.030351743 -0.083477885
0.05526942 0.011236995 0.012245581 -0.03792134 0.00060106814 -0.038880393 0.035917014 0.121396214
0.018933818 -0.055364788 -0.076353505 0.009554878 -0.092730775 -0.09395628 -0.081359625 -0.0424556
0.009252191 0.08607645 0.04841742 0.095764846 -0.07848717 0.010548517 -0.11111009 0.071707144
0.026051238 0.12090184 -0.08890152 0.10024123 0.10552831 0.1010647 0.017836854 0.11365992
0.083479375 0.093259916 -0.008120105 -0.095924765 -0.0015555024 0.023442283 -0.08514613 -0.071704894
-0.119843304 -0.04381843 0.10888356 0.021374509 -0.0076350123 0.005019754 0.077943206 -0.110382944
-0.096448705 -0.041558802 -0.07193977 0.06447314 0.08832294 -0.12127823 -0.10608496 -0.12172723
0.04715681 0.100606814 -0.09691751 -0.057869554 0.039777577 -0.08162317 0.106184945 0.029145151
-0.03479795 0.008118823 0.038971066 -0.044201642 -0.09685698 0.000840202 0.0022768676 0.0025206506
-0.018241286 0.08025919 -0.034882396 -0.012099087 0.051398456 -0.078679666 0.033469826 -0.027639464
0.059959188 -0.06780805 0.004619792 0.012228668 -0.10057457 -0.09089278 0.047939166 -0.036382064
0.07423708 -0.12348282 -0.061791077 -0.10295774 0.049933925 -0.0036239177 -0.023315176 -0.020796418
-0.09770611 0.03544937 0.0031157285 -0.08626412 0.047035962 -0.0025123805 -0.12089345 0.06724003
0.066860884 -0.02355127 -0.08630477 0.005018756 0.09432247 0.11441748 -0.09435013 -0.056458622
0.09732805 0.06109728 0.07737662 -0.06221679 0.10769181 -0.10275824 -0.006021112 0.002595365
00000000: 08c8 50bd a0ad 873b 084a 7ebd 0815 413d
00000010: 4820 dabd c4a8 bb3d 3412 babd de87 cbbd
00000020: 5ac3 a1bd a8e1 673d 142e 3dbd e498 3f3d
00000030: 5446 d9bd 3e52 9bbd 80fe 3bbd 783c c9bc
00000040: 044b c3bd 5ea0 a73d b87d f1bc 8058 243d
00000050: 5c07 b53d 00c7 be3c bc01 0c3d 321b f73d
00000060: b4ea 66bd 382d 223d 0ccc 63bd 48f3 b63d
00000070: c074 cc3d 6006 ecbd 8888 da3d c47c 743d
00000080: dc1c 5f3d 0cc7 523d 04d0 d43d 6035 87bc
00000090: b27f d8bd f8ea 12bd 584b b4bd f062 073c
000000a0: 4030 bfbc 8650 89bd 0035 3abc 0e89 f23d
000000b0: 7089 21bc 600c 823b 20b4 9fbc e0fa a03c
000000c0: 6819 e43d cc8a 9c3d 84bd 353d a886 de3c
000000d0: b073 f13c 78cd 453d 2853 84bc bced edbd
000000e0: 3e50 9ebd 9884 da3d 00d5 f43b fa60 cfbd
000000f0: 5083 a13c 8a86 d33d 80eb f1bd 6a59 acbd
00000100: 78e9 4bbd 4067 a43b b0d3 eebc a00e 61bc
00000110: 6692 f9bd 48c2 6f3d c8b3 e03d 1e7a 9c3d
00000120: 2a48 b5bd ca5c cebd f49b 543d 00fb 373b
00000130: 78e2 513d 9826 fabd 4037 f4bb da8a b43d
00000140: cc85 6d3d 4093 953b 8056 c93c a0e7 41bc
00000150: e4c1 8cbd 047c 41bd 18e6 9bbd cea2 d43d
00000160: 96df 8c3d d80e 333d 7250 c4bd 0289 c53d
00000170: ac88 203d 7419 b13d 6c6a 49bd b815 d93c
00000180: 32f4 f93d 6433 ac3d a84f cd3d 4006 d7bc
00000190: 620a c33d e881 c8bd 2021 313c 5e24 90bd
000001a0: f8cf eebc 341f 03bd c03a 193c eafe e83d
000001b0: a47b 7d3d 00d0 0aba 70b8 b53d 4a30 83bd
000001c0: 62ef 833d a0ea 3dbc e82f b2bc 30c4 6f3c
000001d0: ea1e c4bd 50a9 6c3c 6427 2c3d cedc da3d
000001e0: 5c68 1fbd 8855 383d 06e0 ff3d d4a1 5bbd
000001f0: 065a f33d 3434 7ebd e0af 613d 7893 483d
00000200: 1804 0f3d 1272 ca3d a4ee 4ebd 3890 063d
00000210: 00e6 373a 5a8c c0bd 38a4 f8bc 74f6 aabd
00000220: 3062 623d 601b 383c b0a1 483c 6853 1bbd
00000230: 0091 1d3a 0c41 1fbd b81d 133d 949e f83d
00000240: 181b 9b3c 30c6 62bd 3a5f 9cbd 108c 1c3c
00000250: a2e9 bdbd 266c c0bd e09f a6bd ece5 2dbd
00000260: 8096 173c da48 b03d 5851 463d 5c20 c43d
00000270: e2bd a0bd b0d3 2c3c b08d e3bd 32db 923d
00000280: 6869 d53c 629b f73d 0012 b6bd 464b cd3d
00000290: 3a1f d83d 02fb ce3d 981e 923c 88c6 e83d
000002a0: 3cf7 aa3d 0eff be3d 300a 05bc 3474 c4bd
000002b0: 00e2 cbba 080a c03c 1861 aebd 04da 92bd
000002c0: 6870 f5bd f47a 33bd 58fe de3d 9819 af3c
000002d0: 202f fabb c07c a43b b0a0 9f3d 7410 e2bd
000002e0: e686 c5bd 9039 2abd 2855 93bd 7e0a 843d
000002f0: a8e2 b43d b860 f8bd 1243 d9bd 204c f9bd
00000300: 8027 413d f20a ce3d b07c c6bd a008 6dbd
00000310: d0ed 223d 0c2a a7bd 7e77 d93d d0c1 ee3c
00000320: 4c88 0ebd d004 053c 20a0 1f3d c80c 35bd
00000330: f45c c6bd 0041 5c3a 8037 153b 8031 253b
00000340: c06e 95bc ee5e a43d d8e0 0ebd 403b 46bc
00000350: 3087 523d ce22 a1bd a817 093d 286c e2bc
00000360: c497 753d f2de 8abd a061 973b c05a 483c
00000370: 0afa cdbd fe25 babd dc5b 443d 5c05 15bd
00000380: 9c09 983d 90e4 fcbd a418 7dbd 82db d2bd
00000390: 8487 4c3d 407f 6dbb 78ff bebc 405d aabc
000003a0: 241a c8bd 5c33 113d 4031 4c3b 3eab b0bd
000003b0: c8a8 403d c0a6 24bb fc96 f7bd 24b5 893d
000003c0: 5cee 883d 98ee c0bc 8ec0 b0bd 6074 a43b
000003d0: 242c c13d b653 ea3d a43a c1bd 2841 67bd
000003e0: ee53 c73d 2441 7a3d a277 9e3d 08d7 7ebd
000003f0: 868d dc3d ea72 d2bd c04c c5bb 0017 2a3b

bias f4 [32]
0.006000623 -0.11990543 0.015900686 0.043976173 0.11186783 -0.040516123 0.04508625 -0.041886568
-0.043956473 -0.11076146 0.02638419 0.083875194 -0.06953706 0.05110444 -0.019498333 -0.08874825
0.013328612 -0.1218126 0.06700824 -0.027619168 0.11512223 0.0046144873 -0.12118633 0.09700169
-0.027341396 -0.085622594 0.11541125 0.011674732 0.040526584 -0.108135834 -0.04414603 0.10029392
00000000: e0a0 c43b fa90 f5bd 2842 823c 5c20 343d
00000010: f61a e53d 3cf4 25bd 5cac 383d 4091 2bbd
00000020: b40b 34bd e8d6 e2bd a823 d83c c2c6 ab3d
00000030: 7269 8ebd e452 513d f8ba 9fbc a4c1 b5bd
00000040: 4060 5a3c e278 f9bd 9e3b 893d 9841 e2bc
00000050: 34c5 eb3d 2035 973b 8a30 f8bd d2a8 c63d
00000060: 10fb dfbc e65a afbd bc5c ec3d 6047 3f3c
00000070: 34ff 253d 5276 ddbd 78d2 34bd e666 cd3d

weight_ih_l0 f4 [128, 32]
-0.058855034 0.07027863 -0.1463066 -0.044827897 -0.16776115 0.06556049 -0.2503725 -0.4817869
-0.19892739 0.3275839 -0.0936193 -0.08947137 0.12289418 -0.15030101 0.12598233 0.21842055
0.043450177 0.28059506 -0.29078797 0.031200921 -0.36608383 -0.05075884 -0.22422923 -0.42020825
-0.14544491 -0.29212514 0.017544286 0.108429566 0.088515095 -0.18229838 0.27114078 -0.39961642
0.02723585 -0.1106029 -0.2671995 -0.17038682 0.0736363 0.036966812 0.08398645 -0.2696394
-0.08318714 0.27700207 0.14448775 -0.00667433 0.3181681 0.0452695 -0.084771655 -0.19517997
0.05816269 0.11508369 -0.08345037 0.11665495 -0.3742444 -0.06772806 -0.052106865 -0.4431903
0.035429407 -0.021464514 0.21192135 0.075612135 -0.012794535 -0.00034409188 0.15181333 -0.15129356
0.16422865 0.29335445 0.034090765 -0.22296964 0.09828413 -0.31177554 -0.035908986 -0.4250728
-0.033403266 0.34743598 0.24788147 -0.26577282 0.029134601 -0.21541126 -0.009882482 -0.059257086
0.34693184 0.5697591 -0.0040809023 0.11941842 -0.036975592 0.10565162 -0.26954436 -0.6965243
-0.09196415 -0.43184727 0.19968967 0.37229714 0.17922968 -0.14068219 -0.015468751 0.0067046313
0.12868416 0.077504665 -0.20860536 -0.4882187 -0.13091524 -0.18223654 0.018843105 -0.6725955
0.08908555 0.2723307 -0.1371698 0.13628031 0.2912905 -0.21584858 0.117942885 0.32870287
0.12690724 0.26247653 -0.15796742 -0.14303446 0.016921068 -0.24685091 -0.21389845 -0.6043332
-0.17685655 -0.32564187 0.014110492 0.12958437 0.05289879 0.073173225 -0.017520418 -0.047809694
-0.049412705 0.030489022 0.0807413 -0.38772473 -0.19141816 -0.15490615 -0.13080229 -0.45229918
-0.028781995 0.19659849 0.097381845 0.13553844 0.37874258 -0.28385282 -0.036285456 0.1441393
0.1344278 0.6348384 -0.23535061 -0.23568682 -0.03772015 -0.27926978 -0.19915187 -0.59059274
-0.25922638 -0.30681133 0.13699871 0.26597956 0.26289445 -0.12928446 -0.20767571 -0.092162766
-0.1667916 0.00072900555 -0.26636085 -0.2152521 -0.23558928 0.048306983 -0.2852858 -0.36315417
-0.3433182 0.18851218 -0.11190129 0.059212282 0.26511693 0.026662916 0.099613525 0.2012913
0.3080201 0.1840337 0.060241897 -0.30977643 -0.47504073 -0.104122974 0.061781432 -0.49515074
-0.0920273 -0.29580572 0.13025737 0.22685602 0.13440868 -0.025235346 -0.26215443 -0.15421784
0.17119244 0.11032305 -0.43663824 0.046889234 0.16117026 -0.13060716 0.074650586 -0.31383997
-0.108213335 -0.101847745 -0.121042855 -0.13203458 0.013716421 -0.0712633 0.048618708 -0.08673033
0.18613139 0.21963976 -0.19749933 0.016050333 -0.26273048 -0.03614811 0.049116608 -0.52461404
-0.055219043 0.0048790895 0.043747243 0.255163 0.0011678387 -0.008052654 -0.18936223 -0.16125394
-0.0104238205 0.44598395 -0.033365466 -0.42250153 -0.16734609 -0.40299752 -0.120711446 -0.6441725
-0.20632598 0.23914073 -0.008427554 -0.25365263 0.11352673 -0.5117216 -0.017284693 -0.08333635
0.19570898 0.30464506 -0.25315273 0.11165653 -0.14081867 0.041169725 0.011258572 -0.6781611
0.24305388 -0.4343736 0.5116465 0.36221486 0.29303974 0.07590089 -0.13884896 0.15600917
00000000: fa11 71bd 3eee 8f3d 66d1 15be 759d 37bd
00000010: 94c9 2bbe 9444 863d d330 80be c6ac f6be
00000020: 9fb3 4bbe 14b9 a73e 7abb bfbd c43c b7bd
00000030: f2af fb3d 82e8 19be 8301 013e a3a9 5f3e
00000040: d0f8 313d 28aa 8f3e 29e2 94be 1399 ff3c
00000050: 576f bbbe 80e8 4fbd 599c 65be 8925 d7be
00000060: 83ef 14be 6d91 95be 09b9 8f3c 5210 de3d
00000070: 6747 b53d 6dac 3abe f7d2 8a3e 869a ccbe
00000080: b81d df3c c683 e2bd 5fce 88be e279 2ebe
00000090: a1ce 963d 836a 173d 1701 ac3d 2d0e 8abe
000000a0: 055e aabd 37d3 8d3e 99f4 133e 57b4 dabb
000000b0: eee6 a23e 836c 393d c39c adbd 42dd 47be
000000c0: 003c 6e3d ffb0 eb3d 07e8 aabd cae8 ee3d
000000d0: f69c bfbe 02b5 8abd 026e 55bd d7e9 e2be
000000e0: 6d1e 113d 59d6 afbc e901 593e 89da 9a3d
000000f0: 2ba0 51bc 3b67 b4b9 f474 1b3e b3ec 1abe
00000100: 8e2b 283e 8e32 963e c2a2 0b3d 2752 64be
00000110: 3149 c93d 0ba1 9fbe 4d15 13bd 24a3 d9be
00000120: ddd1 08bd 21e3 b13e a4d4 7d3e 6013 88be
00000130: b0ab ee3c c594 5cbe 22ea 21bc 8fb7 72bd
00000140: 0da1 b13e bbdb 113f 17b9 85bb a591 f43d
00000150: b873 17bd e05f d83d b801 8abe 6b4f 32bf
00000160: b357 bcbd 161b ddbe 737b 4c3e bb9d be3e
00000170: fc87 373e fe0e 10be a570 7dbc 86b2 db3b
00000180: c8c5 033e c4ba 9e3d a59c 55be cdf7 f9be
00000190: a50e 06be 379c 3abe db5c 9a3c 382f 2cbf
000001a0: 7c72 b63d ee6e 8b3e 3d76 0cbe 118d 0b3e
000001b0: 0724 953e 6907 5dbe 0a8c f13d be4b a83e
000001c0: f9f3 013e 5363 863e 36c2 21be a077 12be
000001d0: 0d9e 8a3c 7cc6 7cbe 3208 5bbe 95b5 1abf
000001e0: e219 35be 88ba a6be b12f 673c c4b1 043e
000001f0: 67ac 583d d8db 953d fb86 8fbc 19d4 43bd
00000200: fa64 4abd 1dc4 f93c b25b a53d db83 c6be
00000210: 1f03 44be b89f 1ebe 09f1 05be c293 e7be
00000220: 38c8 ebbc 1d51 493e 2270 c73d 97ca 0a3e
00000230: 8cea c13e 2855 91be 0fa0 14bd 4199 133e
00000240: 71a7 093e c584 223f c0ff 70be e357 71be
00000250: 7280 1abd 73fc 8ebe 78ee 4bbe 1631 17bf
00000260: 52b9 84be 6016 9dbe 6449 0c3e 792e 883e
00000270: 1a9a 863e 2563 04be f1a8 54be d5bf bcbd
00000280: 6bcb 2abe bc1a 3f3a 7360 88be 0c6b 5cbe
00000290: 513e 71be 8bdd 453d fb10 92be 58ef b9be
000002a0: 67c7 afbe 5609 413e 812c e5bd 9488 723d
000002b0: 68bd 873e 306c da3c 2d02 cc3d 4e1f 4e3e
000002c0: d0b4 9d3e 5573 3c3e 35c0 763d 049b 9ebe
000002d0: 8a38 f3be 6d3e d5bd 870e 7d3d 6684 fdbe
000002e0: cf78 bcbd d973 97be 3062 053e f24c 683e
000002f0: 6ea2 093e 5bba cebc 1b39 86be 48eb 1dbe
00000300: 124d 2f3e 0df1 e13d 0c8f dfbe ed0e 403d
00000310: d109 253e e2bd 05be 68e2 983d a2af a0be
00000320: f49e ddbd 8d95 d0bd 51e5 f7bd 1334 07be
00000330: d7ba 603c 7ef2 91bd 6924 473d ac9f b1bd
00000340: 3a99 3e3e 3fe9 603e 443d 4abe fd7b 833c
00000350: 9c84 86be 0a10 14bd 7f2e 493d 1b4d 06bf
00000360: 5d2d 62bd c5e0 9f3b 4f30 333d baa4 823e
00000370: 2a12 993a 47ef 03bc 2ce8 41be c11f 25be
00000380: acc8 2abc 0258 e43e 3aaa 08bd 1f52 d8be
00000390: c65c 2bbe b155 cebe 9037 f7bd 7de8 24bf
000003a0: 1e47 53be 4fe1 743e b913 0abc c2de 81be
000003b0: b480 e83d 3000 03bf a198 8dbc 40ac aabd
000003c0: ef67 483e 70fa 9b3e 3c9d 81be 2eac e43d
000003d0: c532 10be 96a1 283d e075 383c f79b 2dbf
000003e0: 1ee3 783e 3766 debe 44fb 023f 3a74 b93e
000003f0: 4e09 963e ed71 9b3d 6c2e 0ebe dec0 1f3e

weight_hh_l0 f4 [128, 32]
0.016702546 0.0854812 -0.08785804 -0.129141 -0.08034336 -0.004725346 0.21407598 0.040131167
0.14745559 -0.09035635 -0.093099505 -0.049836032 -0.08041915 -0.10596413 0.071057506 0.10115742
0.024083221 -0.008043879 0.23177977 -0.0009887922 0.23523557 0.014452266 -0.040891606 -0.09094415
0.14572597 -0.13944267 0.08839082 0.16279158 -0.104885586 -0.07994189 0.09118268 -0.1260939
0.079927236 0.14074805 -0.11857402 0.20343775 -0.118573315 -0.061510768 0.16964056 -0.159063
0.12524137 0.081872664 -0.12956317 -0.016061047 0.07084268 -0.08590879 0.03987899 0.006473392
-0.120990545 0.05873258 -0.03653588 -0.10755946 0.13697451 -0.12661026 -0.087614484 -0.28104708
0.0504489 -0.016160881 0.11631115 0.04263998 0.20221388 -0.055061378 0.04091065 -0.09078917
0.015122125 -0.01069997 -0.17026229 0.0077815037 0.22628072 0.096925944 0.18115969 0.04295636
0.14553896 0.11173494 -0.16523902 0.038357858 -0.0930878 0.105919264 -0.13792019 0.19477314
0.15229736 0.121635124 0.0026505857 -0.116562076 -0.12188654 0.0012385314 0.07298549 -0.21151268
0.19711901 -0.04235107 0.09378151 -0.031028327 0.041534867 0.045232467 -0.055213146 -0.06719875
0.051760923 0.16746733 0.11947102 -0.103725515 0.014588855 -0.02045781 -0.019030401 0.15294226
0.028169405 0.2174942 0.100218184 -0.2220352 -0.18302003 -0.090694115 -0.14696488 0.08866746
-0.1326662 -0.15291274 -0.17982441 0.090911366 -0.0009520762 0.010622943 -0.09879718 -0.16413029
-0.041961946 0.17503467 -0.05112896 0.07143424 0.130999 0.19904959 -0.037952505 0.17779532
-0.004444642 0.133322 0.20120329 -0.0077868532 -0.13994654 -0.30049744 -0.11279244 -0.10139426
-0.07858176 0.014103335 0.06975512 -0.12680954 -0.055934165 -0.20069881 -0.024356563 -0.020163845
0.14749302 -0.22476576 -0.13225989 -0.12648466 0.083908156 -0.015522634 0.041259333 0.10810166
0.16687296 0.017281778 -0.03203755 0.10933963 0.12432104 0.13360702 -0.06939311 0.07649432
-0.12793414 -0.11340605 -0.058160834 0.02315058 0.101392396 0.13431782 0.047068927 0.023959953
0.107900225 0.14317638 -0.039549455 0.09949689 0.14875223 -0.0738454 0.024027426 0.02809194
0.0057100737 -0.08581387 0.09690745 -0.15341677 -0.051661815 -0.20968202 -0.14949554 -0.023953365
0.0703717 -0.13328914 -0.100297965 -0.14183438 0.1386443 -0.14142501 0.09579373 0.07010177
-0.05446921 0.25964707 0.23116197 0.31394064 0.09454069 0.051891748 -0.020860013 0.003972061
0.15982127 0.23733792 -0.08032512 0.14251444 0.028054617 0.07971833 -0.050943624 0.030511105
-0.19515829 -0.13210715 0.1296737 0.09660495 0.025649946 -0.0057573686 0.16447909 -0.14092278
0.10819754 -0.03883284 -0.12571189 0.049714867 -0.083262786 0.12270461 0.056114785 0.12365782
0.15192668 -0.12596117 -0.06156731 0.14417537 0.054372437 0.105796374 0.14167695 0.024313617
-0.107490264 0.05196682 -0.05259131 0.07606356 0.072330706 0.017431207 -0.11884978 0.00017979932
-0.19332683 0.0041924985 0.18946613 0.11544182 -0.10673777 -0.088296294 0.06723483 -0.098697744
0.06468365 0.014162084 -0.09359246 -0.045559406 -0.025109066 0.019109922 0.12709567 0.18909882
00000000: c7d3 883c c410 af3d ebee b3bd 8a3d 04be
00000010: 0f8b a4bd 13d7 9abb bc36 5b3e 9460 243d
00000020: 99fe 163e c00c b9bd f4aa bebd de20 4cbd
00000030: ccb2 a4bd b903 d9bd 9986 913d 9f2b cf3d
00000040: 2d4a c53c 79ca 03bc ad57 6d3e 5c9a 81ba
00000050: 98e1 703e 32c9 6c3c f57d 27bd ed40 babd
00000060: 3039 153e 0fca 0ebe 3f06 b53d d6b2 263e
00000070: 41ce d6bd 93b8 a3bd fcbd ba3d c21e 01be
00000080: e4b0 a33d 4220 103e f0d6 f2bd fc51 503e
00000090: 91d6 f2bd b7f2 7bbd 41b6 2d3e 69e1 22be
000000a0: 463f 003e dbac a73d 35ac 04be 7592 83bc
000000b0: f815 913d f3f0 afbd 2758 233d bf1e d43b
000000c0: e4c9 f7bd 9391 703d a6a6 15bd 2248 dcbd
000000d0: 0c43 0c3e 1fa6 01be 396f b3bd 67e5 8fbe
000000e0: 81a3 4e3d d363 84bc 8a34 ee3d 42a7 2e3d
000000f0: 2811 4f3e 0a88 61bd ed91 273d acef b9bd
00000100: cac2 773c ed4e 2fbc 3d59 2ebe fcfb fe3b
00000110: 22b6 673e 1c81 c63d ed81 393e 02f3 2f3d
00000120: 2a08 153e 4ad5 e43d 6b34 29be 211d 1d3d
00000130: d1a4 bebd 33ec d83d f33a 0dbe 9c72 473e
00000140: d7f3 1b3e d61b f93d 73b5 2d3b 19b8 eebd
00000150: a69f f9bd 3856 a23a 6b79 953d c896 58be
00000160: 91d9 493e 5178 2dbd 8510 c03d 1e2f febc
00000170: 7720 2a3d ae45 393d 2e27 62bd 809f 89bd
00000180: 4303 543d 8e7c 2b3e 39ad f43d 0b6e d4bd
00000190: 1806 6f3c 2397 a7bc a5e5 9bbc e59c 1c3e
000001a0: 86c3 e63c cdb6 5e3e 313f cd3d 325d 63be
000001b0: 9a69 3bbe d6bd b9bd f67d 16be 4997 b53d
000001c0: a6d9 07be 2895 1cbe e423 38be bd2f ba3d
000001d0: c194 79ba da0b 2e3c 2d56 cabd c511 28be
000001e0: 4ae0 2bbd 4a3c 333e 9a6c 51bd 1d4c 923d
000001f0: 9a24 063e a8d3 4b3e 1674 1bbd fa0f 363e
00000200: 5ca4 91bb 9085 083e 3c08 4e3e dc28 ffbb
00000210: 254e 0fbe cdda 99be b9ff e6bd cba7 cfbd
00000220: 79ef a0bd ad11 673c c6db 8e3d 5cda 01be
00000230: 391b 65bd fd83 4dbe 6a87 c7bc a62e a5bc
00000240: 6908 173e ff28 66be 236f 07be 3285 01be
00000250: 0ad8 ab3d a552 7ebc 8cff 283d 6764 dd3d
00000260: bfe0 2a3e 8492 8d3c ce39 03bd 75ed df3d
00000270: 089c fe3d 47d0 083e fa1d 8ebd 0ea9 9c3d
00000280: 2b01 03be 6e41 e8bd 0e3a 6ebd 49a6 bd3c
00000290: d1a6 cf3d 9c8a 093e 59cb 403d aa47 c43c
000002a0: cbfa dc3d d49c 123e 9cfe 21bd 07c5 cb3d
000002b0: 8152 183e 423c 97bd 2ad5 c43c 1121 e63c
000002c0: 921b bb3b 2fbf afbd 6a77 c63d 4919 1dbe
000002d0: 579b 53bd e2b6 56be 5c15 19be d939 c4bc
000002e0: 0a1f 903d f37c 08be 0569 cdbd 083d 11be
000002f0: c5f8 0d3e b8d1 10be 812f c43d 8491 8f3d
00000300: 1b1b 5fbd 76f0 843e b9b5 6c3e d4bc a03e
00000310: 8d9e c13d 718c 543d 9ee2 aabc 1028 823b
00000320: 30a8 233e b608 733e 7f81 a4bd 4eef 113e
00000330: ccd2 e53c 5d43 a33d 43aa 50bd 6df2 f93c
00000340: 93d7 47be 1947 07be 2fc9 043e d1d8 c53d
00000350: d61f d23c 4fa8 bcbb 356d 283e 104e 10be
00000360: ac96 dd3d 2f0f 1fbd 9eba 00be d1a1 4b3d
00000370: ae85 aabd 8e4c fb3d 9ed8 653d 5040 fd3d
00000380: ab92 1b3e f7fb 00be 012e 7cbd b5a2 133e
00000390: a2b5 5e3d c5ab d83d c313 113e 5a2d c73c
000003a0: db23 dcbd 29db 543d fc69 57bd 36c7 9b3d
000003b0: 1f22 943d e4cb 8e3c 8367 f3bd 8388 3c39
000003c0: 78f7 45be 3a61 893b 6903 423e c36c ec3d
000003d0: 5599 dabd b0d4 b4bd 6ab2 893d 0b22 cabd
000003e0: dd78 843d 1608 683c 67ad bfbd 809c 3abd
000003f0: 87b1 cdbc 698c 9c3c 5e25 023e 1fa3 413e

bias_ih_l0 f4 [128]
-0.26618728 -0.098567605 -0.47997907 -0.0767467 -0.08492105 -0.16844982 -0.20929164 -0.5980149
-0.42608678 -0.2843625 -0.14668165 0.009359562 -0.02377345 -0.4513848 -0.46737468 -0.27592188
-0.19950448 -0.5311501 0.003060186 -0.19797026 -0.27920538 -0.2512132 -0.1189836 -0.17092255
-0.36307213 -0.22426836 -0.2548026 -0.13538909 -0.38977602 -0.22160287 -0.24148907 -0.14947322
-0.062037345 0.09740466 -0.06323351 -0.10146568 -0.038479853 -0.15596974 0.0060721235 -0.15341033
-0.04472437 0.034785002 -0.015756069 -0.1250637 -0.1241249 -0.24149983 -0.33416566 -0.15883094
0.089283325 -0.44563997 0.010020915 -0.092582986 -0.16672531 -0.06889753 -0.1944726 0.09238742
-0.15619925 -0.0039768456 0.006373955 0.051435243 -0.06256524 -0.09879088 -0.104642026 -0.2566845
0.03528121 -0.06192085 0.06279767 -0.15067087 0.06624502 -0.056466606 -0.05485588 -0.04383907
0.13282277 -0.13230333 0.11028761 -0.05869702 -0.063311756 0.023736645 -0.07265903 -0.04221262
0.11895827 0.049380623 -0.16586173 0.010000135 -0.0675597 0.059688244 -0.10700759 0.08988135
-0.104565956 0.017655915 0.06025234 0.1219461 -0.052127797 -0.049354438 0.0187373 0.033432376
-0.17767689 0.035290096 -0.3989141 -0.17238706 -0.2158763 -0.23161161 -0.08922905 -0.31484893
-0.19542192 -0.34090868 -0.06485237 -0.03866377 -0.1262864 -0.3781906 -0.23316386 -0.15554571
-0.20245264 -0.30647022 -0.0028436193 -0.01170594 -0.084468074 -0.28105828 -0.2245242 -0.17604429
-0.4102179 -0.03784332 -0.13103509 -0.04501376 -0.22362092 -0.2897728 -0.24715143 -0.023170365
00000000: b349 88be d0dd c9bd d1bf f5be 602d 9dbd
00000010: 16eb adbd 1c7e 2cbe 8c50 56be 8117 19bf
00000020: 0c28 dabe f697 91be b733 16be d958 193c
00000030: 8ac0 c2bc e91b e7be bc4b efbe a245 8dbe
00000040: e74a 4cbe 74f9 07bf 678d 483b b7b8 4abe
00000050: 02f4 8ebe 049f 80be acad f3bd 5206 2fbe
00000060: 97e4 b9be 9ba6 65be 7d75 82be 70a3 0abe
00000070: b990 c7be ddeb 62be e948 77be 820f 19be
00000080: df1a 7ebd 187c c73d 9280 81bd 3dcd cfbd
00000090: 0d9d 1dbd 88b6 1fbe aaf8 c63b 9917 1dbe
000000a0: e730 37bd b87a 0e3d df12 81bc b310 00be
000000b0: 3235 febd bb4b 77be c317 abbe 94a4 22be
000000c0: 2dda b63d ec2a e4be c42e 243c 269c bdbd
000000d0: 0aba 2abe 261a 8dbd d323 47be 9e35 bd3d
000000e0: b2f2 1fbe 3350 82bb 9cdc d03b c3ad 523d
000000f0: 3422 80bd df52 cabd 8f4e d6bd 276c 83be
00000100: 0883 103d b8a0 7dbd 119c 803d 7749 1abe
00000110: 78ab 873d 8749 67bd 8fb0 60bd 9990 33bd
00000120: b102 083e 867a 07be 78de e13d 496c 70bd
00000130: 98a9 81bd 5a73 c23c 42ce 94bd 24e7 2cbd
00000140: 65a0 f33d 5643 4a3d a8d7 29be 9bd7 233c
00000150: bd5c 8abd a97b 743d cc26 dbbd b713 b83d
00000160: ad26 d6bd 23a3 903c 28cb 763d e0be f93d
00000170: f583 55bd e127 4abd f77e 993c 63f0 083d
00000180: eef0 35be 598c 103d 783e ccbe 3c86 30be
00000190: ad0e 5dbe 982b 6dbe b8bd b6bd e133 a1be
000001a0: af1c 48be 958b aebe 52d1 84bd e75d 1ebd
000001b0: 3951 01be 33a2 c1be 82c2 6ebe 6047 1fbe
000001c0: bf4f 4fbe aae9 9cbe 045c 3abb 45ca 3fbc
000001d0: 99fd acbd dfe6 8fbe ace9 65be f444 34be
000001e0: 1508 d2be 9901 1bbd 102e 06be 5960 38bd
000001f0: e2fc 64be 1a5d 94be 4415 7dbe c7cf bdbc

bias_hh_l0 f4 [128]
-0.36771727 -0.16833703 -0.14640236 -0.34021327 -0.22294423 -0.45249084 -0.1280002 -0.3888837
-0.29238436 -0.097258106 -0.22227052 -0.055067673 -0.10328242 -0.20275797 -0.17994364 -0.4235052
0.051783107 -0.31560126 -0.2517965 0.02919732 -0.1105445 -0.21528028 -0.28186914 -0.14829642
-0.40298048 -0.11958165 -0.38882366 -0.267414 -0.36476666 -0.054115307 -0.16823311 -0.3304151
-0.27603015 -0.09830581 -0.3764025 -0.08167824 -0.014776423 -0.33214852 0.02093926 -0.41204974
-0.18476784 -0.095661886 0.026968088 -0.004911548 -0.21059376 -0.041812994 -0.17375873 -0.10536705
-0.15738264 -0.3168134 -0.18715812 0.13427462 -0.26596376 -0.2709948 -0.11664902 -0.09931673
-0.35941526 -0.09267039 -0.20644352 -0.16409907 -0.24288155 -0.28843614 -0.22718003 -0.18040143
-0.03991105 -0.054630827 -0.008829596 0.044880256 0.044972483 0.0074321125 0.0032228557 0.08432452
-0.029656332 0.14480883 0.047199644 0.19549596 0.1921421 -0.052376997 0.106896885 -0.08619255
-0.16604038 -0.10883098 0.03338683 -0.04637305 0.088857196 0.002578288 -0.13249457 -0.11865995
0.039843224 0.04910561 0.041331735 0.09013887 -0.017391214 0.07405239 -0.050069887 -0.10003166
-0.3909063 0.050023098 -0.23555423 -0.17965697 -0.09488274 -0.23879704 0.07972899 -0.6387023
-0.4246835 -0.12687393 -0.23466797 -0.04110518 -0.18239953 -0.21435893 -0.38111508 -0.26177573
-0.20001821 -0.36725247 -0.100690365 -0.16289802 -0.3868436 -0.10862783 -0.15411487 -0.09523867
-0.20571393 -0.1660381 -0.26893294 0.008579591 -0.28435102 -0.30675277 -0.16780546 -0.20707464
00000000: 7045 bcbe 8b60 2cbe 80ea 15be 6f30 aebe
00000010: 7e4b 64be e1ac e7be 7c12 03be c41b c7be
00000020: 67b3 95be 422f c7bd e29a 63be a48e 61bd
00000030: bc85 d3bd c99f 4fbe 2543 38be acd5 d8be
00000040: 861a 543d 7d96 a1be 79eb 80be 382f ef3c
00000050: 2865 e2bd 6f72 5cbe 2751 90be 04db 17be
00000060: 7553 cebe 39e7 f4bd e513 c7be 7dea 88be
00000070: b2c2 babe 03a8 5dbd 4d45 2cbe 2b2c a9be
00000080: d353 8dbe 8e54 c9bd d4b7 c0be ec46 a7bd
00000090: cf18 72bc 5f0f aabe d088 ab3c 2ff8 d2be
000000a0: c833 3dbe 61ea c3bd 2eec dc3c 0df1 a0bb
000000b0: e4a5 57be 1a44 2bbd cfed 31be aeca d7bd
000000c0: ea28 21be 5e35 a2be 61a6 3fbe 497f 093e
000000d0: 672c 88be d5bf 8abe aee5 eebd 9266 cbbd
000000e0: 4705 b8be f9c9 bdbd ee65 53be 9609 28be
000000f0: f1b5 78be e7ad 93be e2a1 68be 27bb 38be
00000100: c579 23bd 93c4 5fbd 03aa 10bc 5cd4 373d
00000110: 1135 383d 1489 f33b 8c36 533b 55b2 ac3d
00000120: d6f1 f2bc c448 143e 6a54 413d 1830 483e
00000130: e6c0 443e 4389 56bd c1ec da3d b885 b0bd
00000140: 7d06 2abe c7e2 debd a1c0 083d abf1 3dbd
00000150: c3fa b53d 7ff8 283b a8ac 07be fd03 f3bd
00000160: a632 233d f722 493d 774b 293d ba9a b83d
00000170: 0578 8ebc c8a8 973d 1516 4dbd 66dd ccbd
00000180: df24 c8be 05e5 4c3d 2135 71be fff7 37be
00000190: e251 c2bd 3687 74be f448 a33d fe81 23bf
000001a0: 1e70 d9be 3deb 01be cd4c 70be e85d 28bd
000001b0: f1c6 3abe e880 5bbe 8421 c3be 7807 86be
000001c0: 93d1 4cbe 8408 bcbe c036 cebd bdce 26be
000001d0: 5d10 c6be 4578 debd 4ad0 1dbe 7e0c c3bd
000001e0: aca6 52be e405 2abe 94b1 89be 6a91 0c3c
000001f0: 7596 91be b30e 9dbe 32d5 2bbe 600b 54be

weight f4 [64, 4]
-0.1184362 0.78608495 0.61902916 -0.4267593 -0.53796273 -0.31395137 0.3808418 0.11845375
0.18423915 0.15593682 -0.096262515 0.580756 -0.69089603 0.10927932 -0.028417908 0.032383494
0.57654476 -0.23923796 -0.46699503 -0.3231088 0.09900899 -0.56795233 -0.5245177 -0.039531358
-0.3991901 0.019850697 0.3605358 0.2702357 -0.021062309 0.15901294 -0.44917253 -0.57615286
-0.41552967 0.2757831 0.43893287 -0.03876908 0.47587115 -0.111382924 0.01325535 0.3694795
0.19733354 0.45356527 -0.4201491 -0.41907805 -0.19325684 -0.119588576 0.510484 0.8232833
0.41571712 0.0640426 -0.22156169 0.16829374 0.27769345 0.31470266 -0.04553657 -0.18922313
0.1450574 0.05674896 -0.33746186 0.13254116 -0.20790094 -0.37909886 0.4977688 -0.40264732
-0.29185537 -0.113215975 0.067385174 -0.29107898 -0.7596138 -0.38254797 0.36425748 -0.45867795
-0.27813587 0.48808214 0.069264635 -0.4309953 0.48157024 0.6244031 -0.32818362 -0.25722492
0.04339267 -0.34922934 0.13552222 0.0057343063 -0.3393064 -0.58706856 0.4106763 0.17396143
-0.47292224 -0.2770421 0.26452214 0.35359487 0.08361895 0.24984096 0.56444716 -0.13515519
-0.6298847 0.33556375 0.5455469 -0.11141173 0.006364831 0.169977 0.2568979 -0.17706679
-0.5183861 0.48423436 -0.062724456 -0.20238821 -0.5156725 0.4652797 -0.26907414 -0.35836545
-0.5098777 -0.27896744 0.5848666 -0.048180588 -0.17690398 -0.02462268 0.20069166 -0.5034612
-0.5910804 -0.6260706 -0.37539354 0.18631482 -0.33032966 -0.25079805 0.20904356 -0.50469613
0.5074309 -0.13657814 0.17128034 0.48824874 0.3632918 -0.56895655 0.25362775 0.4245504
-0.41539288 -0.49862438 0.082022145 -0.14996555 0.27478367 0.64737123 -0.24903329 -0.62186396
-0.33637688 0.24619724 -0.061816297 0.21963511 -0.80759394 0.061243504 0.26774043 -0.51703835
-0.1964052 0.3265805 0.044132113 -0.42842677 0.029618585 0.09178114 -0.33623505 -0.023055969
-0.0747934 0.28851172 0.5928448 0.3278307 -0.4934985 -0.56369424 0.35950655 0.4122353
-0.075743355 -0.5409415 0.22055733 -0.5961947 -0.6086564 0.14724056 0.39940694 -0.32862884
0.35668898 0.6274136 0.48975953 -0.27818203 0.07894673 -0.088387325 -0.11666442 -0.3092439
-0.5429173 0.16701715 0.07100567 -0.606994 -0.09452865 0.022495264 0.20837025 -0.34441647
0.3995281 0.21483381 -0.14884871 0.2506806 -0.55795866 0.18622813 0.25215244 0.04736059
-0.32372016 -0.08422238 -0.0064085624 -0.2870535 0.54950786 0.09691075 -0.008374597 -0.030153181
0.38170978 -0.03094287 -0.38018334 -0.043995194 -0.09100203 0.26465082 -0.37326443 0.11772278
0.56761974 -0.37532544 0.16389541 -0.8404676 -0.38282326 -0.4521101 -0.0727087 -0.1546207
0.27156502 0.38910693 -0.114027455 -0.6650842 0.113223225 0.17546646 -0.5922007 0.30994034
-0.63691646 0.47190124 -0.4972139 0.29730013 -0.006670899 -0.6369922 0.01280468 -0.18096942
-0.36017355 0.07829801 -0.27396873 0.044213247 0.39837357 -0.15755984 -0.64526165 0.27291277
-0.4613858 -0.72149056 0.5462073 -0.46923497 0.013955317 0.6262289 0.21876091 -0.5918271
00000000: ae8e f2bd dd3c 493f b278 1e3f 3280 dabe
00000010: edb7 09bf 3cbe a0be b2fd c23e e197 f23d
00000020: 30a9 3c3e e7ad 1f3e 4825 c5bd 6dac 143f
00000030: 90de 30bf d6cd df3d accc e8bc 8ea4 043d
00000040: 7098 133f ccfa 74be f919 efbe 846e a5be
00000050: 3ac5 ca3d 5365 11bf cb46 06bf a2eb 21bd
00000060: a562 ccbe ee9d a23c 2698 b83e 555c 8a3e
00000070: dd8a acbc 4ad4 223e f1f9 e5be c17e 13bf
00000080: 4ec0 d4be 7133 8d3e cfbb e03e 54cc 1ebd
00000090: 62a5 f33e bb1c e4bd f82c 593c 6b2c bd3e
000000a0: ce11 4a3e b539 e83e c81d d7be 6691 d6be
000000b0: 1fe5 45be dbea f4bd 14af 023f b2c2 523f
000000c0: e0d8 d43e c428 833d 11e1 62be 3255 2c3e
000000d0: d62d 8e3e b520 a13e 8e84 3abd b5c3 41be
000000e0: ed89 143e 9971 683d cdc7 acbe dfb8 073e
000000f0: fce3 54be 3f19 c2be 8ddb fe3e ca27 cebe
00000100: 116e 95be c7dd e7bd 3d01 8a3d 4e08 95be
00000110: 0d76 42bf 54dd c3be f57f ba3e d6d7 eabe
00000120: d367 8ebe e7e5 f93e 9eda 8d3d 6aab dcbe
00000130: 6090 f63e e2d8 1f3f af07 a8be fcb2 83be
00000140: 83bc 313d 30ce b2be 56c6 0a3e d9e6 bb3b
00000150: 92b9 adbe 204a 16bf 2a44 d23e f222 323e
00000160: dd22 f2be 76d8 8dbe 726f 873e 630a b53e
00000170: 6940 ab3d 4fd6 7f3e 9c7f 103f 1f66 0abe
00000180: 2040 21bf 03cf ab3e f6a8 0b3f d52b e4bd
00000190: 1290 d03b 730e 2e3e 1f88 833e ff50 35be
000001a0: f4b4 04bf 91ed f73e ae75 80bd db3e 4fbe
000001b0: 1d03 04bf 2439 ee3e 16c4 89be ad7b b7be
000001c0: 5887 02bf d2d4 8ebe d1b9 153f 0259 45bd
000001d0: 5126 35be 81b5 c9bc 1d82 4d3e d5e2 00bf
000001e0: 0c51 17bf 2a46 20bf 9533 c0be 50c9 3e3e
000001f0: f820 a9be 9a68 80be 840f 563e c433 01bf
00000200: fee6 013f 24db 0bbe 1d64 2f3e bdfb f93e
00000210: 6201 ba3e 23a7 11bf 7fdb 813e ac5e d93e
00000220: 60ae d4be b24b ffbe 3afb a73d 9290 19be
00000230: 72b0 8c3e 1fba 253f 9502 7fbe 7a32 1fbf
00000240: 9739 acbe 211b 7c3e 1633 7dbd 07e8 603e
00000250: 7abe 4ebf 78da 7a3d 4615 893e a05c 04bf
00000260: 721e 49be 8f35 a73e e0c3 343d c15a dbbe
00000270: ada2 f23c c0f7 bb3d 0027 acbe dfdf bcbc
00000280: 482d 99bd cfb7 933e adc4 173f 6dd9 a73e
00000290: d6ab fcbe 444e 10bf 3e11 b83e 8110 d33e
000002a0: 551f 9bbd 247b 0abf c8d9 613e 37a0 18bf
000002b0: e8d0 1bbf 3bc6 163e 117f cc3e 0a42 a8be
000002c0: f09f b63e 2d9e 203f c3c1 fa3e e06d 8ebe
000002d0: d3ae a13d 6a04 b5bd c1ed eebd 3755 9ebe
000002e0: a1fc 0abf 8b06 2b3e 6c6b 913d f563 1bbf
000002f0: 3d98 c1bd fd47 b83c 035f 553e 5b57 b0be
00000300: f28e cc3e 65fd 5b3e cc6b 18be 3559 803e
00000310: 61d6 0ebf 96b2 3e3e 201a 813e 2efd 413d
00000320: a6be a5be c87c acbd ebfe d1bb adf8 92be
00000330: 8cac 0c3f 2579 c63d 9b35 09bc ce03 f7bc
00000340: 776f c33e e77b fdbc 64a7 c2be 4e34 34bd
00000350: 465f babd 5080 873e 841c bfbe a418 f13d
00000360: 874f 113f a82a c0be 33d4 273e e228 57bf
00000370: 6901 c4be fa7a e7be 4de8 94bd e454 1ebe
00000380: 920a 8b3e 0639 c73e 3a87 e9bd f542 2abf
00000390: 94e1 e73d 7bad 333e 779a 17bf 80b0 9e3e
000003a0: f50c 23bf 0a9d f13e d292 febe b937 983e
000003b0: 8f97 dabb ec11 23bf b8ca 513c 0c50 39be
000003c0: ab68 b8be b55a a03d a145 8cbe f318 353d
000003d0: 9ff7 cb3e 5e57 21be de2f 25bf 39bb 8b3e
000003e0: c23a ecbe 9bb3 38bf 3ed4 0b3f 913f f0be
000003f0: d8a4 643c 8a50 203f dc02 603e fb81 17bf

bias f4 [64]
0.44562286 0.1949554 -0.15987024 -0.019859703 0.07684791 0.47606388 0.15516102 0.032158382
0.5062585 0.17381509 -0.0020746628 -0.08154694 -0.4262341 0.47968385 -0.25310528 0.30501133
-0.45787945 0.43803787 0.33923692 0.3629173 0.40268084 0.07991481 0.08111109 -0.31605786
0.0064868187 -0.11139622 -0.22772178 0.021779735 -0.10914977 -0.264888 0.19942397 -0.53246754
-0.4020401 0.36342323 -0.20145646 0.029877573 -0.36469024 0.42072588 -0.30623925 0.21833006
0.08821261 0.17788422 -0.43247718 -0.021482311 -0.112530865 0.46263474 -0.43929815 -0.2142157
-0.2660008 -0.09552499 0.46388155 0.52862316 -0.045876984 0.10596226 0.40757352 -0.073154435
0.32278764 0.015048717 0.056309327 0.4959449 0.1599516 -0.16115102 -0.33496332 0.25236762
00000000: ae28 e43e 63a2 473e 06b5 23be d1b0 a2bc
00000010: 7062 9d3d a5be f33e 88e2 1e3e 82b8 033d
00000020: 289a 013f 95fc 313e 11f7 07bb 1502 a7bd
00000030: 5b3b dabe 1f99 f53e 0497 81be 722a 9c3e
00000040: 2d6f eabe 8046 e03e 76b0 ad3e 4cd0 b93e
00000050: 2f2c ce3e 60aa a33d 921d a63d 56d2 a1be
00000060: 618f d43b b423 e4bd e62f 69be 6a6b b23c
00000070: ea89 dfbd 669f 87be cc35 4c3e cb4f 08bf
00000080: 33d8 cdbe 9c12 ba3e 9a4a 4ebe d0c1 f43c
00000090: aeb8 babe 6269 d73e 64cb 9cbe ea91 5f3e
000000a0: d0a8 b43d 4827 363e a66d ddbe acfb afbc
000000b0: 9576 e6bd 76de ec3e b0eb e0be 5c5b 5bbe
000000c0: 4231 88be 9ba2 c3bd e281 ed3e d953 073f
000000d0: 81e9 3bbd be02 d93d 7aad d03e fed1 95bd
000000e0: 6c44 a53e e58e 763c 9ca4 663d 7dec fd3e
000000f0: 5aca 233e c604 25be 5080 abbe 5436 813e
