experiments/pedestrians/models/06_Aug_2023_21_23_08/model_registrar-11.pt (torch, 713991 bytes, 82 tensors)

weight f4 [64, 10]
0	0xbe41fe5a	-0.18944684
1	0xbe0011fb	-0.12506859
2	0x3e8b92a2	0.2726031
3	0x3dca6fb7	0.09884589
4	0xbe78013a	-0.24219218
5	0x3f3b2099	0.73096615
6	0x3ccf0446	0.025270592
7	0xbe7135af	-0.23555635
8	0xbe1b4e31	-0.15166546
9	0x3e054fc1	0.13018705
10	0xbcbb2b23	-0.022847718
11	0x3e6b5c54	0.22984439
12	0x3ea04b62	0.31307513
13	0xbde4d3c3	-0.11173203
14	0xbdc4e318	-0.09613627
15	0xbeabe3ce	-0.3357224
16	0xbe97e0ba	-0.2966364
17	0xbec27aea	-0.379844
18	0xbdf85a7e	-0.12126635
19	0x3da70e88	0.081570685
20	0x3e0c0e32	0.1367729
21	0x3d591238	0.05299589
22	0xbdf9ad73	-0.12191286
23	0x3f122c82	0.57099164
24	0x3e361e86	0.17785081
25	0xbd5344aa	-0.051579155
26	0xbe6c6a25	-0.23087366
27	0x3bd35db4	0.0064503793
28	0x3d1c1a36	0.038110934
29	0xbdf63a28	-0.12022811
30	0xbdf1806d	-0.117920734
31	0x3d9d2ec8	0.076749384
32	0xbd4f12b1	-0.050554935
33	0x3d6479b7	0.05578014
34	0xbeb3417e	-0.35010904
35	0x3f09e76a	0.53868735
36	0xbe8ed00b	-0.278931
37	0xbe5ea801	-0.21743776
38	0xbd26051c	-0.040532216
39	0xbe84d4d9	-0.2594364
40	0x3dd0dce0	0.101983786
41	0xbda0257d	-0.0781965
42	0x3d902a14	0.07039276
43	0x3e318760	0.17336798
44	0x3edae8a2	0.4275561
45	0x3d63dacf	0.055628594
46	0x3e4e1e47	0.20128737
47	0x3da7d8c7	0.08195644
48	0xbea87625	-0.32902637
49	0x3dbf019b	0.09326478
50	0x3d6404d0	0.055668652
51	0x3e242057	0.16027962
52	0x3e9bc591	0.3042417
53	0x3d3397d8	0.04384598
54	0xbd9594db	-0.073037826
55	0x3dfc7927	0.123277955
56	0x3da97b0e	0.08275424
57	0xbdcf1352	-0.10111107
58	0xbe1821e6	-0.14856681
59	0xbc6c91ec	-0.014439087
60	0xbceca6c4	-0.028888114
61	0x3e0bf982	0.13669398
62	0x3ef2aec9	0.47398975
63	0x3dfa7254	0.122288376
64	0x3e9d85e4	0.30766213
65	0xbea99e72	-0.33128697
66	0xbe976bb1	-0.2957435
67	0x3e6fc706	0.23415765
68	0x3e8d509d	0.27600566
69	0x3e46c63c	0.19411558
70	0xbdcf87b4	-0.10133305
71	0xbe004782	-0.12527278
72	0x3e5b7348	0.21430695
73	0xbec61cc3	-0.38693818
74	0xbf0e215f	-0.5551967
75	0xbe7b275a	-0.2452673
76	0x3eb73767	0.35784456
77	0xbc953dbc	-0.018217914
78	0x3bafe041	0.0053673093
79	0xbbac4721	-0.0052575027
80	0xbd898506	-0.06714825
81	0x3d219dc7	0.03945711
82	0xbe6d0611	-0.23146845
83	0x3e2f0b2a	0.17094103
84	0xbf00f036	-0.5036653
85	0xbc4c80b1	-0.012481854
86	0xbe7853d5	-0.2425073
87	0xbe886a6d	-0.26643696
88	0x3e0b5bf2	0.13609293
89	0x3bfcb601	0.0077121262
90	0xbd882196	-0.06647031
91	0x3d641ce1	0.055691604
92	0x3e9e8670	0.30961943
93	0x3e802437	0.2502763
94	0x3dec58c0	0.11540365
95	0x3ef8b665	0.48576656
96	0x3e09540d	0.13410969
97	0xbe7e5be4	-0.24839741
98	0x3e9124c4	0.28348362
99	0x3e82b326	0.25527304
100	0xbe27dc12	-0.16392544
101	0x3c677b98	0.014128588
102	0x3df87dd9	0.121333785
103	0x3e2b084b	0.16702382
104	0xbef01568	-0.46891332
105	0xbdc6a569	-0.09699518
106	0xbe35365d	-0.17696519
107	0x3d9ddcec	0.07708153
108	0x3e34c11f	0.17651795
109	0xbe9ef124	-0.3104335
110	0x3c2ce690	0.010553017
111	0xbe216ccd	-0.1576416
112	0x3ee9f379	0.45693567
113	0xbe8e75aa	-0.27824146
114	0xbf115310	-0.5676737
115	0xbf12d2d2	-0.57352936
116	0x3c272829	0.010202446
117	0x3ea38763	0.3193923
118	0xbe558f24	-0.20855385
119	0xbe1801e0	-0.14844465
120	0xbe6a6c30	-0.22892833
121	0x3e7bf23b	0.24604122
122	0x3ed4c753	0.41558322
123	0x3e9620ba	0.29321843
124	0x3e7ef6b0	0.24898791
125	0x3e91f11e	0.2850427
126	0x3e70904d	0.23492546
127	0xbd44e025	-0.048065323
128	0x3d94c74c	0.07264575
129	0xbe18b48d	-0.14912625
130	0xbd1ae38d	-0.037814666
131	0x3d882a8d	0.06648741
132	0xbe2bb0d5	-0.16766675
133	0xbf02c17a	-0.5107647
134	0x3e6de813	0.2323306
135	0xbe0f4448	-0.13990891
136	0x3e0128a9	0.12613167
137	0xbe0ee4a8	-0.13954413
138	0xbc0fc5f6	-0.008775225
139	0xbe2ccde6	-0.16875419
140	0x3e58df11	0.21178843
141	0xbe343c2f	-0.17601083
142	0xbe0fb214	-0.14032775
143	0x3edccc4f	0.43124625
144	0xbe198258	-0.14991128
145	0x3d994710	0.07484257
146	0x3e1de46b	0.15419166
147	0xbd915974	-0.0709714
148	0xbdd74fb6	-0.105132505
149	0x3e8642cf	0.26222846
150	0x3b295faa	0.0025844374
151	0x3e8045d6	0.2505328
152	0xbc23f279	-0.01000654
153	0xbe106dc0	-0.14104366
154	0x3eaa4df9	0.33262613
155	0xbeb4449b	-0.35208592
156	0xbe6c128e	-0.23053953
157	0x3e2954b3	0.16536216
158	0xbe5ac739	-0.2136506
159	0x3dd342fa	0.10315509
160	0xbe7dbadd	-0.24778314
161	0x3e866667	0.26250002
162	0x3e309b8c	0.17246836
163	0x3e646db7	0.22307478
164	0xbf237a4f	-0.63858503
165	0x3e9e58df	0.30927178
166	0x3e01e3fa	0.12684622
167	0x3e992763	0.29912862
168	0x3d511c40	0.051052332
169	0x3eeafae3	0.45894536
170	0x3e91ecef	0.28501078
171	0x3e913219	0.28358534
172	0xbc25fc3a	-0.010130936
173	0x3e9c3c17	0.30514595
174	0xbe044b60	-0.12919378
175	0x3e8ef3ca	0.2792037
176	0x3d944ed4	0.07241598
177	0x3d9fcf03	0.07803156
178	0x3bc79fc0	0.0060920417
179	0x3e33b1cf	0.17548297
180	0xbd31642c	-0.043308422
181	0x3e38567d	0.18001743
182	0x3efe3e92	0.49657112
183	0xbdc9f26c	-0.098606914
184	0xbe2db201	-0.16962434
185	0x3e7d4762	0.24734262
186	0x3e9831dc	0.2972554
187	0x3d42e157	0.047578182
188	0x3e5f7bbc	0.21824545
189	0x3ea5ccd9	0.3238285
190	0x3e7b08fb	0.24515145
191	0x3d9cd598	0.07657927
192	0xbebab02e	-0.3646254
193	0xbe14e227	-0.14539395
194	0xbebff4a3	-0.3749133
195	0xbd436326	-0.047701977
196	0x3db62359	0.08893461
197	0x3e10d9a5	0.14145525
198	0xbe67876e	-0.22610256
199	0x3e7246eb	0.23659866
200	0xbe0e6d37	-0.1390885
201	0x3dcdaba6	0.10042505
202	0xbeba9545	-0.3644201
203	0x3eb3a247	0.35084745
204	0x3ec83dad	0.39109555
205	0xbdf7dd3d	-0.12102745
206	0x3dda9848	0.106735766
207	0xbcfd74f9	-0.030939566
208	0x3ead216d	0.33814564
209	0x3c49e056	0.012321552
210	0xbe5c813e	-0.21533677
211	0xbccec228	-0.025239065
212	0x3de9b33a	0.11411138
213	0x3dd38b47	0.103292994
214	0x3ed01ca8	0.40646863
215	0x3f5724a7	0.840403
216	0x3e88e44d	0.2673668
217	0x3d98e029	0.0746463
218	0x3de0b790	0.10972512
219	0xbdea3769	-0.1143635
220	0x3d4350fe	0.047684662
221	0x3e8970fa	0.26844007
222	0xbe3d11c0	-0.18463802
223	0x3dc0f412	0.09421553
224	0x3e05a5de	0.13051555
225	0x3e73ca95	0.23807748
226	0x3e38baf6	0.1804007
227	0x3e517b1f	0.20457123
228	0x3d3cc903	0.046090137
229	0xbe5573aa	-0.20844904
230	0x3dbab124	0.09115818
231	0xbe356789	-0.17715277
232	0xbe33f4d1	-0.17573859
233	0x3edcdb8e	0.43136257
234	0xbd7c2c29	-0.061565552
235	0xbe518c08	-0.20463574
236	0xbd3a21ec	-0.045442507
237	0x3e1a00be	0.15039346
238	0xbd44b4ae	-0.048023872
239	0x3e582072	0.21106127
240	0x3e3bedf8	0.18352497
241	0xbdea86c9	-0.114514895
242	0xbe1e666b	-0.15468757
243	0xbe095de8	-0.13414729
244	0x3eb37da1	0.35056785
245	0x3e465dd1	0.19371726
246	0x3d5aa5e2	0.053380854
247	0xbe99a0c4	-0.30005467
248	0xbd1f0354	-0.038821533
249	0xbe8d6984	-0.27619565
250	0xbe543a92	-0.20725468
251	0xbe5a7b91	-0.213362
252	0x3db281b8	0.08716148
253	0x3edd65de	0.4324178
254	0xbe5cd5e7	-0.21565972
255	0xbeb15017	-0.34631416

bias f4 [64]
0	0xbe43262a	-0.19057527
1	0xbde61493	-0.11234393
2	0xbe559b84	-0.20860106
3	0x3e907c3b	0.2821978
4	0x3d5c3bdd	0.053768028
5	0x3e46bb0b	0.19407289
6	0xbe9f27fb	-0.3108519
7	0xbd0bf6b0	-0.034170806
8	0xbc50c555	-0.01274236
9	0x3e67e6df	0.22646664
10	0xbdad556c	-0.084635586
11	0x3eb6012c	0.3554777
12	0xbdbb3116	-0.09140222
13	0x3e56e8cd	0.20987244
14	0xbe4b2582	-0.19838527
15	0xbd40756c	-0.046986982
16	0xbcfc1bf5	-0.03077505
17	0xbe3284ad	-0.17433424
18	0x3e90447f	0.28177258
19	0x3e07bc9b	0.13255541
20	0x3d39a042	0.04531885
21	0x3d72b1b6	0.05925151
22	0x3df6c1ca	0.12048681
23	0xbd436a0c	-0.047708556
24	0xbdd2a733	-0.10285797
25	0x3e17bf96	0.14819178
26	0xbd8b0262	-0.06787564
27	0xbddc3bc8	-0.1075359
28	0xbe851c90	-0.25998354
29	0x3de436d8	0.11143273
30	0x3dd56426	0.104194924
31	0xbe7b6bb3	-0.24552803
32	0xbe543fcf	-0.20727466
33	0x3e4842ac	0.19556683
34	0xbeba9994	-0.36445296
35	0x3e62fc29	0.22166504
36	0x3e2a9cc1	0.1666136
37	0xbdeb7578	-0.11497015
38	0xbe11f03d	-0.142518
39	0xbd7ec8c1	-0.062203173
40	0xbe84a947	-0.25910398
41	0x3e4b50ea	0.19855085
42	0xbd8612b0	-0.06546533
43	0xbdf05083	-0.117341064
44	0xbe3e22d2	-0.1856797
45	0x3e6ef37a	0.23335066
46	0xbe10c7a0	-0.14138651
47	0xbe53f6e9	-0.20699657
48	0x3e18e010	0.14929223
49	0xbe56cad6	-0.20975813
50	0xbd4ea2d8	-0.05044827
51	0x3e1fd421	0.15608265
52	0xbe987bfe	-0.297821
53	0xbea56b14	-0.32308257
54	0xbeab1f1e	-0.33422178
55	0x3d3ebd45	0.04656722
56	0x3e0d1214	0.13776428
57	0x3e2960e7	0.16540872
58	0x3e7e4c25	0.24833734
59	0x3e6b8def	0.23003362
60	0xbe42486f	-0.18972944
61	0x3e19c4a7	0.15016423
62	0x3eadb69b	0.3392838
63	0xbe6e70ad	-0.2328517

weight f4 [32, 32]
0	0xbe8edc9c	-0.27902687
1	0xbe20abc0	-0.15690517
2	0x3e98dfbf	0.29858205
3	0xbd5b4ce8	-0.05354014
4	0xbde3ebdd	-0.11128972
5	0xbcc02193	-0.02345351
6	0x3c5b03ad	0.013367576
7	0x3cf2ca26	0.029637408
8	0xbdfb523c	-0.12271544
9	0xbeaf2449	-0.3420737
10	0x3e003a95	0.12522347
11	0x3d84cbfa	0.06484218
12	0xba5a6ef0	-0.0008332571
13	0x3e31c46a	0.17360082
14	0xbe433959	-0.19064845
15	0x3dc2b466	0.095070645
16	0xbd37784b	-0.044792455
17	0x3e27d5ff	0.16390227
18	0x3e3c6b96	0.18400416
19	0x3e83001a	0.25586015
20	0xbe46cc54	-0.19413882
21	0x3e0aaaa8	0.13541663
22	0x3e28f3de	0.16499278
23	0xbe7812cf	-0.24225925
24	0xbd26fcb7	-0.04076835
25	0x3de1463c	0.10999724
26	0x3d7eaaed	0.062174726
27	0x3de14a41	0.11000491
28	0x3e3ffe16	0.1874927
29	0x3d88a825	0.06672696
30	0x3db5dd64	0.088801175
31	0x3df2cfe2	0.11856057
32	0x3dddc634	0.1082882
33	0xbcc721d3	-0.02430812
34	0xbe924102	-0.28565222
35	0x3c40d822	0.01177028
36	0xbe253f36	-0.16137394
37	0x3d877bb3	0.06615391
38	0x3e0cfc45	0.13768108
39	0xbd8f7b75	-0.070059694
40	0xbe8159fa	-0.2526396
41	0xbe60471e	-0.21902129
42	0xbe42ca18	-0.19022405
43	0xbe45f6eb	-0.19332473
44	0x3d4f431d	0.050601114
45	0x3c9c0419	0.019044923
46	0xbd28cd01	-0.041211132
47	0xbd1daa6d	-0.03849261
48	0x3d174494	0.036930636
49	0x3dfdef37	0.12399142
50	0x3e28c8fd	0.16482921
51	0x3ebe2c63	0.3714324
52	0x3e1e859e	0.15480658
53	0xbdb57ee5	-0.08862094
54	0x3e06f6cb	0.13180082
55	0xbd70b373	-0.058764886
56	0x3ce2c13c	0.027680032
57	0x3d19f871	0.037590448
58	0x3e30e65c	0.17275375
59	0x3d9fae3e	0.07796906
60	0xbe074bca	-0.13212505
61	0xbe02364e	-0.12716028
62	0x3e05ba57	0.13059364
63	0x3cb0d7ed	0.021587336
64	0x3e8f7796	0.28020924
65	0xbe1ab228	-0.15107024
66	0x3da4c3b8	0.08045143
67	0xbef078b6	-0.46967095
68	0xbe838d8a	-0.25693923
69	0xbd3aef66	-0.045638464
70	0xbdcc5e31	-0.09978903
71	0xbdb0614f	-0.0861231
72	0xbdf7473b	-0.12074133
73	0x3e5bf464	0.21479946
74	0x3e5bdf76	0.21471962
75	0xbe42965b	-0.19002669
76	0xbe80449a	-0.2505234
77	0x3ea0f5e6	0.31437606
78	0xbea69a8b	-0.32539782
79	0xbdba97a3	-0.09110954
80	0x3d8f835d	0.070074774
81	0x3e980556	0.2969157
82	0x3ea68e1b	0.32530293
83	0xbebf4757	-0.37359115
84	0xbbfe9303	-0.00776899
85	0x3d08218d	0.03323512
86	0xbd1214f5	-0.035664517
87	0xbdbde734	-0.09272614
88	0xbc5dbf20	-0.013534337
89	0xbd9a181f	-0.07524132
90	0xbc57a2ae	-0.013161344
91	0xbe4d0be6	-0.2002407
92	0x3e85954d	0.2609047
93	0xbe6e5a94	-0.2327674
94	0xbdbb1b74	-0.09136096
95	0xbe4a762b	-0.1977164
96	0x3e3c7620	0.18404436
97	0xbdba567f	-0.09098529
98	0x3d294f57	0.04133543
99	0x3e28cb0e	0.16483709
100	0xbd3d2479	-0.04617736
101	0x3e123198	0.14276731
102	0x3e226123	0.15857367
103	0xbe5cdcef	-0.21568654
104	0xbe340e10	-0.1758349
105	0x3e31644d	0.17323418
106	0x3deff697	0.11716955
107	0xbde0e464	-0.10981062
108	0x3e6636e7	0.22481881
109	0x3be96a14	0.007123241
110	0xbde18b52	-0.11012901
111	0xbd343f18	-0.044005483
112	0xbe2deea1	-0.16985561
113	0x3db0a19d	0.08624575
114	0xbd9ade97	-0.07561987
115	0x3e5b502a	0.21417299
116	0x3d820b36	0.063497946
117	0x3d9cdf5d	0.07659791
118	0x3e81adbc	0.2532786
119	0xbb03694e	-0.002005178
120	0xbd84ef68	-0.064909756
121	0x3d4bfa30	0.049799144
122	0x3cf6da20	0.030133307
123	0x3e37492a	0.17899004
124	0xbc8a84d5	-0.016909042
125	0x3e445ac3	0.19175248
126	0x3e617c76	0.22020134
127	0x3df3133b	0.11868902
128	0xbe8ca532	-0.27469784
129	0xbdae5b0e	-0.08513461
130	0x3e7bcf55	0.2459081
131	0x3d3499b5	0.0440919
132	0x3e2ea9ad	0.17056914
133	0xbc3b496b	-0.011431078
134	0x3ddcf4ad	0.10788856
135	0x3e95c6b8	0.29253173
136	0x3dfdbf2f	0.12389981
137	0xbe4bef94	-0.1991561
138	0x3e7c1a7f	0.24619482
139	0x3e0648a1	0.13113643
140	0xbe493155	-0.19647725
141	0x3e1651f9	0.14679708
142	0xbbde8e0e	-0.0067918366
143	0x3d88f553	0.06687417
144	0xbdbbd81c	-0.09172079
145	0x3d43c2c9	0.047793183
146	0x3e436e64	0.1908508
147	0x3ea1642a	0.31521732
148	0x3e476693	0.19472723
149	0xbe7d698d	-0.24747296
150	0x3e122d32	0.14275053
151	0x3a5afa7e	0.0008353366
152	0x3e1225ef	0.14272283
153	0x3e05a3e2	0.13050798
154	0x3e01103b	0.12603848
155	0xbdc7684b	-0.09736689
156	0x3e038408	0.12843335
157	0x3eb2417e	0.34815592
158	0x3e080df5	0.13286574
159	0xbdb6d11e	-0.08926605
160	0x3eac17c8	0.33611894
161	0xbc364254	-0.011124212
162	0xbdd5085b	-0.10401984
163	0xbed0312f	-0.40662524
164	0xbd1e3634	-0.03862591
165	0x3e20d28d	0.15705319
166	0xbc558e69	-0.0130344415
167	0xbe01b043	-0.12664895
168	0x3ba0b6ce	0.0049046045
169	0x3dce0c0f	0.10060894
170	0x3db2587e	0.08708285
171	0x3dceb6dc	0.100934714
172	0xbc8420fa	-0.016129006
173	0x3e16fe63	0.14745478
174	0xbe1bbe5c	-0.15209335
175	0xbe16b1b3	-0.14716224
176	0xbd9502ec	-0.07275948
177	0xbe9f872f	-0.31157824
178	0x3c7fd05d	0.0156136425
179	0xbe76f3ed	-0.24116488
180	0x3d804911	0.06263936
181	0x3d289082	0.04115344
182	0x3d72c308	0.059268028
183	0x3e09b2d1	0.1344712
184	0xbdd66c48	-0.10469872
185	0x3e51c7ff	0.20486449
186	0xbdaac0ea	-0.08337577
187	0x3cad3a81	0.02114606
188	0xbb637b72	-0.003471103
189	0xbe2f066b	-0.17092292
190	0x3d135f14	0.035979345
191	0xbdab24cf	-0.0835663
192	0xbe0fee22	-0.14055684
193	0x3d8d8212	0.069095746
194	0x3dbd21bd	0.09234951
195	0x3c602629	0.013680973
196	0x3b94531d	0.0045265094
197	0xbc21e2bb	-0.009880717
198	0x3e93ffdd	0.28906146
199	0x3e96d123	0.29456434
200	0x3d8a1364	0.0674198
201	0x3dd79744	0.105268985
202	0x3da65efc	0.081235856
203	0x3e9bbefa	0.3041914
204	0xbdec7c87	-0.11547189
205	0xbe11fc59	-0.14256419
206	0x3e4453bf	0.19172572
207	0xbd435018	-0.047683805
208	0xbb15879e	-0.002281643
209	0xbdd7ceb2	-0.10537471
210	0xbe5784ce	-0.21046755
211	0x3dd9e845	0.10640005
212	0x3d3021f2	0.043001123
213	0xbe4d62f6	-0.20057282
214	0x3e5d755c	0.216268
215	0x3e85a04a	0.26098853
216	0x3e1e954c	0.1548664
217	0x3d9de50f	0.07709705
218	0x3d781aaf	0.060572322
219	0xbd163fed	-0.036682058
220	0xbde3b349	-0.1111818
221	0x3e00f8c6	0.125949
222	0xbd7507cd	-0.059821893
223	0x3d22cf47	0.039748456
224	0x3da9388b	0.08262738
225	0x3d8972b6	0.067113325
226	0x3d895a95	0.0670673
227	0xbe7ca45b	-0.24672072
228	0x3bd05227	0.0063574496
229	0x3e67d66c	0.22640389
230	0x3e990754	0.29888403
231	0x3db54e63	0.08852842
232	0xbe20670b	-0.15664308
233	0x3dbe5a59	0.09294576
234	0x3d2b608c	0.04184012
235	0x3e3a8e97	0.18218456
236	0x3e70495d	0.23465486
237	0x3e0a17d9	0.1348566
238	0xbd9a3601	-0.07529832
239	0x3e3c9506	0.18416223
240	0x3d4179d8	0.04723534
241	0x3e22bc28	0.15892088
242	0x3cf37e10	0.029723197
243	0x3ec266a9	0.37968948
244	0x3e5a7ac1	0.2133589
245	0x3d23cfb6	0.03999301
246	0x3e56ef41	0.20989706
247	0xbdb0ada7	-0.086268716
248	0x3b19ee49	0.0023487976
249	0x3df75144	0.12076047
250	0x3d12b250	0.035814583
251	0x3e11b150	0.14227796
252	0x3d984b0d	0.0743619
253	0x3d9a24bb	0.07526537
254	0x3e88d449	0.2672446
255	0xbdcd07ab	-0.10011228

bias f4 [32]
0	0xbe0c6e37	-0.13713919
1	0xbd2935bf	-0.041311022
2	0x3e3f4c22	0.18681386
3	0x3c577fd2	0.013153033
4	0xbe265fd0	-0.16247487
5	0x3e1f2a26	0.15543422
6	0x3d493582	0.049123295
7	0x3e133d98	0.14378965
8	0x3dda7f95	0.106688656
9	0xbb160031	-0.0022888298
10	0x3d83402c	0.06408724
11	0x3e126da3	0.14299636
12	0xbd0f32f0	-0.034960687
13	0x3cbc7395	0.023004333
14	0xbd82a5ab	-0.06379255
15	0x3e067e92	0.1313422
16	0xbe0ee3a2	-0.13954023
17	0x3ddcd4bc	0.10782763
18	0x3d954552	0.072886124
19	0xbd43cc37	-0.047802176
20	0x3e163ef8	0.14672458
21	0xbdff81d6	-0.12475936
22	0xbdded521	-0.10880495
23	0x3cba8471	0.022768231
24	0xbdb85d9c	-0.090022296
25	0x3d66a244	0.056307092
26	0xbddf774e	-0.109114274
27	0xbe367540	-0.17818165
28	0xbe134bc5	-0.14384373
29	0xbe2c8ef8	-0.16851413
30	0xbc6501aa	-0.0139774475
31	0xbd25488f	-0.0403524

weight f4 [32, 64]
0	0xbd50c808	-0.050972015
1	0x3b87ada0	0.0041405708
2	0xbd7e4a08	-0.06208232
3	0x3d411508	0.047139198
4	0xbdda2048	-0.106506884
5	0x3dbba8c4	0.09163049
6	0xbdba1234	-0.09085503
7	0xbdcb87de	-0.09938024
8	0xbda1c35a	-0.078985885
9	0x3d67e1a8	0.056611687
10	0xbd3d2e14	-0.04618652
11	0x3d3f98e4	0.046776667
12	0xbdd94654	-0.10609117
13	0xbd9b523e	-0.07584046
14	0xbd3bfe80	-0.045897007
15	0xbcc93c78	-0.024564967
16	0xbdc34b04	-0.095357925
17	0x3da7a05e	0.081848845
18	0xbcf17db8	-0.029478893
19	0x3d245880	0.040123463
20	0x3db5075c	0.08839294
21	0x3cbec700	0.02328825
22	0x3d0c01bc	0.03418134
23	0x3df71b32	0.12065734
24	0xbd66eab4	-0.056376174
25	0x3d222d38	0.039593905
26	0xbd63cc0c	-0.055614516
27	0x3db6f348	0.08933121
28	0x3dcc74c0	0.09983206
29	0xbdec0660	-0.115246534
30	0x3dda8888	0.106705725
31	0x3d747cc4	0.0596893
32	0x3d5f1cdc	0.05447088
33	0x3d52c70c	0.051459357
34	0x3dd4d004	0.10391238
35	0xbc873560	-0.016504943
36	0xbdd87fb2	-0.10571231
37	0xbd12eaf8	-0.035868615
38	0xbdb44b58	-0.08803433
39	0x3c0762f0	0.008263335
40	0xbcbf3040	-0.023338437
41	0xbd895086	-0.06704812
42	0xbc3a3500	-0.011365175
43	0x3df2890e	0.11842547
44	0xbc218970	-0.009859428
45	0x3b820c60	0.0039687604
46	0xbc9fb420	-0.01949507
47	0x3ca0fae0	0.019650877
48	0x3de41968	0.11137658
49	0x3d9c8acc	0.07643661
50	0x3d35bd84	0.04437019
51	0x3cde86a8	0.027163818
52	0x3cf173b0	0.02947411
53	0x3d45cd78	0.048291653
54	0xbc845328	-0.016152933
55	0xbdededbc	-0.1161761
56	0xbd9e503e	-0.07730149
57	0x3dda8498	0.106698215
58	0x3bf4d500	0.0074716806
59	0xbdcf60fa	-0.10125919
60	0x3ca18350	0.019715935
61	0x3dd3868a	0.10328396
62	0xbdf1eb80	-0.11812496
63	0xbdac596a	-0.08415492
64	0xbd4be978	-0.0497832
65	0x3ba46740	0.005017191
66	0xbceed3b0	-0.029153675
67	0xbc610ea0	-0.013736397
68	0xbdf99266	-0.121861264
69	0x3d6fc248	0.05853489
70	0x3de0b3c8	0.109717906
71	0x3d9c7a1e	0.076404795
72	0xbdb5482a	-0.08851655
73	0xbdce5cca	-0.10076292
74	0x3d549bf4	0.05190654
75	0x3b37fb00	0.0028073192
76	0x3d51e278	0.051241368
77	0xbdfa2698	-0.122143924
78	0xbbf43740	-0.0074528754
79	0x3db48ada	0.08815546
80	0x3d6d85cc	0.057988927
81	0x3b959340	0.0045646727
82	0x3cc95680	0.02457738
83	0xbc41e7a0	-0.011835009
84	0xbd8cc1e4	-0.06872919
85	0xbd417c04	-0.04723741
86	0xbd9be618	-0.07612246
87	0x3dd4a2ce	0.10382615
88	0x3d8cdf96	0.06878583
89	0x3d330ed8	0.043715328
90	0xbdc45072	-0.09585656
91	0x3dc58902	0.09645273
92	0x3d2088ac	0.03919284
93	0x3db11974	0.08647433
94	0xbd496a6c	-0.049173757
95	0x3cd915b8	0.026499614
96	0x3df9f432	0.1220478
97	0x3dac3364	0.084082395
98	0x3dcd4fa8	0.10024959
99	0xbcd70640	-0.026248097
100	0x3dc30a62	0.09523465
101	0xbdc881e8	-0.09790403
102	0x3c312120	0.01081112
103	0xbd90245e	-0.070381865
104	0xbceecff8	-0.029151902
105	0xbd031f34	-0.03201218
106	0x3c193ac0	0.009352386
107	0x3de8feea	0.11376746
108	0x3d7d7ba4	0.06188549
109	0xba0ad000	-0.00052952766
110	0x3db5b870	0.08873069
111	0xbd83304a	-0.06405695
112	0x3d83ef62	0.06442143
113	0xbc3deaa0	-0.0115915835
114	0xbcb22fe8	-0.02175136
115	0x3c6fc430	0.014634177
116	0xbdc41eea	-0.09576209
117	0x3c6ca950	0.014444664
118	0x3d2c2764	0.042029753
119	0x3ddadcce	0.106866464
120	0xbd1f685c	-0.038917884
121	0x3d385588	0.045003444
122	0x3dffe006	0.12493901
123	0xbd5ba1d4	-0.05362113
124	0x3df35a06	0.11882405
125	0xbd7e3434	-0.062061504
126	0x3d61afe0	0.055099368
127	0x3d489378	0.048968762
128	0x3d0f0418	0.034916013
129	0x3dca7212	0.098850384
130	0xbd4eeea4	-0.050520554
131	0x3d069038	0.03285238
132	0x3a37e600	0.00070151687
133	0xbdc08c5a	-0.0940177
134	0xbcf8a438	-0.030351743
135	0xbdaaf674	-0.083477885
136	0x3d626230	0.05526942
137	0x3c381b60	0.011236995
138	0x3c48a1b0	0.012245581
139	0xbd1b5368	-0.03792134
140	0x3a1d9100	0.00060106814
141	0xbd1f410c	-0.038880393
142	0x3d131db8	0.035917014
143	0x3df89e94	0.121396214
144	0x3c9b1b18	0.018933818
145	0xbd62c630	-0.055364788
146	0xbd9c5f3a	-0.076353505
147	0x3c1c8c10	0.009554878
148	0xbdbde9a2	-0.092730775
149	0xbdc06c26	-0.09395628
150	0xbda69fe0	-0.081359625
151	0xbd2de5ec	-0.0424556
152	0x3c179680	0.009252191
153	0x3db048da	0.08607645
154	0x3d465158	0.04841742
155	0x3dc4205c	0.095764846
156	0xbda0bde2	-0.07848717
157	0x3c2cd3b0	0.010548517
158	0xbde38db0	-0.11111009
159	0x3d92db32	0.071707144
160	0x3cd56968	0.026051238
161	0x3df79b62	0.12090184
162	0xbdb61200	-0.08890152
163	0x3dcd4b46	0.10024123
164	0x3dd81f3a	0.10552831
165	0x3dcefb02	0.1010647
166	0x3c921e98	0.017836854
167	0x3de8c688	0.11365992
168	0x3daaf73c	0.083479375
169	0x3dbeff0e	0.093259916
170	0xbc050a30	-0.008120105
171	0xbdc47434	-0.095924765
172	0xbacbe200	-0.0015555024
173	0x3cc00a08	0.023442283
174	0xbdae6118	-0.08514613
175	0xbd92da04	-0.071704894
176	0xbdf57068	-0.119843304
177	0xbd337af4	-0.04381843
178	0x3ddefe58	0.10888356
179	0x3caf1998	0.021374509
180	0xbbfa2f20	-0.0076350123
181	0x3ba47cc0	0.005019754
182	0x3d9fa0b0	0.077943206
183	0xbde21074	-0.110382944
184	0xbdc586e6	-0.096448705
185	0xbd2a3990	-0.041558802
186	0xbd935528	-0.07193977
187	0x3d840a7e	0.06447314
188	0x3db4e2a8	0.08832294
189	0xbdf860b8	-0.12127823
190	0xbdd94312	-0.10608496
191	0xbdf94c20	-0.12172723
192	0x3d412780	0.04715681
193	0x3dce0af2	0.100606814
194	0xbdc67cb0	-0.09691751
195	0xbd6d08a0	-0.057869554
196	0x3d22edd0	0.039777577
197	0xbda72a0c	-0.08162317
198	0x3dd9777e	0.106184945
199	0x3ceec1d0	0.029145151
200	0xbd0e884c	-0.03479795
201	0x3c0504d0	0.008118823
202	0x3d1fa020	0.038971066
203	0xbd350cc8	-0.044201642
204	0xbdc65cf4	-0.09685698
205	0x3a5c4100	0.000840202
206	0x3b153780	0.0022768676
207	0x3b253180	0.0025206506
208	0xbc956ec0	-0.018241286
209	0x3da45eee	0.08025919
210	0xbd0ee0d8	-0.034882396
211	0xbc463b40	-0.012099087
212	0x3d528730	0.051398456
213	0xbda122ce	-0.078679666
214	0x3d0917a8	0.033469826
215	0xbce26c28	-0.027639464
216	0x3d7597c4	0.059959188
217	0xbd8adef2	-0.06780805
218	0x3b9761a0	0.004619792
219	0x3c485ac0	0.012228668
220	0xbdcdfa0a	-0.10057457
221	0xbdba25fe	-0.09089278
222	0x3d445bdc	0.047939166
223	0xbd15055c	-0.036382064
224	0x3d98099c	0.07423708
225	0xbdfce490	-0.12348282
226	0xbd7d18a4	-0.061791077
227	0xbdd2db82	-0.10295774
228	0x3d4c8784	0.049933925
229	0xbb6d7f40	-0.0036239177
230	0xbcbeff78	-0.023315176
231	0xbcaa5d40	-0.020796418
232	0xbdc81a24	-0.09770611
233	0x3d11335c	0.03544937
234	0x3b4c3140	0.0031157285
235	0xbdb0ab3e	-0.08626412
236	0x3d40a8c8	0.047035962
237	0xbb24a6c0	-0.0025123805
238	0xbdf796fc	-0.12089345
239	0x3d89b524	0.06724003
240	0x3d88ee5c	0.066860884
241	0xbcc0ee98	-0.02355127
242	0xbdb0c08e	-0.08630477
243	0x3ba47460	0.005018756
244	0x3dc12c24	0.09432247
245	0x3dea53b6	0.11441748
246	0xbdc13aa4	-0.09435013
247	0xbd674128	-0.056458622
248	0x3dc753ee	0.09732805
249	0x3d7a4124	0.06109728
250	0x3d9e77a2	0.07737662
251	0xbd7ed708	-0.06221679
252	0x3ddc8d86	0.10769181
253	0xbdd272ea	-0.10275824
254	0xbbc54cc0	-0.006021112
255	0x3b2a1700	0.002595365

bias f4 [32]
0	0x3bc4a0e0	0.006000623
1	0xbdf590fa	-0.11990543
2	0x3c824228	0.015900686
3	0x3d34205c	0.043976173
4	0x3de51af6	0.11186783
5	0xbd25f43c	-0.040516123
6	0x3d38ac5c	0.04508625
7	0xbd2b9140	-0.041886568
8	0xbd340bb4	-0.043956473
9	0xbde2d6e8	-0.11076146
10	0x3cd823a8	0.02638419
11	0x3dabc6c2	0.083875194
12	0xbd8e6972	-0.06953706
13	0x3d5152e4	0.05110444
14	0xbc9fbaf8	-0.019498333
15	0xbdb5c1a4	-0.08874825
16	0x3c5a6040	0.013328612
17	0xbdf978e2	-0.1218126
18	0x3d893b9e	0.06700824
19	0xbce24198	-0.027619168
20	0x3debc534	0.11512223
21	0x3b973520	0.0046144873
22	0xbdf8308a	-0.12118633
23	0x3dc6a8d2	0.09700169
24	0xbcdffb10	-0.027341396
25	0xbdaf5ae6	-0.085622594
26	0x3dec5cbc	0.11541125
27	0x3c3f4760	0.011674732
28	0x3d25ff34	0.040526584
29	0xbddd7652	-0.108135834
30	0xbd34d278	-0.04414603
31	0x3dcd66e6	0.10029392

weight_ih_l0 f4 [128, 32]
0	0x3d29c85c	0.041450843
1	0x3dab90a5	0.08377198
2	0xbe0d860e	-0.13820669
3	0xbd580323	-0.052737366
4	0xbde82516	-0.113351986
5	0xbd66c923	-0.056344163
6	0xbe809d14	-0.2511984
7	0xbed67de4	-0.41892922
8	0xbe4d741f	-0.20063828
9	0x3e943b5f	0.28951547
10	0x3db1cd0e	0.08681689
11	0xbe2377d0	-0.15963674
12	0x3d6d0b03	0.05787183
13	0xbe5a7537	-0.21333776
14	0x3e53d951	0.20688368
15	0xbd678a75	-0.056528527
16	0x3deb6999	0.114947505
17	0x3e878ffc	0.2647704
18	0xbe6bdb32	-0.23032835
19	0x3dc28082	0.09497167
20	0xbeae569f	-0.34050462
21	0x3ba610f2	0.005067938
22	0xbe326e08	-0.17424786
23	0xbeaf75e3	-0.34269628
24	0xbcc3b26f	-0.023888795
25	0xbe4aa2c2	-0.1978865
26	0x3d1923a9	0.037387524
27	0x3d89d1c1	0.067294605
28	0x3dc111fe	0.0942726
29	0xbddfce4d	-0.109280206
30	0x3e022c6a	0.12712255
31	0xbe10291b	-0.1407818
32	0x3dc1f489	0.094704695
33	0xbd5cbc56	-0.05389055
34	0xbdb24843	-0.08705189
35	0xbe6006b4	-0.21877557
36	0x3d866110	0.06561482
37	0xbc8b6c24	-0.017019339
38	0x3d0abb37	0.03386995
39	0xbe673d1d	-0.22581907
40	0xbdd2102b	-0.1025699
41	0x3e91f7df	0.28509423
42	0x3e5caa4b	0.21549337
43	0xba4f0355	-0.000789692
44	0x3e518b7f	0.2046337
45	0xbb72060e	-0.0036929878
46	0xbdffc88a	-0.12489422
47	0xbdfa03ac	-0.122077316
48	0x3de684f9	0.11255831
49	0x3dba80f4	0.09106627
50	0xbd827896	-0.06370656
51	0x3e01790b	0.1264383
52	0xbe614cc5	-0.22001942
53	0xbd9b1c38	-0.07573742
54	0xbd759eac	-0.059965774
55	0xbea20e88	-0.3165171
56	0x3d749ec0	0.05972171
57	0xbd45cc9f	-0.048290845
58	0x3e818566	0.25297087
59	0x3d850fb9	0.064971395
60	0x3c0f1ceb	0.008734922
61	0x3cf49168	0.029854491
62	0x3dab79a2	0.08372809
63	0xbdbffa3d	-0.09373901
64	0x3e09767d	0.13424106
65	0x3e44a6a8	0.192042
66	0x3d3d1e45	0.046171445
67	0xbea32d8c	-0.31870687
68	0x3de0e387	0.109808974
69	0xbe6d2ae8	-0.23160899
70	0x3d5efe48	0.05444172
71	0xbea393d7	-0.3194873
72	0xbd810a0b	-0.06300744
73	0x3e5b2329	0.21400131
74	0x3e1c4299	0.1525978
75	0xbe8eaeb4	-0.27867663
76	0x3df586d8	0.1198861
77	0xbdbb7cd9	-0.09154672
78	0x3ca923ac	0.020646892
79	0xbe2489ec	-0.16068238
80	0x3e86a9c4	0.26301396
81	0x3ec46602	0.38359076
82	0xbe084d60	-0.13310766
83	0x3d92dcdf	0.07171034
84	0xbc9cc259	-0.019135641
85	0x3d81f2c0	0.06345129
86	0xbe22266a	-0.15834966
87	0xbf0d36df	-0.5516185
88	0xbd451753	-0.048117947
89	0xbeb75a6e	-0.3581118
90	0x3db44d5e	0.08803819
91	0x3e6d622a	0.23181978
92	0x3d5f62e3	0.054537665
93	0xbd22d450	-0.03975326
94	0x3bbd656f	0.005779914
95	0x3d747885	0.05968525
96	0x3e6878f0	0.22702384
97	0x3de74900	0.112932205
98	0xbe415b44	-0.18882471
99	0xbeb97ad9	-0.36226538
100	0xbdb74030	-0.0894779
101	0xbe84190f	-0.25800368
102	0xbd09fcf9	-0.03368852
103	0xbf1c1f52	-0.6098529
104	0x3df850cb	0.12124785
105	0x3e5b9070	0.21441817
106	0x3d07bdfc	0.033140168
107	0x3d01843d	0.031620253
108	0x3d233554	0.03984578
109	0xbe69f0d1	-0.2284577
110	0x3e4b0b69	0.19828571
111	0x3d044d55	0.032300312
112	0x3dff04d5	0.124520935
113	0x3e7a23f0	0.24427772
114	0xbdc45bb2	-0.09587802
115	0xbd1be594	-0.03806074
116	0xbe0fcf6d	-0.1404397
117	0xbdcbdf9b	-0.09954759
118	0xbe6076c1	-0.21920301
119	0xbf10cad0	-0.5655947
120	0xbcd15f0e	-0.02555802
121	0xbe8e8ab5	-0.278402
122	0x3cbeb474	0.023279406
123	0x3dfa5b1d	0.1222441
124	0x3db3f0e4	0.087861806
125	0x3df0e6c4	0.11762765
126	0xbe0f50cd	-0.13995667
127	0x3d581e2b	0.052763145
128	0x3cb158a0	0.021648705
129	0x3d6c1fc2	0.057647474
130	0x3bc5cea1	0.006036595
131	0xbe1f34c1	-0.15547468
132	0xbdb89760	-0.090132475
133	0xbdfd7f81	-0.12377835
134	0xbdeed814	-0.116623074
135	0xbe947071	-0.28992036
136	0xbe264d96	-0.16240534
137	0x3d71bba4	0.05901684
138	0x3e19c3b3	0.1501606
139	0xbd4c0576	-0.049809895
140	0x3de09ad5	0.10967032
141	0xbe319a39	-0.17343988
142	0x3e0687ce	0.13137743
143	0xbe0dbd9b	-0.1384186
144	0x3e1d5d2f	0.15367578
145	0x3ef8e88d	0.48614922
146	0xbe6d3aa6	-0.23166904
147	0xbe083370	-0.13300872
148	0xbe83975d	-0.2570142
149	0xbdb3d5c1	-0.08781005
150	0xbe5d480e	-0.21609518
151	0xbeea6905	-0.4578325
152	0x3dc0cfbe	0.09414624
153	0xbe5edb0e	-0.2176325
154	0x3da0e534	0.07856217
155	0x3e26d1b1	0.16290928
156	0x3e7c3d38	0.24632728
157	0xbc881cfb	-0.016615381
158	0xbe70f61a	-0.2353138
159	0xbc66556c	-0.014058452
160	0x3cf7393e	0.030178662
161	0x3da0a4c2	0.07843925
162	0xbd4e69d3	-0.05039389
163	0xbe4f31c2	-0.20233825
164	0xbde86555	-0.113474526
165	0xbdba604d	-0.09100399
166	0xbe89e716	-0.26934117
167	0xbe7700de	-0.24121425
168	0xbeaaf390	-0.33388948
169	0x3e337c41	0.17527868
170	0x3d284c74	0.041088536
171	0xbc674a11	-0.01411678
172	0x3e04a54e	0.12953684
173	0xbe4c902d	-0.19976874
174	0x3e329a4f	0.17441677
175	0x3c600be9	0.013674715
176	0x3e788b5f	0.24271916
177	0x3e258d39	0.16167153
178	0x3e0ccbcb	0.13749616
179	0xbd6ee4a5	-0.05832352
180	0xbe87a0f3	-0.26489982
181	0x3dae46c5	0.08509592
182	0x3daa012c	0.08301005
183	0xbecd8385	-0.40139404
184	0x3e2d4677	0.16921411
185	0xbe68a247	-0.22718154
186	0x3e425400	0.18977356
187	0x3debeecc	0.11520156
188	0x3df37bdd	0.118888594
189	0x3cdafa5b	0.026730707
190	0xbea25096	-0.31702107
191	0x3d4ddaa7	0.05025735
192	0x3e6f83fb	0.2339019
193	0x3dee1e7b	0.116269074
194	0xbe1d3b6c	-0.15354699
195	0xbd380137	-0.044923034
196	0x3dc095cc	0.094035715
197	0xbd6fefe2	-0.05857838
198	0xbc93a53c	-0.018023126
199	0xbeb5a8f0	-0.35480452
200	0x3bb97b36	0.00566044
201	0x3b4f5403	0.0031635768
202	0x3ce3ea1e	0.027821597
203	0xbe24b46c	-0.1608445
204	0x3cef84b7	0.029238088
205	0xbdd365d5	-0.10322157
206	0x3c384f6e	0.011249406
207	0xbdd5fee4	-0.10449007
208	0x3e102c3f	0.14079379
209	0x3e9e34e9	0.30899742
210	0xbe537ede	-0.20653865
211	0x3d85b0e9	0.065278836
212	0xbe8e49bd	-0.27790633
213	0x3d713dd0	0.05889684
214	0xbcbf1b54	-0.02332846
215	0xbf1299c6	-0.5726589
216	0xba419a16	-0.00073853263
217	0xbde74695	-0.11292759
218	0x3d8041b4	0.06262532
219	0x3e8e4b8b	0.2779201
220	0x3d14c438	0.03631994
221	0x3d73853e	0.05945324
222	0xbe05b215	-0.13056214
223	0xbd28ebb3	-0.041240405
224	0xbc562c1d	-0.013072041
225	0x3ed0f752	0.4081369
226	0x3d67a42b	0.056553047
227	0xbecbf690	-0.3983655
228	0xbe3d20d1	-0.1846955
229	0xbea93c77	-0.33053944
230	0xbd062b9f	-0.032756444
231	0xbef89795	-0.48553148
232	0xbe0819fc	-0.13291162
233	0x3d968fd8	0.07351655
234	0x3c08b68b	0.008344303
235	0xbe8e525a	-0.27797204
236	0x3d0ac4cf	0.033879098
237	0xbed0c195	-0.4077269
238	0xbd336919	-0.0438014
239	0xbe2a834d	-0.1665165
240	0x3e4b99d2	0.19882897
241	0x3e6db2ac	0.23212689
242	0xbe4c7e3f	-0.19970034
243	0x3dddca4a	0.10829599
244	0xbe0dbc44	-0.13841349
245	0xbd47cdca	-0.04878024
246	0x3cd1fac1	0.025632264
247	0xbf0b6825	-0.54455787
248	0x3e49d749	0.19711031
249	0xbea955ed	-0.3307337
250	0x3ec8c12a	0.39209872
251	0x3e659b1d	0.22422452
252	0x3e80416e	0.2504992
253	0xbd35fa6e	-0.04442828
254	0xbe245fd5	-0.16052182
255	0x3e1d16a6	0.15340671

weight_hh_l0 f4 [128, 32]
0	0x3d921753	0.07133355
1	0x3d2b5d3b	0.04183696
2	0xbe04fc60	-0.12986898
3	0xbe0cf5b5	-0.13765605
4	0xbd9aea71	-0.075642474
5	0xbd831289	-0.0640002
6	0x3e179f6f	0.14806913
7	0x3cade442	0.021227006
8	0x3e125f5f	0.14294194
9	0xbe0871df	-0.13324688
10	0xbd5c0c0c	-0.053722426
11	0xbdc38739	-0.09547276
12	0xbe20ed23	-0.1571546
13	0xbd084919	-0.033272836
14	0x3d8e1f90	0.06939614
15	0x3d96638c	0.07343206
16	0x3da18e35	0.07888452
17	0x3bac2a96	0.0052541
18	0x3e2ebd77	0.17064463
19	0x3d7c81d2	0.061647244
20	0x3e45d015	0.19317658
21	0x3d920efb	0.071317635
22	0xbc5861b3	-0.013206887
23	0xbd257fac	-0.04040496
24	0x3dbc1bd5	0.09184996
25	0xbdc79e06	-0.097469375
26	0x3dac829d	0.0842335
27	0x3dd85fbc	0.10565135
28	0xbdf8bca3	-0.121453546
29	0xbd9ea6f0	-0.077466846
30	0x3dec687e	0.11543368
31	0xbdfb0d37	-0.1225838
32	0x3e32d31d	0.17463346
33	0x3dcde1b9	0.10052819
34	0xbe23902c	-0.15972966
35	0x3dc5fd86	0.096674964
36	0xbdd11f10	-0.10211003
37	0xbe54b62c	-0.20772618
38	0x3df029c4	0.11726716
39	0xbe28a9d9	-0.16471042
40	0x3dcfec4d	0.10152493
41	0x3d4f2760	0.05057466
42	0xbdbb1c91	-0.09136308
43	0xbd994c5b	-0.07485267
44	0x3aa775d4	0.0012776204
45	0xbb245566	-0.0025075315
46	0x3d1cf77f	0.03832197
47	0x3c74a27a	0.014931316
48	0xbd9e1c42	-0.077202335
49	0x3d5f525b	0.0545219
50	0xbde46e6e	-0.11153875
51	0xbd9c1763	-0.07621648
52	0x3e20cbb7	0.15702711
53	0xbd7ca8be	-0.061684363
54	0xbd9d9b26	-0.07695608
55	0xbe38a760	-0.18032598
56	0x3cc77f7d	0.024352783
57	0x3d72e5b4	0.059301093
58	0x3dbdce60	0.092678785
59	0x3de3dc49	0.111260004
60	0x3e4548a0	0.19265985
61	0xbd7250c9	-0.059159074
62	0x3d2a8976	0.041635
63	0xbdbedba6	-0.09319238
64	0x3d7e172b	0.062033813
65	0xbc81167e	-0.015757795
66	0xbe32ff36	-0.17480168
67	0xbd4d4fbc	-0.05012487
68	0x3e1dcd6d	0.15410395
69	0x3d96371b	0.07334729
70	0x3e3cdf09	0.18444456
71	0x3d3c05ce	0.045903973
72	0x3de5b05e	0.1121528
73	0x3dee2aae	0.11629234
74	0xbe230af4	-0.15922147
75	0x3d6246cb	0.055243295
76	0xbd6374a8	-0.055531174
77	0x3dc824b6	0.09772627
78	0xbe0d3309	-0.13789
79	0x3e4e0003	0.20117192
80	0x3dfe7143	0.12423947
81	0x3df45807	0.119308524
82	0xbd562dea	-0.05228988
83	0xbe1fc212	-0.15601376
84	0xbd920d7a	-0.07131477
85	0x3d4e1863	0.050316226
86	0x3da369f3	0.079791926
87	0xbe54de6d	-0.20787974
88	0x3e1e7be5	0.1547695
89	0xbd170c72	-0.036877103
90	0x3db2dadc	0.0873315
91	0x3cc91b7b	0.024549237
92	0x3d235b1d	0.039881814
93	0x3d1b431e	0.037905805
94	0xbdac0a2e	-0.08400379
95	0xbd90abdc	-0.070640296
96	0x3d63d3ff	0.055622097
97	0x3e267a0f	0.16257499
98	0x3de2a6d3	0.110669754
99	0xbd79bfc0	-0.060973883
100	0x3d454537	0.04816171
101	0xba0e79bc	-0.000543501
102	0xbd1e3125	-0.038621087
103	0x3dfa165d	0.12211297
104	0x3cd654ad	0.026163423
105	0x3e54a695	0.20766671
106	0x3dcd6189	0.10028369
107	0xbe2203f4	-0.1582182
108	0xbe466169	-0.19373097
109	0xbd61aef7	-0.0550985
110	0xbe25283e	-0.16128632
111	0x3d81959f	0.06327366
112	0xbddaa00f	-0.1067506
113	0xbd9eb256	-0.07748859
114	0xbe05f2ad	-0.13080855
115	0x3dabf975	0.083971895
116	0xbc813532	-0.015772436
117	0x3c0a0c8c	0.008425843
118	0xbd8559ab	-0.065112434
119	0xbe41eb64	-0.1893745
120	0xbdb64d1d	-0.08901427
121	0x3db8705c	0.09005806
122	0xbd29c45b	-0.041447025
123	0xbc3dd4ae	-0.011586351
124	0x3ddfe384	0.10932067
125	0x3e3c1b82	0.18369868
126	0xbd27ed58	-0.040997833
127	0x3e49b474	0.19697744
128	0xbcd17884	-0.025570162
129	0x3e40a4ff	0.18812941
130	0x3e25d13d	0.161931
131	0x3df5e5a4	0.12006691
132	0xbdf8e2b1	-0.12152613
133	0xbe10d6aa	-0.14144388
134	0x3d58af5d	0.052901614
135	0xbdfee7ac	-0.12446532
136	0xbde558af	-0.11198556
137	0x3c92a4c7	0.017900838
138	0x3d08221f	0.033235665
139	0x3d387b66	0.045039557
140	0x3d7c91e9	0.06166259
141	0xbe2abbfa	-0.1667327
142	0xbd24b980	-0.04021597
143	0xbc4da94b	-0.01255257
144	0x3e125849	0.1429149
145	0xbde94c7a	-0.1139154
146	0xbcf3ae12	-0.02974609
147	0xbe3e4177	-0.1857966
148	0x3d53608e	0.051605754
149	0xbe07e1fc	-0.132698
150	0x3d9fa5ee	0.077953205
151	0x3cf5eec2	0.030021075
152	0x3e4f2291	0.2022803
153	0xbdc86091	-0.097840436
154	0xbd4435a4	-0.04790272
155	0xbd29be84	-0.041441455
156	0x3de89a46	0.1135755
157	0x3d9bc5a1	0.07606054
158	0x3cededfb	0.029044142
159	0x3dbb9736	0.091597006
160	0xbdd066ee	-0.10175882
161	0xbe0fabaf	-0.14030336
162	0xbdb50cd0	-0.088403344
163	0x3d6e4017	0.05816659
164	0x3df6e1b4	0.12054768
165	0x3e106ded	0.14104433
166	0x3cd1eb89	0.025625007
167	0xbc3ebc7c	-0.011641618
168	0x3e07fdc1	0.13280393
169	0x3da1caf2	0.07900037
170	0x3d0af61a	0.033926107
171	0x3daa7c00	0.083244324
172	0x3d9620fd	0.07330511
173	0x3b9ce875	0.004788453
174	0x3ca2473f	0.019809363
175	0xbc4429d7	-0.011972866
176	0x3d596bd2	0.05308134
177	0xbd70025f	-0.05859601
178	0x3e087742	0.13326743
179	0xbdb0df88	-0.08636385
180	0xbdd694ab	-0.10477575
181	0xbe40155b	-0.18758146
182	0xbe0d9e0e	-0.13829824
183	0x3c180743	0.009279075
184	0x3d01d0b2	0.031693168
185	0xbe076499	-0.13221969
186	0xbdd76218	-0.10516757
187	0xbe4bcd45	-0.19902523
188	0x3debbca0	0.11510587
189	0xbe003a1f	-0.12522171
190	0x3dd9f30c	0.10642061
191	0x3dcb1aff	0.099172585
192	0x3db313b5	0.08743993
193	0x3e2ccd1c	0.16875118
194	0x3dd8eaf7	0.10591691
195	0x3e1fc5c1	0.15602781
196	0xbc622b7d	-0.013804314
197	0xbdf96423	-0.12177303
198	0xbdd9652f	-0.10615002
199	0x3c078c71	0.00827323
200	0x3dbb3553	0.0914103
201	0x3e46df9c	0.19421238
202	0xbd4875e3	-0.04894055
203	0x3de2299c	0.110430926
204	0xbdb51367	-0.08841591
205	0x3d4d22fa	0.050082184
206	0xbd84e800	-0.06489563
207	0x3d9af85f	0.07566904
208	0xbe2e25da	-0.17006627
209	0xbe18dffb	-0.14929192
210	0xbbb4099b	-0.005494309
211	0x3dfb40ea	0.12268241
212	0x3d830a33	0.0639843
213	0x3de54565	0.111948766
214	0x3e367466	0.1781784
215	0x3d11cd39	0.035596106
216	0x3e4050ab	0.18780772
217	0x3dbe56c4	0.09293893
218	0xbe0fa47f	-0.14027594
219	0x3e05ee93	0.1307929
220	0xbda26478	-0.07929319
221	0x3df340a1	0.11877561
222	0x3d1014cb	0.03517608
223	0x3dd90800	0.10597229
224	0x3e020949	0.12698855
225	0xbdc15498	-0.09439963
226	0xbd6ea533	-0.058263015
227	0x3e093459	0.13398875
228	0x3bb80004	0.0056152362
229	0x3df8701c	0.12130758
230	0x3e109b67	0.14121781
231	0x3cbaa7a7	0.022785021
232	0xbde7f697	-0.1132633
233	0x3d624144	0.055238023
234	0xbd9b493e	-0.07582329
235	0x3db9cce2	0.090722814
236	0x3de2c929	0.110735245
237	0x3ce7aabf	0.02827966
238	0xbdf2096e	-0.11818205
239	0xbb1d4e4f	-0.0024002974
240	0xbe50b486	-0.20381364
241	0x3c1c5a5d	0.009543029
242	0x3e411c87	0.18858539
243	0x3de49fef	0.111633174
244	0xbdba93ac	-0.091101974
245	0xbe01888a	-0.12649742
246	0x3d772c6c	0.0603451
247	0xbdfe2894	-0.124100834
248	0x3dac1299	0.08401985
249	0xbd203e71	-0.03912205
250	0xbdc3e21e	-0.09564613
251	0xbd725fe6	-0.059173487
252	0xbcacae1a	-0.021079112
253	0x3c147597	0.009061239
254	0x3dc75e5a	0.09734793
255	0x3e405093	0.18780737

bias_ih_l0 f4 [128]
0	0xbe8aeecd	-0.27135316
1	0xbe04abbb	-0.12956135
2	0xbec95fe6	-0.39330977
3	0xbdeaf8be	-0.11473225
4	0xbd9a9b49	-0.075491495
5	0xbdf5932b	-0.11990961
6	0xbe8399d0	-0.25703287
7	0xbef3978a	-0.47576553
8	0xbea752f7	-0.32680485
9	0xbe3d6e0b	-0.1849901
10	0xbd9e2f02	-0.0772381
11	0xbd87165e	-0.06596063
12	0xbdfc3f59	-0.1231677
13	0xbec9a122	-0.39380747
14	0xbeb7b805	-0.35882583
15	0xbe423f87	-0.18969546
16	0xbe450475	-0.19239981
17	0xbece6d9b	-0.40317997
18	0xbc9874d7	-0.018610401
19	0xbe81b5e9	-0.253341
20	0xbe6abcd2	-0.22923592
21	0xbe802c8b	-0.25033984
22	0xbd8f6350	-0.07001364
23	0xbe63ea57	-0.22257362
24	0xbea75de6	-0.32688826
25	0xbe9d9607	-0.30778524
26	0xbe3ebdea	-0.18627134
27	0xbe1579d5	-0.14597256
28	0xbea73ef1	-0.32665208
29	0xbdfd10b8	-0.123567045
30	0xbe1a35e4	-0.1505962
31	0xbd9241fa	-0.0714149
32	0xbde74601	-0.11292649
33	0x3d586fea	0.052841105
34	0xbd1dd4b3	-0.038532924
35	0xbe2d87cb	-0.16946332
36	0xbdaa5770	-0.08317459
37	0xbe14bb37	-0.14524542
38	0xbcddcae7	-0.02707429
39	0xbdc36d16	-0.09542291
40	0x3cbc8ec5	0.023017297
41	0x3da94e60	0.08266902
42	0xbc6507c9	-0.013978907
43	0xbe7c278a	-0.24624458
44	0xbe5b434a	-0.21412387
45	0xbe823cb5	-0.2543694
46	0xbe923a69	-0.28560188
47	0xbe0b5b7c	-0.13609117
48	0x3d7a6d05	0.061139125
49	0xbebc3102	-0.3675614
50	0xbd897d04	-0.06713298
51	0xbe38a3a5	-0.18031175
52	0xbe2c0c41	-0.1680155
53	0xbda9e1c5	-0.08295015
54	0xbe2bf97a	-0.16794387
55	0x3d0b4c5f	0.03400838
56	0xbdd2a54e	-0.102854356
57	0xbdd38944	-0.10328916
58	0x3d50d9ec	0.050989076
59	0x3c8c265c	0.017108135
60	0xbd31bd9d	-0.04339372
61	0xbd1d66df	-0.038428184
62	0xbd3ea199	-0.04654083
63	0xbe6ce09a	-0.23132554
64	0x3d55298b	0.05204157
65	0xbdb99242	-0.090610996
66	0x3d92e90b	0.07173356
67	0xbe106c9c	-0.14103931
68	0x3d86c18f	0.06579887
69	0xbd885b99	-0.06658096
70	0xbdb8dff5	-0.090270914
71	0xbd4fb0d3	-0.050705742
72	0x3e00cb1a	0.12577477
73	0xbe12407a	-0.14282408
74	0x3deb3024	0.114837915
75	0xbe034e6d	-0.12822886
76	0xbe180e74	-0.14849263
77	0x3d2e30bf	0.042526957
78	0xbd82d2a7	-0.06387835
79	0xbd48f8a6	-0.049065255
80	0x3e154ed1	0.14580847
81	0x3d8a6ae2	0.067586675
82	0xbe247752	-0.16061142
83	0x3d80fbc8	0.062980235
84	0xbd96825f	-0.07349085
85	0x3d97c8ef	0.07411372
86	0xbdae4bb0	-0.0851053
87	0x3de90996	0.113787815
88	0xbe02bf7d	-0.1276836
89	0x3cc6ce87	0.024268402
90	0x3d858767	0.065199666
91	0x3dcb5a31	0.09929312
92	0xbd60f39e	-0.05491983
93	0xbd33b0b4	-0.04386969
94	0x3caf6d0d	0.021414304
95	0x3d0ac0c4	0.033875242
96	0xbe3fd2fa	-0.18732825
97	0xb9cb9d85	-0.00038836538
98	0xbe9eb9d8	-0.31001163
99	0xbe57d1da	-0.21076146
100	0xbe53909a	-0.2066063
101	0xbe3adc79	-0.18248166
102	0xbe0cfaaf	-0.13767503
103	0xbe43dc09	-0.19126906
104	0xbdc2cea8	-0.09512073
105	0xbe8251bb	-0.2545298
106	0x3b87b608	0.004141573
107	0xbdda47df	-0.106582396
108	0xbe6b445a	-0.22975293
109	0xbea30de6	-0.3184654
110	0xbe0001ed	-0.12500735
111	0xbd81e6bf	-0.063428394
112	0xbe509c18	-0.20372045
113	0xbe31eec5	-0.1737624
114	0xbcc09b99	-0.023511695
115	0xbd82f14f	-0.06393682
116	0xbd0513a6	-0.03248944
117	0xbe8ee190	-0.27906466
118	0xbe3a0608	-0.18166363
119	0xbe6a210f	-0.22864173
120	0xbec01e2f	-0.37523028
121	0xbdf2b367	-0.118506245
122	0xbd7b0426	-0.061283253
123	0xbd444876	-0.047920667
124	0xbe1af79e	-0.15133521
125	0xbe49f702	-0.19723132
126	0xbe20b57d	-0.15694232
127	0x3d526c5d	0.051372875

bias_hh_l0 f4 [128]
0	0xbebeea8a	-0.37288314
1	0xbe4c1d64	-0.19933087
2	0xbd74abb0	-0.059734046
3	0xbec1a346	-0.3781988
4	0xbe5aa3b4	-0.2135151
5	0xbeced29a	-0.4039505
6	0xbe33f584	-0.17574126
7	0xbe88842c	-0.2666334
8	0xbe45bcc8	-0.19310296
9	0x3b0a9680	0.0021146834
10	0xbe1c7e8a	-0.15282646
11	0xbe05847c	-0.1303882
12	0xbe4f8a8b	-0.20267694
13	0xbe14a9fa	-0.14517966
14	0xbd92367b	-0.071392976
15	0xbeacafff	-0.33728024
16	0x3d7133ed	0.05888741
17	0xbe4021d4	-0.18762904
18	0xbe8c03af	-0.2734656
19	0xbcd669e7	-0.026173545
20	0xbd781e09	-0.06057552
21	0xbe5b8d35	-0.21440585
22	0xbe6e7d71	-0.2329004
23	0xbe4cbf0a	-0.1999475
24	0xbebbccc3	-0.36679658
25	0xbe4ff972	-0.2031
26	0xbea3fd65	-0.32029262
27	0xbe8e55ce	-0.2779984
28	0xbe9a70eb	-0.30164275
29	0x3d33e63f	0.04392075
30	0xbd9e644d	-0.077339746
31	0xbe813500	-0.25235748
32	0xbea76231	-0.32692102
33	0xbe124c1d	-0.14286847
34	0xbeb4123d	-0.35170165
35	0xbe194483	-0.14967541
36	0xbd739802	-0.059471138
37	0xbea491f8	-0.32142615
38	0xbc480024	-0.012207065
39	0xbeb547b3	-0.35406265
40	0xbdefab3e	-0.11702584
41	0xbd43b291	-0.047777716
42	0x3ceb7b09	0.028745191
43	0xbe011e9c	-0.12609333
44	0xbe99e737	-0.30059215
45	0xbd5ffa0c	-0.054681823
46	0xbe00335f	-0.12519597
47	0xbda93908	-0.08262831
48	0xbe3dfad6	-0.18552718
49	0xbe7476f8	-0.23873508
50	0xbe875400	-0.26431274
51	0x3d3ea72a	0.04654614
52	0xbe88d577	-0.2672536
53	0xbe91f1ca	-0.28504783
54	0xbdb89174	-0.09012118
55	0xbe217b0c	-0.15769595
56	0xbe9cb532	-0.3060699
57	0xbe44973b	-0.19198315
58	0xbe25b655	-0.16182835
59	0xbe4b303a	-0.19842616
60	0xbe651426	-0.22370967
61	0xbe698c9b	-0.22807543
62	0xbe2d2314	-0.16907912
63	0xbe1ec3ac	-0.1550433
64	0xbcbda6cc	-0.023150824
65	0xbdaaa42c	-0.083320946
66	0x38deeb00	0.00010629557
67	0x3d5f477e	0.05451154
68	0x3d3660f6	0.044526063
69	0xbb2fca88	-0.00268236
70	0xbd03dbc3	-0.032192003
71	0x3d9ea219	0.077457614
72	0xbd165683	-0.036703598
73	0x3e0982cf	0.13428806
74	0x3d53f789	0.05174974
75	0x3e00fc98	0.12596357
76	0x3ddb0e39	0.10696072
77	0xbd09925d	-0.03358685
78	0x3dece85f	0.11567759
79	0xbdbe8e66	-0.09304504
80	0xbe0e87fd	-0.13919063
81	0xbdb9999d	-0.090625025
82	0x3d1e425b	0.0386375
83	0x3bd87c73	0.0066066324
84	0x3da9d53e	0.08292626
85	0x3c8b4c13	0.017004048
86	0xbde27e05	-0.110591926
87	0xbdc20dfe	-0.09475325
88	0x3c890493	0.016725814
89	0x3d6438bb	0.055718165
90	0x3d3d8f12	0.04627902
91	0x3d8a3605	0.06748585
92	0xbca5572c	-0.020183168
93	0x3da2e43d	0.07953689
94	0xbd421f08	-0.047392875
95	0xbdcbf543	-0.09958889
96	0xbecd159c	-0.4005555
97	0x3c6b0523	0.014344486
98	0xbe162bf0	-0.14665198
99	0xbe5f439f	-0.21803139
100	0xbdaf55a0	-0.085612535
101	0xbe42382b	-0.18966739
102	0x3d002239	0.031282637
103	0xbf03df2e	-0.5151242
104	0xbea61586	-0.32438296
105	0xbd25dd92	-0.04049451
106	0xbe29a68c	-0.16567439
107	0xbddf47d7	-0.10902374
108	0xbe925d08	-0.28586602
109	0xbe1e590d	-0.15463658
110	0xbe8bc11c	-0.27295768
111	0xbe2dbaa2	-0.16965726
112	0xbe4e1ddc	-0.20128578
113	0xbe702cc8	-0.23454583
114	0xbdf88a8c	-0.12135801
115	0xbe5c4ac8	-0.21512902
116	0xbeab7334	-0.3348633
117	0xbdda62d8	-0.10663384
118	0xbde3d964	-0.11125448
119	0xbe176248	-0.14783585
120	0xbe2ed2c0	-0.17072582
121	0xbe7c9ea8	-0.24669898
122	0xbe4bf6ae	-0.1991832
123	0x3bb9dfc6	0.005672428
124	0xbe592763	-0.21206431
125	0xbe5b5a3e	-0.21421143
126	0xbd9eeadc	-0.077596396
127	0xbe07b646	-0.13253126
