experiments/pedestrians/models/06_Aug_2023_21_23_08/model_registrar-62.pt (torch, 713991 bytes, 82 tensors)

weight f4 [64, 10]
0	0xbc8040fa	-0.015655983
1	0xbca948a0	-0.020664513
2	0x3e1a86bd	0.15090461
3	0x3ce12564	0.02748365
4	0xbf34cc17	-0.70623916
5	0x3f5e831e	0.8691882
6	0x3c8c89a6	0.01715548
7	0xbe79848e	-0.24366972
8	0xbe239d9c	-0.15978092
9	0x3dfa00d2	0.12207188
10	0x3d608825	0.054817338
11	0x3e96385c	0.29339874
12	0x3eba39ac	0.36372125
13	0x3d75d81b	0.060020547
14	0xbe704c42	-0.2346659
15	0xbe2ee956	-0.17081198
16	0xbe9882bd	-0.29787245
17	0xbec31ced	-0.38108006
18	0xbdfae1ef	-0.12250125
19	0x3da48725	0.08033589
20	0x3c860ece	0.016364481
21	0x3db0474e	0.0860735
22	0xbd3f4408	-0.04669574
23	0x3f038be1	0.51385313
24	0xbdc46fe9	-0.09591658
25	0xbcded275	-0.027199963
26	0xbe88eb57	-0.2674205
27	0xbcf69029	-0.030098038
28	0x3accd4d3	0.0015627391
29	0xbe208a22	-0.15677693
30	0x3bbe68aa	0.005810817
31	0x3c9b70af	0.01897463
32	0xbd2db546	-0.042409204
33	0xbd70693c	-0.05869411
34	0xbf1eeb97	-0.6207823
35	0x3f3eaf16	0.7448591
36	0xbe89d02c	-0.26916635
37	0xbe54a791	-0.20767047
38	0xbcfc09d5	-0.030766407
39	0xbe7fa92c	-0.24966878
40	0x3d182eeb	0.03715412
41	0xbd41a821	-0.04727948
42	0x3d6f77ca	0.05846385
43	0x3dfe0727	0.12403708
44	0x3f19f509	0.6013952
45	0x3ee1fe2d	0.44139233
46	0x3e91312e	0.28357834
47	0x3e2830a0	0.16424799
48	0xbe7ca82e	-0.2467353
49	0x3e33c50e	0.17555639
50	0xbb97f0de	-0.004636868
51	0x3d80be63	0.062863134
52	0x3ec03587	0.37540838
53	0xbe2e9bdc	-0.17051643
54	0x3ab236a9	0.0013596612
55	0x3edbe79b	0.42950138
56	0x3e305d90	0.17223191
57	0xbc3e99b9	-0.01163333
58	0xbd720744	-0.05908896
59	0x3d99ad9d	0.07503817
60	0xbd320b43	-0.04346777
61	0x3e4f89cc	0.20267409
62	0x3eea42d2	0.45754105
63	0x3c9b061f	0.018923817
64	0x3f022b9e	0.50847805
65	0xbefa8d24	-0.48935807
66	0xbe862de5	-0.2620689
67	0x3e892128	0.2678311
68	0x3e9e8e34	0.30967867
69	0x3e6941e3	0.2277904
70	0xbd01c105	-0.03167822
71	0xbe137460	-0.14399862
72	0x3d5d1699	0.05397663
73	0xbeb76cc1	-0.3582516
74	0xbf38075a	-0.7188622
75	0xbeb8126e	-0.3595156
76	0x3ec71b64	0.38888085
77	0x3c52072c	0.012819093
78	0x3d151cba	0.03640435
79	0x3cd32fa4	0.025779553
80	0x3e16df37	0.14733587
81	0x3d9e1795	0.07719342
82	0xbecf7f36	-0.40526742
83	0x3b96e7e4	0.0046052802
84	0xbf32ce1a	-0.69845736
85	0xbe3647a4	-0.17800766
86	0xbe18e756	-0.14931998
87	0xbe316862	-0.17324975
88	0x3e6ac870	0.22928023
89	0x3dcea45f	0.10089945
90	0xbd10c417	-0.035343256
91	0x3e02612e	0.12732384
92	0x3f0066b5	0.5015672
93	0x3e9f4645	0.311083
94	0x3d5329b2	0.051553436
95	0x3eca7722	0.39544016
96	0x3e0f5d01	0.14000322
97	0xbe785305	-0.2425042
98	0x3e942954	0.2893778
99	0x3e85b7c4	0.26116765
100	0xbe50ee1b	-0.2040333
101	0x3dd5658f	0.104197614
102	0x3e9239b0	0.28559637
103	0x3e5cbc8a	0.21556297
104	0xbe846c06	-0.25863665
105	0xbc4fd81e	-0.012685804
106	0xbdf21d76	-0.118220255
107	0x3e0b1632	0.13582686
108	0x3e70e8db	0.23526327
109	0xbe80dd45	-0.25168815
110	0x3c18fced	0.009337646
111	0xbd837b96	-0.064200565
112	0x3f10a482	0.5650102
113	0x3c81efe7	0.015861465
114	0xbf4a6659	-0.7906242
115	0xbf5ea67a	-0.86972773
116	0x3e0af851	0.13571288
117	0x3ee3ca63	0.44490346
118	0xbdaa12c8	-0.083043635
119	0xbcbbe04c	-0.022934102
120	0xbe0cb011	-0.13739039
121	0x3e14a304	0.1451531
122	0x3eaff76a	0.3436845
123	0x3e0394d9	0.1284975
124	0x3e32ad3a	0.17448893
125	0x3e7fea3a	0.24991694
126	0x3e6152b2	0.22004202
127	0xbd80eb56	-0.06294887
128	0x3d6c9865	0.057762522
129	0xbe27f228	-0.16400969
130	0xbc19ec6e	-0.009394748
131	0x3e0c2338	0.1368531
132	0xbaa3bfa9	-0.0012493032
133	0xbf271a2c	-0.6527431
134	0xbd345301	-0.04402447
135	0x3cc10653	0.023562586
136	0xbd3061cb	-0.043062013
137	0xbe9e12d5	-0.30873743
138	0xbe363d73	-0.17796879
139	0xbead0775	-0.33794752
140	0x3d4624af	0.048374828
141	0xbe1ad81f	-0.15121506
142	0xbea8ef6e	-0.3299517
143	0x3eb558b4	0.35419238
144	0xbe3ab712	-0.18233898
145	0xbc9465f7	-0.018115027
146	0x3ea5e401	0.32400516
147	0x3dca6e26	0.098842904
148	0x3d8477ef	0.06468188
149	0x3edd34a9	0.4320424
150	0x3cb83734	0.02248726
151	0x3cce3eca	0.025176425
152	0x3d3718b6	0.0447013
153	0xbeb5c1ef	-0.35499522
154	0x3ed04bec	0.40682924
155	0xbf4b187e	-0.7933425
156	0xbe6906ff	-0.22756575
157	0x3e2c6041	0.16833593
158	0xbe57bbab	-0.21067683
159	0x3dd95a63	0.10612943
160	0xbe4232c3	-0.18964677
161	0x3e8025c1	0.25028804
162	0xbc85bd9b	-0.016325762
163	0x3d4d0c98	0.05006084
164	0xbf55adf8	-0.8346858
165	0xbe05f3db	-0.13081305
166	0x3cea9549	0.028635638
167	0x3e4dbd39	0.20091714
168	0xbd41295e	-0.04715859
169	0x3eb8b236	0.36073464
170	0x3e8e57cc	0.2780136
171	0x3ebf5cca	0.3737548
172	0x3e330c5e	0.17485186
173	0x3ebddbda	0.37081796
174	0xbe28c963	-0.16483073
175	0x3f3dfca0	0.742136
176	0x3c7da24a	0.015480587
177	0x3cacd1c9	0.021096127
178	0xbd504160	-0.050843596
179	0x3df2c91d	0.118547656
180	0x3d043cab	0.03228442
181	0x3e0a0dbc	0.13481802
182	0x3f28bfef	0.6591787
183	0xbe722856	-0.236482
184	0xbdd91146	-0.10598998
185	0x3e1c0b58	0.15238702
186	0x3e82239f	0.25417802
187	0x3b937a38	0.0045006536
188	0x3e335f2e	0.17516777
189	0x3e8fbe90	0.28075075
190	0x3e8c95f5	0.27458158
191	0x3e4609ba	0.19339648
192	0xbee7c3a0	-0.45266438
193	0xbdda4e7d	-0.10659502
194	0xbf10cc41	-0.56561667
195	0xbe325092	-0.17413548
196	0x3dc17c96	0.09447591
197	0x3e168662	0.146997
198	0xbe61dab6	-0.22056088
199	0x3e77f379	0.24213971
200	0xbbe3041d	-0.0069279806
201	0x3d36b509	0.044606242
202	0xbe7f034c	-0.24903601
203	0x3e7dc296	0.2478126
204	0x3eb867c7	0.36016676
205	0xbf1e2725	-0.6177848
206	0xbc8091e1	-0.01569456
207	0xbe1d0cd9	-0.15336932
208	0x3e5ce491	0.21571566
209	0xbde180d8	-0.11010903
210	0xbe73883b	-0.23782437
211	0xbd11a034	-0.035553172
212	0x3b66b2b0	0.003520172
213	0x3d507827	0.050895836
214	0x3f157200	0.58377075
215	0x3f745848	0.95447206
216	0x3ebfff37	0.374994
217	0x3e3aa5d9	0.18227328
218	0x3e5e9189	0.21735205
219	0xbbdcbcfc	-0.006736396
220	0xbba897f8	-0.005145069
221	0x3e8732dd	0.26405993
222	0xbe82072a	-0.2539609
223	0x3d8a5343	0.06754162
224	0x3ee7c7ad	0.45269528
225	0x3edb8a18	0.42878795
226	0x3e608d66	0.21928939
227	0x3e794da5	0.24346025
228	0x3dae09c5	0.08497957
229	0xbe2da13c	-0.16956037
230	0xbab391c8	-0.0013700062
231	0xbe5315e4	-0.2061382
232	0xbe1a2691	-0.15053774
233	0x3f05bb59	0.52238995
234	0xbd924075	-0.071412005
235	0xbf009002	-0.5021974
236	0xbe136d2d	-0.14397116
237	0x3d546ff3	0.051864576
238	0xbe1611e1	-0.14655258
239	0x3de67794	0.112532765
240	0x3dd1137d	0.10208795
241	0xbe86df68	-0.2634232
242	0x3e10345f	0.14082478
243	0xbe64f334	-0.223584
244	0x3ebd6cd0	0.3699708
245	0x3ed1d478	0.40982413
246	0xbd126612	-0.035741873
247	0xbec7425e	-0.38917822
248	0xbe0303d1	-0.12794425
249	0xbebb0b1e	-0.3653192
250	0xbe00e722	-0.1258817
251	0xbdf805ff	-0.12110519
252	0x3e5020f6	0.20325074
253	0x3ef065b0	0.4695258
254	0xbe510a6d	-0.20414133
255	0xbef57bb5	-0.47945943

bias f4 [64]
0	0xbe50b2d5	-0.20380719
1	0xbde89bec	-0.11357865
2	0xbe7b0849	-0.2451488
3	0x3e948057	0.29004166
4	0x3e125992	0.14291981
5	0x3e912dd7	0.28355286
6	0xbe8dea4d	-0.2771782
7	0xbb0bc177	-0.002132503
8	0x3da4c03b	0.080444776
9	0x3e6bd2af	0.23029588
10	0xbcc25dd7	-0.023726387
11	0x3ef6671e	0.48125547
12	0xbdd9ac21	-0.10628534
13	0x3d269efd	0.040678967
14	0xbcea0c94	-0.02857045
15	0xbd358a99	-0.04432163
16	0xbe0414d3	-0.12898569
17	0xbe6cd1e6	-0.23126945
18	0x3e73eb01	0.23820116
19	0x3e0d695c	0.13809723
20	0xbdae86e0	-0.08521819
21	0x3e2cde9d	0.16881795
22	0x3e23431e	0.15943572
23	0xbe15bf33	-0.14623718
24	0xbe449667	-0.19197999
25	0x3dcdd7ea	0.10050948
26	0x3cbb9653	0.022898829
27	0xbe26eee9	-0.16302074
28	0xbe9bef3b	-0.30455956
29	0x3d12965d	0.03578793
30	0x3e220d96	0.15825495
31	0xbe8e42b8	-0.27785277
32	0xbe1429f8	-0.14469135
33	0x3dde0a3c	0.10841796
34	0xbe960817	-0.29303047
35	0x3e834d2b	0.25644812
36	0x3e5ebbf0	0.2175138
37	0xbded0529	-0.1157325
38	0xbe1444b5	-0.14479335
39	0x3dd59637	0.10429042
40	0xbe2b1c42	-0.16709998
41	0x3e966621	0.29374793
42	0x3c4f0a3e	0.012636719
43	0xbddd9645	-0.10819677
44	0xbe4efd91	-0.20213915
45	0x3dd1c826	0.102432534
46	0xbe146ad0	-0.1449387
47	0xbe8aa644	-0.27079976
48	0x3e07ad69	0.13249744
49	0xbe0d06f8	-0.1377219
50	0x3c5a72c3	0.013333025
51	0x3e6be539	0.2303666
52	0xbebc5155	-0.367808
53	0xbeb58435	-0.35452428
54	0xbee575b0	-0.4481635
55	0x3deccde6	0.115627095
56	0x3cf533a8	0.029931858
57	0x3e849ced	0.25900975
58	0x3e575b4f	0.21030925
59	0x3ebbc1fa	0.3667143
60	0xbeaf73f9	-0.34268168
61	0x3e0886b3	0.13332634
62	0x3eb35341	0.35024455
63	0xbe01895b	-0.12650053

weight f4 [32, 32]
0	0xbdd2fd7b	-0.10302254
1	0xbe4be257	-0.1991056
2	0x3e548e9a	0.20757523
3	0x3c764bb4	0.0150326975
4	0xbe1760d0	-0.14783025
5	0x3c598068	0.013275243
6	0xbd846ab0	-0.064656615
7	0x3dacbd63	0.0843456
8	0xbe1efba4	-0.15525681
9	0xbf0cd42b	-0.5501124
10	0x3dcf2783	0.10114958
11	0x3d6e5c15	0.058193285
12	0xbd00133b	-0.03126834
13	0x3e483f98	0.19555509
14	0xbe48885c	-0.19583267
15	0x3e8fc7f8	0.28082252
16	0x3c8cf6b4	0.017207481
17	0x3e8c6072	0.27417332
18	0x3e4016a6	0.1875864
19	0x3eb09e23	0.3449565
20	0xbe999f06	-0.30004138
21	0x3e4a8888	0.19778645
22	0x3c084447	0.00831706
23	0xbf00a2b8	-0.5024829
24	0xbd452d43	-0.048138868
25	0x3e05d0ed	0.1306798
26	0x3e2a05cf	0.16603778
27	0x3e05e132	0.13074186
28	0x3e1f95b9	0.15584458
29	0x3deb0eca	0.1147743
30	0xbd8d1c82	-0.06890203
31	0x3ea34429	0.3188794
32	0x3e1f00d8	0.15527666
33	0xbd18c63b	-0.037298422
34	0xbf1176ad	-0.5682171
35	0x3d93c05a	0.072144225
36	0xbe51bd7e	-0.20482442
37	0x3d771ff7	0.06033322
38	0x3e338359	0.17530574
39	0xbd96b534	-0.073587805
40	0xbeb0f705	-0.3456346
41	0xbeac6543	-0.33671007
42	0xbe8f2113	-0.2795492
43	0xbea02241	-0.31276134
44	0x3ea7818e	0.3271603
45	0xbd0b813d	-0.034058798
46	0xbd507e0f	-0.05090147
47	0xbdcf9fd1	-0.101379044
48	0x3bd45471	0.0064797928
49	0x3e5470a1	0.2074609
50	0x3e7c4276	0.24634728
51	0x3eebff68	0.46093297
52	0x3e37a749	0.17934908
53	0xbddb95a2	-0.107218996
54	0xbc3b5222	-0.011433156
55	0x3d7336fa	0.0593786
56	0x3db91fd5	0.090392746
57	0xbcf8c3d2	-0.030366812
58	0x3e21da0a	0.15805832
59	0x3e21c49e	0.1579766
60	0xbe4d9380	-0.20075798
61	0xbe9d12d5	-0.3067843
62	0x3e666de2	0.22502854
63	0xbde04e29	-0.10952408
64	0x3e9706fe	0.29497522
65	0xbe5b71b4	-0.21430093
66	0x3e1f8f63	0.15582041
67	0xbf204781	-0.62609106
68	0xbe7c9d1c	-0.24669307
69	0x3d211406	0.039325736
70	0xbe58df8b	-0.21179025
71	0xbe4f7b00	-0.20261765
72	0xbe3f216b	-0.18665092
73	0x3e62d340	0.22150898
74	0x3e2dfe95	0.16991647
75	0xbdc627b2	-0.0967554
76	0xbed671a9	-0.4188359
77	0x3ec1008f	0.3769574
78	0xbec66664	-0.38749993
79	0x3c9dd3c5	0.019266019
80	0x3d66abdd	0.056316245
81	0x3ece4e20	0.4029398
82	0x3ec1c194	0.37843
83	0xbf01df13	-0.5073101
84	0xbdaa0279	-0.08301253
85	0x3da31221	0.07962442
86	0xbe0f82a2	-0.14014676
87	0xbeb4a1a6	-0.35279578
88	0xbdd88bdc	-0.10573551
89	0xbdbd93b7	-0.0925669
90	0x3cf965d2	0.03044406
91	0xbdc6ace5	-0.09700946
92	0x3e5d90bf	0.21637248
93	0xbe7d5bbf	-0.2474203
94	0xbe8a48fe	-0.27008814
95	0xbd50c460	-0.050968528
96	0x3ea1db78	0.31612754
97	0xbe4f7a6c	-0.20261544
98	0x3e27bbff	0.16380309
99	0x3e2ea111	0.1705363
100	0xbdf1060d	-0.11768732
101	0x3e3fb117	0.18719898
102	0x3eb7f277	0.35927173
103	0xbe679b44	-0.22617823
104	0xbe53d1ea	-0.20685545
105	0x3e8b1765	0.27166286
106	0x3de8cbf8	0.11367029
107	0xbe130ac5	-0.14359577
108	0x3eb69a38	0.35664535
109	0xbe30533a	-0.17219248
110	0xbd554bf1	-0.052074376
111	0xbcd197b1	-0.025585027
112	0xbe81c3bc	-0.25344646
113	0x3d14f70c	0.036368415
114	0xbe226431	-0.15858532
115	0x3e8feb81	0.28109363
116	0xbd37d67d	-0.044882286
117	0x3d1a44be	0.037663214
118	0x3e27297d	0.1632442
119	0x3d77c7cc	0.060493276
120	0xbd66a2d7	-0.05630764
121	0x3c8c3787	0.017116321
122	0x3d9a5269	0.0753525
123	0x3eb64064	0.35596
124	0xbdf10bdd	-0.11769841
125	0xbc0e40c5	-0.008682434
126	0x3e72d3d6	0.23713621
127	0x3d90f26d	0.07077489
128	0xbea7453b	-0.32670006
129	0xbd3cf130	-0.04612845
130	0x3e58b176	0.21161446
131	0xbdc5a4a0	-0.0965054
132	0x3e3f7ee5	0.1870075
133	0xbdca699c	-0.09883425
134	0x3db728c2	0.08943321
135	0x3e8e2b38	0.27767348
136	0x3da1a14b	0.07892092
137	0xbe8fe606	-0.2810518
138	0x3dd3d443	0.1034322
139	0x3e4d49e7	0.20047723
140	0xbe076a1b	-0.1322407
141	0x3dbc5aa9	0.091969796
142	0x3d0c4d51	0.034253422
143	0x3d7e6edf	0.062117454
144	0xbda5877f	-0.080824845
145	0xbc5b3e7b	-0.013381596
146	0x3dac6633	0.084179305
147	0x3e987923	0.2977992
148	0x3e420d99	0.189505
149	0xbeb3c1ca	-0.35108787
150	0x3e1c31fa	0.1525344
151	0x3e29fb20	0.16599703
152	0x3e2741eb	0.1633374
153	0x3ec1a00d	0.37817422
154	0x3bf316cf	0.0074184905
155	0xbe6862d8	-0.22693956
156	0x3db2e998	0.08735961
157	0x3ebd13dc	0.36929214
158	0x3d00ad2c	0.03141515
159	0xbe261545	-0.16219051
160	0x3ef4b1b1	0.47791818
161	0xbd4252c6	-0.04744222
162	0x3b16034c	0.0022890149
163	0xbefe19ac	-0.4962896
164	0xbcd96723	-0.026538437
165	0x3e74da83	0.2391148
166	0xbcbc4072	-0.022979949
167	0xbe034485	-0.12819107
168	0xbc44c01a	-0.012008691
169	0x3e0b7f06	0.13622674
170	0x3df86444	0.12128499
171	0x3dd8f462	0.10593487
172	0xbe0ce74f	-0.13760112
173	0x3e23189a	0.15927354
174	0xbe74b881	-0.23898508
175	0xbde97b1c	-0.114004344
176	0xbdb2b7ea	-0.08726485
177	0xbe09e2c1	-0.13465406
178	0x3df39e6d	0.11895452
179	0xbec3ece9	-0.38266686
180	0xbe053e4d	-0.13012047
181	0x3df264f4	0.118356615
182	0xbe6458c5	-0.22299488
183	0xbbb4fc46	-0.0055232374
184	0xbe462731	-0.19350888
185	0x3e9f1b98	0.3107574
186	0x3cea0dce	0.028571036
187	0x3d2f84cd	0.042851258
188	0xbdcd8385	-0.10034851
189	0xbe96a04f	-0.2941918
190	0xbd6e2d8c	-0.058148906
191	0x3d2ce738	0.042212695
192	0xbe35decf	-0.17760776
193	0x3bf8fdd7	0.0075986194
194	0x3deb7ac7	0.11498027
195	0x3d2627bc	0.040565237
196	0x3c86a98c	0.016438268
197	0xbdfc1c8a	-0.12310131
198	0x3f04b219	0.51834255
199	0x3e910968	0.2832749
200	0x3ddac806	0.10682683
201	0x3e36620a	0.17810836
202	0x3d663852	0.056206055
203	0x3eb8a132	0.36060482
204	0xbe4f6c5d	-0.20256181
205	0xbe38beaa	-0.18041483
206	0x3e6af5b2	0.22945288
207	0xbe1c893c	-0.15286726
208	0xbd9ca5a6	-0.076487824
209	0xbe93aed7	-0.2884433
210	0xbe8346b5	-0.25639883
211	0x3d969195	0.07351986
212	0x3d5b6f8c	0.053573176
213	0xbeb450a7	-0.35217783
214	0x3ebdbfdc	0.3706044
215	0x3eea4503	0.45755777
216	0x3e458e6f	0.19292615
217	0x3e485591	0.19563891
218	0x3d67fa00	0.056634903
219	0xbe019eaa	-0.12658182
220	0xbdd566c9	-0.10419995
221	0xbbca7ca3	-0.0061794086
222	0x3db68a16	0.089130566
223	0xbdba7034	-0.09103432
224	0x3e548163	0.20752482
225	0xbd00e9dc	-0.031473026
226	0x3e13ced3	0.14434366
227	0xbe8eaddb	-0.27867016
228	0x3da28ac2	0.07936622
229	0x3e7e65b6	0.24843487
230	0x3e9838c1	0.297308
231	0x3e39e7ac	0.18154782
232	0xbdf96992	-0.12178339
233	0x3bd2e098	0.006435465
234	0xbde78ada	-0.11305781
235	0x3e50410d	0.20337315
236	0x3e936d9d	0.28794566
237	0x3deea5d6	0.116527244
238	0xbd036532	-0.03207893
239	0x3e88bab6	0.2670495
240	0x3da3b2ea	0.079931095
241	0x3e1e53ff	0.1546173
242	0x3cf99141	0.03046477
243	0x3ef920c8	0.48657823
244	0x3e158e29	0.14605011
245	0x3d89aff2	0.06723012
246	0x3dc9be59	0.09850759
247	0xbd5b6bee	-0.053569727
248	0x3e26fe8c	0.1630804
249	0x3dda1f6d	0.10650525
250	0x3d9a08dd	0.07521222
251	0x3e5ba0f1	0.21448113
252	0x3cd12dfb	0.02553462
253	0xbda3fc00	-0.080070496
254	0x3e2a14be	0.16609475
255	0xbdc4d450	-0.09610808

bias f4 [32]
0	0xbe233896	-0.15939555
1	0xbda04219	-0.07825107
2	0x3e616b52	0.22013596
3	0xbd970ff6	-0.07376091
4	0xbe5d6b94	-0.21623069
5	0x3dfcfae8	0.12352544
6	0x3d8493b2	0.06473483
7	0x3e1ffb9f	0.1562333
8	0x3dcc7fff	0.09985351
9	0xbcdaf0f6	-0.026726227
10	0x3decfae0	0.11571288
11	0x3e22ea08	0.15909588
12	0xbdc524ea	-0.096261814
13	0xbaf4ba74	-0.001867129
14	0xbd0f387f	-0.03496599
15	0x3e32a927	0.17447339
16	0xbe416637	-0.18886648
17	0x3dc07622	0.09397532
18	0x3d623422	0.0552255
19	0xbd390225	-0.04516806
20	0x3e1fadbc	0.15593618
21	0xbe026e90	-0.12737489
22	0xbdbc06fd	-0.091810204
23	0x3dae011a	0.08496304
24	0xbdc675fb	-0.09690472
25	0x3d8121a3	0.06305244
26	0xbe38fe30	-0.18065715
27	0xbe8385e6	-0.25688094
28	0xbe4a8cb0	-0.1978023
29	0xbe3c5735	-0.18392642
30	0xbcf9a95d	-0.030476267
31	0xbc9fd3f4	-0.019510247

weight f4 [32, 64]
0	0xbd50c808	-0.050972015
1	0x3b87ada0	0.0041405708
2	0xbd7e4a08	-0.06208232
3	0x3d411508	0.047139198
4	0xbdda2048	-0.106506884
5	0x3dbba8c4	0.09163049
6	0xbdba1234	-0.09085503
7	0xbdcb87de	-0.09938024
8	0xbda1c35a	-0.078985885
9	0x3d67e1a8	0.056611687
10	0xbd3d2e14	-0.04618652
11	0x3d3f98e4	0.046776667
12	0xbdd94654	-0.10609117
13	0xbd9b523e	-0.07584046
14	0xbd3bfe80	-0.045897007
15	0xbcc93c78	-0.024564967
16	0xbdc34b04	-0.095357925
17	0x3da7a05e	0.081848845
18	0xbcf17db8	-0.029478893
19	0x3d245880	0.040123463
20	0x3db5075c	0.08839294
21	0x3cbec700	0.02328825
22	0x3d0c01bc	0.03418134
23	0x3df71b32	0.12065734
24	0xbd66eab4	-0.056376174
25	0x3d222d38	0.039593905
26	0xbd63cc0c	-0.055614516
27	0x3db6f348	0.08933121
28	0x3dcc74c0	0.09983206
29	0xbdec0660	-0.115246534
30	0x3dda8888	0.106705725
31	0x3d747cc4	0.0596893
32	0x3d5f1cdc	0.05447088
33	0x3d52c70c	0.051459357
34	0x3dd4d004	0.10391238
35	0xbc873560	-0.016504943
36	0xbdd87fb2	-0.10571231
37	0xbd12eaf8	-0.035868615
38	0xbdb44b58	-0.08803433
39	0x3c0762f0	0.008263335
40	0xbcbf3040	-0.023338437
41	0xbd895086	-0.06704812
42	0xbc3a3500	-0.011365175
43	0x3df2890e	0.11842547
44	0xbc218970	-0.009859428
45	0x3b820c60	0.0039687604
46	0xbc9fb420	-0.01949507
47	0x3ca0fae0	0.019650877
48	0x3de41968	0.11137658
49	0x3d9c8acc	0.07643661
50	0x3d35bd84	0.04437019
51	0x3cde86a8	0.027163818
52	0x3cf173b0	0.02947411
53	0x3d45cd78	0.048291653
54	0xbc845328	-0.016152933
55	0xbdededbc	-0.1161761
56	0xbd9e503e	-0.07730149
57	0x3dda8498	0.106698215
58	0x3bf4d500	0.0074716806
59	0xbdcf60fa	-0.10125919
60	0x3ca18350	0.019715935
61	0x3dd3868a	0.10328396
62	0xbdf1eb80	-0.11812496
63	0xbdac596a	-0.08415492
64	0xbd4be978	-0.0497832
65	0x3ba46740	0.005017191
66	0xbceed3b0	-0.029153675
67	0xbc610ea0	-0.013736397
68	0xbdf99266	-0.121861264
69	0x3d6fc248	0.05853489
70	0x3de0b3c8	0.109717906
71	0x3d9c7a1e	0.076404795
72	0xbdb5482a	-0.08851655
73	0xbdce5cca	-0.10076292
74	0x3d549bf4	0.05190654
75	0x3b37fb00	0.0028073192
76	0x3d51e278	0.051241368
77	0xbdfa2698	-0.122143924
78	0xbbf43740	-0.0074528754
79	0x3db48ada	0.08815546
80	0x3d6d85cc	0.057988927
81	0x3b959340	0.0045646727
82	0x3cc95680	0.02457738
83	0xbc41e7a0	-0.011835009
84	0xbd8cc1e4	-0.06872919
85	0xbd417c04	-0.04723741
86	0xbd9be618	-0.07612246
87	0x3dd4a2ce	0.10382615
88	0x3d8cdf96	0.06878583
89	0x3d330ed8	0.043715328
90	0xbdc45072	-0.09585656
91	0x3dc58902	0.09645273
92	0x3d2088ac	0.03919284
93	0x3db11974	0.08647433
94	0xbd496a6c	-0.049173757
95	0x3cd915b8	0.026499614
96	0x3df9f432	0.1220478
97	0x3dac3364	0.084082395
98	0x3dcd4fa8	0.10024959
99	0xbcd70640	-0.026248097
100	0x3dc30a62	0.09523465
101	0xbdc881e8	-0.09790403
102	0x3c312120	0.01081112
103	0xbd90245e	-0.070381865
104	0xbceecff8	-0.029151902
105	0xbd031f34	-0.03201218
106	0x3c193ac0	0.009352386
107	0x3de8feea	0.11376746
108	0x3d7d7ba4	0.06188549
109	0xba0ad000	-0.00052952766
110	0x3db5b870	0.08873069
111	0xbd83304a	-0.06405695
112	0x3d83ef62	0.06442143
113	0xbc3deaa0	-0.0115915835
114	0xbcb22fe8	-0.02175136
115	0x3c6fc430	0.014634177
116	0xbdc41eea	-0.09576209
117	0x3c6ca950	0.014444664
118	0x3d2c2764	0.042029753
119	0x3ddadcce	0.106866464
120	0xbd1f685c	-0.038917884
121	0x3d385588	0.045003444
122	0x3dffe006	0.12493901
123	0xbd5ba1d4	-0.05362113
124	0x3df35a06	0.11882405
125	0xbd7e3434	-0.062061504
126	0x3d61afe0	0.055099368
127	0x3d489378	0.048968762
128	0x3d0f0418	0.034916013
129	0x3dca7212	0.098850384
130	0xbd4eeea4	-0.050520554
131	0x3d069038	0.03285238
132	0x3a37e600	0.00070151687
133	0xbdc08c5a	-0.0940177
134	0xbcf8a438	-0.030351743
135	0xbdaaf674	-0.083477885
136	0x3d626230	0.05526942
137	0x3c381b60	0.011236995
138	0x3c48a1b0	0.012245581
139	0xbd1b5368	-0.03792134
140	0x3a1d9100	0.00060106814
141	0xbd1f410c	-0.038880393
142	0x3d131db8	0.035917014
143	0x3df89e94	0.121396214
144	0x3c9b1b18	0.018933818
145	0xbd62c630	-0.055364788
146	0xbd9c5f3a	-0.076353505
147	0x3c1c8c10	0.009554878
148	0xbdbde9a2	-0.092730775
149	0xbdc06c26	-0.09395628
150	0xbda69fe0	-0.081359625
151	0xbd2de5ec	-0.0424556
152	0x3c179680	0.009252191
153	0x3db048da	0.08607645
154	0x3d465158	0.04841742
155	0x3dc4205c	0.095764846
156	0xbda0bde2	-0.07848717
157	0x3c2cd3b0	0.010548517
158	0xbde38db0	-0.11111009
159	0x3d92db32	0.071707144
160	0x3cd56968	0.026051238
161	0x3df79b62	0.12090184
162	0xbdb61200	-0.08890152
163	0x3dcd4b46	0.10024123
164	0x3dd81f3a	0.10552831
165	0x3dcefb02	0.1010647
166	0x3c921e98	0.017836854
167	0x3de8c688	0.11365992
168	0x3daaf73c	0.083479375
169	0x3dbeff0e	0.093259916
170	0xbc050a30	-0.008120105
171	0xbdc47434	-0.095924765
172	0xbacbe200	-0.0015555024
173	0x3cc00a08	0.023442283
174	0xbdae6118	-0.08514613
175	0xbd92da04	-0.071704894
176	0xbdf57068	-0.119843304
177	0xbd337af4	-0.04381843
178	0x3ddefe58	0.10888356
179	0x3caf1998	0.021374509
180	0xbbfa2f20	-0.0076350123
181	0x3ba47cc0	0.005019754
182	0x3d9fa0b0	0.077943206
183	0xbde21074	-0.110382944
184	0xbdc586e6	-0.096448705
185	0xbd2a3990	-0.041558802
186	0xbd935528	-0.07193977
187	0x3d840a7e	0.06447314
188	0x3db4e2a8	0.08832294
189	0xbdf860b8	-0.12127823
190	0xbdd94312	-0.10608496
191	0xbdf94c20	-0.12172723
192	0x3d412780	0.04715681
193	0x3dce0af2	0.100606814
194	0xbdc67cb0	-0.09691751
195	0xbd6d08a0	-0.057869554
196	0x3d22edd0	0.039777577
197	0xbda72a0c	-0.08162317
198	0x3dd9777e	0.106184945
199	0x3ceec1d0	0.029145151
200	0xbd0e884c	-0.03479795
201	0x3c0504d0	0.008118823
202	0x3d1fa020	0.038971066
203	0xbd350cc8	-0.044201642
204	0xbdc65cf4	-0.09685698
205	0x3a5c4100	0.000840202
206	0x3b153780	0.0022768676
207	0x3b253180	0.0025206506
208	0xbc956ec0	-0.018241286
209	0x3da45eee	0.08025919
210	0xbd0ee0d8	-0.034882396
211	0xbc463b40	-0.012099087
212	0x3d528730	0.051398456
213	0xbda122ce	-0.078679666
214	0x3d0917a8	0.033469826
215	0xbce26c28	-0.027639464
216	0x3d7597c4	0.059959188
217	0xbd8adef2	-0.06780805
218	0x3b9761a0	0.004619792
219	0x3c485ac0	0.012228668
220	0xbdcdfa0a	-0.10057457
221	0xbdba25fe	-0.09089278
222	0x3d445bdc	0.047939166
223	0xbd15055c	-0.036382064
224	0x3d98099c	0.07423708
225	0xbdfce490	-0.12348282
226	0xbd7d18a4	-0.061791077
227	0xbdd2db82	-0.10295774
228	0x3d4c8784	0.049933925
229	0xbb6d7f40	-0.0036239177
230	0xbcbeff78	-0.023315176
231	0xbcaa5d40	-0.020796418
232	0xbdc81a24	-0.09770611
233	0x3d11335c	0.03544937
234	0x3b4c3140	0.0031157285
235	0xbdb0ab3e	-0.08626412
236	0x3d40a8c8	0.047035962
237	0xbb24a6c0	-0.0025123805
238	0xbdf796fc	-0.12089345
239	0x3d89b524	0.06724003
240	0x3d88ee5c	0.066860884
241	0xbcc0ee98	-0.02355127
242	0xbdb0c08e	-0.08630477
243	0x3ba47460	0.005018756
244	0x3dc12c24	0.09432247
245	0x3dea53b6	0.11441748
246	0xbdc13aa4	-0.09435013
247	0xbd674128	-0.056458622
248	0x3dc753ee	0.09732805
249	0x3d7a4124	0.06109728
250	0x3d9e77a2	0.07737662
251	0xbd7ed708	-0.06221679
252	0x3ddc8d86	0.10769181
253	0xbdd272ea	-0.10275824
254	0xbbc54cc0	-0.006021112
255	0x3b2a1700	0.002595365

bias f4 [32]
0	0x3bc4a0e0	0.006000623
1	0xbdf590fa	-0.11990543
2	0x3c824228	0.015900686
3	0x3d34205c	0.043976173
4	0x3de51af6	0.11186783
5	0xbd25f43c	-0.040516123
6	0x3d38ac5c	0.04508625
7	0xbd2b9140	-0.041886568
8	0xbd340bb4	-0.043956473
9	0xbde2d6e8	-0.11076146
10	0x3cd823a8	0.02638419
11	0x3dabc6c2	0.083875194
12	0xbd8e6972	-0.06953706
13	0x3d5152e4	0.05110444
14	0xbc9fbaf8	-0.019498333
15	0xbdb5c1a4	-0.08874825
16	0x3c5a6040	0.013328612
17	0xbdf978e2	-0.1218126
18	0x3d893b9e	0.06700824
19	0xbce24198	-0.027619168
20	0x3debc534	0.11512223
21	0x3b973520	0.0046144873
22	0xbdf8308a	-0.12118633
23	0x3dc6a8d2	0.09700169
24	0xbcdffb10	-0.027341396
25	0xbdaf5ae6	-0.085622594
26	0x3dec5cbc	0.11541125
27	0x3c3f4760	0.011674732
28	0x3d25ff34	0.040526584
29	0xbddd7652	-0.108135834
30	0xbd34d278	-0.04414603
31	0x3dcd66e6	0.10029392

weight_ih_l0 f4 [128, 32]
0	0xbd84ddd2	-0.06487621
1	0x3d0479de	0.032342784
2	0xbda656c1	-0.08122016
3	0xbd53068e	-0.051519923
4	0xbe19edd5	-0.15032132
5	0x3e323010	0.17401147
6	0xbe2d7574	-0.16939336
7	0xbeca401a	-0.3950203
8	0xbe314451	-0.17311217
9	0x3e85df6f	0.2614703
10	0xbe47c7b1	-0.1950977
11	0xbe019811	-0.12655665
12	0x3d10b814	0.0353318
13	0xbda3bb1d	-0.079946734
14	0x3dbf60c7	0.09344631
15	0x3e79fd48	0.24413025
16	0x3d272466	0.040806197
17	0x3e402054	0.18762332
18	0xbe9ab58b	-0.3021663
19	0x3d03b72e	0.032157116
20	0xbea7e5f9	-0.32792643
21	0xbdd86167	-0.10565453
22	0xbe6a248f	-0.22865508
23	0xbeace2d0	-0.33766794
24	0xbe3a1404	-0.18171698
25	0xbe885a27	-0.2663128
26	0xbd5beced	-0.053692747
27	0x3bd92ee3	0.006627904
28	0x3d3dd038	0.04634115
29	0xbe65994a	-0.22421756
30	0x3e8e3784	0.2777673
31	0xbedf8050	-0.43652582
32	0x3c97180d	0.018444085
33	0xbdfa0ba8	-0.122092545
34	0xbe8da94f	-0.27668235
35	0xbe36e586	-0.17860994
36	0x3ddcf9d2	0.10789837
37	0x3d586f81	0.052840713
38	0x3dd123bc	0.10211894
39	0xbe862d41	-0.262064
40	0xbdd6a937	-0.10481494
41	0x3e8ff5e1	0.28117278
42	0x3dee9a58	0.116505325
43	0xbcb7ddc6	-0.022444617
44	0x3ea810cf	0.32825324
45	0x3d31e2e0	0.043429255
46	0xbdbf271a	-0.0933363
47	0xbe3ebdee	-0.1862714
48	0x3d597b8d	0.053096343
49	0x3dbd0b8c	0.09230718
50	0xbdcbf598	-0.09958953
51	0x3ddc2873	0.107499026
52	0xbeaa8fdb	-0.33312878
53	0xbdc6b04b	-0.09701594
54	0xbd30c5f0	-0.043157518
55	0xbedc2066	-0.42993468
56	0x3ce635ca	0.02810182
57	0xbad16074	-0.001597418
58	0x3e5724fd	0.21010204
59	0x3d633aeb	0.05547611
60	0xbcfc908a	-0.03083064
61	0xbc05f42a	-0.008175889
62	0x3e1828fd	0.14859386
63	0xbe29834e	-0.16553995
64	0x3e0d8471	0.13820054
65	0x3e86e0e3	0.2634345
66	0x3dc05921	0.09392
67	0xbe6dd518	-0.2322582
68	0x3dc82d9e	0.09774326
69	0xbe95de62	-0.29271227
70	0xbac4c8c3	-0.0015013445
71	0xbebcdf6d	-0.3688921
72	0xbcb721b2	-0.022354934
73	0x3e957e60	0.2919798
74	0x3e87fe04	0.26560986
75	0xbe8d2649	-0.27568272
76	0xbd377067	-0.04478493
77	0xbe1a4eeb	-0.15069167
78	0xbae42e24	-0.001740877
79	0xbd9bede8	-0.076137364
80	0x3eb338db	0.35004315
81	0x3f08f5be	0.5349997
82	0xbc938f4d	-0.018012667
83	0x3dd9ae19	0.106289096
84	0xbcf793cc	-0.030221842
85	0x3ddd7221	0.10812784
86	0xbe82466c	-0.25444353
87	0xbf27027c	-0.65238166
88	0xbddfb35a	-0.109228805
89	0xbed775d1	-0.42082074
90	0x3e1b28e9	0.15152325
91	0x3eaa3298	0.33241725
92	0x3e126f33	0.14300232
93	0xbe3199ab	-0.17343776
94	0xbbad0bb7	-0.0052809375
95	0xbc306f72	-0.010768758
96	0x3d90b486	0.07065682
97	0x3d1a5866	0.03768196
98	0xbe1dc578	-0.1540736
99	0xbf09acbf	-0.53779215
100	0xbe350b37	-0.1768006
101	0xbe014941	-0.126256
102	0x3d78f779	0.060782883
103	0xbf23040f	-0.6367807
104	0x3db4749d	0.08811305
105	0x3e82d2cf	0.2555146
106	0xbdf00985	-0.11720566
107	0x3e38bf3a	0.18041697
108	0x3e95e177	0.2927358
109	0xbe320c55	-0.17387517
110	0x3e0ee773	0.13955478
111	0x3eaa7c75	0.33298078
112	0x3dadcdb1	0.08486498
113	0x3e7681f0	0.24073005
114	0xbe4ca5d4	-0.19985133
115	0xbe4b6bab	-0.19865291
116	0x3d6466b2	0.055762
117	0xbe8bd463	-0.27310476
118	0xbe3b8273	-0.18311481
119	0xbf140f8d	-0.5783623
120	0xbe2aac80	-0.16667366
121	0xbe9e43b2	-0.30911022
122	0xbd0dbf27	-0.034606125
123	0x3db293cd	0.08719597
124	0x3b1aae95	0.0023602594
125	0x3da45f1c	0.08025953
126	0xbc32f167	-0.010921813
127	0xbd1200ef	-0.03564542
128	0xbde32923	-0.110918306
129	0xbba8a30a	-0.005146389
130	0x3dd7f1c4	0.1054416
131	0xbee26a28	-0.44221616
132	0xbe836e72	-0.256702
133	0xbde5622f	-0.11200368
134	0xbdc55c26	-0.096367165
135	0xbed5a83a	-0.4172991
136	0xbd087448	-0.03331402
137	0x3e22eef3	0.15911464
138	0x3de70bf8	0.1128158
139	0x3e3fa354	0.18714648
140	0x3eb68ed5	0.35655847
141	0xbe626eed	-0.22112627
142	0xbc204eda	-0.009784425
143	0x3dfd562f	0.12369954
144	0x3da8a966	0.08235435
145	0x3f1a0aba	0.6017262
146	0xbe8f5038	-0.2799089
147	0xbe8f8cac	-0.28037012
148	0xbd18a69f	-0.037268277
149	0xbeafedb6	-0.34361047
150	0xbe2c507a	-0.16827574
151	0xbf0dd111	-0.55397135
152	0xbe7e39d4	-0.24826747
153	0xbe8d9bc8	-0.27657914
154	0x3da791b9	0.08182091
155	0x3e646a4f	0.22306179
156	0x3e5fb385	0.21845825
157	0xbe043ae0	-0.12913084
158	0xbe5b9147	-0.21442138
159	0xbd938867	-0.07203751
160	0xbe324e6c	-0.17412728
161	0xbc896fa4	-0.016776867
162	0xbe4ed85b	-0.2019972
163	0xbe68a010	-0.22717309
164	0xbe5b98ef	-0.21445058
165	0x3dfcd139	0.123445936
166	0xbe4a599c	-0.19760746
167	0xbe9b5333	-0.30336913
168	0xbe9c66a0	-0.30547047
169	0x3e3095cc	0.17244643
170	0xbe4cabcc	-0.1998741
171	0x3d36506c	0.04451029
172	0x3e5f2604	0.21791846
173	0x3cf804f8	0.030275807
174	0x3d544790	0.05182606
175	0x3e9139d7	0.2836444
176	0x3e9e0fa4	0.30871308
177	0x3e0080d3	0.12549143
178	0x3d47ae44	0.048750177
179	0xbe9e15d1	-0.3087602
180	0xbec114be	-0.37711138
181	0xbdfedc52	-0.124443665
182	0x3d6b2cc2	0.05741573
183	0xbee6478a	-0.44976455
184	0xbe0895e6	-0.13338432
185	0xbe9270d3	-0.28601703
186	0x3dbf166e	0.0933045
187	0x3e1751af	0.14777254
188	0x3db14a8f	0.08656799
189	0xbda7b1f5	-0.081882395
190	0xbe88ec1f	-0.26742646
191	0xbe58205f	-0.21106099
192	0x3e4c4a1a	0.19950143
193	0x3db91546	0.09037261
194	0xbed5922f	-0.41713092
195	0x3d575b81	0.0525775
196	0x3e4e3443	0.20137124
197	0xbdd60500	-0.104501724
198	0x3dc539c6	0.0963016
199	0xbe8889cb	-0.26667628
200	0xbdd8566a	-0.10563357
201	0xbe00a787	-0.12563907
202	0xbe0fcdbc	-0.14043325
203	0xbe3a7db4	-0.18212014
204	0xbcba47e5	-0.02273936
205	0xbd3d96a1	-0.04628623
206	0x3d0bdb3b	0.03414462
207	0xbdd7bb66	-0.1053379
208	0x3e2df57d	0.16988178
209	0x3e2e9351	0.17048384
210	0xbe500bfb	-0.2031707
211	0x3d6ec020	0.058288693
212	0xbe7f385c	-0.24923843
213	0xbc86900c	-0.016426109
214	0x3d47bfaf	0.048766788
215	0xbef0d6d0	-0.4703889
216	0xbd502dd8	-0.05082497
217	0x3d346203	0.044038784
218	0x3c96599e	0.01835328
219	0x3e3e6c9b	0.18596117
220	0xbbeb4481	-0.007179797
221	0xbc9b3660	-0.018946826
222	0xbe1110b7	-0.14166532
223	0xbe1d12bc	-0.15339178
224	0x3c16f7c6	0.009214347
225	0x3ef19530	0.47184134
226	0xbd8bdb56	-0.068289444
227	0xbec7b25a	-0.3900326
228	0xbde9feab	-0.11425527
229	0xbef7b8d2	-0.48383194
230	0xbddeb6c4	-0.108747035
231	0xbf2198ec	-0.63123965
232	0xbe680e77	-0.22661768
233	0x3e6acdf4	0.22930127
234	0x3c041345	0.008061235
235	0xbe81236b	-0.25222334
236	0x3db95546	0.09049468
237	0xbf109b84	-0.564873
238	0xbb5e8ce1	-0.0033958482
239	0xbd5c399c	-0.053765878
240	0x3e5d5c56	0.21617255
241	0x3e9edc81	0.31027606
242	0xbe7be77a	-0.2460002
243	0x3e035fb8	0.12829483
244	0xbdc6d9cd	-0.09709511
245	0x3dce2129	0.100649185
246	0x3ca3fa90	0.020016938
247	0xbf2cc3dd	-0.67486364
248	0x3e833f12	0.25634056
249	0xbed395b6	-0.41325158
250	0x3f0d3875	0.5516427
251	0x3ebf80de	0.37403005
252	0x3e95d592	0.29264504
253	0x3da1dbdb	0.07903262
254	0xbe207da4	-0.15672928
255	0x3e186a9e	0.14884421

weight_hh_l0 f4 [128, 32]
0	0xbb97ac02	-0.004628659
1	0x3e178f2d	0.14800711
2	0xbdb4009f	-0.08789181
3	0xbe34906f	-0.17633222
4	0xbe07a3a9	-0.13246025
5	0xbbd1876b	-0.006394317
6	0x3e9298b5	0.2863213
7	0x3d3b2806	0.045692466
8	0x3e19b8e0	0.1501193
9	0xbde2b66c	-0.110699505
10	0xbdb7fdfb	-0.0898399
11	0xbc7f629e	-0.015587477
12	0xbc0f9efe	-0.008765934
13	0xbdca42f5	-0.09876052
14	0x3d9a0ab8	0.07521576
15	0x3dcefcab	0.10106786
16	0xbc433678	-0.011914842
17	0xbd25b5ef	-0.04045671
18	0x3e3879b1	0.18015172
19	0xbd4249c4	-0.04743363
20	0x3e877f5c	0.26464355
21	0xbc6fc9cc	-0.0146355145
22	0xbdc85ae8	-0.09782964
23	0xbe1445a0	-0.14479685
24	0x3e2c740c	0.16841143
25	0xbe16800e	-0.14697286
26	0x3d9031e6	0.07040767
27	0x3e4902cb	0.19629972
28	0xbdbd9b9b	-0.09258195
29	0xbdd62aab	-0.10457357
30	0x3d761857	0.060081806
31	0xbdb43ec9	-0.08801038
32	0x3c6e66d0	0.01455088
33	0x3e177be6	0.14793357
34	0xbda26a15	-0.0793039
35	0x3e83bb3b	0.25728783
36	0xbd9fb4c3	-0.077981494
37	0x3c86a705	0.016437063
38	0x3e3b72dc	0.18305534
39	0xbe029f98	-0.12756193
40	0x3e165783	0.1468182
41	0x3dfb96bd	0.122846104
42	0xbe0a8f5c	-0.1353125
43	0xbcc6fcd5	-0.024290482
44	0x3da20844	0.07911733
45	0xbd83fcbd	-0.064446904
46	0x3cf75f2e	0.030196752
47	0x382db1ef	4.1412128e-05
48	0xbe092b34	-0.13395387
49	0x3d5aaa76	0.05338522
50	0x3d59c2ec	0.053164408
51	0xbde97252	-0.11398758
52	0x3ddd7525	0.10813359
53	0xbe0fbef6	-0.1403769
54	0xbdc68f05	-0.096952476
55	0xbe9a5e2b	-0.3014997
56	0x3d3828b0	0.044960678
57	0xbcb146cb	-0.021640202
58	0x3e02a958	0.12759912
59	0x3c67f326	0.014157092
60	0x3e52fdda	0.20604649
61	0xbd51a4d7	-0.051182594
62	0x3d8391f6	0.06424324
63	0xbddb6168	-0.10711938
64	0xbcb5a5e8	-0.022173837
65	0x3d859b1c	0.065237254
66	0xbe2acf00	-0.16680527
67	0x3bed5592	0.007242867
68	0x3e5e15ef	0.21688055
69	0x3dc9b1ef	0.09848391
70	0x3e74bbed	0.23899813
71	0x3d12617c	0.0357375
72	0x3e1795c2	0.14803222
73	0x3df51def	0.119686
74	0xbe48a6f6	-0.1959494
75	0x3da92dfb	0.08260723
76	0xbd31597c	-0.04329823
77	0x3dadb397	0.0848152
78	0xbe12171e	-0.14266631
79	0x3e46f79b	0.19430391
80	0x3e020043	0.12695412
81	0x3de704b8	0.11280197
82	0xbbdade83	-0.0066793575
83	0xbe117627	-0.14205228
84	0xbdf70e79	-0.12063307
85	0xbd3f7beb	-0.046749037
86	0x3d37b37e	0.04484891
87	0xbe90133c	-0.28139675
88	0x3e623deb	0.22093932
89	0xbdc88ef4	-0.09792891
90	0x3dc1fc59	0.094719596
91	0xbce81527	-0.028330399
92	0x3d61718c	0.055039927
93	0x3c8f8554	0.01751963
94	0xbda207eb	-0.079116665
95	0xbd904915	-0.07045189
96	0x3da646cc	0.08118972
97	0x3e5de666	0.21669921
98	0x3d685ed7	0.05673107
99	0xbe21786b	-0.15768592
100	0xbd741f21	-0.0596
101	0xbdb02e77	-0.086026125
102	0x3c376615	0.011193772
103	0x3e35a46f	0.17738508
104	0xbc6a9160	-0.014316887
105	0x3e65d8fa	0.22446051
106	0x3d83510b	0.06411942
107	0xbe37e5ab	-0.17958705
108	0xbe134e87	-0.14385425
109	0xbe22848c	-0.15870875
110	0xbe31f701	-0.17379381
111	0x3e0767a8	0.13223135
112	0xbe313bab	-0.17307918
113	0xbe4d646d	-0.2005784
114	0xbe847f87	-0.25878546
115	0x3d172e74	0.036909536
116	0x3d07c61c	0.033147916
117	0x3d2caec2	0.04215885
118	0xbe21e692	-0.15810612
119	0xbe0498d2	-0.12948921
120	0x3d4deb4c	0.050273225
121	0x3e678b76	0.22611794
122	0xbda1f6d7	-0.07908409
123	0x3dfbff9b	0.12304612
124	0x3e4596dd	0.19295831
125	0x3e2e1076	0.16998467
126	0xbdc1a57a	-0.0945539
127	0x3e423fb5	0.18969615
128	0xbbde1d7e	-0.006778418
129	0x3e511694	0.20418769
130	0x3e23fed1	0.16015173
131	0xbd0fb75e	-0.035086982
132	0xbe2ab71d	-0.16671415
133	0xbea8b433	-0.3294998
134	0xbd78fef2	-0.06079001
135	0xbdc29a54	-0.09502092
136	0xbdd93637	-0.10606044
137	0x3d10eeb3	0.03538389
138	0x3d00da8e	0.03145843
139	0xbd91d854	-0.071213394
140	0xbba138f5	-0.00492012
141	0xbe794aac	-0.24344891
142	0xbd7f19c9	-0.06228045
143	0x3c928ade	0.017888483
144	0x3deeb603	0.1165581
145	0xbe82c611	-0.25541738
146	0xbe2b3ce7	-0.16722451
147	0xbe3126c3	-0.17299943
148	0x3dbfb5ba	0.093608335
149	0xbcd6fe0a	-0.026244182
150	0xbc9a17d1	-0.018810185
151	0x3d922184	0.07135299
152	0x3e7721a6	0.2413393
153	0x3c35f649	0.011106082
154	0xbd473acc	-0.048640057
155	0x3e0d7e67	0.1381775
156	0x3e3d4074	0.18481618
157	0x3d9a2f8a	0.075285986
158	0xbdea83a8	-0.11450893
159	0x3d92ce08	0.071682036
160	0xbe05f40c	-0.13081378
161	0xbda762b2	-0.081731215
162	0xbdbe7c4c	-0.093010515
163	0xbd505111	-0.05085856
164	0x3c7beb47	0.015375919
165	0x3de4f61c	0.11179754
166	0x3dbe2615	0.09284607
167	0x3d2efe65	0.04272308
168	0x3ddae2ea	0.10687812
169	0x3e09c657	0.13454567
170	0xbc83d4ec	-0.01609274
171	0x3de282f1	0.11060131
172	0x3e4ddfa8	0.2010485
173	0xbdbf6bd0	-0.093467355
174	0x3d39007c	0.045166478
175	0x3ce946f9	0.028476225
176	0xbd25e78c	-0.040504023
177	0xbdfb5498	-0.12271994
178	0x3ba6d241	0.005090982
179	0xbe50356e	-0.20332882
180	0x3acd2bf8	0.0015653362
181	0xbe6a582a	-0.22885194
182	0xbe4e73bf	-0.20161341
183	0xbd0ee3ce	-0.03488522
184	0x3de818ac	0.11332831
185	0xbdb3e98f	-0.08784782
186	0xbdff8f4f	-0.12478506
187	0xbdadcefe	-0.08486746
188	0x3e15a3c2	0.1461325
189	0xbe0ceb39	-0.13761605
190	0x3d86f628	0.06589919
191	0x3de9ed69	0.114222355
192	0xbe25ea42	-0.16202644
193	0x3e97b8f3	0.29633293
194	0x3ea90a4f	0.33015677
195	0x3ec654f0	0.38736677
196	0x3e34c6a6	0.17653903
197	0x3e2bdbeb	0.16783111
198	0x3c0a5231	0.0084424475
199	0x3c83e5c4	0.016100772
200	0x3e5d5ce6	0.21617469
201	0x3e85880a	0.26080352
202	0xbd8794e6	-0.06620197
203	0x3e1fc225	0.15601404
204	0x3d8c1883	0.06840613
205	0x3e0be680	0.13662148
206	0xbd413bfb	-0.047176342
207	0xbbe9ed3c	-0.0071388762
208	0xbe638d81	-0.22221948
209	0xbe10e6e1	-0.14150573
210	0x3e828199	0.254895
211	0x3dabdc6b	0.08391651
212	0xbc9aaa0e	-0.018879917
213	0xbd249207	-0.040178325
214	0x3e113dd5	0.14183743
215	0xbe3bce22	-0.18340352
216	0x3dc8f879	0.098130174
217	0xbdb690c7	-0.08914333
218	0xbe08351c	-0.1330151
219	0x3c555b90	0.0130223185
220	0xbde46313	-0.111517094
221	0x3de4ea61	0.11177517
222	0x3dd014a1	0.10160185
223	0x3e0ad3c6	0.13557348
224	0x3e02ccab	0.12773387
225	0xbdec1797	-0.11527937
226	0xbd422a41	-0.047403578
227	0x3e3ebe53	0.1862729
228	0x3db3cc82	0.08779241
229	0x3e0545e1	0.13014938
230	0x3e2338fe	0.1593971
231	0x3ccbfa60	0.024899662
232	0xbdb852d3	-0.090001725
233	0x3d668ab5	0.056284625
234	0xbd1f3ad9	-0.03887448
235	0x3d82339f	0.06357502
236	0x3d9ca94e	0.0764948
237	0x3d0e7195	0.03477629
238	0xbde6b3a1	-0.1126473
239	0xbc394aff	-0.011309384
240	0xbe39cab3	-0.1814373
241	0x3bb0b6d5	0.005392889
242	0x3e66b94b	0.22531621
243	0x3e0ba7dd	0.13638254
244	0xbdfd64f5	-0.12372772
245	0xbdf3ca7e	-0.11903857
246	0x3daec74b	0.08534106
247	0xbe06c891	-0.13162448
248	0x3c366b8e	0.0111340415
249	0xbd15eab7	-0.036600795
250	0xbdc256ad	-0.09489188
251	0xbd869232	-0.06570853
252	0xbd0ac270	-0.033876836
253	0x3cd9045c	0.026491337
254	0x3e17da68	0.14829409
255	0x3e458bf0	0.19291663

bias_ih_l0 f4 [128]
0	0xbe3c954c	-0.18416327
1	0xbdb48515	-0.08814446
2	0xbedd6949	-0.4324439
3	0xbcad00c7	-0.021118535
4	0xbd080c98	-0.033215135
5	0xbdcd6e34	-0.10030785
6	0xbe2d68af	-0.16934465
7	0xbf1aa13a	-0.6040226
8	0xbecea5ed	-0.40360966
9	0xbe879a77	-0.26485035
10	0xbde65c7f	-0.11248111
11	0x3c52f629	0.012876072
12	0xbc9c9e4f	-0.019118456
13	0xbecc5e78	-0.39915824
14	0xbee779cf	-0.4521012
15	0xbe8322f2	-0.256126
16	0xbe4bec1c	-0.19914287
17	0xbf088d59	-0.5334068
18	0x3d8f2308	0.069891036
19	0xbe47974a	-0.19491306
20	0xbe900746	-0.2813055
21	0xbe80bb72	-0.2514301
22	0xbdc507ff	-0.09620666
23	0xbe05db40	-0.13071918
24	0xbeb8e923	-0.3611537
25	0xbe24793b	-0.16061871
26	0xbe8621a5	-0.26197544
27	0xbe10454b	-0.14088933
28	0xbebc0b21	-0.3672724
29	0xbe55b7c2	-0.2087088
30	0xbe5dedc7	-0.21672736
31	0xbe187af4	-0.14890653
32	0x3cb80afa	0.022466172
33	0x3ddfb0a7	0.10922366
34	0xbbfcd699	-0.0077160117
35	0xbd070735	-0.032965858
36	0x3cb956ba	0.022624362
37	0xbda1cd0e	-0.07900439
38	0x3d2765c3	0.040868532
39	0xbe16986c	-0.14706582
40	0xbcce594b	-0.025189063
41	0x3d83fe84	0.064450294
42	0x3ce43296	0.027856153
43	0xbdf7291a	-0.120683864
44	0xbdf76844	-0.12080434
45	0xbe26db9c	-0.16294712
46	0xbea2df5b	-0.31811032
47	0xbe0d8c2d	-0.13823004
48	0x3dc006aa	0.09376271
49	0xbee7c541	-0.4526768
50	0x3da41f44	0.08013776
51	0xbdaf6860	-0.0856483
52	0xbe2eff6c	-0.17089623
53	0xbd91a7dd	-0.071120955
54	0xbe35bc5d	-0.17747636
55	0x3e02fca3	0.12791686
56	0xbe1afb92	-0.15135029
57	0x3d54b41e	0.051929586
58	0xbbe5b18c	-0.0070096906
59	0x3d28c0f7	0.04119965
60	0xbd14625d	-0.03622662
61	0xbdc4fae5	-0.09618167
62	0xbd97d2bc	-0.07413241
63	0xbe8261e3	-0.25465307
64	0x3d62caad	0.055369068
65	0xbda1b157	-0.07895153
66	0x3d85e360	0.06537509
67	0xbe36139a	-0.17780915
68	0x3d578d9d	0.052625287
69	0xbd9090f9	-0.07058901
70	0xbdad6b01	-0.08467675
71	0xbd4af13c	-0.049546465
72	0x3e0dbbac	0.13841122
73	0xbe1cc88b	-0.15310876
74	0x3de94fca	0.11392172
75	0xbd9c838f	-0.0764228
76	0xbdbc04af	-0.09180581
77	0x3ca24c55	0.019811789
78	0xbd9113ad	-0.07083831
79	0xbd5bfd3a	-0.053708293
80	0x3e172abb	0.14762394
81	0x3d3cea72	0.046122022
82	0xbe343ce7	-0.17601357
83	0x3d1591f3	0.03651614
84	0xbd8dc024	-0.069214135
85	0x3daefbd4	0.08544126
86	0xbdd5a4ef	-0.10431849
87	0x3de6b641	0.11265231
88	0xbdf73a95	-0.120717205
89	0x3d45ecce	0.048321538
90	0x3d8ec4b4	0.06971112
91	0x3dfe3c3f	0.12413835
92	0xbd591540	-0.05299878
93	0xbd16e5ba	-0.036840178
94	0x3bb87256	0.0056288643
95	0x3d3d2942	0.046181925
96	0xbdbf23e8	-0.093330204
97	0x3d3f9411	0.046772067
98	0xbeb3567d	-0.35026923
99	0xbdef66a5	-0.116895
100	0xbe27fed9	-0.1640581
101	0xbe2a5bd5	-0.16636594
102	0xbd41d585	-0.04732277
103	0xbea3f6a1	-0.320241
104	0xbe30d017	-0.1726688
105	0xbea48884	-0.32135403
106	0xbd0316d5	-0.032004196
107	0xbd1c219e	-0.038117997
108	0xbdfeeab9	-0.124471135
109	0xbea6aa0b	-0.32551607
110	0xbe5f0344	-0.2177859
111	0xbe0a05df	-0.13478802
112	0xbe4deba0	-0.20109415
113	0xbe9e2d27	-0.30893824
114	0x3d839e85	0.064267196
115	0xbc183ec8	-0.009292312
116	0xbdb0f649	-0.08640725
117	0xbe904560	-0.2817793
118	0xbe4eb8b8	-0.20187652
119	0xbe09615f	-0.1341605
120	0xbed0783c	-0.40716732
121	0x3d0031b9	0.03129742
122	0xbe0d7ca3	-0.13817076
123	0xbd51e117	-0.051240053
124	0xbe4df569	-0.20113148
125	0xbe8e032c	-0.27736795
126	0xbe636e52	-0.22210053
127	0xbcb6f6eb	-0.022334537

bias_hh_l0 f4 [128]
0	0xbe924659	-0.28569296
1	0xbe21b43c	-0.1579141
2	0xbdca7ae3	-0.0988672
3	0xbe91b513	-0.2845846
4	0xbe2f591a	-0.17123833
5	0xbec4c958	-0.38434863
6	0xbdb45548	-0.088053286
7	0xbeca2f2c	-0.39489114
8	0xbe8a3147	-0.2699072
9	0xbd9f3923	-0.0777457
10	0xbe40956b	-0.18806998
11	0xbd532746	-0.051551126
12	0xbdc9fd2f	-0.09862744
13	0xbe1a2502	-0.1505318
14	0xbe289f3c	-0.16466993
15	0xbeceb2fc	-0.4037093
16	0x3d559560	0.05214441
17	0xbea2be4f	-0.3178582
18	0xbe3d6795	-0.18496545
19	0x3d041d58	0.032254547
20	0xbde6b27c	-0.11264512
21	0xbe5cab60	-0.2154975
22	0xbe84a7c2	-0.2590924
23	0xbddd5ff7	-0.108093195
24	0xbecd5803	-0.4010621
25	0xbd6518d7	-0.055931892
26	0xbecac00d	-0.39599648
27	0xbe8bbb7f	-0.27291486
28	0xbeaf3d1a	-0.34226304
29	0xbd28d70c	-0.04122071
30	0xbe12ea2a	-0.14347139
31	0xbea8e1e6	-0.32984847
32	0xbe441f8d	-0.1915266
33	0xbdb11ffd	-0.086486794
34	0xbea44aed	-0.32088414
35	0xbc57e9f6	-0.013178339
36	0x3d3dc23f	0.046327826
37	0xbe82a774	-0.25518382
38	0x3d644b20	0.055735707
39	0xbecfb8a9	-0.40570572
40	0xbe2932ad	-0.16523238
41	0xbd872932	-0.06599654
42	0x3d908c75	0.0705804
43	0xba0b6e31	-0.0005318849
44	0xbe543f64	-0.20727307
45	0x3d167c79	0.0367398
46	0xbe217cd2	-0.15770271
47	0xbdad99cd	-0.08476601
48	0xbe1c92af	-0.1529033
49	0xbea5cfb2	-0.3238502
50	0xbdefb36a	-0.117041424
51	0x3e109915	0.14120896
52	0xbe8a4f09	-0.27013424
53	0xbe8be348	-0.2732184
54	0xbdcc16a3	-0.09965255
55	0xbd82a2e8	-0.06378728
56	0xbeb589d0	-0.35456705
57	0xbd1695af	-0.036763843
58	0xbe611a54	-0.219827
59	0xbe3284be	-0.1743345
60	0xbe5dbd73	-0.216543
61	0xbe9257dc	-0.28582656
62	0xbe4963fa	-0.19667044
63	0xbe36a6a1	-0.17837001
64	0xbca26464	-0.01982326
65	0xbd92c34f	-0.071661584
66	0xbbccdf30	-0.006252192
67	0x3c915771	0.01774189
68	0x3d006bbf	0.031352755
69	0xbbdb395f	-0.006690189
70	0xbcd9e417	-0.02659802
71	0x3da101fd	0.07861707
72	0xbcc5293f	-0.02406752
73	0x3dfdf580	0.12400341
74	0x3d50370c	0.050833747
75	0x3e36096a	0.17777029
76	0x3e279370	0.16364837
77	0xbd669cb6	-0.056301795
78	0x3ddea756	0.108717605
79	0xbdc810be	-0.09768818
80	0xbe0cabea	-0.13737455
81	0xbde58f1a	-0.11208935
82	0x3cbe571e	0.0232349
83	0xbca2ab0d	-0.019856954
84	0x3db2975c	0.08720276
85	0x3ce81728	0.028331354
86	0xbe04ebb8	-0.12980545
87	0xbdc46171	-0.09588898
88	0x3cc215c2	0.023692016
89	0x3da35f00	0.07977104
90	0x3d5009c7	0.050790574
91	0x3dbd180f	0.092331044
92	0xbc959ac9	-0.018262284
93	0x3db149d4	0.0865666
94	0xbd81639a	-0.063178256
95	0xbdb2c0fe	-0.087282166
96	0xbe9cf55c	-0.30655944
97	0x3d7becdf	0.061505195
98	0xbe3f6525	-0.18690927
99	0xbdfe4a3e	-0.12416504
100	0xbd306446	-0.04306438
101	0xbe31b772	-0.17355135
102	0x3df91bf1	0.121635325
103	0xbf24e35f	-0.6440944
104	0xbecdc9c3	-0.40192994
105	0xbddbca4e	-0.10731946
106	0xbe4ea9da	-0.2018198
107	0xbd2621a0	-0.04055941
108	0xbe38eb16	-0.18058428
109	0xbe2590a6	-0.1616846
110	0xbebb4208	-0.36573815
111	0xbe76cd67	-0.24101792
112	0xbe4b6d75	-0.19865973
113	0xbebd4c01	-0.3697205
114	0xbd098ac5	-0.033579607
115	0xbe24560a	-0.16048446
116	0xbec70e9a	-0.38878328
117	0xbddff25d	-0.10934899
118	0xbe069f55	-0.13146718
119	0xbd5a8a4d	-0.05335455
120	0xbe4f870f	-0.20266365
121	0xbdc67225	-0.0968974
122	0xbe8d58d5	-0.27606836
123	0x3b1a3a0c	0.0023533134
124	0xbe8612b4	-0.26186144
125	0xbe96b4c4	-0.29434788
126	0xbe122e42	-0.14275458
127	0xbe533049	-0.20623888
