experiments/pedestrians/models/06_Aug_2023_21_23_08/model_registrar-51.pt (torch, 713991 bytes, 82 tensors)

weight f4 [64, 10]
-0.02223646 -0.013809499 0.14157538 0.037169877 -0.69779 0.87279624 0.009364191 -0.25146112
-0.1675723 0.11428073 0.068721525 0.28110108 0.3791087 0.033066265 -0.23594795 -0.14776607
-0.28869075 -0.37189835 -0.1133194 0.08951774 0.016126428 0.06106366 -0.08538484 0.52198106
-0.06942708 -0.029116375 -0.27391225 -0.03658995 -0.00492918 -0.16326869 0.00084202335 0.02741744
-0.034385607 -0.06005887 -0.6136669 0.7408465 -0.26199347 -0.20049773 -0.023593562 -0.24249603
0.026245885 -0.04090227 0.07619043 0.117745854 0.60041046 0.43191686 0.2828255 0.16349414
-0.24748906 0.17480254 0.0021066398 0.061589807 0.37660176 -0.18581049 0.009763757 0.41609058
0.17720866 -0.0066566886 -0.054112326 0.080014914 -0.041629422 0.19087464 0.4521765 0.026819075
0.5141011 -0.48776823 -0.2578871 0.2720129 0.31386048 0.2319727 -0.029832967 -0.14951766
0.073117346 -0.35085368 -0.70231825 -0.3522111 0.3830856 0.0070242104 0.030609425 0.019984674
0.14925179 0.07777473 -0.39112476 0.007811567 -0.6879815 -0.16909368 -0.15343678 -0.17736655
0.22516343 0.096782506 -0.024663202 0.14103574 0.4939508 0.3158163 0.0391442 0.39195246
0.13921966 -0.24328782 0.2885942 0.26038402 -0.20722803 0.09882391 0.28079668 0.23495078
-0.24443614 -0.013330617 -0.121622644 0.13242425 0.23186067 -0.25509077 0.011577739 -0.064303026
0.56770325 0.014024993 -0.8023133 -0.86350304 0.12649545 0.43568605 -0.09226068 -0.03215116
-0.14384526 0.1506541 0.35163623 0.1287341 0.16880153 0.25929895 0.22576866 -0.057222005
0.06348937 -0.15828305 -0.0039938097 0.13731736 0.009832233 -0.63043416 -0.03854746 0.023331357
-0.037032384 -0.30270845 -0.1719393 -0.33191854 0.06588921 -0.13236192 -0.3413127 0.3644874
-0.19652662 -0.005370657 0.31408983 0.08892764 0.054766607 0.42212707 0.018533625 0.028074738
0.039391663 -0.33436698 0.40406612 -0.7690366 -0.23895995 0.15694173 -0.22207104 0.0947355
-0.19478202 0.23641154 -0.01175587 0.061138507 -0.8205557 -0.12563592 0.056659248 0.22894081
-0.019134972 0.38875753 0.28651068 0.37961364 0.1635458 0.33967364 -0.15851231 0.7482166
0.021285545 0.026901089 -0.045038536 0.124352284 0.032554056 0.13505779 0.6589244 -0.22149694
-0.113487765 0.15865298 0.26145545 0.011778308 0.18244536 0.28802857 0.27462658 0.16861975
-0.4554513 -0.082517266 -0.55794084 -0.16722773 0.10625996 0.15878113 -0.20877676 0.25392362
-0.010718354 0.039705414 -0.24841155 0.23483095 0.35702634 -0.62429225 -0.01838466 -0.15605961
0.21302538 -0.11279905 -0.23589855 -0.030037533 0.009905196 0.022825435 0.5834864 0.9379221
0.38018712 0.18746643 0.22254519 -0.0015431576 -0.0075222184 0.265491 -0.24719049 0.066784486
0.45075914 0.423027 0.22724096 0.2514117 0.092930906 -0.1616088 -0.012282123 -0.20520973
-0.14680561 0.50019914 -0.073304586 -0.48079357 -0.14151454 0.054321423 -0.14409596 0.11498957
0.097358584 -0.25855753 0.10928484 -0.22644785 0.367301 0.42353436 -0.033240013 -0.38667592
-0.12544243 -0.3628169 -0.1261749 -0.10630198 0.20962101 0.46473712 -0.20730506 -0.47313455
00000000: 3d29 b6bc 3d41 62bc 23f9 103e 713f 183d
00000010: 5ea2 32bf 936f 5f3f 446c 193c 83bf 80be
00000020: 1398 2bbe 040c ea3d dfbd 8c3d 7bec 8f3e
00000030: 891a c23e 7e70 073d 579c 71be fd4f 17be
00000040: 46cf 93be 7669 bebe 0014 e8bd 1455 b73d
00000050: 921b 843c e31d 7a3d 3fde aebd 8da0 053f
00000060: c92f 8ebd 7785 eebc 3a3e 8cbe 58df 15bd
00000070: f584 a1bb e82f 27be 3bbb 5c3a 8a9a e03c
00000080: ecd7 0cbd 4a00 76bd 4619 1dbf 1ea8 3d3f
00000090: 0224 86be 474f 4dbe 4947 c1bc e150 78be
000000a0: 9c01 d73c 2389 27bd ba09 9c3d bd24 f13d
000000b0: 80b4 193f 3524 dd3e 81ce 903e 026b 273e
000000c0: c66d 7dbe 70ff 323e 8d0f 0a3b 9845 7c3d
000000d0: f2d1 c03e 1b45 3ebe 2af8 1f3c d309 d53e
000000e0: 3076 353e 5a20 dabb e3a4 5dbd dcde a33d
000000f0: 9d83 2abd a474 433e ae83 e73e adb3 db3c
00000100: 219c 033f c2bc f9be c709 84be 4645 8b3e
00000110: 52b2 a03e 408a 6d3e 4464 f4bc 281b 19be
00000120: 8cbe 953d 18a3 b3be 21cb 33bf 0355 b4be
00000130: cc23 c43e 592b e63b 9ec0 fa3c e6b6 a33c
00000140: 76d5 183e 5c48 9f3d 8141 c8be 2cf8 ff3b
00000150: 8e1f 30bf e526 2dbe 881e 1dbe 949f 35be
00000160: 3e91 663e e835 c63d 7c0a cabc ac6b 103e
00000170: 1fe7 fc3e adb2 a13e ab55 203d fead c83e
00000180: 998f 0e3e 7120 79be 9ec2 933e 0e51 853e
00000190: 9633 54be 3164 ca3d 95c4 8f3e f096 703e
000001a0: 784d 7abe a968 5abc 4b15 f9bd 399a 073e
000001b0: e26c 6d3e 429b 82be 8fb0 3d3c 4eb1 83bd
000001c0: 0055 113f 16c9 653c 6864 4dbf 890e 5dbf
000001d0: 0688 013e 3e12 df3e 2bf3 bcbd efb0 03bd
000001e0: 2c4c 13be 1245 1a3e aa09 b43e dfd2 033e
000001f0: 4fda 2c3e d5c2 843e e62f 673e 9f61 6abd
00000200: b706 823d f414 22be 81de 82bb ec9c 0c3e
00000210: 6017 213c 2264 21bf f1e3 1dbd 6721 bf3c
00000220: 45af 17bd 9afc 9abe db10 30be 3af1 a9be
00000230: ecf0 863d e289 07be 8ac0 aebe 189e ba3e
00000240: 463e 49be 56fc afbb 62d0 a03e b21f b63d
00000250: f352 603d 0a21 d83e d4d3 973c fefc e53c
00000260: 2759 213d 2632 abbe c1e1 ce3e 95df 44bf
00000270: ebb1 74be 55b5 203e 9766 63be b004 c23d
00000280: f074 47be de15 723e b19b 40bc 5f6c 7a3d
00000290: f00f 52bf b4a6 00be 8713 683d 766f 6a3e
000002a0: f2c0 9cbc 3a0b c73e 87b1 923e b85c c23e
000002b0: 8d78 273e b4e9 ad3e 0d51 22be 208b 3f3f
000002c0: 065f ae3c ac5f dc3c 547a 38bd 69ac fe3d
000002d0: 6757 053d 974c 0a3e 45af 283f 18d0 62be
000002e0: 466c e8bd ed75 223e 7ddd 853e cef9 403c
000002f0: f5d2 3a3e 7b78 933e db9b 8c3e a8aa 2c3e
00000300: ea30 e9be d0fe a8bd 36d5 0ebf bf3d 2bbe
00000310: d29e d93d 8597 223e 93c9 55be 4702 823e
00000320: 099c 2fbc 25a2 223d 995f 7ebe 8677 703e
00000330: 28cc b63e 9ed1 1fbf 6d9b 96bc 17ce 1fbe
00000340: 5323 5a3e 3003 e7bd 648f 71be 4611 f6bc
00000350: 6749 223c 68fc ba3c 5d5f 153f aa1b 703f
00000360: e3a7 c23e 33f7 3f3e e3e2 633e c743 caba
00000370: f17c f6bb 70ee 873e 811f 7dbe 4ec6 883d
00000380: e7c9 e63e ff96 d83e dbb1 683e 09b9 803e
00000390: 8f52 be3d c77c 25be f53a 49bc 8022 52be
000003a0: 3654 16be 0d0d 003f b720 96bd 932a f6be
000003b0: 30e9 10be 2480 5e3d e48d 13be a77f eb3d
000003c0: f063 c73d a761 84be bbd0 df3d f2e1 67be
000003d0: e00e bc3e 7fd9 d83e ae26 08bd 63fa c5be
000003e0: fb73 00be 23c3 b9be fe33 01be dab4 d9bd
000003f0: e4a6 563e 06f2 ed3e c747 54be b13e f2be

bias f4 [64]
-0.20613088 -0.10439681 -0.25164023 0.29913533 0.13530551 0.28852892 -0.2729964 -0.008928667
0.07632781 0.23157635 -0.027289672 0.47177148 -0.10055844 0.04670858 -0.03848566 -0.05540696
-0.100962184 -0.22546498 0.24597321 0.14988133 -0.08819842 0.17207153 0.16732727 -0.14378048
-0.18947823 0.10204642 0.011476853 -0.16283977 -0.30622777 0.0314827 0.15829383 -0.26789388
-0.14890595 0.111236386 -0.2952762 0.25639984 0.20954691 -0.11161122 -0.13307953 0.10017812
-0.17655742 0.2860468 0.0002912748 -0.096523024 -0.20755997 0.107901104 -0.14771712 -0.27204517
0.14538385 -0.13704616 0.010676205 0.23129444 -0.33957905 -0.34683633 -0.4348432 0.1124421
0.026267873 0.25514343 0.20402169 0.36586145 -0.3263146 0.13661985 0.36008358 -0.13009438
00000000: f913 53be ffcd d5bd fdd6 80be 4428 993e
00000010: 878d 0a3e 10ba 933e 2fc6 8bbe 8b49 12bc
00000020: c151 9c3d 5a22 6d3e 978e dfbc 088c f13e
00000030: 95f1 cdbd 7f51 3f3d 24a3 1dbd 69f2 62bd
00000040: 43c5 cebd 4be0 66be 67e0 7b3e 7e7a 193e
00000050: 60a1 b4bd 8533 303e d757 2b3e 313b 13be
00000060: 9506 42be b7fd d03d 6909 3c3c 78bf 26be
00000070: e3c9 9cbe 01f4 003d c717 223e 6329 89be
00000080: cd7a 18be e7cf e33d 712e 97be d746 833e
00000090: 7793 563e 6c94 e4bd 0046 08be 302a cd3d
000000a0: 78cb 34be ba74 923e 3eb6 9839 ddad c5bd
000000b0: 9a8a 54be 41fb dc3d 2843 17be 8149 8bbe
000000c0: 81df 143e d455 0cbe 40eb 2e3c 73d8 6c3e
000000d0: 4edd adbe 8894 b1be c5a3 debe 0b48 e63d
000000e0: b92f d73c 29a2 823e 10eb 503e 3152 bb3e
000000f0: b512 a7be 13e6 0b3e e05c b83e 7637 05be

weight f4 [32, 32]
-0.11286553 -0.19640148 0.20783909 0.009306216 -0.1443826 0.010466269 -0.06493413 0.076596566
-0.1563351 -0.54455966 0.0979997 0.05383909 -0.02512964 0.18938592 -0.20139202 0.27464288
0.014341469 0.28828624 0.18965091 0.34423432 -0.30722722 0.19464408 0.0074468814 -0.48685887
-0.052657593 0.11569105 0.15829454 0.1255409 0.15869942 0.10182069 -0.067701936 0.31671143
0.14321378 -0.03661877 -0.5531543 0.0541111 -0.19222564 0.064469755 0.15790431 -0.06822795
-0.3438202 -0.33850378 -0.29568556 -0.29727116 0.31327945 -0.035225898 -0.047415327 -0.106047876
0.016184065 0.19393213 0.22508061 0.4486089 0.18612856 -0.1086538 0.010228951 0.057364162
0.08553835 -0.018134478 0.14125128 0.16872305 -0.20799233 -0.3106439 0.2037511 -0.10606823
0.29558584 -0.2044436 0.14867389 -0.6203252 -0.24703056 0.03210457 -0.21352085 -0.2088882
-0.18678874 0.2261088 0.1761111 -0.11425388 -0.399617 0.36373675 -0.38335806 0.016008435
0.049957804 0.40365973 0.3860761 -0.50491726 -0.09901349 0.06889143 -0.15241913 -0.33443454
-0.095465146 -0.09528087 0.032823242 -0.0934486 0.21871416 -0.25366998 -0.2677517 -0.050099306
0.2943408 -0.20546894 0.14511628 0.16152923 -0.1064564 0.18657964 0.34856614 -0.21986312
-0.19550665 0.25793713 0.09699303 -0.14155243 0.36227244 -0.1577044 -0.057307612 -0.026484631
-0.25057995 0.03711981 -0.15831722 0.27942583 -0.03206229 0.034582533 0.1713761 0.05850159
-0.064228766 0.017229645 0.064708255 0.33628505 -0.11217486 -0.0130228605 0.23473866 0.07211503
-0.34662613 -0.03703811 0.1944974 -0.08387389 0.18928479 -0.09946339 0.0932268 0.2814148
0.08215921 -0.27947268 0.121850304 0.19564357 -0.14337978 0.08713667 0.029602198 0.060069975
-0.0659271 -0.020738604 0.08699031 0.29741356 0.18431045 -0.3411627 0.15079124 0.16607185
0.18241982 0.36084282 0.027206127 -0.20804101 0.084302425 0.3681218 0.040364806 -0.15539762
0.45312294 -0.050705016 -0.008073514 -0.47364536 -0.03006335 0.2293053 -0.028300794 -0.13418084
-0.01740652 0.12279435 0.13976163 0.08605569 -0.12164002 0.15837029 -0.23676868 -0.11145682
-0.091789745 -0.1411878 0.12012468 -0.37202618 -0.12749706 0.10826796 -0.23003826 -0.00060331327
-0.17508368 0.26995406 0.028159 0.05282022 -0.094829865 -0.29728037 -0.06056252 0.03495187
-0.17883182 0.013518196 0.10054432 0.03788633 0.0150192855 -0.11599089 0.52048165 0.29105973
0.10724349 0.17614958 0.058852028 0.35912344 -0.20121348 -0.17706421 0.22533983 -0.14586252
-0.06582593 -0.2713583 -0.25335786 0.08976579 0.052234873 -0.34196123 0.36748523 0.46034
0.20004448 0.19630402 0.06377886 -0.12646389 -0.09990011 0.005068425 0.09238396 -0.08672057
0.1733704 -0.03464783 0.11799488 -0.28201646 0.07673239 0.25629497 0.299454 0.1854352
-0.12215393 0.011857948 -0.09582905 0.2039635 0.28397477 0.12656052 -0.03893444 0.2692753
0.07423338 0.17796205 0.027388139 0.49674678 0.13878302 0.05585829 0.0988899 -0.04541541
0.14733875 0.11250873 0.07886382 0.21495043 0.031589516 -0.08142414 0.16713378 -0.086794116
00000000: 0b26 e7bd 781d 49be c5d3 543e 1979 183c
00000010: 08d9 13be b77a 2b3c 2ffc 84bd a9de 9c3d
00000020: 4f16 20be 4368 0bbf 11b4 c83d 6186 5c3d
00000030: addc cdbc 62ee 413e b639 4ebe fe9d 8c3e
00000040: 7bf8 6a3c 419a 933e d933 423e 7b3f b03e
00000050: e34c 9dbe c750 473e f804 f43b 9145 f9be
00000060: 7daf 57bd 6eef ec3d f717 223e cb8d 003e
00000070: 1a82 223e 5e87 d03d 50a7 8abd 0028 a23e
00000080: a2a6 123e 90fd 15bd 859b 0dbf 9aa3 5d3d
00000090: ccd6 44be b808 843d abb1 213e 18bb 8bbd
000000a0: 3409 b0be 5e50 adbe 1964 97be ed33 98be
000000b0: 2a66 a03e 0849 10bd 9336 42bd a12f d9bd
000000c0: 7294 843c 2596 463e 887b 663e 11b0 e53e
000000d0: 7c98 3e3e e285 debd 5597 273c aff6 6a3d
000000e0: bb2e af3d c28e 94bc 2da4 103e bcc5 2c3e
000000f0: f1fb 54be b80c 9fbe 21a4 503e 4d3a d9bd
00000100: 0757 973e aa59 51be f83d 183e a2cd 1ebf
00000110: 94f5 7cbe 1580 033d 36a5 5abe cae6 55be
00000120: 8c45 3fbe 1189 673e 7856 343e f0fd e9bd
00000130: 999a ccbe b43b ba3e 8247 c4be 1f24 833c
00000140: 8ea0 4c3d 7dac ce3e c4ab c53e 4242 01bf
00000150: 96c7 cabd f316 8d3d c313 1cbe 013b abbe
00000160: 3b83 c3bd 9e22 c3bd aa71 063d fb61 bfbd
00000170: 9bf6 5f3e 08e1 81be c016 89be ee34 4dbd
00000180: d6b3 963e 7366 52be 5d99 143e eb67 253e
00000190: d005 dabd bc0e 3f3e 4377 b23e cc23 61be
000001a0: e532 48be 5610 843e 48a4 c63d 1ff3 10be
000001b0: c67b b93e 437d 21be 63bb 6abd 4cf6 d8bc
000001c0: 044c 80be f10a 183d e91d 22be e710 8f3e
000001d0: bf53 03bd 6aa6 0d3d 377d 2f3e 5d9f 6f3d
000001e0: 5f8a 83bd 2f25 8d3c c385 843d 8e2d ac3e
000001f0: efbb e5bd d65d 55bc 555f 703e 0bb1 933d
00000200: fb78 b1be 46b5 17bd 542a 473e 13c6 abbd
00000210: dfd3 413e 76b3 cbbd b1ed be3d 9a15 903e
00000220: 1743 a83d 0b17 8fbe a78c f93d ca56 483e
00000230: 26d2 12be b674 b23d 4f80 f23c ef0b 763d
00000240: ca04 87bd 01e4 a9bc fa27 b23d 9746 983e
00000250: e1bb 3c3e e1ac aebe 0569 1a3e bd0e 2a3e
00000260: 43cc 3a3e 64c0 b83e 62df de3c b408 55be
00000270: c0a6 ac3d 767a bc3e 9155 253d 8e20 1fbe
00000280: bbff e73e 10b0 4fbd c646 04bc a581 f2be
00000290: 6a47 f6bc 02cf 6a3e 11d7 e7bc b466 09be
000002a0: 1e98 8ebc 9b7b fb3d ac1d 0f3e f73d b03d
000002b0: 671e f9bd d22b 223e 7d73 72be 7943 e4bd
000002c0: 43fc bbbd 8993 10be ee03 f63d 377a bebe
000002d0: 978e 02be 98bb dd3d 268f 6bbe ab27 1eba
000002e0: 2349 33be 6b37 8a3e b4ad e63c 045a 583d
000002f0: 2936 c2bd 2235 98be 6810 78bd b129 0f3d
00000300: b01f 37be 6c7b 5d3c 2eea cd3d b22e 1b3d
00000310: 7313 763c a28c edbd 493e 053f c805 953e
00000320: 7aa2 db3d 8e60 343e d30e 713d 07df b73e
00000330: e80a 4ebe 5250 35be 7cbf 663e fc5c 15be
00000340: bfcf 86bd 7aef 8abe 1fb8 81be 20d7 b73d
00000350: 3cf4 553d 8b15 afbe 0627 bc3e afb1 eb3e
00000360: 76d8 4c3e ec03 493e 7e9e 823d c07f 01be
00000370: 6e98 ccbd 0815 a63b cd33 bd3d 8e9a b1bd
00000380: 0388 313e e2ea 0dbd 4da7 f13d 7664 90be
00000390: df25 9d3d 1839 833e 0952 993e bae2 3d3e
000003a0: d72b fabd d747 423c 0542 c4bd cfdb 503e
000003b0: 2465 913e 1599 013e b879 1fbd 74de 893e
000003c0: ac07 983d af3b 363e 175d e03c 9855 fe3e
000003d0: 231d 0e3e aacb 643d ca86 ca3d 8205 3abd
000003e0: f8df 163e fa6a e63d 5b83 a13d f71b 5c3e
000003f0: 0264 013d b3c1 a6bd 1e25 2b3e 1dc1 b1bd

bias f4 [32]
-0.15260479 -0.07536663 0.22070977 -0.06528999 -0.21551694 0.1275561 0.058648787 0.15975067
0.10389004 -0.026480252 0.1172664 0.15720345 -0.08914067 0.001284037 -0.035646778 0.15916845
-0.18142967 0.10161846 0.06395348 -0.03572771 0.16454194 -0.13820018 -0.094106585 0.077203445
-0.0962675 0.05905712 -0.17792784 -0.25129107 -0.1903461 -0.19010307 -0.035917167 -0.0207396
00000000: 6e44 1cbe d259 9abd be01 623e c2b6 85bd
00000010: 79b0 5cbe 119e 023e b639 703d ae95 233e
00000020: 4dc4 d43d 1ded d8bc 5e29 f03d f1f9 203e
00000030: 628f b6bd 224d a83a 5b02 12bd 0efd 223e
00000040: b3c8 39be 571d d03d 0bfa 823d 3857 12bd
00000050: af7d 283e 5984 0dbe f4ba c0bd d71c 9e3d
00000060: e527 c5bd e1e5 713d b732 36be 39a9 80be
00000070: 17ea 42be 61aa 42be e11d 13bd 18e6 a9bc

weight f4 [32, 64]
-0.050972015 0.0041405708 -0.06208232 0.047139198 -0.106506884 0.09163049 -0.09085503 -0.09938024
-0.078985885 0.056611687 -0.04618652 0.046776667 -0.10609117 -0.07584046 -0.045897007 -0.024564967
-0.095357925 0.081848845 -0.029478893 0.040123463 0.08839294 0.02328825 0.03418134 0.12065734
-0.056376174 0.039593905 -0.055614516 0.08933121 0.09983206 -0.115246534 0.106705725 0.0596893
0.05447088 0.051459357 0.10391238 -0.016504943 -0.10571231 -0.035868615 -0.08803433 0.008263335
-0.023338437 -0.06704812 -0.011365175 0.11842547 -0.009859428 0.0039687604 -0.01949507 0.019650877
0.11137658 0.07643661 0.04437019 0.027163818 0.02947411 0.048291653 -0.016152933 -0.1161761
-0.07730149 0.106698215 0.0074716806 -0.10125919 0.019715935 0.10328396 -0.11812496 -0.08415492
-0.0497832 0.005017191 -0.029153675 -0.013736397 -0.121861264 0.05853489 0.109717906 0.076404795
-0.08851655 -0.10076292 0.05190654 0.0028073192 0.051241368 -0.122143924 -0.0074528754 0.08815546
0.057988927 0.0045646727 0.02457738 -0.011835009 -0.06872919 -0.04723741 -0.07612246 0.10382615
0.06878583 0.043715328 -0.09585656 0.09645273 0.03919284 0.08647433 -0.049173757 0.026499614
0.1220478 0.084082395 0.10024959 -0.026248097 0.09523465 -0.09790403 0.01081112 -0.070381865
-0.029151902 -0.03201218 0.009352386 0.11376746 0.06188549 -0.00052952766 0.08873069 -0.06405695
0.06442143 -0.0115915835 -0.02175136 0.014634177 -0.09576209 0.014444664 0.042029753 0.106866464
-0.038917884 0.045003444 0.12493901 -0.05362113 0.11882405 -0.062061504 0.055099368 0.048968762
0.034916013 0.098850384 -0.050520554 0.03285238 0.00070151687 -0.0940177 -0.030351743 -0.083477885
0.05526942 0.011236995 0.012245581 -0.03792134 0.00060106814 -0.038880393 0.035917014 0.121396214
0.018933818 -0.055364788 -0.076353505 0.009554878 -0.092730775 -0.09395628 -0.081359625 -0.0424556
0.009252191 0.08607645 0.04841742 0.095764846 -0.07848717 0.010548517 -0.11111009 0.071707144
0.026051238 0.12090184 -0.08890152 0.10024123 0.10552831 0.1010647 0.017836854 0.11365992
0.083479375 0.093259916 -0.008120105 -0.095924765 -0.0015555024 0.023442283 -0.08514613 -0.071704894
-0.119843304 -0.04381843 0.10888356 0.021374509 -0.0076350123 0.005019754 0.077943206 -0.110382944
-0.096448705 -0.041558802 -0.07193977 0.06447314 0.08832294 -0.12127823 -0.10608496 -0.12172723
0.04715681 0.100606814 -0.09691751 -0.057869554 0.039777577 -0.08162317 0.106184945 0.029145151
-0.03479795 0.008118823 0.038971066 -0.044201642 -0.09685698 0.000840202 0.0022768676 0.0025206506
-0.018241286 0.08025919 -0.034882396 -0.012099087 0.051398456 -0.078679666 0.033469826 -0.027639464
0.059959188 -0.06780805 0.004619792 0.012228668 -0.10057457 -0.09089278 0.047939166 -0.036382064
0.07423708 -0.12348282 -0.061791077 -0.10295774 0.049933925 -0.0036239177 -0.023315176 -0.020796418
-0.09770611 0.03544937 0.0031157285 -0.08626412 0.047035962 -0.0025123805 -0.12089345 0.06724003
0.066860884 -0.02355127 -0.08630477 0.005018756 0.09432247 0.11441748 -0.09435013 -0.056458622
0.09732805 0.06109728 0.07737662 -0.06221679 0.10769181 -0.10275824 -0.006021112 0.002595365
00000000: 08c8 50bd a0ad 873b 084a 7ebd 0815 413d
00000010: 4820 dabd c4a8 bb3d 3412 babd de87 cbbd
00000020: 5ac3 a1bd a8e1 673d 142e 3dbd e498 3f3d
00000030: 5446 d9bd 3e52 9bbd 80fe 3bbd 783c c9bc
00000040: 044b c3bd 5ea0 a73d b87d f1bc 8058 243d
00000050: 5c07 b53d 00c7 be3c bc01 0c3d 321b f73d
00000060: b4ea 66bd 382d 223d 0ccc 63bd 48f3 b63d
00000070: c074 cc3d 6006 ecbd 8888 da3d c47c 743d
00000080: dc1c 5f3d 0cc7 523d 04d0 d43d 6035 87bc
00000090: b27f d8bd f8ea 12bd 584b b4bd f062 073c
000000a0: 4030 bfbc 8650 89bd 0035 3abc 0e89 f23d
000000b0: 7089 21bc 600c 823b 20b4 9fbc e0fa a03c
000000c0: 6819 e43d cc8a 9c3d 84bd 353d a886 de3c
000000d0: b073 f13c 78cd 453d 2853 84bc bced edbd
000000e0: 3e50 9ebd 9884 da3d 00d5 f43b fa60 cfbd
000000f0: 5083 a13c 8a86 d33d 80eb f1bd 6a59 acbd
00000100: 78e9 4bbd 4067 a43b b0d3 eebc a00e 61bc
00000110: 6692 f9bd 48c2 6f3d c8b3 e03d 1e7a 9c3d
00000120: 2a48 b5bd ca5c cebd f49b 543d 00fb 373b
00000130: 78e2 513d 9826 fabd 4037 f4bb da8a b43d
00000140: cc85 6d3d 4093 953b 8056 c93c a0e7 41bc
00000150: e4c1 8cbd 047c 41bd 18e6 9bbd cea2 d43d
00000160: 96df 8c3d d80e 333d 7250 c4bd 0289 c53d
00000170: ac88 203d 7419 b13d 6c6a 49bd b815 d93c
00000180: 32f4 f93d 6433 ac3d a84f cd3d 4006 d7bc
00000190: 620a c33d e881 c8bd 2021 313c 5e24 90bd
000001a0: f8cf eebc 341f 03bd c03a 193c eafe e83d
000001b0: a47b 7d3d 00d0 0aba 70b8 b53d 4a30 83bd
000001c0: 62ef 833d a0ea 3dbc e82f b2bc 30c4 6f3c
000001d0: ea1e c4bd 50a9 6c3c 6427 2c3d cedc da3d
000001e0: 5c68 1fbd 8855 383d 06e0 ff3d d4a1 5bbd
000001f0: 065a f33d 3434 7ebd e0af 613d 7893 483d
00000200: 1804 0f3d 1272 ca3d a4ee 4ebd 3890 063d
00000210: 00e6 373a 5a8c c0bd 38a4 f8bc 74f6 aabd
00000220: 3062 623d 601b 383c b0a1 483c 6853 1bbd
00000230: 0091 1d3a 0c41 1fbd b81d 133d 949e f83d
00000240: 181b 9b3c 30c6 62bd 3a5f 9cbd 108c 1c3c
00000250: a2e9 bdbd 266c c0bd e09f a6bd ece5 2dbd
00000260: 8096 173c da48 b03d 5851 463d 5c20 c43d
00000270: e2bd a0bd b0d3 2c3c b08d e3bd 32db 923d
00000280: 6869 d53c 629b f73d 0012 b6bd 464b cd3d
00000290: 3a1f d83d 02fb ce3d 981e 923c 88c6 e83d
000002a0: 3cf7 aa3d 0eff be3d 300a 05bc 3474 c4bd
000002b0: 00e2 cbba 080a c03c 1861 aebd 04da 92bd
000002c0: 6870 f5bd f47a 33bd 58fe de3d 9819 af3c
000002d0: 202f fabb c07c a43b b0a0 9f3d 7410 e2bd
000002e0: e686 c5bd 9039 2abd 2855 93bd 7e0a 843d
000002f0: a8e2 b43d b860 f8bd 1243 d9bd 204c f9bd
00000300: 8027 413d f20a ce3d b07c c6bd a008 6dbd
00000310: d0ed 223d 0c2a a7bd 7e77 d93d d0c1 ee3c
00000320: 4c88 0ebd d004 053c 20a0 1f3d c80c 35bd
00000330: f45c c6bd 0041 5c3a 8037 153b 8031 253b
00000340: c06e 95bc ee5e a43d d8e0 0ebd 403b 46bc
00000350: 3087 523d ce22 a1bd a817 093d 286c e2bc
00000360: c497 753d f2de 8abd a061 973b c05a 483c
00000370: 0afa cdbd fe25 babd dc5b 443d 5c05 15bd
00000380: 9c09 983d 90e4 fcbd a418 7dbd 82db d2bd
00000390: 8487 4c3d 407f 6dbb 78ff bebc 405d aabc
000003a0: 241a c8bd 5c33 113d 4031 4c3b 3eab b0bd
000003b0: c8a8 403d c0a6 24bb fc96 f7bd 24b5 893d
000003c0: 5cee 883d 98ee c0bc 8ec0 b0bd 6074 a43b
000003d0: 242c c13d b653 ea3d a43a c1bd 2841 67bd
000003e0: ee53 c73d 2441 7a3d a277 9e3d 08d7 7ebd
000003f0: 868d dc3d ea72 d2bd c04c c5bb 0017 2a3b

bias f4 [32]
0.006000623 -0.11990543 0.015900686 0.043976173 0.11186783 -0.040516123 0.04508625 -0.041886568
-0.043956473 -0.11076146 0.02638419 0.083875194 -0.06953706 0.05110444 -0.019498333 -0.08874825
0.013328612 -0.1218126 0.06700824 -0.027619168 0.11512223 0.0046144873 -0.12118633 0.09700169
-0.027341396 -0.085622594 0.11541125 0.011674732 0.040526584 -0.108135834 -0.04414603 0.10029392
00000000: e0a0 c43b fa90 f5bd 2842 823c 5c20 343d
00000010: f61a e53d 3cf4 25bd 5cac 383d 4091 2bbd
00000020: b40b 34bd e8d6 e2bd a823 d83c c2c6 ab3d
00000030: 7269 8ebd e452 513d f8ba 9fbc a4c1 b5bd
00000040: 4060 5a3c e278 f9bd 9e3b 893d 9841 e2bc
00000050: 34c5 eb3d 2035 973b 8a30 f8bd d2a8 c63d
00000060: 10fb dfbc e65a afbd bc5c ec3d 6047 3f3c
00000070: 34ff 253d 5276 ddbd 78d2 34bd e666 cd3d

weight_ih_l0 f4 [128, 32]
-0.064591385 0.07089579 -0.1556292 -0.05813258 -0.17169568 0.048050184 -0.25277823 -0.4877885
-0.20666035 0.33306083 -0.07558857 -0.07273859 0.132155 -0.16188693 0.13748287 0.21444649
0.038315147 0.28535038 -0.29914227 0.026182892 -0.35787347 -0.045423128 -0.21320422 -0.42450815
-0.13247986 -0.28577527 0.021612551 0.11404094 0.08465161 -0.17194346 0.259496 -0.3865962
0.03943467 -0.10142847 -0.264665 -0.17223412 0.0835785 0.020628745 0.09001719 -0.26850188
-0.077615276 0.27278605 0.13446482 -0.0018460908 0.2991224 0.021143174 -0.0900916 -0.17423284
0.06983391 0.12089203 -0.06812668 0.13565034 -0.36023128 -0.06595 -0.05933921 -0.44499838
0.03887244 -0.025070209 0.21994974 0.0748737 -0.0056805727 -0.018282255 0.14310099 -0.16185819
0.16307648 0.28615975 0.028682617 -0.232258 0.08762362 -0.29988265 -0.043697238 -0.43004632
-0.031881243 0.34769085 0.2541489 -0.26372218 0.04328072 -0.21289706 -0.0060488805 -0.077018894
0.3326786 0.5630158 -0.006635788 0.114400245 -0.05526147 0.09514228 -0.2676273 -0.69511354
-0.0905124 -0.42528436 0.19520752 0.37018684 0.18269642 -0.12736104 -0.017640904 0.024112942
0.13343255 0.079424664 -0.22711994 -0.48592594 -0.1424199 -0.17951854 0.00083306927 -0.6837417
0.095244795 0.27380064 -0.13728672 0.13184421 0.31445065 -0.20365836 0.11975893 0.30859664
0.12701242 0.26161703 -0.15752648 -0.1429706 -0.041410115 -0.24103905 -0.21629205 -0.6076849
-0.17563894 -0.3247279 0.017754562 0.14032778 0.06456395 0.08402208 -0.003236892 -0.03569504
-0.046104215 0.031004459 0.07034181 -0.38265982 -0.19844978 -0.15274446 -0.14534299 -0.45623857
-0.034812022 0.1949935 0.110769816 0.13317057 0.38927212 -0.27885735 -0.028779527 0.12176241
0.13253205 0.63721293 -0.23354957 -0.23451257 -0.07601912 -0.27249116 -0.19918105 -0.59153944
-0.24895294 -0.30466044 0.13809998 0.27238783 0.2690853 -0.11379153 -0.19805846 -0.07715399
-0.1707292 -0.0061021764 -0.26628175 -0.22887972 -0.23875248 0.03707225 -0.2899095 -0.3655962
-0.34504637 0.18828946 -0.084226236 0.061653078 0.2609548 0.020979734 0.114596255 0.18868543
0.30350968 0.19014876 0.054575063 -0.3140669 -0.48069614 -0.09755459 0.07026939 -0.49830097
-0.08726707 -0.290849 0.12949766 0.23187794 0.13245918 -0.018000191 -0.27745745 -0.13833068
0.1714292 0.11317444 -0.41524357 0.024825776 0.15043491 -0.113787085 0.06929136 -0.33152187
-0.08459978 -0.08472299 -0.11908741 -0.12713148 0.020319905 -0.08095242 0.0310419 -0.05702188
0.1847854 0.24103694 -0.19321543 0.01607676 -0.26234278 -0.0382531 0.03341401 -0.54429334
-0.071659006 -0.020556502 0.05068518 0.2663416 0.010730326 -0.022661556 -0.17599131 -0.17295584
-0.009500433 0.44389006 -0.024645519 -0.42799905 -0.18543783 -0.38083312 -0.12877457 -0.6505388
-0.1949137 0.24316694 -0.012831941 -0.25811642 0.10722661 -0.49970484 -0.02406662 -0.09073438
0.1916501 0.30585855 -0.25124434 0.11544109 -0.15706562 0.01765738 0.005084348 -0.68190813
0.23491634 -0.44152468 0.5053359 0.36293182 0.2993043 0.071289234 -0.13638584 0.15958717
00000000: 7d48 84bd d031 913d 435d 1fbe 6e1c 6ebd
00000010: fed0 2fbe 45d0 443d 266c 81be 6abf f9be
00000020: c59e 53be f386 aa3e 2ece 9abd f8f7 94bd
00000030: a453 073e b0c5 25be 4fc8 0c3e dc97 5b3e
00000040: 58f0 1c3d 7219 923e 2d29 99be 817d d63c
00000050: 313b b7be 9a0d 3abd 3552 5abe 2259 d9be
00000060: cda8 07be 2351 92be ce0c b13c 4c8e e93d
00000070: d35d ad3d f211 30be a9dc 843e f0ef c5be
00000080: 4086 213d bbb9 cfbd 2c82 87be 245e 30be
00000090: 342b ab3d 9dfd a83c ef5a b83d 1479 89be
000000a0: c2f4 9ebd 9daa 8b3e 25b1 093e 87f8 f1ba
000000b0: 9226 993e 7334 ad3c f281 b8bd 186a 32be
000000c0: 1505 8f3d 3e96 f73d 0086 8bbd ece7 0a3e
000000d0: 3c70 b8be cb10 87bd ac0d 73bd d4d6 e3be
000000e0: b538 1f3d 0a60 cdbc 813a 613e 6257 993d
000000f0: 1924 babb abc4 95bc 1189 123e 27be 25be
00000100: 85fd 263e 8883 923e cff7 ea3c 0bd5 6dbe
00000110: 0374 b33d 388a 99be e0fb 32bd 082f dcbe
00000120: e895 02bd 8904 b23e ce1f 823e 9806 87be
00000130: 2047 313d b001 5abe b035 c6bb 15bc 9dbd
00000140: d954 aa3e ce21 103f 0671 d9bb ad4a ea3d
00000150: da59 62bd f5d9 c23d 7206 89be f6f2 31bf
00000160: 915e b9bd dfbe d9be 7be4 473e 2189 bd3e
00000170: c514 3b3e ef6a 02be a883 90bc 8188 c53c
00000180: 8ba2 083e 66a9 a23d 2192 68be 49cb f8be
00000190: 86d6 11be b5d3 37be 5562 5a3a b209 2fbf
000001a0: b40f c33d 992f 8c3e e494 0cbe 2b02 073e
000001b0: adff a03e d18b 50be 2b44 f53d 6100 9e3e
000001c0: 8b0f 023e abf2 853e 9f4e 21be e366 12be
000001d0: a79d 29bd f1d2 76be aa7b 5dbe 3d91 1bbf
000001e0: b2da 33be bc42 a6be 0472 913c 16b2 0f3e
000001f0: 1b3a 843d c513 ac3d 0922 54bb f634 12bd
00000200: c6d7 3cbd 10fd fd3c 5e0f 903d fdeb c3be
00000210: 6b36 4bbe 0b69 1cbe cbd4 14be 1a98 e9be
00000220: 0d97 0ebd 60ac 473e 49db e23d de5d 083e
00000230: ad4e c73e 64c6 8ebe 0bc3 ebbc 925e f93d
00000240: 7bb6 073e 6320 233f 9e27 6fbe 1024 70be
00000250: eaaf 9bbd f683 8bbe 1ef6 4bbe 216f 17bf
00000260: 85ed 7ebe 74fc 9bbe 156a 0d3e 6b76 8b3e
00000270: 8cc5 893e 890b e9bd d6cf 4abe e902 9ebd
00000280: a3d3 2ebe c4f4 c7bb 1556 88be 725f 6abe
00000290: 887b 74be 12d9 173d 056f 94be 6d2f bbbe
000002a0: eba9 b0be f4ce 403e ce7e acbd f087 7c3d
000002b0: de9b 853e b1dd ab3c 71b1 ea3d c136 413e
000002c0: 9f65 9b3e 5bb6 423e 1a8a 5f3d 60cd a0be
000002d0: ce1d f6be b3ca c7bd 66e9 8f3d 4e21 ffbe
000002e0: 14b9 b2bd 29ea 94be 099b 043e 6971 6d3e
000002f0: 61a3 073e 2375 93bc e70e 8ebe 8fa6 0dbe
00000300: 238b 2f3e 00c8 e73d ce9a d4be 6d5f cb3c
00000310: 9c0b 1a3e 3409 e9bd a1e8 8d3d 3cbd a9be
00000320: a642 adbd 3f83 adbd 1ae4 f3bd c12e 02be
00000330: ee75 a63c 62ca a5bd 954b fe3c c68f 69bd
00000340: 6238 3d3e 63d2 763e 44da 45be 69b3 833c
00000350: cb51 86be 48af 1cbd 21dd 083d cf56 0bbf
00000360: f5c1 92bd 1c66 a8bc 439b 4f3d ed5d 883e
00000370: 40ce 2f3c baa4 b9bc 1137 34be 561b 31be
00000380: b4a7 1bbc 8f45 e33e 66e5 c9bc b122 dbbe
00000390: 6ae3 3dbe 8ffc c2be 7bdd 03be b689 26bf
000003a0: 7597 47be c100 793e 103d 52bc d627 84be
000003b0: a099 db3d 50d9 ffbe 5c27 c5bc f2d2 b9bd
000003c0: ec3f 443e 7e99 9c3e 19a3 80be 616c ec3d
000003d0: cfd5 20be 36a6 903c 9a9a a63b 8891 2ebf
000003e0: e98d 703e 860f e2be b25d 013f 33d2 b93e
000003f0: 6a3e 993e 1700 923d bba8 0bbe d26a 233e

weight_hh_l0 f4 [128, 32]
0.020795643 0.079501346 -0.093329616 -0.13925397 -0.0889678 -0.014311475 0.20784849 0.040556524
0.14437973 -0.098339334 -0.09185055 -0.050880298 -0.08408253 -0.10706406 0.07176665 0.096793026
0.027174097 -0.012962226 0.22541486 -1.3143366e-05 0.23799397 0.020626167 -0.039853748 -0.08311001
0.1359914 -0.13655254 0.086999625 0.16666633 -0.10519826 -0.074507 0.08940183 -0.12575
0.08264203 0.14498666 -0.124536015 0.18952583 -0.11813654 -0.07181352 0.17593716 -0.16196252
0.12519054 0.07140136 -0.12883261 -0.015178416 0.07505434 -0.08030456 0.036523927 0.0093655
-0.12421773 0.052859154 -0.04121708 -0.10586841 0.14086711 -0.13319887 -0.09502526 -0.28437936
0.035349082 -0.016258817 0.100363955 0.0544075 0.20229377 -0.061813157 0.03289668 -0.08990304
0.026724534 -0.019980714 -0.17417915 0.00034677944 0.22353297 0.08896733 0.1703059 0.042531922
0.14053355 0.11007073 -0.16489388 0.041952964 -0.096136674 0.10487996 -0.13872096 0.19772513
0.15424791 0.12397748 -0.004456328 -0.12068773 -0.11992276 0.015251427 0.074943125 -0.20014511
0.20129035 -0.03579877 0.09342579 -0.027090585 0.04087931 0.044131994 -0.055099197 -0.067552395
0.05778639 0.14598478 0.12184629 -0.09989809 0.023748597 -0.0128103085 -0.05079026 0.13806738
0.033178143 0.2011771 0.10683201 -0.22939718 -0.20087048 -0.08657092 -0.1340993 0.07109228
-0.11709859 -0.13146664 -0.17191729 0.10113112 -0.005859701 0.032384843 -0.07078869 -0.13976796
-0.05698384 0.1639578 -0.029868355 0.059283372 0.10907117 0.22083573 -0.031603497 0.186803
0.008784428 0.119461425 0.20000674 -0.0076992335 -0.13746063 -0.3008399 -0.13199006 -0.107383765
-0.081066325 0.0022315765 0.07483191 -0.12877081 -0.06731145 -0.19602683 -0.01815166 -0.025102066
0.15735766 -0.21190378 -0.1336014 -0.12106158 0.08050012 0.0010505811 0.055832066 0.1245003
0.15771905 0.013345896 -0.02436953 0.10091227 0.11240328 0.14438131 -0.06539353 0.07618726
-0.13103737 -0.11164516 -0.059315857 0.032546647 0.10961403 0.13605046 0.04653161 0.013413835
0.11140408 0.13366847 -0.04299938 0.10672462 0.14822237 -0.0801268 0.022550285 0.024331631
0.0089034205 -0.08383271 0.10392457 -0.1508581 -0.059262287 -0.20981783 -0.14717017 -0.024386209
0.061135642 -0.14675495 -0.10261597 -0.15159811 0.13654698 -0.13906743 0.092895746 0.07297467
-0.042743593 0.25218856 0.19870326 0.26529506 0.060869534 0.025883779 -0.028461637 0.010383932
0.13900971 0.22924586 -0.089480236 0.1467901 0.017837012 0.052657995 -0.06410712 0.052838277
-0.20137292 -0.15011065 0.10259781 0.09142597 0.045563865 0.002939243 0.15296431 -0.13013339
0.12229952 -0.026813524 -0.13473052 0.07796132 -0.06911828 0.11123787 0.03791822 0.11082247
0.15071726 -0.12731719 -0.06334588 0.14300804 0.054623418 0.10732556 0.13573796 0.023568533
-0.10752945 0.049773537 -0.057039853 0.07893487 0.06856417 0.013357708 -0.11903444 0.00015251407
-0.19488265 0.0048817694 0.1892851 0.115354285 -0.1065506 -0.085315615 0.06528837 -0.09835105
0.08169508 0.0099621955 -0.09292057 -0.04656871 -0.024981182 0.016666863 0.12412816 0.18863584
00000000: a05b aa3c 9ad1 a23d 9923 bfbd 9898 0ebe
00000010: c034 b6bd ad7a 6abc 3cd6 543e 991e 263d
00000020: 48d8 133e 2266 c9bd 241c bcbd dc67 50bd
00000030: 7633 acbd 6744 dbbd 65fa 923d 6c3b c63d
00000040: 369c de3c 845f 54bc 27d3 663e 5482 5cb7
00000050: b1b4 733e 35f8 a83c af3d 23bd 9535 aabd
00000060: 5441 0b3e 6ed4 0bbe dc2c b23d 94aa 2a3e
00000070: 2f72 d7bd 2097 98bd 4f18 b73d 9cc4 00be
00000080: 3a40 a93d 6277 143e bd0c ffbd 0f13 423e
00000090: 92f1 f1bd f712 93bd df28 343e 81d9 25be
000000a0: f331 003e e03a 923d b2ec 03be e4ae 78bc
000000b0: 17b6 993d b876 a4bd 1d9a 153d c171 193c
000000c0: dd65 febd d782 583d 3ed3 28bd 89d1 d8bd
000000d0: 783f 103e 4965 08be 9a9c c2bd 2c9a 91be
000000e0: 33ca 103d 3631 85bc 9e8b cd3d 66da 5e3d
000000f0: 1926 4f3e cb2f 7dbd abbe 063d 161f b8bd
00000100: 69ed da3c 98ae a3bc 055c 32be f3cf b539
00000110: d4e5 643e 8134 b63d ab64 2e3e f435 2e3d
00000120: 07e8 0f3e c36c e13d f1d9 28be dfd6 2b3d
00000130: 4ee3 c4bd 4ecb d63d de0c 0ebe 7578 4a3e
00000140: 2af3 1d3e e8e7 fd3d 6406 92bb 212b f7bd
00000150: 109a f5bd 1fe1 793c c87b 993d d7f2 4cbe
00000160: 0f1f 4e3e bba1 12bd 0556 bf3d 13ed ddbc
00000170: 1071 273d c0c3 343d b2af 61bd e958 8abd
00000180: 6cb1 6c3d 097d 153e 8c8a f93d 5f97 ccbd
00000190: 6b8c c23c 54e2 51bc 7309 50bd 8961 0d3e
000001a0: cee5 073d 5f01 4e3e beca da3d 18e7 6abe
000001b0: feb0 4dbe 184c b1bd 5451 09be d498 913d
000001c0: 63d1 efbd 319f 06be 160b 30be d51d cf3d
000001d0: bc02 c0bb f8a5 043d a9f9 90bd 551f 0fbe
000001e0: e367 69bd 8ee4 273e 7bae f4bc 1fd3 723d
000001f0: b560 df3d c322 623e ab72 01bd 4949 3f3e
00000200: 90ec 0f3c 31a8 f43d 91ce 4c3e da49 fcbb
00000210: 7bc2 0cbe b007 9abe 6728 07be 05ec dbbd
00000220: 1a06 a6bd a43f 123b 7941 993d 7fdc 03be
00000230: 96da 89bd 42bb 48be cab2 94bc d9a2 cdbc
00000240: 5e22 213e 4efd 58be cece 08be 22ef f7bd
00000250: 3fdd a43d a7b3 893a 2ab0 643d 03fa fe3d
00000260: 1a81 213e bfa8 5a3c 9ca2 c7bc 18ab ce3d
00000270: b133 e63d b2d8 133e 0bed 85bd 1108 9c3d
00000280: a92e 06be 38a6 e4bd 2ff5 72bd a24f 053d
00000290: 527d e03d d050 0b3e ee97 3e3d b4c5 5b3c
000002a0: d327 e43d 63e0 083e 1e20 30bd 7092 da3d
000002b0: 9bc7 173e 8519 a4bd 60bb b83c 2153 c73c
000002c0: a7df 113c 7cb0 abbd 68d6 d43d 8c7a 1abe
000002d0: 03bd 72bd 7cda 56be c7b3 16be 96c5 c7bc
000002e0: 5e69 7a3d ee46 16be 5228 d2bd 893c 1bbe
000002f0: f9d2 0b3e b167 0ebe 2040 be3d be73 953d
00000300: e813 2fbd dc1e 813e de78 4b3e c1d4 873e
00000310: 5552 793d 380a d43c 6128 e9bc 5e21 2a3c
00000320: 9058 0e3e 6dbf 6a3e 6a41 b7bd 2550 163e
00000330: ed1e 923c e9af 573d 984a 83bd f36c 583d
00000340: b434 4ebe 9bb6 19be cd1e d23d 8a3d bb3d
00000350: 2da1 3a3d 51a0 403b ada2 1c3e b041 05be
00000360: 2c78 fa3d 09a8 dbbc ccf6 09be 2faa 9f3d
00000370: e38d 8dbd aed0 e33d 2350 1b3d e4f6 e23d
00000380: a055 1a3e 705f 02be 7cbb 81bd b370 123e
00000390: cebc 5f3d 81cd db3d e4fe 0a3e cc12 c13c
000003a0: 6638 dcbd 56df 4b3d 9fa2 69bd 9ba8 a13d
000003b0: 5f6b 8c3d 4ada 5a3c 54c8 f3bd 2fec 1f39
000003c0: 518f 47be 40f7 9f3b f4d3 413e de3e ec3d
000003d0: 3337 dabd f4b9 aebd e9b5 853d 466c c9bd
000003e0: c04f a73d 7a38 233c 244d bebd d5be 3ebd
000003f0: 56a5 ccbc f288 883c e836 fe3d c129 413e

bias_ih_l0 f4 [128]
-0.26903975 -0.0963476 -0.4827806 -0.09299173 -0.09363265 -0.17026804 -0.21498396 -0.6004217
-0.42600322 -0.2895949 -0.14259009 0.0033456068 -0.029588163 -0.46304557 -0.4681087 -0.27355924
-0.19256793 -0.53136647 -0.005681714 -0.20612712 -0.27606595 -0.2460464 -0.11983102 -0.18242027
-0.3496305 -0.2302985 -0.25299338 -0.13765396 -0.39364478 -0.22149193 -0.23714976 -0.15161541
-0.063315995 0.10047176 -0.0741461 -0.12543085 -0.052885342 -0.15544297 0.0074699377 -0.15745246
-0.046322487 0.028968342 -0.012679566 -0.12819195 -0.1270691 -0.26349524 -0.3341229 -0.15729094
0.095300525 -0.44409063 -0.0029844558 -0.1022581 -0.16555637 -0.063364275 -0.19259322 0.08335742
-0.13991728 -0.0073928256 0.012509549 0.047340035 -0.06502225 -0.09425849 -0.10247265 -0.25848442
0.033189733 -0.052408863 0.06446447 -0.1434296 0.0674347 -0.04802206 -0.04471895 -0.04461186
0.13488764 -0.1333677 0.10073844 -0.05335508 -0.059767846 0.023662718 -0.07549144 -0.043106865
0.10762881 0.050646845 -0.15697004 0.016094076 -0.06575494 0.04927676 -0.10955927 0.080483265
-0.10496846 0.0050370987 0.060350608 0.113865264 -0.051960047 -0.05412699 0.018280106 0.032965213
-0.18079907 0.036340028 -0.40193984 -0.18821858 -0.22459248 -0.23355429 -0.09618639 -0.31732503
-0.19530645 -0.34620792 -0.060593653 -0.043805465 -0.13117653 -0.3899301 -0.23390259 -0.153449
-0.19567162 -0.30662927 -0.011557726 -0.019043226 -0.08151542 -0.27595752 -0.22538343 -0.18715023
-0.3971065 -0.04384396 -0.12940481 -0.046341874 -0.22738998 -0.28930187 -0.24289891 -0.025547871
00000000: 94bf 89be e451 c5bd 052f f7be 7372 bebd
00000010: 7ac2 bfbd bf5a 2ebe c124 5cbe 3db5 19bf
00000020: 181d dabe c845 94be 2303 12be f841 5b3b
00000030: e062 f2bc 4f14 edbe f2ab efbe f50f 8cbe
00000040: 8730 45be a207 08bf ac2d babb fd12 53be
00000050: 8458 8dbe 96f3 7bbe f769 f5bd 61cc 3abe
00000060: c502 b3be 5fd3 6bbe 5988 81be 29f5 0cbe
00000070: cf8b c9be c8ce 62be 63d7 72be 1241 1bbe
00000080: d1ab 81bd 23c4 cd3d e9d9 97bd f270 00be
00000090: 4d9e 58bd 712c 1fbe 61c6 f43b 383b 21be
000000a0: a6bc 3dbd 044f ed3c f4bd 4fbc c044 03be
000000b0: 671e 02be d9e8 86be 2812 abbe e010 21be
000000c0: ec2c c33d d95f e3be dc96 43bb b26c d1bd
000000d0: 9c87 29be 21c5 81bd 2837 45be 4cb7 aa3d
000000e0: 7a46 0fbe 843f f2bb daf4 4c3c a0e7 413d
000000f0: 632a 85bd 980a c1bd 2edd d1bd 1258 84be
00000100: f5f1 073d adaa 56bd f305 843d 36df 12be
00000110: 341b 8a3d c8b2 44bd 382b 37bd edba 36bd
00000120: fc1f 0a3e 8b91 08be f54f ce3d db8a 5abd
00000130: 21cf 74bd 51d8 c13c 429b 9abd d390 30bd
00000140: 7e6c dc3d 1173 4f3d c1bc 20be b9d7 833c
00000150: 87aa 86bd 6ed6 493d 9c60 e0bd 69d4 a43d
00000160: b4f9 d6bd 3f0e a53b 3332 773d 3132 e93d
00000170: 0fd4 54bd 43b4 5dbd 29c0 953c 8806 073d
00000180: 6423 39be 48d9 143d 0fcb cdbe 5fbc 40be
00000190: 92fb 65be db28 6fbe 5ffd c4bd 6d78 a2be
000001a0: 6afe 47be 2a42 b1be 0d31 78bd 5c6d 33bd
000001b0: 2453 06be eba4 c7be 2984 6fbe bc21 1dbe
000001c0: 245e 48be 83fe 9cbe 9e5c 3dbc 8a00 9cbc
000001d0: 8ef1 a6bd 4e4a 8dbe eaca 66be 4fa4 3fbe
000001e0: 8b51 cbbe b995 33bd b282 04be fad0 3dbd
000001f0: ebd8 68be 601f 94be 7eba 78be c549 d1bc

bias_hh_l0 f4 [128]
-0.37056974 -0.166117 -0.1492046 -0.35645828 -0.2316555 -0.45430914 -0.13369252 -0.39129004
-0.2923008 -0.102490425 -0.21817896 -0.06108169 -0.1090972 -0.21441819 -0.1806774 -0.42114258
0.058719702 -0.31581768 -0.2605384 0.021040294 -0.10740521 -0.21011302 -0.28271607 -0.1597941
-0.3895388 -0.12561204 -0.38701442 -0.26967934 -0.36863545 -0.054004338 -0.1638938 -0.33255687
-0.27730903 -0.09523871 -0.38731554 -0.10564338 -0.029181901 -0.3316217 0.022337086 -0.41609213
-0.18636593 -0.101478525 0.030044593 -0.008039836 -0.21353798 -0.06380827 -0.17371626 -0.10382692
-0.15136531 -0.31526408 -0.20016353 0.12459944 -0.2647943 -0.26546142 -0.11476995 -0.10834672
-0.34313306 -0.09608643 -0.20030805 -0.16819423 -0.24533863 -0.2839036 -0.22501083 -0.18220153
-0.04200253 -0.045118853 -0.0071628396 0.052121393 0.046162136 0.015876617 0.0133597655 0.08355158
-0.027591348 0.14374445 0.03765052 0.20083784 0.19568582 -0.052450992 0.10406448 -0.08708683
-0.17737 -0.10756479 0.042278327 -0.040279172 0.09066195 -0.007833138 -0.13504621 -0.12805805
0.039440665 0.036486782 0.041430008 0.082058 -0.017223457 0.069279775 -0.050527107 -0.1004988
-0.39402846 0.051073026 -0.2385797 -0.19548848 -0.10359905 -0.2407397 0.072771646 -0.6411787
-0.42456764 -0.13217288 -0.23040923 -0.046246886 -0.18728971 -0.22609845 -0.38185328 -0.25967905
-0.19323719 -0.36741152 -0.10940439 -0.17023538 -0.38389114 -0.103527404 -0.15497413 -0.10634458
-0.19260259 -0.17203882 -0.2673026 0.0072514364 -0.2881202 -0.30628183 -0.16355294 -0.20945232
00000000: 51bb bdbe 931a 2abe 17c9 18be b381 b6be
00000010: 1937 6dbe 359b e8be b1e6 08be 2b57 c8be
00000020: 73a8 95be 80e6 d1bd 4e6a 5fbe cb30 7abd
00000030: 5a6e dfbd 7190 5bbe 7f03 39be 00a0 d7be
00000040: 1284 703d dbb2 a1be 4a65 85be b25c ac3c
00000050: 43f7 dbbd de27 57be 29c0 90be 11a1 23be
00000060: a171 c7be 71a0 00be c126 c6be 6913 8abe
00000070: c9bd bcbe a733 5dbd c7d3 27be e544 aabe
00000080: 73fb 8dbe 830c c3bd 394e c6be 8e5b d8bd
00000090: e20e efbc 52ca a9be 44fc b63c 070a d5be
000000a0: b6d6 3ebe f9d3 cfbd 1420 f63c 84b9 03bc
000000b0: b3a9 5abe e9ad 82bd ade2 31be 35a3 d4bd
000000c0: 82ff 1abe 4b6a a1be abf7 4cbe fe2d ff3d
000000d0: 1e93 87be 8fea 87be 820c ebbd e3e4 ddbd
000000e0: 23af afbe f6c8 c4bd 8e1d 4dbe 1c3b 2cbe
000000f0: 0d3a 7bbe d05b 91be 3d69 66be 0a93 3abe
00000100: d80a 2cbd 8cce 38bd 41b6 eabb 3e7d 553d
00000110: 8214 3d3d ae0f 823c ebe2 5a3c 171d ab3d
00000120: 4007 e2bc bf31 133e 6f37 1a3d 6fa8 4d3e
00000130: dd61 483e dad6 56bd c21f d53d 945a b2bd
00000140: 7ba0 35be ee4a dcbd 0a2c 2d3d c6fb 24bd
00000150: f9ac b93d 9056 00bc 8e49 0abe a621 03be
00000160: 898c 213d 2a73 153d 83b2 293d 060e a83d
00000170: 3518 8dbc 8ee2 8d3d 83f5 4ebd 51d2 cdbd
00000180: 19be c9be f331 513d 3d4e 74be 222e 48be
00000190: bd2b d4bd 7884 76be 4d09 953d 4a24 24bf
000001a0: ee60 d9be 5458 07be 66f0 6bbe 606d 3dbd
000001b0: e0c8 3fbe 5a86 67be 4682 c3be a7f4 84be
000001c0: f8df 45be 5d1d bcbe 690f e0bd 2f52 2ebe
000001d0: 618d c4be 2d06 d4bd 8ab1 1ebe 30cb d9bd
000001e0: 9d39 45be f22a 30be e3db 88be 759d ed3b
000001f0: 7e84 93be f9d0 9cbe 6c7a 27be ab7a 56be

weight f4 [64, 4]
-0.10553751 0.79052347 0.6199491 -0.43221146 -0.53814566 -0.31422263 0.37950814 0.11599483
0.1927455 0.15042964 -0.10025023 0.5861416 -0.6957208 0.09972374 -0.010318396 0.028817777
0.58207357 -0.23523389 -0.46692145 -0.32870993 0.09984061 -0.5650548 -0.5267373 -0.030726593
-0.39370555 0.021905364 0.36253265 0.27356866 -0.019735837 0.15176314 -0.45027357 -0.5680459
-0.4239123 0.27378395 0.43936935 -0.034723308 0.4725151 -0.11437158 0.01378656 0.37584782
0.1995985 0.45771006 -0.41924286 -0.4240544 -0.19887137 -0.11811394 0.51401466 0.8193584
0.4150753 0.053573098 -0.22316848 0.17538817 0.2840615 0.3164674 -0.047224626 -0.19111076
0.15046781 0.04832821 -0.33878708 0.14217627 -0.20885456 -0.37488014 0.5001125 -0.40795282
-0.28524446 -0.11321794 0.06607687 -0.29127923 -0.7635229 -0.3757519 0.36527753 -0.46074116
-0.2801388 0.48646337 0.07428566 -0.43311733 0.4832766 0.62332404 -0.33087194 -0.24334246
0.03874286 -0.34794533 0.13791905 0.0055095484 -0.34595925 -0.5842664 0.41038892 0.17897247
-0.46623102 -0.27784926 0.26736853 0.35049906 0.096588455 0.25343096 0.5629504 -0.13267368
-0.6269521 0.33312872 0.5455992 -0.11220166 0.002614966 0.17333002 0.25774795 -0.18223508
-0.51814777 0.483082 -0.060823273 -0.19627218 -0.5086632 0.46307254 -0.26486996 -0.36622506
-0.5137666 -0.27814046 0.5815254 -0.05226209 -0.16713667 -0.026408277 0.19661763 -0.49730965
-0.59101874 -0.62471503 -0.37551278 0.17356476 -0.3355372 -0.2770602 0.20279716 -0.49452764
0.5060725 -0.13353932 0.18033552 0.48208642 0.36441976 -0.56258255 0.25868666 0.41184673
-0.41868824 -0.49740124 0.0761508 -0.15191936 0.27741122 0.647394 -0.24310552 -0.62101454
-0.3352939 0.23859239 -0.063675545 0.20830445 -0.80883044 0.060750093 0.27150407 -0.5207068
-0.20503788 0.31978166 0.04992703 -0.41959402 0.02719702 0.095935576 -0.3339409 -0.025491828
-0.07878926 0.2925078 0.59221923 0.33031037 -0.4873866 -0.5596077 0.36700153 0.40955344
-0.08163189 -0.54404944 0.22563098 -0.5938902 -0.6117018 0.14353313 0.39910337 -0.31201223
0.36681718 0.63096786 0.48997626 -0.28751963 0.08266896 -0.090953074 -0.116417505 -0.30886054
-0.53728175 0.16775703 0.07477598 -0.60670483 -0.10272384 0.02510316 0.20930134 -0.34144443
0.3965761 0.21141523 -0.1483679 0.24807881 -0.56008005 0.17803179 0.2514972 0.04217417
-0.32380015 -0.07712415 -0.007892784 -0.29092944 0.5475517 0.09783249 -0.0047191516 -0.033505112
0.37618166 -0.030651847 -0.37665117 -0.042849284 -0.09137337 0.2631564 -0.3726249 0.114094846
0.5774773 -0.37153348 0.16219902 -0.8449568 -0.3880546 -0.45078382 -0.07126107 -0.15776163
0.26568615 0.38040698 -0.11617901 -0.67411244 0.114523694 0.1827874 -0.5927956 0.30705485
-0.64531666 0.47098672 -0.49441648 0.30400023 -0.013811829 -0.64336437 0.015559777 -0.17811216
-0.35380042 0.08349031 -0.2766917 0.049005173 0.39616483 -0.15260546 -0.64497936 0.26906765
-0.4636336 -0.7235822 0.54772997 -0.475605 0.004018428 0.6200554 0.21880186 -0.591285
00000000: 0d24 d8bd bf5f 4a3f fcb4 1e3f d24a ddbe
00000010: eac3 09bf cae1 a0be e44e c23e b38e ed3d
00000020: 145f 453e 3a0a 1a3e fe4f cdbd 600d 163f
00000030: c21a 32bf f63b cc3d 7d0e 29bc 4213 ec3c
00000040: c602 153f 27e1 70be 5410 efbe ab4c a8be
00000050: 3c79 cc3d 6ea7 10bf 41d8 06bf 56b6 fbbc
00000060: c693 c9be e172 b33c e19d b93e 3111 8c3e
00000070: 0dad a1bc cc67 1b3e 428a e6be 756b 11bf
00000080: 080b d9be 692d 8c3e 05f5 e03e 073a 0ebd
00000090: 80ed f13e a63b eabd 06e1 613c 206f c03e
000000a0: 8d63 4c3e f958 ea3e 00a7 d6be a91d d9be
000000b0: f0a4 4bbe b9e5 f1bd 7796 033f 79c1 513f
000000c0: c084 d43e 776f 5b3d 4786 64be f598 333e
000000d0: 8270 913e 0408 a23e 9c6e 41bd 8ab2 43be
000000e0: 3c14 1a3e cdf3 453d 8075 adbe a896 113e
000000f0: f8dd 55be 4af0 bfbe 5f07 003f 31df d0be
00000100: 900b 92be cfde e7bd 4f53 873d 8d22 95be
00000110: 3d76 43bf 8e62 c0be a805 bb3e 44e6 ebbe
00000120: 5a6e 8fbe ba11 f93e 1523 983d 8ec1 ddbe
00000130: 0870 f73e 2a92 1f3f 0c68 a9be c42e 79be
00000140: d5b0 1e3d e425 b2be a73a 0d3e 7189 b43b
00000150: 9221 b1be 7c92 15bf 7f1e d23e 8f44 373e
00000160: d5b5 eebe 4242 8ebe 87e4 883e 9d74 b33e
00000170: 2bd0 c53d b4c1 813e 841d 103f 9cdb 07be
00000180: ef7f 20bf d98f aa3e 64ac 0b3f fcc9 e5bd
00000190: d95f 2b3b 6d7d 313e 8af7 833e d59b 3abe
000001a0: 55a5 04bf 8656 f73e d321 79bd 93fb 48be
000001b0: c037 02bf d817 ed3e 099d 87be da81 bbbe
000001c0: 3586 03bf 6d68 8ebe d9de 143f c610 56bd
000001d0: e025 2bbe 2c56 d8bc 2256 493e 5f9f febe
000001e0: 014d 17bf 53ed 1fbf 3643 c0be f6ba 313e
000001f0: 88cb abbe d6da 8dbe 0faa 4f3e ba32 fdbe
00000200: f88d 013f 88be 08be e0a9 383e 08d4 f63e
00000210: 3a95 ba3e 6905 10bf 9472 843e 93dd d23e
00000220: 4e5e d6be 60ab febe f3f4 9b3d c090 1bbe
00000230: d808 8e3e 9dbb 253f a7f0 78be cffa 1ebf
00000240: a4ab abbe 9051 743e 5368 82bd c34d 553e
00000250: 830f 4fbf 17d5 783d 9502 8b3e 0a4d 05bf
00000260: 73f5 51be 6cba a33e 4980 4c3d 07d5 d6be
00000270: 49cc de3c df79 c43d 4dfa aabe 3dd4 d0bc
00000280: 435c a1bd 95c3 953e ae9b 173f 711e a93e
00000290: bd8a f9be 7342 0fbf a0e7 bb3e fdb0 d13e
000002a0: 9f2e a7bd d346 0bbf cf0b 673e 3009 18bf
000002b0: 7d98 1cbf 59fa 123e 4757 cc3e 11c0 9fbe
000002c0: 76cf bb3e 1c87 213f 2bde fa3e c635 93be
000002d0: 584e a93d 9b45 babd 4d6c eebd f822 9ebe
000002e0: 4c8b 09bf 80c8 2b3e 2624 993d 0251 1bbf
000002f0: e060 d2bd 24a5 cd3c 1753 563e ced1 aebe
00000300: 060c cb3e 3c7d 583e c1ed 17be 5f08 7e3e
00000310: 6861 0fbf f74d 363e 3ec4 803e d3be 2c3d
00000320: 22c9 a5be 44f3 9dbd bc50 01bc b4f4 94be
00000330: 592c 0c3f 675c c83d 1da3 9abb a83c 09bd
00000340: e29a c03e 9519 fbbc 6cd8 c0be bb82 2fbd
00000350: f621 bbbd 70bc 863e b1c8 bebe 8faa e93d
00000360: 8dd5 133f a339 bebe 8017 263e 174f 58bf
00000370: 18af c6be 23cd e6be 53f1 91bd 448c 21be
00000380: 0408 883e b4c4 c23e 43ef edbd a292 2cbf
00000390: 668b ea3d 9f2c 3b3e 74c1 17bf 4b36 9d3e
000003a0: 7933 25bf 2c25 f13e 2824 fdbe eba5 9b3e
000003b0: 024b 62bc 87b3 24bf 6fee 7e3c 0963 36be
000003c0: 5425 b5be f8fc aa3d 89aa 8dbe a6b9 483d
000003d0: 1ed6 ca3e 9b44 1cbe 5e1d 25bf 3cc3 893e
000003e0: 6261 edbe af3c 39bf 0838 0c3f 8082 f3be
000003f0: 04ad 833b f3bb 1e3f 980d 603e 745e 17bf

bias f4 [64]
0.45009878 0.19202442 -0.15546219 -0.031786986 0.07862688 0.48679107 0.1535514 0.034183644
0.5031568 0.17376053 -0.0017491712 -0.08596471 -0.42237714 0.48119596 -0.24992284 0.3011278
-0.45616728 0.43553668 0.33993363 0.3620391 0.39645085 0.083996 0.07659577 -0.31889185
0.009107594 -0.10850858 -0.23255304 0.023688002 -0.11122969 -0.27348614 0.197885 -0.53373206
-0.40043277 0.36107093 -0.19917984 0.029774055 -0.37284908 0.41577348 -0.3089114 0.21351929
0.08991058 0.16766149 -0.4314371 -0.024480358 -0.10838082 0.4583138 -0.43969446 -0.21496822
-0.2650816 -0.09508989 0.4637592 0.52739084 -0.05062798 0.10683261 0.40998113 -0.07361291
0.31424078 0.01929091 0.055684537 0.4929827 0.1599452 -0.15917966 -0.3332472 0.24947846
00000000: 5973 e63e 0da2 443e 7b31 1fbe 1233 02bd
00000010: 2107 a13d ae3c f93e 943c 1d3e 2604 0c3d
00000020: e2ce 003f 48ee 313e 7244 e5ba 440e b0bd
00000030: d141 d8be 515f f63e c6eb 7fbe 6c2d 9a3e
00000040: c28e e9be aafe de3e c80b ae3e 305d b93e
00000050: 9bfb ca3e 1806 ac3d 3ede 9c3d cb45 a3be
00000060: 0538 153c bf39 debd 6222 6ebe 570d c23c
00000070: 64cc e3bd 6006 8cbe 5ea2 4a3e aaa2 08bf
00000080: 8605 cdbe 4ade b83e cdf5 4bbe b8e8 f33c
00000090: 13e6 bebe 43e0 d43e a329 9ebe cda4 5a3e
000000a0: 0a23 b83d 74af 2b3e 53e5 dcbe 088b c8bc
000000b0: c3f6 ddbd 1ba8 ea3e a21f e1be a120 5cbe
000000c0: c7b8 87be 7dbe c2bd d971 ed3e 1603 073f
000000d0: 495f 4fbd 0ecb da3d 0ce9 d13e 5ec2 96bd
000000e0: 2be4 a03e f807 9e3c 7815 643d 3a68 fc3e
000000f0: adc8 233e feff 22be 619f aabe 4877 7f3e
