experiments/pedestrians/models/06_Aug_2023_21_23_08/model_registrar-7.pt (torch, 713991 bytes, 82 tensors)

weight f4 [64, 10]
0	0xbe5b23f7	-0.21400438
1	0xbe107c6d	-0.14109965
2	0x3e96c60e	0.2944798
3	0x3d9689aa	0.07350476
4	0xbd96bbaf	-0.073600166
5	0x3f2515a8	0.6448617
6	0x3c996478	0.018724665
7	0xbe77e9a9	-0.24210228
8	0xbe22022b	-0.1582114
9	0x3dfd3797	0.123641185
10	0xbd163383	-0.03667022
11	0x3e289f70	0.1646707
12	0x3ea65223	0.3248454
13	0xbd785c28	-0.060634762
14	0xbd98605d	-0.07440255
15	0xbeb00928	-0.34381986
16	0xbe904d97	-0.28184196
17	0xbebae7c7	-0.36504957
18	0xbdda0df2	-0.10647191
19	0x3dc55b14	0.096365124
20	0x3e21359d	0.15743108
21	0x3d98cfe7	0.07461529
22	0xbe597363	-0.21235423
23	0x3eff1f56	0.49828595
24	0x3e837c36	0.25680703
25	0xbccc4623	-0.024935788
26	0xbe4d35c3	-0.2004004
27	0x3d173d1d	0.036923517
28	0x3d8c75cd	0.06858406
29	0xbdb7d173	-0.08975496
30	0xbe1312e3	-0.14362673
31	0x3df5e521	0.120065935
32	0xbd920724	-0.07130268
33	0x3db140b6	0.08654921
34	0xbea8e33a	-0.3298586
35	0x3ee08924	0.4385463
36	0xbe64e4d6	-0.22352919
37	0xbe25ec9e	-0.16203544
38	0x3c73a12e	0.014869971
39	0xbe50ee5c	-0.20403427
40	0x3e1026d3	0.1407731
41	0xbd89fc97	-0.06737631
42	0x3d062b4c	0.032756135
43	0x3e520552	0.20509842
44	0x3eb5ea10	0.35530138
45	0xbc4feec4	-0.0126912035
46	0x3e62cc31	0.22148205
47	0x3dd13496	0.10215108
48	0xbe9e1f2f	-0.30883166
49	0x3de85d6a	0.11345942
50	0x3cff3573	0.031153416
51	0x3dd91686	0.10599999
52	0x3e9408ee	0.28913063
53	0x3d703826	0.058647297
54	0xbd06e2fc	-0.032931313
55	0xbc71cf8b	-0.014758955
56	0x3d6b6815	0.057472307
57	0xbe016d3e	-0.12639329
58	0xbe32057e	-0.17384908
59	0xbd22b27b	-0.039720993
60	0xbcbf6b74	-0.023366667
61	0x3e193cbd	0.14964576
62	0x3eec7437	0.46182415
63	0x3db7179a	0.089400485
64	0x3e8945ac	0.26810968
65	0xbe979031	-0.29602197
66	0xbe96fbe8	-0.29489064
67	0x3e70a694	0.23501045
68	0x3e8dc067	0.27685854
69	0x3e47a5c9	0.19496836
70	0xbe1bae1f	-0.1520314
71	0xbe1e5fb0	-0.1546619
72	0x3e810c79	0.25204828
73	0xbebe534b	-0.37172922
74	0xbefb0843	-0.4902974
75	0xbe5d7c6d	-0.21629496
76	0x3eb6ba94	0.35689223
77	0xbc9d0be2	-0.019170705
78	0x3b90a784	0.0044145007
79	0xbbcb7fdc	-0.0062103104
80	0xbe284ec2	-0.16436294
81	0x3cdf3d5e	0.027250942
82	0xbe046da3	-0.12932448
83	0x3e1b9fd9	0.15197696
84	0xbeca5fce	-0.39526218
85	0xbdb39957	-0.08769482
86	0xbe8119f7	-0.25215122
87	0xbe8d5a66	-0.2760803
88	0x3e017bdb	0.12644903
89	0xbafd2a44	-0.0019314964
90	0xbe29d3eb	-0.16584747
91	0x3cfd7991	0.030941756
92	0x3eac2dbc	0.33628643
93	0x3e3f0723	0.18655066
94	0x3e1ddfc3	0.1541739
95	0x3e9c1778	0.30486655
96	0x3e0790c8	0.13238823
97	0xbe800f8f	-0.2501187
98	0x3e90432b	0.28176245
99	0x3e81d18f	0.25355193
100	0xbe2cc6fd	-0.16872783
101	0x3d04c5d7	0.032415237
102	0x3cbe770e	0.02325013
103	0x3e41ac16	0.18913302
104	0xbecd0171	-0.40040162
105	0xbd5581c6	-0.052125715
106	0xbe0fb8dc	-0.14035362
107	0x3de8d7f9	0.113693185
108	0x3e5a3ea0	0.21312952
109	0xbe8c3270	-0.2738223
110	0x3d795361	0.060870532
111	0xbe17e70f	-0.14834236
112	0x3ee06d83	0.4383355
113	0xbe8f8218	-0.2802894
114	0xbf1bef4e	-0.60912025
115	0xbec9e65a	-0.39433557
116	0x3c347e7e	0.011016486
117	0x3ea3f20d	0.32020608
118	0xbe54b9c4	-0.20773989
119	0xbe172c80	-0.14763069
120	0xbe80d62f	-0.2516341
121	0x3e87e33d	0.26540557
122	0x3ebe5b7b	0.3717917
123	0x3e634396	0.2219375
124	0x3e92ce13	0.28672847
125	0x3ea585d2	0.3232866
126	0x3e7fdbb6	0.24986157
127	0xbd07b2c8	-0.033129483
128	0x3db35de7	0.08758145
129	0xbe096925	-0.13419016
130	0xbd8f045a	-0.06983252
131	0x3cecbbc3	0.028898126
132	0xbe271e99	-0.16320266
133	0xbee69ef7	-0.45043156
134	0x3d974c87	0.07387643
135	0xbd37f10b	-0.04490761
136	0x3dc596e4	0.09647921
137	0xbe2d41d6	-0.16919646
138	0xbd1d666a	-0.038427748
139	0xbe4b2b14	-0.19840652
140	0x3e3dd202	0.18537143
141	0xbe2401eb	-0.16016357
142	0xbe559eee	-0.20861408
143	0x3eb7cba2	0.35897547
144	0xbe4475f0	-0.19185615
145	0x3d9d6cb0	0.07686746
146	0x3de7440c	0.11292276
147	0xbde5de5a	-0.11224051
148	0xbe15ea52	-0.14640167
149	0x3e624312	0.22095898
150	0xbc64a12b	-0.013954441
151	0x3e82980c	0.25506628
152	0xbd906f47	-0.070524745
153	0xbdaeb0ae	-0.08529793
154	0x3eb41207	0.35170004
155	0xbe57088b	-0.20999353
156	0xbe831912	-0.25605065
157	0x3e0f3518	0.13985097
158	0xbe74e6d4	-0.23916179
159	0x3d9f03ce	0.077643976
160	0xbe773449	-0.24141039
161	0x3e8863b7	0.26638576
162	0x3e6659f0	0.22495246
163	0x3e5c4f93	0.2151473
164	0xbf1e7a2a	-0.6190516
165	0x3ea180a4	0.31543458
166	0x3d9a2ea4	0.07528427
167	0x3e7d8207	0.24756633
168	0xba0595b0	-0.00050958525
169	0x3ed09485	0.4073831
170	0x3e85554e	0.26041645
171	0x3e8d19c3	0.27558717
172	0xbdd6a5f4	-0.10480872
173	0x3eb52bd2	0.35384995
174	0xbe11b37c	-0.14228624
175	0x3e0d8729	0.13821091
176	0x3e10e40b	0.14149491
177	0x3e16a427	0.14711057
178	0x3d99f33c	0.075170964
179	0x3e7a6e74	0.24456197
180	0xbd89c65e	-0.06727289
181	0x3e60c5a0	0.21950388
182	0x3ee62081	0.44946674
183	0xbd942225	-0.07233075
184	0xbe414f67	-0.18877946
185	0x3e86e375	0.2634541
186	0x3e96eba0	0.29476643
187	0x3d38afdc	0.045089588
188	0x3e5cef5f	0.21575688
189	0x3ea4869d	0.32133952
190	0x3e6b4669	0.22976078
191	0x3df1764f	0.11790144
192	0xbe8d23e9	-0.2756646
193	0xbe2ae6cc	-0.16689605
194	0xbecb0e2b	-0.39659247
195	0x3d468152	0.048463173
196	0x3d8481f7	0.06470101
197	0x3df011d0	0.117221475
198	0xbe802c1a	-0.25033647
199	0x3e59762c	0.21236485
200	0xbde9b20c	-0.11410913
201	0x3da95ceb	0.08269676
202	0xbe8c0723	-0.27349195
203	0x3eb23864	0.34808648
204	0x3ec2b519	0.38028792
205	0xbe50001e	-0.20312545
206	0x3dfb5592	0.122721806
207	0xbc74ffb4	-0.0149535425
208	0x3eb550b2	0.35413128
209	0x3ce7e547	0.02830757
210	0xbe6233cf	-0.22090076
211	0xbcd52ef8	-0.026023373
212	0x3e0cda3c	0.13755125
213	0x3e4d5c64	0.20054775
214	0x3ecf28f3	0.4046093
215	0x3f36f1c7	0.7146267
216	0x3e82be9c	0.25536048
217	0x3d80492a	0.06263955
218	0x3dc82090	0.09771836
219	0xbe01673a	-0.12637034
220	0x3cf4ae6b	0.029868325
221	0x3e741b58	0.23838556
222	0xbe50960c	-0.20369738
223	0x3e2aae68	0.16668093
224	0x3da4ec9b	0.080529414
225	0x3e16cf32	0.14727476
226	0x3e4d9293	0.20075445
227	0x3e6652bc	0.22492498
228	0x3d8813c9	0.06644399
229	0xbe409c0d	-0.18809529
230	0x3dc7899a	0.09743042
231	0xbe2faa25	-0.17154749
232	0xbe4bd34d	-0.19904824
233	0x3eec6240	0.4616871
234	0xbda62b08	-0.08113676
235	0xbdefd1f5	-0.11709968
236	0xbc8a4b2e	-0.016881552
237	0x3e373fdb	0.17895453
238	0xbc9f70bd	-0.019462937
239	0x3e755f8f	0.23962234
240	0x3e17a343	0.14808373
241	0xbe0fe001	-0.14050294
242	0xbe1ea81b	-0.15493815
243	0xbe01a3fd	-0.12660213
244	0x3e86858c	0.26273763
245	0x3e0973be	0.13423058
246	0x3d7c9af8	0.061671227
247	0xbe956220	-0.29176426
248	0xbcfa1ca1	-0.03053123
249	0xbe892ae0	-0.26790524
250	0xbe5b88b3	-0.21438865
251	0xbe65de43	-0.22448067
252	0x3d21b5b1	0.039479915
253	0x3ec6254d	0.38700333
254	0xbe1867c7	-0.14883338
255	0xbe954e6e	-0.291614

bias f4 [64]
0	0xbe49da26	-0.19712123
1	0xbdc7c803	-0.09754946
2	0xbe366720	-0.17812777
3	0x3eacd9e2	0.3375998
4	0x3d9779ba	0.073962644
5	0x3e2cd773	0.16879062
6	0xbe9eb832	-0.30999905
7	0xbd0fddce	-0.03512364
8	0xbcb762e3	-0.02238602
9	0x3e662393	0.22474508
10	0xbd44b4b8	-0.04802391
11	0x3eb66bd3	0.35629138
12	0xbd9c9a7c	-0.07646653
13	0x3e388b9c	0.18022007
14	0xbe7567f7	-0.2396544
15	0xbd9479ee	-0.07249819
16	0xbda8a051	-0.08233703
17	0xbdd7900c	-0.10525522
18	0x3e8efe43	0.2792836
19	0x3dddd7c0	0.10832167
20	0x3d7b1aaf	0.061304744
21	0x3d418397	0.047244634
22	0x3e10388a	0.14084068
23	0xbc9cdb5e	-0.019147571
24	0xbdc1aca9	-0.094567604
25	0x3e2398fc	0.15976328
26	0xbde3d986	-0.11125474
27	0xbdc759b8	-0.09733909
28	0xbe83f929	-0.25776032
29	0x3dd551b9	0.10415978
30	0x3dc1f450	0.09470427
31	0xbe8394a5	-0.25699344
32	0xbe710d15	-0.23540147
33	0x3e50aef3	0.20379238
34	0xbeab4889	-0.33453777
35	0x3e5fd5db	0.21858923
36	0x3e5c42b7	0.21509825
37	0xbdc3e286	-0.0956469
38	0xbe6b46c0	-0.22976208
39	0xbd77f280	-0.060534
40	0xbe629cfb	-0.22130196
41	0x3e368ccd	0.17827149
42	0xbdbb50a0	-0.091462374
43	0xbe071848	-0.13192856
44	0xbe73fe1b	-0.23827402
45	0x3e653ccf	0.22386478
46	0xbe1b89c9	-0.1518928
47	0xbe4382dd	-0.19092889
48	0x3e070ede	0.13189265
49	0xbe43a450	-0.19105649
50	0xbd6ce985	-0.05783989
51	0x3e546c98	0.2074455
52	0xbe99bdfb	-0.30027756
53	0xbea24c2f	-0.31698748
54	0xbe9d41f6	-0.30714387
55	0xbc741f06	-0.014899975
56	0x3e425b77	0.18980204
57	0x3e40ca6e	0.18827221
58	0x3e7b611c	0.24548763
59	0x3e64bbcc	0.22337264
60	0xbe37f277	-0.17963587
61	0x3e29dd0b	0.16588227
62	0x3ea63af6	0.3246686
63	0xbe74ee1d	-0.23918958

weight f4 [32, 32]
0	0xbe871ec9	-0.26390675
1	0xbdff0167	-0.12451439
2	0x3e835311	0.25649312
3	0xbd74c44e	-0.059757523
4	0xbdb456fc	-0.088056535
5	0xbc8a14b6	-0.016855579
6	0x3c5d8d45	0.013522451
7	0x3bebda2a	0.007197638
8	0xbdfb9f26	-0.122862145
9	0xbe68019d	-0.22656865
10	0x3db1f496	0.08689229
11	0x3d89f5bc	0.06736323
12	0x39f22eb7	0.00046192642
13	0x3e21a81a	0.15786782
14	0xbe0eb3fe	-0.13935849
15	0x3db34083	0.08752539
16	0xbd2527b7	-0.04032108
17	0x3e23440e	0.1594393
18	0x3e39afea	0.18133512
19	0x3e5af72e	0.21383354
20	0xbe2412a7	-0.1602274
21	0x3dfa3e11	0.122188695
22	0x3e2e03c1	0.1699362
23	0xbe59a276	-0.2125338
24	0xbc08ad35	-0.008342077
25	0x3dcf6036	0.10125773
26	0x3d7410cb	0.059586328
27	0x3df9c58e	0.12195884
28	0x3e428935	0.18997653
29	0x3d814f78	0.063139856
30	0x3e239f34	0.159787
31	0x3dd74e19	0.10512943
32	0x3ddfa0ca	0.1091934
33	0xbc80e5dc	-0.015734605
34	0xbe3f896b	-0.18704765
35	0xbd4b3a80	-0.049616337
36	0xbe2b536a	-0.16731039
37	0x3dc8278c	0.09773168
38	0x3dd8d222	0.10586955
39	0x3bb55cfe	0.005534767
40	0xbe43bb09	-0.19114317
41	0xbe33102d	-0.1748664
42	0xbe007f73	-0.12548618
43	0xbdbe5526	-0.092935845
44	0x3d73ec48	0.059551507
45	0x3d34b60e	0.044118933
46	0xbdc05e08	-0.09392935
47	0xbd2f7b40	-0.04284215
48	0x3d3fe353	0.046847653
49	0x3e1750f5	0.14776976
50	0x3d933588	0.07187945
51	0x3e8e94a6	0.27847785
52	0x3dc6d609	0.09708793
53	0xbdaa25f1	-0.08308018
54	0x3da30d82	0.07961561
55	0xbd66493d	-0.05622219
56	0xbc321509	-0.010869273
57	0xbc53dd8f	-0.012931242
58	0x3e25c7fd	0.1618957
59	0x3dc3dc2d	0.095634796
60	0xbde87bb1	-0.11351717
61	0xbdcc50ae	-0.09976326
62	0x3d7a4435	0.061100204
63	0x3c8dcd0a	0.017309684
64	0x3e44023f	0.19141482
65	0xbdf5bb44	-0.11998609
66	0x3d3f537b	0.046710473
67	0xbea6b67e	-0.32561105
68	0xbe636702	-0.22207263
69	0xbd74aa0f	-0.059732493
70	0xbd8310fe	-0.063997254
71	0xbd8faead	-0.07015739
72	0xbdf4b67a	-0.11948867
73	0x3e2de53a	0.16981974
74	0x3e6193fe	0.22029111
75	0xbe57a204	-0.21057898
76	0xbe5fd706	-0.21859369
77	0x3e850073	0.25976905
78	0xbe8a2112	-0.26978356
79	0xbd92e0e3	-0.071718
80	0x3e04b81e	0.1296086
81	0x3e834eb5	0.25645986
82	0x3e99b6bc	0.30022228
83	0xbe7ee4fa	-0.24892035
84	0x3c6cbbb2	0.014449047
85	0x3cae193d	0.021252269
86	0xbd5e8603	-0.054327022
87	0xbda9c62c	-0.082897514
88	0x3c5cad57	0.013469062
89	0xbd907ec6	-0.0705543
90	0xbbecc4d6	-0.007225613
91	0xbe3f0dba	-0.1865758
92	0x3e838a22	0.25691324
93	0xbe6d9645	-0.23201855
94	0xbd65bab6	-0.056086265
95	0xbe1a0e28	-0.15044463
96	0x3e0555be	0.1302099
97	0xbdbe5301	-0.092931755
98	0x3d6fa308	0.058505088
99	0x3e38f704	0.18062979
100	0xbd149969	-0.036279116
101	0x3e24e084	0.16101271
102	0x3d8dc283	0.06921866
103	0xbe162d04	-0.1466561
104	0xbe21bc35	-0.15794452
105	0x3e229687	0.15877734
106	0x3de79afc	0.11308858
107	0xbd97f4a0	-0.074197054
108	0x3e552293	0.2081397
109	0x3ced9908	0.029003635
110	0xbdd1f2e6	-0.10251407
111	0xbd356b65	-0.044291873
112	0xbdfb2a6c	-0.12263951
113	0x3c6c3556	0.014417013
114	0xbdd0e25c	-0.101994246
115	0x3df51bf3	0.119682215
116	0x3d8ec88c	0.06971845
117	0x3ddef59c	0.1088669
118	0x3e32d7a0	0.17465067
119	0x3b072613	0.002062206
120	0xbd7c4964	-0.06159343
121	0x3cd14222	0.02554423
122	0x3cb4d9cd	0.022076512
123	0x3e2de472	0.16981676
124	0xbc1cc322	-0.009568008
125	0x3e641ad6	0.22275862
126	0x3deff66a	0.11716922
127	0x3e0b1145	0.13580807
128	0xbe1095ce	-0.14119646
129	0xbd99708f	-0.07492172
130	0x3e612cb6	0.21989712
131	0x3d624db5	0.05524989
132	0x3e276aa3	0.16349272
133	0x3b8b9d84	0.0042607207
134	0x3d9ab041	0.07553149
135	0x3e7beec8	0.24602807
136	0x3dec1efa	0.11529346
137	0xbe082439	-0.13295068
138	0x3e664d37	0.22490393
139	0x3df87140	0.12130976
140	0xbe1e2131	-0.15442349
141	0x3e077c3d	0.13230987
142	0xbc80a4f3	-0.015703654
143	0x3d84f52c	0.06492075
144	0xbdd3e15e	-0.1034572
145	0x3d741f9a	0.05960045
146	0x3e2c482e	0.1682441
147	0x3e8225e5	0.25419536
148	0x3e3b467f	0.18288611
149	0xbe6349de	-0.22196147
150	0x3da753c2	0.081702724
151	0xbd017dae	-0.031613998
152	0x3e1e1433	0.15437393
153	0x3e0fec50	0.1405499
154	0x3e1a9041	0.15094091
155	0xbd80f7bd	-0.06297252
156	0x3e131333	0.14362793
157	0x3eb43263	0.35194692
158	0x3de98997	0.11403196
159	0xbdb6da5f	-0.0892837
160	0x3e2c9777	0.16854654
161	0xbd0c2b86	-0.034221195
162	0xbd3fcf8b	-0.046828788
163	0xbea62345	-0.32448784
164	0xbd3986b6	-0.045294486
165	0x3e357d8c	0.17723674
166	0xbd5b3ec2	-0.053526647
167	0xbddc2355	-0.107489266
168	0x3d24620c	0.040132567
169	0x3c09dc91	0.008414404
170	0x3de23410	0.110450864
171	0x3dad56a1	0.08463789
172	0xbd295c30	-0.041347682
173	0x3d8bc5d4	0.06824842
174	0xbe1b06a2	-0.15139249
175	0xbe02b700	-0.12765121
176	0xbc0bf3da	-0.008542025
177	0xbe97d64a	-0.29655677
178	0xbdcfec78	-0.10152525
179	0xbe40123e	-0.18756959
180	0x3da041fd	0.07825086
181	0x3cede6d1	0.029040726
182	0xbba9fc5b	-0.005187554
183	0x3e2babd8	0.16764772
184	0xbe032cb2	-0.12810019
185	0x3e404491	0.18776156
186	0xbde1bfcc	-0.110229105
187	0x3c22958f	0.009923353
188	0xbc82629f	-0.015916167
189	0xbe21ca71	-0.15799882
190	0xbd4297e8	-0.04750815
191	0xbd684960	-0.0567106
192	0xbdb99fd3	-0.09063687
193	0x3d4a2bcb	0.04935817
194	0x3df8db56	0.1215121
195	0x388da288	6.753678e-05
196	0xbcd7c4a4	-0.026338883
197	0xbb88bc8f	-0.0041728686
198	0x3e77f25f	0.24213551
199	0x3e8d91d9	0.27650335
200	0x3d8b715e	0.068087325
201	0x3e39ef60	0.1815772
202	0x3d901484	0.07035163
203	0x3e93fc49	0.28903416
204	0xbddc5465	-0.107582845
205	0xbdf6d2ec	-0.12051949
206	0x3e2a31ef	0.1662061
207	0xbd4140a3	-0.047180783
208	0x39dcafca	0.00042092643
209	0xbe00fc5f	-0.12596272
210	0xbe43619c	-0.19080204
211	0x3bae0bf2	0.0053114826
212	0x3d291717	0.041281786
213	0xbe2215fe	-0.15828702
214	0x3e1e4668	0.15456545
215	0x3e5edda2	0.21764234
216	0x3e1af78e	0.15133497
217	0x3dbb9de5	0.09160975
218	0x3d686c48	0.05674389
219	0xbcfe042f	-0.031007854
220	0xbdbcefe2	-0.092254415
221	0x3dfd00a5	0.123536386
222	0xbdeb12d2	-0.11478199
223	0x3d326004	0.0435486
224	0x3d80fac3	0.06297829
225	0x3db4f861	0.08836437
226	0x3d1a3e06	0.037656806
227	0xbe499d4f	-0.19688915
228	0xbc2b5a6d	-0.010458571
229	0x3e63736f	0.22212003
230	0x3e677126	0.22601756
231	0x3dd0ccde	0.10195325
232	0xbe15a07b	-0.14612
233	0x3e10a119	0.14123954
234	0x3cb19336	0.021676641
235	0x3e27d0ac	0.16388196
236	0x3e471bca	0.19444194
237	0x3dd3472f	0.103163116
238	0xbd5d30e7	-0.054001715
239	0x3e468f4f	0.19390605
240	0x3da84d51	0.08217872
241	0x3e0234b2	0.12715414
242	0xba55ef97	-0.0008161007
243	0x3eb3747d	0.3504981
244	0x3e5ab1aa	0.21356836
245	0x3d421c51	0.047390286
246	0x3dfc11ad	0.12308059
247	0xbdba9876	-0.09111111
248	0x3bb0035d	0.0053714947
249	0x3d91359b	0.070903026
250	0x3d32b362	0.043628104
251	0x3deaca2d	0.11464343
252	0x3d7f960c	0.062398955
253	0x3defd093	0.11709704
254	0x3e383051	0.17987181
255	0xbdc78558	-0.0974223

bias f4 [32]
0	0xbe0fffb1	-0.14062382
1	0xbd3a23eb	-0.04544441
2	0x3e460970	0.19339538
3	0x3c38ccfa	0.011279339
4	0xbe1fa8e3	-0.15591769
5	0x3e22a9b8	0.15885055
6	0x3d370ff6	0.044692956
7	0x3e08a18c	0.13342875
8	0x3dd3d19b	0.103427134
9	0xbaa5ff51	-0.0012664591
10	0x3d8ed651	0.06974471
11	0x3e0dbb17	0.138409
12	0xbcd2ceb5	-0.025733331
13	0x3c886ab0	0.016652435
14	0xbd83e2e5	-0.06439761
15	0x3e0aa937	0.13541113
16	0xbe0bba69	-0.13645329
17	0x3df0bb3c	0.11754462
18	0x3d9b6ad0	0.07588732
19	0xbd53e278	-0.05172965
20	0x3e195a16	0.14975771
21	0xbdf32b94	-0.11873546
22	0xbddec578	-0.10877508
23	0x3b0c264e	0.0021385136
24	0xbdc2a896	-0.095048115
25	0x3d55f856	0.052238785
26	0xbde030d6	-0.10946815
27	0xbe2470d7	-0.1605867
28	0xbe0a81c5	-0.13526066
29	0xbe373000	-0.17889404
30	0xbc895bf9	-0.016767489
31	0xbd59d033	-0.05317707

weight f4 [32, 64]
0	0xbd50c808	-0.050972015
1	0x3b87ada0	0.0041405708
2	0xbd7e4a08	-0.06208232
3	0x3d411508	0.047139198
4	0xbdda2048	-0.106506884
5	0x3dbba8c4	0.09163049
6	0xbdba1234	-0.09085503
7	0xbdcb87de	-0.09938024
8	0xbda1c35a	-0.078985885
9	0x3d67e1a8	0.056611687
10	0xbd3d2e14	-0.04618652
11	0x3d3f98e4	0.046776667
12	0xbdd94654	-0.10609117
13	0xbd9b523e	-0.07584046
14	0xbd3bfe80	-0.045897007
15	0xbcc93c78	-0.024564967
16	0xbdc34b04	-0.095357925
17	0x3da7a05e	0.081848845
18	0xbcf17db8	-0.029478893
19	0x3d245880	0.040123463
20	0x3db5075c	0.08839294
21	0x3cbec700	0.02328825
22	0x3d0c01bc	0.03418134
23	0x3df71b32	0.12065734
24	0xbd66eab4	-0.056376174
25	0x3d222d38	0.039593905
26	0xbd63cc0c	-0.055614516
27	0x3db6f348	0.08933121
28	0x3dcc74c0	0.09983206
29	0xbdec0660	-0.115246534
30	0x3dda8888	0.106705725
31	0x3d747cc4	0.0596893
32	0x3d5f1cdc	0.05447088
33	0x3d52c70c	0.051459357
34	0x3dd4d004	0.10391238
35	0xbc873560	-0.016504943
36	0xbdd87fb2	-0.10571231
37	0xbd12eaf8	-0.035868615
38	0xbdb44b58	-0.08803433
39	0x3c0762f0	0.008263335
40	0xbcbf3040	-0.023338437
41	0xbd895086	-0.06704812
42	0xbc3a3500	-0.011365175
43	0x3df2890e	0.11842547
44	0xbc218970	-0.009859428
45	0x3b820c60	0.0039687604
46	0xbc9fb420	-0.01949507
47	0x3ca0fae0	0.019650877
48	0x3de41968	0.11137658
49	0x3d9c8acc	0.07643661
50	0x3d35bd84	0.04437019
51	0x3cde86a8	0.027163818
52	0x3cf173b0	0.02947411
53	0x3d45cd78	0.048291653
54	0xbc845328	-0.016152933
55	0xbdededbc	-0.1161761
56	0xbd9e503e	-0.07730149
57	0x3dda8498	0.106698215
58	0x3bf4d500	0.0074716806
59	0xbdcf60fa	-0.10125919
60	0x3ca18350	0.019715935
61	0x3dd3868a	0.10328396
62	0xbdf1eb80	-0.11812496
63	0xbdac596a	-0.08415492
64	0xbd4be978	-0.0497832
65	0x3ba46740	0.005017191
66	0xbceed3b0	-0.029153675
67	0xbc610ea0	-0.013736397
68	0xbdf99266	-0.121861264
69	0x3d6fc248	0.05853489
70	0x3de0b3c8	0.109717906
71	0x3d9c7a1e	0.076404795
72	0xbdb5482a	-0.08851655
73	0xbdce5cca	-0.10076292
74	0x3d549bf4	0.05190654
75	0x3b37fb00	0.0028073192
76	0x3d51e278	0.051241368
77	0xbdfa2698	-0.122143924
78	0xbbf43740	-0.0074528754
79	0x3db48ada	0.08815546
80	0x3d6d85cc	0.057988927
81	0x3b959340	0.0045646727
82	0x3cc95680	0.02457738
83	0xbc41e7a0	-0.011835009
84	0xbd8cc1e4	-0.06872919
85	0xbd417c04	-0.04723741
86	0xbd9be618	-0.07612246
87	0x3dd4a2ce	0.10382615
88	0x3d8cdf96	0.06878583
89	0x3d330ed8	0.043715328
90	0xbdc45072	-0.09585656
91	0x3dc58902	0.09645273
92	0x3d2088ac	0.03919284
93	0x3db11974	0.08647433
94	0xbd496a6c	-0.049173757
95	0x3cd915b8	0.026499614
96	0x3df9f432	0.1220478
97	0x3dac3364	0.084082395
98	0x3dcd4fa8	0.10024959
99	0xbcd70640	-0.026248097
100	0x3dc30a62	0.09523465
101	0xbdc881e8	-0.09790403
102	0x3c312120	0.01081112
103	0xbd90245e	-0.070381865
104	0xbceecff8	-0.029151902
105	0xbd031f34	-0.03201218
106	0x3c193ac0	0.009352386
107	0x3de8feea	0.11376746
108	0x3d7d7ba4	0.06188549
109	0xba0ad000	-0.00052952766
110	0x3db5b870	0.08873069
111	0xbd83304a	-0.06405695
112	0x3d83ef62	0.06442143
113	0xbc3deaa0	-0.0115915835
114	0xbcb22fe8	-0.02175136
115	0x3c6fc430	0.014634177
116	0xbdc41eea	-0.09576209
117	0x3c6ca950	0.014444664
118	0x3d2c2764	0.042029753
119	0x3ddadcce	0.106866464
120	0xbd1f685c	-0.038917884
121	0x3d385588	0.045003444
122	0x3dffe006	0.12493901
123	0xbd5ba1d4	-0.05362113
124	0x3df35a06	0.11882405
125	0xbd7e3434	-0.062061504
126	0x3d61afe0	0.055099368
127	0x3d489378	0.048968762
128	0x3d0f0418	0.034916013
129	0x3dca7212	0.098850384
130	0xbd4eeea4	-0.050520554
131	0x3d069038	0.03285238
132	0x3a37e600	0.00070151687
133	0xbdc08c5a	-0.0940177
134	0xbcf8a438	-0.030351743
135	0xbdaaf674	-0.083477885
136	0x3d626230	0.05526942
137	0x3c381b60	0.011236995
138	0x3c48a1b0	0.012245581
139	0xbd1b5368	-0.03792134
140	0x3a1d9100	0.00060106814
141	0xbd1f410c	-0.038880393
142	0x3d131db8	0.035917014
143	0x3df89e94	0.121396214
144	0x3c9b1b18	0.018933818
145	0xbd62c630	-0.055364788
146	0xbd9c5f3a	-0.076353505
147	0x3c1c8c10	0.009554878
148	0xbdbde9a2	-0.092730775
149	0xbdc06c26	-0.09395628
150	0xbda69fe0	-0.081359625
151	0xbd2de5ec	-0.0424556
152	0x3c179680	0.009252191
153	0x3db048da	0.08607645
154	0x3d465158	0.04841742
155	0x3dc4205c	0.095764846
156	0xbda0bde2	-0.07848717
157	0x3c2cd3b0	0.010548517
158	0xbde38db0	-0.11111009
159	0x3d92db32	0.071707144
160	0x3cd56968	0.026051238
161	0x3df79b62	0.12090184
162	0xbdb61200	-0.08890152
163	0x3dcd4b46	0.10024123
164	0x3dd81f3a	0.10552831
165	0x3dcefb02	0.1010647
166	0x3c921e98	0.017836854
167	0x3de8c688	0.11365992
168	0x3daaf73c	0.083479375
169	0x3dbeff0e	0.093259916
170	0xbc050a30	-0.008120105
171	0xbdc47434	-0.095924765
172	0xbacbe200	-0.0015555024
173	0x3cc00a08	0.023442283
174	0xbdae6118	-0.08514613
175	0xbd92da04	-0.071704894
176	0xbdf57068	-0.119843304
177	0xbd337af4	-0.04381843
178	0x3ddefe58	0.10888356
179	0x3caf1998	0.021374509
180	0xbbfa2f20	-0.0076350123
181	0x3ba47cc0	0.005019754
182	0x3d9fa0b0	0.077943206
183	0xbde21074	-0.110382944
184	0xbdc586e6	-0.096448705
185	0xbd2a3990	-0.041558802
186	0xbd935528	-0.07193977
187	0x3d840a7e	0.06447314
188	0x3db4e2a8	0.08832294
189	0xbdf860b8	-0.12127823
190	0xbdd94312	-0.10608496
191	0xbdf94c20	-0.12172723
192	0x3d412780	0.04715681
193	0x3dce0af2	0.100606814
194	0xbdc67cb0	-0.09691751
195	0xbd6d08a0	-0.057869554
196	0x3d22edd0	0.039777577
197	0xbda72a0c	-0.08162317
198	0x3dd9777e	0.106184945
199	0x3ceec1d0	0.029145151
200	0xbd0e884c	-0.03479795
201	0x3c0504d0	0.008118823
202	0x3d1fa020	0.038971066
203	0xbd350cc8	-0.044201642
204	0xbdc65cf4	-0.09685698
205	0x3a5c4100	0.000840202
206	0x3b153780	0.0022768676
207	0x3b253180	0.0025206506
208	0xbc956ec0	-0.018241286
209	0x3da45eee	0.08025919
210	0xbd0ee0d8	-0.034882396
211	0xbc463b40	-0.012099087
212	0x3d528730	0.051398456
213	0xbda122ce	-0.078679666
214	0x3d0917a8	0.033469826
215	0xbce26c28	-0.027639464
216	0x3d7597c4	0.059959188
217	0xbd8adef2	-0.06780805
218	0x3b9761a0	0.004619792
219	0x3c485ac0	0.012228668
220	0xbdcdfa0a	-0.10057457
221	0xbdba25fe	-0.09089278
222	0x3d445bdc	0.047939166
223	0xbd15055c	-0.036382064
224	0x3d98099c	0.07423708
225	0xbdfce490	-0.12348282
226	0xbd7d18a4	-0.061791077
227	0xbdd2db82	-0.10295774
228	0x3d4c8784	0.049933925
229	0xbb6d7f40	-0.0036239177
230	0xbcbeff78	-0.023315176
231	0xbcaa5d40	-0.020796418
232	0xbdc81a24	-0.09770611
233	0x3d11335c	0.03544937
234	0x3b4c3140	0.0031157285
235	0xbdb0ab3e	-0.08626412
236	0x3d40a8c8	0.047035962
237	0xbb24a6c0	-0.0025123805
238	0xbdf796fc	-0.12089345
239	0x3d89b524	0.06724003
240	0x3d88ee5c	0.066860884
241	0xbcc0ee98	-0.02355127
242	0xbdb0c08e	-0.08630477
243	0x3ba47460	0.005018756
244	0x3dc12c24	0.09432247
245	0x3dea53b6	0.11441748
246	0xbdc13aa4	-0.09435013
247	0xbd674128	-0.056458622
248	0x3dc753ee	0.09732805
249	0x3d7a4124	0.06109728
250	0x3d9e77a2	0.07737662
251	0xbd7ed708	-0.06221679
252	0x3ddc8d86	0.10769181
253	0xbdd272ea	-0.10275824
254	0xbbc54cc0	-0.006021112
255	0x3b2a1700	0.002595365

bias f4 [32]
0	0x3bc4a0e0	0.006000623
1	0xbdf590fa	-0.11990543
2	0x3c824228	0.015900686
3	0x3d34205c	0.043976173
4	0x3de51af6	0.11186783
5	0xbd25f43c	-0.040516123
6	0x3d38ac5c	0.04508625
7	0xbd2b9140	-0.041886568
8	0xbd340bb4	-0.043956473
9	0xbde2d6e8	-0.11076146
10	0x3cd823a8	0.02638419
11	0x3dabc6c2	0.083875194
12	0xbd8e6972	-0.06953706
13	0x3d5152e4	0.05110444
14	0xbc9fbaf8	-0.019498333
15	0xbdb5c1a4	-0.08874825
16	0x3c5a6040	0.013328612
17	0xbdf978e2	-0.1218126
18	0x3d893b9e	0.06700824
19	0xbce24198	-0.027619168
20	0x3debc534	0.11512223
21	0x3b973520	0.0046144873
22	0xbdf8308a	-0.12118633
23	0x3dc6a8d2	0.09700169
24	0xbcdffb10	-0.027341396
25	0xbdaf5ae6	-0.085622594
26	0x3dec5cbc	0.11541125
27	0x3c3f4760	0.011674732
28	0x3d25ff34	0.040526584
29	0xbddd7652	-0.108135834
30	0xbd34d278	-0.04414603
31	0x3dcd66e6	0.10029392

weight_ih_l0 f4 [128, 32]
0	0xbcabfaec	-0.020993672
1	0x3d18c1b2	0.037294097
2	0xbddae853	-0.106888436
3	0xbcb7ae77	-0.022422059
4	0xbe087884	-0.13327223
5	0xbc13e74b	-0.0090273125
6	0xbe52bc82	-0.20579723
7	0xbea8df79	-0.32982996
8	0xbe33df20	-0.17565584
9	0x3e75cb28	0.24003279
10	0x3d9bec14	0.07613388
11	0xbe04a935	-0.12955172
12	0xbd30c810	-0.043159544
13	0xbe1d0bca	-0.15336528
14	0x3e646404	0.22303778
15	0xbd5419bb	-0.05178235
16	0x3d962418	0.07331103
17	0x3e633459	0.22187938
18	0xbe66a78b	-0.2252485
19	0x3d902d28	0.07039863
20	0xbe911b24	-0.2834102
21	0xbcd2cfdd	-0.025733883
22	0xbe2d8816	-0.16946444
23	0xbe83e618	-0.25761485
24	0xbd4f8e81	-0.05067301
25	0xbde66c7e	-0.11251162
26	0xbb9a969b	-0.0047176606
27	0x3bb81910	0.005618222
28	0x3cde0fce	0.027107146
29	0xbdc7c34e	-0.09754048
30	0x3def584d	0.11686764
31	0xbe088f9a	-0.1333603
32	0x3d96dd94	0.073664814
33	0xbd8db1c3	-0.06918671
34	0xbd9fb275	-0.0779771
35	0xbe4a2264	-0.19739681
36	0x3d6a5e32	0.057218738
37	0x3984d733	0.00025337338
38	0x3d3fe074	0.046844915
39	0xbe27df97	-0.16393887
40	0xbdb1e2be	-0.08685826
41	0x3e85ab2b	0.26107153
42	0x3e4f82de	0.20264766
43	0x39cd9180	0.00039209053
44	0x3e2b32c8	0.1671859
45	0x3d0921e4	0.033479586
46	0xbe02cb22	-0.12772802
47	0xbe009bea	-0.12559476
48	0x3dd8719d	0.10568545
49	0x3ccbeca8	0.02489312
50	0xbd4f74d3	-0.05064852
51	0x3ddedb7b	0.10881706
52	0xbe20c3a5	-0.15699632
53	0xbdab02e9	-0.083501644
54	0xbd559cbd	-0.05215143
55	0xbe401bc0	-0.18760586
56	0x3cce871d	0.025210911
57	0xbb92e8f3	-0.004483336
58	0x3e71ff57	0.2363256
59	0x3cf8c9f8	0.030369744
60	0xbc0c30b5	-0.008556535
61	0x3d18a3de	0.03726565
62	0x3daed600	0.08536911
63	0xbdb3985f	-0.08769297
64	0x3deb2122	0.11480929
65	0x3e35b57c	0.17745012
66	0x3d71d405	0.05904009
67	0xbe92850f	-0.2861714
68	0x3de52b0b	0.111898504
69	0xbe48b22e	-0.1959922
70	0x3dd904c0	0.10596609
71	0xbe751f5e	-0.23937747
72	0xbd36a631	-0.044592086
73	0x3e354bdf	0.17704724
74	0x3df83990	0.12120354
75	0xbe826a4c	-0.25471723
76	0x3d8aa600	0.06769943
77	0xbd72e9ab	-0.059304874
78	0x3c2e3cd3	0.010634619
79	0xbe1eb8e1	-0.15500213
80	0x3e6bfda7	0.2304598
81	0x3ea1ff3d	0.31640044
82	0xbe07e7cd	-0.13272019
83	0x3d99a8e8	0.075029194
84	0x3ce110e8	0.027473882
85	0x3d61266d	0.054968286
86	0xbe1c8234	-0.15284044
87	0xbee76f33	-0.45202026
88	0xbd352724	-0.04422678
89	0xbe99efcb	-0.3006576
90	0x3d833ca1	0.064080484
91	0x3e22b328	0.15888655
92	0x3c7d40b0	0.015457317
93	0xbd0facf7	-0.03507706
94	0x3ca3e172	0.020004962
95	0x3d8c3fae	0.068480834
96	0x3e572e72	0.21013811
97	0x3d63b777	0.055594888
98	0xbe21c457	-0.15797554
99	0xbea544ae	-0.3227896
100	0xbd7792ae	-0.06044262
101	0xbe5ab0ce	-0.21356508
102	0xbbca4506	-0.006172779
103	0xbf052a04	-0.52017236
104	0x3e092027	0.13391171
105	0x3e2ec6e4	0.17068058
106	0x3d30a739	0.043128226
107	0x3cc5fb53	0.024167692
108	0x38668c6c	5.496705e-05
109	0xbe4b3164	-0.1984306
110	0x3e420252	0.18946198
111	0x3cfc618c	0.030808233
112	0x3daa1044	0.08303884
113	0x3e60e15b	0.21960966
114	0xbd82e2de	-0.06390928
115	0xbd20a407	-0.03921893
116	0xbda68b85	-0.0813208
117	0xbdc31ac4	-0.095265895
118	0xbe4e707a	-0.20160094
119	0xbef27616	-0.47355717
120	0xbd4fb825	-0.050712723
121	0xbe3cfe96	-0.18456492
122	0xbb9386b3	-0.0045021414
123	0x3d509bda	0.05092988
124	0x3d4ec8e9	0.05048457
125	0x3df0877c	0.117445916
126	0xbe10d3e1	-0.14143325
127	0x3d400805	0.046882648
128	0x3c2b87ce	0.01046939
129	0x3d01fb03	0.031733524
130	0x3d4f7ea1	0.050657872
131	0xbdcd1470	-0.10013664
132	0xbd66401a	-0.056213476
133	0xbdc88310	-0.09790623
134	0xbdc6b1d0	-0.09701884
135	0xbe5e6592	-0.21718433
136	0xbe293b29	-0.16526474
137	0x3cda6558	0.026659653
138	0x3e1661e8	0.14685786
139	0xbd66c1a7	-0.056337025
140	0x3d2416f7	0.040060963
141	0xbe1f4aad	-0.1555583
142	0x3e03d012	0.12872341
143	0xbdf613af	-0.12015473
144	0x3e02d077	0.12774836
145	0x3ee4b6c2	0.44670683
146	0xbe541fa9	-0.20715202
147	0xbe0de370	-0.13856292
148	0xbe45eb65	-0.19328077
149	0xbd9f64a5	-0.07782868
150	0xbe5b3475	-0.2140673
151	0xbec84d76	-0.39121598
152	0x3db8907a	0.09011932
153	0xbe2c5870	-0.16830611
154	0x3d8c8e8f	0.068631284
155	0x3de91b6b	0.11382183
156	0x3e5c5ad9	0.2151903
157	0x3c23b477	0.009991757
158	0xbe7ca753	-0.24673204
159	0xbc156486	-0.009118205
160	0x3cb8b8b4	0.02254901
161	0x3d596f6a	0.05308477
162	0xbc093c05	-0.008376126
163	0xbe27d896	-0.16391215
164	0xbd99676e	-0.07490431
165	0xbd8797ca	-0.06620748
166	0xbe6843f7	-0.22682177
167	0xbe2955b8	-0.16536605
168	0xbe9c7b59	-0.30562857
169	0x3e0ce7cb	0.13760297
170	0x3d37493a	0.04474757
171	0xbd1a84eb	-0.037724417
172	0x3dc4d075	0.096100725
173	0xbe20c337	-0.15699469
174	0x3e27a144	0.16370112
175	0xbbaec2c2	-0.0053332755
176	0x3e61495e	0.22000644
177	0x3de457a8	0.111495316
178	0x3e1479e5	0.14499624
179	0xbcc9ec2d	-0.02464875
180	0xbe471895	-0.19442971
181	0x3dc91765	0.09818915
182	0x3dbdc2ca	0.09265669
183	0xbe9da3ac	-0.30788934
184	0x3e378c48	0.17924607
185	0xbe1ed48d	-0.15510769
186	0x3e217ba5	0.15769823
187	0x3d2c2489	0.04202703
188	0x3db7607b	0.08953949
189	0x3cc86c32	0.024465654
190	0xbe94e686	-0.29082125
191	0x3d5bde15	0.05367859
192	0x3e58f04b	0.21185414
193	0x3dca9571	0.09891785
194	0xbdc562b1	-0.096379645
195	0xbce861f9	-0.02836703
196	0x3ddb7b12	0.10716833
197	0xbd0298c3	-0.031883966
198	0xbb616f22	-0.0034398516
199	0xbe89130b	-0.2677234
200	0x3cf11adf	0.029431758
201	0xbc4a26ee	-0.012338383
202	0x3d1297e9	0.035789404
203	0xbe376756	-0.17910513
204	0x3b64999a	0.0034881593
205	0xbd6bc42a	-0.057560124
206	0xbcaf16e5	-0.021373222
207	0xbde4c3d3	-0.11170163
208	0x3e07751a	0.13228264
209	0x3e8c45f8	0.27397132
210	0xbe480c64	-0.19535977
211	0x3dad9078	0.08474821
212	0xbe4f0c31	-0.20219494
213	0x3d65e339	0.0561249
214	0xbcc16650	-0.023608357
215	0xbee98f40	-0.45617104
216	0xbd120817	-0.035652246
217	0xbd49a36a	-0.04922811
218	0x3d2c3b1b	0.042048555
219	0x3e735943	0.2376452
220	0x3c4ffd45	0.0126946615
221	0x3d347d81	0.044065002
222	0xbdf1959f	-0.11796116
223	0xbd17d79f	-0.037070867
224	0xbd22c892	-0.03974206
225	0x3eb9292b	0.3616422
226	0x3dc04c65	0.09389571
227	0xbebed075	-0.37268415
228	0xbe2e3487	-0.17012225
229	0xbe95a466	-0.2922699
230	0x3b08c835	0.0020871286
231	0xbed97df2	-0.424789
232	0xbde1b1c2	-0.11020233
233	0x3d5f2d95	0.05448683
234	0x3c45732b	0.012051384
235	0xbe950fa1	-0.29113486
236	0x3bf9685f	0.007611319
237	0xbebbeab3	-0.367025
238	0xbd835607	-0.06412893
239	0xbe25cd43	-0.16191582
240	0x3e350a2f	0.17679666
241	0x3e578f68	0.21050799
242	0xbe42aa08	-0.19010174
243	0x3dd150a0	0.10220456
244	0xbda230fd	-0.079195
245	0xbd6f3bad	-0.05840652
246	0x3cebe8cd	0.028797532
247	0xbef92b88	-0.48666024
248	0x3e23db26	0.16001567
249	0xbe89cedd	-0.26915637
250	0x3eb8a899	0.3606613
251	0x3e28fd85	0.1650296
252	0x3e532796	0.2062057
253	0xbd6ef1b8	-0.05833599
254	0xbe1cdba5	-0.15318163
255	0x3e1f8711	0.15578867

weight_hh_l0 f4 [128, 32]
0	0x3d949e95	0.072568096
1	0x3d2ad060	0.041702628
2	0xbe096746	-0.13418302
3	0xbe0dcfee	-0.1384885
4	0xbdab6fde	-0.08370946
5	0xbd86665b	-0.065624915
6	0x3e15fb6c	0.14646691
7	0x3cae5201	0.021279337
8	0x3e11f85a	0.14254895
9	0xbe085638	-0.1331414
10	0xbd5ec228	-0.05438438
11	0xbdbc57c0	-0.091964245
12	0xbe1e5c5f	-0.15464924
13	0xbd0add74	-0.0339026
14	0x3d9060a9	0.070496865
15	0x3d963593	0.07334437
16	0x3d996da4	0.074916154
17	0x3b9171c1	0.0044386094
18	0x3e2b285f	0.16714619
19	0x3d7a4ec5	0.061110277
20	0x3e470ce5	0.19438513
21	0x3da6e717	0.08149546
22	0xbc5c0e14	-0.013431091
23	0xbd0954c6	-0.033528112
24	0x3db644b1	0.088998206
25	0xbdc4c4b5	-0.096078314
26	0x3dab898a	0.08375843
27	0x3de22820	0.110428095
28	0xbdfa9bd0	-0.1223675
29	0xbd99c2f6	-0.07507889
30	0x3de66800	0.11250305
31	0xbdf7483d	-0.12074325
32	0x3e331e12	0.1749194
33	0x3dce47db	0.10072299
34	0xbe252f6f	-0.16131376
35	0x3dc7d156	0.097567245
36	0xbdd3eda9	-0.103480645
37	0xbe54dc98	-0.20787275
38	0x3defab5d	0.11702607
39	0xbe28cc11	-0.16484095
40	0x3dcf3a0a	0.10118492
41	0x3d4fa95b	0.05069862
42	0xbdbbacbf	-0.09163808
43	0xbd97d7fd	-0.07414243
44	0x3b5ebc98	0.0033986922
45	0xbae3b607	-0.0017372974
46	0x3d1bde14	0.038053587
47	0x3c745234	0.014912177
48	0xbd9f4cc6	-0.07778315
49	0x3d5d7abc	0.054072127
50	0xbde68b23	-0.11257007
51	0xbd9d1745	-0.07670454
52	0x3e21a28b	0.15784661
53	0xbd7c0be9	-0.061534796
54	0xbd9dc14e	-0.077028856
55	0xbe3698a5	-0.17831667
56	0x3cc2eccd	0.023794556
57	0x3d732622	0.05936254
58	0x3dbd6461	0.092476614
59	0x3de491ee	0.111606464
60	0x3e452aed	0.19254656
61	0xbd7048ec	-0.058663294
62	0x3d2d78d8	0.042351574
63	0xbdbe2235	-0.09283868
64	0x3d818f08	0.06326109
65	0xbc7c85a1	-0.015412719
66	0xbe34e5aa	-0.17665735
67	0xbd5698bd	-0.052391756
68	0x3e197497	0.14985882
69	0x3d93e2b8	0.072209775
70	0x3e3a343a	0.18183985
71	0x3d3cb5d9	0.04607186
72	0x3de41b46	0.111380145
73	0x3def333e	0.116796955
74	0xbe21e0b3	-0.15808372
75	0x3d59ef7d	0.05320691
76	0xbd60fc83	-0.054928314
77	0x3dcbbd34	0.09948197
78	0xbe0cb6c0	-0.13741589
79	0x3e4dc99f	0.20096444
80	0x3dfca7bb	0.123366795
81	0x3df3ec9f	0.11910366
82	0xbd5fc65e	-0.054632537
83	0xbe20ee8c	-0.15715998
84	0xbd9240df	-0.071412794
85	0x3d5fa6c3	0.054602396
86	0x3da35a81	0.079762466
87	0xbe4aab23	-0.19791846
88	0x3e1cb869	0.15304722
89	0xbd1127cd	-0.035438348
90	0x3db14c08	0.0865708
91	0x3ce38088	0.02777125
92	0x3d20a41e	0.039219014
93	0x3d1de050	0.038544
94	0xbdafd500	-0.085855484
95	0xbd8f13b6	-0.069861814
96	0x3d626c1e	0.05527889
97	0x3e268a4e	0.16263697
98	0x3de0ed4a	0.10982759
99	0xbd70c9d0	-0.058786213
100	0x3d33ed1d	0.0439273
101	0xbac92ec2	-0.0015349018
102	0xbd255576	-0.040364705
103	0x3df9671c	0.1217787
104	0x3cd64f47	0.02616085
105	0x3e54a985	0.20767792
106	0x3dcc0f1b	0.09963819
107	0xbe1ffaaa	-0.15622965
108	0xbe420161	-0.18945839
109	0xbd5ccd0e	-0.053906493
110	0xbe24e17f	-0.16101645
111	0x3d820e30	0.06350362
112	0xbddec76f	-0.10877883
113	0xbd9d9823	-0.076950334
114	0xbe0812cd	-0.13288422
115	0x3da9cf96	0.08291547
116	0xbc59235c	-0.013253059
117	0x3c07fc0b	0.008299838
118	0xbd859c25	-0.06523923
119	0xbe38d47b	-0.18049805
120	0xbdb960c5	-0.090516604
121	0x3dbaaf68	0.09115487
122	0xbd2d7612	-0.04234893
123	0xbc3a8526	-0.011384284
124	0x3ddfa33d	0.10919807
125	0x3e3cfdc3	0.18456177
126	0xbd2c1851	-0.042015377
127	0x3e4b49d3	0.1985238
128	0xbcca35c4	-0.02468384
129	0x3e4126d5	0.1886247
130	0x3e26b907	0.1628152
131	0x3dfc6f18	0.12325877
132	0xbdff78b0	-0.12474191
133	0xbe10f691	-0.14156558
134	0x3d61ee06	0.055158637
135	0xbdff928e	-0.12479125
136	0xbde88b23	-0.11354663
137	0x3c96ad84	0.018393286
138	0x3d034151	0.032044712
139	0x3d3ab73c	0.045584902
140	0x3d873635	0.06602136
141	0xbe2be16a	-0.16785207
142	0xbd221807	-0.039573696
143	0xbc4428f5	-0.011972656
144	0x3e0a6574	0.13515264
145	0xbded11f6	-0.115756914
146	0xbcff161f	-0.031138478
147	0xbe3edd4a	-0.18639103
148	0x3d599655	0.053121883
149	0xbe06ff4c	-0.13183326
150	0x3da015d7	0.078166656
151	0x3d01f752	0.031730004
152	0x3e4f9eb3	0.20275383
153	0xbdc587e5	-0.096450604
154	0xbd462f3d	-0.048384894
155	0xbd2b58ca	-0.041832723
156	0x3de6fabc	0.112782925
157	0x3db09c87	0.08623605
158	0x3ce3babe	0.027799007
159	0x3dbd6bfd	0.09249113
160	0xbdcd9e0c	-0.10039911
161	0xbe0f9664	-0.14022213
162	0xbdb90d7f	-0.09035777
163	0x3d6d566c	0.057943746
164	0x3ddfc7d6	0.109267876
165	0x3e0fbce7	0.14036904
166	0x3cca82de	0.024720605
167	0xbc412770	-0.011789188
168	0x3e06b7ab	0.13156001
169	0x3da366ea	0.07978614
170	0x3d0c2edd	0.03422438
171	0x3dac8749	0.08424241
172	0x3d97250f	0.07380115
173	0x3bf6317a	0.0075132223
174	0x3c9d381b	0.019191792
175	0xbc512821	-0.012765915
176	0x3d5253cd	0.05134945
177	0xbd69df97	-0.057097998
178	0x3e054d1b	0.13017695
179	0xbdb3d1bf	-0.0878024
180	0xbdd8f457	-0.10593479
181	0xbe3c9bb0	-0.18418765
182	0xbe0de113	-0.1385539
183	0x3c9aa3e2	0.018876974
184	0x3cef3f3f	0.029204963
185	0xbe073a83	-0.13205914
186	0xbdd855b9	-0.10563225
187	0xbe47b9ac	-0.19504422
188	0x3deb279b	0.114821635
189	0xbe002aa7	-0.1251627
190	0x3dd9f9ec	0.10643372
191	0x3dcf4879	0.10121245
192	0x3db4da35	0.08830682
193	0x3e2cde0d	0.1688158
194	0x3dd624d1	0.10456241
195	0x3e201031	0.15631177
196	0xbc92568d	-0.017863536
197	0xbdf9195e	-0.121630415
198	0xbdd9d99a	-0.10637207
199	0x3c069763	0.008214804
200	0x3dba0fba	0.09085031
201	0x3e471d8f	0.1944487
202	0xbd4791fd	-0.04872321
203	0x3de25e14	0.110531
204	0xbdb0a3a4	-0.08624962
205	0x3d4ecac4	0.05048634
206	0xbd86b37c	-0.06577203
207	0x3d9aa53a	0.07551046
208	0xbe2ec2e9	-0.1706654
209	0xbe18fefa	-0.14941016
210	0xbbd776cc	-0.006575441
211	0x3dfa77d8	0.1222989
212	0x3d834561	0.06409717
213	0x3de72ad8	0.11287469
214	0x3e36697e	0.1781368
215	0x3d387827	0.04503646
216	0x3e3fa011	0.18713404
217	0x3dbe9f4d	0.09307728
218	0xbe0fbe55	-0.1403745
219	0x3e06b20a	0.13153854
220	0xbda2d384	-0.079505
221	0x3df3ef46	0.11910872
222	0x3d10ee7c	0.035383686
223	0x3dda2a22	0.106525674
224	0x3e02d7fd	0.12777705
225	0xbdc19ef0	-0.09454143
226	0xbd6f46a5	-0.05841698
227	0x3e0aecc1	0.13566877
228	0x3af0f9fa	0.0018385046
229	0x3df7a489	0.120919295
230	0x3e0fc3df	0.14039563
231	0x3cb8d758	0.022563621
232	0xbde7b928	-0.113146126
233	0x3d624a2b	0.055246513
234	0xbd99ef9d	-0.07516406
235	0x3dbaae8b	0.09115323
236	0x3deec66e	0.11658941
237	0x3cebad5d	0.02876919
238	0xbdf076c8	-0.11741406
239	0xbb2e44ae	-0.002659123
240	0xbe52ce8f	-0.20586608
241	0x3c02160d	0.007939828
242	0x3e3d6ef6	0.1849936
243	0x3de22079	0.1104135
244	0xbdb4d067	-0.08828812
245	0xbdffe3c2	-0.12494613
246	0x3d76148d	0.060078193
247	0xbdebe3da	-0.115180686
248	0x3da5b55a	0.08091231
249	0xbd1c33d7	-0.038135376
250	0xbdc3f969	-0.095690556
251	0xbd6a8f3f	-0.057265516
252	0xbcb52d88	-0.022116438
253	0x3c41fd59	0.011840188
254	0x3dc79937	0.0974602
255	0x3e41698a	0.18887916

bias_ih_l0 f4 [128]
0	0xbe5cbb67	-0.21555863
1	0xbde40899	-0.111344524
2	0xbeb071d3	-0.3446184
3	0xbd700df7	-0.058607068
4	0xbd3da255	-0.04629739
5	0xbd9c221f	-0.076236956
6	0xbe705cd0	-0.23472905
7	0xbedc70bc	-0.4305476
8	0xbe99c301	-0.3003159
9	0xbe2799a0	-0.16367197
10	0xbd559693	-0.052145552
11	0xbc864640	-0.01639092
12	0xbda9236b	-0.082587086
13	0xbeb41719	-0.35173872
14	0xbea498b2	-0.32147747
15	0xbe125606	-0.14290628
16	0xbe2be452	-0.16786316
17	0xbeb29068	-0.34875798
18	0x3c436328	0.011925496
19	0xbe6347ae	-0.22195312
20	0xbe43368c	-0.19063777
21	0xbe63fa41	-0.22263433
22	0xbce7e5b0	-0.028307766
23	0xbe3e24ad	-0.18568678
24	0xbe97366d	-0.2953371
25	0xbe8a855c	-0.2705487
26	0xbe24d26b	-0.16095893
27	0xbdfe4d0d	-0.1241704
28	0xbe959fc5	-0.29223457
29	0xbdd474ee	-0.10373865
30	0xbdcb030e	-0.09912692
31	0xbd42ff07	-0.047606494
32	0xbdb61ad2	-0.08891834
33	0x3d83aa8d	0.06429014
34	0xbc5a3767	-0.013318873
35	0xbe11c4e2	-0.14235261
36	0xbd8be34f	-0.06830465
37	0xbdfbf5a5	-0.12302712
38	0xbc58558b	-0.013203989
39	0xbd943baf	-0.07237946
40	0x3d1e44ca	0.03863982
41	0x3dc5638d	0.096381284
42	0x3adf2763	0.0017025288
43	0xbe6749a5	-0.22586687
44	0xbe469e0f	-0.19396232
45	0xbe6f9171	-0.23395325
46	0xbe87e0f6	-0.2653882
47	0xbde7e7e9	-0.1132353
48	0x3d94be8c	0.072629064
49	0xbeb01215	-0.34388795
50	0xbd54c66f	-0.051947054
51	0xbe2746bd	-0.16335578
52	0xbe1901dc	-0.14942116
53	0xbd8aecd0	-0.0678345
54	0xbe182861	-0.14859153
55	0x3d680fb6	0.056655608
56	0xbdb1fe2e	-0.08691059
57	0xbdb35f54	-0.08758417
58	0x3d8427c2	0.06452896
59	0x3ced321d	0.02895456
60	0xbcd421ec	-0.025895081
61	0xbcea837f	-0.028627155
62	0xbcca4df6	-0.024695378
63	0xbe6195ae	-0.22029755
64	0x3d53ed8e	0.05174022
65	0xbdc1d137	-0.09463733
66	0x3d929b2e	0.071585044
67	0xbe0f5feb	-0.14001434
68	0x3d94e423	0.07270076
69	0xbd822739	-0.063551374
70	0xbdb70d38	-0.08938068
71	0xbd4d02fc	-0.050051674
72	0x3e017639	0.12642755
73	0xbe159431	-0.14607312
74	0x3debcb3c	0.11513373
75	0xbe025bbe	-0.1273031
76	0xbe180b7d	-0.14848132
77	0x3d2adccf	0.041714486
78	0xbd82b355	-0.06381861
79	0xbd420909	-0.047371898
80	0x3e15e2bc	0.14637274
81	0x3d8d74e1	0.069070585
82	0xbe1cf6fa	-0.15328589
83	0x3d847040	0.064667225
84	0xbd9fe067	-0.07806473
85	0x3d97504a	0.07388361
86	0xbdaba9a3	-0.08381965
87	0x3de4251e	0.11139892
88	0xbe0519ac	-0.12998074
89	0x3cd58729	0.026065426
90	0x3d8a7ba0	0.06761861
91	0x3dc23225	0.094822206
92	0xbd615275	-0.055010278
93	0xbd4827be	-0.048866026
94	0x3cb82b20	0.022481501
95	0x3d04fe8c	0.032469317
96	0xbe0a1eca	-0.13488308
97	0x3c8b6e80	0.017020464
98	0xbe842e4c	-0.25816572
99	0xbe242124	-0.16028267
100	0xbe35470e	-0.17702886
101	0xbe0e3ecf	-0.13891147
102	0xbde034a0	-0.109475374
103	0xbe140a90	-0.14457154
104	0xbd8c7221	-0.06857706
105	0xbe71dcaf	-0.2361934
106	0x3cf3d536	0.029764753
107	0xbd5d276c	-0.053992674
108	0xbe43b324	-0.19111305
109	0xbe8c6645	-0.27421775
110	0xbdb40ff6	-0.08792107
111	0xbc7066d0	-0.01467295
112	0xbe3b864a	-0.18312946
113	0xbdeefeaa	-0.11669667
114	0x3bee7e5e	0.0072782477
115	0xbd12b42d	-0.03581636
116	0x3b8df26f	0.004331879
117	0xbe812c0f	-0.25228927
118	0xbe1445a3	-0.1447969
119	0xbe44d891	-0.19223239
120	0xbeae6d4d	-0.34067765
121	0xbda467f3	-0.08027639
122	0xbd0ff2bc	-0.0351436
123	0xbcd32f7e	-0.025779482
124	0xbde8aa8a	-0.11360653
125	0xbe382438	-0.17982566
126	0xbdddc8a3	-0.10829284
127	0x3d95de93	0.07317843

bias_hh_l0 f4 [128]
0	0xbea25974	-0.31708872
1	0xbe3975fb	-0.18111412
2	0xbc34ec96	-0.011042735
3	0xbea4e6d4	-0.32207358
4	0xbe3cbe9a	-0.18432084
5	0xbeb87666	-0.3602783
6	0xbe1d1eba	-0.15343753
7	0xbe62bac4	-0.22141558
8	0xbe2a9cee	-0.16661426
9	0x3cbff69c	0.023433022
10	0xbe02cca9	-0.12773384
11	0xbda58427	-0.08081847
12	0xbe25fc85	-0.1620961
13	0xbdd32bfc	-0.10311124
14	0xbd0b721f	-0.03404438
15	0xbe94bb3b	-0.29049096
16	0x3daada26	0.0834239
17	0xbe086779	-0.13320722
18	0xbe78c2ba	-0.24293032
19	0x3baadb4e	0.0052141314
20	0xbcb40a49	-0.02197756
21	0xbe3f2e5f	-0.18670033
22	0xbe43c879	-0.19119443
23	0xbe26f961	-0.16306068
24	0xbeaba549	-0.3352454
25	0xbe29d82c	-0.1658637
26	0xbe9707ac	-0.2949804
27	0xbe832c30	-0.2561965
28	0xbe88d1bf	-0.26722524
29	0x3d828ed5	0.06374899
30	0xbcd3ee7b	-0.025870552
31	0xbe6a08c6	-0.2285491
32	0xbe9b1761	-0.30291274
33	0xbe0692d3	-0.13141946
34	0xbea72966	-0.32648772
35	0xbdfb0332	-0.12256469
36	0xbd36afbc	-0.044601187
37	0xbe9931bd	-0.2992076
38	0x3ada01e6	0.0016632646
39	0xbea97b55	-0.33101907
40	0xbdcfaca3	-0.1014035
41	0xbd0b885b	-0.034065586
42	0x3d35f8b9	0.044426654
43	0xbdd88174	-0.10571566
44	0xbe8f949c	-0.28043067
45	0xbd0c5a27	-0.034265663
46	0xbdd70087	-0.104981475
47	0xbd74d3ce	-0.059772305
48	0xbe3236d3	-0.17403726
49	0xbe5c3929	-0.2150618
50	0xbe7f1af7	-0.2491263
51	0x3d820d54	0.063501984
52	0xbe7ea07a	-0.24865904
53	0xbe8a3483	-0.26993188
54	0xbd90ef34	-0.070768744
55	0xbe0a4a38	-0.13504875
56	0xbe948b69	-0.29012612
57	0xbe348246	-0.1762782
58	0xbe17d8f5	-0.14828856
59	0xbe3f0ed6	-0.18658003
60	0xbe532919	-0.20621146
61	0xbe5f8356	-0.21827444
62	0xbe16c463	-0.14723353
63	0xbe1378c0	-0.14401531
64	0xbcc01ed5	-0.023452202
65	0xbdb2e323	-0.08734729
66	0xb8318218	-4.2321248e-05
67	0x3d637a51	0.055536572
68	0x3d52a5fe	0.051427834
69	0x39b6107b	0.00034726024
70	0xbd00364d	-0.031301785
71	0x3d9ff906	0.07811169
72	0xbd13aa18	-0.036050886
73	0x3e062f18	0.13103902
74	0x3d552db3	0.052045535
75	0x3e01ef41	0.12688924
76	0x3ddb1409	0.10697181
77	0xbd0ce649	-0.034399305
78	0x3ded07ae	0.115737304
79	0xbdbb16a3	-0.09135177
80	0xbe0df413	-0.13862638
81	0xbdb68f9d	-0.08914111
82	0x3d3c4394	0.045962885
83	0x3c07e1a3	0.008293542
84	0x3da07738	0.07835239
85	0x3c8969bc	0.01677405
86	0xbddfdbf9	-0.10930628
87	0xbdc6f279	-0.09714217
88	0x3c6c672c	0.014428895
89	0x3d6b9510	0.057515204
90	0x3d477790	0.048698008
91	0x3d810dfa	0.06301494
92	0xbca614fe	-0.020273682
93	0x3d98a8b8	0.074540555
94	0xbd3dc008	-0.046325713
95	0xbdced665	-0.10099486
96	0xbeb23b7f	-0.34811017
97	0x3d020fc5	0.03175332
98	0xbdc229c8	-0.094806254
99	0xbe2b92ea	-0.16755262
100	0xbd658534	-0.056035236
101	0xbe159a80	-0.14609718
102	0x3d73a39d	0.059482206
103	0xbeefd5a0	-0.4684267
104	0xbe987e5d	-0.29783908
105	0xbcb58543	-0.02215827
106	0xbe0f6998	-0.14005125
107	0xbd67275e	-0.056434028
108	0xbe7d28b2	-0.24722555
109	0xbde213a1	-0.110389
110	0xbe718840	-0.23587132
111	0xbdf79b74	-0.12090197
112	0xbe39080e	-0.18069479
113	0xbe35bd5d	-0.17748018
114	0xbdb97bcf	-0.09056818
115	0xbe3f7f24	-0.18700844
116	0xbe9898f3	-0.2980419
117	0xbda38d07	-0.07985883
118	0xbd98587c	-0.07438752
119	0xbde43396	-0.11142652
120	0xbe0b7105	-0.13617332
121	0xbe5578df	-0.2084689
122	0xbe313247	-0.17304336
123	0x3ce3d948	0.027813569
124	0xbe328506	-0.17433557
125	0xbe498774	-0.19680578
126	0xbced21ff	-0.028946875
127	0xbde2c42b	-0.11072572
