experiments/pedestrians/models/06_Aug_2023_21_23_08/model_registrar-97.pt (torch, 713991 bytes, 82 tensors)

weight f4 [64, 10]
000000 5d 6d 4c bc 03 86 b4 bc 9e 06 00 3e 6c 42 ca 3c
       -0.012477246 -0.022036558 0.12502524 0.024689876
000010 d4 e3 35 bf e2 a2 5e 3f a6 e1 f1 3c 3f d9 6c be
       -0.71050763 0.8696729 0.029526543 -0.23129748
000020 4d f2 16 be bb ab 09 3e e5 c9 02 3d 21 a3 97 3e
       -0.14740868 0.13444416 0.031930823 0.29616645
000030 be b5 c2 3e 9f 6e a5 3d 03 df 63 be 9b b6 3b be
       0.38029283 0.0807774 -0.22253041 -0.18331377
000040 33 6f 96 be 63 09 c1 be d4 93 f2 bd 3e d5 ac 3d
       -0.29381713 -0.37702474 -0.11844602 0.0843911
000050 d6 23 4c bc 05 e7 da 3d 34 69 8c bc 5e 23 04 3f
       -0.012459716 0.10688595 -0.017140009 0.51616466
000060 d5 97 e7 bd 2d 51 34 bd 48 b1 84 be ac ee b2 bc
       -0.113082565 -0.044022728 -0.25916505 -0.021842323
000070 0c de 20 3c c1 15 18 be c8 ba be 3b fb 67 ca 3c
       0.009818565 -0.14852048 0.005820606 0.024707785
000080 9b f2 52 bd 0f c2 6d bd cf 6a 1f bf af e7 3e 3f
       -0.051500898 -0.058046397 -0.6227235 0.7457227
000090 00 92 8b be 94 2b 58 be 35 15 0c bd 77 96 81 be
       -0.27259827 -0.21110374 -0.034199912 -0.25310108
0000a0 a6 7f 3c 3d 90 42 4d bd 98 71 2e 3d 6d a7 fa 3d
       0.046020173 -0.050112307 0.0425888 0.12238965
0000b0 60 38 21 3f 84 4b e2 3e 57 c3 8d 3e c0 54 21 3e
       0.62976646 0.4419824 0.27688095 0.15754986
0000c0 df c1 81 be 2e e9 2c 3e 1d 8f df 3a 7b c9 5e 3d
       -0.25343224 0.16885826 0.0017056201 0.054391365
0000d0 1e 4e c1 3e 40 bb 28 be 32 22 52 bb 33 01 dc 3e
       0.3775491 -0.1647768 -0.003206384 0.42969665
0000e0 ad 85 3a 3e be c8 e0 ba 33 67 49 bd 96 fd ad 3d
       0.18215056 -0.001714967 -0.049170684 0.08495633
0000f0 44 e6 14 bd 0f 79 53 3e 19 d6 e7 3e ad 0d 88 bb
       -0.03635241 0.20651649 0.4528053 -0.004152021
000100 32 42 03 3f 51 cf 04 bf f8 c9 86 be 15 85 88 3e
       0.5127288 -0.5187884 -0.26325965 0.26664034
000110 21 f2 9d 3e e8 09 68 3e 4c ac 0a bd 32 79 1a be
       0.30848792 0.22660029 -0.03385572 -0.15085295
000120 ad f3 56 3d e5 e8 bf be dc 95 3c bf e0 b2 af be
       0.05247848 -0.37482372 -0.7366617 -0.34316158
000130 b1 e0 c5 3e 8f ac 2a 3c 23 46 0b 3d 51 82 bf 3c
       0.38647988 0.010417118 0.034002434 0.02337757
000140 0d a9 18 3e d3 55 8d 3d 7f 12 db be 8c c0 db 3c
       0.14908238 0.06901135 -0.4278755 0.026825212
000150 48 20 3a bf 76 b7 37 be b8 58 1d be c4 d9 35 be
       -0.7270551 -0.17941079 -0.15365875 -0.17758852
000160 0e 57 66 3e c0 c1 c5 3d d7 21 36 bd b9 a1 dc 3d
       0.22494146 0.096560955 -0.044465866 0.10773034
000170 ff 1d 04 3f 9a 10 a2 3e 10 43 89 3d 0d bd ca 3e
       0.5160827 0.3165329 0.06702244 0.3959736
000180 06 8b 12 3e 00 25 75 be 38 c0 95 3e a8 4e 87 3e
       0.14310846 -0.23939896 0.29248214 0.26427197
000190 2b 2c 41 be fc fb 08 3e 77 cc 98 3e 74 51 5c 3e
       -0.18864505 0.13377374 0.29843494 0.21515447
0001a0 d2 aa 93 be 20 c7 94 ba c2 86 f8 bd b3 e1 07 3e
       -0.28841263 -0.0011350848 -0.12135078 0.13269691
0001b0 5b b4 6d 3e a6 77 82 be 43 8a d4 3b c3 52 3f bd
       0.23213331 -0.2548191 0.0064862086 -0.046709787
0001c0 87 3e 0f 3f 9c 33 10 3d 4d c8 4d bf 4f c3 63 bf
       0.55954784 0.03520547 -0.8038376 -0.8896989
0001d0 19 43 12 3e e2 6f e7 3e 28 7d 9b bd 08 8a 81 bc
       0.14283408 0.45202547 -0.07592231 -0.015812889
0001e0 00 41 fb bd 24 7c 09 3e a1 c0 b8 3e a9 71 05 3e
       -0.12268257 0.13426262 0.36084464 0.13031639
0001f0 b7 6f 2b 3e 22 16 71 3e be 67 55 3e f8 c0 98 bd
       0.16741835 0.23543599 0.20840356 -0.07458681
000200 1f ed 3c 3d 1c dd 33 be d8 fe 05 bc be 2a 1a 3e
       0.046124574 -0.17564815 -0.008178435 0.15055367
000210 77 72 93 bc 42 9b 24 bf 82 be 7c bd e2 e6 02 3c
       -0.017998917 -0.64299405 -0.06170512 0.007989617
000220 98 ae 70 bd 72 1c a6 be 81 50 46 be 12 11 b5 be
       -0.058760256 -0.32443577 -0.19366647 -0.35364586
000230 d9 68 dc 3c a5 37 2c be bf 4e a8 be 71 6c bc 3e
       0.026905464 -0.16818102 -0.32872579 0.36801484
000240 fc 6f 42 be d4 98 68 bc 8b 54 b1 3e d7 2f f8 3d
       -0.18988031 -0.014196593 0.34634814 0.121185
000250 a1 39 b2 3d 33 a5 e8 3e 3b 0c 99 3c 95 3f 02 3d
       0.08702398 0.45438537 0.01868259 0.031798918
000260 c0 04 14 3d 71 47 c0 be 17 20 cb 3e 35 09 50 bf
       0.036137342 -0.37554505 0.3967292 -0.8126405
000270 04 d5 67 be 3c 92 2d 3e b0 89 56 be fe bd db 3d
       -0.22639853 0.16950315 -0.20950961 0.107295975
000280 5d 5a 36 be 54 cb 83 3e 02 3f a2 bc 6a d9 7a 3d
       -0.17807908 0.25741065 -0.019805435 0.0612425
000290 ab 1b 61 bf 66 32 03 be 0f 32 94 3c da f0 42 3e
       -0.8793284 -0.12812194 0.018090276 0.1903719
0002a0 a2 5a 6c bd f8 4b b3 3e 75 20 96 3e d4 2b c2 3e
       -0.05770362 0.35018897 0.29321638 0.37924063
0002b0 75 85 32 3e 31 88 c0 3e ba fe 3e be e8 e1 39 3f
       0.17433722 0.37603906 -0.18651858 0.7261033
0002c0 60 4b 37 3c 60 a6 89 3c 0a d7 61 bd 5e fe e9 3d
       0.011187404 0.016802967 -0.055136718 0.1142547
0002d0 d2 9b ae 3c de 78 10 3e 41 4f 29 3f 25 26 6f be
       0.021314535 0.14108607 0.66136557 -0.23354395
0002e0 bf d7 fb bd 6b 08 33 3e 00 08 85 3e 5f 48 26 3c
       -0.1229701 0.1748368 0.25982666 0.010149091
0002f0 e3 27 39 3e f2 a2 92 3e ad 41 90 3e e3 0c 56 3e
       0.18081622 0.28639942 0.28175107 0.20903353
000300 c0 a6 e3 be 44 d8 07 be 25 93 13 bf 88 1a 39 be
       -0.44463158 -0.13266093 -0.576464 -0.18076527
000310 dc 30 8a 3d a2 c1 f5 3d 54 80 7d be dc 4d 5c 3e
       0.067476004 0.11999823 -0.24755985 0.21514076
000320 ed c0 d6 3a 56 82 41 3d ac a1 82 be 97 2d 96 3e
       0.0016384401 0.04724344 -0.2551397 0.29331657
000330 33 90 b2 3e 25 8c 14 bf d5 d7 25 bd cb 70 36 be
       0.3487564 -0.58026344 -0.040489037 -0.17816465
000340 9f 80 43 3e 52 24 0a be 2e a5 76 be f2 ae 48 bd
       0.19092034 -0.13490418 -0.24086449 -0.048994966
000350 bb 2f 89 bc db 14 7c 3d 84 c9 15 3f 4e e2 75 3f
       -0.016746392 0.061543327 0.58510613 0.9604844
000360 4d 10 bc 3e 40 c8 32 3e f0 b3 56 3e 03 3a 6c bc
       0.36731187 0.17459202 0.20967078 -0.014418128
000370 eb ca 03 bc a9 8d 90 3e 50 f5 8e be 1e e1 7f 3d
       -0.008043985 0.28233078 -0.27921534 0.062470548
000380 bc 0b f5 3e 01 2f d2 3e 71 83 70 3e c5 a1 84 3e
       0.47860515 0.41051486 0.23487641 0.2590467
000390 2a f6 cd 3d 31 ab 1d be 6e f5 99 bb 03 34 58 be
       0.10056718 -0.15397336 -0.004698447 -0.21113591
0003a0 b0 fe 04 be d9 91 0e 3f e9 24 bf bd 41 11 06 bf
       -0.1298778 0.55691296 -0.09333212 -0.5237008
0003b0 5d 14 18 be 58 d3 41 3d 11 b9 1a be 2d 29 dd 3d
       -0.14851518 0.047320694 -0.1510966 0.10798869
0003c0 c3 ba e8 3d d6 10 88 be 29 34 2b 3e c9 04 62 be
       0.11363747 -0.26575345 0.16719116 -0.22072138
0003d0 f2 29 b4 3e a1 0d dc 3e cd 26 dc bc ef b7 c2 be
       0.35188252 0.42979148 -0.02687397 -0.38030955
0003e0 c4 de f3 bd af 80 b6 be c1 68 09 be d2 7d fd bd
       -0.119077235 -0.35645053 -0.13418867 -0.12377514
0003f0 ea 6a 53 3e da 30 f0 3e ae 5a 68 be 37 1d f3 be
       0.20646253 0.4691227 -0.22690842 -0.47483227

bias f4 [64]
000000 72 77 4c be 7e 0a e0 bd d0 1e 72 be 19 9e 90 3e
       -0.1996744 -0.10939501 -0.23644567 0.2824562
000010 e8 a2 10 3e 76 a0 97 3e 0a 4f 8e be 5e c7 b6 3a
       0.14124644 0.2961461 -0.27794677 0.0013944914
000020 cf ff 93 3d e5 6d 6b 3e 14 30 c8 bc 50 0b fa 3e
       0.07226526 0.2299114 -0.024436988 0.48836756
000030 ac d8 ee bd 4d a4 cc 3c a7 76 d2 bb 67 b4 50 bd
       -0.11662421 0.024980688 -0.006422836 -0.050953295
000040 d4 db 0f be ea fa 6d be e0 77 73 3e 3d 87 e3 3d
       -0.14048702 -0.23240247 0.23776197 0.11109779
000050 cd 71 ea bd 98 8e 2f 3e fc c4 35 3e 64 66 1a be
       -0.11447487 0.17144239 0.17750925 -0.15078121
000060 19 16 3a be 2f 7e c6 3d b1 f5 ed 3c 23 80 18 be
       -0.18172492 0.09692036 0.029047819 -0.1489263
000070 c9 35 9c be ef 49 43 3d 4f a3 17 3e 8b 80 91 be
       -0.30509785 0.04767793 0.14808391 -0.28418383
000080 a7 09 2a be d0 e5 d7 3d 9c 22 96 be e6 98 73 3e
       -0.16605245 0.1054188 -0.2932328 0.23788795
000090 72 fa 70 3e a4 32 da bd 3b 24 20 be 17 1e df 3d
       0.23533037 -0.1065419 -0.15638821 0.10894411
0000a0 4a 01 1c be dd 5b 96 3e d1 01 e6 3c 0b 7a d7 bd
       -0.15234867 0.2936696 0.028077038 -0.10521325
0000b0 9a 98 3d be a3 ba e4 3d 73 26 1d be a7 39 97 be
       -0.18515244 0.11168411 -0.15346698 -0.29536173
0000c0 12 b7 09 3e 13 a8 05 be 13 06 2a bc 1d ee 80 3e
       0.13448742 -0.13052396 -0.010377425 0.25181666
0000d0 7a 35 bf be e4 e0 b4 be 5b 0f f1 be 0a d6 f9 3d
       -0.37345487 -0.35327828 -0.47082028 0.12199028
0000e0 aa 50 20 3d a6 a3 8f 3e 8a 9e 67 3e 88 37 c2 3e
       0.039139427 0.2805454 0.22619072 0.37932992
0000f0 b2 9c ab be c1 07 fa 3d 1d eb b6 3e b3 ac 09 be
       -0.33517987 0.1220851 0.35726252 -0.13444786

weight f4 [32, 32]
000000 27 73 b8 bd 3e ae 3d be 36 35 5a 3e ab 22 ce 3c
       -0.090063386 -0.185235 0.21309361 0.025163015
000010 b2 eb 1a be ab 22 84 3c 72 ab 6d bd fe d0 c6 3d
       -0.15128973 0.016129812 -0.05802483 0.09707831
000020 0f 7d 27 be 32 c1 0b bf 5e bc e9 3d a6 05 85 3d
       -0.163563 -0.5459167 0.11412881 0.06495218
000030 df c7 1b bd f5 f4 4d 3e a4 82 48 be a6 eb 9b 3e
       -0.03803241 0.20112975 -0.19581085 0.30453223
000040 1b cc 18 3c 89 eb 82 3e bd 09 3c 3e ce 1f b6 3e
       0.009326006 0.25570324 0.1836309 0.3557114
000050 b9 f9 97 be f4 df 43 3e 96 f2 3b 3c 53 34 08 bf
       -0.2968271 0.191284 0.011471411 -0.5320484
000060 93 83 30 bd 72 51 0d 3e 3c 4c 35 3e e6 49 0e 3e
       -0.04309423 0.138006 0.17704862 0.13895378
000070 b2 b0 22 3e 6b af f3 3d b5 96 85 bd e8 91 aa 3e
       0.15887716 0.11898693 -0.06522886 0.33314443
000080 84 ef 2f 3e 6f 89 69 bd d9 2d 18 bf 85 20 cc 3d
       0.17181212 -0.057015833 -0.5944496 0.0996714
000090 dc 74 62 be c5 88 7a 3d 41 e6 40 3e f0 40 97 bd
       -0.22114891 0.06116559 0.18837835 -0.07385433
0000a0 4f 6e b6 be 68 4a b5 be 51 2e 8d be f1 72 9e be
       -0.35631034 -0.3540833 -0.275744 -0.30947068
0000b0 ef 90 ad 3e 26 45 0c bd 28 3d 2a bd 5f fc d1 bd
       0.33899638 -0.034245633 -0.04156223 -0.10253214
0000c0 71 12 d0 3c 2c ac 5b 3e b9 f3 7b 3e f7 a5 f3 3e
       0.025399419 0.21452397 0.24604692 0.4758756
0000d0 75 e9 2e 3e f7 4e f2 bd f6 85 6e bd e6 7d 96 3d
       0.17081244 -0.118314676 -0.058233224 0.07348232
0000e0 20 f1 d9 3d 51 4a ad bc 5d ad 20 3e 4a 88 1a 3e
       0.10641694 -0.0211536 0.15691133 0.15091053
0000f0 cb eb 4f be 27 b7 ac be 54 2d 65 3e 10 bd f8 bd
       -0.20304792 -0.33733484 0.22380573 -0.12145436
000100 99 f9 92 3e d6 3c 5f be fa a4 3f 3e 58 c8 25 bf
       0.28706053 -0.21800551 0.18715277 -0.64758825
000110 6f b1 81 be 31 f6 2d 3d 44 63 62 be a1 d4 5e be
       -0.25330684 0.042471115 -0.2210818 -0.21760799
000120 56 ca 50 be da e3 73 3e ae 80 24 3e a6 d9 b9 bd
       -0.20389685 0.23817387 0.16064712 -0.09074716
000130 12 b4 d6 be ec 94 c6 3e 1b 46 cf be 14 c9 9b 3c
       -0.41934258 0.38785493 -0.40483174 0.01901678
000140 a0 f3 2a 3d 8a 2a c6 3e f0 e7 c0 3e 59 70 01 bf
       0.041736245 0.3870433 0.37676954 -0.50562054
000150 13 50 9c bd cb 83 9c 3d 45 f5 fe bd d8 73 c1 be
       -0.076324604 0.07642325 -0.12449125 -0.37783694
000160 cf bf d2 bd 61 7f b0 bd b3 a8 ba 3c 8b 00 e5 bd
       -0.10290491 -0.086180456 0.02278552 -0.11181744
000170 56 b6 5b 3e 87 c5 71 be 12 67 8c be d8 5d 24 bd
       0.21456274 -0.23610507 -0.27422386 -0.04012856
000180 c7 12 ae 3e 28 16 4c be 61 d6 4f 3e b0 07 4a 3e
       0.339987 -0.19930327 0.20296623 0.19729495
000190 3e 0c 0a be 9c cb 49 3e 1d d9 c5 3e 1f 36 7d be
       -0.13481233 0.19706577 0.38642207 -0.24727677
0001a0 df e5 5a be 97 1c a3 3e d6 d9 0f 3e 28 01 1e be
       -0.21376751 0.3185775 0.14047942 -0.15430129
0001b0 01 67 ab 3e d8 21 4b be 7f 65 21 bd cd 1d 28 bc
       0.33477023 -0.19837129 -0.039403435 -0.010261011
0001c0 0f dc 89 be 22 13 2b 3d 2e 0a 2a be 45 25 96 3e
       -0.26925704 0.041766293 -0.16605446 0.2932531
0001d0 5f d3 7a bd 17 41 1e 3d 36 a2 1d 3e 45 6b 6f 3d
       -0.061236735 0.038636293 0.1539391 0.05845191
0001e0 1e 39 9c bd cc ba 03 bb 21 15 c5 3d ab 26 c0 3e
       -0.07628082 -0.0020100353 0.09623171 0.375295
0001f0 59 25 e0 bd 71 82 5b bb cb e9 77 3e 4f d4 7e 3d
       -0.109446235 -0.0033494497 0.24210279 0.062214192
000200 70 50 9a be ec c8 6b bd 1b e5 69 3e 80 52 20 be
       -0.30139494 -0.05756466 0.22841303 -0.15656471
000210 bf cc 41 3e 6c d7 b8 bd 4c d1 a8 3d 92 6b 8e 3e
       0.1892576 -0.090254635 0.08243045 0.27816445
000220 15 2a 9c 3d 32 a5 91 be 42 2d b9 3d 00 1a 46 3e
       0.07625214 -0.28446347 0.09041835 0.19345856
000230 5d 1a e6 bd 89 35 bf 3d bf cd 16 3d b6 42 88 3d
       -0.11235497 0.09336383 0.03681731 0.06653349
000240 48 28 b9 bd 54 ec 64 3c d6 59 7b 3d 42 8b 91 3e
       -0.09040886 0.013972361 0.06136497 0.28426558
000250 60 c3 41 3e 0d 59 b8 be a1 76 1c 3e 78 f0 2e 3e
       0.18922186 -0.3600544 0.15279628 0.17083919
000260 da b0 18 3e 5e bf d6 3e ff 0c 8b bc bf 1f 83 be
       0.14911214 0.41942877 -0.01697397 -0.25610158
000270 ed 1a ad 3d 5e 67 c0 3e 56 4a 8b 3c ad aa 2c be
       0.08452401 0.37578863 0.01700322 -0.16861983
000280 da 73 01 3f c4 8b 43 bd 2f b2 8e 3c 1d 08 0a bf
       0.505674 -0.047740713 0.017418949 -0.5391863
000290 95 3f 7b bc c0 e4 77 3e f8 2e e1 bc 8f dc 05 be
       -0.015334983 0.24208355 -0.027488217 -0.13072418
0002a0 4c 27 ea bc b6 44 25 3e a9 6d cc 3d 9e 7d ea 3d
       -0.028583191 0.16139492 0.099818535 0.11449741
0002b0 36 30 0d be c7 a6 28 3e 2a 95 7c be db 02 00 be
       -0.13787922 0.1646987 -0.24666277 -0.1250109
0002c0 63 99 c4 bd cf b6 09 be 07 0b f7 3d 8a f8 c3 be
       -0.09599569 -0.13448642 0.1206265 -0.38275558
0002d0 2f 9f 0f be 84 48 db 3d fc 44 57 be cb 33 35 bc
       -0.14025567 0.10707191 -0.21022409 -0.011059712
0002e0 12 ab 7d be 83 06 c1 3e 33 20 95 3c c9 bc 2b 3d
       -0.2477229 0.3770028 0.01820383 0.041928086
0002f0 30 30 c5 bd 27 bf 8e be b2 ce 77 bd e3 48 44 3d
       -0.09628332 -0.27880213 -0.060499854 0.047921073
000300 d0 f6 2b be 94 b6 8e bb 44 55 06 3e 6a 06 3b 3d
       -0.1679337 -0.004355261 0.13118464 0.045660414
000310 9d 89 ad 3c 97 00 00 be 5c 9b 04 3f f3 8c 94 3e
       0.021183783 -0.12500225 0.5179956 0.29013786
000320 a1 93 f1 3d 8e 15 31 3e 6f 83 6c 3d b3 a0 b8 3e
       0.11795736 0.17293379 0.057742532 0.36060104
000330 01 d3 57 be c6 78 3e be 04 be 6d 3e 19 bc 2d be
       -0.21076585 -0.18600759 0.23217016 -0.16966285
000340 1f 90 b6 bd bc 19 99 be 5d 94 89 be 42 72 6c 3d
       -0.08914208 -0.29902446 -0.26871005 0.057726152
000350 b2 2f 48 3d 5a 64 b9 be 8f 9d bb 3e 25 dd ea 3e
       0.04887361 -0.36209375 0.36643645 0.45871845
000360 ec aa 23 3e b9 4b 5b 3e ef f7 3c 3d c9 c4 00 be
       0.1598317 0.21415605 0.046134885 -0.12575068
000370 5a 25 e2 bd 6c e3 37 bc 0e 4f a6 3d 16 50 cf bd
       -0.110422805 -0.011223655 0.08120547 -0.10122697
000380 d2 9c 88 3e 88 8f 89 bc 29 08 44 3e 0a 5c 87 be
       0.26682144 -0.016792074 0.19143738 -0.26437408
000390 bb 04 c1 3d 07 64 75 3e 4f b0 97 3e 2b 09 3b 3e
       0.094247304 0.23963939 0.296267 0.18265216
0003a0 ea de fc bd fc 6f 0e 3c fd da dc bd f8 a3 42 3e
       -0.12347205 0.008693691 -0.10783956 0.19007862
0003b0 2f ba 93 3e 81 f0 e6 3d 9b fc 3f bc f7 2d 91 3e
       0.28852984 0.11276341 -0.011717941 0.2835538
0003c0 0e 2a a9 3d cb a2 10 3e ae 43 e2 3c d9 bc f8 3e
       0.082599744 0.141246 0.027620163 0.4858158
0003d0 b4 83 29 3e 15 00 a3 3d 44 9c d2 3d d5 1f 89 bd
       0.16554147 0.07959 0.102837116 -0.066955246
0003e0 8b fa 2f 3e 3b f3 c4 3d 27 dd b2 3d 29 6e 5d 3e
       0.17185418 0.09616705 0.08733588 0.21624054
0003f0 16 2f 1e 3d cd ab 82 bd 91 ac 28 3e 6c ee c1 bd
       0.038619123 -0.06380425 0.16472079 -0.094693035

bias f4 [32]
000000 a3 05 2f be 98 6c a8 bd 89 19 63 3e 13 fc ad bd
       -0.17091994 -0.082238376 0.2217771 -0.08495345
000010 ae eb 62 be 94 93 ed 3d c0 c0 84 3d ac 9b 1d 3e
       -0.22160217 0.11600414 0.06482077 0.15391415
000020 83 cc bc 3d 75 71 c7 bc 66 ad fe 3d a7 ab 23 3e
       0.09218695 -0.024346093 0.12435417 0.15983449
000030 42 eb e9 bd 83 b1 57 bb a8 0d 19 bd 02 40 3f 3e
       -0.11421825 -0.0032912202 -0.03736654 0.18676761
000040 90 be 3f be 38 d8 ac 3d 7d dc 36 3d 69 44 34 bd
       -0.18725038 0.08439678 0.044643868 -0.044010554
000050 15 73 1b 3e d4 0e de bd 23 b3 b0 bd 1e f0 c4 3d
       0.15180619 -0.10842672 -0.086279176 0.09616111
000060 3b c0 c0 bd f4 61 90 3d 5d 68 3c be 3a 1b 86 be
       -0.09411665 0.07049933 -0.18399186 -0.26192647
000070 e8 52 59 be 3a 00 3d be 48 7c b5 bc 3d 55 85 bc
       -0.21223032 -0.18457118 -0.022153988 -0.016275996

weight f4 [32, 64]
000000 08 c8 50 bd a0 ad 87 3b 08 4a 7e bd 08 15 41 3d
       -0.050972015 0.0041405708 -0.06208232 0.047139198
000010 48 20 da bd c4 a8 bb 3d 34 12 ba bd de 87 cb bd
       -0.106506884 0.09163049 -0.09085503 -0.09938024
000020 5a c3 a1 bd a8 e1 67 3d 14 2e 3d bd e4 98 3f 3d
       -0.078985885 0.056611687 -0.04618652 0.046776667
000030 54 46 d9 bd 3e 52 9b bd 80 fe 3b bd 78 3c c9 bc
       -0.10609117 -0.07584046 -0.045897007 -0.024564967
000040 04 4b c3 bd 5e a0 a7 3d b8 7d f1 bc 80 58 24 3d
       -0.095357925 0.081848845 -0.029478893 0.040123463
000050 5c 07 b5 3d 00 c7 be 3c bc 01 0c 3d 32 1b f7 3d
       0.08839294 0.02328825 0.03418134 0.12065734
000060 b4 ea 66 bd 38 2d 22 3d 0c cc 63 bd 48 f3 b6 3d
       -0.056376174 0.039593905 -0.055614516 0.08933121
000070 c0 74 cc 3d 60 06 ec bd 88 88 da 3d c4 7c 74 3d
       0.09983206 -0.115246534 0.106705725 0.0596893
000080 dc 1c 5f 3d 0c c7 52 3d 04 d0 d4 3d 60 35 87 bc
       0.05447088 0.051459357 0.10391238 -0.016504943
000090 b2 7f d8 bd f8 ea 12 bd 58 4b b4 bd f0 62 07 3c
       -0.10571231 -0.035868615 -0.08803433 0.008263335
0000a0 40 30 bf bc 86 50 89 bd 00 35 3a bc 0e 89 f2 3d
       -0.023338437 -0.06704812 -0.011365175 0.11842547
0000b0 70 89 21 bc 60 0c 82 3b 20 b4 9f bc e0 fa a0 3c
       -0.009859428 0.0039687604 -0.01949507 0.019650877
0000c0 68 19 e4 3d cc 8a 9c 3d 84 bd 35 3d a8 86 de 3c
       0.11137658 0.07643661 0.04437019 0.027163818
0000d0 b0 73 f1 3c 78 cd 45 3d 28 53 84 bc bc ed ed bd
       0.02947411 0.048291653 -0.016152933 -0.1161761
0000e0 3e 50 9e bd 98 84 da 3d 00 d5 f4 3b fa 60 cf bd
       -0.07730149 0.106698215 0.0074716806 -0.10125919
0000f0 50 83 a1 3c 8a 86 d3 3d 80 eb f1 bd 6a 59 ac bd
       0.019715935 0.10328396 -0.11812496 -0.08415492
000100 78 e9 4b bd 40 67 a4 3b b0 d3 ee bc a0 0e 61 bc
       -0.0497832 0.005017191 -0.029153675 -0.013736397
000110 66 92 f9 bd 48 c2 6f 3d c8 b3 e0 3d 1e 7a 9c 3d
       -0.121861264 0.05853489 0.109717906 0.076404795
000120 2a 48 b5 bd ca 5c ce bd f4 9b 54 3d 00 fb 37 3b
       -0.08851655 -0.10076292 0.05190654 0.0028073192
000130 78 e2 51 3d 98 26 fa bd 40 37 f4 bb da 8a b4 3d
       0.051241368 -0.122143924 -0.0074528754 0.08815546
000140 cc 85 6d 3d 40 93 95 3b 80 56 c9 3c a0 e7 41 bc
       0.057988927 0.0045646727 0.02457738 -0.011835009
000150 e4 c1 8c bd 04 7c 41 bd 18 e6 9b bd ce a2 d4 3d
       -0.06872919 -0.04723741 -0.07612246 0.10382615
000160 96 df 8c 3d d8 0e 33 3d 72 50 c4 bd 02 89 c5 3d
       0.06878583 0.043715328 -0.09585656 0.09645273
000170 ac 88 20 3d 74 19 b1 3d 6c 6a 49 bd b8 15 d9 3c
       0.03919284 0.08647433 -0.049173757 0.026499614
000180 32 f4 f9 3d 64 33 ac 3d a8 4f cd 3d 40 06 d7 bc
       0.1220478 0.084082395 0.10024959 -0.026248097
000190 62 0a c3 3d e8 81 c8 bd 20 21 31 3c 5e 24 90 bd
       0.09523465 -0.09790403 0.01081112 -0.070381865
0001a0 f8 cf ee bc 34 1f 03 bd c0 3a 19 3c ea fe e8 3d
       -0.029151902 -0.03201218 0.009352386 0.11376746
0001b0 a4 7b 7d 3d 00 d0 0a ba 70 b8 b5 3d 4a 30 83 bd
       0.06188549 -0.00052952766 0.08873069 -0.06405695
0001c0 62 ef 83 3d a0 ea 3d bc e8 2f b2 bc 30 c4 6f 3c
       0.06442143 -0.0115915835 -0.02175136 0.014634177
0001d0 ea 1e c4 bd 50 a9 6c 3c 64 27 2c 3d ce dc da 3d
       -0.09576209 0.014444664 0.042029753 0.106866464
0001e0 5c 68 1f bd 88 55 38 3d 06 e0 ff 3d d4 a1 5b bd
       -0.038917884 0.045003444 0.12493901 -0.05362113
0001f0 06 5a f3 3d 34 34 7e bd e0 af 61 3d 78 93 48 3d
       0.11882405 -0.062061504 0.055099368 0.048968762
000200 18 04 0f 3d 12 72 ca 3d a4 ee 4e bd 38 90 06 3d
       0.034916013 0.098850384 -0.050520554 0.03285238
000210 00 e6 37 3a 5a 8c c0 bd 38 a4 f8 bc 74 f6 aa bd
       0.00070151687 -0.0940177 -0.030351743 -0.083477885
000220 30 62 62 3d 60 1b 38 3c b0 a1 48 3c 68 53 1b bd
       0.05526942 0.011236995 0.012245581 -0.03792134
000230 00 91 1d 3a 0c 41 1f bd b8 1d 13 3d 94 9e f8 3d
       0.00060106814 -0.038880393 0.035917014 0.121396214
000240 18 1b 9b 3c 30 c6 62 bd 3a 5f 9c bd 10 8c 1c 3c
       0.018933818 -0.055364788 -0.076353505 0.009554878
000250 a2 e9 bd bd 26 6c c0 bd e0 9f a6 bd ec e5 2d bd
       -0.092730775 -0.09395628 -0.081359625 -0.0424556
000260 80 96 17 3c da 48 b0 3d 58 51 46 3d 5c 20 c4 3d
       0.009252191 0.08607645 0.04841742 0.095764846
000270 e2 bd a0 bd b0 d3 2c 3c b0 8d e3 bd 32 db 92 3d
       -0.07848717 0.010548517 -0.11111009 0.071707144
000280 68 69 d5 3c 62 9b f7 3d 00 12 b6 bd 46 4b cd 3d
       0.026051238 0.12090184 -0.08890152 0.10024123
000290 3a 1f d8 3d 02 fb ce 3d 98 1e 92 3c 88 c6 e8 3d
       0.10552831 0.1010647 0.017836854 0.11365992
0002a0 3c f7 aa 3d 0e ff be 3d 30 0a 05 bc 34 74 c4 bd
       0.083479375 0.093259916 -0.008120105 -0.095924765
0002b0 00 e2 cb ba 08 0a c0 3c 18 61 ae bd 04 da 92 bd
       -0.0015555024 0.023442283 -0.08514613 -0.071704894
0002c0 68 70 f5 bd f4 7a 33 bd 58 fe de 3d 98 19 af 3c
       -0.119843304 -0.04381843 0.10888356 0.021374509
0002d0 20 2f fa bb c0 7c a4 3b b0 a0 9f 3d 74 10 e2 bd
       -0.0076350123 0.005019754 0.077943206 -0.110382944
0002e0 e6 86 c5 bd 90 39 2a bd 28 55 93 bd 7e 0a 84 3d
       -0.096448705 -0.041558802 -0.07193977 0.06447314
0002f0 a8 e2 b4 3d b8 60 f8 bd 12 43 d9 bd 20 4c f9 bd
       0.08832294 -0.12127823 -0.10608496 -0.12172723
000300 80 27 41 3d f2 0a ce 3d b0 7c c6 bd a0 08 6d bd
       0.04715681 0.100606814 -0.09691751 -0.057869554
000310 d0 ed 22 3d 0c 2a a7 bd 7e 77 d9 3d d0 c1 ee 3c
       0.039777577 -0.08162317 0.106184945 0.029145151
000320 4c 88 0e bd d0 04 05 3c 20 a0 1f 3d c8 0c 35 bd
       -0.03479795 0.008118823 0.038971066 -0.044201642
000330 f4 5c c6 bd 00 41 5c 3a 80 37 15 3b 80 31 25 3b
       -0.09685698 0.000840202 0.0022768676 0.0025206506
000340 c0 6e 95 bc ee 5e a4 3d d8 e0 0e bd 40 3b 46 bc
       -0.018241286 0.08025919 -0.034882396 -0.012099087
000350 30 87 52 3d ce 22 a1 bd a8 17 09 3d 28 6c e2 bc
       0.051398456 -0.078679666 0.033469826 -0.027639464
000360 c4 97 75 3d f2 de 8a bd a0 61 97 3b c0 5a 48 3c
       0.059959188 -0.06780805 0.004619792 0.012228668
000370 0a fa cd bd fe 25 ba bd dc 5b 44 3d 5c 05 15 bd
       -0.10057457 -0.09089278 0.047939166 -0.036382064
000380 9c 09 98 3d 90 e4 fc bd a4 18 7d bd 82 db d2 bd
       0.07423708 -0.12348282 -0.061791077 -0.10295774
000390 84 87 4c 3d 40 7f 6d bb 78 ff be bc 40 5d aa bc
       0.049933925 -0.0036239177 -0.023315176 -0.020796418
0003a0 24 1a c8 bd 5c 33 11 3d 40 31 4c 3b 3e ab b0 bd
       -0.09770611 0.03544937 0.0031157285 -0.08626412
0003b0 c8 a8 40 3d c0 a6 24 bb fc 96 f7 bd 24 b5 89 3d
       0.047035962 -0.0025123805 -0.12089345 0.06724003
0003c0 5c ee 88 3d 98 ee c0 bc 8e c0 b0 bd 60 74 a4 3b
       0.066860884 -0.02355127 -0.08630477 0.005018756
0003d0 24 2c c1 3d b6 53 ea 3d a4 3a c1 bd 28 41 67 bd
       0.09432247 0.11441748 -0.09435013 -0.056458622
0003e0 ee 53 c7 3d 24 41 7a 3d a2 77 9e 3d 08 d7 7e bd
       0.09732805 0.06109728 0.07737662 -0.06221679
0003f0 86 8d dc 3d ea 72 d2 bd c0 4c c5 bb 00 17 2a 3b
       0.10769181 -0.10275824 -0.006021112 0.002595365

bias f4 [32]
000000 e0 a0 c4 3b fa 90 f5 bd 28 42 82 3c 5c 20 34 3d
       0.006000623 -0.11990543 0.015900686 0.043976173
000010 f6 1a e5 3d 3c f4 25 bd 5c ac 38 3d 40 91 2b bd
       0.11186783 -0.040516123 0.04508625 -0.041886568
000020 b4 0b 34 bd e8 d6 e2 bd a8 23 d8 3c c2 c6 ab 3d
       -0.043956473 -0.11076146 0.02638419 0.083875194
000030 72 69 8e bd e4 52 51 3d f8 ba 9f bc a4 c1 b5 bd
       -0.06953706 0.05110444 -0.019498333 -0.08874825
000040 40 60 5a 3c e2 78 f9 bd 9e 3b 89 3d 98 41 e2 bc
       0.013328612 -0.1218126 0.06700824 -0.027619168
000050 34 c5 eb 3d 20 35 97 3b 8a 30 f8 bd d2 a8 c6 3d
       0.11512223 0.0046144873 -0.12118633 0.09700169
000060 10 fb df bc e6 5a af bd bc 5c ec 3d 60 47 3f 3c
       -0.027341396 -0.085622594 0.11541125 0.011674732
000070 34 ff 25 3d 52 76 dd bd 78 d2 34 bd e6 66 cd 3d
       0.040526584 -0.108135834 -0.04414603 0.10029392

weight_ih_l0 f4 [128, 32]
000000 08 fa 9a bc 8d 0a f7 3d 0d 3a 00 be f0 3e 1e 3d
       -0.018918052 0.12062559 -0.12522145 0.03863424
000010 cf b8 38 be 14 6a 20 3e 7f 13 28 be 2a 3e c5 be
       -0.18039249 0.15665466 -0.16413687 -0.3852399
000020 76 ce 29 be e5 da 9c 3e c6 14 60 be 3f c8 09 be
       -0.16582665 0.30635753 -0.21882924 -0.13455294
000030 e4 88 56 3d 97 51 dd bd 03 17 08 3e f7 9b 4d 3e
       0.052376643 -0.10806578 0.13290028 0.20079027
000040 96 db d2 3d ba a3 19 3e 18 13 8f be 3d ab 89 3d
       0.10295789 0.15003863 -0.27944255 0.06722114
000050 42 f1 8e be 7c 73 81 bd cc 57 82 be 8e d2 a5 be
       -0.2791844 -0.06320855 -0.2545761 -0.32387203
000060 54 61 15 be 4f 17 78 be 1c 23 61 bc 4c ee 82 bc
       -0.14587909 -0.24227642 -0.013741281 -0.01598277
000070 6c 65 94 3d bf a0 1a be da fe 8e 3e 41 49 c4 be
       0.07245907 -0.15100382 0.2792881 -0.38337138
000080 80 dd 51 bc 3f 65 fc bd 9b 4e 8a be 90 f2 13 be
       -0.012809157 -0.12323999 -0.27013096 -0.14447999
000090 2d b8 9d 3d 3b 54 21 3d f7 58 bd 3d 42 41 6c be
       0.07701144 0.03938697 0.09245484 -0.23071769
0000a0 71 b5 d7 bd d8 30 99 3e f1 11 13 3e f7 49 8b bb
       -0.10532654 0.29920077 0.14362313 -0.0042507607
0000b0 b9 a1 ac 3e 37 11 21 3d ee 73 88 bd 50 39 81 be
       0.33717135 0.039323058 -0.06662737 -0.25239038
0000c0 38 73 5e 3b a6 2b 5a 3d 66 e2 d3 bd cf 21 27 3e
       0.0033943187 0.053264283 -0.103459165 0.1632149
0000d0 74 a3 96 be fb ee 4e bd 65 92 e0 bc 56 dc c8 be
       -0.2942158 -0.05052088 -0.027413556 -0.39230603
0000e0 ba 66 c9 3d 7f a5 76 3d 81 e6 32 3e db 56 5d bc
       0.09834047 0.060216423 0.17470743 -0.0135094775
0000f0 1a 5f 9b bd c2 67 0d 3d cc 53 47 3e 0a d1 11 be
       -0.075864986 0.03452278 0.1946556 -0.14239898
000100 55 a8 32 3e f6 bd 99 3e ed 27 d0 3d 90 dd ec bd
       0.17447026 0.3002774 0.10163865 -0.11565697
000110 1f 6f b1 3d e1 58 93 be ec c8 4d 3d b4 a7 9f be
       0.08663773 -0.28778747 0.050240442 -0.31182635
000120 f2 02 c7 b9 5c b7 83 3e 40 66 5c 3e ee b9 97 be
       -0.00037958432 0.2572583 0.2152338 -0.2963404
000130 d8 97 09 be 5c ce f6 bd 39 e7 1c 3d ff df 1e be
       -0.1343683 -0.12051079 0.03830645 -0.15515135
000140 ea 40 e1 3e 65 30 ed 3e fd ea 0c 3c fe 70 18 3e
       0.43994838 0.46325985 0.008600947 0.14886853
000150 78 a4 7b bc e1 1f 13 3e ba ad 9a be 85 74 19 bf
       -0.015359037 0.1436763 -0.30210668 -0.5994342
000160 cd ed 9d bd 19 bc cd be db a4 11 3e 9d 3c 8e 3e
       -0.077113725 -0.4018257 0.14223044 0.2778062
000170 57 a1 13 3e 36 5f 39 be 22 4a 20 bb 80 f8 1a 3c
       0.14417015 -0.18102726 -0.002445825 0.009458661
000180 6c 56 2c 3d 95 c5 30 3d 6c 9f 12 be c8 6f 08 bf
       0.042074606 0.04315718 -0.14318627 -0.53295565
000190 7e d3 4b be 42 82 a9 bd 46 56 82 3d 80 d1 27 bf
       -0.19904897 -0.08276798 0.063641116 -0.65554047
0001a0 f9 eb 56 3d 2e ad 91 3e 26 9d db bd 0c e4 53 3e
       0.052471135 0.28452438 -0.10723333 0.20692462
0001b0 89 4d ca 3e 20 b5 25 be fc ed 13 3e 25 8f ad 3e
       0.3951228 -0.16182375 0.14446253 0.33898273
0001c0 30 64 9c 3d d7 23 84 3e aa f2 5d be 73 9e 77 be
       0.07636297 0.25808594 -0.216746 -0.24181537
0001d0 0b 10 e5 3c 07 f2 84 be 01 a0 36 be 99 7b 18 bf
       0.027961751 -0.25965902 -0.17834474 -0.59563595
0001e0 eb 14 12 be 77 ef a7 be af 31 17 bd 09 0b ca 3d
       -0.14265792 -0.32799885 -0.036912616 0.09865386
0001f0 a9 a4 2f bc bb 42 c4 3d a3 c9 41 3d 9f 19 29 bd
       -0.01072041 0.0958304 0.047311436 -0.0412842
000200 e3 6c 08 be d9 c1 8a 3c e8 fc e6 3d 9d 23 da be
       -0.13322787 0.016938137 0.11278707 -0.42605296
000210 5f 12 96 be f7 42 8c bd 8d 57 c4 bd 66 b9 e6 be
       -0.2931089 -0.0684871 -0.095870115 -0.45063323
000220 96 0a 15 bd 28 f2 4e 3e 77 34 9f 3d 38 83 54 3e
       -0.03638705 0.20209563 0.07773679 0.20753181
000230 06 11 d6 3e a2 f8 4a be 8f 44 0b bd 74 f5 1d 3e
       0.41809863 -0.19821408 -0.03400093 0.15425664
000240 17 63 98 3d 84 20 20 3f f9 e5 95 be 34 cd a3 be
       0.07440775 0.62549615 -0.29277018 -0.31992495
000250 f7 0f 30 bd 75 8f bd be 2e 90 46 be 27 7d 16 bf
       -0.042983975 -0.37023512 -0.19390938 -0.5878472
000260 1c 71 89 be 34 e1 a2 be 9c ee b0 3d 24 6f 77 3e
       -0.26844108 -0.3181244 0.08639261 0.2416349
000270 70 d3 61 3e 3e 11 0a be 66 b2 3d be a3 5c c5 bd
       0.22053313 -0.1348314 -0.18525085 -0.0963681
000280 a5 28 59 be 69 39 2d 3c 62 e1 68 be f9 85 17 be
       -0.21206911 0.01057277 -0.22742227 -0.147972
000290 76 f0 8b be bc b0 29 3e 0c e3 4f be e7 55 8a be
       -0.27331895 0.16571325 -0.20301455 -0.27018663
0002a0 11 5b be be e1 e1 39 3e 4b 62 94 be 73 90 82 3c
       -0.37178853 0.18152572 -0.28981242 0.01593802
0002b0 9d 6b 61 3e 96 66 c2 3d c7 d0 6e 3d 88 e6 77 3e
       0.22013707 0.09492223 0.058304574 0.24209034
0002c0 c9 ee a1 3e bf ac 48 3d da 7d 93 3b 96 88 8e be
       0.3162749 0.04899287 0.0045010867 -0.27838582
0002d0 9f 84 c4 be 73 78 10 be 81 3f 80 3d 57 72 cc be
       -0.38382432 -0.14108448 0.062621124 -0.39930984
0002e0 f2 bd e0 bd d0 c3 7b be a4 63 1b 3d 7a f3 b8 3d
       -0.10973729 -0.24586415 0.03793682 0.090308145
0002f0 6f 3f 31 3d a9 12 7c 3c c5 74 77 be f1 5a 4e be
       0.043273386 0.015385308 -0.24165638 -0.20151879
000300 e8 e0 62 3e 9b 71 08 3e da fe b7 be 50 68 c9 3d
       0.22156107 0.13324587 -0.35936624 0.09834349
000310 7a 62 25 3e ab 56 a5 bd 68 a5 ab 3d 17 4d 64 be
       0.16150847 -0.08073171 0.08381158 -0.22295032
000320 a3 1a b5 bd 09 b5 e1 bd 48 cd 9e bd 69 ca 5a be
       -0.08842971 -0.11020858 -0.07753998 -0.21366276
000330 56 63 32 bc ae d4 85 bc 6b 8e 63 3d 61 8b 45 be
       -0.010887941 -0.016336765 0.055555742 -0.1929145
000340 d1 1e 17 3e 3d 5f 00 3e fb c1 46 be 9e d4 02 3e
       0.1475785 0.1253633 -0.19409935 0.1277642
000350 1a 90 69 be 3a 64 46 3d 27 65 3d 3d 9c 7d d6 be
       -0.22808877 0.048435427 0.046239045 -0.41892707
000360 89 73 19 3c e3 a9 dc 3d 27 bf 0d bd 74 ff eb 3d
       0.009365925 0.10774591 -0.034606125 0.11523333
000370 60 da ca bc 7f 45 e1 3c db 1f 99 bd ca 8d 96 bd
       -0.024762332 0.027498959 -0.07476779 -0.07351263
000380 79 b9 87 bd 40 26 b7 3e 62 97 cd bd 0b 10 cf be
       -0.06627173 0.3577137 -0.100386396 -0.40441927
000390 22 a8 f2 bd ef 16 0b bf 6e 29 32 bd 60 ba 0f bf
       -0.11848475 -0.5433187 -0.04349654 -0.5614376
0003a0 f4 09 64 be ae f0 01 3e b9 c4 2a 3e 1f dd 42 be
       -0.22269422 0.12689468 0.16676606 -0.19029664
0003b0 8f 91 e9 3a eb 6f 1b bf d1 86 7f 3d 66 57 06 be
       0.0017819869 -0.6071765 0.06238443 -0.13119277
0003c0 f6 e3 f6 3d ea b3 98 3e 49 f1 6f be bc da 87 3d
       0.12055199 0.29824764 -0.23431887 0.06633517
0003d0 b4 65 1a bd fd 09 ca 3d 51 2d a8 3d e5 89 1f bf
       -0.037694648 0.09865186 0.082117684 -0.62319785
0003e0 67 60 94 3e 15 99 9b be e9 2b f6 3e a3 12 ab 3e
       0.289798 -0.3039023 0.48080376 0.33412656
0003f0 86 79 73 3e f0 6e d9 3c c3 1b ab be 3b 4f 60 3e
       0.23776826 0.026542157 -0.33419618 0.21905224

weight_hh_l0 f4 [128, 32]
000000 4f db a6 3c d5 5b be 3d fd 37 ff bd b7 dd 35 be
       0.020368246 0.09294859 -0.12461851 -0.17760359
000010 f6 ef fb bd 09 1c 15 bb 1d 1c 7f 3e cb 3f 09 3e
       -0.12301628 -0.0022752306 0.24913068 0.13403241
000020 2d f0 dc 3d a4 b0 85 bd f9 c4 ce bb e8 12 b8 bd
       0.107879974 -0.06527832 -0.006310102 -0.08987981
000030 c3 80 c4 bb 17 22 15 bd 91 f1 de 3d 1f 88 18 3e
       -0.005996795 -0.036409464 0.10885919 0.14895676
000040 24 8e 32 3d 22 a2 43 bb 31 9a 2f 3e cb 86 68 bd
       0.043592587 -0.0029851277 0.17148663 -0.056769174
000050 5b e3 9b 3e 69 b8 de 3c 6f 40 8f bd ed c9 d2 bd
       0.30446896 0.027187543 -0.069947116 -0.102924205
000060 32 d8 69 3e e2 db db bd d4 e2 a4 3d 3c f7 5f 3e
       0.22836378 -0.10735299 0.080510765 0.21871656
000070 39 89 e9 bd 1b 89 5e bd ad d2 09 3e c1 36 e5 bc
       -0.11403126 -0.054329973 0.13459273 -0.02798021
000080 a7 05 12 bd 5f 7d 38 3e a4 4f eb bc 5e 48 8a 3e
       -0.03564992 0.18016575 -0.028724499 0.27008337
000090 5a 2f da bd 35 cb b0 3d bd 76 50 3e 86 a7 80 bd
       -0.10653563 0.08632509 0.20357795 -0.062819526
0000a0 ea 40 06 3e fa 56 54 3e 03 e7 3b be a1 8a 30 3b
       0.131107 0.20736304 -0.18349843 0.0026938098
0000b0 1c 59 fc 3d c9 b0 e1 bd 1e 24 81 bc 0e 7e 57 bc
       0.12321684 -0.11020047 -0.015764292 -0.013152612
0000c0 4d fb 4d be 73 50 76 bc fa 0f 0d 3e f3 e2 1a be
       -0.20115395 -0.015033829 0.13775626 -0.15125637
0000d0 fb 86 b3 3d 03 12 15 be 47 f3 fa bd d2 73 98 be
       0.0876598 -0.14557652 -0.12253433 -0.29775864
0000e0 b1 8c 92 3d 2e 48 5b bd e0 36 2c 3e ad c8 b8 bc
       0.07155741 -0.053535633 0.16817808 -0.022556627
0000f0 82 38 68 3e a1 28 df bc e4 cc b9 3d 60 66 44 be
       0.22677806 -0.027241053 0.09072283 -0.19179678
000100 d1 23 69 bd ed 3d be 3d 81 a8 47 be 08 7c 6b 3d
       -0.056918923 0.09289155 -0.19497873 0.057491332
000110 7d 84 90 3e eb 78 26 3e 22 1c 85 3e 4e c6 50 bd
       0.2822608 0.16257064 0.25998026 -0.050970368
000120 65 21 2c 3e 90 26 f4 3d 44 8e 37 be 7b 52 ba 3d
       0.16809614 0.11921418 -0.17925364 0.09097763
000130 f3 b5 84 bc e3 36 9d 3d 2c ce d4 bd f1 28 4f 3e
       -0.016200041 0.076764844 -0.10390887 0.20230462
000140 25 2c fd 3d 93 53 04 3e 48 31 31 3c 1e f1 e7 bd
       0.123619355 0.12922506 0.010814972 -0.11325286
000150 7a 56 17 be b4 d9 ce bd a4 ca 0c 3d 5d 66 a6 be
       -0.14779082 -0.10100117 0.03437294 -0.32499972
000160 dd 86 90 3e d2 04 09 be 81 67 ee 3d 0b f7 a3 bd
       0.28227893 -0.13380745 0.116408356 -0.08006104
000170 3b e9 84 3d df 2c c7 bc 9b 88 36 bd 2e 06 e0 3c
       0.06489798 -0.024313388 -0.04456387 0.027346697
000180 24 9d 0c 3e 86 92 56 3e 8c 4e 28 bd 74 11 51 be
       0.1373182 0.20954332 -0.041090533 -0.20416814
000190 78 38 d1 bd 3d 6c 1d be f0 ac 4b bd 48 a4 8e 3e
       -0.10215849 -0.15373321 -0.049725473 0.27859712
0001a0 b7 6d 56 bd 6b 37 97 3e e7 0d 82 3d fe 8d 44 be
       -0.052350726 0.29534468 0.06350308 -0.1919479
0001b0 e2 f8 22 be 6e 9d 34 be bb 04 4a be 50 0d 61 3e
       -0.15915254 -0.1763818 -0.19728367 0.21977735
0001c0 e4 a7 4e be 8a c9 0d be 76 28 9f be 6e d8 61 ba
       -0.20181233 -0.13846412 -0.31085557 -0.00086153194
0001d0 78 a8 ae 3d 11 64 fd 3d c0 b7 4a be 0c 4c 30 bd
       0.085282266 0.12372602 -0.19796658 -0.043041274
0001e0 27 e7 75 3d 05 b4 aa 3e 53 a2 e9 bd d8 86 39 3e
       0.060034897 0.3334047 -0.11407914 0.18117845
0001f0 c3 68 71 3e 72 f3 44 3e 96 58 fb bd 1d 5f 4f 3e
       0.2357512 0.19233492 -0.12272756 0.20251127
000200 2c 30 56 3c b5 7e 33 3e e2 2f 02 3e 16 a4 39 bd
       0.0130730085 0.17528804 0.12713578 -0.0453225
000210 58 73 1a be 27 4c a8 be cf d9 0e be 61 3f 91 bd
       -0.15083063 -0.328706 -0.13950275 -0.07092167
000220 98 47 cd bd f6 16 8b 3d 9d c0 80 3d ba 50 bf bd
       -0.10023421 0.06791489 0.06286738 -0.09341569
000230 36 4d 1a bd 44 48 72 be cd 53 5a bd 71 e7 33 3d
       -0.03767129 -0.2366038 -0.053302575 0.04392189
000240 bd 14 ee 3d 23 e8 34 be c6 ed 27 be 0a 13 38 be
       0.11625049 -0.17666678 -0.16399297 -0.17976013
000250 52 ff d1 3d 35 d7 44 3c 26 5c ee bc c2 1c f7 3d
       0.102537766 0.0120142 -0.029096674 0.12066032
000260 0b ef aa 3e 81 5e 75 3d 70 30 d7 bc 57 c3 28 3e
       0.333855 0.05990458 -0.026268214 0.16480766
000270 54 51 50 3e 06 8b de 3d fa ef e2 bd 2f 6a e8 3d
       0.20343524 0.1086636 -0.11080928 0.11348378
000280 d2 3c 2b be 22 cb 80 bd 16 8a f2 bc 8e 76 d9 bd
       -0.1672242 -0.062887445 -0.02960686 -0.10618316
000290 31 9f 2e bd 4e a2 26 3e a3 72 06 3e 8f a7 6a 3e
       -0.042632286 0.16272852 0.13129668 0.22915481
0002a0 19 ef ab 3d 21 90 67 3e 2e 34 a3 bb c9 fc b3 3d
       0.08395214 0.22613575 -0.0049805855 0.08788449
0002b0 1a 8c 7f 3e 84 2a 27 bd 0e 3e 4d 3d 2f 05 04 3d
       0.24955788 -0.04081203 0.050108008 0.032231506
0002c0 01 51 a9 bc da 22 fe bd 2c 46 71 3c 8d 34 84 be
       -0.020668508 -0.12408991 0.014726203 -0.25821343
0002d0 00 8b 98 3d d6 21 43 be aa 7e 62 be 38 8e 85 bd
       0.07448387 -0.19055876 -0.22118631 -0.06521267
0002e0 0c 9a 10 3e 8f e5 a7 bd 04 9c 94 bd ef c1 77 bd
       0.14121264 -0.08198082 -0.0725632 -0.060487684
0002f0 e3 01 37 3e 4f 3c 0c be 9f 38 b4 3d 79 22 f9 3c
       0.17871813 -0.13694881 0.08799862 0.030411946
000300 4d 29 3e be 7d 1d a7 3e 98 72 bc 3e 16 3d b8 3e
       -0.18570442 0.32639685 0.36806178 0.35984105
000310 0d 76 09 3e ad 8b 5c 3e ce a6 9f 3c c5 ba 47 3d
       0.13423939 0.21537657 0.019488718 0.0487621
000320 7b d3 72 3e f5 79 83 3e 06 0a fa bc a1 c4 22 3e
       0.23713486 0.25678983 -0.030522358 0.1589532
000330 aa cc f0 3d 91 41 e8 3d 4b e2 26 bd b9 f3 5b bd
       0.117577866 0.11340631 -0.040743154 -0.05369923
000340 1b 8a 7a be 97 b4 5d be f9 a1 89 3e 52 18 5e 3d
       -0.24466746 -0.21650921 0.26881388 0.054222412
000350 cc fa ab bc ef 25 46 3b df 9d e3 3d f7 ec 3b be
       -0.020993613 0.0030235013 0.11114096 -0.18352114
000360 d8 6b 06 3e 09 77 ec bd 4f 89 9d bd d7 76 8f 3d
       0.13127077 -0.11546142 -0.07692205 0.07005089
000370 f0 b4 ef bd 56 99 c0 3d 78 26 01 3e be 05 2c 3e
       -0.11704433 0.094042465 0.12612331 0.16799065
000380 3d 67 96 3d d1 94 2c 3d 42 71 8d bc 81 4e 06 3e
       0.0734391 0.04213411 -0.01726592 0.13115884
000390 fe 0c 21 3e a1 1f 51 3e 31 10 8b 3e df b2 dd 3c
       0.15727612 0.20422222 0.2716079 0.027062831
0003a0 86 34 70 bd 0a a3 00 3d 81 44 32 bd ba 4a 28 3e
       -0.05864384 0.031405486 -0.04352236 0.16434756
0003b0 26 72 15 3e 2d bf 88 3c 9b d9 24 be 90 22 86 bd
       0.14594325 0.016692722 -0.16098635 -0.06549561
0003c0 99 c2 01 be c2 76 05 bd dd f6 d6 3e bf 3d cd 3d
       -0.1267189 -0.03258396 0.41985217 0.10021543
0003d0 c0 ec e4 bd 40 2e 10 be 14 6a ce 3d fb e4 82 be
       -0.11177969 -0.14080143 0.100788265 -0.25565323
0003e0 c9 39 fc bc 09 4c 39 be 11 35 11 be 71 2e 8d bd
       -0.030789273 -0.18095411 -0.141804 -0.068936236
0003f0 8d 55 40 bd 78 9a da bd 8f 0a 9f 3d 8a ec a5 3e
       -0.046956588 -0.10673994 0.07765686 0.32407027

bias_ih_l0 f4 [128]
000000 7f bb 53 be 63 80 70 bd 1f aa cd be c9 ad a2 bc
       -0.20676993 -0.05871619 -0.40168855 -0.019858258
000010 7a 18 12 bd e7 25 a5 bd 0f 60 04 be 74 68 fc be
       -0.035667874 -0.0806387 -0.12927268 -0.4929844
000020 e8 6b cc be ac 8f 52 be 9b ea 9e bd 59 f8 b7 3a
       -0.39926076 -0.20562619 -0.07759591 0.0014035805
000030 39 ce 3d bd 2a ac c9 be 5d b1 ea be b2 f4 79 be
       -0.046339247 -0.39389163 -0.45838442 -0.2440975
000040 15 93 1c be 9e d3 e7 be 1d 46 20 3d 15 01 52 be
       -0.15290482 -0.4527864 0.039129365 -0.20508225
000050 c1 8a a8 be fd 20 97 be 59 e6 a0 bd c0 80 05 be
       -0.3291836 -0.29517356 -0.07856435 -0.13037395
000060 db f9 a9 be 71 52 2c be b6 90 80 be 1f 59 36 be
       -0.33198437 -0.16828324 -0.25110406 -0.17807434
000070 56 9a b5 be 28 e0 22 be ac 0d 65 be 6e 64 70 bd
       -0.3546931 -0.15905821 -0.22368497 -0.058689527
000080 8c 80 97 bc c7 87 18 3e 2f 7f c5 3c ca b8 90 bc
       -0.018493913 0.14895545 0.024108497 -0.01766624
000090 44 6e 18 3d f9 26 8b bd bc cf 8b 3d 70 45 d3 bc
       0.037214532 -0.06794543 0.068267316 -0.025789946
0000a0 82 b1 e8 bc a6 f8 e4 3d 17 3b c2 3d 6c 8c f2 bd
       -0.028404955 0.111802384 0.09483927 -0.118431896
0000b0 30 ae 05 be d2 9a 08 be 86 76 a3 be 46 d1 0f be
       -0.13054729 -0.1334031 -0.31926364 -0.14044675
0000c0 87 3f 1b 3e a1 dc c2 be 1a 83 7a 3d 58 55 a3 bd
       0.15160953 -0.38058951 0.061160184 -0.079752624
0000d0 23 07 46 be af fd de bd eb 43 08 be 23 40 ff 3d
       -0.1933866 -0.1088823 -0.13307159 0.12463405
0000e0 93 a1 a5 bd 28 2c 45 3d 15 44 d1 3a 2c 3a 18 3c
       -0.080874585 0.048137814 0.0015965725 0.009291213
0000f0 b1 ee b1 bb dc 0e 90 bd c0 fb 92 bd af 72 08 be
       -0.0054300656 -0.07034084 -0.07176924 -0.13324998
000100 12 9c 60 3d b6 88 8b bd fa e6 7c 3d d0 ef 3b be
       0.05483634 -0.06813185 0.061743714 -0.183532
000110 b4 fb 91 3d 51 1d 74 bd 17 eb 99 bd eb 11 74 bd
       0.07128087 -0.05959827 -0.07515543 -0.0595874
000120 77 68 0d 3e 5b 07 05 be e8 11 ec 3d 5c 88 ed bd
       0.13809381 -0.12991087 0.11526853 -0.11598274
000130 fa e3 10 be 22 94 64 3c 81 ae a3 bd e2 3f 64 bd
       -0.14149466 0.013951333 -0.07992268 -0.055724986
000140 fd 02 0d 3e 35 70 63 3d 04 41 1d be 2d fa 81 3d
       0.13770671 0.05552693 -0.15356833 0.06346545
000150 fd 21 84 bd 76 14 a2 3d 1f 8a d3 bd 24 c9 d6 3d
       -0.06451795 0.07914059 -0.10329079 0.10487583
000160 44 6f e6 bd 02 9e f4 3c cd 1d 86 3d 4c 8b de 3d
       -0.11251691 0.0298605 0.06548653 0.108664125
000170 f5 fa 58 bd f6 d7 45 bd 6f ab 93 3a 95 0b 52 3d
       -0.052973706 -0.04830166 0.0011266301 0.051280577
000180 de 24 f1 bd d3 37 a0 3d 32 39 a3 be d6 89 e4 bd
       -0.1177461 0.078231476 -0.31879574 -0.111591026
000190 e9 f3 2b be 9e cc 15 be f5 e9 2e bc 27 81 58 be
       -0.16792263 -0.14628837 -0.010675897 -0.21143018
0001a0 a8 b5 2b be b1 86 86 be 82 f9 10 bc 82 3f 64 bd
       -0.16768515 -0.26274636 -0.00884855 -0.05572463
0001b0 21 f3 1a be 33 9c a4 be 09 d5 65 be 87 f2 f6 bd
       -0.15131809 -0.3215042 -0.22444548 -0.12057977
0001c0 9c ac 1f be ac 04 6d be 4e c9 05 3d 8b 36 ba bc
       -0.15593189 -0.23146313 0.032662682 -0.022731086
0001d0 59 6b 0d be 27 d8 a6 be 98 c6 39 be ea 3c 0e be
       -0.13810481 -0.32586786 -0.18142164 -0.13890424
0001e0 b5 ca be be 46 dd b2 3c 26 c9 02 be a8 2c b4 bd
       -0.37264028 0.021834027 -0.12772045 -0.0879758
0001f0 e5 e8 3f be d0 fe 69 be c6 05 6a be 07 50 8c 3d
       -0.18741186 -0.2285111 -0.22853765 0.068512015

bias_hh_l0 f4 [128]
000000 7b d9 9d be c9 91 03 be 61 7e 8b bd ee 0f 91 be
       -0.30829987 -0.12848581 -0.06811214 -0.28332466
000010 ee db 31 be 4b b7 ba be bc 87 44 bd ea 54 91 be
       -0.17369053 -0.36467966 -0.04798101 -0.28385097
000020 82 f7 87 be 54 ba 97 bc 6d dc 1c be 7a 12 81 bd
       -0.2655602 -0.018521465 -0.15318461 -0.06302352
000030 5b de 00 be 4b c0 14 be c0 0e 2f be a5 8a c8 be
       -0.12584822 -0.14526479 -0.1709547 -0.39168277
000040 f2 7c c9 3d db ed 72 be 7c e7 5c be 08 ed b4 3c
       0.098382846 -0.23723547 -0.2157268 0.022085682
000050 d5 60 24 be 2b bb 84 be 13 3f 77 be f9 aa dc bd
       -0.16052563 -0.25924048 -0.24145155 -0.10774798
000060 bd 68 be be de 3e 82 bd 1f 2f c5 be 7e c5 9e be
       -0.37189284 -0.06359647 -0.38512513 -0.3101005
000070 4f cc a8 be af 20 0a 3c 0e 0a 1a be 20 62 75 be
       -0.32968375 0.008430644 -0.15042898 -0.23963213
000080 04 11 6e be ca 81 3f bd db ff 93 be b9 03 0b 3b
       -0.23248678 -0.046754636 -0.2890614 0.0021211936
000090 3b 85 79 3d 1b fc 79 be 56 42 aa 3d d0 a0 91 be
       0.060918074 -0.24412577 0.08313434 -0.28443003
0000a0 d8 7d 2c be 86 bc 98 bc 4b dd 0c 3e 43 72 e1 3a
       -0.1684488 -0.018644582 0.13756292 0.001720019
0000b0 79 39 5e be bb bf 87 3d 10 ab 22 be 05 24 b2 bd
       -0.21701612 0.066283666 -0.15885568 -0.086982764
0000c0 fb ac c2 bd 11 e7 80 be 9e 48 0b be ae a2 16 3e
       -0.0950565 -0.2517629 -0.1360192 0.14710495
0000d0 e2 d2 95 be e9 38 9f be ce 4a 62 bd 08 5c 89 bd
       -0.29262453 -0.31098107 -0.05524712 -0.06707007
0000e0 45 74 91 be 80 1d 26 bd 61 4a 58 be 84 31 53 be
       -0.2840902 -0.040555477 -0.21122123 -0.20624357
0000f0 5a 34 3e be fa 1c 85 be 82 f8 46 be 01 57 69 bd
       -0.18574658 -0.2599867 -0.19430736 -0.05696774
000100 77 c1 a6 bc 2d 35 79 bd b4 ef 21 bc 68 ed 44 3c
       -0.020355923 -0.060841728 -0.00988381 0.012019493
000110 38 d5 4c 3d e0 ec 8c 3b 90 e4 8b bc c4 71 8c 3d
       0.05000803 0.0043006986 -0.01707676 0.068576366
000120 c6 c3 c7 bc fb bb 16 3e 22 bb 55 3d 27 87 0d 3e
       -0.024385344 0.14720146 0.052180417 0.13821088
000130 b7 63 e9 3d 14 9e 7e bd 85 0c cc 3d 2d 32 cc bd
       0.11395972 -0.062162474 0.099633254 -0.09970508
000140 a4 d3 16 be 3d 4c d2 bd 84 1b 3b 3d 8f 66 e8 3b
       -0.14729172 -0.102684475 0.045680538 0.007092304
000150 85 35 bc 3d 25 79 b4 3c 5e de 03 be 8f 4e d4 bd
       0.091898955 0.022030422 -0.12877795 -0.10366546
000160 58 a1 02 3d 80 20 7b 3d 14 bc 3e 3d 16 67 9d 3d
       0.03189215 0.06131029 0.046566084 0.07685678
000170 75 66 95 bc ae d0 99 3d 29 9c 8a bd a9 4f a8 bd
       -0.018237332 0.075105056 -0.067680664 -0.08218319
000180 b0 75 a9 be 3f 64 be 3d 92 2a 1f be 68 6d f3 bd
       -0.330976 0.09296464 -0.15543583 -0.11886102
000190 ec 37 40 bd 37 28 1d be 98 14 22 3e 30 08 09 bf
       -0.04692833 -0.15347372 0.15828168 -0.5352812
0001a0 7f 3c cb be be 85 47 bd 82 f3 36 be 84 3f 6e bd
       -0.39694592 -0.04871153 -0.17866328 -0.058166042
0001b0 dd 68 54 be 70 74 21 be 11 ab be be eb 40 68 be
       -0.20743127 -0.15767074 -0.37239888 -0.22681014
0001c0 70 2e 1d be 17 a1 95 be 47 7f 85 bd b7 18 32 be
       -0.15349746 -0.29224464 -0.06518417 -0.1739224
0001d0 7d 86 e1 be ba 1e 1d be ae 5a e3 bd df f7 6d bd
       -0.4404792 -0.15343753 -0.1110128 -0.058097716
0001e0 cf 2b 2c be 9b d3 d9 bd 26 ff 87 be a7 d4 0c bd
       -0.16813587 -0.10636064 -0.2656185 -0.03438249
0001f0 0d 19 7e be 07 62 7b be b6 c5 18 be 0c 53 ec bd
       -0.24814244 -0.24549113 -0.1491917 -0.115392774
