experiments/pedestrians/models/06_Aug_2023_21_23_08/model_registrar-2.pt (torch, 713991 bytes, 82 tensors)

weight f4 [64, 10]
0	0xbe665abf	-0.22495554
1	0xbe6a3302	-0.2287102
2	0x3e0fbea8	0.14037573
3	0xbc7483ea	-0.014924029
4	0xbca6a85e	-0.020343956
5	0x3eb22395	0.34792772
6	0x3d8fa2cb	0.07013472
7	0xbe4344d7	-0.19069229
8	0xbddababf	-0.1068015
9	0x3e3340a0	0.17505121
10	0xbddded88	-0.10836321
11	0x3e655060	0.22393942
12	0x3e94b424	0.29043686
13	0xbda7b203	-0.0818825
14	0x3cefe9e1	0.029286327
15	0xbe0e26ed	-0.13882037
16	0xbe60f2ba	-0.21967593
17	0xbe9b138f	-0.3028836
18	0xbd357a1b	-0.044305902
19	0x3e2255fa	0.1585311
20	0x3dc6ffd0	0.09716761
21	0x3d6931a5	0.05693211
22	0xbead64cc	-0.33865964
23	0x3ea95042	0.33069044
24	0x3e09a3f3	0.13441448
25	0x3d9073f9	0.0705337
26	0xbe1504f3	-0.14552669
27	0x3dbc0040	0.09179735
28	0x3dfcd765	0.12345771
29	0xbd0edf9c	-0.03488122
30	0xbde700d7	-0.11279457
31	0x3e1a1e6f	0.15050672
32	0xbd2f0ffd	-0.042739857
33	0x3e833a2b	0.25630316
34	0xbe64a4d6	-0.22328505
35	0x3e9ddc5f	0.30832192
36	0xbe596c40	-0.212327
37	0xbe1a7409	-0.15083326
38	0x3cd5959c	0.026072316
39	0xbe4575c7	-0.1928321
40	0x3e2b3b93	0.16721945
41	0xbda91f34	-0.08257905
42	0x3c33fb50	0.010985211
43	0x3de70319	0.11279888
44	0x3e753311	0.23945262
45	0x3e464815	0.19363435
46	0x3e49de64	0.19713742
47	0x3d9f592b	0.07780679
48	0xbeaa95fe	-0.3331756
49	0x3db681ff	0.089115135
50	0xbd2efc79	-0.042721245
51	0x3dcf2350	0.10114157
52	0x3e824dfe	0.25450128
53	0xbdb5a30b	-0.088689886
54	0xbb698956	-0.0035634837
55	0xbde5c7b4	-0.11219731
56	0x3d53f4bc	0.05174707
57	0xbe074a06	-0.13211831
58	0xbe37e246	-0.1795741
59	0xbd3a25c6	-0.04544618
60	0x3c203a44	0.009779517
61	0x3e60fcc5	0.21971424
62	0x3eb03b77	0.34420368
63	0x3e0c2e43	0.13689522
64	0x3e7f982f	0.24960397
65	0xbe569012	-0.20953396
66	0xbe8315b7	-0.25602505
67	0x3e8c3977	0.27387592
68	0x3ea1a699	0.31572416
69	0x3e6f7213	0.2338336
70	0xbe67384d	-0.22580071
71	0xbe0edaf6	-0.13950714
72	0x3eb16bf7	0.34652683
73	0xbe98de67	-0.2985718
74	0xbea64f2d	-0.3248228
75	0xbe50398f	-0.20334457
76	0x3e9a76c2	0.3016873
77	0xbd98523f	-0.07437562
78	0xbd500991	-0.050790373
79	0xbd7b8e80	-0.061415195
80	0xbe31cefa	-0.17364112
81	0xbcc4bf02	-0.02401686
82	0xbd421b48	-0.0473893
83	0x3e0005ce	0.12502214
84	0xbe7880b2	-0.24267843
85	0xbe462f2f	-0.19353937
86	0xbe87a924	-0.26496232
87	0xbe93e993	-0.2888914
88	0x3de8bb0d	0.11363802
89	0xbc718ab4	-0.014742542
90	0xbe4de28c	-0.20105952
91	0xba5b50c1	-0.000836622
92	0x3e88ae67	0.26695558
93	0x3e64bfad	0.22338744
94	0x3e3d7195	0.1850036
95	0xbe1b436e	-0.15162441
96	0x3da98022	0.082763925
97	0xbe9977f7	-0.29974338
98	0x3e6db5a8	0.23213828
99	0x3e50d25c	0.20392746
100	0xbe6ea988	-0.23306859
101	0xbd114c32	-0.035473056
102	0x3dfe6644	0.12421849
103	0x3dabbd2a	0.083856896
104	0xbe729133	-0.23688202
105	0x3e1837a2	0.14864972
106	0xbe3c7c99	-0.18406905
107	0x3d8f5084	0.06997779
108	0x3e2d7ae3	0.16941409
109	0xbea29444	-0.31753743
110	0xbce7b6da	-0.028285433
111	0xbe09428b	-0.1340429
112	0x3ed530cc	0.41638792
113	0xbe8bd477	-0.27310535
114	0xbefa6aae	-0.48909515
115	0xbebdfbb0	-0.37106085
116	0xbb04bd4a	-0.0020254427
117	0x3e9d44ad	0.30716458
118	0xbe621498	-0.22078168
119	0xbe248754	-0.16067249
120	0xbe9ca39e	-0.3059358
121	0x3e96eef0	0.2947917
122	0x3e898843	0.26861772
123	0x3e266620	0.16249895
124	0x3e9eec3b	0.31039605
125	0x3e374473	0.17897205
126	0x3e7de404	0.24794012
127	0xbd0f91ae	-0.03505104
128	0x3daf6e71	0.08565987
129	0xbe0b60ee	-0.13611194
130	0xbd56682d	-0.052345444
131	0x3c3975c7	0.011319584
132	0xbe350c63	-0.17680506
133	0xbe9e0a52	-0.3086725
134	0xbdbf9c68	-0.09356004
135	0x3d88f9e7	0.0668829
136	0x3e0dcce0	0.13847685
137	0xbe02406f	-0.12719892
138	0x3b69f3cf	0.00356983
139	0xbe2029ac	-0.15640897
140	0x3e5c3bda	0.21507207
141	0xbe823046	-0.25427455
142	0xbe507c82	-0.20359996
143	0x3e739e92	0.23790959
144	0xbe3c7c97	-0.18406902
145	0xbbd97ce9	-0.006637205
146	0x3e18bab8	0.14914978
147	0xbd9baced	-0.07601342
148	0xbde1a353	-0.1101748
149	0x3e83addd	0.25718585
150	0xbd06d1d9	-0.03291497
151	0x3e7a1ad9	0.24424304
152	0xbdf1b2dc	-0.11801693
153	0xbe330026	-0.17480525
154	0x3e8def59	0.2772167
155	0xbe446b9e	-0.19181678
156	0xbe8bf79e	-0.27337354
157	0x3dfaf031	0.12252844
158	0xbe8351f4	-0.25648463
159	0x3d771359	0.060321186
160	0xbe3d8538	-0.1850785
161	0x3e93e546	0.2888586
162	0x3e3e04af	0.18556474
163	0x3e619a87	0.22031604
164	0xbeea97ed	-0.45819035
165	0x3e1af623	0.15132956
166	0xbc751f04	-0.014961008
167	0x3e2118c2	0.157321
168	0xbdb9dd9f	-0.09075474
169	0x3ea25ff4	0.3171383
170	0x3e899f21	0.26879218
171	0x3e6cae0a	0.23113266
172	0xbe45d4dc	-0.1931948
173	0x3e85c249	0.2612479
174	0xbe2f5658	-0.17122781
175	0x3e2de1a7	0.16980611
176	0x3e2740ed	0.16333361
177	0x3e2d0109	0.16894926
178	0x3dc6ad08	0.09700972
179	0x3e88659d	0.26640025
180	0xbddc878f	-0.10768043
181	0x3e7c4f2e	0.2463958
182	0x3e92467c	0.285694
183	0xbd9833a0	-0.07431722
184	0xbda43c05	-0.0801926
185	0x3ce6f3b0	0.028192371
186	0x3e8044d6	0.25052518
187	0x3a5e5cbf	0.0008482448
188	0x3e2fa1c1	0.17151548
189	0x3e8ddfd9	0.27709845
190	0x3e54fa57	0.20798622
191	0x3d9fcfe2	0.078033224
192	0xbd42840a	-0.047489204
193	0xbe0f969c	-0.14022297
194	0xbeaff676	-0.34367722
195	0x3ddb6d83	0.10714247
196	0x3d8f138a	0.06986149
197	0x3dfaa371	0.12238205
198	0xbe7b0f70	-0.24517608
199	0x3e5ebef8	0.21752536
200	0xbda27416	-0.07932298
201	0x3ddf6ea4	0.10909775
202	0xbe5df024	-0.21673638
203	0x3e2a68a9	0.16641487
204	0x3e98ad95	0.29819933
205	0xbe4607b0	-0.1933887
206	0x3dcd6d31	0.10030592
207	0xbd19107f	-0.037369248
208	0x3ea9d6a0	0.33171558
209	0x3bc1103c	0.005891828
210	0xbe4a5005	-0.19757088
211	0xbe116bd1	-0.14201285
212	0x3c3d78cb	0.011564444
213	0x3e3c3ebd	0.18383308
214	0x3eb6593e	0.3561496
215	0x3ee08a20	0.4385538
216	0x3e8ac16d	0.27100697
217	0x3da0549a	0.078286365
218	0x3de82bfd	0.11336515
219	0xbde2c30f	-0.11072361
220	0x3d206783	0.039161216
221	0x3e558e4d	0.20855065
222	0xbe00cbe8	-0.12577784
223	0x3d9aa250	0.0755049
224	0xbd7f5de3	-0.062345397
225	0x3e30e778	0.17275798
226	0x3e66b76b	0.22530906
227	0x3e7f7794	0.24947959
228	0x3dba5d8d	0.09099875
229	0xbe277735	-0.16354068
230	0x3d3c8c42	0.046032198
231	0xbe3092ba	-0.17243472
232	0xbe0867c2	-0.1332083
233	0x3ecd99c3	0.40156373
234	0xbdfa4d9a	-0.122218326
235	0xbdb80183	-0.08984663
236	0xbd22e292	-0.039766856
237	0x3e1fd099	0.15606917
238	0xbd2d755e	-0.04234826
239	0x3e5df057	0.21673714
240	0x3e40991e	0.1880841
241	0xbe3a8597	-0.18215023
242	0xbe2493ad	-0.16071959
243	0xbd1e7388	-0.038684398
244	0x3e38ed4d	0.18059273
245	0x3e263172	0.162298
246	0x3e0c40d4	0.13696605
247	0xbe5daa1e	-0.21646926
248	0x3d375a0b	0.044763606
249	0xbe453ba6	-0.19261035
250	0xbe805030	-0.25061178
251	0xbe95b464	-0.2923919
252	0x3c3503e3	0.01104829
253	0x3e804fa2	0.25060755
254	0xbe0bfed4	-0.13671428
255	0x3c8f703b	0.01750957

bias f4 [64]
0	0xbe153547	-0.14571105
1	0xbd10edf7	-0.03538319
2	0xbdfc6c76	-0.12325375
3	0x3eb29640	0.34880257
4	0x3d4b3c7d	0.049618233
5	0x3e26faa3	0.16306548
6	0xbe8ad201	-0.27113345
7	0xbdb8fe25	-0.09032849
8	0xbd102ad2	-0.035197087
9	0x3e3352c9	0.17512049
10	0xbdbbe1d1	-0.091739304
11	0x3eafbe74	0.34324992
12	0xbda089f8	-0.078388155
13	0x3e638d08	0.22221768
14	0xbe504f49	-0.20342745
15	0xbdb7f3ec	-0.08982071
16	0xbe30b976	-0.17258248
17	0xbdaad629	-0.08341629
18	0x3e70aeee	0.2350423
19	0x3de86968	0.1134823
20	0x3d1f4a0f	0.038888987
21	0x3d80cd3e	0.06289147
22	0x3e295d62	0.16539529
23	0xbd2c2ab8	-0.042032927
24	0xbc9de1bb	-0.019272676
25	0x3e2cadf8	0.16863239
26	0xbe316a40	-0.17325687
27	0xbdf98b54	-0.12184778
28	0xbe9fa95e	-0.31183904
29	0x3e38439d	0.17994542
30	0x3ddbb641	0.107281215
31	0xbe845462	-0.2584563
32	0xbe893f2a	-0.26806003
33	0x3e0a1763	0.13485484
34	0xbea308de	-0.31842703
35	0x3e88c1aa	0.26710254
36	0x3e90a6d0	0.28252268
37	0xbe205788	-0.1565839
38	0xbe2982a4	-0.16553742
39	0xbdf89db1	-0.12139452
40	0xbe3d647b	-0.18495362
41	0x3e023fb0	0.12719607
42	0xbd28624c	-0.04110937
43	0xbdb8d992	-0.09025873
44	0xbe4e00bf	-0.20117472
45	0x3e5cbaf8	0.21555698
46	0xbe6ead5e	-0.23308322
47	0xbe136bb9	-0.14396562
48	0x3e1ccc2e	0.15312263
49	0xbe0f17b6	-0.13973889
50	0xbdf6cf09	-0.120512076
51	0x3e32d7ba	0.17465106
52	0xbe98b339	-0.29824236
53	0xbea834b4	-0.3285271
54	0xbe8f6918	-0.28009868
55	0x3c17d687	0.009267456
56	0x3e1a54c6	0.15071401
57	0x3e43188f	0.19052337
58	0x3e48a363	0.19593577
59	0x3e614af5	0.2200125
60	0xbe10de9e	-0.14147422
61	0x3e08b2ec	0.13349503
62	0x3ea1bc3c	0.31588924
63	0xbe83626e	-0.25661033

weight f4 [32, 32]
0	0xbe50408f	-0.20337127
1	0xbdbe0ca6	-0.09279756
2	0x3e71c714	0.23611099
3	0xbd91b434	-0.07114449
4	0xbdb6a790	-0.08918679
5	0xbce4c9c4	-0.02792824
6	0x3c0d81f6	0.008636942
7	0xbcc69d31	-0.024244877
8	0xbde1fab9	-0.1103415
9	0xbe3c7f16	-0.18407854
10	0x3d17ddb1	0.037076656
11	0x3d2b2d5e	0.041791312
12	0xbd420f81	-0.047378067
13	0x3dc6e799	0.097121425
14	0xbdbd9cb8	-0.09258407
15	0x3dd8cec3	0.10586312
16	0xbd402115	-0.04690655
17	0x3e319fd5	0.17346127
18	0x3e24cd1f	0.16093872
19	0x3dc6258e	0.09675132
20	0xbdfeb588	-0.12436968
21	0x3e076195	0.13220818
22	0x3e39ee62	0.18157342
23	0xbe327fbd	-0.17431541
24	0xbc9cce84	-0.019141443
25	0x3d2c51e3	0.04207028
26	0x3d78e304	0.060763374
27	0x3e0f4cf0	0.13994193
28	0x3e3e32a2	0.18574002
29	0x3db3308b	0.08749493
30	0x3e42c096	0.19018778
31	0x3db6f4df	0.08933424
32	0x3e004f5e	0.12530276
33	0x3b273b1a	0.0025517405
34	0xbdee6474	-0.11640254
35	0xbdaaee2c	-0.08346209
36	0xbe25ead0	-0.16202855
37	0x3de90c30	0.11379278
38	0x3dcc0af9	0.0996303
39	0x3dadac18	0.0848009
40	0xbe1210c0	-0.14264202
41	0xbd8105ad	-0.06299911
42	0xbdcd44d7	-0.10022896
43	0xbd8190ab	-0.06326421
44	0x3bd61d27	0.006534237
45	0x3d64c4e7	0.055851843
46	0xbdab479e	-0.08363269
47	0xbd9dc309	-0.07703216
48	0x3ba7f71c	0.0051258933
49	0x3e276e32	0.1635063
50	0x3c23a868	0.009988882
51	0x3e42b6bf	0.19015025
52	0x3da30bd3	0.0796124
53	0xbd997978	-0.074938715
54	0x3e10a765	0.14126356
55	0xbd367931	-0.04454917
56	0xbd24b1e6	-0.04020872
57	0xbd28f36b	-0.041247766
58	0x3e1b3331	0.15156247
59	0x3da5ca30	0.08095205
60	0xbdb8e637	-0.09028285
61	0xbd4678c3	-0.04845501
62	0x3c508f3a	0.01272946
63	0xbc94b994	-0.018154897
64	0x3dea3dcc	0.11437568
65	0xbdab5e5d	-0.08367608
66	0x3c638914	0.013887662
67	0xbe22a61d	-0.1588368
68	0xbe63c5ee	-0.22243473
69	0xbdd73910	-0.10508931
70	0xbd35c5c9	-0.044378076
71	0xbd6321cf	-0.055452164
72	0xbe074b36	-0.13212284
73	0x3e0680a8	0.13135016
74	0x3e25804a	0.1616222
75	0xbe04116f	-0.12897275
76	0xbe151bf9	-0.14561452
77	0x3e366b90	0.1781447
78	0xbe6ec9f7	-0.23319231
79	0xbdd4efdc	-0.10397312
80	0x3dfa00ad	0.1220716
81	0x3e52fabb	0.20603459
82	0x3e4880b7	0.19580351
83	0xbe0f4abe	-0.13993356
84	0x3db1f7f6	0.08689873
85	0xbcc9581d	-0.024578148
86	0xbd2fd41f	-0.042926904
87	0xbdb98616	-0.09058778
88	0xbdc574a3	-0.09641387
89	0xbe39fe7a	-0.18163481
90	0xbce7a54a	-0.028277058
91	0xbe1c558d	-0.1526701
92	0x3e357890	0.17721772
93	0xbe47bd5f	-0.19505833
94	0xbd65b503	-0.05608083
95	0xbe0b2425	-0.13588007
96	0x3e236460	0.15956259
97	0xbdcb6d75	-0.09932987
98	0x3d8f28c4	0.06990197
99	0x3e274346	0.16334257
100	0xbd309e7d	-0.043119896
101	0x3e1f2a36	0.15543446
102	0x3d317fba	0.0433347
103	0xbda36a6c	-0.07979283
104	0xbe309921	-0.17245914
105	0x3db4ee69	0.08834536
106	0x3db27b34	0.087149054
107	0xbd86a898	-0.065751255
108	0x3e1ed6eb	0.15511672
109	0x3d93ff62	0.07226445
110	0xbdfb6712	-0.122755185
111	0xbd6192ba	-0.05507157
112	0xbdc41409	-0.09574134
113	0x3d68c631	0.056829635
114	0xbd1ccfa9	-0.038283978
115	0x3e33cee0	0.17559385
116	0x3d2d6f3c	0.04234241
117	0x3de5346d	0.1119164
118	0x3e235a8f	0.15952514
119	0x3cc11dfb	0.023573866
120	0xbd3200d5	-0.043457825
121	0x3da10b26	0.078634545
122	0x3ca4d954	0.020123161
123	0x3e28aee7	0.1647297
124	0xbc8e4ad0	-0.017369658
125	0x3e412a30	0.1886375
126	0x3dfdb9ab	0.12388929
127	0x3e201188	0.15631688
128	0xbe0bab52	-0.13639572
129	0xbd428f21	-0.04749978
130	0x3e309f2f	0.17248224
131	0x3c32d9a3	0.010916146
132	0x3e221d84	0.15831572
133	0x3ad18301	0.0015984477
134	0x3da558d2	0.08073582
135	0x3e5e6797	0.21719204
136	0x3de12299	0.10992927
137	0xbe26ee00	-0.16301727
138	0x3e1b9e86	0.1519719
139	0x3dbe2563	0.09284475
140	0xbe5e0d2a	-0.21684709
141	0x3dd4f967	0.10399132
142	0x3d5ce4c6	0.053929113
143	0x3dc9af62	0.09847905
144	0xbe161b2d	-0.14658804
145	0x3d611aa3	0.054957043
146	0x3e30dfce	0.17272875
147	0x3e78d0d5	0.24298413
148	0x3df6d59d	0.12052462
149	0xbe303774	-0.17208654
150	0x3dc47eb5	0.0959448
151	0xbc8a920e	-0.016915347
152	0x3e03c705	0.12868889
153	0x3e18f2c8	0.14936364
154	0x3e0f76e7	0.14010201
155	0xbcdaf248	-0.026726857
156	0x3ddad27e	0.106846794
157	0x3e89c0e5	0.2690498
158	0x3e016bbb	0.12638752
159	0xbdbb274c	-0.09138355
160	0x3e09049a	0.13380662
161	0xbbb12728	-0.005406279
162	0xbc90c3e3	-0.017671531
163	0xbe64011a	-0.22266045
164	0xbd986197	-0.07440489
165	0x3e2d329d	0.16913839
166	0xbccaa988	-0.024739042
167	0xbd92b611	-0.07163633
168	0x3d891725	0.066938676
169	0xbd73cd7f	-0.05952215
170	0x3e0dd08e	0.13849089
171	0x3df022c5	0.11725382
172	0xbcc58248	-0.024109975
173	0x3d5ca956	0.05387243
174	0xbe483087	-0.19549762
175	0xbe06c45e	-0.13160846
176	0x3bdc76a4	0.0067280103
177	0xbe385084	-0.17999464
178	0xbdf36ffc	-0.11886594
179	0x3d32c74a	0.043647088
180	0x3e0c8acf	0.13724826
181	0xbb8d8993	-0.0043193786
182	0xbcd57550	-0.026056916
183	0x3e11994c	0.14218634
184	0xbe3146c8	-0.17312157
185	0x3e1e36b4	0.15450555
186	0xbdd4ae18	-0.10384768
187	0xbbc384c0	-0.005966753
188	0xbc98b495	-0.018640796
189	0xbdf81c7a	-0.121148065
190	0xbce1a02b	-0.027542194
191	0xbd4bf1e2	-0.049791224
192	0x3c8c0204	0.017090805
193	0x3d8ec4f8	0.069711626
194	0x3dc9b70e	0.09849368
195	0xbd1810a5	-0.03712525
196	0xbd6276bd	-0.05528902
197	0xbc9e62af	-0.019334165
198	0x3e874ab6	0.26424187
199	0x3e7abae8	0.24485362
200	0x3dbd786d	0.09251485
201	0x3e4939f0	0.19651008
202	0x3d83f643	0.06443455
203	0x3e7f73a3	0.24946456
204	0xbe0f9d9d	-0.14024968
205	0xbd6a9371	-0.057269517
206	0x3e4a8329	0.19776596
207	0xbd09f266	-0.033678435
208	0xbd5d2429	-0.053989563
209	0xbe046e5a	-0.12932721
210	0xbe037277	-0.12836634
211	0x3e26ff18	0.16308248
212	0xbcdf76a2	-0.027278248
213	0xbdfedf9c	-0.12444994
214	0x3e444d82	0.19170192
215	0x3e1a1c15	0.15049775
216	0x3e2aab70	0.1666696
217	0x3dd272e2	0.102758184
218	0x3d6b4415	0.057437975
219	0xbd88e50d	-0.06684313
220	0xbdc850be	-0.09781025
221	0x3d2537d0	0.04033643
222	0xbdf0110a	-0.11722
223	0x3d34cd10	0.044140875
224	0x3d793666	0.060842894
225	0x3e0f6044	0.14001566
226	0xbba599f2	-0.005053752
227	0xbe25ddbc	-0.16197866
228	0xbd5b14a8	-0.053486496
229	0x3e2cceda	0.16875783
230	0x3e6b3156	0.22968039
231	0x3e046f36	0.12933049
232	0xbe18f750	-0.14938092
233	0xbcda7198	-0.026665494
234	0xbcdabd63	-0.026701635
235	0x3e048c03	0.12944035
236	0x3dadd25b	0.08487388
237	0x3da90098	0.082520664
238	0xbcf2b821	-0.029628815
239	0x3e3bebae	0.18351623
240	0x3d623160	0.05522287
241	0x3e28e24e	0.16492578
242	0x3b8f6db9	0.0043770936
243	0x3ec36901	0.3816605
244	0x3e39b149	0.18134035
245	0x3cfaf111	0.030632528
246	0x3e0193c9	0.12654032
247	0xbdd80970	-0.10548675
248	0xbc5f4b6f	-0.013628825
249	0x3d2101b9	0.039308283
250	0x3d180741	0.037116293
251	0x3d9e3ce3	0.07726457
252	0x3c7aa241	0.015297473
253	0x3d889a46	0.0667005
254	0x3e2ca8dd	0.16861291
255	0xbde00bb5	-0.10939733

bias f4 [32]
0	0xbe17c20d	-0.14820118
1	0xbd2fd93a	-0.042931773
2	0x3e2ad9c6	0.16684636
3	0x3c407fdc	0.011749234
4	0xbe1c49d7	-0.15262543
5	0x3e148241	0.14502813
6	0x3d4313b8	0.047626227
7	0x3de28057	0.11059635
8	0x3dd83d1e	0.10558532
9	0x3c7edfe8	0.015556313
10	0x3d969bfa	0.07353969
11	0x3e08e549	0.13368715
12	0xbcbba1eb	-0.022904357
13	0x3c6197c7	0.013769097
14	0xbd2f741c	-0.04283534
15	0x3e0d29c8	0.1378547
16	0xbe0319b5	-0.12802775
17	0x3dfc4d3f	0.12319421
18	0x3d73fd87	0.059567954
19	0xbd263b5e	-0.04058396
20	0x3e1dfb95	0.15428002
21	0xbdee374c	-0.11631641
22	0xbda82227	-0.08209639
23	0xbcd49270	-0.025948733
24	0xbda2f74d	-0.07957325
25	0x3cb46853	0.022022402
26	0xbded40f1	-0.11584652
27	0xbe0a28e2	-0.13492158
28	0xbe10331f	-0.14082001
29	0xbe2c7cca	-0.16844478
30	0x3b876d5f	0.004132911
31	0xbd59764e	-0.05309134

weight f4 [32, 64]
0	0xbd50c808	-0.050972015
1	0x3b87ada0	0.0041405708
2	0xbd7e4a08	-0.06208232
3	0x3d411508	0.047139198
4	0xbdda2048	-0.106506884
5	0x3dbba8c4	0.09163049
6	0xbdba1234	-0.09085503
7	0xbdcb87de	-0.09938024
8	0xbda1c35a	-0.078985885
9	0x3d67e1a8	0.056611687
10	0xbd3d2e14	-0.04618652
11	0x3d3f98e4	0.046776667
12	0xbdd94654	-0.10609117
13	0xbd9b523e	-0.07584046
14	0xbd3bfe80	-0.045897007
15	0xbcc93c78	-0.024564967
16	0xbdc34b04	-0.095357925
17	0x3da7a05e	0.081848845
18	0xbcf17db8	-0.029478893
19	0x3d245880	0.040123463
20	0x3db5075c	0.08839294
21	0x3cbec700	0.02328825
22	0x3d0c01bc	0.03418134
23	0x3df71b32	0.12065734
24	0xbd66eab4	-0.056376174
25	0x3d222d38	0.039593905
26	0xbd63cc0c	-0.055614516
27	0x3db6f348	0.08933121
28	0x3dcc74c0	0.09983206
29	0xbdec0660	-0.115246534
30	0x3dda8888	0.106705725
31	0x3d747cc4	0.0596893
32	0x3d5f1cdc	0.05447088
33	0x3d52c70c	0.051459357
34	0x3dd4d004	0.10391238
35	0xbc873560	-0.016504943
36	0xbdd87fb2	-0.10571231
37	0xbd12eaf8	-0.035868615
38	0xbdb44b58	-0.08803433
39	0x3c0762f0	0.008263335
40	0xbcbf3040	-0.023338437
41	0xbd895086	-0.06704812
42	0xbc3a3500	-0.011365175
43	0x3df2890e	0.11842547
44	0xbc218970	-0.009859428
45	0x3b820c60	0.0039687604
46	0xbc9fb420	-0.01949507
47	0x3ca0fae0	0.019650877
48	0x3de41968	0.11137658
49	0x3d9c8acc	0.07643661
50	0x3d35bd84	0.04437019
51	0x3cde86a8	0.027163818
52	0x3cf173b0	0.02947411
53	0x3d45cd78	0.048291653
54	0xbc845328	-0.016152933
55	0xbdededbc	-0.1161761
56	0xbd9e503e	-0.07730149
57	0x3dda8498	0.106698215
58	0x3bf4d500	0.0074716806
59	0xbdcf60fa	-0.10125919
60	0x3ca18350	0.019715935
61	0x3dd3868a	0.10328396
62	0xbdf1eb80	-0.11812496
63	0xbdac596a	-0.08415492
64	0xbd4be978	-0.0497832
65	0x3ba46740	0.005017191
66	0xbceed3b0	-0.029153675
67	0xbc610ea0	-0.013736397
68	0xbdf99266	-0.121861264
69	0x3d6fc248	0.05853489
70	0x3de0b3c8	0.109717906
71	0x3d9c7a1e	0.076404795
72	0xbdb5482a	-0.08851655
73	0xbdce5cca	-0.10076292
74	0x3d549bf4	0.05190654
75	0x3b37fb00	0.0028073192
76	0x3d51e278	0.051241368
77	0xbdfa2698	-0.122143924
78	0xbbf43740	-0.0074528754
79	0x3db48ada	0.08815546
80	0x3d6d85cc	0.057988927
81	0x3b959340	0.0045646727
82	0x3cc95680	0.02457738
83	0xbc41e7a0	-0.011835009
84	0xbd8cc1e4	-0.06872919
85	0xbd417c04	-0.04723741
86	0xbd9be618	-0.07612246
87	0x3dd4a2ce	0.10382615
88	0x3d8cdf96	0.06878583
89	0x3d330ed8	0.043715328
90	0xbdc45072	-0.09585656
91	0x3dc58902	0.09645273
92	0x3d2088ac	0.03919284
93	0x3db11974	0.08647433
94	0xbd496a6c	-0.049173757
95	0x3cd915b8	0.026499614
96	0x3df9f432	0.1220478
97	0x3dac3364	0.084082395
98	0x3dcd4fa8	0.10024959
99	0xbcd70640	-0.026248097
100	0x3dc30a62	0.09523465
101	0xbdc881e8	-0.09790403
102	0x3c312120	0.01081112
103	0xbd90245e	-0.070381865
104	0xbceecff8	-0.029151902
105	0xbd031f34	-0.03201218
106	0x3c193ac0	0.009352386
107	0x3de8feea	0.11376746
108	0x3d7d7ba4	0.06188549
109	0xba0ad000	-0.00052952766
110	0x3db5b870	0.08873069
111	0xbd83304a	-0.06405695
112	0x3d83ef62	0.06442143
113	0xbc3deaa0	-0.0115915835
114	0xbcb22fe8	-0.02175136
115	0x3c6fc430	0.014634177
116	0xbdc41eea	-0.09576209
117	0x3c6ca950	0.014444664
118	0x3d2c2764	0.042029753
119	0x3ddadcce	0.106866464
120	0xbd1f685c	-0.038917884
121	0x3d385588	0.045003444
122	0x3dffe006	0.12493901
123	0xbd5ba1d4	-0.05362113
124	0x3df35a06	0.11882405
125	0xbd7e3434	-0.062061504
126	0x3d61afe0	0.055099368
127	0x3d489378	0.048968762
128	0x3d0f0418	0.034916013
129	0x3dca7212	0.098850384
130	0xbd4eeea4	-0.050520554
131	0x3d069038	0.03285238
132	0x3a37e600	0.00070151687
133	0xbdc08c5a	-0.0940177
134	0xbcf8a438	-0.030351743
135	0xbdaaf674	-0.083477885
136	0x3d626230	0.05526942
137	0x3c381b60	0.011236995
138	0x3c48a1b0	0.012245581
139	0xbd1b5368	-0.03792134
140	0x3a1d9100	0.00060106814
141	0xbd1f410c	-0.038880393
142	0x3d131db8	0.035917014
143	0x3df89e94	0.121396214
144	0x3c9b1b18	0.018933818
145	0xbd62c630	-0.055364788
146	0xbd9c5f3a	-0.076353505
147	0x3c1c8c10	0.009554878
148	0xbdbde9a2	-0.092730775
149	0xbdc06c26	-0.09395628
150	0xbda69fe0	-0.081359625
151	0xbd2de5ec	-0.0424556
152	0x3c179680	0.009252191
153	0x3db048da	0.08607645
154	0x3d465158	0.04841742
155	0x3dc4205c	0.095764846
156	0xbda0bde2	-0.07848717
157	0x3c2cd3b0	0.010548517
158	0xbde38db0	-0.11111009
159	0x3d92db32	0.071707144
160	0x3cd56968	0.026051238
161	0x3df79b62	0.12090184
162	0xbdb61200	-0.08890152
163	0x3dcd4b46	0.10024123
164	0x3dd81f3a	0.10552831
165	0x3dcefb02	0.1010647
166	0x3c921e98	0.017836854
167	0x3de8c688	0.11365992
168	0x3daaf73c	0.083479375
169	0x3dbeff0e	0.093259916
170	0xbc050a30	-0.008120105
171	0xbdc47434	-0.095924765
172	0xbacbe200	-0.0015555024
173	0x3cc00a08	0.023442283
174	0xbdae6118	-0.08514613
175	0xbd92da04	-0.071704894
176	0xbdf57068	-0.119843304
177	0xbd337af4	-0.04381843
178	0x3ddefe58	0.10888356
179	0x3caf1998	0.021374509
180	0xbbfa2f20	-0.0076350123
181	0x3ba47cc0	0.005019754
182	0x3d9fa0b0	0.077943206
183	0xbde21074	-0.110382944
184	0xbdc586e6	-0.096448705
185	0xbd2a3990	-0.041558802
186	0xbd935528	-0.07193977
187	0x3d840a7e	0.06447314
188	0x3db4e2a8	0.08832294
189	0xbdf860b8	-0.12127823
190	0xbdd94312	-0.10608496
191	0xbdf94c20	-0.12172723
192	0x3d412780	0.04715681
193	0x3dce0af2	0.100606814
194	0xbdc67cb0	-0.09691751
195	0xbd6d08a0	-0.057869554
196	0x3d22edd0	0.039777577
197	0xbda72a0c	-0.08162317
198	0x3dd9777e	0.106184945
199	0x3ceec1d0	0.029145151
200	0xbd0e884c	-0.03479795
201	0x3c0504d0	0.008118823
202	0x3d1fa020	0.038971066
203	0xbd350cc8	-0.044201642
204	0xbdc65cf4	-0.09685698
205	0x3a5c4100	0.000840202
206	0x3b153780	0.0022768676
207	0x3b253180	0.0025206506
208	0xbc956ec0	-0.018241286
209	0x3da45eee	0.08025919
210	0xbd0ee0d8	-0.034882396
211	0xbc463b40	-0.012099087
212	0x3d528730	0.051398456
213	0xbda122ce	-0.078679666
214	0x3d0917a8	0.033469826
215	0xbce26c28	-0.027639464
216	0x3d7597c4	0.059959188
217	0xbd8adef2	-0.06780805
218	0x3b9761a0	0.004619792
219	0x3c485ac0	0.012228668
220	0xbdcdfa0a	-0.10057457
221	0xbdba25fe	-0.09089278
222	0x3d445bdc	0.047939166
223	0xbd15055c	-0.036382064
224	0x3d98099c	0.07423708
225	0xbdfce490	-0.12348282
226	0xbd7d18a4	-0.061791077
227	0xbdd2db82	-0.10295774
228	0x3d4c8784	0.049933925
229	0xbb6d7f40	-0.0036239177
230	0xbcbeff78	-0.023315176
231	0xbcaa5d40	-0.020796418
232	0xbdc81a24	-0.09770611
233	0x3d11335c	0.03544937
234	0x3b4c3140	0.0031157285
235	0xbdb0ab3e	-0.08626412
236	0x3d40a8c8	0.047035962
237	0xbb24a6c0	-0.0025123805
238	0xbdf796fc	-0.12089345
239	0x3d89b524	0.06724003
240	0x3d88ee5c	0.066860884
241	0xbcc0ee98	-0.02355127
242	0xbdb0c08e	-0.08630477
243	0x3ba47460	0.005018756
244	0x3dc12c24	0.09432247
245	0x3dea53b6	0.11441748
246	0xbdc13aa4	-0.09435013
247	0xbd674128	-0.056458622
248	0x3dc753ee	0.09732805
249	0x3d7a4124	0.06109728
250	0x3d9e77a2	0.07737662
251	0xbd7ed708	-0.06221679
252	0x3ddc8d86	0.10769181
253	0xbdd272ea	-0.10275824
254	0xbbc54cc0	-0.006021112
255	0x3b2a1700	0.002595365

bias f4 [32]
0	0x3bc4a0e0	0.006000623
1	0xbdf590fa	-0.11990543
2	0x3c824228	0.015900686
3	0x3d34205c	0.043976173
4	0x3de51af6	0.11186783
5	0xbd25f43c	-0.040516123
6	0x3d38ac5c	0.04508625
7	0xbd2b9140	-0.041886568
8	0xbd340bb4	-0.043956473
9	0xbde2d6e8	-0.11076146
10	0x3cd823a8	0.02638419
11	0x3dabc6c2	0.083875194
12	0xbd8e6972	-0.06953706
13	0x3d5152e4	0.05110444
14	0xbc9fbaf8	-0.019498333
15	0xbdb5c1a4	-0.08874825
16	0x3c5a6040	0.013328612
17	0xbdf978e2	-0.1218126
18	0x3d893b9e	0.06700824
19	0xbce24198	-0.027619168
20	0x3debc534	0.11512223
21	0x3b973520	0.0046144873
22	0xbdf8308a	-0.12118633
23	0x3dc6a8d2	0.09700169
24	0xbcdffb10	-0.027341396
25	0xbdaf5ae6	-0.085622594
26	0x3dec5cbc	0.11541125
27	0x3c3f4760	0.011674732
28	0x3d25ff34	0.040526584
29	0xbddd7652	-0.108135834
30	0xbd34d278	-0.04414603
31	0x3dcd66e6	0.10029392

weight_ih_l0 f4 [128, 32]
0	0xbdbeaee9	-0.09310705
1	0xbc99ec56	-0.018789452
2	0xbd56f4d4	-0.05247958
3	0x3d603086	0.054733776
4	0xbdfc0951	-0.123064645
5	0x3d85a096	0.0652477
6	0xbdeb3e5f	-0.11486506
7	0xbe08bdc8	-0.13353646
8	0xbdc4cb65	-0.09609107
9	0x3e1bb9a8	0.15207541
10	0x3d3e479b	0.046455007
11	0xbde63b6d	-0.11241803
12	0xbd816813	-0.06318679
13	0xbd395404	-0.04524614
14	0x3e425b15	0.18980058
15	0xbd694039	-0.056946013
16	0x3ce63a75	0.028104046
17	0x3dd70eed	0.10500894
18	0xbe41dc21	-0.18931629
19	0x3d2e3732	0.042533107
20	0xbe280347	-0.164075
21	0xbd69b471	-0.057056848
22	0xbe022973	-0.12711124
23	0xbd9a04c1	-0.07520438
24	0xbdfe2a98	-0.12410468
25	0x3bce586e	0.0062971627
26	0xbd8eb05a	-0.0696723
27	0xbdbd5678	-0.09245008
28	0xbd7b6d5b	-0.061383586
29	0xbe1d96af	-0.15389512
30	0x3e0dbceb	0.13841598
31	0xbe03d4ee	-0.12874195
32	0x3cfeb91f	0.031094132
33	0xbdb95028	-0.09048492
34	0xbd8bdca6	-0.06829195
35	0xbe256215	-0.16150697
36	0x3cf2cf15	0.02963976
37	0x3cd94d33	0.02652607
38	0x3d8d6092	0.06903185
39	0xbda364da	-0.0797822
40	0xbd5d6579	-0.05405185
41	0x3e61fd88	0.22069371
42	0x3e42e072	0.19030932
43	0x3c60569e	0.013692526
44	0x3e3d5d82	0.18492702
45	0x3da56fbf	0.080779545
46	0xbe13278c	-0.14370555
47	0xbe032b7f	-0.12809561
48	0x3dba5405	0.09098057
49	0xbd3bbbd1	-0.045833413
50	0xbb2a457b	-0.0025981355
51	0x3c9a2c98	0.018820092
52	0xbd89bbf0	-0.06725299
53	0xbdc81dc2	-0.09771301
54	0xbc2dcc88	-0.010607846
55	0xbd0ce372	-0.034396596
56	0xbd846788	-0.064650595
57	0x3d5b651e	0.05356323
58	0x3e59ee73	0.21282367
59	0xbb879447	-0.004137549
60	0xbd164491	-0.036686484
61	0xbc289925	-0.010290419
62	0x3da8805b	0.08227607
63	0xbdb6d038	-0.08926433
64	0x3d9af89e	0.07566951
65	0x3e055ce2	0.13023713
66	0x3de7befd	0.11315725
67	0xbe645d79	-0.22301282
68	0x3e01f951	0.12692763
69	0xbdff8e0d	-0.12478266
70	0x3e376cae	0.17912552
71	0xbd7a0dd6	-0.06104835
72	0x3d2a2364	0.041537657
73	0x3de98928	0.114031136
74	0x3ddc0e93	0.10744967
75	0xbe745061	-0.23858787
76	0x3cb631ec	0.022240601
77	0x3bf83586	0.00757474
78	0xbd3e0c8c	-0.046398684
79	0xbe114ff6	-0.14190659
80	0x3e3846ea	0.17995802
81	0x3e789727	0.2427641
82	0xbdbc0200	-0.09180069
83	0x3dc429b4	0.09578267
84	0x3dcf5428	0.101234734
85	0x3d12b50b	0.035817187
86	0xbe14a9f9	-0.14517964
87	0xbe8095e8	-0.2511437
88	0xbda5903b	-0.080841504
89	0xbe45b185	-0.19306
90	0xba887445	-0.0010410628
91	0x3d5e2fcb	0.054244798
92	0xbca364cb	-0.019945523
93	0xbda7dd71	-0.081965335
94	0x3dc9bf79	0.09850974
95	0x3d6f6361	0.058444384
96	0x3e3ed83f	0.18637179
97	0x3d09098e	0.033456378
98	0xbe219a93	-0.15781622
99	0xbe8c46ea	-0.27397853
100	0xbc60de2b	-0.013724844
101	0xbe40d4cc	-0.18831176
102	0x3d2ed1eb	0.042680662
103	0xbed09503	-0.40738687
104	0x3e0514e7	0.12996255
105	0x3e01f732	0.12691954
106	0xbc337b0e	-0.0109546315
107	0x3d418112	0.04724223
108	0xbc872cbb	-0.016500821
109	0xbe2b0d48	-0.16704285
110	0x3e2faba2	0.17155316
111	0x3d50e1ec	0.050996706
112	0x3d60d064	0.054886237
113	0x3e12e448	0.14344895
114	0xbd830a1f	-0.06398415
115	0xbce33d71	-0.027739258
116	0x3c5f94c2	0.0136463065
117	0xbdcb0219	-0.099125095
118	0xbe309ae0	-0.1724658
119	0xbeb240eb	-0.34815153
120	0xbd2109a4	-0.039315835
121	0xbddd40f3	-0.10803404
122	0xbc924379	-0.01785444
123	0xbce6cf90	-0.028175145
124	0xbc9af45d	-0.01891535
125	0x3de7cd35	0.11318437
126	0xbdd23e02	-0.10265733
127	0x3ca938e5	0.020657012
128	0xbd3ebaf3	-0.046565007
129	0xbcce7b54	-0.025205292
130	0x3dd04f7d	0.10171411
131	0xbcce8422	-0.02520949
132	0xbd620fbe	-0.055190794
133	0xbd39bb36	-0.045344554
134	0xbd2506ec	-0.040289804
135	0xbd827a55	-0.06370989
136	0xbdb695ce	-0.08915292
137	0xbd196725	-0.037451882
138	0x3e117169	0.14203419
139	0xbd0ceb5e	-0.03440415
140	0x3c8b0bed	0.01697346
141	0xbd95c095	-0.07312123
142	0x3ddba4e1	0.107248075
143	0xbdd95d51	-0.10613502
144	0x3d9e8417	0.07740038
145	0x3eb71d6f	0.35764644
146	0xbe2f3dbf	-0.17113398
147	0xbe42c1d2	-0.19019249
148	0xbd9db58a	-0.077006415
149	0xbdac669a	-0.08418007
150	0xbe18fa76	-0.14939293
151	0xbe601fd5	-0.21887143
152	0xbd2279d6	-0.039666973
153	0xbd8c7d98	-0.068598926
154	0x3c1c0fcd	0.009525252
155	0x3cceb1f7	0.025231345
156	0x3e25e4b4	0.16200525
157	0xbd359d10	-0.04433924
158	0xbe5f7a69	-0.2182404
159	0x385b9b3a	5.2358235e-05
160	0xbd51a22a	-0.051180042
161	0xbc6cddee	-0.014457209
162	0x3d99b989	0.07506091
163	0xbdb5b34b	-0.08872088
164	0xbdaba79e	-0.0838158
165	0xbacbfce9	-0.0015563044
166	0xbe0c7836	-0.13717732
167	0xbc2ebad6	-0.010664662
168	0xbe41a7c0	-0.18911648
169	0x3dab36ba	0.08360048
170	0x3d0f9c2a	0.03506104
171	0x3b8f62d0	0.004375793
172	0x3ce8a530	0.02839908
173	0xbd53ad76	-0.051679097
174	0x3e0df3f1	0.13862588
175	0x3d12636d	0.03573935
176	0x3e21d755	0.15804799
177	0x3d4f2799	0.050574873
178	0x3e336a66	0.17521057
179	0x3be10786	0.006867352
180	0xbdad7083	-0.084687255
181	0x3d77e3fa	0.06052015
182	0x3dd8eee3	0.10592439
183	0xbe20061e	-0.15627334
184	0x3dda0a95	0.106465496
185	0xbd4013fe	-0.046894066
186	0x3db62152	0.08893074
187	0xbd672106	-0.056427978
188	0x3d11e666	0.035620116
189	0xbcabf87f	-0.020992516
190	0xbe5d77cd	-0.21627732
191	0x3d77d4e9	0.06050578
192	0x3e1d2d4d	0.15349312
193	0x3d9980b9	0.07495255
194	0xbd283519	-0.041066263
195	0x3bf5de91	0.0075033386
196	0x3dfc61d8	0.1232335
197	0x3c513d10	0.012770906
198	0x3d02df3c	0.031951174
199	0xbdae7796	-0.08518903
200	0x3d8e36f2	0.06944074
201	0xbd276953	-0.04087193
202	0x3d070766	0.03296604
203	0xbe2ba791	-0.1676314
204	0xbc8c96b9	-0.017161714
205	0x3c9a82d8	0.01886122
206	0xbd5eb3ab	-0.054370563
207	0xbdda13e9	-0.10648329
208	0x3de74b8a	0.11293705
209	0x3e5a908e	0.21344206
210	0xbe2a8aae	-0.16654465
211	0x3d6259e1	0.055261496
212	0xbddb5525	-0.107095994
213	0x3d578cd9	0.052624557
214	0xba80cf0c	-0.000982733
215	0xbe7b5b50	-0.24546552
216	0xbdbfd909	-0.09367568
217	0x3d6336a3	0.055472028
218	0x3c684941	0.014177621
219	0x3e41b1f1	0.18915536
220	0xbd3614bd	-0.04445337
221	0x3c1eb704	0.009687189
222	0xbdcb9348	-0.09940201
223	0xbcc08d74	-0.02350495
224	0xbdfd8a98	-0.1237995
225	0x3e927cdd	0.28610888
226	0x3e2d3860	0.16916037
227	0xbe986255	-0.2976252
228	0xbe405c87	-0.18785296
229	0xbe35c484	-0.17750746
230	0x3dce9474	0.10086909
231	0xbe889b5f	-0.2668104
232	0xbd338a45	-0.043833036
233	0xbc2c1609	-0.0105033
234	0xbbd62684	-0.006535353
235	0xbe7b3e6f	-0.24535535
236	0xbd48a394	-0.048984125
237	0xbe70e9c2	-0.23526672
238	0xbe017366	-0.12641677
239	0xbe0511a4	-0.1299501
240	0x3dad90ce	0.08474885
241	0x3e1e5db8	0.15465438
242	0xbe15f0a7	-0.14642583
243	0x3d8ebda1	0.069697626
244	0x3d1f0ee4	0.03883256
245	0xbde63761	-0.112410314
246	0x3d421f33	0.047393035
247	0xbeb265d0	-0.34843302
248	0x3db8b4ae	0.09018837
249	0xbe10b061	-0.14129783
250	0x3e8ce749	0.27520207
251	0x3d048486	0.032352947
252	0x3ddf5808	0.109054625
253	0xbe15891d	-0.14603086
254	0xbddcd3a2	-0.10782553
255	0x3e04976c	0.12948388

weight_hh_l0 f4 [128, 32]
0	0x3d9ea5b1	0.07746447
1	0x3d2d1f6d	0.042266298
2	0xbe0e3563	-0.13887553
3	0xbdecd9b8	-0.11564964
4	0xbdbd7047	-0.09249931
5	0xbd8a7bea	-0.06761916
6	0x3e190ce9	0.14946331
7	0x3c9bbfa3	0.019012278
8	0x3e0daaf5	0.13834746
9	0xbe0a0f89	-0.13482489
10	0xbd5ff581	-0.05467749
11	0xbda926e7	-0.08259373
12	0xbe204a0b	-0.15653245
13	0xbce8a63a	-0.028399576
14	0x3d848f65	0.06472663
15	0x3d974a74	0.07387248
16	0x3d92e997	0.0717346
17	0x39fb8ec5	0.00047980822
18	0x3e26caad	0.16288252
19	0x3d7c3b03	0.061579715
20	0x3e45b574	0.193075
21	0x3dbfdd05	0.09368328
22	0xbc43dc51	-0.011954383
23	0xbcd18a5e	-0.025578674
24	0x3db25bd5	0.08708922
25	0xbdc941a6	-0.098269746
26	0x3da75458	0.08170384
27	0x3ddb6b30	0.10713804
28	0xbdf5fc77	-0.120110445
29	0xbd8f1764	-0.06986883
30	0x3df6e1b7	0.120547704
31	0xbdf3ce66	-0.11904602
32	0x3e33512c	0.17511433
33	0x3dcf4d64	0.10122183
34	0xbe2901fa	-0.1650466
35	0x3dd7b4f8	0.10532564
36	0xbdd7885e	-0.10524057
37	0xbe5554be	-0.20833108
38	0x3df0a9ca	0.11751135
39	0xbe298edf	-0.16558407
40	0x3dcd786c	0.10032734
41	0x3d4ea31e	0.05044853
42	0xbdbd15f4	-0.09232703
43	0xbd8bfc1c	-0.068351954
44	0x3b4ae70a	0.0030960464
45	0x3a831127	0.0009999619
46	0x3d178344	0.03699042
47	0x3c79cc1d	0.015246418
48	0xbda0567b	-0.07828995
49	0x3d5a7b0a	0.053339995
50	0xbde7a7ea	-0.11311324
51	0xbd9d3408	-0.0767594
52	0x3e22784e	0.15866205
53	0xbd7c7862	-0.061638243
54	0xbd9cc4b9	-0.07654709
55	0xbe35b73b	-0.17745678
56	0x3cc12e87	0.023581756
57	0x3d702b02	0.058634765
58	0x3dbbdb07	0.091726355
59	0x3de10f93	0.10989299
60	0x3e45f44e	0.19331476
61	0xbd68bcc7	-0.056820657
62	0x3d3887ab	0.045051258
63	0xbdbd5486	-0.09244637
64	0x3d8573e2	0.065162435
65	0xbc60b01c	-0.013713863
66	0xbe369e43	-0.1783381
67	0xbd50e3c3	-0.05099846
68	0x3e12e27a	0.14344206
69	0x3d8ced00	0.06881142
70	0x3e3aa112	0.18225506
71	0x3d3ba769	0.04581395
72	0x3de1f7c8	0.11033589
73	0x3deead53	0.11654153
74	0xbe22b1ad	-0.1588809
75	0x3d68ef29	0.056868706
76	0xbd627eab	-0.05529658
77	0x3dd26de3	0.102748655
78	0xbe0f19c7	-0.13974677
79	0x3e4e2bfc	0.20133966
80	0x3dfce1d1	0.123477586
81	0x3df78aee	0.120870456
82	0xbd5e262a	-0.054235615
83	0xbe20ea2e	-0.15714332
84	0xbd9b4574	-0.075816065
85	0x3d6a33bb	0.05717824
86	0x3da54957	0.08070629
87	0xbe463c7a	-0.19359007
88	0x3e1deeee	0.15423176
89	0xbd19f9cc	-0.03759174
90	0x3dad4a89	0.08461482
91	0x3cecbc0b	0.02889826
92	0x3d24c1e2	0.040223964
93	0x3d1c3336	0.038134776
94	0xbdabdb7d	-0.083914734
95	0xbd8e74b1	-0.06955851
96	0x3d659380	0.05604887
97	0x3e2663f9	0.16249074
98	0x3ddeb506	0.10874371
99	0xbd5e9819	-0.05434427
100	0x3d3c4ff2	0.04597468
101	0xbc020a14	-0.007936973
102	0xbd277433	-0.0408823
103	0x3df86ad6	0.12129752
104	0x3ce5dac1	0.028058412
105	0x3e5268d6	0.20547804
106	0x3dc704aa	0.097176865
107	0xbe208682	-0.1567631
108	0xbe420136	-0.18945774
109	0xbd4c41d3	-0.049867462
110	0xbe252c83	-0.16130261
111	0x3d83eedd	0.06442044
112	0xbddaf263	-0.10690763
113	0xbda35a91	-0.079762585
114	0xbe03cd60	-0.12871313
115	0x3dadf2e2	0.08493592
116	0xbc4dbf24	-0.0125577785
117	0x3c07d617	0.008290789
118	0xbd868bd0	-0.06569636
119	0xbe35652b	-0.17714374
120	0xbdbb0b78	-0.09133047
121	0x3dbfa452	0.093575135
122	0xbd3001c0	-0.04297042
123	0xbc12ff43	-0.008971992
124	0x3dde0dae	0.10842453
125	0x3e3b7891	0.18307711
126	0xbd33708f	-0.043808516
127	0x3e4bf2a4	0.19916779
128	0xbcb7979d	-0.022411162
129	0x3e41514e	0.18878672
130	0x3e236b3b	0.15958874
131	0x3e052264	0.130014
132	0xbe02bede	-0.12768123
133	0xbe1319b6	-0.14365277
134	0x3d6e50bc	0.058182463
135	0xbe004ea8	-0.12530005
136	0xbdec0f1c	-0.115263194
137	0x3c8c9941	0.01716292
138	0x3d05849b	0.032597166
139	0x3d45bbb9	0.04827473
140	0x3d8ed371	0.06973923
141	0xbe28d73a	-0.16488352
142	0xbd248a6c	-0.040171072
143	0xbc3bc5ad	-0.011460704
144	0x3e051ad0	0.1299851
145	0xbdf7c546	-0.12098174
146	0xbd078458	-0.033085197
147	0xbe3ecbfb	-0.186325
148	0x3d520820	0.05127728
149	0xbe02c679	-0.12771024
150	0x3da2b7fb	0.07945248
151	0x3d0e792b	0.034783524
152	0x3e514076	0.20434746
153	0xbdc5a4be	-0.09650563
154	0xbd4ab5b6	-0.0494897
155	0xbd2eba02	-0.04265786
156	0x3de66cf6	0.112512514
157	0x3dd2be61	0.10290218
158	0x3cf3bd0d	0.029753232
159	0x3dbe4eea	0.092923954
160	0xbdc3f3ce	-0.095679864
161	0xbe104fed	-0.1409299
162	0xbdcd2f65	-0.100188054
163	0x3d7a9f02	0.061186798
164	0x3de57d87	0.11205583
165	0x3e089156	0.13336691
166	0x3ca7461b	0.020419171
167	0xbc1315e5	-0.008977388
168	0x3e090a47	0.13382827
169	0x3da02990	0.078204274
170	0x3d1c3b67	0.038142588
171	0x3da9e6ee	0.082959995
172	0x3d91d2ab	0.0712026
173	0x3c894d74	0.016760565
174	0x3c9ee619	0.019396828
175	0xbc7a6f37	-0.015285305
176	0x3d48a51b	0.04898558
177	0xbd510e7c	-0.051039204
178	0x3e017567	0.12642442
179	0xbdad3d26	-0.08458929
180	0xbdf3b970	-0.11900604
181	0xbe337bb1	-0.17527653
182	0xbe0e7039	-0.13909997
183	0x3cf16430	0.029466718
184	0x3cbfbc6f	0.023405282
185	0xbe091e1c	-0.13390392
186	0xbddb17f2	-0.106979266
187	0xbe365c6b	-0.17808692
188	0x3deaac54	0.1145865
189	0xbe05dffc	-0.13073725
190	0x3dd4ff09	0.104002066
191	0x3dcf5048	0.10122734
192	0x3db94e13	0.090480946
193	0x3e2ceda9	0.16887535
194	0x3dd2481b	0.10267659
195	0x3e255f39	0.16149606
196	0xbcb5e152	-0.022202168
197	0xbdfbbbac	-0.12291655
198	0xbdd9debb	-0.106381856
199	0x3bf53ae3	0.0074838265
200	0x3db64397	0.088996105
201	0x3e46bef3	0.19408779
202	0xbd460962	-0.048348792
203	0x3de4d0b2	0.11172618
204	0xbdaba255	-0.08380572
205	0x3d56d831	0.05245227
206	0xbd87fba4	-0.066397935
207	0x3d9a23bb	0.07526346
208	0xbe2f62e7	-0.17127572
209	0xbe197913	-0.14987592
210	0xbc04096b	-0.008058886
211	0x3dfaff79	0.12255759
212	0x3d81aae1	0.06331421
213	0x3deb66c3	0.114942096
214	0x3e370cfd	0.17876048
215	0x3d6c7e60	0.057737708
216	0x3e40e22d	0.18836279
217	0x3dbe2503	0.09284403
218	0xbe10108b	-0.1406881
219	0x3e06c0a8	0.1315943
220	0xbda2c8eb	-0.07948478
221	0x3df74e43	0.12075474
222	0x3d1509d0	0.03638631
223	0x3dda69eb	0.106647335
224	0x3e081ba8	0.132918
225	0xbdc086b1	-0.0940069
226	0xbd7b3d93	-0.06133802
227	0x3e10005b	0.14062636
228	0xbb9c3a23	-0.0047676726
229	0x3defe6d3	0.11713948
230	0x3e0f5be7	0.13999902
231	0x3cb2f954	0.021847405
232	0xbde9ca6b	-0.11415561
233	0x3d5f4bac	0.054515526
234	0xbd9b649f	-0.07587551
235	0x3dc38cc2	0.09548332
236	0x3df5bb9f	0.119986765
237	0x3cf3a27d	0.029740566
238	0xbdf541f9	-0.11975474
239	0xbab2051d	-0.0013581846
240	0xbe52a578	-0.20570934
241	0x3bcac551	0.0061880727
242	0x3e3e34fd	0.18574901
243	0x3de468b8	0.11152786
244	0xbdb685e2	-0.08912255
245	0xbdf52406	-0.119697616
246	0x3d7f1688	0.062277347
247	0xbde47b82	-0.1115637
248	0x3da4b8a2	0.080430284
249	0xbd19698f	-0.037454184
250	0xbdc7c8b7	-0.0975508
251	0xbd713636	-0.05888959
252	0xbcb97f15	-0.022643605
253	0x3c78de47	0.015189714
254	0x3dc1c298	0.09460944
255	0x3e431f85	0.19054992

bias_ih_l0 f4 [128]
0	0xbdfa14f5	-0.122110285
1	0xbda83650	-0.08213484
2	0xbe81b114	-0.25330412
3	0x3c223df7	0.009902469
4	0x3cc41699	0.023936557
5	0x3cc23b03	0.02370978
6	0xbe437cad	-0.19090529
7	0xbe9beb71	-0.30453065
8	0xbe712a97	-0.23551403
9	0xbdee3912	-0.11631979
10	0xbc32a637	-0.0109038865
11	0x3d279d21	0.040921334
12	0x3c83496a	0.016026217
13	0xbe68d9c9	-0.22739328
14	0xbe7d1bce	-0.24717638
15	0xbd4a7a82	-0.04943324
16	0xbdf201ed	-0.118167736
17	0xbe7b8133	-0.24561004
18	0x3d7363f4	0.059421495
19	0xbe0e11d4	-0.13873988
20	0xbdddce8f	-0.108304136
21	0xbe1449cc	-0.14481276
22	0x3da4671e	0.080274805
23	0xbe02746a	-0.12739721
24	0xbe4b5ae8	-0.19858897
25	0xbe3e817e	-0.18604085
26	0xbdcc8ab6	-0.099873945
27	0xbd7d5ad4	-0.0618542
28	0xbe6b5527	-0.22981702
29	0xbd5a901b	-0.053360086
30	0xbc7d8bac	-0.015475195
31	0x383c66ae	4.491832e-05
32	0xbd2383c9	-0.039920602
33	0x3db2fe96	0.08739965
34	0x3d49118b	0.049088996
35	0xbdda6027	-0.10662871
36	0xbcbc7dbe	-0.023009177
37	0xbd5f75b6	-0.054555617
38	0x3cb7b672	0.022425864
39	0x3b949dd4	0.004535416
40	0x3dabac56	0.0838248
41	0x3e0a62e7	0.13514291
42	0x3d079d3b	0.03310893
43	0xbe443a55	-0.19162877
44	0xbe069bee	-0.1314542
45	0xbe234a7c	-0.15946382
46	0xbe5cd5b1	-0.21565892
47	0xbd5fded3	-0.05465586
48	0x3dd45d0f	0.10369312
49	0xbe918be7	-0.2842705
50	0xbcb3b521	-0.021936955
51	0xbde03d8a	-0.10949238
52	0xbdc7b49b	-0.09751245
53	0xbc9f7705	-0.019465933
54	0xbda63de7	-0.08117276
55	0x3dcb9d19	0.099420734
56	0xbcd409a0	-0.025883496
57	0xbd22f9c5	-0.03978898
58	0x3de0d923	0.109789155
59	0x3d943160	0.0723598
60	0x3c62b001	0.013835908
61	0x3b9e1734	0.0048245434
62	0x3ccfae54	0.02535168
63	0xbe43aa55	-0.19107945
64	0x3d5675ef	0.052358564
65	0xbdb51fc1	-0.08843947
66	0x3d87c6b7	0.06629699
67	0xbe0e1472	-0.13874987
68	0x3d899dde	0.06719564
69	0xbd796d3e	-0.060895197
70	0xbdb58da4	-0.088649064
71	0xbd4ae1ea	-0.049531855
72	0x3df74ec3	0.120755695
73	0xbe1a737b	-0.15083115
74	0x3def0ffe	0.11672972
75	0xbe013c74	-0.12620717
76	0xbe17b142	-0.14813712
77	0x3d3b9b99	0.045802686
78	0xbd80cb9b	-0.06288835
79	0xbd4ac998	-0.04950866
80	0x3e1471c7	0.14496528
81	0x3d91ab97	0.07112806
82	0xbe1aa6d4	-0.15102702
83	0x3d86a310	0.065740705
84	0xbdb21056	-0.08694522
85	0x3d979bf3	0.07402792
86	0xbda60220	-0.08105874
87	0x3dde52cb	0.10855635
88	0xbe003264	-0.12519222
89	0x3ccbfde5	0.02490134
90	0x3d838fd2	0.06423916
91	0x3dc2b187	0.09506517
92	0xbd605a40	-0.05477357
93	0xbd6c833e	-0.05774235
94	0x3cb535c6	0.022120368
95	0x3d05ae64	0.032637015
96	0xbd3f5731	-0.04671401
97	0x3d36a800	0.04459381
98	0xbe21aa08	-0.15787518
99	0xbdcb40a9	-0.09924442
100	0xbdd83db5	-0.10558645
101	0xbd2520cf	-0.04031449
102	0xbd669d88	-0.056302577
103	0xbc68a459	-0.01419934
104	0xbb4fab5f	-0.0031687838
105	0xbe474b6f	-0.1946237
106	0x3d9350a5	0.07193116
107	0x3c00bd91	0.007857696
108	0xbdc3fa9c	-0.09569284
109	0xbe1296c6	-0.14315328
110	0xbc69b0de	-0.01426336
111	0x3da13aa8	0.07872516
112	0xbe0fa78f	-0.14028762
113	0xbc21fd78	-0.009887092
114	0x3d60deb5	0.05489989
115	0x3d1af6e3	0.037833106
116	0x3da8d2a1	0.08243299
117	0xbe35120b	-0.17682664
118	0xbd48cb7f	-0.049022194
119	0xbe090e2d	-0.13384314
120	0xbe720ac9	-0.23636927
121	0x3bb5a32a	0.0055431323
122	0x3cd1b86a	0.02560063
123	0x3d0f7081	0.0350194
124	0xbd3e8ef0	-0.046523035
125	0xbe0959d8	-0.13413179
126	0xbcef5694	-0.029216088
127	0x3ded00f7	0.1157245

bias_hh_l0 f4 [128]
0	0xbe65020a	-0.22364059
1	0xbe1b8cd4	-0.1519044
2	0x3da4654a	0.08027132
3	0xbe81d319	-0.25356367
4	0xbde9a67a	-0.11408706
5	0xbe854a2a	-0.26033145
6	0xbde07d0d	-0.109613515
7	0xbdc36082	-0.09539892
8	0xbdd08333	-0.10181274
9	0x3d90f7de	0.07078527
10	0xbdb122d0	-0.08649218
11	0xbcc09002	-0.023506168
12	0xbd82033b	-0.063482724
13	0x3cadf317	0.021234078
14	0x3d24e402	0.040256508
15	0xbe49beff	-0.19701765
16	0x3e085080	0.13311958
17	0xbcf63f41	-0.030059459
18	0xbe481fe5	-0.19543417
19	0x3db51940	0.08842707
20	0x3d7737db	0.060356002
21	0xbddefbd3	-0.108878754
22	0xbda93080	-0.08261204
23	0xbdd69236	-0.10477106
24	0xbe743895	-0.2384971
25	0xbda69dc2	-0.08135559
26	0xbe6f8245	-0.23389538
27	0xbe46889b	-0.19388048
28	0xbe51b90f	-0.2048075
29	0x3de9bbbe	0.11412762
30	0x3d6cac02	0.057781227
31	0xbe393d52	-0.18089798
32	0xbe820136	-0.2539155
33	0xbdddd1b7	-0.108310156
34	0xbe873583	-0.26408014
35	0xbdb1d9ab	-0.08684095
36	0x3a35ff98	0.00069426885
37	0xbe6c462a	-0.2307364
38	0x3d18c0bd	0.037293185
39	0xbe8219f9	-0.2541044
40	0xbd66454a	-0.056218423
41	0x3b99e1cf	0.004696108
42	0x3d9b4e5b	0.075833045
43	0xbd9262dd	-0.07147763
44	0xbe5f2734	-0.21792299
45	0x3d24c1e1	0.04022396
46	0xbd62504b	-0.055252355
47	0xba9c5de3	-0.0011929836
48	0xbe1267ba	-0.14297381
49	0xbe1f2cd6	-0.15544447
50	0xbe606011	-0.21911646
51	0x3df05d35	0.11736528
52	0xbe4978f7	-0.1967505
53	0xbe62e18c	-0.22156352
54	0xbb5b8a1f	-0.0033499075
55	0xbdbcff28	-0.09228355
56	0xbe6a98f2	-0.22909907
57	0xbe039108	-0.12848294
58	0xbdd3005f	-0.10302805
59	0xbe129c64	-0.14317471
60	0xbe2a79dd	-0.1664805
61	0xbe3d421d	-0.18482251
62	0xbdc709cb	-0.09718665
63	0xbdeb1acc	-0.114797205
64	0xbcbb0de5	-0.022833774
65	0xbda631ab	-0.08114942
66	0xbbaea9d6	-0.0053303046
67	0x3d68a81e	0.056800954
68	0x3d3c197c	0.04592274
69	0x3b44d4ad	0.0030033991
70	0xbcfa6e27	-0.030570103
71	0x3da1098f	0.07863151
72	0xbd2ae563	-0.041722666
73	0x3e014fce	0.126281
74	0x3d5bb741	0.05364156
75	0x3e030e84	0.12798506
76	0x3ddbc881	0.107316025
77	0xbcf84f00	-0.030311108
78	0x3deeef6b	0.11666759
79	0xbdbf76e3	-0.09348848
80	0xbe0f6507	-0.14003383
81	0xbdb258e8	-0.08708364
82	0x3d45844f	0.048221882
83	0x3c197861	0.0093670795
84	0x3d8e474a	0.06947191
85	0x3c8a982e	0.016918268
86	0xbdda3476	-0.106545374
87	0xbdccc4cc	-0.099984735
88	0x3c9d6dba	0.01921736
89	0x3d66d068	0.056351095
90	0x3d399fcc	0.04531841
91	0x3d818d5f	0.063257925
92	0xbca424b0	-0.020037025
93	0x3d867ae8	0.06566411
94	0xbd3f3aa4	-0.046686783
95	0xbdce7e69	-0.100827046
96	0xbe85170a	-0.2599414
97	0x3d73008a	0.059326686
98	0x3bb3b72c	0.0054844823
99	0xbdda2430	-0.106514335
100	0x3c7c6d6a	0.015406946
101	0xbd428f8b	-0.047500174
102	0x3de6b7ae	0.11265503
103	0xbead1572	-0.33805424
104	0xbe6e024d	-0.23243065
105	0x3c9f055f	0.01941174
106	0xbdc877f2	-0.09788503
107	0x3bb17b7d	0.0054163323
108	0xbe1b72dd	-0.15180536
109	0x3ca95fe7	0.020675613
110	0xbe261b4e	-0.16221353
111	0xbce14fdb	-0.027503898
112	0xbe0d2953	-0.13785295
113	0xbd90bb91	-0.070670255
114	0xbd2fe8bc	-0.042946562
115	0xbde828da	-0.11335917
116	0xbe613818	-0.21994054
117	0xbb900d81	-0.004396141
118	0x3caf3469	0.021387296
119	0xbd593d9a	-0.053037263
120	0xbd028549	-0.031865392
121	0xbdfb2f85	-0.12264923
122	0xbde5fd13	-0.11229911
123	0x3db57a6e	0.08861242
124	0xbddba6e0	-0.10725188
125	0xbe1abd14	-0.1511119
126	0x3d4d54e7	0.050129797
127	0xbd8ba1c7	-0.06817966
