experiments/pedestrians/models/06_Aug_2023_21_23_08/model_registrar-23.pt (torch, 713991 bytes, 82 tensors)

weight f4 [64, 10]
-0.06165187 -0.08068628 0.23415154 0.07100237 -0.6809414 0.819587 -0.000507372 -0.26133406
-0.17744347 0.10440903 0.03757562 0.26082698 0.37766513 -0.026799034 -0.1226013 -0.15491778
-0.27344325 -0.35665086 -0.09807407 0.10476304 0.08892014 -0.049545 -0.11215648 0.49777398
-0.050897915 0.06678849 -0.31421965 -0.07689667 -0.04523592 -0.20357516 -0.01874325 0.049118947
0.0010317116 -0.05768775 -0.61059034 0.65586126 -0.26063368 -0.19914067 -0.02223517 -0.24113901
0.049663797 -0.03345276 0.08451242 0.15875004 0.5401317 0.40862733 0.28349125 0.16416018
-0.24682306 0.17546858 -0.031223532 0.13445807 0.3592055 -0.08974425 -0.0024853756 0.5403842
0.1788372 -0.0050279503 -0.052483372 0.08164401 -0.08535642 0.11151144 0.47931734 0.13480057
0.44650832 -0.4252574 -0.23189627 0.29800484 0.33985242 0.2579637 -0.033992585 -0.14208506
0.098035365 -0.3205434 -0.61848074 -0.35919765 0.3706719 -0.0053902892 0.018194929 0.0075701554
0.09289238 0.058371592 -0.3257001 -0.072401136 -0.6251947 -0.05030168 -0.18746383 -0.21139361
0.19113638 0.06275519 -0.06699785 0.12916224 0.41854206 0.35595727 0.06926068 0.33416325
0.1570587 -0.22544868 0.30643317 0.2782227 -0.20410398 0.076933995 0.23931381 0.21408488
-0.18553671 -0.061197713 -0.14198022 0.11206664 0.21150291 -0.27544862 0.057789326 -0.117846705
0.4832129 -0.13736467 -0.7591717 -0.840592 0.098899595 0.40808997 -0.11985692 -0.059747435
-0.22529057 0.16302016 0.35042325 0.19976044 0.20879595 0.18937202 0.224297 -0.058693986
0.062017113 -0.15975471 -0.0054994314 0.10771792 -0.0716578 -0.5497595 0.13505603 -0.028825004
0.0065307524 -0.25914475 -0.12837611 -0.28835484 0.15446097 -0.10960133 -0.30811882 0.3908157
-0.11917794 -0.0863624 0.26724496 0.042082332 0.007921108 0.37528214 -0.01100845 0.06432796
0.06553014 -0.21212451 0.39161053 -0.6268025 -0.24751915 0.14838243 -0.23063034 0.086176045
-0.13716528 0.26076606 0.102639414 0.089685924 -0.73828214 -0.10319944 0.11266733 0.28494957
0.03687316 0.4447663 0.3405502 0.3185071 0.15241398 0.38811693 -0.13851415 0.7312157
0.10218202 0.107797556 0.035857987 0.20524919 0.055689074 0.1411764 0.5980046 -0.12863927
-0.1181007 0.07121329 0.27147326 0.02179589 0.19246311 0.29804638 0.2780956 0.12820797
-0.4352084 -0.10286326 -0.44127497 -0.12387073 0.14437218 0.19689317 -0.17066471 0.29203632
-0.028339997 0.010333027 -0.23847562 0.16227402 0.4021625 -0.5709237 -0.031749304 -0.16942452
0.19966047 -0.1261636 -0.2264368 -0.04185566 0.026999176 0.056007978 0.50193256 0.9882712
0.37760594 0.18488616 0.21996492 -0.0041238465 0.047543004 0.2435711 -0.22744827 0.04167089
0.39374343 0.49428067 0.23530768 0.25947818 0.10099717 -0.15354209 0.029929446 -0.15478508
-0.05034421 0.41585028 0.020723844 -0.5112144 -0.1352008 0.060635533 -0.1377821 0.12130345
0.113908306 -0.20016828 0.008146904 -0.2110715 0.35496736 0.3982514 0.011400049 -0.34203497
-0.08080231 -0.31817594 -0.13750269 -0.15431112 0.21977505 0.41831872 -0.16014268 -0.4560456
00000000: ac86 7cbd d93e a5bd 6cc5 6f3e b169 913d
00000010: 2d52 2ebf 74d0 513f 2901 05ba 94cd 85be
00000020: beb3 35be 67d4 d53d e5e8 193d 1d8b 853e
00000030: 535d c13e a689 dbbc 6416 fbbd c4a2 1ebe
00000040: c100 8cbe f19a b6be 0fdb c8bd 018e d63d
00000050: c31b b63d b3ef 4abd 4cb2 e5bd 3bdc fe3e
00000060: 557a 50bd 67c8 883d 66e1 a0be 007c 9dbd
00000070: 4d49 39bd 0276 50be 728b 99bc f330 493d
00000080: 7f3a 873a fd49 6cbd a64f 1cbf 86e6 273f
00000090: c771 85be 88eb 4bbe 8826 b6bc 25ed 76be
000000a0: 446c 4b3d c305 09bd d914 ad3d 5f8f 223e
000000b0: 1246 0a3f 9a37 d13e c425 913e 9b19 283e
000000c0: 2fbf 7cbe 09ae 333e 7ec8 ffbc 60af 093e
000000d0: c9e9 b73e d5cb b7bd afe1 22bb 9e56 0a3f
000000e0: 1921 373e 81c1 a4bb cef8 56bd fa34 a73d
000000f0: 59cf aebd 1c60 e43d 1569 f53e 2909 0a3e
00000100: bd9c e43e 57bb d9be 3776 6dbe 1794 983e
00000110: 2301 ae3e d113 843e cf3b 0bbd bf7e 11be
00000120: c4c6 c83d 441e a4be c154 1ebf c1e8 b7be
00000130: b5c8 bd3e 06a1 b0bb 880d 953c 110f f83b
00000140: 5c3e be3d 0d17 6f3d 2ac2 a6be 0c47 94bd
00000150: c30c 20bf 2209 4ebd 85f6 3fbe 9177 58be
00000160: 41b9 433e cb85 803d 2b36 89bd 1b43 043e
00000170: 254b d63e 0840 b63e 8bd8 8d3d 7217 ab3e
00000180: ffd3 203e 05dc 66be cfe4 9c3e 3573 8e3e
00000190: a200 51be 928f 9d3d ae0e 753e 1139 5b3e
000001a0: 56fd 3dbe 74aa 7abd 4363 11be 3283 e53d
000001b0: 3894 583e 9a07 8dbe 80b4 6c3d 9d59 f1bd
000001c0: ae67 f73e 53a9 0cbe 1459 42bf 0a31 57bf
000001d0: df8b ca3d 2bf1 d03e 8b77 f5bd bab9 74bd
000001e0: 92b2 66be c2ee 263e ad6a b33e 008e 4c3e
000001f0: 9bce 553e bdea 413e 1dae 653e 1b69 70bd
00000200: a805 7e3d bd96 23be 9334 b4bb 369b dc3d
00000210: 53c1 92bd 0abd 0cbf 214c 0a3e 6a22 ecbc
00000220: ecff d53b 9fae 84be 0775 03be 3fa3 93be
00000230: 042b 1e3e a976 e0bd c0c1 9dbe ff18 c83e
00000240: 9013 f4bd c5de b0bd 55d4 883e 865e 2c3d
00000250: 89c7 013c fb24 c03e c95c 34bc 61be 833d
00000260: ab34 863d 2b37 59be 2d81 c83e 2176 20bf
00000270: a975 7dbe 90f1 173e 5c2a 6cbe 117d b03d
00000280: 0e75 0cbe 2183 853e 9d34 d23d 41ad b73d
00000290: 0f00 3dbf 3a5a d3bd 21be e63d e9e4 913e
000002a0: 5008 173d 69b8 e33e 995c ae3e 5d13 a33e
000002b0: 6912 1c3e 43b7 c63e a7d6 0dbe f430 3b3f
000002c0: cf44 d13d f7c4 dc3d d3df 123d d82c 523e
000002d0: 3a1a 643d 8c90 103e d416 193f 03ba 03be
000002e0: c8de f1bd 46d8 913d 8bfe 8a3e 4b8d b23c
000002f0: 0d15 453e 8999 983e 8c62 8e3e f348 033e
00000300: a3d3 debe f9a9 d2bd cbee e1be f0af fdbd
00000310: 4dd6 133e 5d9e 493e bbc2 2ebe c985 953e
00000320: 4829 e8bc db4b 293c f432 74be 292b 263e
00000330: 3ee8 cd3e 0e28 12bf 8f0b 02bd 9f7d 2dbe
00000340: cb73 4c3e 0831 01be 0cdf 67be d770 2bbd
00000350: 602d dd3c 9f68 653d a77e 003f 57ff 7c3f
00000360: 9155 c13e cc52 3d3e 7c3e 613e 5521 87bb
00000370: 74bc 423d b46a 793e 33e8 68be 18af 2a3d
00000380: bd98 c93e 5b12 fd3e 7ff4 703e 53da 843e
00000390: 9bd7 ce3d 233a 1dbe 992e f53c fb7f 1ebe
000003a0: bb35 4ebd 54ea d43e 0dc5 a93c f2de 02bf
000003b0: 1472 0abe f75c 783d c016 0dbe f16d f83d
000003c0: c248 e93d eaf8 4cbe 987a 053c 2123 58be
000003d0: 48be b53e 9ce7 cb3e 45c7 3a3c 351f afbe
000003e0: ae7b a5bd f5e7 a2be 81cd 0cbe bc03 1ebe
000003f0: b60c 613e df2d d63e 71fc 23be cf7e e9be

bias f4 [64]
-0.21711662 -0.08915154 -0.29194728 0.30049506 0.13597155 0.2901565 -0.24700508 -0.02134321
0.042300668 0.24941526 -0.04965062 0.44417542 -0.10203085 0.09027177 -0.08533142 -0.06396621
-0.04495422 -0.14456804 0.25599048 0.18799344 -0.09316639 0.16949129 0.17539392 -0.13746677
-0.14483877 0.11725549 -0.036010828 -0.1920586 -0.32369635 0.06928415 0.15798996 -0.19648267
-0.14165291 0.11027259 -0.30730498 0.24975096 0.11697123 -0.15421583 -0.09464069 0.048985083
-0.19961594 0.2527049 -0.041832313 -0.12631296 -0.2260231 0.13436623 -0.11481984 -0.27498934
0.09586851 -0.13771567 -0.023888411 0.23664683 -0.32803848 -0.3303289 -0.38909578 0.07646813
0.009735017 0.22155233 0.18817501 0.33505565 -0.32415453 0.16763996 0.40030667 -0.16633189
00000000: d253 5ebe 1595 b6bd 1d7a 95be 7dda 993e
00000010: 203c 0b3e 658f 943e e6ee 7cbe f5d7 aebc
00000020: 7743 2d3d b766 7f3e 735e 4bbd f66a e33e
00000030: 8df5 d0bd 68e0 b83d 3dc2 aebd b700 83bd
00000040: eb21 38bd a509 14be 2f11 833e 5a81 403e
00000050: 05ce bebd 208f 2d3e 779a 333e 17c4 0cbe
00000060: 9d50 14be a523 f03d 1780 13bd 02ab 44be
00000070: 87bb a5be d9e4 8d3d 1fc8 213e c132 49be
00000080: 760d 11be 98d6 e13d 1457 9dbe b7be 7f3e
00000090: 9d8e ef3d c1ea 1dbe fad2 c1bd 95a4 483d
000000a0: 1f68 4cbe 8962 813e 5c58 2bbd 2f58 01be
000000b0: 9972 67be 4d97 093e aa26 ebbd 67cb 8cbe
000000c0: b656 c43d 5605 0dbe a1b1 c3bc 8c53 723e
000000d0: a9f4 a7be df20 a9be 9037 c7be 539b 9c3d
000000e0: 9f7f 1f3c 9dde 623e f3b0 403e 6a8c ab3e
000000f0: 95f7 a5be cfa9 2b3e fff4 cc3e e852 2abe

weight f4 [32, 32]
-0.14076516 -0.20406578 0.22642349 0.021292157 -0.12295429 -0.0061463513 -0.052163776 0.04934035
-0.15658554 -0.46212757 0.09846183 0.08653343 -0.03321381 0.19296604 -0.17036463 0.20745066
-0.009209429 0.28727794 0.19387515 0.2738276 -0.29636467 0.18308996 -0.0015734257 -0.39407626
-0.105150916 0.102996565 0.12812793 0.11518318 0.16419993 0.06959776 -0.048373792 0.24546269
0.054684337 -0.049820364 -0.4260801 0.056414064 -0.19096076 0.07734542 0.14844039 -0.062153332
-0.32505342 -0.343675 -0.29235172 -0.2779123 0.19416697 -0.02592948 -0.073250264 -0.07457401
0.007768964 0.16241147 0.13621746 0.37176037 0.21104135 -0.12810203 0.115761064 0.036810715
0.02309183 -0.0046090153 0.14639516 0.15364635 -0.17206015 -0.20097429 0.13683026 -0.07061544
0.33099717 -0.18435548 0.09711994 -0.4581807 -0.23500603 0.0040946873 -0.19413453 -0.19667754
-0.16331027 0.19682705 0.19890465 -0.13150656 -0.31762922 0.3329868 -0.3031201 -0.008841
0.0011227542 0.3663895 0.3543339 -0.49349606 -0.14122626 0.06025732 -0.23061009 -0.2639226
-0.08743476 -0.11632897 0.0398729 -0.14266878 0.2225903 -0.27230397 -0.25241292 -0.09554476
0.2168431 -0.15203443 0.049618676 0.12930796 -0.06444822 0.165761 0.27775338 -0.22549489
-0.16855365 0.25347164 0.08726058 -0.16810755 0.32479325 -0.112936 -0.103875555 -0.04058988
-0.24103296 0.07361686 -0.13733171 0.26810762 0.020808531 0.07413532 0.21760565 0.037329245
-0.09521597 -0.0004646462 0.05774078 0.23923257 -0.084340475 0.04661547 0.2613248 0.059396602
-0.3258114 -0.070620865 0.19444613 -0.0007264846 0.19112213 -0.059287112 0.111164436 0.29343107
0.10124208 -0.21078804 0.16379395 0.13205388 -0.20165445 0.14172699 0.012230092 0.046122186
-0.061378147 0.009365609 0.16241623 0.32724303 0.19805734 -0.2803283 0.20223457 0.13604806
0.14541239 0.27093863 0.078818716 -0.12938908 0.06230783 0.33343023 0.10394847 -0.1191562
0.44094023 -0.0061223744 -0.030900845 -0.39161584 -0.014288871 0.19933811 -0.012760846 -0.1799306
-0.036967035 0.13844477 0.167876 0.051522538 -0.029048711 0.13075733 -0.18041447 -0.078411415
-0.1353074 -0.19281387 0.07364031 -0.31584734 -0.08980145 0.10156641 -0.2151825 0.02497109
-0.1298898 0.19370945 0.033992045 0.039776333 -0.054748647 -0.30010965 -0.060405727 0.01638739
-0.15951608 0.046343513 0.07556213 -0.094563365 0.03571143 -0.051688865 0.5048239 0.3227495
0.10552993 0.19359075 0.054172758 0.33824286 -0.1713932 -0.15476559 0.20200783 -0.1240217
0.010024613 -0.17530291 -0.17997977 0.1542076 0.0904268 -0.28332552 0.4376009 0.40709102
0.22846362 0.18797565 0.050240196 -0.09430661 -0.09093715 0.05181148 0.09626112 -0.03555973
0.15090847 -0.036057778 0.0701273 -0.30641013 0.043761384 0.27275234 0.34872246 0.14052208
-0.1376437 0.09578531 -0.025772857 0.18340701 0.27446774 0.13488108 -0.08987007 0.1958841
0.045965165 0.22891665 0.05495446 0.41830015 0.16892162 0.07609673 0.16641077 -0.048314206
0.008003456 0.14147621 0.0708853 0.16970028 0.03504904 -0.06218336 0.23726857 -0.09751605
00000000: be24 10be 9ff6 50be 8fdb 673e e46c ae3c
00000010: 75cf fbbd 5567 c9bb afa9 55bd 1b19 4a3d
00000020: f657 20be fc9b ecbe 5ba6 c93d 7038 b13d
00000030: 340b 08bd e498 453e 1174 2ebe f26d 543e
00000040: 25e3 16bc 1816 933e 3587 463e 2233 8c3e
00000050: 1cbd 97be ef7b 3b3e 683b ceba 5dc4 c9be
00000060: 5d59 d7bd ddef d23d f833 033e 29e5 eb3d
00000070: 0724 283e 4589 8e3d 9923 46bd 925a 7b3e
00000080: affc 5f3d 7010 4cbd 2c27 dabe 6f12 673d
00000090: 388b 43be 4767 9e3d c200 183e 7e94 7ebd
000000a0: 676d a6be 2bf6 afbe 20af 95be 854a 8ebe
000000b0: b5d3 463e 106a d4bc 3c04 96bd 42ba 98bd
000000c0: cb92 fe3b 314f 263e 977c 0b3e 6057 be3e
000000d0: 391b 583e 2e2d 03be 2314 ed3d d5c6 163d
000000e0: 142b bd3c 3907 97bb 9de8 153e 7855 1d3e
000000f0: 8930 30be 34cc 4dbe 3b1d 0c3e d49e 90bd
00000100: 7678 a93e afc7 3cbe d2e6 c63d a996 eabe
00000110: 6ca5 70be ba2c 863b 34cb 46be d665 49be
00000120: cf3a 27be 088d 493e a9ad 4b3e a8a9 06be
00000130: 4ca0 a2be 3f7d aa3e 8f32 9bbe d7d9 10bc
00000140: 6129 933a 6897 bb3e 416b b53e 84ab fcbe
00000150: 9e9d 10be 61d0 763d 0d25 6cbe dd20 87be
00000160: ff10 b3bd e23d eebd c451 233d c417 12be
00000170: b6ee 633e 6d6b 8bbe 443c 81be f9ac c3bd
00000180: 1e0c 5e3e eaae 1bbe f43c 4b3d 4e69 043e
00000190: 6efd 83bd 40bd 293e b135 8e3e 22e8 66be
000001a0: 5499 2cbe 09c7 813e adb5 b23d 6324 2cbe
000001b0: 4d4b a63e fd4a e7bd b5bc d4bd 9341 26bd
000001c0: 58d1 76be 70c4 963d afa0 0cbe 6745 893e
000001d0: a776 aa3c 42d4 973d 04d4 5e3e 8de6 183d
000001e0: 9700 c3bd c29b f3b9 9981 6c3d 62f9 743e
000001f0: b3ba acbd ddef 3e3d 5dcc 853e da49 733d
00000200: c0d0 a6be aca1 90bd e31c 473e 8e71 3eba
00000210: 85b5 433e 0bd7 72bd 2eaa e33d 993c 963e
00000220: 0258 cf3d d2d8 57be 9ab9 273e 2239 073e
00000230: 817e 4ebe e120 113e b960 483c 9eea 3c3d
00000240: a767 7bbd 3672 193c 7150 263e 668c a73e
00000250: 8bcf 4a3e 3187 8fbe 9416 4f3e 2f50 0b3e
00000260: fce6 143e 78b8 8a3e b56b a13d 927e 04be
00000270: 7f36 7f3d 5eb7 aa3e efe2 d43d 2a08 f4bd
00000280: ebc2 e13e 339e c8bb c523 fdbc df81 c8be
00000290: de1b 6abc 4a1f 4c3e de12 51bc ba3f 38be
000002a0: bf6a 17bd 77c4 0d3e b0e7 2b3e 4c09 533d
000002b0: 90f7 edbc 40e5 053e 92be 38be 2a96 a0bd
000002c0: 068e 0abe 0071 45be bbd0 963d beb6 a1be
000002d0: d3e9 b7bd 0d02 d03d cd58 5cbe 2c90 cc3c
000002e0: d501 05be c55b 463e 3e3b 0b3d 82ec 223d
000002f0: 1e40 60bd f9a7 99be ff6b 77bd d93e 863c
00000300: 2f58 23be b2d2 3d3d 51c0 9a3d 70aa c1bd
00000310: 2646 123d b4b7 53bd 243c 013f 6c3f a53e
00000320: 1320 d83d a73c 463e 41e4 5d3d 2b2e ad3e
00000330: b381 2fbe df7a 1ebe 24db 4e3e 17ff fdbd
00000340: 463e 243c 9b82 33be 9e4c 38be 99e8 1d3e
00000350: b031 b93d 0b10 91be 3a0d e03e 3c6e d03e
00000360: 5ef2 693e b07c 403e aac8 4d3d d323 c1bd
00000370: 423d babd 4638 543d 8d24 c53d 14a7 11bd
00000380: c087 1a3e 52b1 13bd e79e 8f3d cae1 9cbe
00000390: 233f 333d 32a6 8b3e c08b b23e 05e5 0f3e
000003a0: 78f2 0cbe 172b c43d 9921 d3bc 0ccf 3b3e
000003b0: 0987 8c3e 441e 0a3e cd0d b8bd d795 483e
000003c0: f845 3c3d 2069 6a3e ee17 613d 702b d63e
000003d0: caf9 2c3e 9ad8 9b3d 9667 2a3e 1ee5 45bd
000003e0: ed20 033c 24df 103e 502c 913d e9c5 2d3e
000003f0: 958f 0f3d fbb3 7ebd 88f6 723e 7fb6 c7bd

bias f4 [32]
-0.13618833 -0.060811657 0.20207384 -0.026436169 -0.2052864 0.15375258 0.055938575 0.1516189
0.12899996 -0.016564552 0.09031085 0.14406532 -0.053589884 0.01345134 -0.058875527 0.13591377
-0.16653313 0.12590909 0.09083867 -0.03862398 0.13767762 -0.13952705 -0.115846835 0.04002057
-0.112530075 0.061879124 -0.14129865 -0.20687738 -0.15077952 -0.19850267 -0.035390068 -0.033824015
00000000: f474 0bbe a515 79bd 72ec 4e3e aa90 d8bc
00000010: 9936 52be 5171 1d3e d91f 653d fc41 1b3e
00000020: 9118 043e 62b2 87bc e5f4 b83d dc85 133e
00000030: 1181 5bbd 0263 5c3c 7727 71bd fb2c 0b3e
00000040: a987 2abe 50ee 003e a009 ba3d 2e34 1ebd
00000050: 5dfb 0c3e 2ee0 0ebe 1b41 edbd 9cec 233d
00000060: 2b76 e6bd f774 7d3d 98b0 10be aad7 53be
00000070: f265 1abe 4944 4bbe 2df5 10bd 0d8b 0abd

weight f4 [32, 64]
-0.050972015 0.0041405708 -0.06208232 0.047139198 -0.106506884 0.09163049 -0.09085503 -0.09938024
-0.078985885 0.056611687 -0.04618652 0.046776667 -0.10609117 -0.07584046 -0.045897007 -0.024564967
-0.095357925 0.081848845 -0.029478893 0.040123463 0.08839294 0.02328825 0.03418134 0.12065734
-0.056376174 0.039593905 -0.055614516 0.08933121 0.09983206 -0.115246534 0.106705725 0.0596893
0.05447088 0.051459357 0.10391238 -0.016504943 -0.10571231 -0.035868615 -0.08803433 0.008263335
-0.023338437 -0.06704812 -0.011365175 0.11842547 -0.009859428 0.0039687604 -0.01949507 0.019650877
0.11137658 0.07643661 0.04437019 0.027163818 0.02947411 0.048291653 -0.016152933 -0.1161761
-0.07730149 0.106698215 0.0074716806 -0.10125919 0.019715935 0.10328396 -0.11812496 -0.08415492
-0.0497832 0.005017191 -0.029153675 -0.013736397 -0.121861264 0.05853489 0.109717906 0.076404795
-0.08851655 -0.10076292 0.05190654 0.0028073192 0.051241368 -0.122143924 -0.0074528754 0.08815546
0.057988927 0.0045646727 0.02457738 -0.011835009 -0.06872919 -0.04723741 -0.07612246 0.10382615
0.06878583 0.043715328 -0.09585656 0.09645273 0.03919284 0.08647433 -0.049173757 0.026499614
0.1220478 0.084082395 0.10024959 -0.026248097 0.09523465 -0.09790403 0.01081112 -0.070381865
-0.029151902 -0.03201218 0.009352386 0.11376746 0.06188549 -0.00052952766 0.08873069 -0.06405695
0.06442143 -0.0115915835 -0.02175136 0.014634177 -0.09576209 0.014444664 0.042029753 0.106866464
-0.038917884 0.045003444 0.12493901 -0.05362113 0.11882405 -0.062061504 0.055099368 0.048968762
0.034916013 0.098850384 -0.050520554 0.03285238 0.00070151687 -0.0940177 -0.030351743 -0.083477885
0.05526942 0.011236995 0.012245581 -0.03792134 0.00060106814 -0.038880393 0.035917014 0.121396214
0.018933818 -0.055364788 -0.076353505 0.009554878 -0.092730775 -0.09395628 -0.081359625 -0.0424556
0.009252191 0.08607645 0.04841742 0.095764846 -0.07848717 0.010548517 -0.11111009 0.071707144
0.026051238 0.12090184 -0.08890152 0.10024123 0.10552831 0.1010647 0.017836854 0.11365992
0.083479375 0.093259916 -0.008120105 -0.095924765 -0.0015555024 0.023442283 -0.08514613 -0.071704894
-0.119843304 -0.04381843 0.10888356 0.021374509 -0.0076350123 0.005019754 0.077943206 -0.110382944
-0.096448705 -0.041558802 -0.07193977 0.06447314 0.08832294 -0.12127823 -0.10608496 -0.12172723
0.04715681 0.100606814 -0.09691751 -0.057869554 0.039777577 -0.08162317 0.106184945 0.029145151
-0.03479795 0.008118823 0.038971066 -0.044201642 -0.09685698 0.000840202 0.0022768676 0.0025206506
-0.018241286 0.08025919 -0.034882396 -0.012099087 0.051398456 -0.078679666 0.033469826 -0.027639464
0.059959188 -0.06780805 0.004619792 0.012228668 -0.10057457 -0.09089278 0.047939166 -0.036382064
0.07423708 -0.12348282 -0.061791077 -0.10295774 0.049933925 -0.0036239177 -0.023315176 -0.020796418
-0.09770611 0.03544937 0.0031157285 -0.08626412 0.047035962 -0.0025123805 -0.12089345 0.06724003
0.066860884 -0.02355127 -0.08630477 0.005018756 0.09432247 0.11441748 -0.09435013 -0.056458622
0.09732805 0.06109728 0.07737662 -0.06221679 0.10769181 -0.10275824 -0.006021112 0.002595365
00000000: 08c8 50bd a0ad 873b 084a 7ebd 0815 413d
00000010: 4820 dabd c4a8 bb3d 3412 babd de87 cbbd
00000020: 5ac3 a1bd a8e1 673d 142e 3dbd e498 3f3d
00000030: 5446 d9bd 3e52 9bbd 80fe 3bbd 783c c9bc
00000040: 044b c3bd 5ea0 a73d b87d f1bc 8058 243d
00000050: 5c07 b53d 00c7 be3c bc01 0c3d 321b f73d
00000060: b4ea 66bd 382d 223d 0ccc 63bd 48f3 b63d
00000070: c074 cc3d 6006 ecbd 8888 da3d c47c 743d
00000080: dc1c 5f3d 0cc7 523d 04d0 d43d 6035 87bc
00000090: b27f d8bd f8ea 12bd 584b b4bd f062 073c
000000a0: 4030 bfbc 8650 89bd 0035 3abc 0e89 f23d
000000b0: 7089 21bc 600c 823b 20b4 9fbc e0fa a03c
000000c0: 6819 e43d cc8a 9c3d 84bd 353d a886 de3c
000000d0: b073 f13c 78cd 453d 2853 84bc bced edbd
000000e0: 3e50 9ebd 9884 da3d 00d5 f43b fa60 cfbd
000000f0: 5083 a13c 8a86 d33d 80eb f1bd 6a59 acbd
00000100: 78e9 4bbd 4067 a43b b0d3 eebc a00e 61bc
00000110: 6692 f9bd 48c2 6f3d c8b3 e03d 1e7a 9c3d
00000120: 2a48 b5bd ca5c cebd f49b 543d 00fb 373b
00000130: 78e2 513d 9826 fabd 4037 f4bb da8a b43d
00000140: cc85 6d3d 4093 953b 8056 c93c a0e7 41bc
00000150: e4c1 8cbd 047c 41bd 18e6 9bbd cea2 d43d
00000160: 96df 8c3d d80e 333d 7250 c4bd 0289 c53d
00000170: ac88 203d 7419 b13d 6c6a 49bd b815 d93c
00000180: 32f4 f93d 6433 ac3d a84f cd3d 4006 d7bc
00000190: 620a c33d e881 c8bd 2021 313c 5e24 90bd
000001a0: f8cf eebc 341f 03bd c03a 193c eafe e83d
000001b0: a47b 7d3d 00d0 0aba 70b8 b53d 4a30 83bd
000001c0: 62ef 833d a0ea 3dbc e82f b2bc 30c4 6f3c
000001d0: ea1e c4bd 50a9 6c3c 6427 2c3d cedc da3d
000001e0: 5c68 1fbd 8855 383d 06e0 ff3d d4a1 5bbd
000001f0: 065a f33d 3434 7ebd e0af 613d 7893 483d
00000200: 1804 0f3d 1272 ca3d a4ee 4ebd 3890 063d
00000210: 00e6 373a 5a8c c0bd 38a4 f8bc 74f6 aabd
00000220: 3062 623d 601b 383c b0a1 483c 6853 1bbd
00000230: 0091 1d3a 0c41 1fbd b81d 133d 949e f83d
00000240: 181b 9b3c 30c6 62bd 3a5f 9cbd 108c 1c3c
00000250: a2e9 bdbd 266c c0bd e09f a6bd ece5 2dbd
00000260: 8096 173c da48 b03d 5851 463d 5c20 c43d
00000270: e2bd a0bd b0d3 2c3c b08d e3bd 32db 923d
00000280: 6869 d53c 629b f73d 0012 b6bd 464b cd3d
00000290: 3a1f d83d 02fb ce3d 981e 923c 88c6 e83d
000002a0: 3cf7 aa3d 0eff be3d 300a 05bc 3474 c4bd
000002b0: 00e2 cbba 080a c03c 1861 aebd 04da 92bd
000002c0: 6870 f5bd f47a 33bd 58fe de3d 9819 af3c
000002d0: 202f fabb c07c a43b b0a0 9f3d 7410 e2bd
000002e0: e686 c5bd 9039 2abd 2855 93bd 7e0a 843d
000002f0: a8e2 b43d b860 f8bd 1243 d9bd 204c f9bd
00000300: 8027 413d f20a ce3d b07c c6bd a008 6dbd
00000310: d0ed 223d 0c2a a7bd 7e77 d93d d0c1 ee3c
00000320: 4c88 0ebd d004 053c 20a0 1f3d c80c 35bd
00000330: f45c c6bd 0041 5c3a 8037 153b 8031 253b
00000340: c06e 95bc ee5e a43d d8e0 0ebd 403b 46bc
00000350: 3087 523d ce22 a1bd a817 093d 286c e2bc
00000360: c497 753d f2de 8abd a061 973b c05a 483c
00000370: 0afa cdbd fe25 babd dc5b 443d 5c05 15bd
00000380: 9c09 983d 90e4 fcbd a418 7dbd 82db d2bd
00000390: 8487 4c3d 407f 6dbb 78ff bebc 405d aabc
000003a0: 241a c8bd 5c33 113d 4031 4c3b 3eab b0bd
000003b0: c8a8 403d c0a6 24bb fc96 f7bd 24b5 893d
000003c0: 5cee 883d 98ee c0bc 8ec0 b0bd 6074 a43b
000003d0: 242c c13d b653 ea3d a43a c1bd 2841 67bd
000003e0: ee53 c73d 2441 7a3d a277 9e3d 08d7 7ebd
000003f0: 868d dc3d ea72 d2bd c04c c5bb 0017 2a3b

bias f4 [32]
0.006000623 -0.11990543 0.015900686 0.043976173 0.11186783 -0.040516123 0.04508625 -0.041886568
-0.043956473 -0.11076146 0.02638419 0.083875194 -0.06953706 0.05110444 -0.019498333 -0.08874825
0.013328612 -0.1218126 0.06700824 -0.027619168 0.11512223 0.0046144873 -0.12118633 0.09700169
-0.027341396 -0.085622594 0.11541125 0.011674732 0.040526584 -0.108135834 -0.04414603 0.10029392
00000000: e0a0 c43b fa90 f5bd 2842 823c 5c20 343d
00000010: f61a e53d 3cf4 25bd 5cac 383d 4091 2bbd
00000020: b40b 34bd e8d6 e2bd a823 d83c c2c6 ab3d
00000030: 7269 8ebd e452 513d f8ba 9fbc a4c1 b5bd
00000040: 4060 5a3c e278 f9bd 9e3b 893d 9841 e2bc
00000050: 34c5 eb3d 2035 973b 8a30 f8bd d2a8 c63d
00000060: 10fb dfbc e65a afbd bc5c ec3d 6047 3f3c
00000070: 34ff 253d 5276 ddbd 78d2 34bd e666 cd3d

weight_ih_l0 f4 [128, 32]
0.07831084 0.123047404 -0.07368237 -0.05600034 -0.10791909 -0.074028775 -0.32016578 -0.48781377
-0.21938099 0.32274073 0.14147532 -0.1495751 0.113990985 -0.2870719 0.15214494 0.019409418
0.12460053 0.34558132 -0.18572716 0.10548341 -0.38966295 0.028549494 -0.2150104 -0.43148872
-0.057292756 -0.24521415 0.07008701 0.13195539 0.14644206 -0.1449251 0.09845107 -0.18970245
0.11505007 -0.006592681 -0.11294045 -0.22121768 0.058542285 -0.037899256 0.0030979516 -0.32932827
-0.14790511 0.33580023 0.23943333 0.0051913476 0.28538212 -0.06065702 -0.12639043 -0.088151306
0.12804861 0.21534476 -0.037132233 0.12665223 -0.3080098 -0.064450786 -0.12573294 -0.5061515
0.04607184 -0.10691886 0.28468016 0.13649541 0.044962898 0.012656529 0.07769831 -0.12621109
0.16099949 0.20571145 0.05973385 -0.2826516 0.12200933 -0.29358408 -0.014427905 -0.38205308
-0.06035474 0.26558197 0.27076656 -0.31407624 0.039782573 -0.13117889 -0.0043994673 -0.13999155
0.27783906 0.474021 -0.087669045 0.11788152 -0.07571332 0.09844988 -0.19586477 -0.61270195
-0.08164401 -0.3879605 0.11935762 0.3085561 0.11388551 -0.053084366 0.021774307 0.04709107
0.22532463 0.09234807 -0.16083452 -0.41966876 -0.08907696 -0.22528179 -0.025781551 -0.60977995
0.15144297 0.19326106 0.009259494 0.058040056 -0.0031202529 -0.23853153 0.10025277 0.15427683
0.103568666 0.26223987 -0.07423963 -0.041624397 -0.09728255 -0.19270551 -0.23948352 -0.56556875
-0.15323569 -0.28588277 0.007416787 0.09538776 0.10130906 0.03147604 -0.13449872 -0.008248791
-0.016198702 -0.021131335 0.04402573 -0.3271743 -0.11164146 -0.1092953 -0.073701955 -0.3012828
-0.0589344 0.050172668 0.14759645 0.10591789 0.16692594 -0.24946624 -0.00014186018 0.003328888
0.08571046 0.53456354 -0.20224997 -0.2130392 -0.12405237 -0.22757837 -0.14509486 -0.4585104
-0.1716247 -0.19255891 0.07596959 0.14641534 0.2256793 -0.13958997 -0.28289366 -0.04562242
0.004205002 0.06105594 -0.08077096 -0.25443813 -0.16259925 -0.06956471 -0.31992003 -0.3559264
-0.32395753 0.21083203 0.03697446 -0.009693386 0.14733042 -0.17968793 0.124248445 0.122738704
0.26949918 0.23873284 0.15479666 -0.1045897 -0.35765937 0.002466768 0.038019665 -0.5080028
0.024740363 -0.29077876 0.18133774 0.21338935 0.16332483 -0.035888948 -0.36038598 -0.026331257
0.2033665 0.134561 -0.19375663 -0.06966585 0.06267351 -0.06060445 -0.042182483 -0.43474555
0.0032859761 0.033046663 0.025072021 -0.13079178 0.016316095 -0.119963914 -0.042919207 -0.037886433
0.15819947 0.3688147 -0.18225375 0.03208642 -0.3206696 -0.014352231 -0.06795345 -0.64265263
-0.08595304 -0.14649059 0.07834701 0.33606875 0.059817046 -0.0025806527 -0.16937046 -0.09802912
-0.028817061 0.42626727 -0.0054254136 -0.4160906 -0.18590356 -0.3629908 -0.058229852 -0.5613815
-0.15919766 0.123559885 0.02135839 -0.26500547 0.09159468 -0.4261855 -0.0028329303 -0.13158485
0.26766905 0.261554 -0.22316915 0.10111108 -0.14742696 -0.034850787 0.043955307 -0.61357474
0.18719663 -0.36899102 0.41802856 0.30605096 0.27306947 -0.008253324 -0.16755934 0.13996556
00000000: 6f61 a03d 4700 fc3d c8e6 96bd 9d60 65bd
00000010: af04 ddbd 669c 97bd c5ec a3be bac2 f9be
00000020: 69a5 60be 463e a53e e8de 103e 372a 19be
00000030: 1b74 e93d 17fb 92be e2cb 1b3e 8000 9f3c
00000040: 902e ff3d 09f0 b03e 432f 3ebe b007 d83d
00000050: e781 c7be a1e0 e93c b02b 5cbe 17ec dcbe
00000060: cfab 6abd 6b19 7bbe c789 8f3d 501f 073e
00000070: e8f4 153e 3f67 14be b7a0 c93d 5c41 42be
00000080: 5f9f eb3d 6b07 d8bb 534d e7bd e386 62be
00000090: 09ca 6f3d 403c 1bbd 0107 4b3b b79d a8be
000000a0: 7074 17be 02ee ab3e 032e 753e 2e1c aa3b
000000b0: 9b1d 923e 7f73 78bd 7e6c 01be ac88 b4bd
000000c0: 2d1f 033e 5683 5c3e f817 18bd 1fb1 013e
000000d0: 76b3 9dbe c6fe 83bd 23c0 00be 2593 01bf
000000e0: d3b5 3c3d 46f8 dabd 99c1 913e 74c5 0b3e
000000f0: 042b 383d 555d 4f3c 4b20 9f3d 7b3d 01be
00000100: 0ddd 243e 06a6 523e 7bab 743d b6b7 90be
00000110: 07e0 f93d a750 96be 0563 6cbc 769c c3be
00000120: 8836 77bd 5cfa 873e eaa1 8a3e 9ace a0be
00000130: 0df3 223d c253 06be 6829 90bb f259 0fbe
00000140: ec40 8e3e e1b2 f23e d48b b3bd de6b f13d
00000150: 960f 9bbd 17a0 c93d c690 48be 09da 1cbf
00000160: fa34 a7bd c2a2 c6be c571 f43d 11fb 9d3e
00000170: ce3c e93d fe6e 59bd 0860 b23c 91e2 403d
00000180: 80bb 663e fc20 bd3d ceb1 24be d3de d6be
00000190: fb6d b6bd 45b0 66be d533 d3bc 8a1a 1cbf
000001a0: de13 1b3e 3ae6 453e 22b5 173c 69bb 6d3d
000001b0: 287d 4cbb 9c41 74be 5351 cd3d bffa 1d3e
000001c0: cf1b d43d 4e44 863e f20a 98bd 587e 2abd
000001d0: 133c c7bd 9854 45be 2b3b 75be 1dc9 10bf
000001e0: d1e9 1cbe 3a5f 92be 8508 f33b a85a c33d
000001f0: 207b cf3d 05ed 003d 08ba 09be f025 07bc
00000200: 24b3 84bc 9f1b adbc 5354 343d 6483 a7be
00000210: 47a4 e4bd 37d6 dfbd 0df1 96bd bd41 9abe
00000220: 3365 71bd db81 4d3d 8623 173e 7beb d83d
00000230: a2ee 2a3e 1474 7fbe 4dc0 14b9 7929 5a3b
00000240: f788 af3d 28d9 083f 9e1a 4fbe f326 5abe
00000250: 2b0f febd 4e0a 69be bf93 14be e0c1 eabe
00000260: 63be 2fbe 2a2e 45be f295 9b3d e7ed 153e
00000270: 7918 673e acf0 0ebe 70d7 90be 93de 3abd
00000280: 1dca 893b cb15 7a3d 3f6b a5bd b745 82be
00000290: 6b80 26be f177 8ebd 8fcc a3be fc3b b6be
000002a0: c3dd a5be 5ae4 573e 8872 173d 02d1 1ebc
000002b0: c9dd 163e 1d00 38be f875 fe3d 6e5e fb3d
000002c0: ccfb 893e 6276 743e 0483 1e3e 2033 d6bd
000002d0: 211f b7be 80a9 213b 82ba 1b3d 790c 02bf
000002e0: 4dac ca3c f4e0 94be 9ab0 393e bd82 5a3e
000002f0: a03e 273e 4a00 13bd 8384 b8be a6b4 d7bc
00000300: 4f3f 503e 5cca 093e 2368 46be f8ac 8ebd
00000310: f85a 803d 5f3c 78bd 8ac7 2cbd f896 debe
00000320: 8859 573b f05b 073d d763 cd3c 48ee 05be
00000330: 55a9 853c a4af f5bd 0dcc 2fbd ce2e 1bbd
00000340: 0bff 213e 48d5 bc3e baa0 3abe 0d6d 033d
00000350: ce2e a4be 9f25 6bbc 2e2b 8bbd e284 24bf
00000360: 2608 b0bd a101 16be 6674 a03d 3411 ac3e
00000370: b802 753d 2b20 29bb 736f 2dbe 7ec3 c8bd
00000380: c211 ecbc b43f da3e abc7 b1bb d409 d5be
00000390: 815d 3ebe eed9 b9be 6d82 6ebd b3b6 0fbf
000003a0: b604 23be f70c fd3d caf7 ae3c ccae 87be
000003b0: fe95 bb3d fc34 dabe afa8 39bb 2ebe 06be
000003c0: eb0b 893e 68ea 853e 7486 64be 5313 cf3d
000003d0: 18f7 16be b3bf 0ebd 7b0a 343d 3c13 1dbf
000003e0: 79b0 3f3e 64ec bcbe d707 d63e b6b2 9c3e
000003f0: c3cf 8b3e f338 07bc ad94 2bbe 2253 0f3e

weight_hh_l0 f4 [128, 32]
0.06610096 0.040573902 -0.11483357 -0.121347584 -0.03102912 -0.061874337 0.1485177 0.023044335
0.15571964 -0.13306195 -0.046154227 -0.10827564 -0.16233498 -0.022576889 0.07326967 0.07088646
0.1030278 0.005300674 0.19920324 0.06538823 0.1864811 0.06426072 -0.0118572 -0.03341705
0.09932766 -0.0975274 0.08458416 0.10247395 -0.12182816 -0.08163233 0.12084962 -0.1253882
0.1734006 0.10044699 -0.15619805 0.10402257 -0.08840933 -0.20651552 0.11932503 -0.16453436
0.10378525 0.050675705 -0.09052178 -0.07588751 0.0014391632 -0.0021199873 0.03869774 0.014757018
-0.0753596 0.054097194 -0.10323752 -0.07552448 0.15444545 -0.06334247 -0.07671295 -0.1872601
0.028175417 0.05933278 0.093426995 0.107864134 0.19258755 -0.060075182 0.04566104 -0.093378685
0.051971585 -0.013092366 -0.16522287 -0.021872679 0.2030678 0.08178096 0.19822195 0.0464581
0.12881431 0.11659195 -0.15106976 0.05964139 -0.058857664 0.114616364 -0.13604261 0.1999903
0.14043081 0.12346991 -0.0081387395 -0.15185465 -0.091434464 0.040932838 0.081647664 -0.21998964
0.17159544 -0.03772084 0.09156401 0.001029859 0.039395478 0.030692436 -0.06412595 -0.0708323
0.0575379 0.15830408 0.12093467 -0.06947469 0.053905196 -0.009364231 -0.04909948 0.12467016
0.033296082 0.20534499 0.10564595 -0.16617952 -0.1960375 -0.04211746 -0.15465897 0.06207557
-0.096163176 -0.07956092 -0.14689249 0.08616056 -0.007003185 0.024714 -0.066319935 -0.18102106
-0.10418841 0.09113677 -0.041970924 0.015919723 0.10733675 0.18345386 -0.055024534 0.19375052
-0.0126646515 0.16858776 0.18471712 0.016474882 -0.14468372 -0.23638488 -0.056815837 -0.11779237
-0.107089125 0.0062575648 0.047178477 -0.0022856302 0.03668956 -0.16159159 -0.021125715 -0.010233141
0.14474307 -0.12078399 -0.12206535 -0.1827776 0.11828875 -0.06420414 0.06517897 0.112464674
0.11595002 -0.059843276 -0.061286956 0.0813474 0.10410248 0.108811334 -0.08577381 0.087482475
-0.10438504 -0.14274468 -0.07449885 0.064780734 0.17426248 0.14151314 0.026663095 -0.011205782
0.14557797 0.079852834 0.03712996 0.07694196 0.07460186 0.007763218 0.02232329 -0.013135208
0.06388472 -0.06246179 0.14808266 -0.08221398 -0.10536087 -0.18728901 -0.13767962 -0.009029826
0.035190713 -0.13188456 -0.10343638 -0.20484461 0.113708444 -0.12524675 0.11348749 0.09729536
0.08578803 0.16889675 0.11119798 0.15627903 0.015179852 -0.12285684 -0.10501138 0.008963605
0.09645113 0.19514129 -0.047325302 0.107034385 -0.09057521 0.05333176 -0.060652006 0.07568042
-0.16765398 -0.15050569 -0.002948865 0.12324497 0.06413015 0.112421036 0.17803003 0.021100156
0.18851452 0.09361286 -0.13997334 0.13101673 -0.07970106 0.1193309 0.035260532 0.10545568
0.12282702 -0.094913445 -0.056461688 0.14517535 0.047661394 0.12299352 0.14732215 0.024133611
-0.10769983 0.055886608 -0.07388446 0.08786265 0.109887 0.03032939 -0.120297894 -0.0027445205
-0.19802839 0.0060913814 0.21940845 0.11271886 -0.096412785 -0.12878819 0.061125394 -0.14518495
0.09371272 -0.039889574 -0.09365918 -0.06970046 -0.022288512 0.006295292 0.109374054 0.18718472
00000000: f15f 873d d230 263d dd2d ebbd 1585 f8bd
00000010: c830 febc f26f 7dbd 0615 183e 79c7 bc3c
00000020: f874 1f3e 6441 08be 370c 3dbd 9ebf ddbd
00000030: 243b 26be 2bf3 b8bc 690e 963d ec2c 913d
00000040: 3d00 d33d 47b1 ad3b effb 4b3e 44ea 853d
00000050: e7f4 3e3e 209b 833d b444 42bc 51e0 08bd
00000060: 4d6c cb3d 72bc c7bd 763a ad3d dddd d13d
00000070: 0b81 f9bd da2e a7bd 0180 f73d c465 00be
00000080: ed8f 313e 27b7 cd3d 62f2 1fbe c909 d53d
00000090: f30f b5bd ce78 53be ae60 f43d b27b 28be
000000a0: 5c8d d43d 5491 4f3d 7c63 b9bd e96a 9bbd
000000b0: 4ea2 bc3a 7cef 0abb 8581 1e3d 6bc7 713c
000000c0: 2256 9abd 0595 5d3d 316e d3bd 94ac 9abd
000000d0: f326 1e3e b2b9 81bd ae1b 9dbd 1dc1 3fbe
000000e0: 22d0 e63c ee06 733d a756 bf3d dfe7 dc3d
000000f0: ac35 453e 6511 76bd 1207 3b3d 533d bfbd
00000100: 28e0 543d 5d81 56bc 2f30 29be 552e b3bc
00000110: 01f1 4f3e c77c a73d b2fa 4a3e d94a 3e3d
00000120: e6e7 033e c3c7 ee3d 08b2 1abe 884a 743d
00000130: bc14 71bd fcbb ea3d c14e 0bbe 42ca 4c3e
00000140: 18cd 0f3e cbdd fc3d 5958 05bc c97f 1bbe
00000150: fe41 bbbd 31a9 273d e436 a73d f744 61be
00000160: b7b6 2f3e 2b81 1abd e985 bb3d 55fc 863a
00000170: 275d 213d b46e fb3c 7754 83bd 8610 91bd
00000180: dcac 6b3d 771a 223e 99ac f73d bf48 8ebd
00000190: b2cb 5c3d 6e6c 19bc 891c 49bd 1253 ff3d
000001a0: 7961 083d f545 523e e75c d83d f72a 2abe
000001b0: 0ebe 48be 5c83 2cbd ec5e 1ebe f442 7e3d
000001c0: 33f1 c4bd d6f0 a2bd fc6a 16be f374 b03d
000001d0: f97a e5bb 0475 ca3c bfd2 87bd 965d 39be
000001e0: bc60 d5bd eaa5 ba3d b4e9 2bbd 146a 823c
000001f0: 5fd3 db3d 54db 3b3e 6861 61bd 8966 463e
00000200: 667f 4fbc 45a2 2c3e 7c26 3d3e 55f6 863c
00000210: f827 14be e10e 72be b9b7 68bd 203d f1bd
00000220: 8b51 dbbd 420c cd3b 383e 413d 83ca 15bb
00000230: cb47 163d 4478 25be d60f adbc e7a8 27bc
00000240: 8737 143e 995d f7bd 66fd f9bd 0d2a 3bbe
00000250: 5f41 f23d 767d 83bd 8d7c 853d e153 e63d
00000260: 3477 ed3d 391e 75bd 0808 7bbd 7799 a63d
00000270: ae33 d53d 7ad8 de3d 2eaa afbd 032a b33d
00000280: d3c7 d5bd a92b 12be da92 98bd c3ab 843d
00000290: dd71 323e d2e8 103e 906c da3c 7598 37bc
000002a0: 6412 153e e289 a33d 9615 183d bf93 9d3d
000002b0: dcc8 983d 9862 fe3b 55df b63c 0e35 57bc
000002c0: fed5 823d efd7 7fbd fba2 173e ce5f a8bd
000002d0: 71c7 d7bd b1c8 3fbe e3fb 0cbe d6f1 13bc
000002e0: 2324 103d bf0c 07be 74d6 d3bd c9c2 51be
000002f0: f9df e83d af40 00be 216c e83d ca42 c73d
00000300: a2b1 af3d 45f3 2c3e c4bb e33d 9c07 203e
00000310: eab4 783c 5e9c fbbd 3510 d7bd 16dc 123c
00000320: 2c88 c53d 1ed3 473e 2dd8 41bd d834 db3d
00000330: 7f7f b9bd 6772 5a3d 3d6e 78bd 56fe 9a3d
00000340: 7cad 2bbe 2a1e 1abe bf41 41bb dc67 fc3d
00000350: ab56 833d 003d e63d 814d 363e 3cda ac3c
00000360: f309 413e 19b8 bf3d 2c55 0fbe 4029 063e
00000370: 4f3a a3bd c263 f43d 596d 103d 26f9 d73d
00000380: bc8c fb3d fb61 c2bd 5f44 67bd d9a8 143e
00000390: 9838 433d 07e4 fb3d 9edb 163e dab3 c53c
000003a0: ba91 dcbd 5be9 643d bc50 97bd 55f1 b33d
000003b0: 6f0c e13d 5775 f83c be5e f6bd 6add 33bb
000003c0: f4c7 4abe 369a c73b 9cac 603e 25d9 e63d
000003d0: 1174 c5bd 0de1 03be 9f5e 7a3d 5dab 14be
000003e0: 74ec bf3d 4063 23bd 62d0 bfbd 1dbf 8ebd
000003f0: 6696 b6bc bd48 ce3b 81ff df3d 5aad 3f3e

bias_ih_l0 f4 [128]
-0.3142448 -0.16035283 -0.4397973 -0.083810195 -0.02189873 -0.16759503 -0.27927992 -0.53703487
-0.3735681 -0.2339371 -0.115949795 -0.12343442 -0.17392491 -0.444078 -0.41135514 -0.2387605
-0.23643798 -0.46585724 0.019991357 -0.30232942 -0.26241028 -0.27928594 -0.11829477 -0.22829019
-0.3450519 -0.3369702 -0.2238247 -0.1426412 -0.36543712 -0.18007071 -0.15484738 -0.122299515
-0.12911627 0.038128145 -0.072584786 -0.13858764 -0.021085138 -0.16070002 -0.038510095 -0.123911224
-0.005740602 0.059354275 -0.033200137 -0.27331015 -0.24447776 -0.28402767 -0.3070782 -0.15482526
0.042749923 -0.39322045 -0.017341595 -0.20257823 -0.17484133 -0.10012648 -0.18695696 0.030408472
-0.114278674 -0.114049606 0.03612069 0.021737613 -0.06060459 -0.064279824 -0.04596471 -0.24999993
0.051284906 -0.09435754 0.06673416 -0.15409006 0.027906185 -0.06270325 -0.09081763 -0.045609433
0.1255533 -0.13501924 0.112809345 -0.1231285 -0.15576175 0.03709614 -0.069357075 -0.0487262
0.14502615 0.06547792 -0.17879894 0.06567847 -0.06370403 0.07899608 -0.08615529 0.12551652
-0.12721364 0.02681477 0.0632943 0.108906254 -0.061050218 -0.034530718 0.012629353 0.03861361
-0.22877458 -0.03034445 -0.35709125 -0.18193728 -0.15268163 -0.23174596 -0.16375096 -0.25361252
-0.14296699 -0.2960711 -0.033982333 -0.16768982 -0.28028628 -0.37138185 -0.17715721 -0.11544582
-0.24191076 -0.23967537 0.015428587 -0.10900778 -0.06524366 -0.30711472 -0.22432648 -0.23215652
-0.39369652 -0.14847443 -0.100138046 -0.042732175 -0.19479561 -0.24828659 -0.16136684 0.003148088
00000000: b2e4 a0be 8833 24be 1d2d e1be aea4 abbd
00000010: f764 b3bc 089e 2bbe c7fd 8ebe 1e7b 09bf
00000020: 5144 bfbe 358d 6fbe 1677 edbd 2fcb fcbd
00000030: 5f19 32be 315e e3be 249d d2be a27d 74be
00000040: cc1c 72be d784 eebe eac4 a33c ecca 9abe
00000050: a45a 86be 91fe 8ebe 8744 f2bd e7c4 69be
00000060: a5aa b0be 5c87 acbe 4d32 65be 8910 12be
00000070: 931a bbbe 7564 38be 5090 1ebe 2b78 fabd
00000080: 0e37 04be 422c 1c3d 55a7 94bd ebe9 0dbe
00000090: bdba acbc 8c8e 24be c3bc 1dbd 2bc5 fdbd
000000a0: a91b bcbb 781d 733d defc 07bd 4fef 8bbe
000000b0: 6158 7abe 136c 91be 5b39 9dbe 838a 1ebe
000000c0: 8b1a 2f3d 3154 c9be f60f 8ebc ab70 4fbe
000000d0: 9b09 33be 1d0f cdbd a571 3fbe 301b f93c
000000e0: f00a eabd d792 e9bd 4af3 133d 1413 b23c
000000f0: 853c 78bd 24a5 83bd 7e45 3cbd fbff 7fbe
00000100: 1f10 523d 873e c1bd ebab 883d c9c9 1dbe
00000110: 839b e43c 906a 80bd 98fe b9bd f5d0 3abd
00000120: 0b91 003e 7c42 0abe 9608 e73d cc2a fcbd
00000130: 0280 1fbe 1ff2 173d 150b 8ebd 2095 47bd
00000140: bc81 143e 4a19 863d 1217 37be 6f82 863d
00000150: 4277 82bd b2c8 a13d 2f72 b0bd 6787 003e
00000160: 4b44 02be a6aa db3c 71a0 813d 3e0a df3d
00000170: cb0f 7abd 1570 0dbd 59eb 4e3c 4e29 1e3d
00000180: e243 6abe ed94 f8bc aad4 b6be c44d 3abe
00000190: 9358 1cbe d04e 6dbe 55ae 27be 80d9 81be
000001a0: f065 12be a296 97be 0f31 0bbd e1b6 2bbe
000001b0: af81 8fbe c325 bebe b368 35be dc6e ecbd
000001c0: 74b7 77be 766d 75be 2fc8 7c3c 793f dfbd
000001d0: 789e 85bd 243e 9dbe d7b5 65be 70ba 6dbe
000001e0: 9792 c9be ae09 18be 2d15 cdbd ef07 2fbd
000001f0: 8078 47be d73e 7ebe 593d 25be 2750 4e3b

bias_hh_l0 f4 [128]
-0.41577482 -0.23012234 -0.10622225 -0.34727716 -0.15992217 -0.4516352 -0.19798905 -0.3279024
-0.23986593 -0.046832528 -0.1915386 -0.18786202 -0.25343436 -0.19545037 -0.12392338 -0.38634396
0.0148492465 -0.2503066 -0.23486409 -0.07516171 -0.09374995 -0.2433518 -0.28118023 -0.20566407
-0.3849602 -0.23228464 -0.35784653 -0.2746659 -0.3404278 -0.012583143 -0.081590936 -0.30324256
-0.34311014 -0.1575818 -0.3857538 -0.118799776 0.0026183664 -0.33688003 -0.023642927 -0.38255057
-0.14578381 -0.07109242 0.009523944 -0.15315883 -0.33094662 -0.08434079 -0.14667192 -0.10136226
-0.20391643 -0.26439393 -0.21452112 0.024279296 -0.27408016 -0.30222425 -0.10913392 -0.16129594
-0.31749424 -0.20274338 -0.17669638 -0.19379656 -0.24092047 -0.25392687 -0.16850299 -0.17371769
-0.023907473 -0.08706751 -0.0048930016 0.041460995 0.0066334056 0.001195344 -0.03273861 0.082554
-0.03692521 0.1420929 0.049721178 0.13106376 0.09969165 -0.039017662 0.110198855 -0.09270583
-0.13997294 -0.092733726 0.020449508 0.009304969 0.09271308 0.021886535 -0.11164191 -0.08302488
0.017195672 0.058264527 0.04437369 0.07709899 -0.026313677 0.08887612 -0.056177836 -0.09485063
-0.4420026 -0.015611593 -0.19373123 -0.1892072 -0.031688213 -0.23893164 0.0052072364 -0.5774676
-0.3722289 -0.08203612 -0.20379813 -0.17013119 -0.33639985 -0.20755196 -0.3251078 -0.22167484
-0.23947611 -0.30045804 -0.08241763 -0.26019987 -0.36761838 -0.134684 -0.15391713 -0.1513506
-0.1891925 -0.27666843 -0.23803748 0.010861014 -0.25552458 -0.26526648 -0.08202039 -0.18075632
00000000: 70e0 d4be 31a5 6bbe 0d8b d9bd 50ce b1be
00000010: a3c2 23be bb3c e7be a4bd 4abe d3e2 a7be
00000020: 6a9f 75be 77d3 3fbd b222 44be e75e 40be
00000030: 26c2 81be 2424 48be 8bcb fdbd e0ce c5be
00000040: 414a 733c 3028 80be 3680 70be 62ee 99bd
00000050: f9ff bfbd 3731 79be dbf6 8fbe 9a99 52be
00000060: 8119 c5be 06dc 6dbe a937 b7be 02a1 8cbe
00000070: 8d4c aebe 8729 4ebc 2619 a7bd 9c42 9bbe
00000080: 22ac afbe 205d 21be 8681 c5be 4c4d f3bd
00000090: e698 2b3b 8a7b acbe d0ae c1bc abdd c3be
000000a0: 5a48 15be e798 91bd 510a 1c3c abd5 1cbe
000000b0: d671 a9be ddba acbd 2a31 16be 0497 cfbd
000000c0: 78cf 50be a45e 87be 6dab 5bbe 60e5 c63c
000000d0: 3c54 8cbe 23bd 9abe 9b81 dfbd c32a 25be
000000e0: 9b8e a2be f69b 4fbe e5ef 34be 9b72 46be
000000f0: dbb3 76be b402 82be 0c8c 2cbe 0de3 31be
00000100: 9bd9 c3bc 7350 b2bd 7955 a0bb 01d3 293d
00000110: 0a5d d93b 17ad 9c3a ec18 06bd 1212 a93d
00000120: e43e 17bd cd80 113e 6fa8 4b3d 9435 063e
00000130: 232b cc3d fcd0 1fbd f0af e13d 8edc bdbd
00000140: 1155 0fbe 2eeb bdbd ba85 a73c de73 183c
00000150: 5be0 bd3d 644b b33c 84a4 e4bd f308 aabd
00000160: f0dd 8c3c c9a6 6e3d 30c1 353d 13e6 9d3d
00000170: c88f d7bc af04 b63d bb1a 66bd 0c41 c2bd
00000180: 2a4e e2be c4c7 7fbc 7b61 46be 88bf 41be
00000190: 80cb 01bd 7faa 74be 77a1 aa3b ebd4 13bf
000001a0: c994 bebe 8e02 a8bd 75b0 50be df36 2ebe
000001b0: 9a3c acbe 8088 54be 8874 a6be bbfe 62be
000001c0: 3a39 75be a3d5 99be 93ca a8bd eb38 85be
000001d0: 7a38 bcbe 9aea 09be 749c 1dbe a7fb 1abe
000001e0: aebb 41be 7ca7 8dbe 19c0 73be 65f2 313c
000001f0: 1ed4 82be 02d1 87be 4efa a7bd 2f18 39be

weight f4 [64, 4]
-0.068392314 0.7448198 0.602723 -0.38483325 -0.49267673 -0.38732594 0.3480749 0.123816706
0.2533152 0.15919954 -0.15244982 0.55248106 -0.6764389 0.17011288 -0.0050017596 0.009112985
0.5392472 -0.25570145 -0.45686513 -0.33431438 0.13547772 -0.56608814 -0.5494355 0.021008577
-0.37773362 -0.035518564 0.3626997 0.25895613 -0.062581725 0.13319263 -0.40364403 -0.55978364
-0.38188472 0.27249092 0.41650423 -0.001332735 0.47677755 -0.049223594 -0.03959853 0.36826336
0.19875151 0.48711708 -0.40725443 -0.43735042 -0.19320701 -0.12040362 0.48928422 0.7982305
0.323834 -0.0018912003 -0.22132085 0.15180705 0.2531266 0.24572925 -0.027320841 -0.15118591
0.1489989 0.056715123 -0.332772 0.15396169 -0.19066651 -0.31725237 0.5007406 -0.37382624
-0.17085448 -0.055598084 0.07988849 -0.26661822 -0.64413536 -0.279834 0.32744968 -0.4580374
-0.2264122 0.50014216 0.07610545 -0.4614768 0.47359407 0.60524935 -0.31687337 -0.15150654
0.022796603 -0.38022563 0.1276565 -0.001803409 -0.30496764 -0.57899684 0.40090334 0.18166289
-0.39897513 -0.28369993 0.26475725 0.3326317 0.15664281 0.25938493 0.5456813 -0.17362213
-0.55566335 0.34669772 0.5395566 -0.15248913 -0.08393231 0.14327578 0.24746558 -0.1554842
-0.4529081 0.5226691 -0.10938384 -0.17977016 -0.38653684 0.4891608 -0.23547019 -0.4263409
-0.5033197 -0.25848177 0.56037647 -0.07027009 -0.09342369 -0.105783306 0.14689532 -0.49637333
-0.54568887 -0.6447018 -0.40512857 0.12903328 -0.46952924 -0.45154217 0.16344851 -0.5229424
0.5306275 -0.19279332 0.19919847 0.40440014 0.2815139 -0.57132673 0.25242618 0.40442765
-0.44185987 -0.4300419 0.057168223 -0.1734218 0.2837623 0.69261014 -0.28529492 -0.5895034
-0.25800565 0.3128574 -0.052994505 0.15407972 -0.7047525 0.10715532 0.2993612 -0.54337394
-0.15430015 0.33326554 0.009167815 -0.3999924 -0.018713577 0.11620129 -0.29374114 -0.035090372
-0.13702938 0.2136043 0.574163 0.31795028 -0.40655175 -0.534322 0.33985937 0.40422574
-0.17825876 -0.47861984 0.22311981 -0.58721596 -0.59123147 0.2017754 0.3644587 -0.32538742
0.35486823 0.55879194 0.52836955 -0.24397114 0.096196465 -0.073975325 -0.12567092 -0.27979758
-0.49508724 0.13137536 0.04920645 -0.587516 -0.13803294 0.042127203 0.18278193 -0.33166823
0.3823619 0.22008193 -0.12052854 0.26241612 -0.51582104 0.15315469 0.22360377 0.02012264
-0.39058176 -0.038392883 -0.008666204 -0.31606027 0.51799864 0.1147008 0.017670045 -0.053143267
0.36236554 0.06497408 -0.3331585 0.016337378 -0.1021385 0.24950702 -0.35996786 0.11323185
0.49745485 -0.38787353 0.18222138 -0.7681478 -0.41483942 -0.39261606 -0.057790034 -0.16826689
0.1583015 0.36986285 -0.12317038 -0.64144963 0.10603512 0.16504513 -0.5589525 0.32779253
-0.6680905 0.48186693 -0.5057888 0.28506964 -0.026698506 -0.65876335 0.012173313 -0.19612771
-0.2758655 0.13085105 -0.29736722 0.06060499 0.38016394 -0.17380022 -0.60801774 0.26117393
-0.52780455 -0.6853209 0.53502744 -0.49089354 -0.020092297 0.59682006 0.18072483 -0.5383916
00000000: 4511 8cbd 83ac 3e3f 0e4c 1a3f dd08 c5be
00000010: 2040 fcbe 964f c6be e036 b23e 9d93 fd3d
00000020: 88b2 813e 3405 233e ce1b 1cbe 666f 0d3f
00000030: 1a2b 2dbf 1232 2e3e cde5 a3bb a14e 153c
00000040: 1b0c 0a3f 4deb 82be 3aea e9be 412b abbe
00000050: acba 0a3e 27eb 10bf cea7 0cbf 2e1a ac3c
00000060: 4d66 c1be ea7b 11bd c6b3 b93e e695 843e
00000070: d92a 80bd a663 083e 6eaa cebe fb4d 0fbf
00000080: 6586 c3be ee83 8b3e 0b40 d53e 2aaf aeba
00000090: 301c f43e ae9e 49bd 1132 22bd 048d bc3e
000000a0: 8485 4b3e 6967 f93e a783 d0be 65ec dfbe
000000b0: 0fd8 45be 2c96 f6bd 7683 fa3e d658 4c3f
000000c0: 92cd a53e 27e2 f7ba efa1 62be 4f73 1b3e
000000d0: cf99 813e 73a0 7b3e f5cf dfbc 7bd0 1abe
000000e0: 2b93 183e 1e4e 683d 1761 aabe 22a8 1d3e
000000f0: 153e 43be e76e a2be 8930 003f 2766 bfbe
00000100: 7af4 2ebe d1ba 63bd 949c a33d 2f82 88be
00000110: 0ee6 24bf 6746 8fbe 7ca7 a73e e183 eabe
00000120: 9ad8 67be 5109 003f 2ddd 9b3d b046 ecbe
00000130: ec7a f23e 9ff1 1a3f 3a3d a2be 8824 1bbe
00000140: f1bf ba3c efac c2be 63b8 023e 5d60 ecba
00000150: b824 9cbe 2339 14bf 3443 cd3e d605 3a3e
00000160: 7846 ccbe 1e41 91be 438e 873e b44e aa3e
00000170: f966 203e 1ace 843e c5b1 0b3f 00ca 31be
00000180: f43f 0ebf 5d82 b13e 6220 0a3f 1c26 1cbe
00000190: b4e4 abbd e3b6 123e 9e67 7d3e 4037 1fbe
000001a0: 92e3 e7be a4cd 053f a204 e0bd ab15 38be
000001b0: 28e8 c5be 4973 fa3e 191f 71be 5b49 dabe
000001c0: 8fd9 00bf b957 84be d574 0f3f c4e9 8fbd
000001d0: eb54 bfbd eba4 d8bd ba6b 163e a524 febe
000001e0: 44b2 0bbf 2d0b 25bf 036d cfbe 4d21 043e
000001f0: 2366 f0be 8930 e7be 0c5f 273e 8edf 05bf
00000200: 34d7 073f 9d6b 45be affa 4b3e 890d cf3e
00000210: 9722 903e 7842 12bf 013e 813e 2411 cf3e
00000220: 753b e2be 742e dcbe 3a29 6a3d 7c95 31be
00000230: 4b49 913e e64e 313f 2d12 92be b2e9 16bf
00000240: 5119 84be d82e a03e c410 59bd 13c7 1d3e
00000250: a96a 34bf 4074 db3d df45 993e 8e1a 0bbf
00000260: dc00 1ebe c8a1 aa3e 9a34 163c cecb ccbe
00000270: 374d 99bc f1fa ed3d 3d65 96be ecba 0fbd
00000280: 6e51 0cbe 16bb 5a3e 59fc 123f 61ca a23e
00000290: 8d27 d0be 54c9 08bf 0c02 ae3e adf6 ce3e
000002a0: 7789 36be a90d f5be 8579 643e c953 16bf
000002b0: f25a 17bf 369e 4e3e 559a ba3e 2e99 a6be
000002c0: 4ab1 b53e fd0c 0f3f 3a43 073f 92d3 79be
000002d0: a702 c53d 6080 97bd e1af 00be a141 8fbe
000002e0: 137c fdbe 4387 063e b48c 493d 7367 16bf
000002f0: 8258 0dbe 938d 2c3d 302b 3b3e 6bd0 a9be
00000300: f0c4 c33e 285d 613e abd7 f6bd 685b 863e
00000310: d90c 04bf 95d4 1c3e 63f8 643e 3cd8 a43c
00000320: 55fa c7be db41 1dbd b2fc 0dbc a7d2 a1be
00000330: 8f9b 043f 41e8 ea3d c5c0 903c c1ac 59bd
00000340: fa87 b93e 2111 853d c093 aabe f7d5 853c
00000350: fd2d d1bd c57e 7f3e b54d b8be 1ae6 e73d
00000360: 67b2 fe3e 5c97 c6be 3e98 3a3e 56a5 44bf
00000370: d565 d4be f904 c9be 3eb5 6cbd 284e 2cbe
00000380: ca19 223e aa5e bd3e c140 fcbd 0b36 24bf
00000390: f128 d93d 9701 293e 8317 0fbf 6cd4 a73e
000003a0: fb07 2bbf 43b7 f63e 607b 01bf a6f4 913e
000003b0: d3b6 dabc b7a4 28bf 9372 473c b4d5 48be
000003c0: 3e3e 8dbe d1fd 053e 8440 98be f03c 783d
000003d0: d9a4 c23e aff8 31be 0da7 1bbf 97b8 853e
000003e0: 331e 07bf 3171 2fbf 8ff7 083f 6656 fbbe
000003f0: 9a98 a4bc 33c9 183f ee0f 393e 08d4 09bf

bias f4 [64]
0.45840377 0.19964044 -0.12154076 -0.030550346 0.07931082 0.47723022 0.16418408 0.03988964
0.5143465 0.18953472 0.030769285 -0.090831846 -0.44230884 0.47011858 -0.26258105 0.25389373
-0.45165002 0.4355817 0.3423448 0.3692713 0.39627948 0.09789699 0.062453922 -0.31865346
0.004215277 -0.15120208 -0.20808722 -0.012822808 -0.11582704 -0.23851545 0.20793344 -0.43447256
-0.33536845 0.32560134 -0.17426588 0.03312807 -0.3447002 0.40548992 -0.26784477 0.19655865
0.10442858 0.1312765 -0.3816882 -0.022555003 -0.1033354 0.43540388 -0.4243647 -0.2221961
-0.19328593 -0.11311331 0.46659678 0.5333612 -0.039403524 0.092248924 0.44368955 -0.065006256
0.29074517 0.009452679 0.09246911 0.48022303 0.18365885 -0.1835127 -0.35685286 0.26429695
00000000: e6b3 ea3e 8b6e 4c3e 5dea f8bd b844 fabc
00000010: b66d a23d 8557 f43e df1f 283e 5263 233d
00000020: 36ac 033f 6415 423e de0f fc3c 0c06 babd
00000030: 4e76 e2be 62b3 f03e 0671 86be 5cfe 813e
00000040: ac3e e7be 9104 df3e d147 af3e 2111 bd3e
00000050: 25e5 ca3e 387e c83d afcf 7f3d 8c26 a3be
00000060: 4e20 8a3b b8d4 1abe d114 55be c116 52bc
00000070: ba36 edbd 653d 74be 81ec 543e 3073 debe
00000080: 6ab5 abbe 38b5 a63e c172 32be 4db1 073d
00000090: 8b7c b0be 609c cf3e f322 89be ac46 493e
000000a0: a7de d53d 596d 063e a36c c3be 45c5 b8bc
000000b0: 83a1 d3bd 42ed de3e 5446 d9be 6087 63be
000000c0: bfec 45be f3a7 e7bd c6e5 ee3e 5c8a 083f
000000d0: 9765 21bd 01ed bc3d 472b e33e 0022 85bd
000000e0: 8ddc 943e 69df 1a3c 7260 bd3d cbdf f53e
000000f0: 1111 3c3e c1ea 3bbe 6bb5 b6be ee51 873e
