experiments/pedestrians/models/06_Aug_2023_21_23_08/model_registrar-19.pt (torch, 713991 bytes, 82 tensors)

weight f4 [64, 10]
-0.08246 -0.06672417 0.3039733 0.06416339 -0.6518461 0.7981353 -0.011149793 -0.27197617
-0.18808608 0.09376666 0.040548086 0.26611355 0.34641328 -0.10034505 -0.08836076 -0.23582888
-0.27699813 -0.36020574 -0.10162868 0.101208426 0.09825637 -0.042877972 -0.13370773 0.531412
-0.034485914 0.09792172 -0.29226354 -0.054940056 -0.02327942 -0.18161885 -0.02508519 0.083570436
0.03821533 -0.0359793 -0.5840241 0.6164772 -0.2946361 -0.2331434 -0.05623783 -0.2751415
0.05143108 -0.0450368 0.06626914 0.15465572 0.50755477 0.38806185 0.25904432 0.1397136
-0.27126974 0.15102202 -0.0066758525 0.17035952 0.3261514 -0.0833254 -0.034805838 0.5779965
0.15800932 -0.025855906 -0.07331143 0.06081607 -0.06294482 0.17852196 0.49261385 0.19629367
0.35919926 -0.3692933 -0.2558431 0.2740583 0.3159059 0.23401669 -0.04898079 -0.15108608
0.12231718 -0.32041416 -0.5965082 -0.36716062 0.35089538 -0.025166858 -0.0015816444 -0.012206432
0.07048975 0.027794821 -0.31854725 -0.05336935 -0.63726145 -0.014372737 -0.19256458 -0.21649435
0.18603563 0.057654444 -0.06956753 0.13338016 0.41180843 0.34182486 0.0562288 0.34438112
0.14787976 -0.23462762 0.29725403 0.26904356 -0.20842245 0.06927621 0.18217249 0.18782471
-0.2204814 -0.09096293 -0.13287374 0.121173084 0.2206094 -0.26634163 0.068538226 -0.13888341
0.5032492 -0.20570263 -0.69336104 -0.8082544 0.09565502 0.4048454 -0.123101346 -0.06299202
-0.24008638 0.18395296 0.36122328 0.17448123 0.24723473 0.14818086 0.19119246 -0.09179848
0.028912695 -0.19285925 -0.017478028 0.11123731 -0.10343131 -0.5147392 0.16304977 -0.06413211
0.0081440555 -0.25753158 -0.12676278 -0.2867416 0.1971716 -0.11008636 -0.27870333 0.3981011
-0.12177362 -0.08405074 0.2406624 0.015499846 -0.018661382 0.34869978 -0.012918439 0.1160266
0.073069334 -0.19000812 0.3738628 -0.55111897 -0.24677846 0.14912322 -0.22988954 0.08691652
-0.1802485 0.24947007 0.13672592 0.06821236 -0.72538835 -0.0901086 0.12288385 0.29516602
0.047089744 0.45498276 0.33665046 0.30069858 0.11163101 0.39445505 -0.16587336 0.68193823
0.09746796 0.10308349 0.031143947 0.20053504 0.05456188 0.15256768 0.5517896 -0.1585196
-0.13298593 0.043086078 0.2585048 0.008827732 0.17949499 0.28507793 0.26631135 0.10538044
-0.42114234 -0.12227714 -0.43576008 -0.11145092 0.1131695 0.16569047 -0.20186742 0.2608341
-0.03870401 -0.0039229007 -0.26306212 0.18372911 0.42145145 -0.4456031 -0.019849718 -0.15752482
0.21156016 -0.114264 -0.22529817 -0.03527903 0.041637953 0.064942956 0.45555523 0.9880925
0.32757762 0.13485716 0.16993594 -0.05415259 0.06895801 0.23886786 -0.234554 0.090282656
0.3286477 0.55945617 0.23846784 0.26263827 0.10415733 -0.1503819 0.03590714 -0.13784134
-0.072252646 0.3975024 0.114224754 -0.51625973 -0.13901411 0.056821924 -0.14159544 0.11748969
0.15896435 -0.18689133 -0.02656456 -0.16399737 0.34962392 0.36971924 0.017365573 -0.3360693
-0.074836835 -0.31221026 -0.19217028 -0.1753725 0.19467445 0.39578462 -0.12967692 -0.45188275
00000000: cae0 a8bd afa6 88bd 63a2 9b3e 1868 833d
00000010: 63df 26bf 9852 4c3f 9fad 36bc 7640 8bbe
00000020: a399 40be bc08 c03d c015 263d 0940 883e
00000030: 155d b13e b581 cdbd 7cf6 b4bd 207d 71be
00000040: b3d2 8dbe e36c b8be b322 d0bd 5d46 cf3d
00000050: a33a c93d d0a0 2fbd aeea 08be 9e0a 083f
00000060: 1a41 0dbd 2f8b c83d 91a3 95be d308 61bd
00000070: 7bb4 bebc 4bfa 39be 757f cdbc fa26 ab3d
00000080: ae87 1c3d 085f 13bd 9a82 15bf 73d1 1d3f
00000090: 8bda 96be 25bd 6ebe a459 66bd 59df 8cbe
000000a0: 65a9 523d 8278 38bd 1db8 873d 125e 1e3e
000000b0: 1cef 013f 0bb0 c63e 75a1 843e 1511 0f3e
000000c0: dee3 8abe 84a5 1a3e 1cc1 dabb ba72 2e3e
000000d0: 51fd a63e 82a6 aabd 9190 0ebd 94f7 133f
000000e0: 32cd 213e c4cf d3bc 4e24 96bd 451a 793d
000000f0: 37e9 80bd 76ce 363e e237 fc3e 3501 493e
00000100: f7e8 b73e 0314 bdbe defd 82be 5f51 8c3e
00000110: 6bbe a13e 12a2 6f3e 15a0 48bd 4fb6 1abe
00000120: 6e81 fa3d 530d a4be c3b4 18bf 7afc bbbe
00000130: 8fa8 b33e ba2a cebc 2e4f cfba 7dfd 47bc
00000140: ee5c 903d f7b1 e33c a018 a3be d299 5abd
00000150: 9123 23bf a17b 6bbc a62f 45be b2b0 5dbe
00000160: 2080 3e3e 1127 6c3d 6c79 8ebd cf94 083e
00000170: 8ed8 d23e ab03 af3e 2c50 663d b952 b03e
00000180: cb6d 173e 3942 70be ae31 983e 14c0 893e
00000190: b26c 55be b0e0 8d3d 6d8b 3a3e 1f55 403e
000001a0: e0c5 61be c64a babd 0e10 08be 9829 f83d
000001b0: 6ee7 613e ee5d 88be c55d 8c3d 7437 0ebe
000001c0: f1d4 003f b6a3 52be 1c80 31bf c3e9 4ebf
000001d0: c7e6 c33d e547 cf3e 8f1c fcbd f601 81bd
000001e0: 34d9 75be 2a5e 3c3e 42f2 b83e 35ab 323e
000001f0: 1a2b 7d3e b9bc 173e f5c7 433e d700 bcbd
00000200: 51da ec3c e57c 45be 152e 8fbc 63d0 e33d
00000210: cbd3 d3bd f3c5 03bf 85f6 263e b257 83bd
00000220: a56e 053c 2edb 83be 1ace 01be cccf 92be
00000230: 5ae7 493e f574 e1bd 34b2 8ebe e8d3 cb3e
00000240: 7364 f9bd cb22 acbd 3470 763e 11f3 7d3c
00000250: c1df 98bc c788 b23e dca7 53bc 5b9f ed3d
00000260: 60a5 953d 7d91 42be f26a bf3e 2216 0dbf
00000270: 7eb3 7cbe c2b3 183e 2a68 6bbe 4a01 b23d
00000280: 1093 38be 1575 7f3e e101 0c3e ecb2 8b3d
00000290: 0db3 39bf dc8a b8bd 87aa fb3d 0020 973e
000002a0: 2de1 403d 80f3 e83e 735d ac3e 2af5 993e
000002b0: cd9e e43d 03f6 c93e b5da 29be 8193 2e3f
000002c0: 489d c73d 701d d33d 9721 ff3c 0f59 4d3e
000002d0: 477c 5f3d b43a 1c3e 1542 0d3f f652 22be
000002e0: 772d 08be 077b 303d be5a 843e 31a2 103c
000002f0: 89cd 373e bcf5 913e f659 883e b3d1 d73d
00000300: f89f d7be 706c fabd f21b dfbe 6140 e4bd
00000310: 69c5 e73d c3aa 293e 55b6 4ebe 0c8c 853e
00000320: 1988 1ebd ad8b 80bb 14b0 86be 7c23 3c3e
00000330: 7cc8 d73e 1726 e4be e09b a2bc 304e 21be
00000340: 3aa3 583e 3e03 eabd 90b4 66be bf80 10bd
00000350: 8f8c 2a3d d000 853d 893e e93e a1f3 7c3f
00000360: 41b8 a73e ff17 0a3e b003 2e3e 1bcf 5dbd
00000370: db39 8d3d c799 743e ec2e 70be 1de6 b83d
00000380: 8344 a83e 8538 0f3f ea30 743e 8678 863e
00000390: 7050 d53d b6fd 19be 5d13 133d 4826 0dbe
000003a0: 32f9 93bd 6f85 cb3e abee e93d 9929 04bf
000003b0: b759 0ebe 1bbe 683d 65fe 10be 6f9e f03d
000003c0: 8dc7 223e 7160 3fbe ec9d d9bc edee 27be
000003d0: e801 b33e d74b bd3e 3f42 8e3c 4611 acbe
000003e0: 0e44 99bd 06da 9fbe 49c8 44be d994 33be
000003f0: bd58 473e 48a4 ca3e 07ca 04be 2d5d e7be

bias f4 [64]
-0.22699587 -0.09270617 -0.26999116 0.2664926 0.11152491 0.26932815 -0.27095142 -0.0411198
0.03719998 0.24023663 -0.04054408 0.44093084 -0.13513532 0.09188502 -0.111913994 -0.06322563
-0.03473765 -0.14928219 0.24302225 0.1567907 -0.08126678 0.119462356 0.17855407 -0.14128013
-0.13887303 0.12359581 -0.025916183 -0.18259072 -0.30065066 0.09540257 0.13872743 -0.19994836
-0.1420441 0.11152659 -0.32261202 0.25577712 0.09856987 -0.14966445 -0.0632075 0.012185638
-0.22136615 0.20841548 -0.06284991 -0.1006166 -0.2235561 0.16718337 -0.122311346 -0.26412067
0.09606036 -0.14876397 -0.02034245 0.22471222 -0.32925242 -0.32547414 -0.39155298 0.07432835
-0.009322112 0.21419859 0.1799072 0.3333574 -0.3109065 0.15947308 0.40203205 -0.16585207
00000000: 9b71 68be bcdc bdbd 483c 8abe b871 883e
00000010: 2c67 e43d 61e5 893e 25ba 8abe 3c6d 28bd
00000020: 025f 183d 9700 763e 8d11 26bd b0c1 e13e
00000030: ea60 0abe 372e bc3d 2a33 e5bd 707c 81bd
00000040: 1149 0ebd 6edd 18be d3da 783e be8d 203e
00000050: 336f a6bd aea8 f43d e1d6 363e bdab 10be
00000060: bb34 0ebe cd1f fd3d 2d4e d4bc 10f9 3abe
00000070: e2ee 99be 6c62 c33d 900e 0e3e 43bf 4cbe
00000080: 0274 11be 0e68 e43d 672d a5be 38f5 823e
00000090: 00df c93d a341 19be ef72 81bd 45a6 473c
000000a0: cfad 62be de6a 553e 74b7 80bd 1310 cebd
000000b0: e4eb 64be 1e32 2b3e 5f7e fabd d33a 87be
000000c0: 4bbb c43d 9555 18be 36a5 a6bc f61a 663e
000000d0: c693 a8be 8ca4 a6be a279 c8be 7639 983d
000000e0: c6bb 18bc e056 5b3e 9839 383e d2ad aa3e
000000f0: 232f 9fbe e94c 233e 25d7 cd3e 20d5 29be

weight f4 [32, 32]
-0.16462032 -0.19707806 0.23602505 0.036492426 -0.1160075 -0.010072743 -0.047036406 0.02261706
-0.1483907 -0.45331126 0.10788898 0.08075609 -0.028425254 0.19585273 -0.16400178 0.1862417
-0.02486134 0.26370385 0.2065178 0.24454467 -0.2896117 0.17935786 0.006631932 -0.36625493
-0.099516705 0.10692334 0.122559465 0.12006299 0.17223343 0.062309228 -0.02162006 0.21219262
0.09376621 -0.046230845 -0.4026611 0.038414124 -0.20009834 0.08840327 0.14274856 -0.05415249
-0.29514015 -0.298592 -0.30182278 -0.27498376 0.12480118 -0.018344285 -0.060398992 -0.061704013
0.0059894864 0.15587105 0.15301017 0.3745496 0.21395151 -0.13569652 0.16783655 -0.009099516
0.02996555 0.008876345 0.1448335 0.121119626 -0.16522956 -0.17283677 0.13257511 -0.048657827
0.31746253 -0.16001026 0.0685709 -0.41805482 -0.23215893 -0.014161768 -0.19228123 -0.20142324
-0.157518 0.16518885 0.21523757 -0.1364577 -0.2888289 0.334426 -0.26505965 -0.0055973507
-0.016659986 0.33397976 0.3366463 -0.4877668 -0.1496893 0.06402494 -0.2542352 -0.2293789
-0.079644546 -0.1250534 0.0485962 -0.1494856 0.2187439 -0.28444484 -0.22613057 -0.12309017
0.21084104 -0.13149971 0.08390509 0.14712115 -0.05023887 0.16764355 0.24530384 -0.23746026
-0.1685421 0.27065682 0.08445608 -0.175806 0.30922163 -0.074955 -0.11680746 -0.06235495
-0.23266457 0.07773152 -0.09666833 0.24495474 0.043063432 0.061394744 0.24446124 0.030261455
-0.095072225 0.039959416 0.050720997 0.22215942 -0.05553458 0.080007516 0.26042494 0.071593225
-0.33449242 -0.06843595 0.2039246 0.024070116 0.19238822 -0.03725668 0.10949508 0.32174543
0.10442231 -0.18695699 0.1794082 0.112236306 -0.20626268 0.16984928 0.0038994844 0.056416307
-0.071645804 0.038511522 0.18957135 0.32641354 0.20637017 -0.2726648 0.21843201 0.11717133
0.13206127 0.22517462 0.09359662 -0.118683636 0.087549515 0.34685603 0.11420897 -0.105177045
0.43522343 0.015483882 -0.05749791 -0.36851823 -0.005401874 0.15994589 -0.020562274 -0.18107022
-0.032045864 0.12253186 0.13793205 0.07548198 -0.009846337 0.13465269 -0.14273678 -0.09287212
-0.14463234 -0.2709925 0.058687795 -0.3027986 -0.07610688 0.10366 -0.20933956 0.03612216
-0.13610095 0.19379972 0.0101114875 0.032779988 -0.074526496 -0.30287796 -0.047321703 -0.0126305
-0.18007915 0.0756929 0.06547273 -0.07613176 0.049276616 -0.03112407 0.46417892 0.35138208
0.08774646 0.18508582 0.05910501 0.3149918 -0.13866523 -0.15927576 0.19322568 -0.11435008
0.023432638 -0.13276912 -0.17846623 0.14722611 0.088324584 -0.27336007 0.43305126 0.3865504
0.2106992 0.18329522 0.042689957 -0.08109318 -0.100510225 0.079327814 0.050453898 -0.005424732
0.14344278 0.0025651804 0.0825975 -0.2712618 0.04497827 0.2593936 0.33334988 0.12497221
-0.15340291 0.11766382 -0.020911904 0.15952568 0.2712432 0.15262453 -0.0867004 0.19074081
0.033891723 0.21753417 0.09432603 0.39905044 0.18484157 0.060949218 0.17616992 -0.054875948
0.0018327059 0.16845803 0.072139956 0.16360955 0.05850774 -0.034827013 0.25327796 -0.09449976
00000000: 3b92 28be d5ce 49be 8db0 713e 1579 153d
00000010: 5795 edbd 2508 25bc 3fa9 40bd 6a47 b93c
00000020: bbf3 17be 6a18 e8be e6f4 dc3d 7363 a53d
00000030: 14dc e8bc 9e8d 483e 15f0 27be 25b6 3e3e
00000040: 02aa cbbc 3104 873e 6779 533e eb69 7a3e
00000050: fc47 94be 96a9 373e ae50 d93b c485 bbbe
00000060: 6acf cbbd a0fa da3d 7500 fb3d 96e3 f53d
00000070: f65d 303e f637 7f3d 8d1c b1bc 0649 593e
00000080: 8008 c03d 8e5c 3dbd 9829 cebe 2158 1d3d
00000090: 94e6 4cbe c60c b53d ae2c 123e 00cf 5dbd
000000a0: 9c1c 97be 0de1 98be 8488 9abe acca 8cbe
000000b0: c397 ff3d c146 96bc ef64 77bd 59bd 7cbd
000000c0: 7443 c43b a99c 1f3e b3ae 1c3e f7c4 bf3e
000000d0: 1b16 5b3e 07f4 0abe 58dd 2b3e 2316 15bc
000000e0: 507a f53c 176e 113c 3c4f 143e 910d f83d
000000f0: f031 29be 1ffc 30be c5c1 073e 6e4d 47bd
00000100: 738a a23e bbd9 23be e66e 8c3d 480b d6be
00000110: 12bb 6dbe c306 68bc 5fe5 44be e541 4ebe
00000120: 664c 21be 4427 293e 3d67 5c3e 91bb 0bbe
00000130: 62e1 93be e239 ab3e e6b5 87be fb69 b7bb
00000140: 867a 88bc 65ff aa3e e75c ac3e 92bc f9be
00000150: 2748 19be 821f 833d 1e2b 82be 4de2 6abe
00000160: ae1c a3bd 000e 00be cf0c 473d c112 19be
00000170: 67fe 5f3e c1a2 91be c68e 67be b316 fcbd
00000180: b7e6 573e dca7 06be 6fd6 ab3d eda6 163e
00000190: 46c7 4dbd c0aa 2b3e ee30 7b3e c828 73be
000001a0: 4d96 2cbe 8893 8a3e 4ff7 ac3d 7d06 34be
000001b0: 4c52 9e3e 0282 99bd c038 efbd e767 7fbd
000001c0: 9f3f 6ebe b431 9f3d 0cfa c5bd 6ad5 7a3e
000001d0: 4863 303d 0e79 7b3d 0c54 7a3e dfe6 f73c
000001e0: 3ab5 c2bd 7cac 233d d2c0 4f3d c27d 633e
000001f0: 3a78 63bd fbda a33d 6b56 853e 789f 923d
00000200: 9742 abbe 2628 8cbd 9cd1 503e b12e c53c
00000210: 6b01 453e 769a 18bd f53e e03d d1bb a43e
00000220: 5ddb d53d a771 3fbe c8b6 373e 26dc e53d
00000230: 8636 53be f8ec 2d3e 7e8e 7f3b c914 673d
00000240: 09bb 92bd 42be 1d3d fe1e 423e ad1f a73e
00000250: b452 533e b89a 8bbe a4ac 5f3e 86f7 ef3d
00000260: 123b 073e 2d94 663e 96af bf3d 6810 f3bd
00000270: 294d b33d 1d97 b13e 64e6 e93d 1067 d7bd
00000280: 9bd5 de3e 1cb0 7d3c ee82 6bbd 6cae bcbe
00000290: 3402 b1bb dbc8 233e 3772 a8bc 796a 39be
000002a0: 8642 03bd fcf1 fa3d 0f3e 0d3e 4c96 9a3d
000002b0: 8852 21bc 65e2 093e 9729 12be bd33 bebd
000002c0: 801a 14be 87bf 8abe 9d62 703d 6b08 9bbe
000002d0: eddd 9bbd b24b d43d 1c5d 56be d4f4 133d
000002e0: 0c5e 0bbe 6f73 463e a7aa 253c 4f44 063d
000002f0: 59a1 98bd d212 9bbe 67d4 41bd 28f0 4ebc
00000300: ab66 38be e104 9b3d 9116 863d f8ea 9bbd
00000310: 47d6 493d e8f7 febc dca8 ed3e 5ae8 b33e
00000320: 6bb4 b33d 2387 3d3e 1818 723d 9b46 a13e
00000330: 42fe 0dbe 2f19 23be f4dc 453e 6030 eabd
00000340: cef5 bf3c a1f4 07be dabf 36be 71c2 163e
00000350: 85e3 b43d daf5 8bbe e5b8 dd3e efe9 c53e
00000360: 88c1 573e beb1 3b3e aadb 2e3d 2e14 a6bd
00000370: 4ed8 cdbd 9f76 a23d bfa8 4e3d f3c1 b1bb
00000380: aae2 123e 961c 283b e128 a93d d4e2 8abe
00000390: 223b 383d 3dcf 843e d6ac aa3e 6ef1 ff3d
000003a0: a715 1dbe bbf9 f03d 714f abbc b35a 233e
000003b0: 64e0 8a3e 9b49 1c3e fb8f b1bd 8f51 433e
000003c0: 0cd2 0a3d 47c1 5e3e 012e c13d 5750 cc3e
000003d0: 1c47 3d3e e3a5 793d e365 343e 9ac5 60bd
000003e0: 6837 f03a 4380 2c3e 1dbe 933d 4389 273e
000003f0: d0a5 6f3d c5a6 0ebd a6ad 813e 1789 c1bd

bias f4 [32]
-0.13052545 -0.053131357 0.2016176 -0.008958803 -0.1990594 0.14907715 0.043947116 0.1454999
0.12155772 -0.016423633 0.09213823 0.14288875 -0.03912724 0.0063896305 -0.06113919 0.12498449
-0.16327068 0.13764821 0.09527956 -0.0495474 0.1428922 -0.14075 -0.11459418 0.027265565
-0.11263249 0.06246948 -0.1291795 -0.1925086 -0.14640987 -0.20004196 -0.043295026 -0.036233246
00000000: 77a8 05be 44a0 59bd d874 4e3e f1c7 12bc
00000010: 3ad6 4bbe aea7 183e e401 343d edfd 143e
00000020: 41f3 f83d db8a 86bc f8b2 bc3d 6e51 123e
00000030: e343 20bd 1b60 d13b 166d 7abd def7 ff3d
00000040: 6e30 27be a7f3 0c3e ee21 c33d 37f2 4abd
00000050: 5552 123e c520 10be 5ab0 eabd 095c df3c
00000060: ddab e6bd ffdf 7f3d a147 04be f920 45be
00000070: 78ec 15be cdd7 4cbe 2056 31bd 5069 14bd

weight f4 [32, 64]
-0.050972015 0.0041405708 -0.06208232 0.047139198 -0.106506884 0.09163049 -0.09085503 -0.09938024
-0.078985885 0.056611687 -0.04618652 0.046776667 -0.10609117 -0.07584046 -0.045897007 -0.024564967
-0.095357925 0.081848845 -0.029478893 0.040123463 0.08839294 0.02328825 0.03418134 0.12065734
-0.056376174 0.039593905 -0.055614516 0.08933121 0.09983206 -0.115246534 0.106705725 0.0596893
0.05447088 0.051459357 0.10391238 -0.016504943 -0.10571231 -0.035868615 -0.08803433 0.008263335
-0.023338437 -0.06704812 -0.011365175 0.11842547 -0.009859428 0.0039687604 -0.01949507 0.019650877
0.11137658 0.07643661 0.04437019 0.027163818 0.02947411 0.048291653 -0.016152933 -0.1161761
-0.07730149 0.106698215 0.0074716806 -0.10125919 0.019715935 0.10328396 -0.11812496 -0.08415492
-0.0497832 0.005017191 -0.029153675 -0.013736397 -0.121861264 0.05853489 0.109717906 0.076404795
-0.08851655 -0.10076292 0.05190654 0.0028073192 0.051241368 -0.122143924 -0.0074528754 0.08815546
0.057988927 0.0045646727 0.02457738 -0.011835009 -0.06872919 -0.04723741 -0.07612246 0.10382615
0.06878583 0.043715328 -0.09585656 0.09645273 0.03919284 0.08647433 -0.049173757 0.026499614
0.1220478 0.084082395 0.10024959 -0.026248097 0.09523465 -0.09790403 0.01081112 -0.070381865
-0.029151902 -0.03201218 0.009352386 0.11376746 0.06188549 -0.00052952766 0.08873069 -0.06405695
0.06442143 -0.0115915835 -0.02175136 0.014634177 -0.09576209 0.014444664 0.042029753 0.106866464
-0.038917884 0.045003444 0.12493901 -0.05362113 0.11882405 -0.062061504 0.055099368 0.048968762
0.034916013 0.098850384 -0.050520554 0.03285238 0.00070151687 -0.0940177 -0.030351743 -0.083477885
0.05526942 0.011236995 0.012245581 -0.03792134 0.00060106814 -0.038880393 0.035917014 0.121396214
0.018933818 -0.055364788 -0.076353505 0.009554878 -0.092730775 -0.09395628 -0.081359625 -0.0424556
0.009252191 0.08607645 0.04841742 0.095764846 -0.07848717 0.010548517 -0.11111009 0.071707144
0.026051238 0.12090184 -0.08890152 0.10024123 0.10552831 0.1010647 0.017836854 0.11365992
0.083479375 0.093259916 -0.008120105 -0.095924765 -0.0015555024 0.023442283 -0.08514613 -0.071704894
-0.119843304 -0.04381843 0.10888356 0.021374509 -0.0076350123 0.005019754 0.077943206 -0.110382944
-0.096448705 -0.041558802 -0.07193977 0.06447314 0.08832294 -0.12127823 -0.10608496 -0.12172723
0.04715681 0.100606814 -0.09691751 -0.057869554 0.039777577 -0.08162317 0.106184945 0.029145151
-0.03479795 0.008118823 0.038971066 -0.044201642 -0.09685698 0.000840202 0.0022768676 0.0025206506
-0.018241286 0.08025919 -0.034882396 -0.012099087 0.051398456 -0.078679666 0.033469826 -0.027639464
0.059959188 -0.06780805 0.004619792 0.012228668 -0.10057457 -0.09089278 0.047939166 -0.036382064
0.07423708 -0.12348282 -0.061791077 -0.10295774 0.049933925 -0.0036239177 -0.023315176 -0.020796418
-0.09770611 0.03544937 0.0031157285 -0.08626412 0.047035962 -0.0025123805 -0.12089345 0.06724003
0.066860884 -0.02355127 -0.08630477 0.005018756 0.09432247 0.11441748 -0.09435013 -0.056458622
0.09732805 0.06109728 0.07737662 -0.06221679 0.10769181 -0.10275824 -0.006021112 0.002595365
00000000: 08c8 50bd a0ad 873b 084a 7ebd 0815 413d
00000010: 4820 dabd c4a8 bb3d 3412 babd de87 cbbd
00000020: 5ac3 a1bd a8e1 673d 142e 3dbd e498 3f3d
00000030: 5446 d9bd 3e52 9bbd 80fe 3bbd 783c c9bc
00000040: 044b c3bd 5ea0 a73d b87d f1bc 8058 243d
00000050: 5c07 b53d 00c7 be3c bc01 0c3d 321b f73d
00000060: b4ea 66bd 382d 223d 0ccc 63bd 48f3 b63d
00000070: c074 cc3d 6006 ecbd 8888 da3d c47c 743d
00000080: dc1c 5f3d 0cc7 523d 04d0 d43d 6035 87bc
00000090: b27f d8bd f8ea 12bd 584b b4bd f062 073c
000000a0: 4030 bfbc 8650 89bd 0035 3abc 0e89 f23d
000000b0: 7089 21bc 600c 823b 20b4 9fbc e0fa a03c
000000c0: 6819 e43d cc8a 9c3d 84bd 353d a886 de3c
000000d0: b073 f13c 78cd 453d 2853 84bc bced edbd
000000e0: 3e50 9ebd 9884 da3d 00d5 f43b fa60 cfbd
000000f0: 5083 a13c 8a86 d33d 80eb f1bd 6a59 acbd
00000100: 78e9 4bbd 4067 a43b b0d3 eebc a00e 61bc
00000110: 6692 f9bd 48c2 6f3d c8b3 e03d 1e7a 9c3d
00000120: 2a48 b5bd ca5c cebd f49b 543d 00fb 373b
00000130: 78e2 513d 9826 fabd 4037 f4bb da8a b43d
00000140: cc85 6d3d 4093 953b 8056 c93c a0e7 41bc
00000150: e4c1 8cbd 047c 41bd 18e6 9bbd cea2 d43d
00000160: 96df 8c3d d80e 333d 7250 c4bd 0289 c53d
00000170: ac88 203d 7419 b13d 6c6a 49bd b815 d93c
00000180: 32f4 f93d 6433 ac3d a84f cd3d 4006 d7bc
00000190: 620a c33d e881 c8bd 2021 313c 5e24 90bd
000001a0: f8cf eebc 341f 03bd c03a 193c eafe e83d
000001b0: a47b 7d3d 00d0 0aba 70b8 b53d 4a30 83bd
000001c0: 62ef 833d a0ea 3dbc e82f b2bc 30c4 6f3c
000001d0: ea1e c4bd 50a9 6c3c 6427 2c3d cedc da3d
000001e0: 5c68 1fbd 8855 383d 06e0 ff3d d4a1 5bbd
000001f0: 065a f33d 3434 7ebd e0af 613d 7893 483d
00000200: 1804 0f3d 1272 ca3d a4ee 4ebd 3890 063d
00000210: 00e6 373a 5a8c c0bd 38a4 f8bc 74f6 aabd
00000220: 3062 623d 601b 383c b0a1 483c 6853 1bbd
00000230: 0091 1d3a 0c41 1fbd b81d 133d 949e f83d
00000240: 181b 9b3c 30c6 62bd 3a5f 9cbd 108c 1c3c
00000250: a2e9 bdbd 266c c0bd e09f a6bd ece5 2dbd
00000260: 8096 173c da48 b03d 5851 463d 5c20 c43d
00000270: e2bd a0bd b0d3 2c3c b08d e3bd 32db 923d
00000280: 6869 d53c 629b f73d 0012 b6bd 464b cd3d
00000290: 3a1f d83d 02fb ce3d 981e 923c 88c6 e83d
000002a0: 3cf7 aa3d 0eff be3d 300a 05bc 3474 c4bd
000002b0: 00e2 cbba 080a c03c 1861 aebd 04da 92bd
000002c0: 6870 f5bd f47a 33bd 58fe de3d 9819 af3c
000002d0: 202f fabb c07c a43b b0a0 9f3d 7410 e2bd
000002e0: e686 c5bd 9039 2abd 2855 93bd 7e0a 843d
000002f0: a8e2 b43d b860 f8bd 1243 d9bd 204c f9bd
00000300: 8027 413d f20a ce3d b07c c6bd a008 6dbd
00000310: d0ed 223d 0c2a a7bd 7e77 d93d d0c1 ee3c
00000320: 4c88 0ebd d004 053c 20a0 1f3d c80c 35bd
00000330: f45c c6bd 0041 5c3a 8037 153b 8031 253b
00000340: c06e 95bc ee5e a43d d8e0 0ebd 403b 46bc
00000350: 3087 523d ce22 a1bd a817 093d 286c e2bc
00000360: c497 753d f2de 8abd a061 973b c05a 483c
00000370: 0afa cdbd fe25 babd dc5b 443d 5c05 15bd
00000380: 9c09 983d 90e4 fcbd a418 7dbd 82db d2bd
00000390: 8487 4c3d 407f 6dbb 78ff bebc 405d aabc
000003a0: 241a c8bd 5c33 113d 4031 4c3b 3eab b0bd
000003b0: c8a8 403d c0a6 24bb fc96 f7bd 24b5 893d
000003c0: 5cee 883d 98ee c0bc 8ec0 b0bd 6074 a43b
000003d0: 242c c13d b653 ea3d a43a c1bd 2841 67bd
000003e0: ee53 c73d 2441 7a3d a277 9e3d 08d7 7ebd
000003f0: 868d dc3d ea72 d2bd c04c c5bb 0017 2a3b

bias f4 [32]
0.006000623 -0.11990543 0.015900686 0.043976173 0.11186783 -0.040516123 0.04508625 -0.041886568
-0.043956473 -0.11076146 0.02638419 0.083875194 -0.06953706 0.05110444 -0.019498333 -0.08874825
0.013328612 -0.1218126 0.06700824 -0.027619168 0.11512223 0.0046144873 -0.12118633 0.09700169
-0.027341396 -0.085622594 0.11541125 0.011674732 0.040526584 -0.108135834 -0.04414603 0.10029392
00000000: e0a0 c43b fa90 f5bd 2842 823c 5c20 343d
00000010: f61a e53d 3cf4 25bd 5cac 383d 4091 2bbd
00000020: b40b 34bd e8d6 e2bd a823 d83c c2c6 ab3d
00000030: 7269 8ebd e452 513d f8ba 9fbc a4c1 b5bd
00000040: 4060 5a3c e278 f9bd 9e3b 893d 9841 e2bc
00000050: 34c5 eb3d 2035 973b 8a30 f8bd d2a8 c63d
00000060: 10fb dfbc e65a afbd bc5c ec3d 6047 3f3c
00000070: 34ff 253d 5276 ddbd 78d2 34bd e666 cd3d

weight_ih_l0 f4 [128, 32]
0.08108422 0.119872674 -0.0925009 -0.043989312 -0.096871786 -0.082420126 -0.30557984 -0.46782783
-0.22231634 0.30703914 0.15101239 -0.149796 0.11905964 -0.2908043 0.17555133 -0.011317994
0.12607215 0.33718035 -0.18477316 0.10603924 -0.37693542 0.040493686 -0.19431928 -0.41674632
-0.040034067 -0.22714905 0.06932159 0.1203987 0.13917531 -0.13814168 0.09114045 -0.17810644
0.11182003 -0.024232632 -0.10441012 -0.22245152 0.062175196 -0.030456975 0.015753353 -0.29541934
-0.13361348 0.3152929 0.22495434 0.00028431596 0.24974391 -0.04042933 -0.12793683 -0.09990648
0.12447809 0.17117117 -0.050037026 0.12690914 -0.2925367 -0.06784493 -0.10869724 -0.454003
0.04622644 -0.08853508 0.2737584 0.110950105 0.032522038 0.011882291 0.07949565 -0.11338977
0.15575781 0.19527131 0.06688849 -0.28386024 0.12432367 -0.2820716 -0.0012413852 -0.36432645
-0.060905825 0.2515543 0.26157045 -0.31299934 0.051573537 -0.122929566 -0.00085953996 -0.14375402
0.27037352 0.45934603 -0.09678961 0.10942604 -0.06694142 0.0969456 -0.1848357 -0.5968253
-0.08084579 -0.37872523 0.11146706 0.29143846 0.10031678 -0.0504955 0.021763949 0.050638735
0.26939037 0.11431367 -0.13213874 -0.3707354 -0.062984414 -0.2335522 -0.04205678 -0.60853785
0.14509402 0.20330273 0.031219626 0.020657629 -0.017851446 -0.26051486 0.070513695 0.14270833
0.11992436 0.27515197 -0.029060565 -0.004643497 -0.11106462 -0.16481447 -0.27354887 -0.57105863
-0.15755877 -0.29501206 0.022711096 0.09666635 0.12907717 0.010982366 -0.15944044 -0.02425426
0.02912857 -0.0016678087 0.04931092 -0.21883863 -0.065200604 -0.10446115 -0.07379399 -0.27534914
-0.07565096 0.03423835 0.12954047 0.032051373 0.10199538 -0.2446887 -0.013905454 -0.034929328
0.10484896 0.51234484 -0.16420713 -0.15810862 -0.14629903 -0.20023608 -0.16871426 -0.4387973
-0.1306824 -0.18424554 0.08377406 0.1259299 0.24490844 -0.14045575 -0.27845362 -0.05432226
0.018638672 0.06495272 -0.06805861 -0.24701688 -0.15326637 -0.08378872 -0.3260007 -0.3472044
-0.3271083 0.20313495 0.06520788 -0.019830221 0.12844841 -0.20016927 0.12960722 0.10619655
0.262756 0.24914183 0.16799483 -0.09285106 -0.35054913 0.011802081 0.041399647 -0.50432765
0.03400129 -0.28083748 0.18589331 0.21006998 0.16586483 -0.031469684 -0.3699466 -0.013350716
0.21714671 0.1356037 -0.17487743 -0.05339057 0.080591656 -0.057364635 -0.028127208 -0.40606472
-0.00043123632 0.018058533 0.026225373 -0.13876703 0.006153667 -0.12594733 -0.03305397 -0.05372243
0.1584626 0.35554385 -0.17244335 0.044170167 -0.2971348 0.0025001229 -0.057854556 -0.6223968
-0.07110916 -0.13514055 0.07603231 0.31474352 0.051172014 -0.00087968947 -0.1633524 -0.09516183
-0.03684927 0.42523548 -0.0014277255 -0.41181 -0.18705396 -0.3582098 -0.037575502 -0.5378548
-0.15642458 0.10201012 0.011463966 -0.25247654 0.073612474 -0.4184844 0.0017940223 -0.13556105
0.25581712 0.24801746 -0.22571895 0.10307182 -0.138693 -0.036310904 0.050654758 -0.59071004
0.19518907 -0.3500223 0.40621126 0.27969533 0.2585143 -0.011335789 -0.1572491 0.14174399
00000000: 7c0f a63d ce7f f53d 1d71 bdbd 232e 34bd
00000010: b764 c6bd e2cb a8bd f674 9cbe 2187 efbe
00000020: e5a6 63be 3c34 9d3e fea2 1a3e 1f64 19be
00000030: 8ad5 f33d 4de4 94be bac3 333e 1c6f 39bc
00000040: 0f19 013e e7a2 ac3e 2d35 3dbe 1a2b d93d
00000050: aefd c0be b5dc 253d a2fb 46be c65f d5be
00000060: c3fa 23bd c399 68be 7af8 8d3d 9893 f63d
00000070: f983 0e3e 0375 0dbe d8a7 ba3d 8961 36be
00000080: e601 e53d 8383 c6bc f9d4 d5bd 55ca 63be
00000090: 6bab 7e3d e880 f9bc 2d0d 813c 3441 97be
000000a0: f9d1 08be 126e a13e 6e5a 663e 3e10 9539
000000b0: debc 7f3e 3a99 25bd df01 03be c59b ccbd
000000c0: 5eee fe3d 7f47 2f3e a0f3 4cbd 78f4 013e
000000d0: 5fc7 95be 48f2 8abd a99c debd 1573 e8be
000000e0: f057 3d3d e151 b5bd 102a 8c3e cf39 e33d
000000f0: d435 053d f1ad 423c 9ece a23d e538 e8bd
00000100: fa7e 1f3e 34f5 473e d5fc 883d 2156 91be
00000110: 699d fe3d b06b 90be fab5 a2ba ff88 babe
00000120: 6378 79bd bacb 803e 90ec 853e 7341 a0be
00000130: c63e 533d 7fc2 fbbd c052 61ba 4134 13be
00000140: 666e 8a3e 672f eb3e a239 c6bd c21a e03d
00000150: 9518 89bd 6a8b c63d 9245 3dbe 8bc9 18bf
00000160: 7a92 a5bd 46e8 c1be d848 e43d 6c37 953e
00000170: e272 cd3d 5fd4 4ebd 4f4a b23c 906a 4f3d
00000180: 89ed 893e 491d ea3d 614f 07be 08d1 bdbe
00000190: f9fd 80bd 4f28 6fbe bb43 2cbd 23c9 1bbf
000001a0: 8793 143e 972e 503e 4dc0 ff3c 303a a93c
000001b0: 323d 92bc 3462 85be 7c69 903d 2222 123e
000001c0: e79a f53d b8e0 8c3e 6c10 eebc 7a28 98bb
000001d0: d975 e3bd 20c5 28be 990e 8cbe e630 12bf
000001e0: 1657 21be d20b 97be 9f0c ba3c 02f9 c53d
000001f0: ce2c 043e 62ef 333c 5b44 23be dfb0 c6bc
00000200: 0a9f ee3c 609a daba 3ffa 493d 3c17 60be
00000210: e587 85bd baef d5bd 4e21 97bd 90fa 8cbe
00000220: e4ee 9abd 833d 0c3d 42a6 043e 4d48 033d
00000230: f4e2 d03d ad8f 7abe b4d3 63bc 0e12 0fbd
00000240: 0dbb d63d 0829 033f ea25 28be 3ae7 21be
00000250: 6acf 15be b00a 4dbe 6ec3 2cbe 0aaa e0be
00000260: 9bd1 05be ddaa 3cbe bc91 ab3d c5f3 003e
00000270: 47c9 7a3e a2d3 0fbe 7991 8ebe 0581 5ebd
00000280: 21b0 983c ef05 853d 5062 8bbd fef1 7cbe
00000290: dcf1 1cbe 6c99 abbd 90e9 a6be c6c4 b1be
000002a0: bd7a a7be 9c02 503e b68b 853d fd72 a2bc
000002b0: fb87 033e 2cf9 4cbe c1b7 043e 947d d93d
000002c0: f487 863e 091f 7f3e d606 2c3e b228 bebd
000002d0: 2d7b b3be 845d 413c ad92 293d 9e1b 01bf
000002e0: f044 0b3d eec9 8fbe d15a 3e3e 961c 573e
000002f0: 78d8 293e 5be6 00bd a469 bdbe f6bc 5abc
00000300: b55b 5e3e b2db 0a3e 1213 33be 12b0 5abd
00000310: 3d0d a53d 2ef7 6abd 086b e6bc b7e7 cfbe
00000320: 8f17 e2b9 7def 933c 98d6 d63c f218 0ebe
00000330: b3a4 c93b 56f8 00be 9a63 07bd 0d0c 5cbd
00000340: 0544 223e d809 b63e fd94 30be c7eb 343d
00000350: 0d22 98be 1ad9 233b e6f8 6cbd 6655 1fbf
00000360: aea1 91bd 4962 0abe d4b6 9b3d 1026 a13e
00000370: bf99 513d f69a 66ba da45 27be 35e4 c2bd
00000380: 43ef 16bd 77b8 d93e 8522 bbba c3d8 d2be
00000390: 138b 3fbe 4667 b7be c5e8 19bd dab0 09bf
000003a0: c42d 20be afea d03d 5cd3 3b3c 9b44 81be
000003b0: 23c2 963d 9643 d6be 6625 eb3a 84d0 0abe
000003c0: 76fa 823e 4af8 7d3e de22 67be 5217 d33d
000003d0: 8a05 0ebe beba 14bd 5d7b 4f3d c638 17bf
000003e0: a5df 473e 1f36 b3be ecfa cf3e 3a34 8f3e
000003f0: fd5b 843e bfb9 39bc e805 21be 5625 113e

weight_hh_l0 f4 [128, 32]
0.065955535 0.04120316 -0.11685876 -0.11888592 -0.03246788 -0.061569452 0.14892022 0.022745898
0.15555827 -0.1329161 -0.047499076 -0.10476706 -0.15971804 -0.022499818 0.07338052 0.071126655
0.1013678 0.006304394 0.19956711 0.06470807 0.18829957 0.0592573 -0.011954812 -0.036431946
0.09886944 -0.097598985 0.084514834 0.09934498 -0.12183529 -0.08304325 0.11966946 -0.12484214
0.17352358 0.10052141 -0.15647395 0.101718836 -0.09353635 -0.20652848 0.119121596 -0.16456826
0.103321396 0.05072261 -0.09067694 -0.075513855 0.0011338388 -0.0021242022 0.038644243 0.014804033
-0.075723276 0.054353498 -0.10572986 -0.075727426 0.15548782 -0.063235134 -0.076759316 -0.18557456
0.0273309 0.05930243 0.09327677 0.10887021 0.19260544 -0.06000865 0.044496465 -0.09331666
0.05280413 -0.013215884 -0.1656306 -0.027606988 0.18967734 0.08121574 0.1971762 0.046649005
0.12590542 0.11660221 -0.15135947 0.059804138 -0.05721108 0.11283601 -0.1358522 0.20034492
0.13716464 0.12295347 -0.01776432 -0.1528323 -0.08583349 0.041528285 0.08148076 -0.21493188
0.16908038 -0.037395846 0.09084371 0.007501473 0.039051704 0.03200447 -0.068039745 -0.070521936
0.05506055 0.15928242 0.11982299 -0.061205696 0.07216324 -0.0056581204 -0.045194466 0.12369806
0.03697161 0.20566832 0.10599809 -0.16437934 -0.19638868 -0.04115665 -0.15555063 0.06187243
-0.09240709 -0.07751085 -0.13221768 0.08778648 -0.013089596 0.018762881 -0.065807395 -0.1896454
-0.0954576 0.09120253 -0.041294612 0.00090916373 0.10736599 0.18009366 -0.047883406 0.19470571
-0.027050857 0.17679943 0.18100055 0.07347396 -0.11399779 -0.19215865 -0.021685572 -0.12110787
-0.09171368 0.00897436 0.0457457 0.014879147 0.035564415 -0.136381 -0.02316621 -0.012178258
0.17183548 -0.09835467 -0.08326714 -0.17611007 0.08795515 -0.08919067 0.07094466 0.08026485
0.14849696 -0.071682304 -0.056752708 0.02981498 0.10626826 0.08581233 -0.047232572 0.09108315
-0.10474779 -0.14215676 -0.07441626 0.066198096 0.177067 0.14153165 0.027303904 -0.01109556
0.14600171 0.07940385 0.037160885 0.07959907 0.07626253 0.008782651 0.022095967 -0.012857195
0.064235725 -0.06178193 0.15223864 -0.08272896 -0.10449463 -0.18963854 -0.13771173 -0.010577978
0.034715705 -0.13206117 -0.10366069 -0.20562345 0.11383573 -0.1270331 0.11281585 0.09750675
0.085457966 0.1688769 0.11151413 0.1567245 0.014018445 -0.12215445 -0.10492558 0.008976159
0.09635401 0.19509013 -0.047222547 0.10720507 -0.08978952 0.053747375 -0.060665652 0.07561426
-0.16773984 -0.15018128 -0.0019953768 0.12317934 0.06440119 0.11195455 0.17816035 0.020916373
0.18914025 0.093453564 -0.13989827 0.13122813 -0.07969486 0.119189106 0.035478562 0.10546939
0.12315132 -0.09456152 -0.05663089 0.1398148 0.03395315 0.12318891 0.14684418 0.024511624
-0.109233856 0.056786045 -0.074976444 0.08740342 0.11039567 0.031154573 -0.12032743 -0.002722265
-0.19933364 0.0066663125 0.21344128 0.11182977 -0.09327029 -0.1286519 0.061131466 -0.1398425
0.09299571 -0.040274292 -0.09407171 -0.06538267 -0.022104064 0.0073987977 0.10647983 0.1871296
00000000: b213 873d a5c4 283d a553 efbd 767a f3bd
00000010: 0afd 04bd 4030 7cbd 8b7e 183e 9b55 ba3c
00000020: ab4a 1f3e 281b 08be 648e 42bd 1d90 d6bd
00000030: 208d 23be 8a51 b8bc 8748 963d daaa 913d
00000040: ec99 cf3d 1795 ce3b 525b 4c3e aa85 843d
00000050: 9ad1 403e c8b7 723d 1ede 43bc aa39 15bd
00000060: 107c ca3d fae1 c7bd 1d16 ad3d 6275 cb3d
00000070: c884 f9bd 9412 aabd 4315 f53d 3cad ffbd
00000080: 2ab0 313e 2bde cd3d b53a 20be f751 d03d
00000090: fc8f bfbd 347c 53be 06f6 f33d 9584 28be
000000a0: 2b9a d33d 83c2 4f3d d5b4 b9bd 02a7 9abd
000000b0: 519d 943a 3336 0bbb 6d49 1e3d 9d8c 723c
000000c0: ce14 9bbd c6a1 5e3d e688 d8bd fb16 9bbd
000000d0: 3338 1f3e 6c81 81bd fd33 9dbd 4207 3ebe
000000e0: 0de5 df3c 1be7 723d e407 bf3d 58f7 de3d
000000f0: 5c3a 453e a1cb 75bd ed41 363d ce1c bfbd
00000100: 2549 583d 6f87 58bc 119b 29be 0d28 e2bc
00000110: c73a 423e 7054 a63d 8fe8 493e 0713 3f3d
00000120: 5aed 003e 24cd ee3d fafd 1abe 2ff5 743d
00000130: 2a56 6abd 9116 e73d d71c 0bbe 3827 4d3e
00000140: e374 0c3e 07cf fb3d 7b86 91bc 1280 1cbe
00000150: 78c9 afbd 9019 2a3d 62df a63d 1a17 5cbe
00000160: 6823 2d3e 632c 19bd 440c ba3d ebce f53b
00000170: aef4 1f3d 1e17 033d 6c58 8bbd ce6d 90bd
00000180: 2c87 613d ee1a 233e c165 f53d d3b2 7abd
00000190: 52ca 933d c167 b9bb d51d 39bd 6955 fd3d
000001a0: 8b6f 173d b79a 523e 8715 d93d 0f53 28be
000001b0: 1d1a 49be e093 28bd aa48 1fbe f26d 7d3d
000001c0: ee3f bdbd 02be 9ebd 1264 07be 66c9 b33d
000001d0: bf75 56bc 9db4 993c 07c6 86bd 6732 42be
000001e0: 467f c3bd 64c8 ba3d 8a24 29bd f254 6e3a
000001f0: b3e2 db3d 796a 383e 6421 44bd ef60 473e
00000200: c299 ddbc e90a 353e 3558 393e 8479 963d
00000210: ac77 e9bd 3dc5 44be f1a5 b1bc 6707 f8bd
00000220: 62d4 bbbd 3209 133c d85f 3b3d aac7 733c
00000230: feab 113d 76a7 0bbe 10c7 bdbc 5187 47bc
00000240: a4f5 2f3e 2c6e c9bd f687 aabd 3356 34be
00000250: d421 b43d 99a9 b6bd 6f4b 913d e661 a43d
00000260: 960f 183e 2cce 92bd 8775 68bd 8c3e f43c
00000270: 2ca3 d93d 60be af3d f176 41bd cd89 ba3d
00000280: 0286 d6bd 8b91 11be 8d67 98bd de92 873d
00000290: 0d51 353e aced 103e 70ac df3c 27ca 35bc
000002a0: 7981 153e 7c9e a23d 0336 183d d604 a33d
000002b0: 882f 9c3d 1ce5 0f3c 9a02 b53c fca6 52bc
000002c0: 058e 833d 0d0f 7dbd 72e4 1b3e cd6d a9bd
000002d0: 4801 d6bd 9b30 42be 4e04 0dbe 414f 2dbc
000002e0: 0e32 0e3d 0b3b 07be 0e4c d4bd f48e 52be
000002f0: b522 e93d f714 02be ff0b e73d 9eb1 c73d
00000300: 9604 af3d 11ee 2c3e 8561 e43d 637c 203e
00000310: 9fad 653c 1d2c fabd 39e3 d6bd bd10 133c
00000320: 4055 c53d b5c5 473e 6e6c 41bd 558e db3d
00000330: 91e3 b7bd 3526 5c3d 8c7c 78bd a6db 9a3d
00000340: fec3 2bbe 1fc9 19be dec4 02bb 7345 fc3d
00000350: c5e4 833d 6d48 e53d ab6f 363e d058 ab3c
00000360: fbad 413e 9564 bf3d 7e41 0fbe ab60 063e
00000370: 0f37 a3bd 6b19 f43d f851 113d 5600 d83d
00000380: c236 fc3d 78a9 c1bd cbf5 67bd 9c2b 0f3e
00000390: 7512 0b3d 784a fc3d 525e 163e 9acc c83c
000003a0: 00b6 dfbd 7c98 683d 408d 99bd 9000 b33d
000003b0: 2017 e23d e037 ff3c 3a6e f6bd 0768 32bb
000003c0: 1e1e 4cbe 1571 da3b 5a90 5a3e 0207 e53d
000003d0: 7e04 bfbd 53bd 03be fd64 7a3d df32 0fbe
000003e0: 8974 be3d a8f6 24bd aba8 c0bd 59e7 85bd
000003f0: 9513 b5bc 9d71 f23b 1912 da3d e79e 3f3e

bias_ih_l0 f4 [128]
-0.30811355 -0.15073702 -0.4279261 -0.09851869 -0.02834548 -0.16602056 -0.2706132 -0.5152732
-0.35970944 -0.22465621 -0.10464222 -0.124248326 -0.16930252 -0.43989322 -0.40234014 -0.22753301
-0.22321859 -0.45188454 0.019527135 -0.29839605 -0.26379687 -0.2751934 -0.114504606 -0.2239794
-0.3449998 -0.3364012 -0.21307948 -0.14510302 -0.35931623 -0.18188454 -0.15499695 -0.10809587
-0.12763135 0.042175405 -0.06469041 -0.15235268 -0.039885968 -0.16078454 -0.03324023 -0.11363842
0.0022173661 0.06368101 -0.027859407 -0.27146882 -0.23991652 -0.2800898 -0.3036317 -0.15090294
0.048984118 -0.38787648 -0.02639174 -0.20097487 -0.17707187 -0.0984161 -0.18515065 0.031531177
-0.11507744 -0.11350669 0.03982803 0.017667785 -0.057913754 -0.06515604 -0.04971901 -0.24567218
0.05100616 -0.09186677 0.0685171 -0.15455058 0.032984972 -0.065802686 -0.09219677 -0.046903335
0.123967685 -0.13464904 0.1115428 -0.12469909 -0.1519164 0.034823928 -0.06742664 -0.04693815
0.14290603 0.06434722 -0.17527881 0.062304445 -0.06470503 0.07732491 -0.08593993 0.122840576
-0.12890483 0.025012765 0.06395247 0.108616866 -0.059197817 -0.035217114 0.014934088 0.038170505
-0.22310355 -0.020967199 -0.3449722 -0.1973564 -0.15929653 -0.23008877 -0.15375 -0.23139597
-0.12894315 -0.2882462 -0.022788737 -0.16855343 -0.27563393 -0.36657393 -0.1682017 -0.10354578
-0.2296858 -0.22469848 0.016000448 -0.10530407 -0.06634742 -0.30315316 -0.22076863 -0.2282176
-0.393801 -0.1478201 -0.089216754 -0.044980034 -0.1878935 -0.25004855 -0.1610217 0.017022798
00000000: 0fc1 9dbe ce5a 1abe 2119 dbbe 2bc4 c9bd
00000010: c834 e8bc 4b01 2abe d08d 8abe f2e8 03bf
00000020: d62b b8be 470c 66be a94e d6bd e875 febd
00000030: a45d 2dbe af39 e1be 87ff cdbe 6afe 68be
00000040: 6a93 64be 695d e7be 5ff7 9f3c 5ec7 98be
00000050: 6210 87be 26e6 8cbe 6481 eabd db5a 65be
00000060: d0a3 b0be c73c acbe 8231 5abe e395 14be
00000070: 4cf8 b7be f13f 3abe 85b7 1ebe 5e61 ddbd
00000080: cbb1 02be 1ec0 2c3d 687c 84bd 5702 1cbe
00000090: 785f 23bd b4a4 24be e826 08bd 43bb e8bd
000000a0: 3b51 113b 306b 823d 6939 e4bc f6fd 8abe
000000b0: adac 75be ee67 8fbe 9d75 9bbe 4d86 1abe
000000c0: 92a3 483d bf97 c6be 7e33 d8bc 5bcc 4dbe
000000d0: 5452 35be 618e c9bd 2298 3dbe d626 013d
000000e0: b9ad ebbd 3276 e8bd b722 233d 08bc 903c
000000f0: f936 6dbd 8870 85bd 29a6 4bbd 7d91 7bbe
00000100: d6eb 503d a524 bcbd b152 8c3d 8242 1ebe
00000110: 401b 073d 8fc3 86bd a9d1 bcbd b61d 40bd
00000120: c5e2 fd3d 70e1 09be 8d70 e43d 3d62 ffbd
00000130: f98f 1bbe 89a3 0e3d fa16 8abd 3842 40bd
00000140: f555 123e 7ac8 833d 4a7c 33be f232 7f3d
00000150: 1284 84bd 865c 9e3d 4601 b0bd d793 fb3d
00000160: a1ff 03be 92e7 cc3c 83f9 823d 8572 de3d
00000170: 6979 72bd d23f 10bd 1bae 743c ad58 1c3d
00000180: 4275 64be 67c3 abbc 32a0 b0be cc17 4abe
00000190: a11e 23be 649c 6bbe a470 1dbe 11f3 6cbe
000001a0: ac09 04be 0295 93be 72af babc 4599 2cbe
000001b0: e41f 8dbe 94af bbbe 113d 2cbe cf0f d4bd
000001c0: c132 6bbe 5c17 66be 5f13 833c a9a9 d7bd
000001d0: 28e1 87bd e436 9bbe 2c11 62be e0b1 69be
000001e0: 49a0 c9be 275e 17be 46b7 b6bd fc3c 38bd
000001f0: 2767 40be 5d06 80be dfe2 24be 6573 8b3c

bias_hh_l0 f4 [128]
-0.40964356 -0.22050653 -0.09435067 -0.3619859 -0.16636896 -0.4500608 -0.18932271 -0.306142
-0.22600733 -0.037551623 -0.18023103 -0.18867576 -0.24881184 -0.19126464 -0.11490806 -0.37511665
0.028069053 -0.23633373 -0.23532842 -0.071228504 -0.09513656 -0.23925884 -0.27739108 -0.20135328
-0.38490808 -0.23171504 -0.34710106 -0.2771282 -0.3343069 -0.014396702 -0.08174039 -0.28903884
-0.34162515 -0.15353456 -0.3778594 -0.13256478 -0.016182428 -0.33696455 -0.018373074 -0.37227798
-0.13782576 -0.06676578 0.014864726 -0.1513171 -0.32638505 -0.08040279 -0.14322518 -0.097440064
-0.19768223 -0.25904998 -0.22357136 0.025882835 -0.2763105 -0.3005138 -0.10732758 -0.16017307
-0.31829375 -0.20220035 -0.17298917 -0.19786659 -0.23822966 -0.25480345 -0.17225736 -0.16938995
-0.024186255 -0.08457673 -0.0031099783 0.041000474 0.011712191 -0.0019040636 -0.034117825 0.08126007
-0.03851084 0.1424631 0.04845465 0.12949319 0.10353694 -0.041289877 0.1121293 -0.09091779
-0.14209306 -0.093864426 0.023969902 0.005930822 0.09171207 0.020215446 -0.111426555 -0.08570053
0.015504722 0.056462493 0.045031853 0.07680959 -0.024461234 0.088189684 -0.05387311 -0.09529362
-0.43633112 -0.0062343245 -0.18161234 -0.20462634 -0.038303137 -0.23727448 0.01520783 -0.5552525
-0.3582051 -0.074211255 -0.19260468 -0.1709948 -0.33174744 -0.20274447 -0.3161522 -0.20977467
-0.22725114 -0.28548172 -0.08184574 -0.25649604 -0.3687216 -0.1307227 -0.15035929 -0.14741169
-0.18929642 -0.2760136 -0.2271163 0.008613092 -0.2486226 -0.26702857 -0.08167531 -0.16688143
00000000: cdbc d1be 77cc 61be ed3a c1bd 3756 b9be
00000010: a05c 2abe 5f6e e6be d0dd 41be a5be 9cbe
00000020: 776e 67be bbcf 19bd 7c8e 38be 3834 41be
00000030: 88c8 7ebe e1da 43be eb54 ebbd 4a0f c0be
00000040: 12f1 e53c 7801 72be eff9 70be 40e0 91bd
00000050: f5d6 c2bd 4500 75be 3406 8ebe 8e2f 4ebe
00000060: ac12 c5be b546 6dbe 3bb7 b1be bfe3 8dbe
00000070: 462a abbe 25e0 6bbc 8167 a7bd e6fc 93be
00000080: 7ee9 aebe 2a38 1dbe ca76 c1be 10bf 07be
00000090: 0391 84bc 9e86 acbe 2183 96bc 389b bebe
000000a0: 3222 0dbe 7fbc 88bd 2e8b 733c dff2 1abe
000000b0: f11b a7be 38aa a4bd 9fa9 12be a88e c7bd
000000c0: 366d 4abe 33a2 84be e4ef 64be 3d08 d43c
000000d0: 9278 8dbe f2dc 99be 90ce dbbd 6904 24be
000000e0: 66f7 a2be 9c0d 4fbe 1324 31be 8a9d 4abe
000000f0: 7af2 73be 9975 82be 3c64 30be 8f74 2dbe
00000100: 4122 c6bc 9136 adbd c7d0 4bbb 1df0 273d
00000110: 7de4 3f3c c691 f9ba 22bf 0bbd ae6b a63d
00000120: 8bbd 1dbd d9e1 113e 6278 463d dd99 043e
00000130: 2d0b d43d 931f 29bd 0ca4 e53d 1b33 babd
00000140: d880 11be fe3b c0bd 875c c43c 5757 c23b
00000150: 8ad3 bb3d dd9a a53c 9b33 e4bd c283 afbd
00000160: 8407 7e3c 3745 673d 5273 383d 594e 9d3d
00000170: ed62 c8bc cb9c b43d 0daa 5cbd 4d29 c3bd
00000180: cb66 dfbe 4e49 ccbb 96f8 39be 9189 51be
00000190: c0e3 1cbd 15f8 72be 432a 793c 0725 0ebf
000001a0: a966 b7be 12fc 97bd 293a 45be 4319 2fbe
000001b0: cdda a9be 3f9c 4fbe b3de a1be 2ccf 56be
000001c0: 86b4 68be a92a 92be bd9e a7bd 7353 83be
000001d0: 14c9 bcbe 2cdc 05be c9f7 19be 17f3 16be
000001e0: ecd6 41be a851 8dbe 2d91 68be ed1d 0d3c
000001f0: ec96 7ebe f8b7 88be 6345 a7bd f7e2 2abe

weight f4 [64, 4]
-0.0894571 0.72667336 0.60246503 -0.36992842 -0.49337474 -0.38171917 0.34299475 0.12609193
0.22742406 0.13599169 -0.14609689 0.55752 -0.67325896 0.1598787 -0.0015398444 0.02039758
0.51431966 -0.25073802 -0.46385163 -0.3429006 0.121686555 -0.5891587 -0.55169004 0.040927492
-0.40474862 -0.028883446 0.35915038 0.27503088 -0.06593951 0.13010801 -0.40796164 -0.5446347
-0.3784401 0.25202063 0.41732848 0.027478985 0.453904 -0.049826182 -0.038376007 0.38680786
0.21386191 0.51182413 -0.3927098 -0.46249837 -0.17221268 -0.11990302 0.4690292 0.79509246
0.31437847 -0.025588745 -0.21585633 0.171382 0.2514282 0.24782515 -0.028677005 -0.15283544
0.16407166 0.08268994 -0.3327575 0.16052496 -0.20564842 -0.30015215 0.5049081 -0.35745472
-0.09995799 -0.039218634 0.064023286 -0.26069227 -0.6422844 -0.2670002 0.32446623 -0.45455843
-0.24071597 0.48161978 0.08312299 -0.44893157 0.49015316 0.59326905 -0.3268702 -0.14642665
0.018219873 -0.37366807 0.12013724 -0.00960603 -0.28133616 -0.57696337 0.39478764 0.1703407
-0.36830425 -0.29182443 0.2505749 0.35352996 0.14278102 0.24625869 0.5436769 -0.20253095
-0.5114025 0.35101992 0.5373832 -0.15395848 -0.108531795 0.16389613 0.2398824 -0.1675466
-0.42610297 0.5080035 -0.107278764 -0.1728575 -0.37542558 0.51173586 -0.24057107 -0.41782865
-0.50564253 -0.23376533 0.5604393 -0.08740534 -0.09990012 -0.13333197 0.16864108 -0.46909243
-0.536479 -0.66392994 -0.42073435 0.13374634 -0.4869088 -0.38302022 0.17653109 -0.50927687
0.5018633 -0.21594611 0.22912009 0.34370658 0.27758637 -0.5767473 0.24943118 0.41353896
-0.42517275 -0.38298017 0.050404567 -0.19484146 0.3079367 0.6992003 -0.2736145 -0.5835327
-0.25114584 0.3517781 -0.064225145 0.13496359 -0.67359847 0.08938691 0.30550262 -0.53967965
-0.14306137 0.31207293 0.026336111 -0.37139863 0.02192982 0.16069269 -0.29351994 -0.04098483
-0.14805733 0.19991896 0.5702433 0.29837534 -0.39720324 -0.526812 0.3253691 0.4047981
-0.19918874 -0.39091608 0.2581199 -0.5131117 -0.5708786 0.16300315 0.35408545 -0.30507916
0.3339786 0.5539686 0.5324498 -0.23602517 0.091088444 -0.060460635 -0.11807911 -0.2561243
-0.4950677 0.112374626 0.056016233 -0.5661424 -0.124049395 0.01810217 0.1498469 -0.32848155
0.39036572 0.2339614 -0.1282322 0.26401415 -0.5133986 0.15527575 0.21524006 0.047658723
-0.4220002 -0.019432427 -0.00991441 -0.3208859 0.541221 0.12859844 0.03651444 -0.0718075
0.36845502 0.08267788 -0.32616323 -0.028877314 -0.088675685 0.26036623 -0.34975207 0.103939585
0.49457175 -0.33621985 0.19866341 -0.7617133 -0.4168083 -0.36885896 -0.06601568 -0.1305137
0.17839976 0.38053542 -0.13183984 -0.63730884 0.11053802 0.17531872 -0.56171095 0.31841183
-0.65404177 0.4760027 -0.49868676 0.28005952 -0.03946758 -0.66717005 0.013049566 -0.19149162
-0.26447126 0.12892942 -0.306181 0.051004037 0.38684645 -0.16588473 -0.60691386 0.23780574
-0.52598435 -0.6293814 0.54301614 -0.4841183 0.024636522 0.6030092 0.17291757 -0.51869017
00000000: 4935 b7bd 4407 3a3f 263b 1a3f 4267 bdbe
00000010: 9d9b fcbe b270 c3be 029d af3e 3e1e 013e
00000020: dae1 683e 6841 0b3e 6c9a 15be a1b9 0e3f
00000030: b35a 2cbf 3eb7 233e 9bd4 c9ba d318 a73c
00000040: 74aa 033f bc60 80be f67d edbe ab90 afbe
00000050: cd36 f93d 1bd3 16bf 8f3b 0dbf 96a3 273d
00000060: 363b cfbe fa9c ecbc 8fe2 b73e d9d0 8c3e
00000070: 4b0b 87bd 093b 053e 59e0 d0be 2e6d 0bbf
00000080: e7c2 c1be d908 813e 14ac d53e 9c1b e13c
00000090: 1b66 e83e 8a16 4cbd 2930 1dbd ae0b c63e
000000a0: 9efe 5a3e e806 033f 4211 c9be 96cc ecbe
000000b0: 8558 30be b78f f5bd 9824 f03e 2e8b 4b3f
000000c0: 37f6 a03e 7d9f d1bc 7109 5dbe c37e 2f3e
000000d0: 32bb 803e e0c5 7d3e 0aec eabc e580 1cbe
000000e0: 6702 283e 5859 a93d 315f aabe a860 243e
000000f0: 8095 52be 8bad 99be a841 013f 4e04 b7be
00000100: c6b6 ccbd b8a3 20bd a41e 833d 7579 85be
00000110: c06c 24bf 40b4 88be 7020 a63e e2bb e8be
00000120: 3f7e 76be de96 f63e 633c aa3d 5cda e5be
00000130: 5bf5 fa3e 7be0 173f 885b a7be def0 15be
00000140: d841 953c 6c51 bfbe 830a f63d 9c62 1dbc
00000150: 4b0b 90be dfb3 13bf 9b21 ca3e cb6d 2e3e
00000160: 6092 bcbe 036a 95be 5a4b 803e e101 b53e
00000170: 3035 123e 3d2b 7c3e 692e 0b3f 4664 4fbe
00000180: 46eb 02bf e2b8 b33e f291 093f 4ba7 1dbe
00000190: eb45 debd 63d4 273e bba3 753e 5691 2bbe
000001a0: 2b2a dabe 840c 023f f8b4 dbbd 8e01 31be
000001b0: c837 c0be 1f01 033f 4358 76be a3ed d5be
000001c0: ca71 01bf 2e60 6fbe f378 0f3f 9201 b3bd
000001d0: 6f98 ccbd 2d88 08be 3fb0 2c3e e22c f0be
000001e0: b056 09bf 50f7 29bf 7e6a d7be cdf4 083e
000001f0: 1c4c f9be 3a1b c4be 91c4 343e f85f 02bf
00000200: 1d7a 003f fa20 5dbe 759e 6a3e 4ffa af3e
00000210: cd1f 8e3e b6a5 13bf e36a 7f3e 61bb d33e
00000220: 3eb0 d9be fa15 c4be 0575 4e3d 8584 47be
00000230: e1a9 9d3e cafe 323f 3317 8cbe 6662 15bf
00000240: 3096 80be 421c b43e 7988 83bd e533 0a3e
00000250: f370 2cbf 7c10 b73d d76a 9c3e 7228 0abf
00000260: ae7e 12be 06c8 9f3e d4be d73c f627 bebe
00000270: 2aa6 b33c a08c 243e 3f48 96be b6df 27bd
00000280: 579c 17be 8eb7 4c3e 77fb 113f a7c4 983e
00000290: 395e cbbe 27dd 06bf c796 a63e b241 cf3e
000002a0: 22f8 4bbe 2726 c8be 4b28 843e 4a5b 03bf
000002b0: 1a25 12bf 4cea 263e b04a b53e 5633 9cbe
000002c0: 3eff aa3e e3d0 0d3f a14e 083f 95b0 71be
000002d0: 948c ba3d 92a5 77bd 76d3 f1bd b922 83be
000002e0: 8379 fdbe ab24 e63d 4771 653d b5ee 10bf
000002f0: 9c0d febd 014b 943c 7771 193e bc2e a8be
00000300: 04de c73e 9493 6f3e 4d4f 03be dd2c 873e
00000310: 176e 03bf 9b00 1f3e e467 5c3e cb35 433d
00000320: 6910 d8be c130 9fbc 0d70 22bc 284b a4be
00000330: 768d 0a3f 4faf 033e 2a90 153d d00f 93bd
00000340: 23a6 bc3e 0553 a93d defe a6be 1e90 ecbc
00000350: 999b b5bd b94e 853e b412 b3be 47de d43d
00000360: 8238 fd3e 0225 acbe 6c6e 4b3e a5ff 42bf
00000370: e667 d5be 15db bcbe 3b33 87bd 62a5 05be
00000380: 6dae 363e 8ad5 c23e 0601 07be ac26 23bf
00000390: c261 e23d c086 333e 4acc 0fbf e006 a33e
000003a0: 486f 27bf a0b6 f33e df53 ffbe f663 8f3e
000003b0: c2a8 21bd a8cb 2abf d9cd 553c 6116 44be
000003c0: c768 87be 1306 043e c2c3 9cbe 9ce9 503d
000003d0: bd10 c63e b0dd 29be b55e 1bbf 5983 733e
000003e0: e9a6 06bf 241f 21bf 1b03 0b3f 5bde f7be
000003f0: 88d2 c93c d05e 1a3f 4e11 313e e1c8 04bf

bias f4 [64]
0.46362114 0.18948786 -0.108999826 -0.022429438 0.08619284 0.47505876 0.15797701 0.048508797
0.50669396 0.1799815 0.009032958 -0.07955144 -0.44225165 0.4778772 -0.25741762 0.24691394
-0.456906 0.42728376 0.32962242 0.36794603 0.40459323 0.097375795 0.07269068 -0.32022145
0.013464557 -0.13648061 -0.21499571 0.0015272062 -0.083968535 -0.23169518 0.2055313 -0.42016482
-0.32898194 0.32306862 -0.15611362 0.014420257 -0.3088429 0.39675438 -0.27159426 0.18667336
0.102965705 0.12423925 -0.39073464 -0.016591549 -0.08883312 0.4181413 -0.42067483 -0.23043878
-0.16584088 -0.079386055 0.46941262 0.53095025 -0.044644427 0.08768499 0.4333241 -0.06942139
0.27362698 0.025752045 0.09191082 0.47222584 0.17843114 -0.18392774 -0.3362603 0.2544107
00000000: c05f ed3e 1b09 423e 4d3b dfbd f1bd b7bc
00000010: df85 b03d e73a f33e bac4 213e 29b1 463d
00000020: b2b6 013f 124d 383e f9fe 133c deeb a2bd
00000030: cf6e e2be 52ac f43e 3ecc 83be 02d7 7c3e
00000040: 95ef e9be f0c4 da3e 45c4 a83e 6c63 bc3e
00000050: d826 cf3e f66c c73d dade 943d 11f4 a3be
00000060: 729a 5c3c 93c1 0bbe d627 5cbe 892c c83a
00000070: b2f7 abbd 8041 6dbe cc76 523e d81f d7be
00000080: 5270 a8be 4069 a53e 40dc 1fbe f142 6c3c
00000090: a820 9ebe 6423 cb3e 670e 8bbe 4d27 3f3e
000000a0: afdf d23d 2671 fe3d 5f0e c8be 00eb 87bc
000000b0: 24ee b5bd 9e16 d63e b162 d7be 25f8 6bbe
000000c0: 31d2 29be 2895 a2bd da56 f03e 5bec 073f
000000d0: 13dd 36bd 3094 b33d a8dc dd3e cd2c 8ebd
000000e0: d618 8c3e f4f5 d23c bd3b bc3d 96c7 f13e
000000f0: a7b6 363e 8e57 3cbe 4f2a acbe 1f42 823e
