experiments/pedestrians/models/06_Aug_2023_21_23_08/model_registrar-63.pt (torch, 713991 bytes, 82 tensors)

weight f4 [64, 10]
0	0xbc98bb34	-0.018643953
1	0xbc9389c6	-0.018010031
2	0x3e1abb66	0.1511055
3	0x3cd0c9f4	0.025486924
4	0xbf35361e	-0.707857
5	0x3f5e3863	0.8680479
6	0x3c833aae	0.016019192
7	0xbe7aae6e	-0.24480602
8	0xbe24c77c	-0.16091722
9	0x3df7ad14	0.12093559
10	0x3d5e2251	0.054231945
11	0x3e996816	0.29962224
12	0x3eba0a7f	0.36336133
13	0x3d7d9fed	0.061920095
14	0xbe70c481	-0.2351246
15	0xbe2fd4c5	-0.17171009
16	0xbe972cd9	-0.29526404
17	0xbec1c709	-0.37847164
18	0xbdf58a5d	-0.11989281
19	0x3da9deb7	0.082944326
20	0x3c80fe81	0.015746357
21	0x3dae86c8	0.08521801
22	0xbd3732ba	-0.04472611
23	0x3f039fb5	0.5141557
24	0xbdc27893	-0.09495654
25	0xbcfcd477	-0.03086303
26	0xbe8887fa	-0.26666242
27	0xbcf05a37	-0.029339893
28	0x3b181a08	0.0023208875
29	0xbe1fc360	-0.15601873
30	0x3b6f2685	0.0036491465
31	0x3cc019ed	0.023449862
32	0xbd251cfd	-0.04031085
33	0xbd7a21de	-0.061067455
34	0xbf1f719c	-0.6228273
35	0x3f3e4e86	0.7433857
36	0xbe8ab26c	-0.2708925
37	0xbe566c20	-0.20939684
38	0xbd051721	-0.03249276
39	0xbe80b6d6	-0.25139493
40	0x3d1d38ed	0.038384367
41	0xbd34d3de	-0.044147365
42	0x3d672adf	0.05643737
43	0x3e0089fc	0.12552637
44	0x3f1a6985	0.6031726
45	0x3ee2ef07	0.44322988
46	0x3e922131	0.28540948
47	0x3e2a1096	0.1660789
48	0xbe7ac838	-0.2449044
49	0x3e35a504	0.1773873
50	0xbbb0f2bd	-0.0054000304
51	0x3d81ec97	0.06343954
52	0x3ec0c505	0.37650314
53	0xbe3156d2	-0.17318276
54	0x399fefbd	0.00030505462
55	0x3edae4ad	0.4275259
56	0x3e2e03b3	0.16993599
57	0xbc64375c	-0.013929214
58	0xbd7b6ea7	-0.061384823
59	0x3d94f9eb	0.072742306
60	0xbd2b0072	-0.04174847
61	0x3e4d7a28	0.2006613
62	0x3ee9f64f	0.4569573
63	0x3c581e2b	0.013190786
64	0x3f0141c2	0.50490963
65	0xbefb295f	-0.49055
66	0xbe87b8c9	-0.26508167
67	0x3e879644	0.2648183
68	0x3e9d0350	0.3066659
69	0x3e662c21	0.22477771
70	0xbd07fdb4	-0.033200935
71	0xbe112bcb	-0.14176862
72	0x3d54d721	0.051962975
73	0xbeb75738	-0.3580873
74	0xbf3822cd	-0.719281
75	0xbeb70495	-0.35745683
76	0x3ec5bb0c	0.38619268
77	0x3c25fc1c	0.010130908
78	0x3d0a19f4	0.033716157
79	0x3cbd2a1f	0.023091374
80	0x3e136cfb	0.14397041
81	0x3d953967	0.07286339
82	0xbed15839	-0.4088762
83	0x3ba6acb1	0.0050865044
84	0xbf32593b	-0.69667405
85	0xbe36efcf	-0.17864917
86	0xbe1d8fef	-0.15386938
87	0xbe3610fb	-0.17779915
88	0x3e661fd7	0.22473083
89	0x3dc55327	0.09635001
90	0xbd1615fe	-0.036642067
91	0x3dfb971f	0.122846834
92	0x3eff74ad	0.49893704
93	0x3e9f9191	0.31165746
94	0x3d4a37f8	0.049369782
95	0x3ecb15a1	0.3966494
96	0x3e0c829f	0.13721703
97	0xbe7b2d67	-0.24529038
98	0x3e92bc24	0.28659165
99	0x3e844a94	0.2583815
100	0xbe56dc89	-0.20982565
101	0x3de3fae4	0.11131838
102	0x3e92b6b6	0.28655022
103	0x3e5c2849	0.21499743
104	0xbe8419ef	-0.25801036
105	0xbc454aab	-0.012041728
106	0xbdec37e1	-0.115340956
107	0x3e0e08fd	0.13870616
108	0x3e73dba6	0.23814258
109	0xbe7ec7be	-0.24880883
110	0x3c5c135e	0.013432352
111	0xbd780f50	-0.06056148
112	0x3f0f77e1	0.56042296
113	0x3c92fe89	0.017943637
114	0xbf4b25d5	-0.793546
115	0xbf5eb0c3	-0.86988467
116	0x3e076ab6	0.132243
117	0x3ee20398	0.44143367
118	0xbdb12e07	-0.08651357
119	0xbcd84d4e	-0.02640405
120	0xbe097b31	-0.134259
121	0x3e0e7f65	0.13915785
122	0x3eb012bb	0.3438929
123	0x3e01baaf	0.1266887
124	0x3e325df1	0.17418648
125	0x3e7d6649	0.2474605
126	0x3e6020b8	0.21887481
127	0xbd834f33	-0.064115904
128	0x3d67d098	0.056595415
129	0xbe292422	-0.1651769
130	0xbbd9d946	-0.0066482155
131	0x3e0fe750	0.14053082
132	0xbae43171	-0.0017409754
133	0xbf26ef1c	-0.652086
134	0xbd3d4d94	-0.046216562
135	0x3cc64a85	0.024205456
136	0xbd33a0b3	-0.043854427
137	0xbe9e7ab2	-0.30952984
138	0xbe370d33	-0.17876129
139	0xbead6f52	-0.33873993
140	0x3d3be840	0.045875788
141	0xbe186c17	-0.14884983
142	0xbea74139	-0.32666948
143	0x3eb5ac62	0.3548308
144	0xbe37cacb	-0.17948453
145	0xbc9faacb	-0.01949062
146	0x3ea68ab8	0.3252771
147	0x3dcd08df	0.10011458
148	0x3d8712a9	0.06595356
149	0x3edddb60	0.43331432
150	0x3ccb4cf2	0.024816964
151	0x3cb839fb	0.022488585
152	0x3d40bdb2	0.047055908
153	0xbeb68c49	-0.35653904
154	0x3ed03b32	0.40670162
155	0xbf4aeff7	-0.7927241
156	0xbe69441f	-0.22779892
157	0x3e2c2321	0.16810276
158	0xbe57f8cb	-0.21091
159	0x3dd8e034	0.10589638
160	0xbe3e3b94	-0.18577415
161	0x3e80a442	0.2512532
162	0xbc82aca8	-0.01595147
163	0x3d50213e	0.050812952
164	0xbf557b42	-0.833912
165	0xbe040890	-0.12893891
166	0x3cce5d58	0.025190994
167	0x3e4a363b	0.1974725
168	0xbd4f4550	-0.05060321
169	0x3eb6eeb9	0.35729006
170	0x3e912b31	0.28353265
171	0x3ec0d18a	0.37659866
172	0x3e359195	0.17731316
173	0x3ebd2537	0.36942455
174	0xbe2dd805	-0.16976936
175	0x3f3d06b2	0.7383834
176	0x3c980234	0.018555738
177	0x3cc602d8	0.024171278
178	0xbd43a8db	-0.047768455
179	0x3df91567	0.12162285
180	0x3d140149	0.036134038
181	0x3e05900f	0.13043235
182	0x3f283e27	0.65719837
183	0xbe72364d	-0.23653527
184	0xbddafe18	-0.10692996
185	0x3e1e54ce	0.15462038
186	0x3e819408	0.2530825
187	0x3b5f27ed	0.0034050897
188	0x3e323ffc	0.1740722
189	0x3e8f2ef9	0.27965525
190	0x3e8e3264	0.2777282
191	0x3e460214	0.1933673
192	0xbee75731	-0.4518371
193	0xbdda234b	-0.10651263
194	0xbf10a22b	-0.5649745
195	0xbe33ce1a	-0.1755909
196	0x3dbfe041	0.09368945
197	0x3e15b830	0.14621043
198	0xbe62a8e8	-0.22134745
199	0x3e772548	0.24135315
200	0xbb1efcaf	-0.0024259498
201	0x3d47c6d5	0.048773605
202	0xbe7cf4da	-0.24702778
203	0x3e81ae70	0.25328398
204	0x3eb7bfbe	0.35888475
205	0xbf1d51dc	-0.6145303
206	0xbc9288b2	-0.017887447
207	0xbe1f4bb6	-0.15556225
208	0x3e5aa5b4	0.21352273
209	0xbde5fe8f	-0.11230194
210	0xbe781dc8	-0.2423011
211	0xbd0760b3	-0.033051204
212	0xbac114ec	-0.0014730967
213	0x3d53c53e	0.051701777
214	0x3f15026c	0.5820682
215	0x3f74692d	0.95472986
216	0x3ebf5f7d	0.3737754
217	0x3e39665d	0.18105455
218	0x3e5d520d	0.21613331
219	0xbc025615	-0.007955094
220	0xbbcb2484	-0.0061994214
221	0x3e8b7c9e	0.27243513
222	0xbe818e47	-0.25303861
223	0x3d8ceb56	0.06880824
224	0x3ee98d4f	0.45615622
225	0x3edc8419	0.43069533
226	0x3e64ee54	0.2235654
227	0x3e7dae93	0.24773626
228	0x3db6cb9b	0.089255534
229	0xbe29404e	-0.16528437
230	0x37d14f34	2.4951623e-05
231	0xbe546f8b	-0.20745675
232	0xbe19cfd3	-0.15020685
233	0x3f05e8a5	0.5230811
234	0xbd994dce	-0.07485543
235	0xbf00c867	-0.5030579
236	0xbe12f4ac	-0.14351147
237	0x3d565207	0.05232432
238	0xbe159960	-0.14609289
239	0x3de768a4	0.112992555
240	0x3dd3b9c8	0.10338169
241	0xbe859491	-0.2608991
242	0x3e1162aa	0.14197794
243	0xbe65bcd4	-0.22435313
244	0x3ebcdfae	0.36889404
245	0x3ed0c805	0.40777603
246	0xbd178972	-0.036996312
247	0xbec7e6c6	-0.39043254
248	0xbe044ca9	-0.12919869
249	0xbebbaf86	-0.3665735
250	0xbe000f96	-0.12505946
251	0xbdf533b6	-0.11972754
252	0x3e552ed4	0.20818645
253	0x3eef6356	0.46755475
254	0xbe4f0b12	-0.20219067
255	0xbef55d70	-0.4792285

bias f4 [64]
0	0xbe51f144	-0.20502192
1	0xbde3445a	-0.110970214
2	0xbe7a4188	-0.2443906
3	0x3e939537	0.2882478
4	0x3e145e18	0.14489019
5	0x3e9000ef	0.28125712
6	0xbe8f7531	-0.28019097
7	0xbb9eb4bd	-0.004843323
8	0x3d9b6f03	0.07589533
9	0x3e68e55d	0.22743745
10	0xbcaab886	-0.02083994
11	0x3ef49d82	0.4777642
12	0xbddc0ffd	-0.10745237
13	0x3d236015	0.039886553
14	0xbcdfa19c	-0.027298741
15	0xbd36830c	-0.04455857
16	0xbe079bd1	-0.13243033
17	0xbe69abcb	-0.2281944
18	0x3e72c65c	0.2370848
19	0x3e0c9b2b	0.13731067
20	0xbdb32d2b	-0.087488495
21	0x3e2b9942	0.16757682
22	0x3e27a5a4	0.1637178
23	0xbe1546b3	-0.14577751
24	0xbe45df3f	-0.19323443
25	0x3dd49e7d	0.10381792
26	0x3cde3ca6	0.027128529
27	0xbe24d419	-0.16096534
28	0xbe9c078c	-0.30474508
29	0x3d049be8	0.032375246
30	0x3e23631f	0.1595578
31	0xbe8e1f53	-0.27758273
32	0xbe117162	-0.14203408
33	0x3ddc5f4e	0.107603654
34	0xbe95cf01	-0.29259494
35	0x3e819090	0.25305605
36	0x3e61162c	0.21981114
37	0xbdf0b18a	-0.11752613
38	0xbe1163a4	-0.14198166
39	0x3dd83868	0.10557634
40	0xbe2a0fb4	-0.16607553
41	0x3e979965	0.29609218
42	0x3c53d5c8	0.012929387
43	0xbde44472	-0.111458674
44	0xbe4f0a09	-0.20218672
45	0x3dcc138f	0.09964668
46	0xbe15c478	-0.14625728
47	0xbe8aaf3e	-0.27086824
48	0x3e08ad6e	0.13347408
49	0xbe0c980b	-0.13729875
50	0x3c2e2b55	0.010630448
51	0x3e68dbff	0.22740172
52	0xbebc77eb	-0.3681024
53	0xbeb51ad8	-0.35372043
54	0xbee693d5	-0.45034662
55	0x3de723e9	0.11286146
56	0x3cf83c36	0.030302148
57	0x3e8500d2	0.25977188
58	0x3e5a8410	0.2133944
59	0x3ebcbfb6	0.36865014
60	0xbeae6b95	-0.34066454
61	0x3e08b98f	0.13352035
62	0x3eb21dc5	0.34788337
63	0xbe031b22	-0.12803319

weight f4 [32, 32]
0	0xbdd408e6	-0.1035326
1	0xbe4cd297	-0.20002209
2	0x3e53f9ae	0.20700714
3	0x3c596c46	0.013270443
4	0xbe178e4e	-0.14800379
5	0x3c613225	0.013744866
6	0xbd844a90	-0.06459534
7	0x3dace962	0.08442952
8	0xbe220e3c	-0.15825742
9	0xbf0d7ece	-0.55271614
10	0x3dd34570	0.103159785
11	0x3d78d8d5	0.060753662
12	0xbcfcd34a	-0.03086247
13	0x3e481a53	0.19541292
14	0xbe4a0f87	-0.19732486
15	0x3e8fc5fa	0.28080732
16	0x3c55a57f	0.013039946
17	0x3e8aa748	0.2708075
18	0x3e3d62eb	0.18494765
19	0x3eb001ab	0.34376273
20	0xbe9a08b8	-0.30084777
21	0x3e48b50e	0.19600317
22	0x3be2ca9a	0.0069211246
23	0xbf00fb89	-0.5038381
24	0xbd448e2d	-0.047987152
25	0x3e04c013	0.12963895
26	0x3e2ad906	0.1668435
27	0x3e08b71f	0.13351105
28	0x3e1fc38c	0.15601939
29	0x3de62cef	0.11239039
30	0xbd8eaac4	-0.06966165
31	0x3ea45fcc	0.32104337
32	0x3e22f3bd	0.15913291
33	0xbd1da915	-0.038491327
34	0xbf124d4e	-0.5714921
35	0x3d973c91	0.07384599
36	0xbe5455c5	-0.20735843
37	0x3d6d7224	0.05797018
38	0x3e32a47e	0.17445561
39	0xbd95cd23	-0.07314517
40	0xbeb0e3f1	-0.34548905
41	0xbeacf69b	-0.33781895
42	0xbe8f2db8	-0.27964568
43	0xbe9fbfad	-0.31200925
44	0x3ea6d351	0.32583097
45	0xbd06c36b	-0.03290121
46	0xbd48d7e7	-0.049034026
47	0xbdcdecd6	-0.100549385
48	0x3bf7241b	0.007542146
49	0x3e509325	0.20368631
50	0x3e7c2468	0.24623263
51	0x3eec8fe1	0.4620352
52	0x3e37a73d	0.1793489
53	0xbddce9ec	-0.107868046
54	0xbc4d2f56	-0.012523493
55	0x3d65729c	0.056017503
56	0x3dbbeda6	0.09176187
57	0xbcebb5ca	-0.028773207
58	0x3e222408	0.15834057
59	0x3e1f467f	0.15554236
60	0xbe4ec285	-0.20191391
61	0xbe9d1466	-0.30679625
62	0x3e6653a2	0.22492841
63	0xbde07f20	-0.10961747
64	0x3e972c96	0.29526204
65	0xbe5e1a82	-0.216898
66	0x3e1e3939	0.15451516
67	0xbf20cc22	-0.6281148
68	0xbe7a94ca	-0.24470821
69	0x3d1fc539	0.039006446
70	0xbe58ca5c	-0.21170944
71	0xbe51e544	-0.20497614
72	0xbe43ff50	-0.19140363
73	0x3e605d6b	0.21910636
74	0x3e2f136d	0.17097254
75	0xbdc5adb5	-0.096522726
76	0xbed5b161	-0.41736892
77	0x3ec14260	0.37745953
78	0xbec68172	-0.38770634
79	0x3c9f1c36	0.019422632
80	0x3d5cf15e	0.053941123
81	0x3ecd7cf4	0.40134394
82	0x3ec0c910	0.376534
83	0xbf017682	-0.50571454
84	0xbda92768	-0.08259469
85	0x3da16e8f	0.078824155
86	0xbe0f7114	-0.1400798
87	0xbeb4a14e	-0.35279316
88	0xbddcbfbb	-0.10778757
89	0xbdc1fc36	-0.094719335
90	0x3cfeb4a5	0.031091997
91	0xbdc4259a	-0.095774844
92	0x3e5e3e3f	0.21703433
93	0xbe7c3432	-0.24629286
94	0xbe891c69	-0.26779488
95	0xbd4d2266	-0.050081633
96	0x3ea2e2fd	0.31813803
97	0xbe4eeea8	-0.20208228
98	0x3e29a2f0	0.16566062
99	0x3e2f6670	0.1712892
100	0xbdf4b0a2	-0.119477525
101	0x3e3fa202	0.18714145
102	0x3eb889c1	0.36042598
103	0xbe6a84cb	-0.22902219
104	0xbe53cf83	-0.20684628
105	0x3e8c7035	0.27429357
106	0x3dedcc60	0.11611247
107	0xbe139a60	-0.14414358
108	0x3eb49230	0.35267782
109	0xbe318772	-0.17336825
110	0xbd549015	-0.05189522
111	0xbcc749c0	-0.024327159
112	0xbe8237c9	-0.25433186
113	0x3d077c01	0.033077244
114	0xbe23ec9c	-0.16008228
115	0x3e8ff5dc	0.28117263
116	0xbd3d2a35	-0.04618283
117	0x3d1cf0d6	0.038315617
118	0x3e266fc7	0.16253577
119	0x3d6e9144	0.058244005
120	0xbd65ef5d	-0.056136478
121	0x3c807ef8	0.015685543
122	0x3d9dd579	0.07706732
123	0x3eb58de3	0.35459813
124	0xbdefd1ea	-0.1170996
125	0xbc1f62ef	-0.009728177
126	0x3e727c76	0.2368029
127	0x3d92a7c6	0.071609065
128	0xbea5c810	-0.32379198
129	0xbd427657	-0.04747614
130	0x3e584e32	0.21123579
131	0xbdd2bf9f	-0.10290455
132	0x3e404a4d	0.18778343
133	0xbdcc8c0a	-0.09987648
134	0x3db86016	0.09002702
135	0x3e8ec39b	0.2788361
136	0x3da2c1a6	0.07947092
137	0xbe9018f5	-0.2814404
138	0x3dcfd49a	0.101479724
139	0x3e4ef719	0.20211448
140	0xbe071a34	-0.1319359
141	0x3dbc4095	0.091920055
142	0x3d07d77f	0.033164497
143	0x3d7cd06f	0.061722215
144	0xbda34ca7	-0.07973605
145	0xbc53ca7b	-0.012926693
146	0x3daee28a	0.08539303
147	0x3e96f16b	0.29481062
148	0x3e41e4dd	0.1893496
149	0xbeb347d7	-0.35015747
150	0x3e1d7768	0.15377581
151	0x3e29d9fb	0.16587059
152	0x3e27ae37	0.16375051
153	0x3ec1b13a	0.37830526
154	0x3bba69aa	0.0056888657
155	0xbe6a236c	-0.22865075
156	0x3db14763	0.08656194
157	0x3ebe3e44	0.3715688
158	0x3d00a0a4	0.0314032
159	0xbe26b8ba	-0.16281405
160	0x3ef7119a	0.48255616
161	0xbd38d6b0	-0.045126617
162	0x3b2ff5c4	0.0026849369
163	0xbefd9b6a	-0.49532634
164	0xbcbe4323	-0.023225373
165	0x3e786a4f	0.24259304
166	0xbcbc6d70	-0.023001403
167	0xbdfddbf1	-0.12395466
168	0xbc3d2bf9	-0.011546128
169	0x3e0c2fd2	0.13690117
170	0x3df4e8bd	0.11958454
171	0x3ddf2e0c	0.108974546
172	0xbe0cc37a	-0.13746443
173	0x3e2226e9	0.15835156
174	0xbe7385a8	-0.23781455
175	0xbde53229	-0.11191208
176	0xbdabe71a	-0.083936885
177	0xbe0732ff	-0.13203047
178	0x3df20c78	0.118187845
179	0xbec270b9	-0.37976626
180	0xbe06fcec	-0.1318242
181	0x3dfb7b3e	0.12279366
182	0xbe63ec1e	-0.2225804
183	0x394dfd47	0.00019644677
184	0xbe478812	-0.194855
185	0x3ea0fbb9	0.3144205
186	0x3cf0bd43	0.029387122
187	0x3d37c8a2	0.044869073
188	0xbdcf4ddf	-0.101222746
189	0xbe95bf66	-0.29247588
190	0xbd67e4c4	-0.056614652
191	0x3d37f98f	0.044915732
192	0xbe344a1a	-0.17606393
193	0x3c5198ae	0.012792749
194	0x3dee5ba8	0.11638576
195	0x3d247d4d	0.04015856
196	0x3c8b12dc	0.016976766
197	0xbdf9d942	-0.12199642
198	0x3f04ba36	0.51846635
199	0x3e9259f8	0.28584266
200	0x3de0156b	0.10941585
201	0x3e3867f3	0.18008403
202	0x3d68b8e8	0.056816965
203	0x3eb8ace2	0.360694
204	0xbe4f68b7	-0.2025479
205	0xbe3a2f9f	-0.18182229
206	0x3e6a731f	0.22895478
207	0xbe1c2032	-0.15246657
208	0xbd98084b	-0.07423457
209	0xbe933749	-0.28753117
210	0xbe827e4e	-0.25486988
211	0x3d9377e6	0.07200603
212	0x3d5836b9	0.052786563
213	0xbeb2b07b	-0.3490027
214	0x3ebdf060	0.37097454
215	0x3eebbafe	0.460411
216	0x3e46b069	0.19403233
217	0x3e48ef5f	0.19622563
218	0x3d697b4d	0.057002354
219	0xbe008b8f	-0.12553237
220	0xbdd8dbf7	-0.1058883
221	0xbb7baa0b	-0.0038400914
222	0x3db60d8c	0.088893026
223	0xbdb8d348	-0.09024674
224	0x3e5a9e2e	0.21349403
225	0xbcf7d073	-0.030250764
226	0x3e14c51e	0.14528319
227	0xbe8e2822	-0.27764994
228	0x3da6b7ea	0.081405476
229	0x3e7d68e4	0.24747044
230	0x3e985b2e	0.29757065
231	0x3e378322	0.17921117
232	0xbdf8a5d4	-0.12141004
233	0x3bcc975f	0.006243631
234	0xbdecd5d7	-0.11564224
235	0x3e4e55dc	0.2014994
236	0x3e93bcf2	0.2885509
237	0x3dec3483	0.11533453
238	0xbd01264f	-0.031530675
239	0x3e89ec81	0.2693825
240	0x3da861a3	0.08221748
241	0x3e1c776e	0.15279934
242	0x3d03e023	0.032196175
243	0x3ef9b690	0.48772097
244	0x3e153b9e	0.14573523
245	0x3d90d9fa	0.07072826
246	0x3dcb7c15	0.09935776
247	0xbd5d35f3	-0.054006528
248	0x3e291af4	0.16514188
249	0x3dd43dfd	0.10363386
250	0x3d989b08	0.07451445
251	0x3e59c432	0.21266249
252	0x3cd5fe15	0.026122132
253	0xbd9e05a6	-0.07715921
254	0x3e2bb8e1	0.16769744
255	0xbdc3a1d2	-0.09552349

bias f4 [32]
0	0xbe22abe6	-0.15885887
1	0xbd9f5e61	-0.07781673
2	0x3e6277b1	0.22115971
3	0xbd97bbd7	-0.074088745
4	0xbe5e1fb6	-0.21691784
5	0x3dfe50a7	0.12417727
6	0x3d841cb4	0.06450787
7	0x3e1eea08	0.15518963
8	0x3dcdccee	0.10048853
9	0xbccec08b	-0.025238296
10	0x3dee64d5	0.11640326
11	0x3e252af2	0.16129664
12	0xbdc8fa77	-0.098133974
13	0xbb9efbe1	-0.0048518036
14	0xbd0d2032	-0.034454532
15	0x3e32d21e	0.17462966
16	0xbe435778	-0.19076335
17	0x3dc5823e	0.09643982
18	0x3d65b248	0.056078225
19	0xbd39312f	-0.04521292
20	0x3e20672c	0.15664357
21	0xbe032acb	-0.12809293
22	0xbdba002a	-0.090820625
23	0x3da8c7e5	0.08241252
24	0xbdc593e9	-0.09647352
25	0x3d7ec929	0.06220356
26	0xbe397a55	-0.18113072
27	0xbe82bcc5	-0.25534645
28	0xbe4c55d4	-0.19954616
29	0xbe3d0203	-0.18457799
30	0xbd01743a	-0.031604983
31	0xbc9a5ef2	-0.018844102

weight f4 [32, 64]
0	0xbd50c808	-0.050972015
1	0x3b87ada0	0.0041405708
2	0xbd7e4a08	-0.06208232
3	0x3d411508	0.047139198
4	0xbdda2048	-0.106506884
5	0x3dbba8c4	0.09163049
6	0xbdba1234	-0.09085503
7	0xbdcb87de	-0.09938024
8	0xbda1c35a	-0.078985885
9	0x3d67e1a8	0.056611687
10	0xbd3d2e14	-0.04618652
11	0x3d3f98e4	0.046776667
12	0xbdd94654	-0.10609117
13	0xbd9b523e	-0.07584046
14	0xbd3bfe80	-0.045897007
15	0xbcc93c78	-0.024564967
16	0xbdc34b04	-0.095357925
17	0x3da7a05e	0.081848845
18	0xbcf17db8	-0.029478893
19	0x3d245880	0.040123463
20	0x3db5075c	0.08839294
21	0x3cbec700	0.02328825
22	0x3d0c01bc	0.03418134
23	0x3df71b32	0.12065734
24	0xbd66eab4	-0.056376174
25	0x3d222d38	0.039593905
26	0xbd63cc0c	-0.055614516
27	0x3db6f348	0.08933121
28	0x3dcc74c0	0.09983206
29	0xbdec0660	-0.115246534
30	0x3dda8888	0.106705725
31	0x3d747cc4	0.0596893
32	0x3d5f1cdc	0.05447088
33	0x3d52c70c	0.051459357
34	0x3dd4d004	0.10391238
35	0xbc873560	-0.016504943
36	0xbdd87fb2	-0.10571231
37	0xbd12eaf8	-0.035868615
38	0xbdb44b58	-0.08803433
39	0x3c0762f0	0.008263335
40	0xbcbf3040	-0.023338437
41	0xbd895086	-0.06704812
42	0xbc3a3500	-0.011365175
43	0x3df2890e	0.11842547
44	0xbc218970	-0.009859428
45	0x3b820c60	0.0039687604
46	0xbc9fb420	-0.01949507
47	0x3ca0fae0	0.019650877
48	0x3de41968	0.11137658
49	0x3d9c8acc	0.07643661
50	0x3d35bd84	0.04437019
51	0x3cde86a8	0.027163818
52	0x3cf173b0	0.02947411
53	0x3d45cd78	0.048291653
54	0xbc845328	-0.016152933
55	0xbdededbc	-0.1161761
56	0xbd9e503e	-0.07730149
57	0x3dda8498	0.106698215
58	0x3bf4d500	0.0074716806
59	0xbdcf60fa	-0.10125919
60	0x3ca18350	0.019715935
61	0x3dd3868a	0.10328396
62	0xbdf1eb80	-0.11812496
63	0xbdac596a	-0.08415492
64	0xbd4be978	-0.0497832
65	0x3ba46740	0.005017191
66	0xbceed3b0	-0.029153675
67	0xbc610ea0	-0.013736397
68	0xbdf99266	-0.121861264
69	0x3d6fc248	0.05853489
70	0x3de0b3c8	0.109717906
71	0x3d9c7a1e	0.076404795
72	0xbdb5482a	-0.08851655
73	0xbdce5cca	-0.10076292
74	0x3d549bf4	0.05190654
75	0x3b37fb00	0.0028073192
76	0x3d51e278	0.051241368
77	0xbdfa2698	-0.122143924
78	0xbbf43740	-0.0074528754
79	0x3db48ada	0.08815546
80	0x3d6d85cc	0.057988927
81	0x3b959340	0.0045646727
82	0x3cc95680	0.02457738
83	0xbc41e7a0	-0.011835009
84	0xbd8cc1e4	-0.06872919
85	0xbd417c04	-0.04723741
86	0xbd9be618	-0.07612246
87	0x3dd4a2ce	0.10382615
88	0x3d8cdf96	0.06878583
89	0x3d330ed8	0.043715328
90	0xbdc45072	-0.09585656
91	0x3dc58902	0.09645273
92	0x3d2088ac	0.03919284
93	0x3db11974	0.08647433
94	0xbd496a6c	-0.049173757
95	0x3cd915b8	0.026499614
96	0x3df9f432	0.1220478
97	0x3dac3364	0.084082395
98	0x3dcd4fa8	0.10024959
99	0xbcd70640	-0.026248097
100	0x3dc30a62	0.09523465
101	0xbdc881e8	-0.09790403
102	0x3c312120	0.01081112
103	0xbd90245e	-0.070381865
104	0xbceecff8	-0.029151902
105	0xbd031f34	-0.03201218
106	0x3c193ac0	0.009352386
107	0x3de8feea	0.11376746
108	0x3d7d7ba4	0.06188549
109	0xba0ad000	-0.00052952766
110	0x3db5b870	0.08873069
111	0xbd83304a	-0.06405695
112	0x3d83ef62	0.06442143
113	0xbc3deaa0	-0.0115915835
114	0xbcb22fe8	-0.02175136
115	0x3c6fc430	0.014634177
116	0xbdc41eea	-0.09576209
117	0x3c6ca950	0.014444664
118	0x3d2c2764	0.042029753
119	0x3ddadcce	0.106866464
120	0xbd1f685c	-0.038917884
121	0x3d385588	0.045003444
122	0x3dffe006	0.12493901
123	0xbd5ba1d4	-0.05362113
124	0x3df35a06	0.11882405
125	0xbd7e3434	-0.062061504
126	0x3d61afe0	0.055099368
127	0x3d489378	0.048968762
128	0x3d0f0418	0.034916013
129	0x3dca7212	0.098850384
130	0xbd4eeea4	-0.050520554
131	0x3d069038	0.03285238
132	0x3a37e600	0.00070151687
133	0xbdc08c5a	-0.0940177
134	0xbcf8a438	-0.030351743
135	0xbdaaf674	-0.083477885
136	0x3d626230	0.05526942
137	0x3c381b60	0.011236995
138	0x3c48a1b0	0.012245581
139	0xbd1b5368	-0.03792134
140	0x3a1d9100	0.00060106814
141	0xbd1f410c	-0.038880393
142	0x3d131db8	0.035917014
143	0x3df89e94	0.121396214
144	0x3c9b1b18	0.018933818
145	0xbd62c630	-0.055364788
146	0xbd9c5f3a	-0.076353505
147	0x3c1c8c10	0.009554878
148	0xbdbde9a2	-0.092730775
149	0xbdc06c26	-0.09395628
150	0xbda69fe0	-0.081359625
151	0xbd2de5ec	-0.0424556
152	0x3c179680	0.009252191
153	0x3db048da	0.08607645
154	0x3d465158	0.04841742
155	0x3dc4205c	0.095764846
156	0xbda0bde2	-0.07848717
157	0x3c2cd3b0	0.010548517
158	0xbde38db0	-0.11111009
159	0x3d92db32	0.071707144
160	0x3cd56968	0.026051238
161	0x3df79b62	0.12090184
162	0xbdb61200	-0.08890152
163	0x3dcd4b46	0.10024123
164	0x3dd81f3a	0.10552831
165	0x3dcefb02	0.1010647
166	0x3c921e98	0.017836854
167	0x3de8c688	0.11365992
168	0x3daaf73c	0.083479375
169	0x3dbeff0e	0.093259916
170	0xbc050a30	-0.008120105
171	0xbdc47434	-0.095924765
172	0xbacbe200	-0.0015555024
173	0x3cc00a08	0.023442283
174	0xbdae6118	-0.08514613
175	0xbd92da04	-0.071704894
176	0xbdf57068	-0.119843304
177	0xbd337af4	-0.04381843
178	0x3ddefe58	0.10888356
179	0x3caf1998	0.021374509
180	0xbbfa2f20	-0.0076350123
181	0x3ba47cc0	0.005019754
182	0x3d9fa0b0	0.077943206
183	0xbde21074	-0.110382944
184	0xbdc586e6	-0.096448705
185	0xbd2a3990	-0.041558802
186	0xbd935528	-0.07193977
187	0x3d840a7e	0.06447314
188	0x3db4e2a8	0.08832294
189	0xbdf860b8	-0.12127823
190	0xbdd94312	-0.10608496
191	0xbdf94c20	-0.12172723
192	0x3d412780	0.04715681
193	0x3dce0af2	0.100606814
194	0xbdc67cb0	-0.09691751
195	0xbd6d08a0	-0.057869554
196	0x3d22edd0	0.039777577
197	0xbda72a0c	-0.08162317
198	0x3dd9777e	0.106184945
199	0x3ceec1d0	0.029145151
200	0xbd0e884c	-0.03479795
201	0x3c0504d0	0.008118823
202	0x3d1fa020	0.038971066
203	0xbd350cc8	-0.044201642
204	0xbdc65cf4	-0.09685698
205	0x3a5c4100	0.000840202
206	0x3b153780	0.0022768676
207	0x3b253180	0.0025206506
208	0xbc956ec0	-0.018241286
209	0x3da45eee	0.08025919
210	0xbd0ee0d8	-0.034882396
211	0xbc463b40	-0.012099087
212	0x3d528730	0.051398456
213	0xbda122ce	-0.078679666
214	0x3d0917a8	0.033469826
215	0xbce26c28	-0.027639464
216	0x3d7597c4	0.059959188
217	0xbd8adef2	-0.06780805
218	0x3b9761a0	0.004619792
219	0x3c485ac0	0.012228668
220	0xbdcdfa0a	-0.10057457
221	0xbdba25fe	-0.09089278
222	0x3d445bdc	0.047939166
223	0xbd15055c	-0.036382064
224	0x3d98099c	0.07423708
225	0xbdfce490	-0.12348282
226	0xbd7d18a4	-0.061791077
227	0xbdd2db82	-0.10295774
228	0x3d4c8784	0.049933925
229	0xbb6d7f40	-0.0036239177
230	0xbcbeff78	-0.023315176
231	0xbcaa5d40	-0.020796418
232	0xbdc81a24	-0.09770611
233	0x3d11335c	0.03544937
234	0x3b4c3140	0.0031157285
235	0xbdb0ab3e	-0.08626412
236	0x3d40a8c8	0.047035962
237	0xbb24a6c0	-0.0025123805
238	0xbdf796fc	-0.12089345
239	0x3d89b524	0.06724003
240	0x3d88ee5c	0.066860884
241	0xbcc0ee98	-0.02355127
242	0xbdb0c08e	-0.08630477
243	0x3ba47460	0.005018756
244	0x3dc12c24	0.09432247
245	0x3dea53b6	0.11441748
246	0xbdc13aa4	-0.09435013
247	0xbd674128	-0.056458622
248	0x3dc753ee	0.09732805
249	0x3d7a4124	0.06109728
250	0x3d9e77a2	0.07737662
251	0xbd7ed708	-0.06221679
252	0x3ddc8d86	0.10769181
253	0xbdd272ea	-0.10275824
254	0xbbc54cc0	-0.006021112
255	0x3b2a1700	0.002595365

bias f4 [32]
0	0x3bc4a0e0	0.006000623
1	0xbdf590fa	-0.11990543
2	0x3c824228	0.015900686
3	0x3d34205c	0.043976173
4	0x3de51af6	0.11186783
5	0xbd25f43c	-0.040516123
6	0x3d38ac5c	0.04508625
7	0xbd2b9140	-0.041886568
8	0xbd340bb4	-0.043956473
9	0xbde2d6e8	-0.11076146
10	0x3cd823a8	0.02638419
11	0x3dabc6c2	0.083875194
12	0xbd8e6972	-0.06953706
13	0x3d5152e4	0.05110444
14	0xbc9fbaf8	-0.019498333
15	0xbdb5c1a4	-0.08874825
16	0x3c5a6040	0.013328612
17	0xbdf978e2	-0.1218126
18	0x3d893b9e	0.06700824
19	0xbce24198	-0.027619168
20	0x3debc534	0.11512223
21	0x3b973520	0.0046144873
22	0xbdf8308a	-0.12118633
23	0x3dc6a8d2	0.09700169
24	0xbcdffb10	-0.027341396
25	0xbdaf5ae6	-0.085622594
26	0x3dec5cbc	0.11541125
27	0x3c3f4760	0.011674732
28	0x3d25ff34	0.040526584
29	0xbddd7652	-0.108135834
30	0xbd34d278	-0.04414603
31	0x3dcd66e6	0.10029392

weight_ih_l0 f4 [128, 32]
0	0xbd8263d2	-0.063666955
1	0x3cb05159	0.021523165
2	0xbd992c01	-0.07479096
3	0xbd5865c3	-0.052831423
4	0xbe1b9ee0	-0.15197325
5	0x3e419207	0.18903361
6	0xbe186071	-0.1488054
7	0xbec05542	-0.37565047
8	0xbe1fb093	-0.15594701
9	0x3e7d7e82	0.2475529
10	0xbe4c86c3	-0.19973283
11	0xbe014236	-0.12622914
12	0x3c52df77	0.012870661
13	0xbd90da23	-0.07072856
14	0x3dd8d88f	0.1058818
15	0x3e67f1cc	0.22650832
16	0x3d10eca4	0.035381928
17	0x3e2bbba0	0.16770792
18	0xbe9dd565	-0.3082687
19	0x3d1b73b1	0.03795213
20	0xbea28752	-0.31743866
21	0xbdc2bd46	-0.09508757
22	0xbe67f680	-0.22652626
23	0xbea38636	-0.31938332
24	0xbe2ecf47	-0.17071258
25	0xbe81a28c	-0.25319326
26	0xbd8353f2	-0.06412496
27	0xbc6fee61	-0.014644236
28	0x3d21387e	0.039360516
29	0xbe6267dd	-0.22109933
30	0x3e92d0ed	0.28675023
31	0xbed771f1	-0.42079118
32	0x3cb2bc45	0.02181829
33	0xbdf2a46a	-0.11847766
34	0xbe8c0f57	-0.27355453
35	0xbe365ef4	-0.17809659
36	0x3de97aee	0.114004
37	0x3d35385a	0.044243194
38	0x3dc8505e	0.09780954
39	0xbe87f22f	-0.2655196
40	0xbddae42b	-0.10688051
41	0x3e90c063	0.2827178
42	0x3dfce052	0.12347473
43	0xbcb6767d	-0.022273296
44	0x3ea6ffef	0.32617137
45	0x3d11ce8a	0.03559736
46	0xbdbef749	-0.0932451
47	0xbe40e1cb	-0.18836133
48	0x3d587e5d	0.052854884
49	0x3dc93cf6	0.098260805
50	0xbdc3cec9	-0.095609255
51	0x3de23b2e	0.11046444
52	0xbea70cce	-0.32626957
53	0xbdbda4fd	-0.09259985
54	0xbd35103a	-0.044204928
55	0xbede8798	-0.43462825
56	0x3d051630	0.032491863
57	0xbb91c580	-0.0044485927
58	0x3e5db18a	0.21649757
59	0x3d74573b	0.059653502
60	0xbce814b1	-0.028330179
61	0xbc0c30b8	-0.008556537
62	0x3e18c8e9	0.14920391
63	0xbe2d42d5	-0.16920026
64	0x3e038df9	0.12847127
65	0x3e828215	0.2548987
66	0x3dcb5e63	0.09930112
67	0xbe683fb4	-0.22680551
68	0x3db96f05	0.090543784
69	0xbe890f35	-0.26769415
70	0x3cc8057e	0.024416681
71	0xbeb0820d	-0.3447422
72	0xbc5ff1d4	-0.013668496
73	0x3e8b3f8f	0.2719693
74	0x3e84c82b	0.25933966
75	0xbe8dae2d	-0.27671948
76	0xbd823424	-0.06357601
77	0xbe07eac3	-0.13273148
78	0x3c9123fd	0.017717356
79	0xbde3c85e	-0.111222014
80	0x3eb468bc	0.35236156
81	0x3eff643a	0.49881154
82	0xbcaedd05	-0.021345625
83	0x3de85abb	0.113454305
84	0xbd252729	-0.04032055
85	0x3de52f3a	0.111906484
86	0xbe7dd32f	-0.24787591
87	0xbf206bf7	-0.6266474
88	0xbdbda012	-0.092590466
89	0xbece1606	-0.40251178
90	0x3e08f6e5	0.13375433
91	0x3e9b32eb	0.30312285
92	0x3e09903a	0.13433924
93	0xbe2d8460	-0.16945028
94	0x3b5c80e3	0.0033646158
95	0xb99eaeaf	-0.00030266258
96	0x3d70c74c	0.058783814
97	0x3d0d30cc	0.034470364
98	0xbe226b21	-0.15861179
99	0xbf0af4f6	-0.5428003
100	0xbe406e23	-0.18792014
101	0xbdf90b2b	-0.12160333
102	0x3d78772a	0.06066052
103	0xbf20bda0	-0.62789345
104	0x3da33ba0	0.07970357
105	0x3e80801f	0.2509775
106	0xbde888e3	-0.11354234
107	0x3e433f3a	0.19067088
108	0x3e9c5436	0.30532998
109	0xbe26b31d	-0.16279264
110	0x3e1a594a	0.15073124
111	0x3ea4ba10	0.32173204
112	0x3d9dd869	0.077072926
113	0x3e6f88f2	0.23392084
114	0xbe57a2ed	-0.21058245
115	0xbe552ff6	-0.20819077
116	0x3d2953f9	0.04133985
117	0xbe8737ce	-0.26409763
118	0xbe30f7c9	-0.17282023
119	0xbf1268b6	-0.57191026
120	0xbe1ca37c	-0.1529674
121	0xbe990152	-0.2988382
122	0xbd276f99	-0.040877912
123	0x3da856f0	0.08219707
124	0xbbae85a0	-0.005325988
125	0x3dc21d86	0.094782874
126	0xbb5aa63b	-0.0033363241
127	0xbcd219c7	-0.025647057
128	0xbdfd6adc	-0.123738974
129	0xbc286058	-0.010276876
130	0x3dcca040	0.09991503
131	0xbee7ccb8	-0.45273376
132	0xbe8a3c9c	-0.26999366
133	0xbdce10e0	-0.100618124
134	0xbdbc63c1	-0.09198714
135	0xbecdf082	-0.40222555
136	0xbd3953b1	-0.04524583
137	0x3e198b5c	0.14994568
138	0x3dde9f23	0.10870197
139	0x3e4b6524	0.19862801
140	0x3ebb507e	0.36584848
141	0xbe53959b	-0.20662539
142	0x3aabc830	0.0013105925
143	0x3de709aa	0.1128114
144	0x3d9070ca	0.07052763
145	0x3f159ddb	0.58443993
146	0xbe97d365	-0.2965347
147	0xbe92eb77	-0.2869527
148	0xbd58fa96	-0.052973352
149	0xbeb1530e	-0.34633678
150	0xbe1fbed7	-0.15600143
151	0xbf09e5b4	-0.53866124
152	0xbe6d9f56	-0.23205313
153	0xbe86ee83	-0.26353845
154	0x3d9394a1	0.07206083
155	0x3e552f36	0.20818791
156	0x3e5490c0	0.20758343
157	0xbde3b526	-0.11118536
158	0xbe4cde71	-0.2000673
159	0xbd70b860	-0.058769584
160	0xbe37aa6c	-0.17936105
161	0xbcd42319	-0.025895642
162	0xbe43c756	-0.1911901
163	0xbe686750	-0.2269566
164	0xbe5a6edf	-0.21331356
165	0x3e06c758	0.13161981
166	0xbe3972a2	-0.18110135
167	0xbe913e35	-0.28367773
168	0xbea043a8	-0.31301618
169	0x3e20a769	0.15688862
170	0xbe50c143	-0.20386223
171	0x3d246cf1	0.040142957
172	0x3e4b8a83	0.19877057
173	0x3d2d586e	0.04232066
174	0x3d737784	0.05944015
175	0x3e8bf18c	0.27332723
176	0x3e9e10ed	0.30872288
177	0x3de06cc1	0.10958243
178	0x3d1ce6cb	0.03830604
179	0xbe9c889a	-0.3057297
180	0xbebd018f	-0.36915252
181	0xbdf674cf	-0.12033998
182	0x3d88b167	0.06674462
183	0xbedd5992	-0.432324
184	0xbe00ca41	-0.12577154
185	0xbe8d838e	-0.2763943
186	0x3d9bdf15	0.07610909
187	0x3e040c2f	0.12895273
188	0x3d8d6cb5	0.069055
189	0xbd9d3d8e	-0.07677756
190	0xbe854568	-0.26029515
191	0xbe54c5a8	-0.20778525
192	0x3e5a3e61	0.21312858
193	0x3dc6a1c1	0.09698821
194	0xbed14a40	-0.4087696
195	0x3d75c1c6	0.05999925
196	0x3e5484e0	0.20753813
197	0xbdd2a429	-0.10285217
198	0x3dcc8f24	0.099882394
199	0xbe84c3a9	-0.25930527
200	0xbdcec82e	-0.10096775
201	0xbe04bc75	-0.12962516
202	0xbe0f060b	-0.13967149
203	0xbe456af1	-0.19279076
204	0xbd096c53	-0.03355057
205	0xbd3e157a	-0.0464072
206	0x3d06076c	0.03272192
207	0xbde78cb6	-0.11306135
208	0x3e36896d	0.17825861
209	0x3e29bbe8	0.16575587
210	0xbe452f43	-0.1925631
211	0x3d996e90	0.07491791
212	0xbe761c3d	-0.2403421
213	0xbbc227da	-0.005925161
214	0x3d39fbb0	0.045406044
215	0xbeed582d	-0.46356335
216	0xbd3a91e4	-0.04554929
217	0x3d365efd	0.04452418
218	0x3c62c82c	0.01384167
219	0x3e32e98e	0.17471907
220	0xbbc8b8eb	-0.0061255596
221	0xbccd8b7e	-0.02509093
222	0xbe06b66b	-0.13155524
223	0xbe21f952	-0.15817764
224	0x3c41bd63	0.0118249385
225	0x3ef0a3c5	0.46999946
226	0xbd8b22c4	-0.067937404
227	0xbec5688a	-0.3855632
228	0xbdee1ea8	-0.11626941
229	0xbef7f8f2	-0.48432118
230	0xbdde4d0d	-0.1085454
231	0xbf214cb2	-0.6300765
232	0xbe636a24	-0.22208458
233	0x3e69fcc1	0.22850324
234	0x3c6b2f63	0.01435456
235	0xbe8217d0	-0.25408792
236	0x3d9fef77	0.07809346
237	0xbf121d8a	-0.57076323
238	0xbb38b431	-0.0028183574
239	0xbd806328	-0.062689126
240	0x3e5ce739	0.2157258
241	0x3e9f400a	0.31103545
242	0xbe760a71	-0.2402742
243	0x3e0a4cd3	0.13505869
244	0xbdc74577	-0.09730046
245	0x3dd21bb2	0.10259189
246	0x3c92eafc	0.017934315
247	0xbf2ce721	-0.67540175
248	0x3e836c12	0.2566839
249	0xbed1a76d	-0.40948048
250	0x3f0d25ab	0.551356
251	0x3ebed049	0.37268284
252	0x3e974506	0.29544848
253	0x3d998d75	0.07497684
254	0xbe2a1a11	-0.16611506
255	0x3e1a977a	0.15096846

weight_hh_l0 f4 [128, 32]
0	0xbc180bb6	-0.009280136
1	0x3e244290	0.16041017
2	0xbdb336df	-0.087507
3	0xbe3b290f	-0.18277381
4	0xbe11cf4a	-0.14239231
5	0xbb765920	-0.0037589744
6	0x3e98e358	0.2986095
7	0x3d1a6326	0.03769221
8	0x3e1ad12e	0.15118858
9	0xbdf760a1	-0.120789774
10	0xbdd327b8	-0.1031031
11	0x391c9de5	0.0001493614
12	0x3c10d8a1	0.008840711
13	0xbde2a711	-0.11067022
14	0x3d9c947b	0.07645508
15	0x3dceb3e7	0.100929074
16	0xbc670473	-0.014100182
17	0xbd2f186d	-0.042747904
18	0x3e316c9d	0.17326589
19	0xbd63a575	-0.055577714
20	0x3e8b12d1	0.27162793
21	0xbc8f35a8	-0.01748164
22	0xbdde8e24	-0.10866955
23	0xbe1ac8ff	-0.15115736
24	0x3e23ee58	0.1600889
25	0xbe1af9c5	-0.15134342
26	0x3d828598	0.06373137
27	0x3e4c11e1	0.19928695
28	0xbdbad6be	-0.0912299
29	0xbdec5e6e	-0.115414485
30	0x3d547aca	0.051874913
31	0xbd897097	-0.06710928
32	0x3c0fa458	0.00876721
33	0x3e14ddc4	0.14537722
34	0xbd85055f	-0.06495165
35	0x3e8ccd88	0.27500558
36	0xbd5e67b9	-0.054298136
37	0x3c9c3630	0.019068807
38	0x3e3ad7b1	0.18246342
39	0xbdf4399e	-0.11925052
40	0x3e25cf74	0.16192418
41	0x3e07e123	0.13269477
42	0xbdffd0e7	-0.12491017
43	0xbce6f7b8	-0.028194293
44	0x3d9d36c5	0.07676462
45	0xbd598219	-0.053102586
46	0x3d2778bf	0.040886637
47	0xbc24798c	-0.010038745
48	0xbe050033	-0.12988357
49	0x3d3c147f	0.045917984
50	0x3d905b6c	0.07048687
51	0xbdde7d4e	-0.10863744
52	0x3dbfc2a8	0.093632996
53	0xbe1178bc	-0.14206213
54	0xbdb997d3	-0.09062161
55	0xbe98d944	-0.2985326
56	0x3d38a0f1	0.04507536
57	0xbcec53b6	-0.02884851
58	0x3e07ad1b	0.13249628
59	0x3c073d5d	0.008254376
60	0x3e465481	0.19368173
61	0xbd400632	-0.04688091
62	0x3da615e8	0.08109647
63	0xbdd95d4a	-0.106134966
64	0xbd2a46a5	-0.041571278
65	0x3dbad1c4	0.09122041
66	0xbe2bf128	-0.16791213
67	0x3c064cb4	0.008196998
68	0x3e5d58bb	0.21615879
69	0x3dea0c6b	0.1142815
70	0x3e83398f	0.2562985
71	0x3ce5dd81	0.028059723
72	0x3e1734b6	0.14766201
73	0x3df9424d	0.12170849
74	0xbe5bdd5a	-0.21471158
75	0x3ddf21c1	0.1089511
76	0xbc997142	-0.018730763
77	0x3d9b052a	0.07569344
78	0xbe14d492	-0.14534214
79	0x3e45cf15	0.19317277
80	0x3de1a389	0.1101752
81	0x3deb5768	0.11491281
82	0xbbc190cd	-0.005907154
83	0xbe1dfd14	-0.15428573
84	0xbdf934a1	-0.12168241
85	0xbd857450	-0.065163255
86	0x3cdda440	0.02705586
87	0xbe9bc348	-0.30422425
88	0x3e6a7ef9	0.22899999
89	0xbdeb03e1	-0.11475349
90	0x3dbf4569	0.09339411
91	0xbd0c2ae2	-0.034220584
92	0x3d76ea96	0.060282312
93	0xbbe68031	-0.0070343246
94	0xbdb02f69	-0.08602793
95	0xbd962f5f	-0.07333254
96	0x3da4c460	0.08045268
97	0x3e6877a2	0.22701886
98	0x3d767e98	0.060179323
99	0xbe1fd0cc	-0.15606993
100	0xbd6d9447	-0.058002736
101	0xbdac1905	-0.084032096
102	0x3c48f332	0.0122650135
103	0x3e37e4be	0.17958352
104	0xbc28cc50	-0.010302618
105	0x3e648ade	0.22318599
106	0x3d8610aa	0.06546147
107	0xbe308a4f	-0.1724026
108	0xbe0dffce	-0.13867113
109	0xbe1ee736	-0.15517887
110	0xbe262494	-0.16224891
111	0x3dfe3606	0.12412648
112	0xbe32fc89	-0.17479147
113	0xbe4f4d3d	-0.20244308
114	0xbe86ce79	-0.263294
115	0x3d05e566	0.032689475
116	0x3d0115ce	0.031514935
117	0x3d238005	0.03991701
118	0xbe229651	-0.15877654
119	0xbe04399b	-0.129126
120	0x3d5d838c	0.05408053
121	0x3e5f9e5d	0.21837755
122	0xbd9704f2	-0.0737399
123	0x3dfd7ffd	0.123779275
124	0x3e4124dc	0.18861717
125	0x3e2eb236	0.1706017
126	0xbdb847bf	-0.089980595
127	0x3e49a05b	0.19690077
128	0xbb83469d	-0.0040062205
129	0x3e5f6950	0.21817517
130	0x3e1fd34e	0.1560795
131	0xbd230e9c	-0.039808854
132	0xbe2d9441	-0.16951086
133	0xbea96e35	-0.33091894
134	0xbd5d1bbd	-0.05398153
135	0xbdc43b92	-0.09581675
136	0xbddf0ff3	-0.10891714
137	0x3cddd34f	0.027078299
138	0x3cde279b	0.027118495
139	0xbd7553d6	-0.059894405
140	0x3bd6aada	0.006551129
141	0xbe7a7bd4	-0.24461299
142	0xbd70cd13	-0.058789324
143	0x3c789c3f	0.015173971
144	0x3ddc6499	0.10761375
145	0xbe85bf90	-0.26122713
146	0xbe3264b6	-0.1742123
147	0xbe3a1ac6	-0.18174276
148	0x3dc3d572	0.09562196
149	0xbcbc30ee	-0.02297255
150	0xbce631b3	-0.02809987
151	0x3d8f6dca	0.070033625
152	0x3e72f66b	0.23726813
153	0x3c0bfcce	0.00854416
154	0xbd4b88af	-0.0496909
155	0x3e11c632	0.14235762
156	0x3e3fbc59	0.18724193
157	0x3d839c29	0.064262696
158	0xbdeee36b	-0.1166447
159	0x3d96f7c0	0.07371473
160	0xbe140a7f	-0.14457129
161	0xbd851ffe	-0.06500243
162	0xbda59a6e	-0.08086096
163	0xbd5dfde8	-0.054197222
164	0x3c3ba0e6	0.011451935
165	0x3df40689	0.11915309
166	0x3de67d48	0.11254364
167	0x3d1d9089	0.038467918
168	0x3de36cb0	0.11104715
169	0x3df76352	0.12079491
170	0xbcb1b192	-0.021691117
171	0x3dfb44cd	0.12268982
172	0x3e5fd51f	0.21858643
173	0xbdc2fae4	-0.0952051
174	0x3d449f85	0.048003692
175	0x3c9fbee3	0.019500202
176	0xbd30bdd3	-0.04314978
177	0xbe0b98d8	-0.13632524
178	0x3b9d534a	0.0048011886
179	0xbe5709d9	-0.2099985
180	0x3ad45b8f	0.0016201603
181	0xbe6c3e4a	-0.23070636
182	0xbe572f47	-0.21014129
183	0xbd43416f	-0.047669824
184	0x3dc7ba3c	0.09752318
185	0xbdc5bddc	-0.096553534
186	0xbdfeab79	-0.124350496
187	0xbdacf7be	-0.084456906
188	0x3e151779	0.14559735
189	0xbe175554	-0.14778644
190	0x3d75b589	0.05998758
191	0x3e02f131	0.1278732
192	0xbe377f35	-0.1791962
193	0x3e99e17b	0.3005484
194	0x3eb1289d	0.34601298
195	0x3ecae342	0.3962651
196	0x3e47ff72	0.19531038
197	0x3e3afd05	0.18260582
198	0x3c7b9719	0.015355849
199	0x3c126b35	0.008936693
200	0x3e7b4b1c	0.2454037
201	0x3e7d4a6b	0.2473542
202	0xbd3ec648	-0.046575814
203	0x3e1f2288	0.15540516
204	0x3d98ca69	0.07460482
205	0x3e162ba2	0.14665082
206	0xbd0d95b6	-0.034566604
207	0xbceed53e	-0.029154416
208	0xbe5d2777	-0.21597086
209	0xbe1c8f9d	-0.15289159
210	0x3e8b1189	0.27161816
211	0x3db7393a	0.08946462
212	0xbd0e67b9	-0.034766886
213	0xbd3a3c80	-0.045467854
214	0x3e1041ef	0.14087652
215	0xbe435fe8	-0.19079554
216	0x3dd3813a	0.103273824
217	0xbdd0f334	-0.10202637
218	0xbe04b9ae	-0.12961456
219	0x3c047dfd	0.008086679
220	0xbe07cdcb	-0.13262098
221	0x3dda7453	0.10666718
222	0x3df34467	0.11878281
223	0x3e1e25a6	0.15444049
224	0x3dfebedd	0.12438748
225	0xbde7886f	-0.113053195
226	0xbd37fd75	-0.04491945
227	0x3e44a29a	0.19202653
228	0x3dc07db9	0.0939898
229	0x3e092ad4	0.13395244
230	0x3e254be7	0.16142236
231	0x3cc2aa47	0.023762835
232	0xbdb3b4e3	-0.08774736
233	0x3d672aef	0.05643743
234	0xbd060112	-0.032715864
235	0x3d82f5fc	0.06394574
236	0x3d9c34d7	0.07627266
237	0x3d144311	0.036196772
238	0xbde4bcbd	-0.111688115
239	0xbc550b14	-0.0130031295
240	0xbe365f83	-0.17809872
241	0x3bd3165e	0.0064418754
242	0x3e6f0725	0.23342569
243	0x3e0e82e0	0.13917112
244	0xbe02010f	-0.12695716
245	0xbdfc64a8	-0.12323886
246	0x3db6e89d	0.08931086
247	0xbe0ba9de	-0.13639018
248	0x3c4179cf	0.011808827
249	0xbd30a9ae	-0.04313057
250	0xbdc0f52a	-0.09421761
251	0xbd8ceca5	-0.06881074
252	0xbd1327a2	-0.03592647
253	0x3cdd2154	0.026993431
254	0x3e1b5b9c	0.15171665
255	0x3e47e182	0.19519618

bias_ih_l0 f4 [128]
0	0xbe29eb01	-0.16593553
1	0xbdbc9636	-0.09208338
2	0xbed38114	-0.41309416
3	0xbc83c8b9	-0.016086923
4	0xbcb8623c	-0.02250778
5	0xbda8d7ce	-0.082442865
6	0xbe260aa5	-0.16214998
7	0xbf1ac008	-0.60449266
8	0xbec48ec0	-0.3839016
9	0xbe8266e1	-0.25469115
10	0xbdd70d3f	-0.10500573
11	0x3bf774b0	0.007551752
12	0xbce82b4a	-0.028340954
13	0xbec6f7d8	-0.38860965
14	0xbee40bf6	-0.44540375
15	0xbe7754e8	-0.24153483
16	0xbe4c60ae	-0.19958755
17	0xbf060a38	-0.5235934
18	0x3d960ea2	0.0732701
19	0xbe4dfcdf	-0.20115994
20	0xbe906169	-0.28199318
21	0xbe82e1a1	-0.25562766
22	0xbdc59b95	-0.096488155
23	0xbdef6a22	-0.11690165
24	0xbeb3ec0a	-0.3514102
25	0xbe123e3a	-0.1428155
26	0xbe86d831	-0.26336816
27	0xbe15bba8	-0.14622366
28	0xbeb866a6	-0.36015815
29	0xbe49e83d	-0.19717498
30	0xbe55f289	-0.20893301
31	0xbe16ba0e	-0.14719412
32	0x3d227657	0.03966364
33	0x3dd892ad	0.10574851
34	0x3c00fd7e	0.007872937
35	0xbcf48cda	-0.02985232
36	0x3d01eab6	0.03171798
37	0xbd7ebb75	-0.06219049
38	0x3d4a4edd	0.049391616
39	0xbe166184	-0.14685637
40	0xbc1bbdfa	-0.009505743
41	0x3d8bf5c8	0.068339884
42	0x3d0c07e4	0.034187213
43	0xbdfdc533	-0.123911284
44	0xbe05cc30	-0.13066173
45	0xbe1dc321	-0.15406467
46	0xbe9f899d	-0.31159678
47	0xbe02b39b	-0.12763827
48	0x3dbdcd27	0.09267645
49	0xbee47c76	-0.44626206
50	0x3da946c8	0.082654536
51	0xbdbae8dd	-0.091264464
52	0xbe30bcca	-0.17259517
53	0xbd9b8bcf	-0.07595026
54	0xbe350583	-0.17677884
55	0x3e0fb89d	0.14035268
56	0xbe102630	-0.14077067
57	0x3d89de0f	0.067318074
58	0xbc14066d	-0.009034735
59	0x3d0f04a6	0.034916542
60	0xbceef562	-0.029169742
61	0xbdb14240	-0.08655214
62	0xbd8da273	-0.0691575
63	0xbe81ae3f	-0.25328252
64	0x3d6e8b51	0.05823833
65	0xbda58988	-0.08082873
66	0x3d82be9b	0.06384011
67	0xbe3857c8	-0.18002236
68	0x3d450c6e	0.048107557
69	0xbd902313	-0.0703794
70	0xbdb6f4dc	-0.08933422
71	0xbd6c6e8b	-0.05772261
72	0x3e1248ff	0.14285658
73	0xbe243af8	-0.1603812
74	0x3de57bb9	0.11205239
75	0xbdacbef2	-0.084348574
76	0xbdcff94d	-0.10154972
77	0x3c402361	0.011727185
78	0xbd8ed29f	-0.069737665
79	0xbd743a06	-0.059625648
80	0x3e1acee0	0.15117979
81	0x3d2ed066	0.042679213
82	0xbe33fc69	-0.17576756
83	0x3d65845c	0.05603443
84	0xbd8cacee	-0.06868921
85	0x3db96ddc	0.09054157
86	0xbdcf97e3	-0.10136392
87	0x3de82ca7	0.11336642
88	0xbe049ebd	-0.12951179
89	0x3d3620aa	0.044464745
90	0x3d8f4666	0.06995849
91	0x3dfa61f2	0.12225713
92	0xbd64e9fc	-0.055887207
93	0xbd2d1861	-0.042259578
94	0x3a72f96e	0.00092687353
95	0x3d461955	0.048364002
96	0xbd99b4be	-0.07505177
97	0x3d2ef551	0.04271442
98	0xbea971c3	-0.33094606
99	0xbde5b308	-0.11215788
100	0xbe1de4ee	-0.15419361
101	0xbe1853d3	-0.14875726
102	0xbd239c3f	-0.03994393
103	0xbea43268	-0.32069707
104	0xbe1c2dc4	-0.15251833
105	0xbe9f72d8	-0.31142306
106	0xbcd160e7	-0.025558902
107	0xbd2dd214	-0.042436674
108	0xbe09c2d0	-0.13453221
109	0xbea1824a	-0.31544715
110	0xbe58213b	-0.21106426
111	0xbdf506d0	-0.1196419
112	0xbe4e4257	-0.20142494
113	0xbe9941c6	-0.29932994
114	0x3d8ae4a1	0.06781889
115	0xbc7980fa	-0.015228504
116	0xbdb2e7cf	-0.0873562
117	0xbe9285a6	-0.2861759
118	0xbe4ef4fd	-0.20210643
119	0xbdf65df2	-0.120296374
120	0xbecb7ece	-0.39745182
121	0x3d4f08ad	0.050545383
122	0xbe0ee79c	-0.1395554
123	0xbd6806eb	-0.056647222
124	0xbe468a47	-0.19388686
125	0xbe881a41	-0.2658253
126	0xbe5b721a	-0.21430245
127	0xbca8c916	-0.020603698

bias_hh_l0 f4 [128]
0	0xbe88f128	-0.26746488
1	0xbe25bcc2	-0.16185287
2	0xbda2da0e	-0.07951747
3	0xbe8f2190	-0.27955294
4	0xbe24623b	-0.16053097
5	0xbebba3c6	-0.36648387
6	0xbda59942	-0.08085872
7	0xbeca6cda	-0.39536172
8	0xbe801a19	-0.2501991
9	0xbd8a6aca	-0.0675865
10	0xbe38edc1	-0.18059446
11	0xbd68f639	-0.05687544
12	0xbddce069	-0.1078499
13	0xbe0f57c1	-0.13998319
14	0xbe21c397	-0.15797268
15	0xbec73a84	-0.3891183
16	0x3d53c312	0.051699705
17	0xbe9db808	-0.30804467
18	0xbe39f1c5	-0.18158634
19	0x3cd50e06	0.026007663
20	0xbde81af2	-0.113332644
21	0xbe60f7b0	-0.21969485
22	0xbe84ccac	-0.25937402
23	0xbdc113a2	-0.09427573
24	0xbec85aea	-0.39131862
25	0xbd1c2ce5	-0.038128752
26	0xbecb7699	-0.3973892
27	0xbe8e76b2	-0.27824932
28	0xbeab989f	-0.33514878
29	0xbcf33218	-0.029686972
30	0xbe0aeeeb	-0.13567702
31	0xbea80178	-0.3281362
32	0xbe328358	-0.17432916
33	0xbdb83df7	-0.08996194
34	0xbe9c4fad	-0.30529538
35	0xbc24e6c5	-0.010064785
36	0x3d630199	0.055421446
37	0xbe741738	-0.23836982
38	0x3d839a1e	0.0642588
39	0xbecf9d38	-0.40549636
40	0xbe192369	-0.14954914
41	0xbd7e63e3	-0.06210698
42	0x3d9d83c6	0.076911494
43	0xbb765e98	-0.0037593003
44	0xbe5e5777	-0.21713053
45	0x3d3ade86	0.04562237
46	0xbe1ad158	-0.15118921
47	0xbd97e8ae	-0.07417427
48	0xbe1daf6c	-0.1539895
49	0xbea286e7	-0.31743547
50	0xbdea8be6	-0.11452465
51	0x3e0ad8df	0.13559292
52	0xbe8b2db5	-0.2718331
53	0xbe8e5c4b	-0.2780479
54	0xbdcaa8ed	-0.09895501
55	0xbd5255fd	-0.051351536
56	0xbeb01f1d	-0.34398738
57	0xbcaf1b5c	-0.02137535
58	0xbe632d30	-0.22185206
59	0xbe38f3d7	-0.18061768
60	0xbe568387	-0.20948611
61	0xbe8d69b3	-0.27619705
62	0xbe444bdc	-0.19169563
63	0xbe353f64	-0.17699963
64	0xbc8ae324	-0.016954012
65	0xbd969b7f	-0.07353877
66	0xbbff2b82	-0.007787169
67	0x3c7e6c25	0.015528713
68	0x3cdbd525	0.026835034
69	0xbbd45a8d	-0.006480521
70	0xbd0005bf	-0.03125548
71	0x3d904350	0.07044089
72	0xbca0be7f	-0.019622086
73	0x3def10a2	0.11673094
74	0x3d488ed6	0.048964344
75	0x3e2debb6	0.16984448
76	0x3e1d9929	0.15390457
77	0xbd83dd07	-0.06438642
78	0x3de0e864	0.10981825
79	0xbdd42f28	-0.10360557
80	0xbe0907c5	-0.1338187
81	0xbdec9c24	-0.11553219
82	0x3cc05b1c	0.023480944
83	0xb9b18b7e	-0.00033864
84	0x3db3aa91	0.08772767
85	0x3d08efa8	0.03343168
86	0xbe01e52f	-0.12685083
87	0xbdc2eb0b	-0.09517487
88	0x3c7414df	0.014897554
89	0x3d9b78f2	0.07591428
90	0x3d510d3a	0.051038004
91	0x3db93dc1	0.09044982
92	0xbcad4441	-0.02115071
93	0x3da6307e	0.08114718
94	0xbd8b04d7	-0.067880325
95	0xbdae48eb	-0.08510002
96	0xbe93998e	-0.2882809
97	0x3d6b4e1f	0.05744755
98	0xbe2b9bb4	-0.16758615
99	0xbdf496a0	-0.11942792
100	0xbd07fc88	-0.033199817
101	0xbe1faf70	-0.15594268
102	0x3e041c45	0.12901409
103	0xbf250147	-0.64455074
104	0xbec37892	-0.38177925
105	0xbdc77389	-0.097388335
106	0xbe481042	-0.19537452
107	0xbd37d217	-0.04487809
108	0xbe43388a	-0.19064537
109	0xbe1b4127	-0.15161572
110	0xbeb7d109	-0.3590167
111	0xbe674af1	-0.22587182
112	0xbe4bc42c	-0.19899052
113	0xbeb860a0	-0.3601122
114	0xbcf5fd24	-0.030027933
115	0xbe2a6a2f	-0.16642068
116	0xbec78b02	-0.38973242
117	0xbde8f37b	-0.11374565
118	0xbe06db9a	-0.13169709
119	0xbd21c0b4	-0.039490417
120	0xbe459435	-0.19294818
121	0xbd9f06a7	-0.07764941
122	0xbe8e0e49	-0.27745274
123	0xbb482335	-0.0030538563
124	0xbe825d27	-0.25461695
125	0xbe90cbd9	-0.28280523
126	0xbe0a320a	-0.13495651
127	0xbe516a93	-0.20450811
