experiments/pedestrians/models/06_Aug_2023_21_23_08/model_registrar-58.pt (torch, 713991 bytes, 82 tensors)

weight f4 [64, 10]
00000000: d9e8 84bc 9064 51bc 816f 183e d371 f33c
00000010: 7ec6 34bf 8ef8 5e3f 22ed 803c 29f8 7abe
00000020: 3711 25be be19 f73d 701b 7e3d f51b 9a3e
00000030: 8f68 bc3e beef 653d 037b 6fbe a1ff 22be
00000040: 070e 96be 37a8 c0be 2d0f f1bd e759 ae3d
00000050: 578f 533c 5808 923d 702b 5ebd 93ed 013f
00000060: 59d6 b7bd ff61 acbc 4996 8fbe c69f 30bd
00000070: 45c4 3bbc 16e0 2dbe bd9e 993b a0c0 003d
00000080: f366 24bd 7046 6fbd 454d 1ebf 4328 3d3f
00000090: 073e 8abe 8583 55be 5d74 01bd 8542 80be
000000a0: 956d 013d f07c 45bd 2ae4 963d 1565 ff3d
000000b0: 4c13 1a3f 78f1 e03e bac9 923e a361 2b3e
000000c0: 2b77 79be 11f6 363e b90c 87bb c424 723d
000000d0: 233c c43e a5e7 33be 5947 c43b ac9c df3e
000000e0: e6b9 333e 28d4 08bc e195 64bd 5366 a03d
000000f0: 63d5 48bd 6812 433e 74b1 e53e d4c1 073d
00000100: 0a79 023f d5c7 fdbe 45ca 84be c884 8a3e
00000110: d4f1 9f3e 2c09 6c3e 72ee d3bc 9de7 18be
00000120: d500 4a3d 25f3 b9be de94 36bf 9374 b5be
00000130: 5ca3 c53e 6e06 233c 815c 093d 51af bb3c
00000140: e22b 113e dd81 983d d054 cebe 8544 463b
00000150: 516f 30bf 4b7b 38be 05ff 1bbe 1180 34be
00000160: c1b0 673e ec74 c83d 5437 1bbd 4daa 0b3e
00000170: ec6b fa3e 945d a03e 98e1 433d 91cc cb3e
00000180: 7382 0b3e 932d 7cbe 023c 923e 72ca 833e
00000190: aee8 48be 3e42 d73d 31f7 933e 06cd 6a3e
000001a0: 8323 81be f4a3 bbbc c6b4 f2bd 88ca 0a3e
000001b0: 319d 703e 2503 81be 1456 9c3c 7862 57bd
000001c0: d9e6 0e3f a46d 883c 8961 4bbf ebb8 5ebf
000001d0: 1feb 003e d5c3 de3e 0d2d bebd 9724 06bd
000001e0: 2e31 0dbe 9875 1c3e 346b af3e 7332 013e
000001f0: 9575 303e a497 7f3e 5dcc 623e c5ef 7bbd
00000200: 3a7f 723d 7d78 26be fa11 17bb 92cd 053e
00000210: 850d c2bb 37e4 23bf b8f3 3dbd 901a c63c
00000220: cb04 63bd 4267 a4be 35e6 42be e25b b3be
00000230: 7414 633d 127a 0cbe 1f07 abbe 0984 b53e
00000240: cfb3 40be 9989 51bc 3270 a43e ec9e c43d
00000250: 7251 7d3d dac0 db3e bee1 733c 7020 8c3c
00000260: f221 213d f525 b2be aa59 d03e 61d7 49bf
00000270: a815 6dbe 9851 283e 54ca 5bbe 213d d13d
00000280: 46b0 4bbe 03fd 7a3e 49f4 9bbc 8752 703d
00000290: 7db9 53bf cf7a ffbd 05cb 133d 485d 553e
000002a0: 05a9 22bd 3d82 bc3e 3e7b 8c3e 6327 c53e
000002b0: 8dcc 363e 40fe bb3e df26 20be f6be 3d3f
000002c0: e8b2 903c 8cb3 be3c 6f50 47bd 8941 f73d
000002d0: a4db f43c a881 0c3e e2de 263f f1c4 6bbe
000002e0: f2e0 e0bd 4bdd 233e be28 803e 6210 263a
000002f0: 6969 2f3e b7c3 8d3e 621a 8e3e 9aec 373e
00000300: 346a eebe ae4e d6bd 914d 0fbf 035f 2abe
00000310: b71e d83d 7ad7 213e 9e89 56be 46a2 813e
00000320: 4d24 08bc b0c6 0b3d 8183 79be 8345 763e
00000330: d6f9 b63e 49fa 1ebf 3f85 6dbc f3d2 1bbe
00000340: 771e 5e3e 070d dfbd 9be8 6cbe 10a9 20bd
00000350: c31a ac3c 1de3 303d 606c 163f d24f 733f
00000360: 8e15 c13e 64d2 3c3e 14be 603e b42a 97bb
00000370: 556e dbbb 194d 863e 9f29 77be 76b9 8a3d
00000380: ccac e73e 1eb6 d93e 93bc 603e d27c 793e
00000390: 0268 ae3d 0f72 2dbe 343e 92bb a6dd 50be
000003a0: 93c2 10be 6c02 063f aac9 9fbd 73c0 f4be
000003b0: 69fa 15be 3b3b 4a3d 1d9f 18be 2f5d e13d
000003c0: 808e cc3d e720 82be 9fd4 103e d1f1 70be
000003d0: f308 bd3e 595c cf3e e046 1bbd 7a5e c8be
000003e0: 033c 05be 3a27 bcbe 7979 febd 9763 ebbd
000003f0: 4a87 4f3e efb1 ee3e d221 54be be65 f6be
-0.016224312 -0.012780324 0.14886285 0.029717362 -0.70615375 0.87098014 0.015738074 -0.24508728
-0.16119848 0.12065457 0.062037885 0.30099455 0.36798522 0.05613684 -0.23386769 -0.15917827
-0.29307577 -0.37628338 -0.11770473 0.08513241 0.012912593 0.07130498 -0.054240644 0.50753134
-0.089764304 -0.021042822 -0.28044346 -0.04312112 -0.0114603685 -0.16980013 0.0046881125 0.0314337
-0.040137243 -0.058416784 -0.61836654 0.7388956 -0.27000448 -0.20850952 -0.031605113 -0.2505075
0.031598646 -0.048214853 0.073677376 0.12470452 0.60185695 0.43934226 0.2866953 0.16736464
-0.24361865 0.17867304 -0.0041213897 0.059117094 0.3832713 -0.17568834 0.0059899506 0.4367422
0.17551383 -0.008351363 -0.055807 0.07832017 -0.049031626 0.1904999 0.44861948 0.033143833
0.5096594 -0.49566522 -0.2593557 0.2705443 0.31239188 0.23050374 -0.025870536 -0.14932103
0.0493172 -0.36318317 -0.71320903 -0.35440502 0.38601196 0.009950263 0.033535484 0.022910746
0.14176896 0.074466445 -0.40299082 0.0030253243 -0.68919855 -0.18015783 -0.15234001 -0.17626978
0.2262602 0.09787926 -0.037894562 0.13639183 0.48910463 0.31321394 0.047822565 0.3980451
0.13623981 -0.2462676 0.28561407 0.2574039 -0.1962001 0.105106816 0.2889953 0.22929773
-0.25222406 -0.022905327 -0.11850886 0.13553822 0.23497464 -0.25197712 0.019084014 -0.05258414
0.55820996 0.016653843 -0.794457 -0.8700091 0.12589692 0.43508783 -0.092859365 -0.03274974
-0.13788292 0.15279233 0.34261477 0.12616901 0.17232354 0.2496019 0.22148271 -0.06150796
0.059203364 -0.162569 -0.0023051486 0.130667 -0.005922022 -0.64020103 -0.046375006 0.024182588
-0.055424493 -0.3211003 -0.1903313 -0.3503104 0.055439427 -0.13718441 -0.3340387 0.35452297
-0.18818592 -0.0127891535 0.32116848 0.096006244 0.06184525 0.42920572 0.014885364 0.017105311
0.039339013 -0.34794584 0.40693408 -0.7884427 -0.23152792 0.16437376 -0.21463901 0.102167375
-0.19891462 0.24510579 -0.019037383 0.058672454 -0.8270491 -0.12474596 0.036082286 0.20836365
-0.03971197 0.36818114 0.27437776 0.38506612 0.17851467 0.36717415 -0.15639828 0.7411951
0.017663434 0.023278974 -0.04866069 0.12073047 0.029889889 0.13721335 0.6518384 -0.23024346
-0.10980405 0.16002385 0.25031084 0.00063348387 0.17130055 0.2768838 0.27754503 0.1796135
-0.46565402 -0.10464226 -0.5597773 -0.16637807 0.105527334 0.15804854 -0.20950934 0.25319117
-0.008309436 0.03412503 -0.24366571 0.24049954 0.35737485 -0.62100655 -0.0144971 -0.1521719
0.21691309 -0.10891157 -0.23135607 -0.03922373 0.021008855 0.043185342 0.5875912 0.9504367
0.37711757 0.18439633 0.21947509 -0.004613245 -0.006696502 0.26230696 -0.24136971 0.06773655
0.4524902 0.42521757 0.21946935 0.24364021 0.08515932 -0.16938041 -0.0044629816 -0.20397052
-0.14136724 0.52347445 -0.07802136 -0.47803077 -0.14646305 0.049372893 -0.14904447 0.110041015
0.09988117 -0.25415727 0.14143609 -0.23529746 0.3692089 0.40500143 -0.03790939 -0.3913458
-0.13011174 -0.36748677 -0.12425513 -0.11493605 0.20266452 0.46620128 -0.20716026 -0.48124498

bias f4 [64]
00000000: 6767 52be 2bc9 debd 1f2f 84be 1c4c 943e
00000010: 2bb5 153e 01dc 923e ad86 8cbe 45d3 a3bb
00000020: c790 9e3d c1c3 673e d7b1 c4bc ef54 f13e
00000030: aeb8 d6bd f8f7 e73c b0a4 00bd 3481 44bd
00000040: 88e9 f8bd bd95 6abe d976 703e 76ba 183e
00000050: a7ec aabd 6711 2f3e d471 233e 6c4c 18be
00000060: 9ece 46be 2723 d03d ba86 c23c 56ee 23be
00000070: 8f38 9abe cb8d f93c 88cf 2b3e 5ea6 8abe
00000080: ff94 0ebe b5b7 d63d fc2b 99be e35a 833e
00000090: cace 573e 6fa8 e4bd 2773 0dbe 9597 cf3d
000000a0: 74a8 2dbe 6b2e 953e 21ac 0c3c 3623 ccbd
000000b0: f22e 4abe 5efd ce3d 36e6 10be 16a3 8bbe
000000c0: 808b 013e 986e 0ebe d3c6 6e3c 23cc 6e3e
000000d0: 32fc b9be ff3c b2be b9de e8be e482 ef3d
000000e0: b5cd d33c 47b1 823e a53b 583e 3f21 bc3e
000000f0: 64dd aabe 332a 0d3e f9ac b43e 6f43 07be
-0.20547257 -0.108782135 -0.258172 0.28964317 0.14619891 0.28683475 -0.274465 -0.0049995505
0.07742458 0.22633268 -0.024010582 0.47135112 -0.104844436 0.028316483 -0.03140706 -0.04797478
-0.121539176 -0.22908683 0.23482837 0.14914879 -0.08345919 0.17096482 0.1596139 -0.14872903
-0.19414756 0.10162955 0.023745883 -0.16008887 -0.30121276 0.03046312 0.16778386 -0.27080053
-0.13924025 0.10484258 -0.2991637 0.2565528 0.21074978 -0.11164939 -0.13813458 0.10136334
-0.16958791 0.29136977 0.008585961 -0.099676535 -0.1974447 0.1010692 -0.14150319 -0.27272862
0.12650871 -0.13909376 0.014573771 0.2332006 -0.36325222 -0.3481216 -0.45482424 0.11694887
0.025854925 0.25525877 0.21116503 0.36744115 -0.33372033 0.13785629 0.35288218 -0.13209318

weight f4 [32, 32]
00000000: 5db6 dbbd 691d 4fbe 3064 563e 03e7 7f3c
00000010: 2e69 15be a352 353c c3c6 84bd d08c a63d
00000020: e9c3 21be 2954 0cbf 7156 c83d 0fa5 663d
00000030: b791 eebc a9f3 4a3e 96f0 47be 2cfc 8e3e
00000040: 5d2a 8c3c 02d8 8f3e cf2a 413e ead9 b03e
00000050: 2159 99be ab57 463e 4b8a 343c 9998 fdbe
00000060: 87b3 59bd 09de 073e 331a 263e 6378 023e
00000070: 8c2e 233e 326b dd3d e36d 8fbd c9dc a23e
00000080: f2cc 143e 6af5 1dbd 4caa 0ebf ef30 883d
00000090: 47eb 4dbe 6d8d 7f3d 1d81 2d3e 12ba 92bd
000000a0: 5e9e b0be 5185 abbe 58df 8ebe 67cf 9dbe
000000b0: c327 a73e 9b53 07bd 75cc 4abd b727 d4bd
000000c0: e78c 973b 8a3d 4a3e c051 6f3e f9af eb3e
000000d0: 613b 393e 0bcf e9bd 5b12 9bbb ea52 6e3d
000000e0: 16e6 b23d 320f e4bc 713b 1d3e a505 273e
000000f0: e7a8 4ebe 493d 9ebe 643b 5d3e 5cb4 e2bd
00000100: ed71 973e 474f 5bbe 1fff 193e acee 1ebf
00000110: fc69 7abe d4a6 083d a032 54be 98a5 54be
00000120: ecfa 40be 4666 603e d74f 2b3e 665a d5bd
00000130: c200 d4be ea78 c03e f0ee c3be 8370 b43c
00000140: fd1e 683d be56 d03e e92b c43e 805a 01bf
00000150: e407 abbd 3fa3 a53d d4a2 0fbe 78cd b1be
00000160: 36fa d5bd c59b b6bd 0c32 033d f254 cebd
00000170: af54 603e 7f86 7cbe 526a 88be b57a 4cbd
00000180: 2c8e 9b3e 470c 53be 3690 243e 5302 263e
00000190: 532a e8bd f5b2 403e f337 b43e aa8e 5fbe
000001a0: 37e7 50be d25d 873e 383f e23d 8d50 0dbe
000001b0: b068 ba3e d127 25be 5cb3 65bd 56a9 fdbc
000001c0: 8f12 82be fcf0 033d f4bd 22be f5d1 8b3e
000001d0: 9ed8 22bd 1580 1f3d e5ef 273e b0a3 7a3d
000001e0: b925 82bd 6d69 9f3c aac7 893d f97b b53e
000001f0: 57e5 efbd 062a 95bc e5ad 703e c97c 8d3d
00000200: 78ef abbe 8781 29bd fb54 513e 6f80 c1bd
00000210: f6ed 3c3e b0ed cbbd 66b9 c53d 89e8 8d3e
00000220: 7e0b a33d cd33 91be f968 e63d 25f0 463e
00000230: 897e 0ebe 5992 b23d a925 003d 5f6b 773d
00000240: 6600 a1bd a9d9 34bc 3958 ac3d 67ba 983e
00000250: eb11 413e 527b b1be b605 1a3e 0d8d 2b3e
00000260: b8bc 283e f059 bf3e baa0 813c 2ac2 66be
00000270: 103c af3d cec1 be3e 5500 263d 94dd 25be
00000280: bcf5 f03e cf20 36bd 5ab6 b4ba 8e38 f6be
00000290: 8e68 d3bc 1bd5 703e 7441 8cbc f0dc 08be
000002a0: c862 71bc 288b 023e 6056 013e 29ac c93d
000002b0: 9165 05be 3bb5 213e 8bac 70be ad8f debd
000002c0: 52de b3bd 68dc 05be 9fb8 f73d bfb3 c2be
000002d0: 116b 01be 96b2 f43d 751c 63be ceba 93bb
000002e0: 775d 39be 4a01 9a3e 3d2d 0a3d 8e6c 2c3d
000002f0: dda1 c7bd b5b7 96be cd82 5bbd f0ce 393d
00000300: 46d0 38be d4d4 213c 728e db3d 21ba 103d
00000310: 1a12 683c d17d f8bd 1c14 053f 38fd 933e
00000320: 8423 dc3d 96b2 313e 037e 703d 4184 b93e
00000330: dbc0 55be 64a2 3abe 5e9f 683e 2176 1dbe
00000340: 3fd8 99bd 5aee 91be 6125 82be db4a 943d
00000350: fd2a 5c3d e9b5 b1be 95c1 bc3e 59c6 e83e
00000360: 11b1 4a3e 6f9e 443e 70f8 753d bc06 03be
00000370: 12a9 d9bd 033c 62ba 03ec c03d e109 bcbd
00000380: c6e3 3e3e 18b8 ffbc bd67 053e c20f 91be
00000390: 6704 9d3d a81f 7b3e 601b 9a3e b625 3b3e
000003a0: 084a fbbd 1d7a b1ba 8464 e1bd b5d7 4c3e
000003b0: fe8e 913e d71b e93d 2f8f 0bbd a55d 883e
000003c0: 3ae9 a43d c55d 293e 8186 ea3c a36b f83e
000003d0: 36c8 123e 3e0a 893d 39a5 c53d c333 53bd
000003e0: a296 233e f78c de3d cf8b 9a3d 6a32 573e
000003f0: 45b2 bf3c b01e abbd 72f0 2f3e b0ad c1bd
-0.107281424 -0.20226063 0.20936656 0.015619042 -0.14590904 0.011067065 -0.06483223 0.081323266
-0.1579739 -0.5481592 0.097821124 0.056309756 -0.029122217 0.19819511 -0.1952537 0.27926767
0.017110044 0.28094488 0.18863986 0.34541255 -0.29950812 0.1936938 0.0110193 -0.49530485
-0.053149726 0.13268293 0.16220932 0.12741236 0.15935725 0.108114615 -0.07003381 0.3180907
0.14531305 -0.038564123 -0.557286 0.06649958 -0.20109282 0.062390734 0.16943784 -0.07164396
-0.34495825 -0.3350015 -0.27904773 -0.30822298 0.32647523 -0.033038717 -0.04951139 -0.103591375
0.004624951 0.19750038 0.23371029 0.46032694 0.18089058 -0.114164434 -0.0047324128 0.05818454
0.08735292 -0.027839277 0.15354706 0.16310747 -0.20181619 -0.30906132 0.21604687 -0.11069557
0.29579106 -0.2141696 0.15038727 -0.62082934 -0.24454492 0.033362225 -0.20722437 -0.20766294
-0.18845719 0.21914014 0.16729675 -0.10417633 -0.41406828 0.3759225 -0.38268232 0.022026306
0.056670178 0.4069118 0.3831475 -0.5052872 -0.083511144 0.08087777 -0.14026958 -0.34727073
-0.104481146 -0.089164294 0.03203015 -0.10074796 0.21907304 -0.24660681 -0.26643616 -0.04992171
0.30381906 -0.20610152 0.16070637 0.16211824 -0.11336198 0.18818267 0.35198936 -0.21831766
-0.20400701 0.26438767 0.11047214 -0.13800259 0.36407995 -0.1612847 -0.056079254 -0.030964535
-0.25404784 0.032212242 -0.15892774 0.27308622 -0.039757363 0.038940508 0.16400106 0.06119126
-0.06354851 0.01945945 0.06727536 0.35446146 -0.11713665 -0.018208515 0.23503835 0.069085665
-0.33581138 -0.041383293 0.20442574 -0.09448325 0.1845015 -0.09957445 0.096545026 0.27716473
0.07961176 -0.28359833 0.11250491 0.19427545 -0.13915457 0.0871932 0.031285916 0.06040513
-0.07861404 -0.011038222 0.08415265 0.29829714 0.18854491 -0.34664398 0.15041241 0.16753025
0.1647824 0.37373304 0.01582371 -0.22535005 0.08556378 0.37257236 0.04052766 -0.16197807
0.4706248 -0.044464882 -0.0013787255 -0.48090023 -0.025806691 0.23518793 -0.017121054 -0.13365531
-0.014733024 0.12748396 0.12630606 0.0984729 -0.13027026 0.1579179 -0.2350332 -0.10867248
-0.087826386 -0.1307236 0.120957606 -0.3802776 -0.12638499 0.11948125 -0.22178824 -0.004508353
-0.1810206 0.30079108 0.03373455 0.042095713 -0.0974767 -0.29437032 -0.05359154 0.045363367
-0.180482 0.009877402 0.10720529 0.035333756 0.014164472 -0.121333726 0.5198381 0.28904128
0.107489616 0.17353281 0.058713924 0.36233714 -0.2087435 -0.1822601 0.22717044 -0.15377094
-0.07511949 -0.2850216 -0.25419143 0.0724084 0.053751934 -0.347091 0.3686644 0.45463827
0.19794108 0.19201063 0.06005138 -0.12795538 -0.10627951 -0.0008630158 0.09420016 -0.09181572
0.18641576 -0.031215712 0.13027854 -0.28332335 0.07666855 0.24523795 0.3009901 0.18276104
-0.1226998 -0.0013540421 -0.110055 0.2000416 0.28429407 0.11382263 -0.034072097 0.26633945
0.08052297 0.16539676 0.02862859 0.4851962 0.14334187 0.06691407 0.09650654 -0.051563036
0.1597543 0.10866731 0.075461976 0.21015325 0.023400435 -0.083554626 0.17181566 -0.094569564

bias f4 [32]
00000000: 353e 22be f259 a1bd 5a3c 623e f167 92bd
00000010: 083d 5bbe 49a6 003e 2d99 853d 8309 203e
00000020: b35f ce3d db3c d2bc 5e4c e93d 2d36 253e
00000030: 00a7 bfbd d9fe 60bb 1401 01bd 300e 2d3e
00000040: 7b7b 41be 7e17 c73d 2412 663d 5332 34bd
00000050: 33b3 1f3e 14f8 04be 3dc2 bbbd 9b06 a83d
00000060: a9b0 c4bd ca07 793d 623f 38be 0fdd 81be
00000070: bdcb 4abe e747 3abe fd58 01bd 6994 9cbc
-0.15844043 -0.07878484 0.22093335 -0.071487315 -0.2141 0.12563433 0.065233566 0.15628628
0.10076847 -0.025663784 0.11391519 0.16133948 -0.093580246 -0.0034331589 -0.03149517 0.16899943
-0.1889476 0.09721278 0.056169644 -0.043993305 0.15595703 -0.1298526 -0.091679074 0.08204385
-0.09604008 0.060798444 -0.17992929 -0.25363967 -0.19804282 -0.18191491 -0.031579006 -0.019113736

weight f4 [32, 64]
00000000: 08c8 50bd a0ad 873b 084a 7ebd 0815 413d
00000010: 4820 dabd c4a8 bb3d 3412 babd de87 cbbd
00000020: 5ac3 a1bd a8e1 673d 142e 3dbd e498 3f3d
00000030: 5446 d9bd 3e52 9bbd 80fe 3bbd 783c c9bc
00000040: 044b c3bd 5ea0 a73d b87d f1bc 8058 243d
00000050: 5c07 b53d 00c7 be3c bc01 0c3d 321b f73d
00000060: b4ea 66bd 382d 223d 0ccc 63bd 48f3 b63d
00000070: c074 cc3d 6006 ecbd 8888 da3d c47c 743d
00000080: dc1c 5f3d 0cc7 523d 04d0 d43d 6035 87bc
00000090: b27f d8bd f8ea 12bd 584b b4bd f062 073c
000000a0: 4030 bfbc 8650 89bd 0035 3abc 0e89 f23d
000000b0: 7089 21bc 600c 823b 20b4 9fbc e0fa a03c
000000c0: 6819 e43d cc8a 9c3d 84bd 353d a886 de3c
000000d0: b073 f13c 78cd 453d 2853 84bc bced edbd
000000e0: 3e50 9ebd 9884 da3d 00d5 f43b fa60 cfbd
000000f0: 5083 a13c 8a86 d33d 80eb f1bd 6a59 acbd
00000100: 78e9 4bbd 4067 a43b b0d3 eebc a00e 61bc
00000110: 6692 f9bd 48c2 6f3d c8b3 e03d 1e7a 9c3d
00000120: 2a48 b5bd ca5c cebd f49b 543d 00fb 373b
00000130: 78e2 513d 9826 fabd 4037 f4bb da8a b43d
00000140: cc85 6d3d 4093 953b 8056 c93c a0e7 41bc
00000150: e4c1 8cbd 047c 41bd 18e6 9bbd cea2 d43d
00000160: 96df 8c3d d80e 333d 7250 c4bd 0289 c53d
00000170: ac88 203d 7419 b13d 6c6a 49bd b815 d93c
00000180: 32f4 f93d 6433 ac3d a84f cd3d 4006 d7bc
00000190: 620a c33d e881 c8bd 2021 313c 5e24 90bd
000001a0: f8cf eebc 341f 03bd c03a 193c eafe e83d
000001b0: a47b 7d3d 00d0 0aba 70b8 b53d 4a30 83bd
000001c0: 62ef 833d a0ea 3dbc e82f b2bc 30c4 6f3c
000001d0: ea1e c4bd 50a9 6c3c 6427 2c3d cedc da3d
000001e0: 5c68 1fbd 8855 383d 06e0 ff3d d4a1 5bbd
000001f0: 065a f33d 3434 7ebd e0af 613d 7893 483d
00000200: 1804 0f3d 1272 ca3d a4ee 4ebd 3890 063d
00000210: 00e6 373a 5a8c c0bd 38a4 f8bc 74f6 aabd
00000220: 3062 623d 601b 383c b0a1 483c 6853 1bbd
00000230: 0091 1d3a 0c41 1fbd b81d 133d 949e f83d
00000240: 181b 9b3c 30c6 62bd 3a5f 9cbd 108c 1c3c
00000250: a2e9 bdbd 266c c0bd e09f a6bd ece5 2dbd
00000260: 8096 173c da48 b03d 5851 463d 5c20 c43d
00000270: e2bd a0bd b0d3 2c3c b08d e3bd 32db 923d
00000280: 6869 d53c 629b f73d 0012 b6bd 464b cd3d
00000290: 3a1f d83d 02fb ce3d 981e 923c 88c6 e83d
000002a0: 3cf7 aa3d 0eff be3d 300a 05bc 3474 c4bd
000002b0: 00e2 cbba 080a c03c 1861 aebd 04da 92bd
000002c0: 6870 f5bd f47a 33bd 58fe de3d 9819 af3c
000002d0: 202f fabb c07c a43b b0a0 9f3d 7410 e2bd
000002e0: e686 c5bd 9039 2abd 2855 93bd 7e0a 843d
000002f0: a8e2 b43d b860 f8bd 1243 d9bd 204c f9bd
00000300: 8027 413d f20a ce3d b07c c6bd a008 6dbd
00000310: d0ed 223d 0c2a a7bd 7e77 d93d d0c1 ee3c
00000320: 4c88 0ebd d004 053c 20a0 1f3d c80c 35bd
00000330: f45c c6bd 0041 5c3a 8037 153b 8031 253b
00000340: c06e 95bc ee5e a43d d8e0 0ebd 403b 46bc
00000350: 3087 523d ce22 a1bd a817 093d 286c e2bc
00000360: c497 753d f2de 8abd a061 973b c05a 483c
00000370: 0afa cdbd fe25 babd dc5b 443d 5c05 15bd
00000380: 9c09 983d 90e4 fcbd a418 7dbd 82db d2bd
00000390: 8487 4c3d 407f 6dbb 78ff bebc 405d aabc
000003a0: 241a c8bd 5c33 113d 4031 4c3b 3eab b0bd
000003b0: c8a8 403d c0a6 24bb fc96 f7bd 24b5 893d
000003c0: 5cee 883d 98ee c0bc 8ec0 b0bd 6074 a43b
000003d0: 242c c13d b653 ea3d a43a c1bd 2841 67bd
000003e0: ee53 c73d 2441 7a3d a277 9e3d 08d7 7ebd
000003f0: 868d dc3d ea72 d2bd c04c c5bb 0017 2a3b
-0.050972015 0.0041405708 -0.06208232 0.047139198 -0.106506884 0.09163049 -0.09085503 -0.09938024
-0.078985885 0.056611687 -0.04618652 0.046776667 -0.10609117 -0.07584046 -0.045897007 -0.024564967
-0.095357925 0.081848845 -0.029478893 0.040123463 0.08839294 0.02328825 0.03418134 0.12065734
-0.056376174 0.039593905 -0.055614516 0.08933121 0.09983206 -0.115246534 0.106705725 0.0596893
0.05447088 0.051459357 0.10391238 -0.016504943 -0.10571231 -0.035868615 -0.08803433 0.008263335
-0.023338437 -0.06704812 -0.011365175 0.11842547 -0.009859428 0.0039687604 -0.01949507 0.019650877
0.11137658 0.07643661 0.04437019 0.027163818 0.02947411 0.048291653 -0.016152933 -0.1161761
-0.07730149 0.106698215 0.0074716806 -0.10125919 0.019715935 0.10328396 -0.11812496 -0.08415492
-0.0497832 0.005017191 -0.029153675 -0.013736397 -0.121861264 0.05853489 0.109717906 0.076404795
-0.08851655 -0.10076292 0.05190654 0.0028073192 0.051241368 -0.122143924 -0.0074528754 0.08815546
0.057988927 0.0045646727 0.02457738 -0.011835009 -0.06872919 -0.04723741 -0.07612246 0.10382615
0.06878583 0.043715328 -0.09585656 0.09645273 0.03919284 0.08647433 -0.049173757 0.026499614
0.1220478 0.084082395 0.10024959 -0.026248097 0.09523465 -0.09790403 0.01081112 -0.070381865
-0.029151902 -0.03201218 0.009352386 0.11376746 0.06188549 -0.00052952766 0.08873069 -0.06405695
0.06442143 -0.0115915835 -0.02175136 0.014634177 -0.09576209 0.014444664 0.042029753 0.106866464
-0.038917884 0.045003444 0.12493901 -0.05362113 0.11882405 -0.062061504 0.055099368 0.048968762
0.034916013 0.098850384 -0.050520554 0.03285238 0.00070151687 -0.0940177 -0.030351743 -0.083477885
0.05526942 0.011236995 0.012245581 -0.03792134 0.00060106814 -0.038880393 0.035917014 0.121396214
0.018933818 -0.055364788 -0.076353505 0.009554878 -0.092730775 -0.09395628 -0.081359625 -0.0424556
0.009252191 0.08607645 0.04841742 0.095764846 -0.07848717 0.010548517 -0.11111009 0.071707144
0.026051238 0.12090184 -0.08890152 0.10024123 0.10552831 0.1010647 0.017836854 0.11365992
0.083479375 0.093259916 -0.008120105 -0.095924765 -0.0015555024 0.023442283 -0.08514613 -0.071704894
-0.119843304 -0.04381843 0.10888356 0.021374509 -0.0076350123 0.005019754 0.077943206 -0.110382944
-0.096448705 -0.041558802 -0.07193977 0.06447314 0.08832294 -0.12127823 -0.10608496 -0.12172723
0.04715681 0.100606814 -0.09691751 -0.057869554 0.039777577 -0.08162317 0.106184945 0.029145151
-0.03479795 0.008118823 0.038971066 -0.044201642 -0.09685698 0.000840202 0.0022768676 0.0025206506
-0.018241286 0.08025919 -0.034882396 -0.012099087 0.051398456 -0.078679666 0.033469826 -0.027639464
0.059959188 -0.06780805 0.004619792 0.012228668 -0.10057457 -0.09089278 0.047939166 -0.036382064
0.07423708 -0.12348282 -0.061791077 -0.10295774 0.049933925 -0.0036239177 -0.023315176 -0.020796418
-0.09770611 0.03544937 0.0031157285 -0.08626412 0.047035962 -0.0025123805 -0.12089345 0.06724003
0.066860884 -0.02355127 -0.08630477 0.005018756 0.09432247 0.11441748 -0.09435013 -0.056458622
0.09732805 0.06109728 0.07737662 -0.06221679 0.10769181 -0.10275824 -0.006021112 0.002595365

bias f4 [32]
00000000: e0a0 c43b fa90 f5bd 2842 823c 5c20 343d
00000010: f61a e53d 3cf4 25bd 5cac 383d 4091 2bbd
00000020: b40b 34bd e8d6 e2bd a823 d83c c2c6 ab3d
00000030: 7269 8ebd e452 513d f8ba 9fbc a4c1 b5bd
00000040: 4060 5a3c e278 f9bd 9e3b 893d 9841 e2bc
00000050: 34c5 eb3d 2035 973b 8a30 f8bd d2a8 c63d
00000060: 10fb dfbc e65a afbd bc5c ec3d 6047 3f3c
00000070: 34ff 253d 5276 ddbd 78d2 34bd e666 cd3d
0.006000623 -0.11990543 0.015900686 0.043976173 0.11186783 -0.040516123 0.04508625 -0.041886568
-0.043956473 -0.11076146 0.02638419 0.083875194 -0.06953706 0.05110444 -0.019498333 -0.08874825
0.013328612 -0.1218126 0.06700824 -0.027619168 0.11512223 0.0046144873 -0.12118633 0.09700169
-0.027341396 -0.085622594 0.11541125 0.011674732 0.040526584 -0.108135834 -0.04414603 0.10029392

weight_ih_l0 f4 [128, 32]
00000000: 91c2 5fbd dbf0 833d 90fb 09be d6c9 03bd
00000010: d6e0 27be 6fc4 d83d 37b9 6abe 9240 ebbe
00000020: bf13 43be d8fb 9d3e 48e3 18be 497c e1bd
00000030: 672f cd3d e894 04be 05ec d53d 3fb2 733e
00000040: 101f 473d 3c6a 803e 7516 91be 3efc 093d
00000050: fb6b babe a222 b5bd 954d 71be e8ad cbbe
00000060: f227 30be 8c98 92be d8fc 7bba 4129 a53d
00000070: 230c ab3d 07c4 4fbe 45b3 833e 4eaa d7be
00000080: 4b67 643c 33f3 00be f4dc 90be 136c 37be
00000090: 3471 a23d 12c3 633d 1254 c43d d6ca 83be
000000a0: 6174 c3bd a6db 8e3e db8b f33d 4bcf a2bc
000000b0: 402c a83e 563b 7b3d 4ca3 a9bd b12c 51be
000000c0: fd13 503d e574 ac3d 4233 dabd 023f f63d
000000d0: 0f04 bdbe 6bd6 b7bd c6c7 24bd 455b d7be
000000e0: 03f3 183d 35ae 7a3b f2c0 4b3e b527 4f3d
000000f0: 4f58 e6bc cf96 083c ad26 293e f168 0fbe
00000100: 246c 1e3e 1d46 923e a61a 493d 9dfb 64be
00000110: 4590 d53d 174c a3be de4e 92bc 21fa d2be
00000120: d789 c4bc e535 ad3e e5ae 803e 4a55 86be
00000130: e06d a4b8 bf64 54be a45c 14bc ec10 1ebd
00000140: dd34 b33e e6dd 123f 18a1 11bc fab4 e23d
00000150: e7f5 39bc da8d e93d 790a 88be fac9 31bf
00000160: da32 dcbd 9ff6 ddbe 6aa7 433e 480d be3e
00000170: cc7c 2a3e 63b7 27be f92b 9dbc 0961 1abc
00000180: ce1d dc3d 4033 793d 8763 2fbe 6112 02bf
00000190: 00b1 09be 5849 25be 1098 423d 9682 28bf
000001a0: 8e1a cf3d eecb 8a3e 98c2 0cbe 9cb3 193e
000001b0: 137c 8e3e 7176 54be 6630 eb3d 87ca b53e
000001c0: ae52 e53d 0a9c 843e 5256 2fbe 8242 25be
000001d0: f942 8c3d 8583 82be e208 55be 8505 19bf
000001e0: bd75 40be 9ebd a7be 6d7b 8fbb 8528 e23d
000001f0: cb1d f93c 651c 7a3d f337 64bc ea8d 6fbd
00000200: affa 93bd 2083 693c b4b7 c63d b4ff cfbe
00000210: ce04 55be c45d 14be fc85 e3bd 3241 e4be
00000220: 042f 92bc 43b5 403e e602 d13d 15be 1c3e
00000230: 4aff b83e ab74 89be 37e4 13bd 8f16 1f3e
00000240: a72a e73d 0dd7 213f ca9f 7dbe 7f55 82be
00000250: dd9d 47bc 0f59 9cbe 45db 45be c724 16bf
00000260: 8284 8cbe 5e09 9bbe 392e f13d 633f 833e
00000270: da11 7b3e 9d23 15be a0b8 65be 1077 cebd
00000280: 4193 36be 8a09 56bc 9ffb 80be 0073 66be
00000290: e2f2 74be 7a74 c33d 8c2f 7dbe f2b4 adbe
000002a0: 3a36 a6be a3a6 3c3e 4860 30be d2d0 663d
000002b0: be74 843e cda3 1b3d e2f2 973d 3c0e 7a3e
000002c0: 5b3b 9a3e 28c9 183e 7de2 4c3d a862 a2be
000002d0: 2ea0 e1be 1b62 07be 36a4 763d 474f f1be
000002e0: 9d98 f0bd 3362 92be 385e e43d 772d 413e
000002f0: cc13 e43d be11 3bbd 6859 85be c8fe 32be
00000300: 5cf5 2d3e 38b4 b53d 5117 e0be 62cf 1d3d
00000310: 2f05 283e f177 dfbd c385 a13d a4e0 95be
00000320: 069c eabd 3c19 e3bd a035 07be c6aa 16be
00000330: a911 423c 149d 58bd 02db 383d d0e2 c4bd
00000340: f81b 223e 653d 423e af70 5abe 42cc a03c
00000350: 9112 8abe 201f 4dbd 64c9 663d 6ff9 fdbe
00000360: 3d25 67bd 8ed3 0c3d b1e6 c03c ce83 653e
00000370: 8153 f5bb a773 78bb 65db 3bbe 2bae 10be
00000380: f8f8 8ab8 7f2e ea3e 9bea 3ebd b8a0 d0be
00000390: 6d8b 0abe df67 e6be 3d94 e7bd a1cd 22bf
000003a0: 8342 5dbe 9bef 6f3e 5c62 4f3b 150a 82be
000003b0: 9690 c23d 6f0f 0bbf bec2 44bc de5b 84bd
000003c0: 2c5a 503e fba0 9d3e 96d6 7ebe 6faa fa3d
000003d0: 4fc8 e2bd eb68 9e3d 73b6 733c f01a 2dbf
000003e0: 5bc7 7e3e 74e8 d9be e356 073f 1b3a bb3e
000003f0: f08b 953e 3578 983d 7419 1abe d177 1a3e
-0.054628912 0.06442424 -0.1347487 -0.032174908 -0.16394362 0.10584342 -0.22922216 -0.459477
-0.19050501 0.30856204 -0.14930451 -0.11010034 0.10018807 -0.12947428 0.10445408 0.23798464
0.048613608 0.2508105 -0.28337446 0.033687823 -0.36410508 -0.08844496 -0.23564751 -0.39781117
-0.17202738 -0.2863201 -0.0009612567 0.08064509 0.08351924 -0.20289622 0.2572271 -0.4212212
0.013940643 -0.12592773 -0.28293574 -0.17912321 0.07931748 0.055605955 0.09586348 -0.2574069
-0.09543682 0.27901953 0.1189191 -0.019874236 0.3284626 0.061335884 -0.082830995 -0.20427205
0.050800312 0.08420733 -0.10654308 0.120237365 -0.3691716 -0.08976444 -0.04022958 -0.4206182
0.03734113 0.0038250808 0.19897822 0.050574977 -0.02811828 0.008336737 0.1651866 -0.14004876
0.1547094 0.28569117 0.04909768 -0.22361608 0.10427908 -0.3189399 -0.017859872 -0.41206458
-0.023991508 0.3383018 0.25133434 -0.26236945 -7.840595e-05 -0.20741557 -0.00905529 -0.038590357
0.3500127 0.5736984 -0.008888505 0.11069675 -0.011350132 0.11404009 -0.2657049 -0.69448817
-0.10751887 -0.4335222 0.19106832 0.37119508 0.16649169 -0.1637855 -0.019186007 -0.009422549
0.10747872 0.06083989 -0.1712781 -0.50809294 -0.13446426 -0.1614126 0.0475083 -0.6582426
0.10112487 0.2710871 -0.13746107 0.15009922 0.27829036 -0.20748307 0.11483841 0.3550608
0.111974105 0.25900298 -0.17122772 -0.16138652 0.068487115 -0.25490966 -0.2080417 -0.5977405
-0.18794914 -0.32761854 -0.004378727 0.11042885 0.030409714 0.061062235 -0.013929355 -0.05848495
-0.072255485 0.014252454 0.09703007 -0.40624774 -0.20802614 -0.14488894 -0.1110954 -0.4458099
-0.017844684 0.18819146 0.10205631 0.15306886 0.3613227 -0.26846823 -0.036106315 0.15535949
0.11287432 0.63218766 -0.24767986 -0.25455853 -0.012183634 -0.30536696 -0.19321926 -0.5864987
-0.27444845 -0.30280584 0.117763944 0.25634298 0.24518529 -0.14564367 -0.2243371 -0.10081303
-0.1782961 -0.013063798 -0.25191972 -0.22504807 -0.23920777 0.095437005 -0.24725169 -0.33927113
-0.32463247 0.18422942 -0.17224228 0.05635149 0.25870317 0.03799801 0.07419373 0.24419492
0.3012341 0.14920485 0.050020684 -0.31715894 -0.4406752 -0.13221018 0.060215198 -0.47130796
-0.11747859 -0.28590545 0.11150783 0.18865 0.111365885 -0.045671217 -0.26044774 -0.17480004
0.16988128 0.088722646 -0.4376779 0.038527854 0.16408227 -0.10911549 0.07886841 -0.2927295
-0.1145554 -0.110887975 -0.1320405 -0.14713582 0.011845031 -0.052884176 0.045130737 -0.096135736
0.15830982 0.18968733 -0.21332048 0.019628648 -0.2696729 -0.05007851 0.056344405 -0.49604365
-0.056431998 0.03438144 0.023547502 0.22413561 -0.007486761 -0.003791073 -0.18345411 -0.1412894
-6.626727e-05 0.457386 -0.046610456 -0.4074762 -0.13529749 -0.45001122 -0.11307571 -0.63595015
-0.21607403 0.23431246 0.003164432 -0.25398317 0.09500234 -0.54320425 -0.012009321 -0.06462835
0.20346898 0.3078688 -0.24886546 0.12239539 -0.11073362 0.07734855 0.014875042 -0.6761923
0.24880736 -0.4256016 0.52866954 0.36567768 0.29208326 0.07444803 -0.15048772 0.15084769

weight_hh_l0 f4 [128, 32]
00000000: 4085 e23b 41e0 cf3d 9dc2 afbd 36d6 0cbe
00000010: 2eb5 bfbd 039c d93b 2fab 703e 2cb7 323d
00000020: 54c1 183e ef14 aabd 70e0 b5bd 67ec 3ebd
00000030: dd95 7fbd 2edd c2bd 1a01 963d 6a87 d13d
00000040: 5758 503c 6a30 7abc c43f 5c3e bd56 41bc
00000050: 44fb 783e 0f33 f63a 5999 68bd 533f edbd
00000060: 9b9e 233e af4c 10be 8046 ab3d 2f6b 2d3e
00000070: a701 d6bd 776e b2bd b4e7 ae3d 784c febd
00000080: f64c 643d a04e 1b3e a12d bfbd e6d1 763e
00000090: d253 bfbd 8358 26bc e706 383e 8add 18be
000000a0: 057c 063e 4d9e d03d 1bd0 08be bc4b 5dbc
000000b0: b12d ab3d ab67 8bbd dab0 0a3d 8aee 9b3b
000000c0: 63c8 02be 3d05 883d 3ed9 813c 9198 edbd
000000d0: 9d24 f93d 1d13 08be e59d bdbd 4945 99be
000000e0: 7a87 633d 5d03 b8bc d6e6 f83d fb01 c43c
000000f0: 3272 503e b778 66bd 6418 613d 3e13 cbbd
00000100: 7628 b83a 0ef9 543c 667e 2bbe a539 4e3c
00000110: c74e 643e 699a c73d dc54 4c3e 42f5 293d
00000120: 0e99 183e 764b ec3d b488 2cbe 85f1 483d
00000130: bcaf a8bd d22a d43d 07dc 0abe 4cf3 473e
00000140: 9986 173e 1e7b f33d c7a7 443b f036 fbbd
00000150: 1b1c f6bd 9c31 a4bc 8753 933d a858 72be
00000160: 096b 553e 4a3d 89bd d9ea ba3d 71b6 eebc
00000170: f8a6 323d ce0e 2f3d 5117 6ebd d353 82bd
00000180: 3e15 553d b460 483e 4ceb be3d e62a 06be
00000190: ae2b d1bc 78db 5abd 4b31 a83b c230 303e
000001a0: f3e5 273c 2a7f 793e 742b bf3d 8de6 51be
000001b0: c1c5 26be 19b8 f0bd 6050 20be 042b e73d
000001c0: b6c6 1fbe 3455 39be 7f50 64be 683c 843d
000001d0: 4ce9 833c 28d8 4b3c 7554 04be 6b25 26be
000001e0: 613a 223c 9b23 4f3e a5f5 98bd 7315 cc3d
000001f0: 6e05 253e 135c 383e 5afc 80bd 8aad 303e
00000200: 7a77 68bc 467a 263e 3561 3f3e 029b 82bc
00000210: 52bf 1abe b324 a0be 73d2 b6bd 8a1b c0bd
00000220: 6da8 b3bd 5c07 263d 930d 763d e7bf d8bd
00000230: 1f42 17bd 0b39 60be 315d 1bbd a062 00ba
00000240: be76 093e 55a3 74be 2240 18be e35b 15be
00000250: 0dc1 b53d 775e e8bc c310 9f3c 495a b03d
00000260: 1695 553e 0bac 6e3c 7164 33bd f45e fc3d
00000270: 37e8 183e 9022 e23d afc7 b1bd 6afc 963d
00000280: 1e5a 04be 42fc cebd 17ff a2bd 9e84 e4bc
00000290: 2468 1e3d 6c45 f73d 35b5 873d 9ac9 2e3d
000002a0: 8d61 c13d 2b11 233e 4f54 08bd c4a7 db3d
000002b0: 4100 323e 3403 abbd 55aa f23c a7ab 213d
000002c0: f763 b1bc 8ff8 d7bd 1021 1f3d a9bc 3ebe
000002d0: e2e8 6ebc 2f53 5cbe 3f6b 37be cdae efbc
000002e0: ee9a d33d 317f c8bd 09dd f4bd 1dab d0bd
000002f0: d9db 183e 16c7 16be 05c7 a03d c426 953d
00000300: 4222 c0bd dd8c 8e3e 605b 913e 54c1 bd3e
00000310: d987 143e dea6 f03d d765 15bc b5ee 8f3c
00000320: b238 383e a32c 813e 4b03 a0bd 7608 1b3e
00000330: ea67 3a3d f0f6 f03d b86a 4ebd 47ff 7b3c
00000340: d036 51be b777 02be 5f4e 503e 2a13 b53d
00000350: 9a71 7738 7039 a3bc 7f81 233e bf52 29be
00000360: d653 d23d b0ea 82bd 0b37 00be 6ae0 cc3c
00000370: dc06 bfbd c4aa f53d dbc4 a23d 7baa fd3d
00000380: fd9f 123e 0eff f7bd b158 64bd 8de5 233e
00000390: 2ff3 7f3d 2e47 ea3d 7e97 193e 7106 c43c
000003a0: 30cf cfbd 2ed0 4f3d eee3 4abd 5203 923d
000003b0: 604a 9a3d 5cd8 c63c 1e6f f0bd b53f 7bbb
000003c0: e082 41be 7bea a03b 1baf 4e3e 39db fc3d
000003d0: 5640 e8bd 3afb cebd e2e3 933d 5820 e4bd
000003e0: 832c 073d f235 08bb c5a6 c2bd 512a 5dbd
000003f0: c590 dfbc d8b7 be3c d725 073e bcb0 443e
0.0069128573 0.10150195 -0.085820414 -0.1375359 -0.09360729 0.0066409125 0.23502801 0.043631718
0.14917499 -0.08304774 -0.08880699 -0.04661217 -0.06239878 -0.09514843 0.07324429 0.10230906
0.012716374 -0.015270332 0.215087 -0.011800465 0.243146 0.0018783527 -0.05678687 -0.11584344
0.15978472 -0.14091752 0.08363056 0.16935419 -0.10449534 -0.08712476 0.085402876 -0.12416929
0.05573746 0.15166712 -0.09334875 0.24103507 -0.09342159 -0.010152939 0.17971383 -0.1492826
0.13133247 0.101864435 -0.13360636 -0.013506826 0.08358324 -0.068068825 0.033860065 0.0047586607
-0.12771754 0.06641624 0.01585066 -0.11601365 0.121651866 -0.13288541 -0.092586316 -0.29935673
0.055549122 -0.022462541 0.121534035 0.023926726 0.20356062 -0.056267466 0.0549549 -0.099157795
0.0014050144 0.012998832 -0.16747436 0.012586986 0.22295676 0.09746248 0.19954246 0.04149366
0.14902136 0.115378305 -0.16849023 0.049058456 -0.08236644 0.1035973 -0.13560496 0.19526404
0.14797439 0.11888717 0.003000723 -0.12266338 -0.120170794 -0.020043187 0.07193666 -0.23666632
0.20841612 -0.06701143 0.09126825 -0.02913973 0.043616265 0.04273873 -0.058127705 -0.063636445
0.05202221 0.1956814 0.09322223 -0.13102302 -0.025533523 -0.053431958 0.0051328293 0.172061
0.010247695 0.24364915 0.0933446 -0.20498104 -0.16286375 -0.11753864 -0.1565566 0.112875015
-0.15603146 -0.18098909 -0.22296332 0.06456834 0.016102456 0.012441672 -0.12922843 -0.16225211
0.009901614 0.20228426 -0.07468728 0.099650286 0.16115353 0.18003874 -0.06298132 0.172537
-0.014188642 0.16257581 0.18689425 -0.015943054 -0.15112045 -0.31278 -0.08926859 -0.09380253
-0.08772359 0.040534362 0.06007154 -0.105834775 -0.036928292 -0.2189676 -0.03793067 -0.0004897509
0.13424203 -0.23890431 -0.14868215 -0.14585833 0.08874712 -0.028365357 0.019417172 0.086109705
0.20857653 0.014567385 -0.04379696 0.12322798 0.14932333 0.110417485 -0.08680665 0.07372363
-0.12925002 -0.10106708 -0.07958811 -0.027895268 0.038673535 0.12073788 0.066263594 0.04267273
0.094424345 0.15924518 -0.033283528 0.10725358 0.1738291 -0.0835022 0.029622236 0.03947034
-0.021654112 -0.10545456 0.03884989 -0.18626656 -0.014581891 -0.21516107 -0.17912005 -0.029258156
0.10332285 -0.09789885 -0.119562216 -0.10188887 0.14927615 -0.14724383 0.0785046 0.072827846
-0.09381534 0.27841845 0.28390026 0.3706156 0.14504947 0.117505774 -0.009118519 0.01756988
0.17990378 0.25229368 -0.07813128 0.15139946 0.045509256 0.117658496 -0.050394744 0.015380687
-0.20431066 -0.1274098 0.20342396 0.08841546 5.899519e-05 -0.01992485 0.15967368 -0.16535471
0.10269897 -0.06392419 -0.12520997 0.025009353 -0.0932748 0.119954616 0.079477035 0.12386032
0.14318843 -0.12109195 -0.055748645 0.16005535 0.062487777 0.11439358 0.14999196 0.023928853
-0.1014694 0.050735645 -0.049533777 0.071295395 0.07533717 0.02427309 -0.11739944 -0.0038337533
-0.18897581 0.0049107648 0.20183985 0.12346501 -0.11340396 -0.101065114 0.072211996 -0.111389816
0.033001434 -0.0020784107 -0.09504465 -0.053995434 -0.027290711 0.023281023 0.13198029 0.19208044

bias_ih_l0 f4 [128]
00000000: bf10 7dbe af8e b3bd 45b8 eebe 1aba 43bd
00000010: 64a3 84bd 24ec 0bbe 642c 45be ab49 19bf
00000020: 5aca d7be 5848 8fbe 4dd1 10be 008f 0d3c
00000030: adef abbc bca4 ddbe a73b edbe b1cc 8bbe
00000040: 3ccf 50be 0728 0abf 9bdd 1d3d dea9 45be
00000050: 993b 91be 772b 80be 9cfc e4bd bdad 1ebe
00000060: b443 bcbe eea1 4dbe d63d 84be 72e9 0abe
00000070: bde4 c4be ef6f 60be 10ff 75be 9556 20be
00000080: 80d9 3ebd 626e de3d 64ac 23bd a7cf 7abd
00000090: 6912 22bc 5f5e f3bd 488a 843c be9d 19be
000000a0: 0c4e 1dbd ce99 273d 4f8e d6bb 9d33 02be
000000b0: b6a9 fbbd 9e68 51be 052d a9be 335b 1dbe
000000c0: ec6f ae3d 626c e9be 3fd7 5a3d 6bf4 b1bd
000000d0: ba51 2ebe 3d0c 8ebd 8237 44be 81a8 d53d
000000e0: 5665 22be e524 943c 0b37 45ba dbe1 4b3d
000000f0: 7975 67bd bbb3 cfbd bb13 cdbd ac9c 86be
00000100: a705 593d 6ddf 95bd 7460 6d3d 5a01 2fbe
00000110: 61ae 7a3d c69c 92bd 5cb8 94bd 3337 35bd
00000120: 0d87 073e f1b3 0ebe c5d0 fa3d 8b88 9bbd
00000130: 80a1 aabd 5fd5 e73c 2597 91bd e9ed 27bd
00000140: 4bc2 0c3e 1905 533d 0ac6 34be 4da3 623c
00000150: 7b28 8abd ca07 9b3d c34f d3bd 62df df3d
00000160: 663c d9bd 253a 243d 7a07 833d 75ac 033e
00000170: 5c67 65bd 157f 1bbd 75e9 823c 7aac 213d
00000180: 1cb3 21be 00fb 433d f30d c5be fd57 13be
00000190: 6af4 47be 3fbf 4dbe a7b1 93bd 4872 a1be
000001a0: 4164 43be 2a35 acbe df24 75bd 06d6 26bd
000001b0: d8b4 fcbd 4208 b8be 489c 6abe 2e18 1cbe
000001c0: 9d80 53be 2b51 a1be 3638 053d c740 f5bb
000001d0: 85f7 b5bd 4e8a 8fbe 44ad 5ebe ca8f 23be
000001e0: bc15 d4be 5be5 5fbc daa0 09be 33b8 3cbd
000001f0: 1cb5 5fbe 663d 93be 6eb8 7bbe 5067 f6bc
-0.2471342 -0.08767449 -0.46624961 -0.047784902 -0.06476477 -0.13664299 -0.19255215 -0.59878033
-0.4214657 -0.2798488 -0.14142342 0.008640051 -0.02098831 -0.43289745 -0.46334574 -0.27304605
-0.20391554 -0.53967327 0.038541418 -0.1930308 -0.28365782 -0.2503316 -0.11180994 -0.15495963
-0.36770403 -0.20081303 -0.25828427 -0.13565615 -0.38455763 -0.219177 -0.2402308 -0.15658028
-0.046594143 0.108608976 -0.039959326 -0.06123319 -0.009892085 -0.11883234 0.016179219 -0.1500158
-0.03840451 0.040918164 -0.006547726 -0.12715001 -0.12288229 -0.20450065 -0.3304216 -0.15366821
0.08517441 -0.45590502 0.05342793 -0.08689197 -0.17023364 -0.06935928 -0.191618 0.1043253
-0.15858969 0.018083999 -0.00075231557 0.04977594 -0.056508515 -0.10141703 -0.10013529 -0.26291406
0.052983906 -0.07318006 0.057953313 -0.1709036 0.061201457 -0.071588084 -0.07261726 -0.044242095
0.13235112 -0.1393583 0.12246851 -0.07594403 -0.08331585 0.028299985 -0.07108907 -0.040998373
0.13745992 0.051518533 -0.17653671 0.013832879 -0.06746002 0.07569845 -0.10317948 0.10931279
-0.10607223 0.040094513 0.063979104 0.12858756 -0.056006774 -0.03796299 0.015980462 0.039471127
-0.15790981 0.047846794 -0.38487205 -0.14389034 -0.1952683 -0.20092486 -0.07211619 -0.31532502
-0.19081213 -0.3363431 -0.059849616 -0.040731452 -0.12339181 -0.359438 -0.22911179 -0.15243599
-0.20654531 -0.3150724 0.03252431 -0.0074845287 -0.08885101 -0.28035206 -0.21745783 -0.1597282
-0.41422832 -0.013665522 -0.13440266 -0.046074104 -0.21846431 -0.2875778 -0.24582073 -0.03007856

bias_hh_l0 f4 [128]
00000000: 2084 b2be 0c39 21be 5fdb 07be 565c 9fbe
00000010: 9ba7 4fbe de63 d7be a8dc e3bd 0880 c7be
00000020: b555 93be bef0 bdbd 7738 5ebe 1b81 64bd
00000030: 84d1 cdbd 67b1 3cbe e522 34be bb5c d7be
00000040: dd08 423d bbf3 a5be ba81 5dbe fed2 0b3d
00000050: 9283 ebbd 6c8b 5bbe dea4 8cbe 6f82 07be
00000060: 93b2 d0be dadd c4bd 3edc c8be 8c0d 89be
00000070: b616 b8be f0b7 53bd 74fb 2abe b8cf acbe
00000080: a26b 85be 4262 b2bd 3ccd b4be f5c2 29bd
00000090: e948 623c cb0b 97be fb54 fe3c 5a3b d1be
000000a0: 12bb 36be d15a b7bd c12d 143d da4e e5bb
000000b0: 2360 56be 9dbd 9dbb 4918 2ebe d237 cdbd
000000c0: 075e 25be d376 a7be 7933 13be 2353 0f3e
000000d0: 32f8 89be 5efc 8abe 080d e9bd adf3 b2bd
000000e0: a03e b9be ae9b 90bd 08b2 5abe 90bc 29be
000000f0: 3f82 72be 1c06 95be 6b04 64be 231c 3fbe
00000100: 55ee b5bc 65f1 86bd 9608 60bc 7de9 c93c
00000110: 808c 233d f0f6 fbbb 2733 6ebc 01df ab3d
00000120: f8ce f6bc 590f 0d3e 0439 733d f486 363e
00000130: f644 303e 31d8 43bd de23 de3d 1309 aebd
00000140: 5c14 17be da81 dabd 370e ba3c a13e 2ebd
00000150: 042f b63d d446 983c 22c1 03be 5238 cbbd
00000160: 4607 1d3d b585 923d 508f 383d b934 c63d
00000170: e63e aebc 38fd ae3d ce60 58bd 5b7f c0bd
00000180: e505 bebe d529 803d 12d4 62be c0c9 1abe
00000190: 391d 98bd dc1a 55be 0555 c63d 32a1 23bf
000001a0: e013 d7be db7c fabd 592d 6bbe 06d6 30bd
000001b0: 22d0 37be 074d 48be 790e c1be dc6f 84be
000001c0: 7102 51be 0570 c0be c8c7 85bd 267c 22be
000001d0: e74e c8be 0206 ddbd e193 16be ffa1 a1bd
000001e0: fec1 56be d643 11be f96a 8bbe 8464 f63b
000001f0: 88f2 8ebe feee 9bbe 5d78 2abe 601e 5bbe
-0.34866428 -0.15744418 -0.13267277 -0.31125134 -0.2027878 -0.4206838 -0.11126071 -0.38964868
-0.28776327 -0.092744336 -0.21701227 -0.055787187 -0.100497276 -0.18427049 -0.17591436 -0.42062935
0.047371734 -0.32412514 -0.21631518 0.034136765 -0.114997044 -0.21439904 -0.27469534 -0.1323335
-0.4076124 -0.09612627 -0.3923053 -0.26768148 -0.35954827 -0.05168909 -0.16697484 -0.33752227
-0.2605868 -0.087101474 -0.3531283 -0.04144569 0.013811328 -0.29501185 0.031046381 -0.40865594
-0.17844799 -0.08952869 0.036176447 -0.006997925 -0.20935111 -0.0048138634 -0.17001452 -0.100204125
-0.1614915 -0.32707843 -0.14375104 0.13996558 -0.2694717 -0.27145666 -0.11379439 -0.08737884
-0.36180592 -0.070609435 -0.21356976 -0.16575837 -0.23682497 -0.29106224 -0.2226731 -0.18663077
-0.022208372 -0.06589011 -0.013673922 0.024647469 0.039928913 -0.0076893494 -0.014538563 0.08392144
-0.030127987 0.13775386 0.059380546 0.17824918 0.17213807 -0.047813598 0.10846685 -0.084978245
-0.1475386 -0.106692985 0.022711856 -0.042540196 0.08895686 0.018588461 -0.12866643 -0.099228516
0.038337015 0.07154409 0.04505855 0.09678025 -0.021270227 0.085443914 -0.052826695 -0.09399291
-0.37113872 0.06257979 -0.22151211 -0.15116024 -0.07427449 -0.20811027 0.09684185 -0.6391784
-0.4200735 -0.122308455 -0.22966518 -0.04317286 -0.1795049 -0.19560634 -0.37706354 -0.25866592
-0.20411088 -0.37585464 -0.06532246 -0.15867671 -0.39122698 -0.107921615 -0.14704849 -0.078922264
-0.2097244 -0.14186034 -0.2723005 0.0075193066 -0.27919412 -0.30455774 -0.16647477 -0.21398306

weight f4 [64, 4]
00000000: fbc5 05be 7347 493f 2c41 1e3f e891 dcbe
00000010: 90b1 09bf 2a0b a1be c2a7 c33e 5ad2 f93d
00000020: 6b9d 323e 23e9 1f3e f08f c7bd f545 153f
00000030: b166 30bf b840 e23d 13e6 bebc 37f0 c63c
00000040: 9f22 143f 2558 74be 462a f0be 826c a5be
00000050: 5078 ca3d 7bdd 10bf ca8e 05bf b443 33bd
00000060: d064 cbbe 9339 8c3c a5ba b83e 8bb8 893e
00000070: 99e3 8ebc 5c94 213e 6b92 e6be 601f 15bf
00000080: ed60 cfbe d1f9 8b3e 906b e13e 7247 26bd
00000090: 88b7 f33e 8589 ccbd c073 613c 5641 bd3e
000000a0: 97e7 473e c235 e33e d65b d8be 708d d2be
000000b0: d193 4abe 99fb edbd 5c66 023f f141 533f
000000c0: 8a19 d43e b969 a53d 6623 5dbe 4766 2c3e
000000d0: 250e 8d3e eb06 a63e 6c45 3cbd b1f3 47be
000000e0: 3704 0e3e abe3 6b3d 79a5 acbe 1a00 083e
000000f0: b743 53be 7dab c5be c62e ff3e 6481 cbbe
00000100: df0f 99be 373d ecbd 471d 733d 47ca 91be
00000110: edea 42bf a337 c9be 0c9f b93e bfdf e6be
00000120: c459 90be 1d0a f53e 6269 913d 04dd ddbe
00000130: ebbc f43e b62f 213f 5281 a9be b7b2 85be
00000140: a9a8 3a3d 1ca1 afbe 58ae 0a3e 835c c03b
00000150: 34c9 aebe f5b0 15bf c073 d23e 34d9 333e
00000160: 693c f5be 1062 8cbe e4ac 873e 6fd7 b53e
00000170: 6879 9c3d 5a9a 803e 6beb 0f3f c1bc 0bbe
00000180: d342 24bf 5e82 a73e 5323 0c3f 8d14 ddbd
00000190: e00d 513c c3b3 2e3e 5fff 833e 4d37 2fbe
000001a0: 381f 06bf 28a8 f33e fe5c 77bd c025 4ebe
000001b0: 82a4 04bf dfda ee3e de50 8bbe 121c b7be
000001c0: b961 02bf 4fc8 8fbe dd83 153f 6439 2cbd
000001d0: c3fa 43be 13d3 b2bc 8f9d 543e 7ba9 00bf
000001e0: 31ee 17bf 5de4 1fbf 8a66 bdbe 54ca 413e
000001f0: c7e2 a2be 3831 69be bd4f 533e 526f 00bf
00000200: 4adc 013f baab 02be edcf 2d3e 3d7c fb3e
00000210: 638a bc3e 7d9e 11bf 571e 823e b7c1 d83e
00000220: ef24 d3be 93b6 febe fca6 a23d 75d8 1abe
00000230: 1645 893e c358 233f 7a1f 7fbe 2613 1fbf
00000240: 9346 b1be 6f64 733e 1c92 6bbd bffa 613e
00000250: a347 50bf dbf3 4a3d d3ab 883e f280 01bf
00000260: 824f 43be 98d4 a33e 854a 553d 3b75 d9be
00000270: c022 183d 28b0 b13d 0bf3 adbe 0edb 99bc
00000280: 5e5b 85bd f1ba 913e e85d 183f aae2 ac3e
00000290: d9db 00bf efa9 11bf ad1d b83e f0dd d13e
000002a0: 2051 85bd 2842 09bf e7b1 673e 431d 19bf
000002b0: 0b5d 1bbf f3c2 0c3e f5b9 cd3e 373c a4be
000002c0: c1d1 b33e f6da 213f efb5 f73e c771 92be
000002d0: 38fb 9f3d cb15 c1bd 2c38 e8bd bc53 9fbe
000002e0: 9e62 0dbf 4475 273e 9678 a33d 09eb 1abf
000002f0: 74a4 b5bd d141 403c 7264 593e f037 b0be
00000300: a6d0 cd3e c268 6b3e 787b 16be feae 823e
00000310: 46e2 0ebf c858 413e 7010 833e ae6d 673d
00000320: f1d3 a2be 1d73 afbd 2e4e babb 5a2d 90be
00000330: 5d9c 0c3f 860e c83d afa5 3fbc 2b5e e6bc
00000340: 06e6 c33e 1d61 99bc 944b c2be 7f50 50bd
00000350: 88e1 b9bd 2e62 863e 2382 bebe 136d f63d
00000360: 1ce8 103f 959f c6be 2626 2b3e c80e 58bf
00000370: a17e c3be 7c3a e5be f2e3 95bd 3fc8 1fbe
00000380: a569 933e b636 c93e a72d e7bd d86a 2abf
00000390: d14a ea3d c2a0 373e bee8 17bf 4b04 9e3e
000003a0: 5c72 23bf 7018 ed3e 4d12 00bf ecaa 9c3e
000003b0: 0867 6dbb d0f4 21bf 6f02 4b3c 3000 37be
000003c0: 02c4 bdbe 2733 843d 9de5 8cbe 6f1c 4c3d
000003d0: 1056 ce3e e336 20be 3f9f 25bf 062d 8c3e
000003e0: 5908 ecbe 2c0a 3abf 3e22 0c3f cb02 ecbe
000003f0: 714e 4b3c 3023 203f 148b 633e b95d 19bf
-0.13063805 0.7862465 0.61818194 -0.43080068 -0.53786564 -0.3145383 0.38213927 0.121983245
0.17442863 0.15616278 -0.09744251 0.5830987 -0.68906695 0.110475 -0.023303067 0.024284465
0.5786533 -0.2386175 -0.46907252 -0.32309347 0.09886229 -0.5658795 -0.52171004 -0.04376574
-0.3972535 0.017117297 0.36079898 0.26898608 -0.017442511 0.15779251 -0.45033583 -0.58251
-0.40503636 0.27339032 0.44027376 -0.04059548 0.4760096 -0.09987167 0.013760507 0.3696391
0.19521938 0.4437695 -0.42257565 -0.41123533 -0.1978295 -0.11620254 0.5093744 0.82522494
0.41425735 0.080768056 -0.21595535 0.1683589 0.27549854 0.32427153 -0.045964643 -0.19526555
0.13868795 0.057590168 -0.33719996 0.13281289 -0.206313 -0.38607398 0.49840373 -0.39747155
-0.2989492 -0.11535113 0.059354093 -0.28474638 -0.7613972 -0.3930026 0.36254156 -0.4509258
-0.28193486 0.47859278 0.07100178 -0.43332684 0.47800383 0.62963426 -0.33106476 -0.2611291
0.045571003 -0.34302604 0.1354307 0.0058704033 -0.3413788 -0.5847314 0.41103935 0.17563325
-0.47897652 -0.27418566 0.26499093 0.35515925 0.07640344 0.2511776 0.56218594 -0.13646223
-0.64164466 0.3271665 0.547414 -0.107949354 0.012759656 0.17060761 0.2578077 -0.1711094
-0.52391386 0.4758923 -0.06039142 -0.20131588 -0.5181352 0.4665136 -0.27210134 -0.35763603
-0.5093036 -0.2808251 0.5840433 -0.04204692 -0.19138627 -0.021829164 0.20763229 -0.50258607
-0.59347826 -0.6245783 -0.36992294 0.18924838 -0.31813642 -0.22772682 0.20635886 -0.5016986
0.5072676 -0.12760821 0.16973849 0.49118224 0.3682433 -0.5688246 0.25413772 0.42335293
-0.41239116 -0.49748668 0.07942006 -0.15121634 0.2681052 0.63807315 -0.24914351 -0.62138593
-0.34624156 0.23768781 -0.057512388 0.22068308 -0.8135931 0.049548965 0.2669359 -0.5058738
-0.19073299 0.31998134 0.05207302 -0.42472252 0.037142515 0.08676177 -0.3397449 -0.018781211
-0.065115675 0.28462937 0.5951829 0.3376668 -0.5033546 -0.56899923 0.3596014 0.40989637
-0.06509614 -0.5361657 0.22626458 -0.59810275 -0.6068885 0.13746242 0.40180936 -0.3207719
0.35120967 0.6322473 0.48380992 -0.2860243 0.07811588 -0.09427985 -0.11338839 -0.31118572
-0.552286 0.16353327 0.07981984 -0.60514885 -0.088692576 0.011734442 0.21229723 -0.34417677
0.4019825 0.2298918 -0.14695537 0.25524133 -0.55814016 0.18881524 0.25598478 0.056501083
-0.31802323 -0.08566878 -0.0056855893 -0.281596 0.5492609 0.09768395 -0.011697217 -0.028121075
0.3826143 -0.018723065 -0.37948287 -0.050858017 -0.0907622 0.2624678 -0.3720866 0.12032523
0.5660417 -0.38793626 0.16713771 -0.84397554 -0.38182548 -0.44771183 -0.07318868 -0.15603732
0.28791538 0.39299554 -0.11288004 -0.6656928 0.11440051 0.17932418 -0.5933951 0.3086265
-0.63846374 0.46307707 -0.50027925 0.30599153 -0.0036224741 -0.6326418 0.012390717 -0.17871165
-0.37063605 0.06455069 -0.2751893 0.049831804 0.40300035 -0.15645938 -0.64696115 0.273781
-0.4610012 -0.7267177 0.5473975 -0.4609588 0.012408839 0.6255369 0.22221023 -0.59908634

bias f4 [64]
00000000: 9961 e53e 2f97 4a3e bb26 1fbe a9ec f6bc
00000010: 124f 9d3d c884 f13e 2dbe 1f3e ff68 ed3c
00000020: bdce 013f 9272 323e c0e4 c839 2c93 a0bd
00000030: 0567 dcbe 5557 f53e df95 81be 8873 9f3e
00000040: 3f72 eebe 7e0f e23e ba8f ab3e 33ae b83e
00000050: 1b87 cd3e 9445 9f3d 9c7e a53d cda0 a1be
00000060: 254a 113b 5019 eabd 0f64 6fbe afba 8a3c
00000070: 3831 dfbd 9d08 87be 8548 4d3e fb02 0bbf
00000080: 2ec8 cebe 9868 b93e eb84 52be d17e d23c
00000090: 3566 babe 68f9 d73e e45d a3be 8942 613e
000000a0: 0278 b53d cc44 353e d1e6 dbbe 4570 e5bc
000000b0: 10c3 edbd 9212 ef3e 4d7e e4be 377a 5dbe
000000c0: cba9 88be 943c bbbd e605 ef3e 529c 053f
000000d0: 7ab2 2ebd 7554 dd3d 4a25 cf3e de71 9abd
000000e0: 997a a73e 51a3 663c 0256 523d 55b0 fd3e
000000f0: f2b6 203e d1dd 25be 9b1a abbe bb16 833e
0.44801024 0.19784234 -0.15542118 -0.030142145 0.07681097 0.47171617 0.1559989 0.02898073
0.5070608 0.17426518 0.00038317405 -0.07840571 -0.43047348 0.47918192 -0.25309655 0.3114283
-0.46571538 0.44152445 0.33508092 0.36070403 0.4014214 0.07776943 0.080807894 -0.31567994
0.0022169438 -0.11430609 -0.23378013 0.01693472 -0.108980596 -0.2637376 0.20047195 -0.5430142
-0.403871 0.3621261 -0.20558517 0.025695236 -0.36406103 0.4218247 -0.3190757 0.21998037
0.0886078 0.17702025 -0.42949536 -0.028007636 -0.11609471 0.46693856 -0.4462761 -0.21628653
-0.26692042 -0.09142414 0.46684188 0.5219165 -0.042650677 0.108071245 0.40458137 -0.0754125
0.32710722 0.014077024 0.051351555 0.49548593 0.15694788 -0.16197897 -0.33418736 0.2560328
