experiments/pedestrians/models/06_Aug_2023_21_23_08/model_registrar-72.pt (torch, 713991 bytes, 82 tensors)

weight f4 [64, 10]
0	0xbc8e9867	-0.017406655
1	0xbcb06100	-0.021530628
2	0x3e121ae5	0.14268072
3	0x3caff5b1	0.02147946
4	0xbf3550f7	-0.7082667
5	0x3f5ce87f	0.8629226
6	0x3ca7d23a	0.020485986
7	0xbe761b70	-0.24033904
8	0xbe20347e	-0.15645024
9	0x3e00698f	0.12540267
10	0x3d36a013	0.044586252
11	0x3e966c89	0.2937968
12	0x3ebe903c	0.37219417
13	0x3d563209	0.05229381
14	0xbe6dbfe6	-0.23217735
15	0xbe380d87	-0.1797391
16	0xbe9819bd	-0.29707137
17	0xbec2b3ed	-0.38027897
18	0xbdf93e00	-0.12170029
19	0x3da62b14	0.08113685
20	0xbb9e9d62	-0.004840539
21	0x3dd1086e	0.10206686
22	0xbd323aa2	-0.043512948
23	0x3eff0d4b	0.4981483
24	0xbdcad9f4	-0.099048525
25	0xbd1b4c6c	-0.03791468
26	0xbe8c9ab7	-0.27461788
27	0xbd18c2b1	-0.037295047
28	0xbbb89f39	-0.005634215
29	0xbe27e89b	-0.16397326
30	0x3b991021	0.004671112
31	0x3cdbb386	0.026819002
32	0xbd323b3d	-0.043513525
33	0xbd77c243	-0.060487997
34	0xbf204671	-0.62607485
35	0x3f3d3119	0.7390304
36	0xbe8aae01	-0.2708588
37	0xbe56639d	-0.20936437
38	0xbd04f536	-0.032460414
39	0xbe80b274	-0.2513615
40	0x3d35bb45	0.044368047
41	0xbd2f79f6	-0.04284092
42	0x3d3dac97	0.046307173
43	0x3dfbe4f9	0.122995324
44	0x3f1d7aab	0.615153
45	0x3ee43231	0.44569543
46	0x3e8e5710	0.27800798
47	0x3e227c60	0.15867758
48	0xbe812e26	-0.2523052
49	0x3e2e10ce	0.16998598
50	0x3b81f505	0.003965976
51	0x3d4b375d	0.049613345
52	0x3ec2978e	0.38006252
53	0xbe272015	-0.16320832
54	0x3a87a14c	0.0010347753
55	0x3ede9f8b	0.43481097
56	0x3e33b5f8	0.17549884
57	0xbc0911b1	-0.008366034
58	0xbd64a549	-0.05582169
59	0x3da05ea2	0.0783055
60	0xbd28f9b5	-0.041253764
61	0x3e513806	0.20431527
62	0x3eea9c1b	0.45822224
63	0x3badbc9b	0.0053020245
64	0x3f00aaaa	0.5026041
65	0xbefe8b95	-0.49715868
66	0xbe88c880	-0.2671547
67	0x3e86868d	0.2627453
68	0x3e9bf399	0.30459288
69	0x3e640c8f	0.22270416
70	0xbd125b7a	-0.03573177
71	0xbe11b6e0	-0.14229918
72	0x3d5cb0e4	0.053879634
73	0xbeba9a49	-0.36445835
74	0xbf3864d4	-0.7202885
75	0xbeb35112	-0.3502279
76	0x3ec61bbd	0.38693038
77	0x3c3211a8	0.010868467
78	0x3d0d1f6f	0.034453806
79	0x3cc334df	0.023828922
80	0x3e16178c	0.1465742
81	0x3d8b9f38	0.06817478
82	0xbed5c2b7	-0.41750118
83	0x3c5e7de0	0.013579816
84	0xbf36cd7b	-0.7140729
85	0xbe3462f7	-0.17615877
86	0xbe1a370a	-0.15060058
87	0xbe32b816	-0.17453036
88	0x3e6978bc	0.22799963
89	0x3dcc051b	0.09961911
90	0xbd228a04	-0.039682403
91	0x3de34fab	0.1109918
92	0x3eff9fe4	0.49926674
93	0x3ea0b998	0.31391597
94	0x3d5a3461	0.05327261
95	0x3ec9a158	0.39380908
96	0x3e1064ed	0.14101
97	0xbe774b19	-0.24149741
98	0x3e94ad5c	0.29038513
99	0x3e863bcc	0.26217496
100	0xbe475b5a	-0.19468442
101	0x3e036f8c	0.1283552
102	0x3e9468ab	0.28986105
103	0x3e5f337e	0.21796986
104	0xbe8b10bf	-0.27161214
105	0xbc801bd4	-0.01563827
106	0xbdf1b6b5	-0.11802427
107	0x3e0b49b4	0.13602334
108	0x3e711c5d	0.23545976
109	0xbe80c3a4	-0.25149262
110	0x3c697bb5	0.014250685
111	0xbd7a4cbf	-0.061108347
112	0x3f0f8f11	0.56077677
113	0x3c8dc5e0	0.017306268
114	0xbf4c8764	-0.7989409
115	0xbf5ec3e9	-0.87017685
116	0x3e0f48b7	0.13992582
117	0x3ee5f2a7	0.44911692
118	0xbda171ee	-0.078830585
119	0xbc995d11	-0.018721135
120	0xbe08973d	-0.13338943
121	0x3e0e6ea4	0.13909394
122	0x3eb3ab60	0.35091686
123	0x3e0af738	0.13570869
124	0x3e31df20	0.17370272
125	0x3e7c5565	0.2464195
126	0x3e595b49	0.21226229
127	0xbd90da13	-0.07072844
128	0x3d4cbafb	0.049983006
129	0xbe2fe991	-0.17178942
130	0xbc0daf26	-0.008647716
131	0x3e19d30b	0.15021913
132	0xbb7d80ec	-0.003868158
133	0xbf24f23e	-0.6443213
134	0xbd4aab67	-0.04947987
135	0x3c6f743b	0.014615114
136	0xbd40fc55	-0.047115643
137	0xbea0262e	-0.3127913
138	0xbe3a6410	-0.18202233
139	0xbeaf1ace	-0.34200138
140	0x3d1086d1	0.03528482
141	0xbe28b832	-0.16476515
142	0xbeab683c	-0.33477962
143	0x3eb47897	0.35248253
144	0xbe380fc2	-0.17974761
145	0xbc9da42f	-0.019243328
146	0x3eab28d7	0.33429596
147	0x3ddf8172	0.109133616
148	0x3d998b3c	0.0749726
149	0x3ee2797f	0.4423332
150	0x3c90da40	0.017682195
151	0x3cc856c9	0.024455445
152	0x3d3472b5	0.044054706
153	0xbeba1c55	-0.3634974
154	0x3eccb60e	0.39982647
155	0xbf4da200	-0.8032532
156	0xbe64b4ee	-0.22334644
157	0x3e30b252	0.17255524
158	0xbe53699a	-0.20645753
159	0x3de1fe7e	0.11034869
160	0xbe3b2f61	-0.18279792
161	0x3e814368	0.2524674
162	0xbcc2656c	-0.023730002
163	0x3d74e42c	0.059787914
164	0xbf5a9b34	-0.8539307
165	0xbdf070be	-0.11740254
166	0x3cd57c2b	0.026060184
167	0x3e4b1a0e	0.19834158
168	0xbd4bb5dd	-0.049733985
169	0x3eb76096	0.35815877
170	0x3e902a15	0.28157106
171	0x3ec4678a	0.38360244
172	0x3e3920f7	0.18078981
173	0x3ebe6368	0.37185216
174	0xbe3873cd	-0.18012924
175	0x3f3affa3	0.7304632
176	0x3c1cf991	0.009580986
177	0x3c78facb	0.015196512
178	0xbd686ba0	-0.056743264
179	0x3de6b403	0.11264803
180	0x3cd791a7	0.02631457
181	0x3e0baba3	0.13639693
182	0x3f28a3b8	0.65874815
183	0xbe717720	-0.23580599
184	0xbdf605fc	-0.1201286
185	0x3e220ff2	0.15826395
186	0x3e833bfe	0.25631708
187	0x3bd9958b	0.0066401414
188	0x3e35900a	0.17730728
189	0x3e90d6f0	0.28288984
190	0x3e8fdba7	0.2809727
191	0x3e529880	0.20565987
192	0xbee315bc	-0.4435252
193	0xbe0061d8	-0.12537324
194	0xbf1115b1	-0.56673723
195	0xbe353e1c	-0.17699474
196	0x3daa37c9	0.083114214
197	0x3e0ae41b	0.13563578
198	0xbe6d7cfd	-0.2319221
199	0x3e6c5133	0.2307785
200	0x3abcf361	0.0014415794
201	0x3d638623	0.055547845
202	0xbe81d9f5	-0.253616
203	0x3e8d8d47	0.2764685
204	0x3eb452ec	0.35219514
205	0xbf180772	-0.5938636
206	0xbcde784d	-0.027156973
207	0xbe28c9b3	-0.16483192
208	0x3e5127b7	0.20425306
209	0xbdf8fa74	-0.12157145
210	0xbe76bc6c	-0.24095315
211	0xbd3dcd86	-0.04633858
212	0xba33f485	-0.00068647444
213	0x3d6643cc	0.056217
214	0x3f15acda	0.58466876
215	0x3f74fff3	0.9570305
216	0x3ebdaa25	0.37043872
217	0x3e35fbc8	0.17771828
218	0x3e59e778	0.21279705
219	0xbc38ffbb	-0.01129144
220	0xb9a2ab28	-0.0003102657
221	0x3e8f343d	0.27969542
222	0xbe8782f6	-0.26467103
223	0x3d841cdd	0.06450818
224	0x3eef8d0f	0.46787307
225	0x3ed9f1ab	0.4256719
226	0x3e6c621e	0.23084304
227	0x3e829130	0.25501394
228	0x3dc5b331	0.09653319
229	0xbe21cc84	-0.15800673
230	0xbc2f9aea	-0.010718087
231	0xbe5b944e	-0.21443292
232	0xbe0ce39f	-0.13758706
233	0x3f0936f0	0.5359945
234	0xbdb41d32	-0.08794631
235	0xbf02aad6	-0.51041925
236	0xbe1076e0	-0.14107847
237	0x3d604972	0.054757543
238	0xbe131b94	-0.14365989
239	0x3dec6456	0.11542575
240	0x3ddf4342	0.109015
241	0xbe85cd91	-0.26133397
242	0x3e153aff	0.14573286
243	0xbe67b77e	-0.2262859
244	0x3eb7f6ef	0.35930583
245	0x3ed44b36	0.4146363
246	0xbd1f8edb	-0.038954597
247	0xbec8e75b	-0.3923901
248	0xbe064e28	-0.13115752
249	0xbebcb01b	-0.36853108
250	0xbe0cf2b8	-0.13764465
251	0xbde9ca93	-0.11415591
252	0x3e51b912	0.20480755
253	0x3eee3876	0.4652745
254	0xbe5adb8d	-0.21372814
255	0xbef9d329	-0.48793915

bias f4 [64]
0	0xbe52840c	-0.20558184
1	0xbde6bf96	-0.11267011
2	0xbe813399	-0.25234678
3	0x3e916820	0.28399754
4	0x3e114f1d	0.14190336
5	0x3e94070b	0.28911623
6	0xbe9084e9	-0.28226402
7	0xbaa77eb2	-0.0012778847
8	0x3d9fcac4	0.07802346
9	0x3e6877be	0.22701928
10	0xbcae34ba	-0.021265376
11	0x3ef88de6	0.4854576
12	0xbde6b289	-0.11264522
13	0x3d16047c	0.03662537
14	0xbc978034	-0.01849375
15	0xbd408f9d	-0.04701196
16	0xbe07908c	-0.13238734
17	0xbe6f5364	-0.23371655
18	0x3e70aac8	0.23502648
19	0x3e01c715	0.126736
20	0xbdcb035b	-0.099127494
21	0x3e30da1a	0.17270699
22	0x3e31690e	0.17325231
23	0xbe12c8e7	-0.1433445
24	0xbe467eaf	-0.19384263
25	0x3dc95ad7	0.098317795
26	0x3cfaa22b	0.030594906
27	0xbe1df3e8	-0.15425074
28	0xbe9d3009	-0.3070071
29	0x3d140d25	0.036145348
30	0x3e257d93	0.16161184
31	0xbe8f1c3a	-0.27951223
32	0xbe1c9398	-0.15290678
33	0x3dd37863	0.10325696
34	0xbe950797	-0.29107353
35	0x3e77f44a	0.24214283
36	0x3e627a23	0.22116904
37	0xbde02841	-0.10945178
38	0xbe12b264	-0.14325863
39	0x3dcf16c4	0.10111764
40	0xbe1b5028	-0.15167296
41	0x3e980f3a	0.29699117
42	0x3cd66c23	0.02617461
43	0xbddaac20	-0.106773615
44	0xbe4cb1bc	-0.19989675
45	0x3dd3c134	0.10339585
46	0xbe19d00a	-0.15020767
47	0xbe90b2b9	-0.28261355
48	0x3e0fb2fd	0.14033122
49	0xbe08aceb	-0.13347213
50	0x391365e0	0.00014056964
51	0x3e76b5fd	0.2409286
52	0xbec118ab	-0.37714133
53	0xbeb4ce7b	-0.35313782
54	0xbee63430	-0.4496169
55	0x3dedd2a0	0.11612439
56	0x3d061995	0.03273924
57	0x3e8c5e54	0.27415717
58	0x3e5fd4d6	0.21858534
59	0x3ebdb060	0.37048626
60	0xbeafd601	-0.3434296
61	0x3e008af3	0.12553005
62	0x3eb5af26	0.3548519
63	0xbe041ef9	-0.1290244

weight f4 [32, 32]
0	0xbdcae3a6	-0.09906702
1	0xbe446802	-0.19180301
2	0x3e5ae68a	0.21377006
3	0x3c6b0123	0.014343533
4	0xbe170af5	-0.14750274
5	0x3c8af504	0.016962536
6	0xbd7eaf30	-0.06217879
7	0x3daa7ad1	0.083242066
8	0xbe248f43	-0.16070275
9	0xbf0c1ce9	-0.54731613
10	0x3de6956f	0.11258971
11	0x3d6ba6f9	0.057532284
12	0xbd02929f	-0.03187811
13	0x3e4b3f18	0.19848287
14	0xbe4c6a60	-0.19962454
15	0x3e95cb3b	0.29256615
16	0x3c85ae88	0.016318575
17	0x3e883744	0.26604664
18	0x3e39147f	0.18074225
19	0x3eb0faef	0.34566447
20	0xbe997478	-0.2997167
21	0x3e46c6f1	0.19411828
22	0x3c088035	0.008331348
23	0xbf02f0e7	-0.5114884
24	0xbd44fc64	-0.04809226
25	0x3e09a50d	0.13441868
26	0x3e2ca067	0.16858064
27	0x3e093bc9	0.13401712
28	0x3e217a1b	0.15769236
29	0x3def4d09	0.11684615
30	0xbd8a5770	-0.06754959
31	0x3ea6c495	0.32571855
32	0x3e2f2a30	0.17105937
33	0xbd3856d8	-0.045004696
34	0xbf135854	-0.57556653
35	0x3da00259	0.07812948
36	0xbe5b82e9	-0.21436657
37	0x3d6b2f99	0.05741844
38	0x3e340748	0.17580903
39	0xbd9153f1	-0.07096089
40	0xbeb66a3a	-0.3562792
41	0xbeae9272	-0.34096104
42	0xbe8d34c7	-0.27579328
43	0xbe9f4639	-0.31108263
44	0x3ea83d41	0.32859233
45	0xbd045cac	-0.03231494
46	0xbd4d5e1e	-0.050138585
47	0xbdd37f46	-0.1032701
48	0x3c6f44b6	0.014603784
49	0x3e55821a	0.20850411
50	0x3e7b54f9	0.24544133
51	0x3eee3952	0.46528107
52	0x3e322501	0.17396928
53	0xbddb68d7	-0.10713356
54	0xbd0f3bf2	-0.034969278
55	0x3d8cb6e7	0.06870823
56	0x3db928de	0.09040998
57	0xbccaed9b	-0.024771502
58	0x3e21ad66	0.15788803
59	0x3e1c2f71	0.15252472
60	0xbe502a3b	-0.2032861
61	0xbea4ca19	-0.32185438
62	0x3e6490ef	0.22320913
63	0xbde3a648	-0.111157
64	0x3e94e427	0.29080316
65	0xbe5e4b60	-0.21708441
66	0x3e2a01c6	0.16602239
67	0xbf21a5f9	-0.6314388
68	0xbe7c4c21	-0.24638416
69	0x3d22e675	0.039770562
70	0xbe5c59ff	-0.21518706
71	0xbe5df075	-0.21673758
72	0xbe483574	-0.19551641
73	0x3e675cf4	0.22594053
74	0x3e2cede6	0.16887626
75	0xbdd0ad44	-0.10189298
76	0xbed6df1d	-0.41967097
77	0x3ec34dc1	0.3814526
78	0xbec85161	-0.39124587
79	0x3cc284b1	0.023744913
80	0x3d611325	0.0549499
81	0x3ecd1516	0.4005515
82	0x3ec070e9	0.37586144
83	0xbf01fd93	-0.5077755
84	0xbda3b75b	-0.07993957
85	0x3d9e4e3f	0.07729768
86	0xbe07bc5c	-0.13255447
87	0xbeba52f3	-0.3639141
88	0xbdc72378	-0.09723562
89	0xbdb4a800	-0.08821106
90	0x3cec18d9	0.028820442
91	0xbdcc58c1	-0.09977866
92	0x3e5d666a	0.21621099
93	0xbe6ea71f	-0.23305939
94	0xbe8b257e	-0.27177042
95	0xbd3e7456	-0.046497665
96	0x3ea6faff	0.3261337
97	0xbe4d7db6	-0.20067486
98	0x3e3c5c15	0.18394502
99	0x3e3c3c7f	0.18382452
100	0xbdfc8f90	-0.1233207
101	0x3e441ccc	0.1915161
102	0x3ebd5dd9	0.36985663
103	0xbe74b0b7	-0.23895536
104	0xbe58cb3f	-0.21171282
105	0x3e960ca6	0.29306525
106	0x3e04aa7f	0.12955664
107	0xbe1c1193	-0.15241079
108	0x3eb0edbf	0.34556386
109	0xbe37a7f1	-0.17935158
110	0xbd3e1fb7	-0.046416964
111	0xbc6241f6	-0.013809672
112	0xbe84f87c	-0.2597083
113	0x3d18ddaa	0.03732077
114	0xbe221547	-0.15828429
115	0x3e93ef6f	0.2889361
116	0xbd4b5442	-0.0496409
117	0x3d21b84b	0.039482396
118	0x3e252671	0.16127945
119	0x3d733929	0.059380684
120	0xbd8bdcce	-0.068292245
121	0x3bc8af47	0.0061244103
122	0x3db4f437	0.08835643
123	0x3eb714f5	0.35758176
124	0xbde1712f	-0.11007916
125	0xbb36dd36	-0.0027902848
126	0x3e7865b4	0.24257547
127	0x3d8b1e81	0.067929275
128	0xbea8843e	-0.32913393
129	0xbd4669d8	-0.048440784
130	0x3e616186	0.22009858
131	0xbdfbf17c	-0.12301919
132	0x3e3f0423	0.18653922
133	0xbdceee4c	-0.10104045
134	0x3dae8e69	0.08523256
135	0x3e8f38e5	0.27973095
136	0x3d9a47f3	0.075332545
137	0xbe942e2a	-0.2894147
138	0x3dc0846a	0.09400256
139	0x3e48c2dc	0.19605583
140	0xbe0221b1	-0.12708165
141	0x3dad4795	0.08460919
142	0x3cfe574f	0.031047491
143	0x3d6bb003	0.057540905
144	0xbda97c06	-0.08275609
145	0xbbaf8c98	-0.0053573363
146	0x3d932e62	0.07186581
147	0x3e91b76f	0.2846026
148	0x3e3cbb63	0.18430857
149	0xbeb74eab	-0.35802206
150	0x3e157638	0.14595878
151	0x3e290b2a	0.16508165
152	0x3e2b3ffe	0.1672363
153	0x3ec5dbe2	0.3864432
154	0xbba31ef4	-0.004978055
155	0xbe770a1e	-0.24124953
156	0x3da08638	0.078381
157	0x3ebc6647	0.3679678
158	0x3cc1ba00	0.023648262
159	0xbe28a25a	-0.16468182
160	0x3ef80a9d	0.48445597
161	0xbd436abb	-0.047709208
162	0x3c38b269	0.011273005
163	0xbf022fef	-0.5085439
164	0xbc9f33ad	-0.01943382
165	0x3e73b976	0.23801216
166	0xbcafebfa	-0.021474827
167	0xbe0617b0	-0.13094974
168	0xbcaf77e4	-0.021419473
169	0x3e18208b	0.14856164
170	0x3de0466f	0.10950934
171	0x3dc78543	0.097422145
172	0xbe143e36	-0.14476857
173	0x3e24a833	0.16079788
174	0xbe73b822	-0.2380071
175	0xbde3c2c6	-0.111211345
176	0xbdb7cae2	-0.08974244
177	0xbe0116b3	-0.12606315
178	0x3df41198	0.11917418
179	0xbec4a993	-0.38410625
180	0xbe085d44	-0.13316828
181	0x3de3a00f	0.11114513
182	0xbe5bced6	-0.2146562
183	0xbbb3d61a	-0.0054881694
184	0xbe561144	-0.20905024
185	0x3eabdb95	0.33565965
186	0x3cf7f1e5	0.030266711
187	0x3d0a7d38	0.033810824
188	0xbdc65dd1	-0.09685863
189	0xbe901a70	-0.2814517
190	0xbd6175fb	-0.055044156
191	0x3d2ec8ab	0.04267184
192	0xbe38fbbe	-0.18064782
193	0x3bbf016c	0.005829027
194	0x3df3f688	0.119122565
195	0x3d4414b4	0.047871307
196	0x3c925014	0.01786045
197	0xbe00f51c	-0.12593502
198	0x3f0456cc	0.5169494
199	0x3e9506c1	0.29106715
200	0x3de6d7a3	0.11271598
201	0x3e3146ff	0.17312239
202	0x3d4ecfe3	0.050491225
203	0x3eba8174	0.3642689
204	0xbe4eb8ae	-0.20187637
205	0xbe42bc09	-0.19017042
206	0x3e6a30f8	0.22870243
207	0xbe248361	-0.16065742
208	0xbdaaa5ef	-0.083324306
209	0xbe95a38f	-0.29226348
210	0xbe852f29	-0.26012543
211	0x3d870ea4	0.06594589
212	0x3d3e4310	0.046450675
213	0xbeb70370	-0.3574481
214	0x3ebab775	0.36468092
215	0x3ee95733	0.4557434
216	0x3e3dec61	0.18547203
217	0x3e4a2f45	0.19744594
218	0x3d4f54cb	0.050617974
219	0xbe042008	-0.12902844
220	0xbde48a29	-0.111591645
221	0xbc292923	-0.010324749
222	0x3dae9d1e	0.085260615
223	0xbdc2866b	-0.094982944
224	0x3e6921a0	0.22766733
225	0xbce607bf	-0.028079866
226	0x3e2dffc2	0.16992095
227	0xbe8d8daa	-0.27647144
228	0x3dbaf350	0.091284394
229	0x3e7c6b12	0.24650219
230	0x3e9a1213	0.30091915
231	0x3e395de1	0.18102218
232	0xbdfe3030	-0.12411535
233	0x3be0369f	0.006842449
234	0xbde66368	-0.11249429
235	0x3e469686	0.19393358
236	0x3e945b09	0.28975704
237	0x3de94589	0.11390216
238	0xbcef0478	-0.029176936
239	0x3e8dd2bb	0.27699837
240	0x3dad580d	0.0846406
241	0x3e1fd142	0.1560717
242	0x3d116fbf	0.03550696
243	0x3ef4f12f	0.47840258
244	0x3e1bb90f	0.15207313
245	0x3d913617	0.07090395
246	0x3dca7875	0.098862566
247	0xbd6c5673	-0.057699632
248	0x3e2d921c	0.16950268
249	0x3dccf100	0.100069046
250	0x3da0847b	0.07837769
251	0x3e594ea6	0.21221408
252	0x3d0f2124	0.034943715
253	0xbd90edcc	-0.07076606
254	0x3e30a8a5	0.17251833
255	0xbdc13a93	-0.09435

bias f4 [32]
0	0xbe2bcddc	-0.16777748
1	0xbda3b77d	-0.07993982
2	0x3e61692e	0.22012779
3	0xbd9a4b99	-0.0753395
4	0xbe5e58d7	-0.21713577
5	0x3df40ad8	0.11916131
6	0x3d8a3346	0.06748061
7	0x3e201b75	0.15635474
8	0x3dc56288	0.09637934
9	0xbcac7444	-0.021051534
10	0x3dfb4e86	0.122708365
11	0x3e23fd71	0.16014649
12	0xbdd11be9	-0.102104016
13	0xbb92ffa7	-0.0044860425
14	0xbd0d75a2	-0.03453601
15	0x3e39d16a	0.18146291
16	0xbe407916	-0.1879619
17	0x3db24712	0.08704962
18	0x3d4280a8	0.047485977
19	0xbd2e572a	-0.042563595
20	0x3e1f662d	0.1556632
21	0xbdecf616	-0.11570375
22	0xbdb01214	-0.08597198
23	0x3dbc4a21	0.091938265
24	0xbdbd112b	-0.0923179
25	0x3d85a9d4	0.06526533
26	0xbe389e29	-0.18029083
27	0xbe85a658	-0.26103473
28	0xbe503ad8	-0.20334947
29	0xbe37b986	-0.17941865
30	0xbcaca939	-0.021076785
31	0xbc979c77	-0.018507225

weight f4 [32, 64]
0	0xbd50c808	-0.050972015
1	0x3b87ada0	0.0041405708
2	0xbd7e4a08	-0.06208232
3	0x3d411508	0.047139198
4	0xbdda2048	-0.106506884
5	0x3dbba8c4	0.09163049
6	0xbdba1234	-0.09085503
7	0xbdcb87de	-0.09938024
8	0xbda1c35a	-0.078985885
9	0x3d67e1a8	0.056611687
10	0xbd3d2e14	-0.04618652
11	0x3d3f98e4	0.046776667
12	0xbdd94654	-0.10609117
13	0xbd9b523e	-0.07584046
14	0xbd3bfe80	-0.045897007
15	0xbcc93c78	-0.024564967
16	0xbdc34b04	-0.095357925
17	0x3da7a05e	0.081848845
18	0xbcf17db8	-0.029478893
19	0x3d245880	0.040123463
20	0x3db5075c	0.08839294
21	0x3cbec700	0.02328825
22	0x3d0c01bc	0.03418134
23	0x3df71b32	0.12065734
24	0xbd66eab4	-0.056376174
25	0x3d222d38	0.039593905
26	0xbd63cc0c	-0.055614516
27	0x3db6f348	0.08933121
28	0x3dcc74c0	0.09983206
29	0xbdec0660	-0.115246534
30	0x3dda8888	0.106705725
31	0x3d747cc4	0.0596893
32	0x3d5f1cdc	0.05447088
33	0x3d52c70c	0.051459357
34	0x3dd4d004	0.10391238
35	0xbc873560	-0.016504943
36	0xbdd87fb2	-0.10571231
37	0xbd12eaf8	-0.035868615
38	0xbdb44b58	-0.08803433
39	0x3c0762f0	0.008263335
40	0xbcbf3040	-0.023338437
41	0xbd895086	-0.06704812
42	0xbc3a3500	-0.011365175
43	0x3df2890e	0.11842547
44	0xbc218970	-0.009859428
45	0x3b820c60	0.0039687604
46	0xbc9fb420	-0.01949507
47	0x3ca0fae0	0.019650877
48	0x3de41968	0.11137658
49	0x3d9c8acc	0.07643661
50	0x3d35bd84	0.04437019
51	0x3cde86a8	0.027163818
52	0x3cf173b0	0.02947411
53	0x3d45cd78	0.048291653
54	0xbc845328	-0.016152933
55	0xbdededbc	-0.1161761
56	0xbd9e503e	-0.07730149
57	0x3dda8498	0.106698215
58	0x3bf4d500	0.0074716806
59	0xbdcf60fa	-0.10125919
60	0x3ca18350	0.019715935
61	0x3dd3868a	0.10328396
62	0xbdf1eb80	-0.11812496
63	0xbdac596a	-0.08415492
64	0xbd4be978	-0.0497832
65	0x3ba46740	0.005017191
66	0xbceed3b0	-0.029153675
67	0xbc610ea0	-0.013736397
68	0xbdf99266	-0.121861264
69	0x3d6fc248	0.05853489
70	0x3de0b3c8	0.109717906
71	0x3d9c7a1e	0.076404795
72	0xbdb5482a	-0.08851655
73	0xbdce5cca	-0.10076292
74	0x3d549bf4	0.05190654
75	0x3b37fb00	0.0028073192
76	0x3d51e278	0.051241368
77	0xbdfa2698	-0.122143924
78	0xbbf43740	-0.0074528754
79	0x3db48ada	0.08815546
80	0x3d6d85cc	0.057988927
81	0x3b959340	0.0045646727
82	0x3cc95680	0.02457738
83	0xbc41e7a0	-0.011835009
84	0xbd8cc1e4	-0.06872919
85	0xbd417c04	-0.04723741
86	0xbd9be618	-0.07612246
87	0x3dd4a2ce	0.10382615
88	0x3d8cdf96	0.06878583
89	0x3d330ed8	0.043715328
90	0xbdc45072	-0.09585656
91	0x3dc58902	0.09645273
92	0x3d2088ac	0.03919284
93	0x3db11974	0.08647433
94	0xbd496a6c	-0.049173757
95	0x3cd915b8	0.026499614
96	0x3df9f432	0.1220478
97	0x3dac3364	0.084082395
98	0x3dcd4fa8	0.10024959
99	0xbcd70640	-0.026248097
100	0x3dc30a62	0.09523465
101	0xbdc881e8	-0.09790403
102	0x3c312120	0.01081112
103	0xbd90245e	-0.070381865
104	0xbceecff8	-0.029151902
105	0xbd031f34	-0.03201218
106	0x3c193ac0	0.009352386
107	0x3de8feea	0.11376746
108	0x3d7d7ba4	0.06188549
109	0xba0ad000	-0.00052952766
110	0x3db5b870	0.08873069
111	0xbd83304a	-0.06405695
112	0x3d83ef62	0.06442143
113	0xbc3deaa0	-0.0115915835
114	0xbcb22fe8	-0.02175136
115	0x3c6fc430	0.014634177
116	0xbdc41eea	-0.09576209
117	0x3c6ca950	0.014444664
118	0x3d2c2764	0.042029753
119	0x3ddadcce	0.106866464
120	0xbd1f685c	-0.038917884
121	0x3d385588	0.045003444
122	0x3dffe006	0.12493901
123	0xbd5ba1d4	-0.05362113
124	0x3df35a06	0.11882405
125	0xbd7e3434	-0.062061504
126	0x3d61afe0	0.055099368
127	0x3d489378	0.048968762
128	0x3d0f0418	0.034916013
129	0x3dca7212	0.098850384
130	0xbd4eeea4	-0.050520554
131	0x3d069038	0.03285238
132	0x3a37e600	0.00070151687
133	0xbdc08c5a	-0.0940177
134	0xbcf8a438	-0.030351743
135	0xbdaaf674	-0.083477885
136	0x3d626230	0.05526942
137	0x3c381b60	0.011236995
138	0x3c48a1b0	0.012245581
139	0xbd1b5368	-0.03792134
140	0x3a1d9100	0.00060106814
141	0xbd1f410c	-0.038880393
142	0x3d131db8	0.035917014
143	0x3df89e94	0.121396214
144	0x3c9b1b18	0.018933818
145	0xbd62c630	-0.055364788
146	0xbd9c5f3a	-0.076353505
147	0x3c1c8c10	0.009554878
148	0xbdbde9a2	-0.092730775
149	0xbdc06c26	-0.09395628
150	0xbda69fe0	-0.081359625
151	0xbd2de5ec	-0.0424556
152	0x3c179680	0.009252191
153	0x3db048da	0.08607645
154	0x3d465158	0.04841742
155	0x3dc4205c	0.095764846
156	0xbda0bde2	-0.07848717
157	0x3c2cd3b0	0.010548517
158	0xbde38db0	-0.11111009
159	0x3d92db32	0.071707144
160	0x3cd56968	0.026051238
161	0x3df79b62	0.12090184
162	0xbdb61200	-0.08890152
163	0x3dcd4b46	0.10024123
164	0x3dd81f3a	0.10552831
165	0x3dcefb02	0.1010647
166	0x3c921e98	0.017836854
167	0x3de8c688	0.11365992
168	0x3daaf73c	0.083479375
169	0x3dbeff0e	0.093259916
170	0xbc050a30	-0.008120105
171	0xbdc47434	-0.095924765
172	0xbacbe200	-0.0015555024
173	0x3cc00a08	0.023442283
174	0xbdae6118	-0.08514613
175	0xbd92da04	-0.071704894
176	0xbdf57068	-0.119843304
177	0xbd337af4	-0.04381843
178	0x3ddefe58	0.10888356
179	0x3caf1998	0.021374509
180	0xbbfa2f20	-0.0076350123
181	0x3ba47cc0	0.005019754
182	0x3d9fa0b0	0.077943206
183	0xbde21074	-0.110382944
184	0xbdc586e6	-0.096448705
185	0xbd2a3990	-0.041558802
186	0xbd935528	-0.07193977
187	0x3d840a7e	0.06447314
188	0x3db4e2a8	0.08832294
189	0xbdf860b8	-0.12127823
190	0xbdd94312	-0.10608496
191	0xbdf94c20	-0.12172723
192	0x3d412780	0.04715681
193	0x3dce0af2	0.100606814
194	0xbdc67cb0	-0.09691751
195	0xbd6d08a0	-0.057869554
196	0x3d22edd0	0.039777577
197	0xbda72a0c	-0.08162317
198	0x3dd9777e	0.106184945
199	0x3ceec1d0	0.029145151
200	0xbd0e884c	-0.03479795
201	0x3c0504d0	0.008118823
202	0x3d1fa020	0.038971066
203	0xbd350cc8	-0.044201642
204	0xbdc65cf4	-0.09685698
205	0x3a5c4100	0.000840202
206	0x3b153780	0.0022768676
207	0x3b253180	0.0025206506
208	0xbc956ec0	-0.018241286
209	0x3da45eee	0.08025919
210	0xbd0ee0d8	-0.034882396
211	0xbc463b40	-0.012099087
212	0x3d528730	0.051398456
213	0xbda122ce	-0.078679666
214	0x3d0917a8	0.033469826
215	0xbce26c28	-0.027639464
216	0x3d7597c4	0.059959188
217	0xbd8adef2	-0.06780805
218	0x3b9761a0	0.004619792
219	0x3c485ac0	0.012228668
220	0xbdcdfa0a	-0.10057457
221	0xbdba25fe	-0.09089278
222	0x3d445bdc	0.047939166
223	0xbd15055c	-0.036382064
224	0x3d98099c	0.07423708
225	0xbdfce490	-0.12348282
226	0xbd7d18a4	-0.061791077
227	0xbdd2db82	-0.10295774
228	0x3d4c8784	0.049933925
229	0xbb6d7f40	-0.0036239177
230	0xbcbeff78	-0.023315176
231	0xbcaa5d40	-0.020796418
232	0xbdc81a24	-0.09770611
233	0x3d11335c	0.03544937
234	0x3b4c3140	0.0031157285
235	0xbdb0ab3e	-0.08626412
236	0x3d40a8c8	0.047035962
237	0xbb24a6c0	-0.0025123805
238	0xbdf796fc	-0.12089345
239	0x3d89b524	0.06724003
240	0x3d88ee5c	0.066860884
241	0xbcc0ee98	-0.02355127
242	0xbdb0c08e	-0.08630477
243	0x3ba47460	0.005018756
244	0x3dc12c24	0.09432247
245	0x3dea53b6	0.11441748
246	0xbdc13aa4	-0.09435013
247	0xbd674128	-0.056458622
248	0x3dc753ee	0.09732805
249	0x3d7a4124	0.06109728
250	0x3d9e77a2	0.07737662
251	0xbd7ed708	-0.06221679
252	0x3ddc8d86	0.10769181
253	0xbdd272ea	-0.10275824
254	0xbbc54cc0	-0.006021112
255	0x3b2a1700	0.002595365

bias f4 [32]
0	0x3bc4a0e0	0.006000623
1	0xbdf590fa	-0.11990543
2	0x3c824228	0.015900686
3	0x3d34205c	0.043976173
4	0x3de51af6	0.11186783
5	0xbd25f43c	-0.040516123
6	0x3d38ac5c	0.04508625
7	0xbd2b9140	-0.041886568
8	0xbd340bb4	-0.043956473
9	0xbde2d6e8	-0.11076146
10	0x3cd823a8	0.02638419
11	0x3dabc6c2	0.083875194
12	0xbd8e6972	-0.06953706
13	0x3d5152e4	0.05110444
14	0xbc9fbaf8	-0.019498333
15	0xbdb5c1a4	-0.08874825
16	0x3c5a6040	0.013328612
17	0xbdf978e2	-0.1218126
18	0x3d893b9e	0.06700824
19	0xbce24198	-0.027619168
20	0x3debc534	0.11512223
21	0x3b973520	0.0046144873
22	0xbdf8308a	-0.12118633
23	0x3dc6a8d2	0.09700169
24	0xbcdffb10	-0.027341396
25	0xbdaf5ae6	-0.085622594
26	0x3dec5cbc	0.11541125
27	0x3c3f4760	0.011674732
28	0x3d25ff34	0.040526584
29	0xbddd7652	-0.108135834
30	0xbd34d278	-0.04414603
31	0x3dcd66e6	0.10029392

weight_ih_l0 f4 [128, 32]
0	0xbd1f04d9	-0.038822982
1	0x3d918753	0.07105889
2	0xbdbd4a97	-0.092427425
3	0x3bf056eb	0.00733458
4	0xbe36e1ef	-0.17859624
5	0x3e43f2e2	0.19135621
6	0xbe1d88be	-0.15384194
7	0xbec0d63d	-0.3766345
8	0xbdff584b	-0.124680124
9	0x3e8a82cd	0.27052918
10	0xbe4f0890	-0.2021811
11	0xbe002955	-0.12515767
12	0x3cecf2a8	0.028924301
13	0xbdaff32a	-0.08591302
14	0x3deba0ed	0.115053035
15	0x3e5756f6	0.21029267
16	0x3d992e07	0.07479482
17	0x3e247c6d	0.1606309
18	0xbe8b090b	-0.27155337
19	0x3d445031	0.04792804
20	0xbe9a9be4	-0.3019706
21	0xbd990de1	-0.0747335
22	0xbe81e36c	-0.25368822
23	0xbea55ae5	-0.3229591
24	0xbe2c327c	-0.16816133
25	0xbe80a94c	-0.25129163
26	0xbd2b3098	-0.04179439
27	0xbc80740e	-0.01568034
28	0x3d80dab2	0.06291713
29	0xbe571a4b	-0.21006124
30	0x3e8cf79b	0.27532658
31	0xbed220b1	-0.41040567
32	0xbae91fd8	-0.001778598
33	0xbe0364ce	-0.12831423
34	0xbe8c8438	-0.27444625
35	0xbe28f121	-0.16498233
36	0x3d9f7d8d	0.07787619
37	0x3d7f2c06	0.062297843
38	0x3dad615f	0.08465838
39	0xbe7b0edf	-0.24517392
40	0xbde368c9	-0.111039706
41	0x3e905e77	0.2819707
42	0x3e1433a0	0.14472818
43	0x3adeda5f	0.0017002336
44	0x3eb0a7e0	0.34503078
45	0x3d2ca5e1	0.042150382
46	0xbd8c9e4d	-0.06866131
47	0xbe71f29f	-0.23627709
48	0x3b8b2100	0.0042458773
49	0x3d98d339	0.074621625
50	0xbdd183b5	-0.10230199
51	0x3dec6395	0.11542431
52	0xbeac5b17	-0.33663246
53	0xbd881445	-0.06644491
54	0xbcdfb198	-0.027306363
55	0xbed3fdc8	-0.41404557
56	0x3d99611c	0.07489225
57	0x3d02c8d1	0.031929795
58	0x3e44f39e	0.19233558
59	0x3cd7f521	0.026362004
60	0xbd632a48	-0.055460244
61	0x3cf7020e	0.030152347
62	0x3e233139	0.15936746
63	0xbe0fbb3f	-0.14036272
64	0x3e0d51ef	0.13800786
65	0x3e8e4549	0.27787235
66	0x3dbf3583	0.093363784
67	0xbe340e15	-0.17583497
68	0x3da74662	0.08167721
69	0xbe6b138e	-0.22956678
70	0x3d5ec8dc	0.054390773
71	0xbea939be	-0.33051866
72	0x3c88b892	0.016689572
73	0x3e87b2e5	0.26503673
74	0x3e44ac2b	0.19206302
75	0xbe908487	-0.2822611
76	0xbdaf2836	-0.085525915
77	0xbddd6dbd	-0.108119465
78	0x3cd30ed2	0.025763903
79	0xbe0fe5a9	-0.14052452
80	0x3ecf1d25	0.40451923
81	0x3eeba90a	0.46027404
82	0xbc980bf9	-0.018560397
83	0x3e0648b3	0.1311367
84	0xbd435450	-0.04768783
85	0x3e02d845	0.12777813
86	0xbe909fc1	-0.28246883
87	0xbf1c2eba	-0.610088
88	0xbdb0c053	-0.08630433
89	0xbed8d5e6	-0.42350692
90	0x3e0851ae	0.13312408
91	0x3e907773	0.28216133
92	0x3e154066	0.14575347
93	0xbe2b8061	-0.16748191
94	0x3ca110df	0.019661365
95	0xbc0c6c45	-0.008570735
96	0x3d4a0295	0.04931887
97	0x3d24ffc1	0.04028297
98	0xbe17fe31	-0.1484306
99	0xbf0929e6	-0.53579557
100	0xbe451d7b	-0.19249527
101	0xbdce1fe1	-0.10064674
102	0x3d6dbf40	0.05804372
103	0xbf225c03	-0.6342165
104	0x3d9fc011	0.07800306
105	0x3e8a1110	0.26966143
106	0xbdfe32f3	-0.124120615
107	0x3e47dac4	0.19517046
108	0x3eb9afee	0.36267036
109	0xbe1e9a87	-0.15488635
110	0x3e14e5f8	0.14540851
111	0x3ea947bf	0.3306255
112	0x3da3146f	0.07962882
113	0x3e74ac61	0.23893882
114	0xbe5e3326	-0.21699199
115	0xbe656ab6	-0.22403988
116	0x3cbcb87f	0.023037193
117	0xbe7528ba	-0.23941317
118	0xbe33be03	-0.17552952
119	0xbf14b6a0	-0.58091164
120	0xbe1bdb42	-0.15220359
121	0xbe9f49b5	-0.31110922
122	0xbd1d522c	-0.038408443
123	0x3db3c9cc	0.08778724
124	0xbbe11662	-0.0068691233
125	0x3dcb9def	0.09942233
126	0x3d0b202e	0.033966236
127	0xbd069557	-0.032857265
128	0xbdfba3db	-0.12287112
129	0x3c526b28	0.012842931
130	0x3dd5f731	0.10447539
131	0xbedfb5da	-0.4369343
132	0xbe8a4c0d	-0.27011147
133	0xbdb831c0	-0.08993864
134	0xbdca5d78	-0.09881109
135	0xbed45557	-0.4147136
136	0xbd2fd498	-0.042927355
137	0x3e36b5a6	0.17842731
138	0x3d964091	0.07336534
139	0x3e4c666f	0.1996095
140	0x3ed8d66c	0.4235109
141	0xbe547e29	-0.20751251
142	0xbc8c4229	-0.017121391
143	0x3e0846f9	0.13308324
144	0x3da6553a	0.081217244
145	0x3f17c544	0.5928538
146	0xbe98891f	-0.29792115
147	0xbe926455	-0.28592172
148	0xbd72570d	-0.05916505
149	0xbea945ac	-0.33060968
150	0xbe2f3087	-0.17108355
151	0xbf0d89ee	-0.5528859
152	0xbe72b545	-0.23701961
153	0xbe923273	-0.28554115
154	0x3dacfbc0	0.08446455
155	0x3e5bae14	0.21453124
156	0x3e5b9c64	0.21446377
157	0xbde9de2b	-0.11419328
158	0xbe1f1d71	-0.15538575
159	0xbd9906bb	-0.07471987
160	0xbe2c55ef	-0.16829656
161	0xb9eb6553	-0.00044898185
162	0xbe33052f	-0.17482446
163	0xbe31172d	-0.17293997
164	0xbe639109	-0.22223295
165	0x3e10f90f	0.14157508
166	0xbe3fcfe0	-0.18731642
167	0xbe862e6f	-0.262073
168	0xbea484b2	-0.32132488
169	0x3e1fc4f9	0.15602483
170	0xbe650136	-0.22363743
171	0x3ca8a606	0.020586979
172	0x3e476e31	0.19475628
173	0x3d631c42	0.05544687
174	0x3d60a5c5	0.05484559
175	0x3e823c53	0.2543665
176	0x3ea4e700	0.3220749
177	0x3db401c8	0.08789402
178	0x3d4164a1	0.047215108
179	0xbe9378d8	-0.28803134
180	0xbebb669d	-0.36601725
181	0xbdc75c12	-0.09734358
182	0x3d668756	0.05628141
183	0xbed500ab	-0.41602072
184	0xbdf0a66e	-0.11750494
185	0xbe8bb13b	-0.27283654
186	0x3d846e96	0.06466405
187	0x3ddfd5d5	0.10929457
188	0x3d80b5ce	0.062846765
189	0xbd6193f5	-0.055072743
190	0xbe833e22	-0.2563334
191	0xbe5fa3f3	-0.21839885
192	0x3e640e85	0.22271164
193	0x3df33578	0.11875433
194	0xbec487c7	-0.3838484
195	0x3db2ee31	0.08736838
196	0x3e37b2e9	0.17939343
197	0xbd99b035	-0.07504312
198	0x3dcccb2f	0.09999692
199	0xbe6f1048	-0.23346055
200	0xbdb31388	-0.0874396
201	0xbe0a8dbf	-0.13530634
202	0xbdfa5db9	-0.122249074
203	0xbe52fa7e	-0.20603368
204	0xbd33f5b5	-0.043935496
205	0xbc76a844	-0.015054766
206	0x3d3c0482	0.045902736
207	0xbe22f40e	-0.15913412
208	0x3e2c7c01	0.16844179
209	0x3e109b40	0.14121723
210	0xbe3723db	-0.17884772
211	0x3dd91490	0.10599625
212	0xbe76ef0d	-0.24114628
213	0x3c99e46d	0.01878568
214	0x3d22cf8e	0.03974872
215	0xbededc11	-0.43527272
216	0xbc8b9629	-0.017039375
217	0x3d948f2b	0.072538696
218	0xbca1aed3	-0.019736683
219	0x3e0cbc84	0.13743788
220	0xbc31377c	-0.010816451
221	0xbbdbadc3	-0.0067040636
222	0xbdcb22ea	-0.09918769
223	0xbded06fd	-0.115735985
224	0x3c3b1be5	0.011420225
225	0x3ee4d357	0.4469249
226	0xbdb19f78	-0.086729944
227	0xbec21e9e	-0.37913984
228	0xbdf3a83e	-0.11897324
229	0xbf03c736	-0.51475847
230	0xbdb1271c	-0.08650038
231	0xbf1937da	-0.5985085
232	0xbe5a2cd6	-0.21306166
233	0x3e46ea2b	0.19425265
234	0x3d4886bb	0.048956614
235	0xbe80675b	-0.25078854
236	0x3ca0d44f	0.019632487
237	0xbf1a59a1	-0.6029301
238	0x3cb520e5	0.022110412
239	0xbdca118c	-0.09866628
240	0x3e4ce941	0.20010854
241	0x3e952528	0.2912991
242	0xbe5ff188	-0.2186948
243	0x3e13f47f	0.14448737
244	0xbd8c0be1	-0.06838203
245	0x3da47b62	0.08031346
246	0x3d0661e1	0.03280819
247	0xbf263de2	-0.64938176
248	0x3e89107a	0.26770383
249	0xbebbca0f	-0.36677596
250	0x3f09878b	0.5372245
251	0x3eb18b09	0.34676388
252	0x3e90e3ff	0.28298947
253	0x3d1a35c7	0.037648942
254	0xbe7d25d5	-0.24721463
255	0x3e34d15f	0.17657994

weight_hh_l0 f4 [128, 32]
0	0xbbf5eecb	-0.007505273
1	0x3e0bc641	0.13649847
2	0xbdc9fd84	-0.098628074
3	0xbe168456	-0.1469892
4	0xbde56c26	-0.11202268
5	0x3c935e86	0.017989408
6	0x3e8ebb43	0.27877244
7	0x3d9237b6	0.07139532
8	0x3e18d63f	0.14925478
9	0xbda5017d	-0.080569245
10	0xbd597a71	-0.053095285
11	0xbd08f84f	-0.03343993
12	0x3b5ae8f6	0.0033403016
13	0xbda7741a	-0.081764415
14	0x3de7d213	0.11319365
15	0x3deac877	0.11464017
16	0x3b66cac8	0.0035216082
17	0xbaef4f13	-0.0018257819
18	0x3e2d7622	0.16939595
19	0xbd27df47	-0.04098442
20	0x3e83ddac	0.2575506
21	0xbd04f08d	-0.03245597
22	0xbdb14caf	-0.08657204
23	0xbe0ea1f3	-0.13928966
24	0x3e53b8c2	0.20675948
25	0xbe15f508	-0.14644253
26	0x3dab1e09	0.08355338
27	0x3e37866d	0.17922373
28	0xbded7885	-0.11595253
29	0xbda938bb	-0.082627736
30	0x3dd701ba	0.10498376
31	0xbd99a0be	-0.07501362
32	0x3c014d53	0.007891971
33	0x3e231733	0.15926819
34	0xbd82476c	-0.06361279
35	0x3e8ef903	0.27924356
36	0xbd65dad9	-0.056116913
37	0x3d14d72c	0.036338016
38	0x3e3a9018	0.1821903
39	0xbdc4edd0	-0.09615672
40	0x3e150bc7	0.14555274
41	0x3e19efb7	0.1503285
42	0xbe0b7fe8	-0.13623011
43	0xbc1fe5b3	-0.009759354
44	0x3db82c78	0.08992857
45	0xbd8f2ca0	-0.069909334
46	0x3d039d7d	0.032132614
47	0xbc5deb9a	-0.013544941
48	0xbe1dd40e	-0.15412924
49	0x3ccdb8f6	0.02511261
50	0x3dd57954	0.10423532
51	0xbe074ff1	-0.13214089
52	0x3d9af5d5	0.0756642
53	0xbe06afe9	-0.13153042
54	0xbdc5891a	-0.09645291
55	0xbe919e7c	-0.28441226
56	0x3d768afa	0.060191132
57	0xbd1567f8	-0.036476105
58	0x3e1cf5c5	0.15328129
59	0xbbe0e6ee	-0.0068634665
60	0x3e396360	0.18104315
61	0xbccc8a90	-0.024968415
62	0x3db60fa4	0.08889702
63	0xbdb1911f	-0.08670258
64	0xbd932728	-0.07185203
65	0x3dcf26d3	0.10114827
66	0xbe2aecc9	-0.16691889
67	0x3d45316c	0.048142835
68	0x3e7f162e	0.24910805
69	0x3e2166e2	0.15761903
70	0x3e89062a	0.26762515
71	0x3d2498c1	0.04018474
72	0x3e20c55d	0.15700288
73	0x3e10e7fe	0.14150998
74	0xbe4d293f	-0.20035265
75	0x3de15b4b	0.11003741
76	0xbb245aec	-0.0025078608
77	0x3dbe28db	0.09285136
78	0xbde09541	-0.10965968
79	0x3e422c3f	0.18962191
80	0x3df3dc5f	0.11907267
81	0x3e0a5bcc	0.1351158
82	0x3b038e3d	0.0020073794
83	0xbe14087e	-0.14456365
84	0xbe08cd0c	-0.13359469
85	0xbdce968e	-0.1008731
86	0x3ccb6c98	0.024832055
87	0xbea9b9fc	-0.33149707
88	0x3e89a8a1	0.26886466
89	0xbe0cf41d	-0.13764997
90	0x3debe16a	0.11517604
91	0xbd7d1cca	-0.061795034
92	0x3d5683a5	0.05237164
93	0xbce96bce	-0.028493788
94	0xbd525c8e	-0.0513578
95	0xbdac131d	-0.08402083
96	0x3dba543b	0.09098097
97	0x3e63714c	0.22211188
98	0x3d4808ad	0.0488364
99	0xbe229835	-0.15878375
100	0xbd74b76a	-0.05974523
101	0xbdab8608	-0.08375174
102	0xbd07d219	-0.03315935
103	0x3e54acba	0.20769015
104	0xbbde07da	-0.0067758383
105	0x3e717fd8	0.23583925
106	0x3d9e69ff	0.07735061
107	0xbe368ebb	-0.17827885
108	0xbe16bcba	-0.14720431
109	0xbe1773c3	-0.14790253
110	0xbe1354a2	-0.14387754
111	0x3e0227ca	0.12710491
112	0xbe3bc204	-0.1833573
113	0xbe3e61cd	-0.18591996
114	0xbe946c8d	-0.28989068
115	0x3cdecca1	0.027197184
116	0x3d1441d9	0.03619561
117	0x3d49a00d	0.049224902
118	0xbe23d1f5	-0.15998061
119	0xbdc50080	-0.09619236
120	0x3d9290cd	0.07156525
121	0x3e72a81e	0.23696944
122	0xbd8986df	-0.06715178
123	0x3e05aeb7	0.1305493
124	0x3e3e82ce	0.18604586
125	0x3e44ebd4	0.19230586
126	0xbda67ffe	-0.08129881
127	0x3e4cb39f	0.19990395
128	0x3bd8031c	0.0065921675
129	0x3e4a8db2	0.19780615
130	0x3e17755b	0.14790861
131	0xbd0f00f6	-0.034913026
132	0xbe25472b	-0.1614043
133	0xbea701ee	-0.3261866
134	0xbdcddfbe	-0.10052441
135	0xbd88d0f9	-0.06680483
136	0xbdc0f325	-0.09421376
137	0x3d094780	0.033515453
138	0x3d5299f6	0.05141636
139	0xbd9ac2f2	-0.07556714
140	0xbc200879	-0.009767645
141	0xbe6979d6	-0.22800383
142	0xbceca380	-0.028886557
143	0x3b2263fa	0.002477883
144	0x3de5ee32	0.11227073
145	0xbe7eb1dc	-0.24872535
146	0xbe4ba0cc	-0.19885558
147	0xbe35be0a	-0.17748275
148	0x3dba0ef3	0.090848826
149	0xbc7088f9	-0.014681094
150	0xbcc3a3cc	-0.023881815
151	0x3db53959	0.08848829
152	0x3e8a2064	0.26977837
153	0x3c893995	0.01675109
154	0xbcc7ed9b	-0.024405291
155	0x3e1c3c1d	0.15257306
156	0x3e360bf1	0.17777993
157	0x3db5301b	0.08847066
158	0xbdc9dce5	-0.098565854
159	0x3d973011	0.07382215
160	0xbe32a07d	-0.17444034
161	0xbd6ec031	-0.058288757
162	0xbd24b559	-0.04021201
163	0xbcaa376e	-0.020778384
164	0x3d307b3c	0.043086275
165	0x3e1f1c0d	0.15538044
166	0x3e086e54	0.13323337
167	0x3d9bf3cf	0.07614862
168	0x3e0d0608	0.13771832
169	0x3e046f90	0.12933183
170	0x3cb6d2c8	0.022317305
171	0x3dcb0a17	0.09914034
172	0x3e6aeec5	0.22942646
173	0xbd5acf6a	-0.05342046
174	0x3dbc089f	0.09181332
175	0xbc24b7af	-0.010053559
176	0xbba2a3ae	-0.00496336
177	0xbe18761b	-0.14888804
178	0x3cc5521f	0.02408701
179	0xbe487c82	-0.19578746
180	0xbcf81696	-0.030284207
181	0xbe7baab2	-0.24576834
182	0xbe35671b	-0.17715113
183	0xbd8e3f53	-0.06945672
184	0x3dfd83dc	0.12378666
185	0xbdf8a283	-0.12140372
186	0xbda7214b	-0.08160647
187	0xbdd17354	-0.10227075
188	0x3de55a99	0.11198921
189	0xbe159c6e	-0.14610454
190	0x3dc3ea1e	0.09566139
191	0x3e05a5c5	0.13051517
192	0xbe4b79f1	-0.19870736
193	0x3ea31df3	0.31858787
194	0x3ebc7666	0.3680908
195	0x3ed0e7e5	0.4080192
196	0x3e59475f	0.21218632
197	0x3e5c6cb5	0.21525843
198	0x3ccf4f84	0.02530647
199	0x3c2afe38	0.010436587
200	0x3e8f6222	0.28004557
201	0x3e624f5f	0.2210059
202	0xbc819efe	-0.015822884
203	0x3e254c8d	0.16142483
204	0x3dc495b4	0.09598866
205	0x3e158fa7	0.1460558
206	0xb9470e2e	-0.00018983401
207	0xbd852cab	-0.0650266
208	0xbe543aeb	-0.207256
209	0xbe43d140	-0.19122791
210	0x3e938554	0.2881266
211	0x3db94425	0.09046201
212	0xbd81a0d4	-0.06329504
213	0xbd32bb90	-0.043635905
214	0x3e0c29ec	0.13687867
215	0xbe511112	-0.20416668
216	0x3df5e348	0.12006241
217	0xbe0061a9	-0.12537254
218	0xbdcd7d35	-0.10033647
219	0x3bf5f2d8	0.007505756
220	0xbe2ae1af	-0.16687654
221	0x3db0d45a	0.08634253
222	0x3e0faa9a	0.14029923
223	0x3e44f4c9	0.19234003
224	0x3dc67a81	0.096913345
225	0xbda09dfd	-0.07842634
226	0xbcc3584b	-0.023845812
227	0x3e3c613a	0.18396464
228	0x3db52eb5	0.08846799
229	0x3e1466c1	0.14492323
230	0x3e4ca632	0.19985273
231	0x3c316d31	0.010829256
232	0xbd85c034	-0.065308005
233	0x3caa9483	0.020822769
234	0xbd109d2b	-0.035306137
235	0x3db233a8	0.08701259
236	0x3dc14836	0.09437601
237	0x3cd3726e	0.0258114
238	0xbddf7293	-0.10910525
239	0xbd0aa74a	-0.033850946
240	0xbe180fdb	-0.14849798
241	0xbc22ce01	-0.0099368105
242	0x3e908405	0.28225723
243	0x3e17665f	0.14785145
244	0xbe1011ad	-0.14069243
245	0xbe161c6b	-0.14659278
246	0x3dccbfb4	0.09997502
247	0xbe2d48ea	-0.16922346
248	0xbbc808d7	-0.0061045694
249	0xbd8fdb28	-0.070242226
250	0xbdbd9526	-0.092569634
251	0xbda40b0c	-0.080099195
252	0xbd3f1003	-0.04664613
253	0xbb7a02d2	-0.0038148654
254	0x3e0ea82c	0.1393134
255	0x3e66cc63	0.22538905

bias_ih_l0 f4 [128]
0	0xbe3d1d5d	-0.18468232
1	0xbd9b2256	-0.075749084
2	0xbed22378	-0.41042686
3	0xbc9f4df6	-0.019446354
4	0xbcf8a159	-0.030350374
5	0xbda22181	-0.079165466
6	0xbe0d223e	-0.13782594
7	0xbf13a854	-0.57678723
8	0xbebda092	-0.37036568
9	0xbe6d9b15	-0.2320369
10	0xbdd3b08a	-0.103364065
11	0x3b642722	0.0034813364
12	0xbd3ef197	-0.046617117
13	0xbed37500	-0.413002
14	0xbee9cf5a	-0.4566601
15	0xbe6f84bd	-0.2339048
16	0xbe493ae5	-0.19651373
17	0xbef03b75	-0.46920362
18	0x3d68232c	0.056674168
19	0xbe5631c5	-0.20917423
20	0xbe9ea772	-0.30987126
21	0xbe8e4d54	-0.27793372
22	0xbdb65886	-0.08903603
23	0xbde0e80e	-0.10981761
24	0xbeb0fac3	-0.34566316
25	0xbe0b86bd	-0.13625617
26	0xbe836656	-0.25664014
27	0xbe26e017	-0.16296421
28	0xbeb9aa80	-0.36262894
29	0xbe2367cd	-0.15957566
30	0xbe5d234a	-0.21595493
31	0xbe0e576e	-0.1390054
32	0x3c3d8e19	0.011569523
33	0x3e00d496	0.12581095
34	0x3badc334	0.005302811
35	0xbcf25a60	-0.02958411
36	0x3cee00dc	0.029053144
37	0xbd8d5570	-0.069010615
38	0x3d8c23ee	0.068427905
39	0xbdf2dbb4	-0.11858311
40	0xbb44dda2	-0.003003933
41	0x3d9a622d	0.07538257
42	0x3d2b3649	0.041799817
43	0xbe0009d6	-0.12503752
44	0xbe19fac4	-0.15037066
45	0xbe33c15e	-0.17554232
46	0xbea63565	-0.32462612
47	0xbe037d0b	-0.12840669
48	0x3dca371e	0.09873794
49	0xbecaf4dd	-0.3963994
50	0x3d9472e0	0.07248473
51	0xbdc0f949	-0.09422547
52	0xbe4336cb	-0.1906387
53	0xbdd2a741	-0.102858074
54	0xbe2480ad	-0.16064711
55	0x3e154590	0.14577317
56	0xbdf19014	-0.11795059
57	0x3d981ac9	0.07426984
58	0xbba06326	-0.004894632
59	0x3c948b50	0.018132836
60	0xbcef771f	-0.029231606
61	0xbd6fe532	-0.058568187
62	0xbd9efaba	-0.07762666
63	0xbe7a1c1a	-0.24424782
64	0x3d655e97	0.05599841
65	0xbd850bd3	-0.06496396
66	0x3d8c026c	0.068363994
67	0xbe37fc6a	-0.17967382
68	0x3d853cfc	0.065057725
69	0xbd7342e9	-0.059389982
70	0xbd9d7070	-0.076874614
71	0xbd81df13	-0.06341376
72	0x3e1ae045	0.15124615
73	0xbe0d2e12	-0.13787106
74	0x3de08862	0.10963513
75	0xbdc9a52d	-0.09845958
76	0xbdff3360	-0.12460971
77	0x3c41f22b	0.0118375225
78	0xbd8c94a3	-0.06864288
79	0xbd842e54	-0.06454149
80	0x3e121064	0.14264065
81	0x3d2588b2	0.040413566
82	0xbe24964e	-0.16072962
83	0x3d9f4319	0.0777647
84	0xbd89b746	-0.0672441
85	0x3d9daf8a	0.07699497
86	0xbdcfe5b3	-0.101512335
87	0x3dcd2063	0.10015943
88	0xbe0405ee	-0.12892887
89	0x3ce8d442	0.028421525
90	0x3d8d9602	0.06913377
91	0x3de1372e	0.10996853
92	0xbd6d16c8	-0.057883054
93	0xbd61223c	-0.05496429
94	0x3b5a6392	0.0033323509
95	0x3d3cabcf	0.046062287
96	0xbdc1eb64	-0.09468725
97	0x3d7f59bf	0.062341448
98	0xbea7dee3	-0.32787237
99	0xbdec9f65	-0.115538396
100	0xbe2831f7	-0.1642531
101	0xbe152ca3	-0.14567809
102	0xbc9320dd	-0.017960006
103	0xbe95dc72	-0.2926975
104	0xbe0e28ad	-0.13882704
105	0xbe9435c7	-0.2894728
106	0xbced263a	-0.028948892
107	0xbd4db9c7	-0.050226
108	0xbe1d82b7	-0.15381895
109	0xbeae9ecf	-0.34105536
110	0xbe63d2d2	-0.2224839
111	0xbde2f591	-0.11081994
112	0xbe4b45c9	-0.1985084
113	0xbe7c6639	-0.2464837
114	0x3d511ea5	0.051054616
115	0xbcce7384	-0.025201567
116	0xbdf0655c	-0.11738083
117	0xbe9e0203	-0.3086091
118	0xbe4668b4	-0.19375879
119	0xbded5927	-0.1158927
120	0xbec80b56	-0.3907115
121	0x3d6c2d6d	0.05766051
122	0xbe0829a0	-0.13297129
123	0xbd96009e	-0.073243365
124	0xbe48a8cb	-0.1959564
125	0xbe69ddfd	-0.22838588
126	0xbe62234b	-0.22083776
127	0xbc431a49	-0.011908122

bias_hh_l0 f4 [128]
0	0xbe928a5e	-0.2862119
1	0xbe1502d2	-0.14551857
2	0xbd9d63bf	-0.07685041
3	0xbe90d9e0	-0.28291225
4	0xbe2c6a1c	-0.16837353
5	0xbeb9f638	-0.36320662
6	0xbd679121	-0.05653489
7	0xbebc3d65	-0.3676559
8	0xbe725821	-0.23666431
9	0xbd380b29	-0.04493252
10	0xbe373f4b	-0.17895238
11	0xbd79a25d	-0.060945857
12	0xbe01272e	-0.12612602
13	0xbe285208	-0.16437542
14	0xbe2d4a6e	-0.16922924
15	0xbec35279	-0.3814886
16	0x3d605a34	0.054773524
17	0xbe81df06	-0.25365466
18	0xbe4af051	-0.19818236
19	0x3c9366bf	0.01799333
20	0xbe109993	-0.14121084
21	0xbe77cf3b	-0.24200146
22	0xbe80fbf4	-0.25192225
23	0xbdb2918d	-0.08719168
24	0xbec569a3	-0.38557157
25	0xbd014ebf	-0.03156924
26	0xbec804bd	-0.39066115
27	0xbe9708eb	-0.2949899
28	0xbeacdc78	-0.33761954
29	0x3c01a441	0.007912696
30	0xbe121fac	-0.14269894
31	0xbea3d014	-0.3199469
32	0xbe4f47ff	-0.20242308
33	0xbd8f277e	-0.069899544
34	0xbe9da091	-0.30786565
35	0xbc2081ef	-0.009796604
36	0x3d581769	0.0527567
37	0xbe7b1317	-0.24519001
38	0x3daa9687	0.08329492
39	0xbec12347	-0.37722227
40	0xbe127af7	-0.1430472
41	0xbd618b63	-0.05506457
42	0x3dad1ae4	0.084523946
43	0xbba01670	-0.0048854873
44	0xbe72860b	-0.23683946
45	0x3cc5c9f5	0.024144152
46	0xbe2828b6	-0.1642178
47	0xbd997b8f	-0.0749427
48	0xbe177a98	-0.1479286
49	0xbe88ff4d	-0.2675728
50	0xbdff5fcb	-0.12469443
51	0x3e07d0b9	0.13263215
52	0xbe946aa5	-0.28987613
53	0xbe9c232a	-0.30495578
54	0xbda99f16	-0.08282296
55	0xbd3c220b	-0.045930903
56	0xbea47004	-0.3211671
57	0xbc6c5083	-0.014423492
58	0xbe5eefe6	-0.21771201
59	0xbe4a239f	-0.19740151
60	0xbe5693ae	-0.20954773
61	0xbe7e2b8d	-0.24821301
62	0xbe4cf809	-0.20016493
63	0xbe2bff0d	-0.16796513
64	0xbc9d3c6a	-0.019193847
65	0xbd6c3b8c	-0.057673976
66	0xbb55de5a	-0.0032633753
67	0x3c8210d3	0.015877163
68	0x3d335829	0.043785248
69	0x3b93bf90	0.00450892
70	0xbc99f9c6	-0.018795859
71	0x3d849b94	0.06474987
72	0xbc38093f	-0.011232673
73	0x3e0e9543	0.13924126
74	0x3d3ea815	0.046547014
75	0x3e1f789b	0.15573351
76	0x3e05fc28	0.13084471
77	0xbd83a33c	-0.06427619
78	0x3de3265f	0.11091303
79	0xbdde4078	-0.1085214
80	0xbe11c63e	-0.1423578
81	0xbdf13ff8	-0.11779779
82	0x3d1dc600	0.038518906
83	0x3caf3d7d	0.021391625
84	0x3db6a039	0.08917279
85	0x3ca2e60f	0.019885091
86	0xbe020c19	-0.12699927
87	0xbdddf74e	-0.10838185
88	0x3c7da185	0.015480404
89	0x3d753bb3	0.059871387
90	0x3d4dac69	0.05021325
91	0x3da012fb	0.0781612
92	0xbcbd9de4	-0.023146577
93	0x3d8c2b93	0.068442486
94	0xbd8617ad	-0.065474845
95	0xbdb2ff95	-0.08740155
96	0xbe9da751	-0.30791715
97	0x3d9dd93f	0.07707452
98	0xbe2875dd	-0.16451211
99	0xbdfb82ff	-0.12280845
100	0xbd313073	-0.043259095
101	0xbe1c883d	-0.15286346
102	0x3e1a9f27	0.15099774
103	0xbf1dd64d	-0.6165512
104	0xbebc75fe	-0.3680877
105	0xbd9a7f35	-0.07543794
106	0xbe4b88cc	-0.19876403
107	0xbd57b9cb	-0.05266742
108	0xbe56f872	-0.20993212
109	0xbe357a18	-0.17722356
110	0xbebda9d0	-0.3704362
111	0xbe5e4261	-0.21705009
112	0xbe48c79d	-0.19607396
113	0xbe9d51e7	-0.3072655
114	0xbd3fa938	-0.04679224
115	0xbe34a079	-0.1763934
116	0xbed6ea4d	-0.41975632
117	0xbe0b7281	-0.13617899
118	0xbdfc9e8c	-0.12334928
119	0xbd0fb71b	-0.035086732
120	0xbe3ead2d	-0.18620749
121	0xbd907437	-0.07053416
122	0xbe8aaf54	-0.2708689
123	0xbca0f8c1	-0.019649865
124	0xbe836c69	-0.25668648
125	0xbe7b4133	-0.2453659
126	0xbe10e33a	-0.1414918
127	0xbe488320	-0.1958127
