experiments/pedestrians/models/06_Aug_2023_21_23_08/model_registrar-24.pt (torch, 713991 bytes, 82 tensors)

weight f4 [64, 10]
000000 67 c6 51 bd 2c f5 9c bd 89 30 6f 3e 8c 80 84 3d
       -0.0512146 -0.0766395 0.23358358 0.06469831
000010 37 4b 2d bf 80 91 4f 3f eb c9 e2 bb 3d 16 89 be
       -0.67692894 0.8108139 -0.006921043 -0.2677478
000020 0b 45 3c be cc b1 c8 3d 19 c3 68 3d 2e 87 8b 3e
       -0.18385713 0.09799537 0.056826685 0.2725157
000030 a4 5e bf 3e 8a cf de bc 7e 79 12 be bb 50 1b be
       0.37376893 -0.027198572 -0.14304158 -0.15167515
000040 4f 82 88 be 7f 1c b3 be 39 e1 ba bd d7 87 e4 3d
       -0.26661918 -0.34982678 -0.09124989 0.11158722
000050 2e f1 9d 3d 01 ee 47 bd 7a b8 e1 bd f7 37 01 3f
       0.07712017 -0.048810963 -0.11021514 0.5047602
000060 8e 4a 51 bd 97 43 61 3d da 44 a0 be dc 09 9b bd
       -0.05109649 0.0549961 -0.3130253 -0.0757024
000070 ef 64 34 bd e7 3c 4f be d4 e1 6a bc a6 b5 5f 3d
       -0.04404157 -0.20238076 -0.014336068 0.054616593
000080 87 2d 85 3b 2c 4e 83 bd 09 93 1b bf 32 33 27 3f
       0.004064265 -0.064113945 -0.6077123 0.6531249
000090 a2 cb 88 be 39 9f 52 be 21 c4 eb bc d6 a0 7d be
       -0.2671786 -0.20568551 -0.028780045 -0.24768385
0000a0 45 61 0a 3d 26 a6 fa bc 52 1d b4 3d b1 8a 1d 3e
       0.03378417 -0.030596804 0.08794655 0.15384938
0000b0 5a 3d 09 3f 73 47 d8 3e 5d e5 93 3e ca 98 2d 3e
       0.5360924 0.4224201 0.28885928 0.16952816
0000c0 00 40 77 be 38 2d 39 3e 1e dc a4 bc f9 56 08 3e
       -0.24145508 0.18083656 -0.020124491 0.13314427
0000d0 92 46 b8 3e df 3f d5 bd e3 b5 62 bb cc bf 06 3f
       0.3599134 -0.10412573 -0.0034593276 0.5263641
0000e0 29 ee 36 3e 4d 1e ab bb 6a c4 57 bd 2f cf a6 3d
       0.17864288 -0.005222118 -0.05267755 0.08144986
0000f0 ac e4 9c bd af a0 f1 3d ab c8 ef 3e 2c d6 05 3e
       -0.07660803 0.11798226 0.46832785 0.13069981
000100 8e 6b e8 3e ba 0c e0 be 2d d2 6b be 1a 66 99 3e
       0.45394558 -0.4375971 -0.23029394 0.2996071
000110 26 d3 ae 3e d4 e5 84 3e e2 10 ef bc a3 f0 1f be
       0.34145468 0.25956595 -0.029182855 -0.1561914
000120 fb 96 c1 3d 74 76 a0 be 58 83 21 bf 9a 2d b1 be
       0.09452625 -0.31340373 -0.6309104 -0.34605104
000130 80 85 bc 3e 10 b7 00 bc 45 da 80 3c 04 42 a7 3b
       0.36820602 -0.0078561455 0.015729079 0.005104305
000140 94 8c d6 3d 32 7e 40 3d 3f bb b3 be bc fe 7f bd
       0.10476032 0.04699535 -0.35103795 -0.062498793
000150 36 ae 1e bf 78 03 81 bd 39 c6 39 be 45 47 52 be
       -0.61984575 -0.0629949 -0.18142022 -0.20535
000160 8d e9 49 3e 6f e6 8c 3d 0d e4 55 bd 20 d2 07 3e
       0.19717999 0.06879889 -0.05221944 0.1326375
000170 e3 4f d9 3e e3 58 b0 3e 64 95 84 3d 9a ba ad 3e
       0.4244376 0.34442815 0.064738065 0.33931428
000180 c2 00 1c 3e 42 af 6b be 3d 7b 9a 3e a3 09 8c 3e
       0.15234664 -0.23016074 0.30172148 0.27351102
000190 df af 50 be e0 e6 b7 3d fa 78 6e 3e 71 f5 60 3e
       -0.2037959 0.08979583 0.23288336 0.21968628
0001a0 c8 f0 42 be 28 2f 3b bd bd 13 13 be 3d 22 e2 3d
       -0.19037163 -0.04569927 -0.14362998 0.11041687
0001b0 be e3 56 3e da df 8d be 01 bb 76 3d 46 a1 dc bd
       0.20985314 -0.27709848 0.060236935 -0.10772948
0001c0 54 f8 02 3f 5b cb e7 bd a5 03 43 bf 7f 5b 58 bf
       0.5116017 -0.11318084 -0.76177436 -0.8451461
0001d0 ee 3a cc 3d f2 5c d1 3e 7c c8 f3 bd 9b 5b 71 bd
       0.099721774 0.40891224 -0.11903474 -0.058925252
0001e0 c6 fa 62 be 26 22 1d 3e 15 78 b4 3e eb fc 5a 3e
       -0.22165975 0.15345058 0.35247865 0.21385543
0001f0 8f ba 56 3e 5f b6 34 3e 11 bc 63 3e 52 31 78 bd
       0.20969604 0.17647694 0.2223971 -0.06059391
000200 6c 3d 76 3d c9 88 25 be 27 15 f6 bb 1a ab d5 3d
       0.06011717 -0.1616546 -0.007509846 0.10433026
000210 ed 2f 94 bd aa 2b 11 bf b9 ba 02 3e 90 5d 0f bd
       -0.072357036 -0.5670725 0.12766542 -0.035001338
000220 68 6d b5 3b e9 30 85 be 95 79 04 be 89 25 94 be
       0.005536724 -0.26013878 -0.12937005 -0.28934887
000230 1d df 0c 3e 05 69 d7 bd 33 36 a3 be 85 04 c5 3e
       0.13756986 -0.10518078 -0.31877288 0.3848001
000240 36 ea f3 bd 1a a0 a1 bd 16 80 80 3e 42 79 d3 3c
       -0.119099066 -0.07891865 0.25097722 0.025814656
000250 03 c0 08 bc bc d0 b7 3e 24 ed a7 bb db b3 7c 3d
       -0.00834656 0.3590144 -0.005124705 0.06169496
000260 c1 5f 88 3d 5c 9b 61 be d3 41 cd 3e 22 56 25 bf
       0.066588886 -0.22031921 0.40089282 -0.64584553
000270 0c bb 77 be 2d ac 1d 3e bf 6f 66 be 41 f2 bb 3d
       -0.24192446 0.15397711 -0.22503565 0.09177066
000280 0c b6 08 be 15 6c 7b 3e b3 e8 bd 3d 90 e4 b6 3d
       -0.13350695 0.24552949 0.092728995 0.089303136
000290 33 7b 3c bf b4 ef de bd 6f d2 e4 3d fc 69 91 3e
       -0.7362549 -0.108855635 0.111729495 0.28401172
0002a0 f3 30 13 3d 7c 3d e3 3e b7 65 a5 3e da 70 a4 3e
       0.035935353 0.44382846 0.32304165 0.3211735
0002b0 85 ee 27 3e dd bb c2 3e ec 75 18 be 69 86 3b 3f
       0.16399582 0.38033953 -0.14888734 0.7325197
0002c0 64 64 b7 3d 8c e4 c2 3d 0e 3e be 3c a2 3c 45 3e
       0.08954695 0.09516248 0.02322295 0.19261411
0002d0 eb da 3a 3d 28 12 0c 3e f1 d2 1a 3f ec 70 07 be
       0.045618933 0.13678801 0.6047812 -0.1322667
0002e0 bc 10 f2 bd fd 28 8b 3d 2f 59 86 3e 8f 6e 50 3c
       -0.11819598 0.06794927 0.26239917 0.012721672
0002f0 4c ca 3b 3e 2d f4 93 3e 88 61 90 3e 5f b5 06 3e
       0.18338889 0.2889723 0.2819941 0.13155125
000300 80 c8 df be 25 40 a1 bd 3f 1a e8 be 07 67 f8 bd
       -0.43707657 -0.07873563 -0.45332524 -0.12129026
000310 66 78 0f 3e 76 40 45 3e a2 20 33 be cd 56 93 3e
       0.14010772 0.19262871 -0.17492917 0.2877716
000320 ec 00 18 bd 71 ac 2b 3c e1 e3 6e be 52 cc 1e 3e
       -0.037110254 0.010478125 -0.23329116 0.1550763
000330 1c d0 cf 3e 47 ca 15 bf 95 34 ed bc 51 a1 2a be
       0.40588462 -0.58511776 -0.028955737 -0.166631
000340 19 50 4f 3e 6e a9 fc bd 85 82 6a be 45 37 fe bc
       0.20245399 -0.12337004 -0.22901352 -0.031032214
000350 7c 19 20 3d c5 78 49 3d 2c 15 02 3f c9 e0 7d 3f
       0.039086804 0.04918744 0.50813556 0.9917112
000360 95 cd c2 3e e3 42 40 3e 93 2e 64 3e 95 7a a4 ba
       0.38047472 0.18775515 0.22283392 -0.0012548739
000370 f8 44 12 3d 86 7e 7e 3e a6 f6 66 be 3e 42 bd 3c
       0.035710305 0.24852952 -0.22555026 0.023102876
000380 3a ea c9 3e 26 03 fe 3e 3b b6 77 3e 34 3b 88 3e
       0.39436513 0.49611777 0.24190609 0.26607668
000390 0c 5b dc 3d 67 78 16 be 91 85 95 3c d2 b5 19 be
       0.10759553 -0.14694367 0.018252166 -0.15010765
0003a0 7e a9 8d bd 0b f9 db 3e d4 30 64 3c 14 1e 01 bf
       -0.06917094 0.42963442 0.013927657 -0.5043652
0003b0 c2 3b 12 be 47 36 59 3d 6e e0 14 be 97 da e8 3d
       -0.14280608 0.05303028 -0.14538738 0.11369818
0003c0 b7 95 d9 3d d8 dd 56 be 43 57 95 3c 06 7f 61 be
       0.10624259 -0.20983064 0.018230086 -0.22021112
0003d0 6a 1a b9 3e e1 4b ca 3e e5 5b 40 3c 95 f2 ae be
       0.36152965 0.39511016 0.011740659 -0.3416945
0003e0 1b c9 a4 bd 55 bb a2 be 5e 86 0b be ac bc 18 be
       -0.0804617 -0.31783548 -0.13625476 -0.14915723
0003f0 bd 0d 60 3e ad 0e d9 3e be 32 2d be 98 d3 e8 be
       0.2188024 0.4239401 -0.16913888 -0.45473933

bias f4 [64]
000000 70 f5 64 be 3e 9b a8 bd 92 dd 94 be a2 80 96 3e
       -0.22359252 -0.08232735 -0.29075295 0.29395014
000010 4f bb 10 3e f8 75 94 3e db 4a 7b be 33 0b c3 bc
       0.14133953 0.28996253 -0.24540274 -0.023809051
000020 b1 04 46 3d 7a 93 7a 3e 67 20 52 bd bd d6 e3 3e
       0.048344318 0.2447032 -0.051300433 0.4449977
000030 a9 d9 d4 bd 3b d7 b6 3d 30 13 d0 bd 02 17 6f bd
       -0.10393078 0.08927771 -0.1015991 -0.05837155
000040 4e f9 3b bd db f9 20 be a7 d7 7c 3e 73 23 3c 3e
       -0.045892052 -0.15720312 0.2469164 0.18372898
000050 64 15 b9 bd 37 7f 30 3e 33 5c 3a 3e c5 8d 14 be
       -0.09037283 0.17236029 0.18199234 -0.14507206
000060 52 f7 13 be ec 52 e3 3d 82 a9 d9 bc c0 1a 4f be
       -0.14449814 0.110998005 -0.026570085 -0.20225048
000070 05 07 a6 be 86 61 81 3d 83 75 1d 3e 89 05 4f be
       -0.3242723 0.06317429 0.15376858 -0.20216955
000080 a7 d1 12 be 6f 49 e2 3d 84 ca 9a be 59 24 82 3e
       -0.14337789 0.110491626 -0.30232632 0.25418356
000090 38 35 02 3e 84 7b 19 be d9 6e cc bd 2e 55 40 3d
       0.12715614 -0.14988524 -0.0998208 0.046956234
0000a0 cc 66 4b be 21 c5 80 3e f0 8e 08 bd 08 dd ea bd
       -0.19863433 0.25150397 -0.03333944 -0.114679396
0000b0 9d 01 65 be f9 e7 0a 3e 47 6c f7 bd b6 0e 89 be
       -0.22363897 0.13565053 -0.12081199 -0.26769036
0000c0 ee 50 da 3d 90 b1 0c be 2d 31 9b bc 41 12 70 3e
       0.10659967 -0.1373961 -0.018944347 0.23444463
0000d0 71 9c a4 be 0c 7d ab be 93 af c1 be 2f 57 9d 3d
       -0.32150605 -0.3349384 -0.37829265 0.076826446
0000e0 1b d2 9f 3c eb da 66 3e 39 38 49 3e 3e ab aa 3e
       0.019509366 0.22544448 0.19650353 0.33333772
0000f0 e2 96 a5 be f0 a5 26 3e 2c cf c9 3e 49 29 2e be
       -0.32341677 0.16274238 0.39415872 -0.17007937

weight f4 [32, 32]
000000 ab 15 12 be 81 80 4c be c1 e2 6a 3e e6 6b 0b 3d
       -0.14266078 -0.19970895 0.22938062 0.034038447
000010 e8 f4 ed bd 7c 4f 24 bb bf b9 3a bd 43 ec 75 3d
       -0.11618978 -0.002507179 -0.045587298 0.06003977
000020 0c de 21 be 00 52 f0 be fe 9d c6 3d c2 f2 b8 3d
       -0.1580736 -0.4693756 0.09698103 0.090306774
000030 3c 8e ea bc ac 4e 49 3e a8 ff 23 be c4 b4 5e 3e
       -0.028632276 0.19658917 -0.16015494 0.21748644
000040 0c b3 c8 bb d0 64 98 3e ca 99 3b 3e cb e4 8d 3e
       -0.0061248597 0.29764414 0.18320385 0.27713618
000050 59 13 96 be 03 0c 43 3e 29 18 91 ba 97 32 c9 be
       -0.29311636 0.19047551 -0.0011069822 -0.3929641
000060 22 12 d6 bd 63 41 d8 3d 3c 5c 0c 3e 1e 6c fb 3d
       -0.10452677 0.105593465 0.1370706 0.12276481
000070 dd 77 2d 3e 6f 4c a1 3d 9e 5f 5a bd 67 24 83 3e
       0.16940255 0.07875907 -0.053313844 0.2561371
000080 83 60 5d 3d a0 6a 6b bd db 8b e6 be 70 da 80 3d
       0.05404712 -0.057474732 -0.45028576 0.06291664
000090 0c d0 3d be 4f c7 95 3d 34 96 1e 3e c5 cd 71 bd
       -0.18536395 0.07313406 0.15486985 -0.059034128
0000a0 a9 80 ac be 79 67 bc be 62 56 91 be 4b b6 8b be
       -0.3369191 -0.36797693 -0.28386217 -0.27287516
0000b0 41 f3 50 3e fa 04 91 bc ba f5 9d bd 5d 27 b1 bd
       0.20405294 -0.017702568 -0.07712884 -0.08650086
0000c0 45 38 74 3a 45 f2 21 3e 52 53 16 3e bd d4 c0 3e
       0.0009316246 0.15815075 0.14680222 0.37662306
0000d0 6a 95 61 3e 6d b8 09 be e8 a1 e5 3d ea 53 e0 3c
       0.22029653 -0.13449259 0.11212522 0.027383763
0000e0 dd 35 cf 3c c4 db c8 bc 75 00 15 3e c3 11 23 3e
       0.025294239 -0.024518855 0.14550956 0.15924744
0000f0 35 b1 2e be 66 50 5a be af b8 16 3e e6 ef 99 bd
       -0.17059787 -0.21319732 0.14718889 -0.0751646
000100 bf af a4 3e 9e e3 33 be 01 fe e0 3d 67 61 ea be
       0.32165334 -0.17567298 0.109859474 -0.45777437
000110 17 1d 6d be d6 54 a9 3b 58 34 49 be 2d 5a 46 be
       -0.23155628 0.005167584 -0.19648874 -0.19370337
000120 7b c4 2b be bd f1 43 3e 93 70 46 3e 8d 63 0a be
       -0.1677417 0.19135185 0.19378881 -0.13514538
000130 c4 1f a6 be 7d 2d a9 3e 3e 99 98 be 65 e1 b9 ba
       -0.3244611 0.33042517 -0.29804415 -0.0014181553
000140 1d 33 f4 3b 90 05 c2 3e c7 41 ae 3e 34 5c 01 bf
       0.0074523822 0.3789487 0.3403456 -0.50531316
000150 b5 de 12 be a4 f4 7f 3d 4f 57 6b be 21 f5 84 be
       -0.14342768 0.062489167 -0.22982524 -0.2596827
000160 b2 fe b8 bd 6c 0f dc bd 5a 02 2d 3d 7f 94 0c be
       -0.09032954 -0.10745129 0.04223857 -0.13728522
000170 3a 85 64 3e 24 e1 8a be 7e 53 86 be 58 8e b4 bd
       0.22316447 -0.27124894 -0.26235574 -0.088162124
000180 cd e7 5d 3e 8c 8e 21 be 73 6b 12 3d 73 40 f9 3d
       0.21670456 -0.15777034 0.035747003 0.12170496
000190 b0 c7 88 bd c6 f8 28 3e 33 17 8f 3e c8 48 5f be
       -0.06678712 0.1650115 0.27947387 -0.21805108
0001a0 ff d5 2f be d6 91 75 3e d7 3c c4 3d a0 dd 23 be
       -0.17171477 0.23981413 0.09581917 -0.16002512
0001b0 44 5d a8 3e c0 3a de bd 91 ff de bd 2a 3b 53 bd
       0.32883656 -0.108510494 -0.10888589 -0.051570095
0001c0 db 82 76 be 72 35 87 3d a2 08 0c be f0 45 88 3e
       -0.24073355 0.06601991 -0.13675168 0.26615858
0001d0 d6 bb af 3c 09 97 8f 3d c5 96 5a 3e 38 21 15 3d
       0.021451872 0.070112295 0.21346577 0.036408633
0001e0 60 57 cb bd c8 e9 93 bb ed 71 5f 3d 0e 71 7b 3e
       -0.09928775 -0.004513953 0.054552007 0.24554846
0001f0 66 cf b1 bd 4f 09 2c 3d 5e 2a 84 3e 44 5b 67 3d
       -0.08682136 0.042001065 0.25813574 0.056483522
000200 41 8b a8 be 38 d1 7e bd 8a f9 3f 3e b3 05 57 bb
       -0.32918742 -0.062211245 0.18747535 -0.0032809793
000210 6c d4 43 3e 80 41 83 bd 5e 1e ed 3d e6 ac 93 3e
       0.19124001 -0.064089775 0.11578058 0.2884285
000220 2a bb bb 3d d9 56 66 be 0c 1e 24 3e f6 22 0d 3e
       0.09166558 -0.22494067 0.16027087 0.13782868
000230 33 0b 50 be b8 37 08 3e 9e 92 2b 3c f2 fd 5e 3d
       -0.20316772 0.13302505 0.010471968 0.0544414
000240 e2 b2 5d bd fe a7 21 3c 9c 7a 23 3e ed 2e a9 3e
       -0.054125674 0.009866713 0.1596474 0.33043614
000250 24 35 4e 3e 77 52 94 be 2d 86 4f 3e b7 86 09 3e
       0.20137459 -0.28969166 0.20266028 0.13430296
000260 71 e5 24 3e b7 81 88 3e 9d 46 a4 3d 59 42 06 be
       0.1610315 0.26661465 0.08021281 -0.13111247
000270 0a 6e 84 3d dd c9 a9 3e 74 80 d7 3d 37 9e e1 bd
       0.06466301 0.33161822 0.10522547 -0.11016505
000280 17 f6 dc 3e 9c ae 05 bc 9b 71 c1 bc ae c1 c8 be
       0.43156502 -0.008159306 -0.023613742 -0.39210266
000290 33 92 8e bc c6 43 4f 3e d2 30 79 bc d6 b1 33 be
       -0.017403698 0.20240697 -0.015209394 -0.17548308
0002a0 e3 73 1a bd 4f 93 0a 3e 31 53 2d 3e bd ef 52 3d
       -0.037708174 0.13532756 0.16926266 0.051498163
0002b0 c2 ee eb bc 0d 6e 09 3e fa 52 34 be 3b b9 9b bd
       -0.028800372 0.13420887 -0.17609778 -0.07603689
0002c0 e1 5f 08 be e8 37 37 be f1 e7 84 3d 30 88 a2 be
       -0.13317825 -0.1789242 0.06489552 -0.31744528
0002d0 85 1a c3 bd 9e c0 c7 3d 12 ff 5a be 8b 25 d4 3c
       -0.095265426 0.09753536 -0.21386364 0.025896808
0002e0 84 bf 09 be 7d 0e 52 3e ac e8 1f 3d f5 ad 32 3d
       -0.13451964 0.2051334 0.039040253 0.04362293
0002f0 4c ca 44 bd 77 be 97 be 16 87 82 bd d2 57 91 3c
       -0.048044488 -0.296375 -0.06373422 0.017742071
000300 40 57 17 be c7 83 15 3d 03 b8 8b 3d ac ce cd bd
       -0.14779377 0.036502626 0.06822207 -0.10049185
000310 bb 37 d4 3c a5 d0 49 bd fe 0a 00 3f a2 74 a3 3e
       0.02590548 -0.049271245 0.5001677 0.3192492
000320 23 f8 dd 3d b6 62 48 3e 65 d8 6c 3d 4d 04 b3 3e
       0.10838344 0.19568905 0.057823557 0.3496422
000330 2b 2d 2b be ec 6b 21 be c9 b3 42 3e aa 9d 03 be
       -0.16716449 -0.15763825 0.19013895 -0.12853113
000340 aa 1d 53 3a e9 76 41 be fa e3 3b be de d4 1c 3e
       0.00080534315 -0.18893017 -0.18348685 0.15315577
000350 2b f7 b1 3d 48 6d 95 be 92 6a dc 3e 34 6d d3 3e
       0.08689722 -0.29184937 0.43050057 0.41294253
000360 8d c0 67 3e 55 01 38 3e 65 da 40 3d f3 fe b4 bd
       0.22632046 0.17969258 0.047083277 -0.0883769
000370 df bb be bd e7 7e 27 3d 03 d0 c4 3d 42 16 24 bd
       -0.09313177 0.040892508 0.096099876 -0.04006029
000380 d8 ff 1b 3e ac aa 17 bd f0 30 61 3d 58 5f 9c be
       0.15234315 -0.037028 0.05497831 -0.30541492
000390 22 71 3a 3d 6b 2a 8e 3e ca 35 b1 3e a0 af 19 3e
       0.045518048 0.27766737 0.3461135 0.15008402
0003a0 df 09 0b be 72 15 a2 3d 88 56 bd bc c2 01 44 3e
       -0.13577984 0.079142466 -0.02311255 0.19141296
0003b0 b6 7d 8c 3e 2a 1d 0f 3e 2b df b3 bd 39 b1 4a 3e
       0.2743966 0.13975969 -0.087828 0.19794168
0003c0 86 36 52 3d c1 b8 6f 3e de 93 37 3d 76 4a d7 3e
       0.05132153 0.23410322 0.04481875 0.42048997
0003d0 2e 91 2d 3e ac 30 9f 3d b0 a3 2a 3e 73 75 3c bd
       0.16949913 0.07772955 0.16664004 -0.046010446
0003e0 ef 2e 0a 3c c4 ef 10 3e ba df 92 3d 31 d9 33 3e
       0.008434041 0.14153963 0.07171579 0.1756332
0003f0 70 47 22 3d 73 66 82 bd a7 ba 69 3e 81 3d c5 bd
       0.03961891 -0.06367197 0.22825108 -0.096308716

bias f4 [32]
000000 fd ff 07 be ea 59 75 bd 79 1d 50 3e 03 8b e6 bc
       -0.13281246 -0.0599002 0.20323743 -0.028142458
000010 f4 bb 51 be 2e 5f 1d 3e d4 ed 65 3d 95 4d 20 3e
       -0.20481855 0.1536834 0.056135014 0.15654595
000020 11 b2 00 3e 2f e0 cb bc 2f 10 b9 3d 08 f2 11 3e
       0.12567927 -0.024887173 0.0903629 0.14252484
000030 88 99 5c bd fb 46 30 3c 83 38 72 bd 32 3d 06 3e
       -0.053857356 0.010759111 -0.059135925 0.13109282
000040 e7 4e 2d be 78 20 ff 3d d9 25 bb 3d 3e 25 12 bd
       -0.1692463 0.12457365 0.09138078 -0.03568005
000050 77 0a 11 3e 3d 70 10 be c1 28 e9 bd 59 8a 39 3d
       0.14164148 -0.14105316 -0.11384726 0.045297954
000060 9b 54 da bd 17 79 84 3d 50 30 10 be a1 4f 5a be
       -0.106606685 0.064684086 -0.1408093 -0.21319439
000070 98 db 1a be 8f 99 4d be d2 7f 16 bd 85 c2 f8 bc
       -0.15122831 -0.20078109 -0.036742993 -0.030366192

weight f4 [32, 64]
000000 08 c8 50 bd a0 ad 87 3b 08 4a 7e bd 08 15 41 3d
       -0.050972015 0.0041405708 -0.06208232 0.047139198
000010 48 20 da bd c4 a8 bb 3d 34 12 ba bd de 87 cb bd
       -0.106506884 0.09163049 -0.09085503 -0.09938024
000020 5a c3 a1 bd a8 e1 67 3d 14 2e 3d bd e4 98 3f 3d
       -0.078985885 0.056611687 -0.04618652 0.046776667
000030 54 46 d9 bd 3e 52 9b bd 80 fe 3b bd 78 3c c9 bc
       -0.10609117 -0.07584046 -0.045897007 -0.024564967
000040 04 4b c3 bd 5e a0 a7 3d b8 7d f1 bc 80 58 24 3d
       -0.095357925 0.081848845 -0.029478893 0.040123463
000050 5c 07 b5 3d 00 c7 be 3c bc 01 0c 3d 32 1b f7 3d
       0.08839294 0.02328825 0.03418134 0.12065734
000060 b4 ea 66 bd 38 2d 22 3d 0c cc 63 bd 48 f3 b6 3d
       -0.056376174 0.039593905 -0.055614516 0.08933121
000070 c0 74 cc 3d 60 06 ec bd 88 88 da 3d c4 7c 74 3d
       0.09983206 -0.115246534 0.106705725 0.0596893
000080 dc 1c 5f 3d 0c c7 52 3d 04 d0 d4 3d 60 35 87 bc
       0.05447088 0.051459357 0.10391238 -0.016504943
000090 b2 7f d8 bd f8 ea 12 bd 58 4b b4 bd f0 62 07 3c
       -0.10571231 -0.035868615 -0.08803433 0.008263335
0000a0 40 30 bf bc 86 50 89 bd 00 35 3a bc 0e 89 f2 3d
       -0.023338437 -0.06704812 -0.011365175 0.11842547
0000b0 70 89 21 bc 60 0c 82 3b 20 b4 9f bc e0 fa a0 3c
       -0.009859428 0.0039687604 -0.01949507 0.019650877
0000c0 68 19 e4 3d cc 8a 9c 3d 84 bd 35 3d a8 86 de 3c
       0.11137658 0.07643661 0.04437019 0.027163818
0000d0 b0 73 f1 3c 78 cd 45 3d 28 53 84 bc bc ed ed bd
       0.02947411 0.048291653 -0.016152933 -0.1161761
0000e0 3e 50 9e bd 98 84 da 3d 00 d5 f4 3b fa 60 cf bd
       -0.07730149 0.106698215 0.0074716806 -0.10125919
0000f0 50 83 a1 3c 8a 86 d3 3d 80 eb f1 bd 6a 59 ac bd
       0.019715935 0.10328396 -0.11812496 -0.08415492
000100 78 e9 4b bd 40 67 a4 3b b0 d3 ee bc a0 0e 61 bc
       -0.0497832 0.005017191 -0.029153675 -0.013736397
000110 66 92 f9 bd 48 c2 6f 3d c8 b3 e0 3d 1e 7a 9c 3d
       -0.121861264 0.05853489 0.109717906 0.076404795
000120 2a 48 b5 bd ca 5c ce bd f4 9b 54 3d 00 fb 37 3b
       -0.08851655 -0.10076292 0.05190654 0.0028073192
000130 78 e2 51 3d 98 26 fa bd 40 37 f4 bb da 8a b4 3d
       0.051241368 -0.122143924 -0.0074528754 0.08815546
000140 cc 85 6d 3d 40 93 95 3b 80 56 c9 3c a0 e7 41 bc
       0.057988927 0.0045646727 0.02457738 -0.011835009
000150 e4 c1 8c bd 04 7c 41 bd 18 e6 9b bd ce a2 d4 3d
       -0.06872919 -0.04723741 -0.07612246 0.10382615
000160 96 df 8c 3d d8 0e 33 3d 72 50 c4 bd 02 89 c5 3d
       0.06878583 0.043715328 -0.09585656 0.09645273
000170 ac 88 20 3d 74 19 b1 3d 6c 6a 49 bd b8 15 d9 3c
       0.03919284 0.08647433 -0.049173757 0.026499614
000180 32 f4 f9 3d 64 33 ac 3d a8 4f cd 3d 40 06 d7 bc
       0.1220478 0.084082395 0.10024959 -0.026248097
000190 62 0a c3 3d e8 81 c8 bd 20 21 31 3c 5e 24 90 bd
       0.09523465 -0.09790403 0.01081112 -0.070381865
0001a0 f8 cf ee bc 34 1f 03 bd c0 3a 19 3c ea fe e8 3d
       -0.029151902 -0.03201218 0.009352386 0.11376746
0001b0 a4 7b 7d 3d 00 d0 0a ba 70 b8 b5 3d 4a 30 83 bd
       0.06188549 -0.00052952766 0.08873069 -0.06405695
0001c0 62 ef 83 3d a0 ea 3d bc e8 2f b2 bc 30 c4 6f 3c
       0.06442143 -0.0115915835 -0.02175136 0.014634177
0001d0 ea 1e c4 bd 50 a9 6c 3c 64 27 2c 3d ce dc da 3d
       -0.09576209 0.014444664 0.042029753 0.106866464
0001e0 5c 68 1f bd 88 55 38 3d 06 e0 ff 3d d4 a1 5b bd
       -0.038917884 0.045003444 0.12493901 -0.05362113
0001f0 06 5a f3 3d 34 34 7e bd e0 af 61 3d 78 93 48 3d
       0.11882405 -0.062061504 0.055099368 0.048968762
000200 18 04 0f 3d 12 72 ca 3d a4 ee 4e bd 38 90 06 3d
       0.034916013 0.098850384 -0.050520554 0.03285238
000210 00 e6 37 3a 5a 8c c0 bd 38 a4 f8 bc 74 f6 aa bd
       0.00070151687 -0.0940177 -0.030351743 -0.083477885
000220 30 62 62 3d 60 1b 38 3c b0 a1 48 3c 68 53 1b bd
       0.05526942 0.011236995 0.012245581 -0.03792134
000230 00 91 1d 3a 0c 41 1f bd b8 1d 13 3d 94 9e f8 3d
       0.00060106814 -0.038880393 0.035917014 0.121396214
000240 18 1b 9b 3c 30 c6 62 bd 3a 5f 9c bd 10 8c 1c 3c
       0.018933818 -0.055364788 -0.076353505 0.009554878
000250 a2 e9 bd bd 26 6c c0 bd e0 9f a6 bd ec e5 2d bd
       -0.092730775 -0.09395628 -0.081359625 -0.0424556
000260 80 96 17 3c da 48 b0 3d 58 51 46 3d 5c 20 c4 3d
       0.009252191 0.08607645 0.04841742 0.095764846
000270 e2 bd a0 bd b0 d3 2c 3c b0 8d e3 bd 32 db 92 3d
       -0.07848717 0.010548517 -0.11111009 0.071707144
000280 68 69 d5 3c 62 9b f7 3d 00 12 b6 bd 46 4b cd 3d
       0.026051238 0.12090184 -0.08890152 0.10024123
000290 3a 1f d8 3d 02 fb ce 3d 98 1e 92 3c 88 c6 e8 3d
       0.10552831 0.1010647 0.017836854 0.11365992
0002a0 3c f7 aa 3d 0e ff be 3d 30 0a 05 bc 34 74 c4 bd
       0.083479375 0.093259916 -0.008120105 -0.095924765
0002b0 00 e2 cb ba 08 0a c0 3c 18 61 ae bd 04 da 92 bd
       -0.0015555024 0.023442283 -0.08514613 -0.071704894
0002c0 68 70 f5 bd f4 7a 33 bd 58 fe de 3d 98 19 af 3c
       -0.119843304 -0.04381843 0.10888356 0.021374509
0002d0 20 2f fa bb c0 7c a4 3b b0 a0 9f 3d 74 10 e2 bd
       -0.0076350123 0.005019754 0.077943206 -0.110382944
0002e0 e6 86 c5 bd 90 39 2a bd 28 55 93 bd 7e 0a 84 3d
       -0.096448705 -0.041558802 -0.07193977 0.06447314
0002f0 a8 e2 b4 3d b8 60 f8 bd 12 43 d9 bd 20 4c f9 bd
       0.08832294 -0.12127823 -0.10608496 -0.12172723
000300 80 27 41 3d f2 0a ce 3d b0 7c c6 bd a0 08 6d bd
       0.04715681 0.100606814 -0.09691751 -0.057869554
000310 d0 ed 22 3d 0c 2a a7 bd 7e 77 d9 3d d0 c1 ee 3c
       0.039777577 -0.08162317 0.106184945 0.029145151
000320 4c 88 0e bd d0 04 05 3c 20 a0 1f 3d c8 0c 35 bd
       -0.03479795 0.008118823 0.038971066 -0.044201642
000330 f4 5c c6 bd 00 41 5c 3a 80 37 15 3b 80 31 25 3b
       -0.09685698 0.000840202 0.0022768676 0.0025206506
000340 c0 6e 95 bc ee 5e a4 3d d8 e0 0e bd 40 3b 46 bc
       -0.018241286 0.08025919 -0.034882396 -0.012099087
000350 30 87 52 3d ce 22 a1 bd a8 17 09 3d 28 6c e2 bc
       0.051398456 -0.078679666 0.033469826 -0.027639464
000360 c4 97 75 3d f2 de 8a bd a0 61 97 3b c0 5a 48 3c
       0.059959188 -0.06780805 0.004619792 0.012228668
000370 0a fa cd bd fe 25 ba bd dc 5b 44 3d 5c 05 15 bd
       -0.10057457 -0.09089278 0.047939166 -0.036382064
000380 9c 09 98 3d 90 e4 fc bd a4 18 7d bd 82 db d2 bd
       0.07423708 -0.12348282 -0.061791077 -0.10295774
000390 84 87 4c 3d 40 7f 6d bb 78 ff be bc 40 5d aa bc
       0.049933925 -0.0036239177 -0.023315176 -0.020796418
0003a0 24 1a c8 bd 5c 33 11 3d 40 31 4c 3b 3e ab b0 bd
       -0.09770611 0.03544937 0.0031157285 -0.08626412
0003b0 c8 a8 40 3d c0 a6 24 bb fc 96 f7 bd 24 b5 89 3d
       0.047035962 -0.0025123805 -0.12089345 0.06724003
0003c0 5c ee 88 3d 98 ee c0 bc 8e c0 b0 bd 60 74 a4 3b
       0.066860884 -0.02355127 -0.08630477 0.005018756
0003d0 24 2c c1 3d b6 53 ea 3d a4 3a c1 bd 28 41 67 bd
       0.09432247 0.11441748 -0.09435013 -0.056458622
0003e0 ee 53 c7 3d 24 41 7a 3d a2 77 9e 3d 08 d7 7e bd
       0.09732805 0.06109728 0.07737662 -0.06221679
0003f0 86 8d dc 3d ea 72 d2 bd c0 4c c5 bb 00 17 2a 3b
       0.10769181 -0.10275824 -0.006021112 0.002595365

bias f4 [32]
000000 e0 a0 c4 3b fa 90 f5 bd 28 42 82 3c 5c 20 34 3d
       0.006000623 -0.11990543 0.015900686 0.043976173
000010 f6 1a e5 3d 3c f4 25 bd 5c ac 38 3d 40 91 2b bd
       0.11186783 -0.040516123 0.04508625 -0.041886568
000020 b4 0b 34 bd e8 d6 e2 bd a8 23 d8 3c c2 c6 ab 3d
       -0.043956473 -0.11076146 0.02638419 0.083875194
000030 72 69 8e bd e4 52 51 3d f8 ba 9f bc a4 c1 b5 bd
       -0.06953706 0.05110444 -0.019498333 -0.08874825
000040 40 60 5a 3c e2 78 f9 bd 9e 3b 89 3d 98 41 e2 bc
       0.013328612 -0.1218126 0.06700824 -0.027619168
000050 34 c5 eb 3d 20 35 97 3b 8a 30 f8 bd d2 a8 c6 3d
       0.11512223 0.0046144873 -0.12118633 0.09700169
000060 10 fb df bc e6 5a af bd bc 5c ec 3d 60 47 3f 3c
       -0.027341396 -0.085622594 0.11541125 0.011674732
000070 34 ff 25 3d 52 76 dd bd 78 d2 34 bd e6 66 cd 3d
       0.040526584 -0.108135834 -0.04414603 0.10029392

weight_ih_l0 f4 [128, 32]
000000 0f 21 a2 3d 64 97 fd 3d 1e 68 a1 bd 76 85 79 bd
       0.07916462 0.12382391 -0.07881187 -0.060918294
000010 9f ab e8 bd cb cb 98 bd 24 b7 a6 be 38 8b fe be
       -0.11360859 -0.074607454 -0.325616 -0.4971559
000020 11 bb 5d be b6 6f a9 3e df 88 11 3e cc 18 1d be
       -0.21653391 0.3309304 0.14212368 -0.1534149
000030 f4 c0 f5 3d 01 2c 92 be 58 a2 15 3e c8 19 d1 3c
       0.119996935 -0.28549197 0.1461271 0.025524989
000040 f3 4c 03 3e 7c e8 b2 3e a3 c7 3d be 3b b2 d7 3d
       0.12822323 0.34942997 -0.18533187 0.10532042
000050 08 9f cb be 80 f3 b8 3c cc f5 62 be e7 64 e0 be
       -0.3976977 0.022577047 -0.22164077 -0.43826982
000060 82 a2 86 bd 50 14 81 be a3 20 91 3d 05 90 0f 3e
       -0.06573965 -0.2521081 0.07086303 0.14019783
000070 7f 52 1c 3e a4 e3 15 be ea d8 c6 3d b4 b2 41 be
       0.15265845 -0.1463762 0.09709342 -0.18915826
000080 46 a1 eb 3d 9f 69 9f bb 0d de ee bd af cc 61 be
       0.1150537 -0.004864886 -0.116634466 -0.22050737
000090 af ba 5b 3d fe 5f 1e bd 60 d8 a3 38 39 bf ab be
       0.053644832 -0.038665764 7.812749e-05 -0.3354433
0000a0 05 ef 19 be f2 1f ae 3e 39 02 75 3e a1 f7 9d 3b
       -0.15032585 0.34008747 0.23926629 0.0048207794
0000b0 95 86 92 3e 0a c1 6e bd 35 22 03 be 3b 3b b3 bd
       0.28618303 -0.058289565 -0.12806018 -0.08751532
0000c0 ad 29 03 3e f3 ef 5f 3e 6a ac 1c bd 2b 63 01 3e
       0.12808867 0.21868877 -0.038250364 0.12635486
0000d0 61 ef a2 be 8b fa 83 bd d9 6a 07 be 0a d5 02 bf
       -0.31823257 -0.06444272 -0.13224353 -0.5110632
0000e0 6c b0 46 3d b0 a6 e1 bd c2 b7 92 3e 15 25 10 3e
       0.048508093 -0.11018121 0.2865582 0.14076646
0000f0 e8 81 46 3d 4b f1 84 3c fa ee a1 3d 5d a1 00 be
       0.048463732 0.016228339 0.07906909 -0.12561555
000100 93 7a 28 3e 2d 7f 54 3e dd 32 85 3d 60 e5 8e be
       0.16453008 0.20751639 0.06503842 -0.27909374
000110 53 0c 01 3e b0 c1 98 be 2c 70 a8 bc 78 ad c3 be
       0.12602358 -0.29835272 -0.0205613 -0.38218284
000120 bb 9b 85 bd 35 bd 88 3e 7a 82 8d 3e e0 00 a4 be
       -0.06523844 0.26706854 0.27638608 -0.32031918
000130 5d 67 0b 3d 6d cc 09 be 46 37 04 bc 7a ad 0b be
       0.03403412 -0.13456888 -0.008069819 -0.13640395
000140 6c 4b 90 3e de 40 f4 3e ca 3e b0 bd 0c c3 f7 3d
       0.28182542 0.4770574 -0.08605726 0.12097749
000150 94 b4 9b bd 90 b9 ca 3d 45 6e 4b be db 00 1d bf
       -0.07602802 0.098986745 -0.19866283 -0.6132943
000160 4c b5 b4 bd 3e 2a c7 be d2 aa fa 3d 16 dc 9f 3e
       -0.08823642 -0.38899416 0.12239613 0.312226
000170 35 ad ed 3d b0 fb 5a bd 89 6f a8 3c 6d 61 3d 3d
       0.11605302 -0.053462684 0.020560997 0.04623549
000180 ef 41 61 3e ae e2 be 3d 94 51 29 be 20 d2 d9 be
       0.21997808 0.093205795 -0.16535026 -0.42543125
000190 ad e4 c5 bd b9 0f 6c be 20 ef 04 bd fe 99 1f bf
       -0.09662757 -0.23052873 -0.03245461 -0.6234435
0001a0 b2 3c 17 3e 91 d5 4d 3e 9b af 85 3c dd 77 84 3d
       0.14769247 0.20101 0.016319087 0.064681746
0001b0 97 fa 4b 3c 25 a4 75 be 73 b4 d2 3d df ce 26 3e
       0.012449882 -0.23988397 0.10288324 0.16289853
0001c0 48 2f d8 3d 32 aa 8a 3e 1b 09 9c bd b5 36 48 bd
       0.10555893 0.27082974 -0.07618924 -0.048880298
0001d0 b9 68 d9 bd 49 79 48 be 60 ac 75 be 25 6e 13 bf
       -0.106156774 -0.19577517 -0.23991537 -0.5758994
0001e0 79 9d 22 be e3 86 96 be 10 ca 22 3c 15 0e de 3d
       -0.15880384 -0.29399785 0.009935871 0.1084253
0001f0 15 cb d3 3d 08 55 0a 3d ec d2 0e be e1 7b 4b bc
       0.10341469 0.0337725 -0.13947648 -0.012419672
000200 4d 73 35 bc 10 0c 90 bc 49 6d 73 3d 51 25 ad be
       -0.011074853 -0.017583877 0.059430394 -0.33817533
000210 3b 52 02 be cb 4b f3 bd 10 46 c4 bd 06 2a a7 be
       -0.12726681 -0.11879691 -0.09583676 -0.3264925
000220 4d 0c 58 bd 61 4b 8f 3d 94 07 2f 3e ea 5f c9 3d
       -0.052746106 0.06996799 0.17092735 0.09832747
000230 6f b6 41 3e 89 e2 85 be a1 c4 ba bb 00 fb d7 3b
       0.18917249 -0.26149395 -0.0056997095 0.006591201
000240 3e 27 b3 3d ca a3 0e 3f 98 c8 49 be 93 34 5b be
       0.08747719 0.5571867 -0.19705427 -0.21406774
000250 15 bd 16 be e5 c9 64 be 67 17 22 be e5 92 f6 be
       -0.14720567 -0.22342642 -0.1582924 -0.48158947
000260 f6 ec 45 be 53 11 58 be 62 94 b1 3d 52 2b 2e 3e
       -0.19328675 -0.21100359 0.0867088 0.17008713
000270 49 2d 76 3e 11 a9 0a be 64 72 96 be ad b5 35 bd
       0.24040712 -0.13541056 -0.29384148 -0.044362713
000280 6e ca 95 bc 41 46 4b 3d b4 df b6 bd 46 ef 88 be
       -0.018285003 0.049627546 -0.08929387 -0.2674505
000290 1d ea 35 be d2 e9 7a bd 26 85 a8 be df 76 be be
       -0.17765088 -0.061258145 -0.32914084 -0.37200066
0002a0 01 13 a4 be a3 e5 61 3e 88 3c 18 3d 9d cd 89 bb
       -0.3204575 0.22060256 0.037167102 -0.004205419
0002b0 84 e6 2a 3e 07 57 1d be 09 d3 f5 3d b4 fa 03 3e
       0.16689497 -0.1536523 0.120031424 0.12888604
0002c0 0d e8 89 3e 35 ae 7c 3e 51 f2 0d 3e 8b 1a f9 bd
       0.26934853 0.2467583 0.13861968 -0.12163266
0002d0 2c 1e c0 be de 13 16 bc 19 b2 0e 3d 14 14 05 bf
       -0.3752302 -0.00916001 0.034837816 -0.5198376
0002e0 16 13 57 3c 11 de 9b be 19 c8 32 3e f9 a9 69 3e
       0.013127109 -0.3044286 0.17459144 0.22818746
0002f0 54 1f 29 3e 1f 2b fc bc 56 62 b6 be 14 37 17 bd
       0.16515857 -0.03078228 -0.356219 -0.03691776
000300 9b 59 4f 3e a0 ce 0f 3e e0 25 4e be 5e 2f 87 bd
       0.20249026 0.14043665 -0.20131636 -0.066008314
000310 ba 99 76 3d dd 62 89 bd 51 57 4c bd e9 b7 e3 be
       0.0602052 -0.0670831 -0.04988796 -0.4447625
000320 e9 0f 57 bb 28 c4 2a 3d 2f c7 de 3c 38 64 01 be
       -0.003281588 0.041690975 0.027194588 -0.12635887
000330 f3 24 bb 3c 1f 16 fd bd 34 87 15 bd 0e 1f 11 bd
       0.022844767 -0.12357735 -0.036505893 -0.035430007
000340 62 a9 23 3e d6 d5 c0 3e 4c 1f 3d be 45 a1 fb 3c
       0.15982583 0.37663144 -0.1846897 0.030716548
000350 ef 87 a8 be 48 c3 fb bb f4 9c 94 bd 40 0b 27 bf
       -0.3291621 -0.0076831914 -0.07256499 -0.6525154
000360 72 1b a2 bd 40 94 1c be 76 3c b0 3d 4a 2e b1 3e
       -0.07915391 -0.15290928 0.08605282 0.34605628
000370 8f a5 84 3d 69 2e c8 3b fa 0a 2b be a0 f3 c7 bd
       0.0647689 0.006109048 -0.16703406 -0.09763265
000380 39 ac aa bc 2e a9 dd 3e e2 ea d2 b9 40 1a d2 be
       -0.020834075 0.43293136 -0.00040229323 -0.41035652
000390 13 90 3f be d8 11 bd be 3f a7 95 bd 96 ec 12 bf
       -0.18707304 -0.36927676 -0.0730729 -0.5739225
0003a0 70 a1 23 be ce fd 09 3e 91 de 02 3d 7c b3 87 be
       -0.15979552 0.13475725 0.031950537 -0.26504123
0003b0 3d 9d b6 3d f3 20 de be 92 25 2a bc 66 4b 05 be
       0.089167096 -0.43384513 -0.010384934 -0.13017043
0003c0 a5 34 84 3e 92 68 8e 3e da c1 5b be 81 4d d6 3d
       0.25821415 0.27814156 -0.21460667 0.104640014
0003d0 02 3b 1b be a4 99 e1 bc 1e 19 09 3d 5e 2b 21 bf
       -0.15159228 -0.027539082 0.03347122 -0.629568
0003e0 7d c1 40 3e 48 0c c3 be a0 be da 3e 25 b1 a3 3e
       0.1882381 -0.38095307 0.4272356 0.31971088
0003f0 9a c0 91 3e 65 11 2c bc fd 90 2b be ed b0 0b 3e
       0.28467256 -0.010502194 -0.16754527 0.1364171

weight_hh_l0 f4 [128, 32]
000000 a2 68 87 3d d6 ed 25 3d 66 b9 ea bd 19 d3 f6 bd
       0.06611754 0.04051002 -0.11461143 -0.120519824
000010 e2 12 e5 bc af ec 7e bd 48 08 18 3e ed 4e bc 3c
       -0.027963106 -0.062237438 0.14846909 0.022986853
000020 d2 99 1f 3e a6 24 08 be fa 88 3d bd 3a 02 de bd
       0.15586022 -0.1329523 -0.04627321 -0.108402684
000030 8b 98 26 be 3c 78 b9 bc d2 e2 95 3d 41 0d 91 3d
       -0.16269128 -0.02264034 0.07318653 0.07082606
000040 3f 63 d3 3d a7 52 ad 3b bc 2f 4d 3e dc ee 85 3d
       0.10321664 0.005289394 0.2003774 0.065396994
000050 31 57 3e 3e 65 0b 85 3d e3 e6 42 bc 4a e2 0b bd
       0.18587948 0.06496314 -0.011895868 -0.034151353
000060 5e 4e cb 3d 79 f2 c7 bd ec 37 ad 3d c9 9e d1 3d
       0.09927057 -0.09763045 0.08457932 0.10235364
000070 9d 2f f9 bd fa d5 a7 bd b1 41 f8 3d e6 78 00 be
       -0.12167285 -0.0819511 0.12121905 -0.12546119
000080 b5 8d 31 3e 40 ae cd 3d e4 da 1f be 4b 62 d5 3d
       0.17339213 0.10043001 -0.15610844 0.104191385
000090 29 4c b3 bd dc 8d 53 be e9 79 f4 3d 1d 79 28 be
       -0.08754761 -0.20659584 0.11937315 -0.16452451
0000a0 c4 a9 d4 3d 41 7d 4f 3d 22 50 b9 bd 0d 7b 9b bd
       0.10383943 0.05065656 -0.09048487 -0.075918294
0000b0 e5 ca c1 3a 9c 9f 0c bb d6 86 1e 3d 07 cb 71 3c
       0.0014785199 -0.002145744 0.03870281 0.014757878
0000c0 52 6a 9a bd 7a 55 5d 3d a8 c8 d2 bd 63 a3 9a bd
       -0.0753981 0.054036595 -0.102921784 -0.07550695
0000d0 a8 f4 1d 3e 5f a3 81 bd 18 1c 9d bd e9 14 40 be
       0.1542536 -0.06329989 -0.07671374 -0.18757977
0000e0 2e 17 e7 3c 29 0d 73 3d 41 61 bf 3d d2 d7 dc 3d
       0.028209295 0.059338722 0.093447216 0.10783352
0000f0 e7 33 45 3e 37 1d 76 bd 81 8b 3b 3d 7d 41 bf bd
       0.1925808 -0.060086455 0.04578734 -0.09338663
000100 f0 ba 53 3d bb 3d 4f bc c1 d3 28 be 30 1e 9d bc
       0.05169195 -0.012648995 -0.16487028 -0.019179434
000110 c6 c0 54 3e 99 b0 a7 3d 52 6f 4b 3e d2 0f 3d 3d
       0.20776662 0.0818798 0.19866684 0.046157666
000120 12 72 04 3e be 23 ee 3d 7a 7e 1a be eb d0 72 3d
       0.1293414 0.11627911 -0.1508731 0.05928127
000130 03 31 6f bd f3 fc ee 3d 4d 0f 0b be 5c d8 4c 3e
       -0.05839635 0.1166934 -0.13580056 0.2000441
000140 c0 6e 10 3e c1 b5 fc 3d e3 1f ab bb db 34 1b be
       0.14104748 0.12339354 -0.005222307 -0.15156882
000150 30 f0 be bd 5a b0 21 3d 63 5d a7 3d 67 85 63 be
       -0.09323156 0.039474823 0.08172109 -0.22218858
000160 1f 66 30 3e 65 01 1b bd 67 8d bb 3d a1 3c 6b ba
       0.17226456 -0.037843127 0.0915783 -0.0008973573
000170 25 5e 21 3d de d5 f4 3c 70 5b 7f bd 22 0f 91 bd
       0.039396424 0.029887136 -0.06234306 -0.070829645
000180 a1 d4 6a 3d 67 bd 21 3e 77 65 f9 3d b3 f9 8d bd
       0.057331685 0.15794908 0.12177556 -0.06932392
000190 15 ef 6d 3d 27 c0 30 bc 12 28 4a bd b6 b2 ff 3d
       0.058089335 -0.010788 -0.04935462 0.12485258
0001a0 de 7b 0d 3d 0f c4 51 3e 77 75 d9 3d 7b 38 2b be
       0.034541957 0.20484947 0.10618108 -0.16720764
0001b0 69 0f 48 be 61 ba 2d bd 1e df 1d be 7a bb 7c 3d
       -0.19537129 -0.042414073 -0.15417144 0.06170223
0001c0 4c cc c3 bd ab 2d a5 bd e6 58 14 be 88 9b b1 3d
       -0.09560451 -0.08065351 -0.14487037 0.08672243
0001d0 6c cf 11 bc db 0a c6 3c dd 44 87 bd 13 77 3e be
       -0.008899551 0.024175098 -0.066049315 -0.1860011
0001e0 58 89 d3 bd 1a ab ba 3d cf 77 29 bd ab bb 8c 3c
       -0.103289306 0.09114666 -0.041374024 0.01717933
0001f0 69 df db 3d 42 ab 3b 3e dd f7 54 bd 3b d4 45 3e
       0.107359715 0.18327048 -0.051994193 0.19319241
000200 5d be 4c bc d8 5d 2b 3e a8 84 3e 3e 19 3d ac 3c
       -0.012496558 0.16735017 0.18605292 0.021025227
000210 34 a3 0b be df a7 7a be e7 1e 73 bd c8 87 f2 bd
       -0.13636476 -0.244781 -0.059355643 -0.118423045
000220 9f 26 d6 bd 1b af 60 3b 46 f9 4a 3d 52 37 77 bb
       -0.10456585 0.0034284058 0.049554132 -0.0037722182
000230 0f a1 f8 3c 34 30 2b be 7d b9 ad bc b0 9f 2f bc
       0.030350236 -0.16717607 -0.021206612 -0.010719225
000240 b9 b5 14 3e 45 95 00 be fe 3a f4 bd ad 85 39 be
       0.14522447 -0.12556942 -0.11925314 -0.181174
000250 89 f8 de 3d 6c 7f 7e bd 6e 64 85 3d 40 bb dc 3d
       0.10887248 -0.062133238 0.06513296 0.107779026
000260 c9 84 ef 3d f2 11 6c bd bd f7 77 bd 4b ab a6 3d
       0.11695249 -0.0576343 -0.060538996 0.0813814
000270 1c e3 d7 3d 4a 93 d8 3d 78 37 a6 bd 42 5b b1 3d
       0.105413646 0.10574968 -0.081160486 0.08659984
000280 55 2f d4 bd 6a f4 12 be 90 b1 97 bd f8 ae 74 3d
       -0.1036059 -0.14351049 -0.07406914 0.059737176
000290 dd 44 30 3e 90 78 0f 3e 95 37 d6 3c e5 f3 32 bc
       0.1721377 0.14010835 0.02614955 -0.010922407
0002a0 b8 8e 13 3e d6 c6 a4 3d 54 cf 19 3d 99 7b 9d 3d
       0.14409912 0.080457374 0.03755124 0.0768959
0002b0 41 fd 98 3d 5b 1a 5f 3b 79 e8 b1 3c 5c 2a 56 bc
       0.07470179 0.0034042809 0.021717297 -0.013071623
0002c0 6d 6e 79 3d 8e 4b 83 bd 85 20 13 3e af 6b a9 bd
       0.060896326 -0.06410895 0.14367874 -0.08272492
0002d0 7e a2 d9 bd bc 98 3b be ae fd 0c be d6 38 20 bc
       -0.10626696 -0.18319982 -0.13768646 -0.009779176
0002e0 0d ec 0b 3d 9f 22 07 be 59 b4 d3 bd d9 61 4f be
       0.034160662 -0.131968 -0.10337133 -0.2025217
0002f0 d9 8c e9 3d 1a 00 fd bd c8 58 e7 3d a7 d2 c5 3d
       0.11403818 -0.12353535 0.112962306 0.09659319
000300 fb 0a af 3d 4b 07 2d 3e d4 a7 e3 3d 92 c9 21 3e
       0.08547016 0.16897313 0.11115995 0.15799549
000310 d1 41 a7 3c a8 3a fb bd 56 52 d6 bd 74 39 11 3c
       0.020417126 -0.12267047 -0.10464923 0.008863796
000320 66 58 c6 3d 2d c1 47 3e 05 36 41 bd 71 36 db 3d
       0.096848294 0.19507284 -0.047170658 0.10703743
000330 e7 80 b8 bd f1 8e 59 3d 06 c9 78 bd 7c 16 9b 3d
       -0.09008961 0.053114835 -0.060738586 0.07572648
000340 98 b4 2b be 5c 35 1a be d1 97 b6 ba f0 7e fc 3d
       -0.1676811 -0.15059417 -0.0013930743 0.12328899
000350 08 86 81 3d 0d b5 e5 3d 0f 5e 36 3e 0a 8a 8f 3c
       0.063243926 0.11216173 0.17809318 0.017521877
000360 06 b1 41 3e 34 bd bf 3d 22 4a 0f be 9f 41 05 3e
       0.18915185 0.093622595 -0.13993123 0.13013314
000370 19 33 a3 bd cd 40 f4 3d 98 5a 14 3d 37 f9 d7 3d
       -0.079687305 0.11926422 0.03621921 0.10545581
000380 15 29 fb 3d bb 62 c2 bd 93 61 65 bd 93 8a 16 3e
       0.12263695 -0.094914876 -0.056001257 0.147013
000390 58 42 56 3d 60 0d fb 3d 2d d0 16 3e eb 9e c4 3c
       0.052309364 0.122584105 0.1472785 0.02400156
0003a0 77 ab db bd 41 4d 65 3d eb 0a 97 bd 41 65 b4 3d
       -0.10726064 0.05598188 -0.07375129 0.08808375
0003b0 4e 09 e1 3d c0 4d ef 3c 97 5f f6 bd e2 95 32 bb
       0.10988103 0.029211879 -0.12029951 -0.0027249982
0003c0 96 9b 4a be 77 ff c4 3b 90 4d 62 3e e0 29 e7 3d
       -0.19785914 0.006011899 0.220999 0.11287284
0003d0 60 4f c8 bd ce 77 03 be 15 53 7b 3d 2d cd 16 be
       -0.097807646 -0.1283867 0.06135853 -0.14726706
0003e0 5c 2e c2 3d 9c be 22 bd b0 99 bf bd 10 76 8f bd
       0.094814986 -0.03973256 -0.093554854 -0.070049405
0003f0 65 d3 b5 bc 1c c3 d9 3b 8d ad e0 3d 0f a4 3f 3e
       -0.022195527 0.0066455733 0.10970602 0.18714927

bias_ih_l0 f4 [128]
000000 4e 90 a3 be fb 49 26 be 0f 43 e2 be 9f e2 b7 bd
       -0.31946033 -0.16239159 -0.44191787 -0.089787714
000010 75 98 1c bd 97 44 35 be 32 5e 92 be d6 3b 0c bf
       -0.03823133 -0.17701946 -0.2858749 -0.547788
000020 cc 99 c3 be c1 12 77 be 03 df ef bd d4 fb 03 be
       -0.38203275 -0.24128248 -0.11712458 -0.12889034
000030 cd 77 44 be 1b 6e e8 be 0d f7 d5 be 7f 25 7e be
       -0.19186325 -0.45396504 -0.41790047 -0.24818991
000040 1f be 78 be e0 42 f1 be 51 05 45 3c c9 61 a0 be
       -0.24291275 -0.47121334 0.012025193 -0.31324604
000050 54 7b 8a be dc 49 94 be 6a 63 f9 bd 2d 6a 72 be
       -0.27047217 -0.289626 -0.12177165 -0.23673315
000060 f3 7b b3 be e3 31 ad be e7 0a 6c be e9 51 12 be
       -0.35055503 -0.33827123 -0.23051034 -0.14289059
000070 65 a7 bc be f9 8f 3f be 36 4e 28 be 6d d5 00 be
       -0.36846462 -0.18707265 -0.16436085 -0.12581415
000080 3d e7 06 be a9 1e 19 3d b3 65 96 bd 53 18 12 be
       -0.13174148 0.037382755 -0.07343616 -0.14267091
000090 84 43 08 bd d1 56 29 be c2 ec 2f bd 9b 29 05 be
       -0.033267513 -0.16537024 -0.0429504 -0.13004152
0000a0 07 73 35 bc 0a b1 66 3d 83 1f 0b bd aa b3 8d be
       -0.011074788 0.05632118 -0.0339656 -0.27676135
0000b0 f5 82 83 be 10 df 94 be 47 3a 9e be b6 df 21 be
       -0.2568585 -0.29076433 -0.30903837 -0.15807995
0000c0 a0 b9 25 3d 49 ef ca be 5a 4f ac bc 13 60 56 be
       0.04046023 -0.39635685 -0.021033932 -0.20935087
0000d0 f6 f1 37 be bf 3a dd bd a2 45 41 be 4d f8 b8 3c
       -0.17963395 -0.108022206 -0.18874219 0.022579337
0000e0 e3 90 f0 bd 39 57 ea bd a9 d2 0b 3d 00 b3 bb 3c
       -0.11746385 -0.11442418 0.034136448 0.022912502
0000f0 93 5b 7c bd 86 92 8c bd c9 fb 62 bd 6e 99 80 be
       -0.06161077 -0.06863885 -0.055415902 -0.25117058
000100 67 da 4b 3d 64 47 be bd fe 42 8a 3d a4 39 1d be
       0.04976883 -0.092909604 0.06751059 -0.1535402
000110 c7 19 1b 3d 12 b3 7d bd 4c 88 b5 bd 81 66 3a bd
       0.03786638 -0.061938353 -0.08863887 -0.04550791
000120 f7 9f 03 3e 7c 77 0a be ed 14 e9 3d be a1 ff bd
       0.1285399 -0.13522142 0.113809444 -0.12482022
000130 21 5e 1d be ea 0b 15 3d a7 90 8e bd 89 aa 4e bd
       -0.15367939 0.036388315 -0.06961184 -0.050455604
000140 e5 fe 14 3e 33 00 85 3d 9b 9d 32 be 48 1e 88 3d
       0.1455036 0.064941786 -0.17442934 0.06646401
000150 4d ba 84 bd 61 8a 98 3d b8 07 b1 bd 4a 12 f9 3d
       -0.064808466 0.07448269 -0.0864405 0.121616915
000160 40 42 00 be 32 15 dc 3c dd 3e 83 3d 2d 6a e5 3d
       -0.12525272 0.026865575 0.064084746 0.11201892
000170 24 b7 77 bd d6 c2 10 bd 36 76 a3 3c 75 f0 1e 3d
       -0.06047739 -0.03534206 0.019953828 0.038803536
000180 a7 79 6f be 93 4e 04 bd 29 e6 b7 be 53 18 40 be
       -0.2338625 -0.032301497 -0.35917786 -0.18759279
000190 a8 8b 2c be 54 fe 76 be dd 3b 2f be 32 62 87 be
       -0.1685015 -0.24120456 -0.1711268 -0.26442105
0001a0 9a 0c 1b be 35 c4 9a be 03 5d 10 bd 71 ae 31 be
       -0.15141526 -0.3022782 -0.035244953 -0.173517
0001b0 d0 b5 98 be c1 2a c3 be 11 0d 3c be b1 7f 00 be
       -0.29826212 -0.38118556 -0.1836436 -0.1254871
0001c0 a4 d5 7d be 37 1e 7b be 53 04 f7 3b 40 20 f5 bd
       -0.24788529 -0.24523245 0.0075383573 -0.11969042
0001d0 00 17 96 bd d9 7c a2 be cd 0d 69 be 3c 55 76 be
       -0.07328606 -0.31735876 -0.22759171 -0.24055952
0001e0 4e 6d cc be 4c 67 19 be 53 2a db bd 74 b1 2f bd
       -0.39927143 -0.14980811 -0.10701432 -0.042893842
0001f0 df fc 4a be 80 88 82 be 0f 06 2f be 6b e1 78 b9
       -0.19823025 -0.25494766 -0.17092155 -0.00023735098

bias_hh_l0 f4 [128]
000000 0c 8c d7 be a4 bb 6d be ac e2 dd bd cb dd b4 be
       -0.42099035 -0.2321611 -0.1083425 -0.35325465
000010 20 7c 34 be 04 10 ec be 76 7e 51 be 35 64 ad be
       -0.17625475 -0.4610597 -0.20458397 -0.33865514
000020 69 4a 7e be 8f e9 5d bd af 56 45 be 23 f5 45 be
       -0.24833073 -0.054177817 -0.19271348 -0.19331793
000030 5f f1 8a be f5 43 52 be 8f 99 05 be c8 a2 ca be
       -0.27137277 -0.20533736 -0.13046859 -0.39577317
000040 73 35 09 3c 38 e6 82 be 7f a8 78 be d1 49 b0 bd
       0.00837456 -0.25566268 -0.24283026 -0.08607829
000050 b3 82 d0 bd e5 e3 81 be 97 be 91 be e0 3e 5b be
       -0.10181179 -0.25369182 -0.2846572 -0.21410704
000060 cf ea c7 be fe 30 6f be ed a3 ba be b3 c1 8c be
       -0.39046332 -0.23358533 -0.3645319 -0.2749153
000070 5f d9 af be 15 71 a0 bc ff 94 ba bd 4f 0f 9d be
       -0.34345528 -0.019585172 -0.0911045 -0.30675742
000080 3a 04 b1 be 89 20 22 be 23 f1 c5 be 1f aa fb bd
       -0.34573537 -0.15832724 -0.38660535 -0.122883074
000090 4e b2 1c bc af df ae be d5 0e e6 bc 2d 01 c7 be
       -0.0095639955 -0.34155032 -0.028083244 -0.38868085
0000a0 a9 be 1a be 24 cf 97 bd a3 7f 0f 3c 4f 5e 20 be
       -0.15111794 -0.07412556 0.008758458 -0.15660976
0000b0 a3 c8 af be d5 86 ba bd 06 33 18 be 61 41 d6 bd
       -0.3433276 -0.091077484 -0.14863214 -0.10461689
0000c0 b3 27 53 be bc f9 88 be 53 73 5f be 44 6a 8f 3c
       -0.20620613 -0.26753032 -0.21821336 0.017506726
0000d0 61 c8 8e be 01 c8 9e be 99 29 e3 bd 25 2f 2d be
       -0.27887252 -0.31011966 -0.110919185 -0.16912515
0000e0 1b 30 a4 be 1b fe 4f be 0f f8 36 be a2 3e 45 be
       -0.32067952 -0.20311777 -0.17868064 -0.19262174
0000f0 a1 bb 77 be 09 3e 84 be a1 39 36 be e9 15 33 be
       -0.24192668 -0.2582858 -0.17795421 -0.17488827
000100 fd 44 d0 bc 50 59 af bd 1a e4 86 bb ab 13 2c 3d
       -0.025423521 -0.08561957 -0.0041165473 0.042010944
000110 53 ef 87 3c 47 77 00 3b c8 58 fa bc 4c 47 a9 3d
       0.01659361 0.0019602345 -0.030559912 0.08265552
000120 32 03 0b bd cd 4b 11 3e 18 c1 4f 3d 1d 7a 04 3e
       -0.033938594 0.14189072 0.050721258 0.12937208
000130 fa 6e d0 3d 31 b7 22 bd 5e 2a e1 3d 43 67 c1 bd
       0.10177417 -0.039725486 0.10994409 -0.09443524
000140 e8 d7 0e be 45 04 bf bd 7d 51 cb 3c 23 53 25 3c
       -0.13949549 -0.09326986 0.02481913 0.010090622
000150 50 9d bb 3d 07 52 8e 3c 0d 3a e5 bd 7f 05 b2 bd
       0.09160864 0.017373098 -0.11192713 -0.086924545
000160 30 ee 9c 3c 10 dc 6e 3d 05 fe 38 3d 03 46 a4 3d
       0.019156545 0.058315337 0.045164127 0.08021166
000170 87 de d2 bc 47 5b b4 3d 7a 1a 48 bd 78 dd c1 bd
       -0.025740875 0.08806472 -0.048853375 -0.0946607
000180 0d e9 e4 be 28 ec 8f bc 70 84 48 be 17 8a 47 be
       -0.44709054 -0.017568663 -0.19581771 -0.19486271
000190 bd 97 42 bd 03 5a 7e be be 1f 0e bb 43 99 16 bf
       -0.04750799 -0.24839024 -0.00216864 -0.5882761
0001a0 1d e8 c2 be e5 b8 b4 bd 71 fb 51 be 6f 2e 34 be
       -0.38067713 -0.08824328 -0.20506074 -0.17595838
0001b0 b9 70 b5 be 7f 92 5e be b4 c6 a9 be fc 46 6d be
       -0.35437563 -0.21735571 -0.3315941 -0.2317161
0001c0 6a 57 7b be f8 ad 9c be 58 f3 b8 bd 1f b1 8a be
       -0.24545065 -0.30601478 -0.09030789 -0.27088258
0001d0 9c 56 c0 be 09 68 14 be 6a f4 20 be 73 96 23 be
       -0.37566078 -0.14492811 -0.15718237 -0.1597536
0001e0 20 71 47 be 49 56 8e be a7 ca 7a be 4d 4c 2f 3c
       -0.19476748 -0.27800205 -0.24491368 0.010699344
0001f0 51 96 84 be 18 3a 8b be b6 8b bb bd b0 8f 3c be
       -0.25895932 -0.2719276 -0.09157507 -0.18414187
