experiments/pedestrians/models/06_Aug_2023_21_23_08/model_registrar-73.pt (torch, 713991 bytes, 82 tensors)

weight f4 [64, 10]
-0.01922136 -0.020945717 0.14228755 0.022179771 -0.7085286 0.8617247 0.01974964 -0.24107532
-0.15718652 0.12466638 0.045561712 0.29312244 0.3670553 0.05601937 -0.23144862 -0.17626993
-0.30060545 -0.38381305 -0.12523419 0.077602915 -0.0052561476 0.101466425 -0.037224054 0.5020354
-0.10758985 -0.033477064 -0.27197552 -0.03465262 -0.0029917923 -0.16133095 0.0035079543 0.02631346
-0.048212577 -0.05801426 -0.6260353 0.7390061 -0.27181488 -0.21032041 -0.033416472 -0.25231758
0.04461878 -0.04324825 0.0449471 0.12269598 0.6146635 0.44844612 0.2769411 0.1576109
-0.2533721 0.1689193 0.0030068825 0.05005416 0.38315886 -0.16600637 0.002468654 0.43502742
0.17826347 -0.0056014056 -0.053057086 0.08107015 -0.037850562 0.20445152 0.4521338 4.6922927e-05
0.50174206 -0.49761495 -0.27396873 0.25593126 0.29777884 0.21589014 -0.03481972 -0.14314386
0.055650834 -0.3664095 -0.7224449 -0.35149726 0.38807827 0.012016337 0.035601705 0.0249768
0.14920023 0.06692914 -0.41781506 0.012682115 -0.71390563 -0.18049173 -0.15204121 -0.17597099
0.226559 0.09817854 -0.037829716 0.111390494 0.503058 0.31642556 0.056988426 0.38871506
0.1454144 -0.23709302 0.2947894 0.26657924 -0.19684675 0.12458252 0.2877713 0.21778962
-0.2731937 -0.012640687 -0.121379025 0.13266858 0.232105 -0.25484753 0.015838541 -0.05436781
0.565176 0.019979162 -0.7948183 -0.8716214 0.14147203 0.4506629 -0.077284485 -0.01717501
-0.12975904 0.14086781 0.3464766 0.13770081 0.17096472 0.24734361 0.209971 -0.07301978
0.04769173 -0.17408071 -0.0050522415 0.15220055 -0.00040134302 -0.6452286 -0.047872335 0.013619589
-0.04309361 -0.30876896 -0.17800017 -0.33797905 0.033228133 -0.1641319 -0.33314008 0.35381022
-0.18366306 -0.022444805 0.33596703 0.11080476 0.07664374 0.44400427 0.018876866 0.027870445
0.045481827 -0.36207244 0.40267256 -0.8055146 -0.22131994 0.17458174 -0.20443103 0.11237508
-0.17605104 0.25050768 -0.017648982 0.05439025 -0.85833794 -0.12635443 0.024220103 0.19650151
-0.051574055 0.3563187 0.28446916 0.38146925 0.17853238 0.37543413 -0.18367705 0.7337196
0.007440183 0.013055709 -0.05888407 0.11050728 0.029070182 0.14025174 0.6582559 -0.231787
-0.12250483 0.15841356 0.25418317 0.0045062667 0.17517345 0.28075594 0.28164276 0.2057978
-0.44516137 -0.12798499 -0.5744382 -0.17424366 0.07774745 0.13026904 -0.23728885 0.22541176
0.0004458439 0.054606907 -0.2553651 0.2755338 0.3484521 -0.593989 -0.029753717 -0.16742876
0.20165622 -0.12416824 -0.24110922 -0.048113715 -0.0033137675 0.0571947 0.5834719 0.9598847
0.36904866 0.17632832 0.21140708 -0.012681462 -0.0032787367 0.2789178 -0.2630032 0.061965603
0.47213453 0.42591965 0.23371236 0.25788298 0.09940251 -0.1551374 -0.006706321 -0.21393529
-0.13835001 0.5362698 -0.092881076 -0.5095041 -0.14210327 0.053732738 -0.14468469 0.114401
0.110569715 -0.26115656 0.14722626 -0.2242607 0.35502598 0.41568935 -0.039690174 -0.39312586
-0.13189293 -0.36926684 -0.13693729 -0.11498196 0.20525827 0.46521947 -0.21953717 -0.48512664
00000000: 1d76 9dbc 5a96 abbc d4b3 113e 5ab2 b53c
00000010: 2162 35bf fd99 5c3f ffc9 a13c 73dc 76be
00000020: 81f5 20be 1651 ff3d eb9e 3a3d 2514 963e
00000030: acee bb3e 9174 653d de00 6dbe 1b80 34be
00000040: f5e8 99be 2583 c4be 643d 00be 47ee 9e3d
00000050: c33b acbb a1cd cf3d 4078 18bd 6485 003f
00000060: 1158 dcbd 3f1f 09bd 6040 8bbe e8ef 0dbd
00000070: f211 44bb f133 25be b5e5 653b 538f d73c
00000080: 8d7a 45bd 5ca0 6dbd d943 20bf 812f 3d3f
00000090: 522b 8bbe 3c5e 57be b6df 08bd c52f 81be
000000a0: 2fc2 363d 1425 31bd 731a 383d 0848 fb3d
000000b0: 965a 1d3f bb9a e53e 39cb 8d3e c064 213e
000000c0: fdb9 81be 2ef9 2c3e 1e0f 453b 9705 4d3d
000000d0: 662d c43e 93fd 29be 24c9 213b eabb de3e
000000e0: b38a 363e ff8b b7bb 6352 59bd 1b08 a63d
000000f0: 3109 1bbd bd5b 513e 157e e73e 1ccf 4438
00000100: 2b72 003f 63c7 febe a145 8cbe 6c09 833e
00000110: 7876 983e 4e12 5d3e 1f9f 0ebd 4e94 12be
00000120: 21f2 633d 079a bbbe 26f2 38bf 73f7 b3be
00000130: 32b2 c63e 2ce0 443c 18d3 113d 259c cc3c
00000140: f2c7 183e 2512 893d dbeb d5be a5c8 4f3c
00000150: 85c2 36bf d3d2 38be b1b0 1bbe bd31 34be
00000160: 15ff 673e d511 c93d 55f3 1abd b320 e43d
00000170: 69c8 003f 8802 a23e b26c 693d a905 c73e
00000180: 83e7 143e 83c8 72be a3ee 963e 137d 883e
00000190: 3292 49be 1f25 ff3d c356 933e 3e04 5f3e
000001a0: 0be0 8bbe e21a 4fbc 9195 f8bd 46da 073e
000001b0: efac 6d3e 607b 82be d4bf 813c c8b0 5ebd
000001c0: 60af 103f 57ab a33c 3679 4bbf 9422 5fbf
000001d0: 0bde 103e 4abd e63e 5447 9ebd 9bb2 8cbc
000001e0: 8edf 04be a73f 103e 6265 b13e 7101 0d3e
000001f0: 6011 2f3e a547 7d3e a302 573e 658b 95bd
00000200: 6758 433d 3742 32be 468d a5bb 76da 1b3e
00000210: 596b d2b9 b42d 25bf c815 44bd b224 5f3c
00000220: ed82 30bd f716 9ebe ad45 36be 970b adbe
00000230: 391a 083d 3112 28be 5691 aabe 9d26 b53e
00000240: 2b12 3cbe 2bde b7bc df03 ac3e 9bed e23d
00000250: 65f7 9c3d 8754 e33e a8a3 9a3c 8f50 e43c
00000260: 274b 3a3d 8f61 b9be 192b ce3e 3436 4ebf
00000270: b2a1 62be 8ec5 323e 5e56 51be e824 e63d
00000280: b946 34be 8b42 803e 9994 90bc 50c8 5e3d
00000290: 09bc 5bbf 0e63 01be 3d69 c63c b137 493e
000002a0: 513f 53bd 686f b63e f1a5 913e f04f c33e
000002b0: 31d1 363e e738 c03e d615 3cbe 0cd5 3b3f
000002c0: c7cc f33b 9de7 553c 6c30 71bd a451 e23d
000002d0: 9724 ee3c 279e 0f3e 7583 283f 9259 6dbe
000002e0: d0e3 fabd 2a37 223e 4c24 823e 4ea9 933b
000002f0: ab60 333e 3ebf 8f3e 7b33 903e a9bc 523e
00000300: 31ec e3be 7f0e 03be 620e 13bf ee6c 32be
00000310: 0e3a 9f3d 3f65 053e d9fb 72be 57d2 663e
00000320: 28c0 e939 7eab 5f3d 37bf 82be c412 8d3e
00000330: 5068 b23e aa0f 18bf 11be f3bc 7272 2bbe
00000340: f87e 4e3e eb4b febd 56e5 76be e312 45bd
00000350: cb2b 59bb fd44 6a3d 6a5e 153f 01bb 753f
00000360: f2f3 bc3e 698f 343e 197b 583e e8c5 4fbc
00000370: 13e0 56bb 50ce 8e3e 5ba8 86be a5cf 7d3d
00000380: 9ebb f13e 2412 da3e 4b52 6f3e 3d09 843e
00000390: 8b93 cb3d 57dc 1ebe b3c0 dbbb da11 5bbe
000003a0: a0ab 0dbe fa48 093f 6f38 bebd dc6e 02bf
000003b0: 8583 11be dc16 5c3d 3928 14be 124b ea3d
000003c0: 6072 e23d 50b6 85be 7bc2 163e 99a4 65be
000003d0: f7c5 b53e 3cd5 d43e 2a92 22bd cb47 c9be
000003e0: f10e 07be 8b10 bdbe 4a39 0cbe a97b ebbd
000003f0: 392f 523e 3f31 ee3e 5ace 60be 8562 f8be

bias f4 [64]
-0.20631637 -0.11622546 -0.2497044 0.2829397 0.14116712 0.29220435 -0.28907806 -8.485958e-05
0.07650247 0.23221272 -0.02475461 0.48700425 -0.11510583 0.040647414 -0.016800875 -0.045169
-0.13433035 -0.2366172 0.23211843 0.121369235 -0.10238278 0.17239949 0.17635415 -0.1443693
-0.19460945 0.09894632 0.032286674 -0.15493721 -0.30526575 0.0330052 0.16146055 -0.27984115
-0.15325262 0.10588076 -0.28786567 0.24145415 0.21836057 -0.11220635 -0.14068447 0.09674633
-0.14853688 0.29732364 0.02761845 -0.10729156 -0.19895886 0.10293133 -0.14767693 -0.28052628
0.13859339 -0.13056658 -0.0014657909 0.24032909 -0.37339413 -0.3540566 -0.4498237 0.11277778
0.034457847 0.28060383 0.223672 0.36983907 -0.34103826 0.13075174 0.35424185 -0.12562305
00000000: 9944 53be 9d07 eebd 83b2 7fbe 79dd 903e
00000010: 1d8e 103e cf9b 953e 0a02 94be a4f6 b1b8
00000020: 54ad 9c3d 2cc9 6d3e 2eca cabc 9f58 f93e
00000030: 9bbc ebbd e77d 263d fda1 89bc 2103 39bd
00000040: e58d 09be c74b 72be 74b0 6d3e 6f90 f83d
00000050: 10ae d1bd 7e89 303e 2f96 343e 8cd5 13be
00000060: b347 47be 5ea4 ca3d 083f 043d dca7 1ebe
00000070: cb4b 9cbe 7630 073d ea55 253e 5747 8fbe
00000080: 41ee 1cbe 03d8 d83d 2163 93be c23f 773e
00000090: ea99 5f3e 71cc e5bd 970f 10be f122 c63d
000000a0: 0d1a 18be ce3a 983e 1640 e23c adbb dbbd
000000b0: dfbb 4bbe a9cd d23d 9f38 17be 24a1 8fbe
000000c0: 6deb 0d3e 3fb3 05be c81f c0ba d418 763e
000000d0: 842d bfbe e846 b5be 4b4f e6be 09f8 e63d
000000e0: ac23 0d3d 4eab 8f3e 460a 653e 8c5b bd3e
000000f0: 919c aebe c9e3 053e 305f b53e 54a3 00be

weight f4 [32, 32]
-0.10104627 -0.1888969 0.2133821 0.016108735 -0.14869103 0.016035339 -0.062427215 0.08592047
-0.15861957 -0.5477834 0.11476206 0.058965918 -0.03344546 0.19803198 -0.19984491 0.29298928
0.01599711 0.26561722 0.17966922 0.3468429 -0.3008719 0.1952951 0.007121871 -0.5154069
-0.051137283 0.13739397 0.1702377 0.13046704 0.15625986 0.11596137 -0.067092516 0.32872552
0.1716098 -0.049356982 -0.57925785 0.082324184 -0.21451332 0.056194063 0.17693253 -0.07522587
-0.35639498 -0.34478202 -0.278586 -0.31427684 0.32724088 -0.033143114 -0.048390772 -0.10330256
0.012728092 0.21139249 0.24426177 0.46639836 0.17420514 -0.10870263 -0.038127333 0.06634654
0.089364454 -0.028862983 0.1559978 0.14971653 -0.20335105 -0.32320228 0.22229663 -0.11592132
0.28981122 -0.21223086 0.16546738 -0.63363546 -0.2501698 0.03663138 -0.21597274 -0.21619594
-0.19291534 0.22675717 0.17226 -0.09874609 -0.42415926 0.38107526 -0.3907638 0.02311534
0.052930772 0.3952261 0.37437782 -0.5086375 -0.08107881 0.07905596 -0.1317171 -0.36916187
-0.0969848 -0.088084616 0.03227064 -0.10580638 0.21344392 -0.23268595 -0.27050468 -0.042646162
0.3260049 -0.20418976 0.18526623 0.18517253 -0.12803856 0.18928596 0.3715365 -0.2419512
-0.21339363 0.2937548 0.13012178 -0.15290602 0.3387737 -0.18117899 -0.04537345 -0.013360637
-0.26445448 0.03619369 -0.1612398 0.289521 -0.05135856 0.03719468 0.16035882 0.053483196
-0.0720111 0.0021441749 0.0878453 0.35257715 -0.10972269 -0.0032541973 0.2415427 0.06495572
-0.3259658 -0.048733145 0.22032447 -0.12318056 0.18831992 -0.10040175 0.08631054 0.2774019
0.07605466 -0.2878394 0.09449698 0.19571915 -0.12699609 0.08642647 0.03165521 0.058927856
-0.08582013 -0.0031345526 0.07224488 0.28717962 0.18581665 -0.3582477 0.14705017 0.16223545
0.16627976 0.38341746 -0.0054307138 -0.24361978 0.08110253 0.36769438 0.0234993 -0.16576666
0.48503503 -0.045889966 0.012695106 -0.512171 -0.023088023 0.2372688 -0.022723138 -0.13059197
-0.018408246 0.15175714 0.113091744 0.099475086 -0.14659968 0.16131175 -0.23808496 -0.11244416
-0.09208898 -0.12988015 0.11946888 -0.3854125 -0.13535595 0.112014145 -0.21370724 -0.008509559
-0.21248513 0.33823755 0.03206179 0.030593207 -0.0978671 -0.2802688 -0.056461208 0.043956257
-0.17658792 0.0029206024 0.12101074 0.047099054 0.018797435 -0.12481351 0.5186669 0.28780836
0.11108428 0.17581998 0.050206732 0.36320218 -0.2026431 -0.18782063 0.22995588 -0.15947527
-0.08614548 -0.29265812 -0.2593814 0.06759843 0.048897013 -0.3597739 0.36756992 0.45320424
0.18622527 0.1942779 0.04905237 -0.12803449 -0.10840903 -0.010001751 0.08521133 -0.09718008
0.22911207 -0.026918015 0.17090309 -0.27354634 0.08934184 0.2434766 0.30497813 0.1780988
-0.123402975 0.009385682 -0.10570136 0.19448821 0.2841858 0.11653896 -0.025531884 0.2806144
0.08038749 0.1544468 0.034113917 0.48210892 0.15496339 0.070518985 0.10148111 -0.06385454
0.16926645 0.09621503 0.08475749 0.20592566 0.037973274 -0.06999995 0.17421393 -0.0935799
00000000: 59f1 cebd 306e 41be d680 5a3e 77f6 833c
00000010: 7642 18be 8b5c 833c aeb3 7fbd 12f7 af3d
00000020: 2b6d 22be 883b 0cbf 5f08 eb3d 3f86 713d
00000030: 1bfe 08bd e5c8 4a3e 25a4 4cbe b102 963e
00000040: 5f0c 833c fbfe 873e 35fb 373e 6595 b13e
00000050: e20b 9abe 70fb 473e 965e e93b b5f1 03bf
00000060: 5475 51bd 01b1 0c3e cb52 2e3e 2799 053e
00000070: 9602 203e 287d ed3d cd67 89bd b64e a83e
00000080: 7bba 2f3e 8c2a 4abd 3e4a 14bf 9599 a83d
00000090: 61a9 5bbe bf2b 663d cd2d 353e 0510 9abd
000000a0: 6779 b6be 4587 b0be d3a2 8ebe e5e8 a0be
000000b0: 1e8c a73e 13c1 07bd 6735 46bd 4b90 d3bd
000000c0: 7d89 503c 4677 583e c21f 7a3e c4cb ee3e
000000d0: d562 323e 7c9f debd 682b 1cbd b2e0 873d
000000e0: b604 b73d 1072 ecbc e3bd 1f3e 4a4f 193e
000000f0: 423b 50be c57a a5be baa1 633e 2868 edbd
00000100: 2362 943e 0c53 59be 4870 293e ef35 22bf
00000110: 4216 80be c90a 163d f527 5dbe 7862 5dbe
00000120: 998b 45be 0833 683e ed64 303e 643b cabd
00000130: 672b d9be 4c1c c33e 3112 c8be 625c bd3c
00000140: f0cd 583d 135b ca3e 73ae bf3e 1136 02bf
00000150: a60c a6bd 17e8 a13d d9e0 06be c902 bdbe
00000160: f89f c6bd b565 b4bd 382e 043d 04b1 d8bd
00000170: 0b91 5a3e 3a45 6ebe 977f 8abe bead 2ebd
00000180: 1dea a63e 1f17 51be 6eb6 3d3e de9d 3d3e
00000190: 8a1c 03be 2ed4 413e 083a be3e 0ec2 77be
000001a0: dc83 5abe 0767 963e a53e 053e 6593 1cbe
000001b0: bf73 ad3e fc86 39be 83d9 39bd 93e6 5abc
000001c0: 9466 87be d63f 143d 0c1c 25be 193c 943e
000001d0: 5a5d 52bd 7359 183d 1a35 243e 3211 5b3d
000001e0: 8e7a 93bd 4985 0c3b 3de8 b33d fe84 b43e
000001f0: 4ab6 e0bd 5f44 55bb f856 773e 8107 853d
00000200: fde4 a6be 689c 47bd bd9c 613e 1746 fcbd
00000210: f0d6 403e 6f9f cdbd 95c3 b03d 9f07 8e3e
00000220: 8cc2 9b3d b05f 93be a287 c13d 9a6a 483e
00000230: 430b 02be 5c00 b13d e5a8 013d 565e 713d
00000240: 77c2 afbd 116d 4dbb 20f5 933d 3509 933e
00000250: b846 3e3e 3e6c b7be 5294 163e 0d21 263e
00000260: 3e45 2a3e 4b4f c43e 21f4 b1bb 7777 79be
00000270: 1519 a63d 7042 bc3e 9b81 c03c bcbe 29be
00000280: 8356 f83e 1ef7 3bbd 22ff 4f3c a31d 03bf
00000290: 1823 bdbc 98f6 723e e025 babc e7b9 05be
000002a0: e4cc 96bc 3966 1b3e a59c e73d 98b9 cb3d
000002b0: 3a1e 16be e82e 253e 8bcc 73be 2049 e6bd
000002c0: 2699 bcbd 4dff 04be 1aac f43d ca54 c5be
000002d0: c09a 0abe ac67 e53d 12d6 5abe ad6b 0bbc
000002e0: b495 59be 792d ad3e 3953 033d 9b9e fa3c
000002f0: 8c6e c8bd 647f 8fbe de43 67bd 7a0b 343d
00000300: 77d3 34be 9467 3f3b 7bd4 f73d f0ea 403d
00000310: 14fd 993c 3a9e ffbd 5bc7 043f 9e5b 933e
00000320: 2880 e33d 270a 343e 93a5 4d3d a3f5 b93e
00000330: ac81 4fbe 0d54 40be 8e79 6b3e 7c4d 23be
00000340: 0b6d b0bd 49d7 95be a4cd 84be 0c71 8a3d
00000350: 3c48 483d 4934 b8be 2032 bc3e 630a e83e
00000360: d6b1 3e3e c9f0 463e 23eb 483d 791b 03be
00000370: 8e05 debd 62de 23bc 4783 ae3d 5a06 c7bd
00000380: 5b9c 6a3e 2b83 dcbc 3801 2f3e 440e 8cbe
00000390: dbf8 b63d ee51 793e 1826 9c3e 885f 363e
000003a0: b3ba fcbd 67c6 193c f479 d8bd eb27 473e
000003b0: cd80 913e faab ee3d 3e28 d1bc b1ac 8f3e
000003c0: 32a2 a43d 4d27 1e3e 09bb 0b3d fbd6 f63e
000003d0: b9ae 1e3e 426c 903d 54d5 cf3d 2bc6 82bd
000003e0: 2f54 2d3e 630c c53d 5695 ad3d 2dde 523e
000003f0: dd89 1b3d 225c 8fbd 2365 323e d2a6 bfbd

bias f4 [32]
-0.16809176 -0.08243804 0.22087854 -0.07873655 -0.21766773 0.11999307 0.06764799 0.15702239
0.0999015 -0.020081691 0.12199346 0.15891653 -0.1031241 -0.0042126174 -0.035854705 0.18268535
-0.18909387 0.08677894 0.046457574 -0.040767983 0.15521128 -0.113327004 -0.08656868 0.09226956
-0.09385948 0.06509201 -0.18133165 -0.25997862 -0.20361468 -0.18112178 -0.021175425 -0.017917046
00000000: 3f20 2cbe 46d5 a8bd fc2d 623e a140 a1bd
00000010: 4ae4 5ebe edbe f53d 088b 8a3d 7aca 203e
00000020: 2899 cc3d 5c82 a4bc b5d7 f93d 04bb 223e
00000030: ba32 d3bd ff09 8abb 62dc 12bd de11 3b3e
00000040: d3a1 41be 28b9 b13d 4c4a 3e3d 54fc 26bd
00000050: b5ef 1e3e fd17 e8bd ec4a b1bd d3f7 bc3d
00000060: 6639 c0bd f64e 853d 01af 39be eb1b 85be
00000070: 5e80 50be fd77 39be 1678 adbc c5c6 92bc

weight f4 [32, 64]
-0.050972015 0.0041405708 -0.06208232 0.047139198 -0.106506884 0.09163049 -0.09085503 -0.09938024
-0.078985885 0.056611687 -0.04618652 0.046776667 -0.10609117 -0.07584046 -0.045897007 -0.024564967
-0.095357925 0.081848845 -0.029478893 0.040123463 0.08839294 0.02328825 0.03418134 0.12065734
-0.056376174 0.039593905 -0.055614516 0.08933121 0.09983206 -0.115246534 0.106705725 0.0596893
0.05447088 0.051459357 0.10391238 -0.016504943 -0.10571231 -0.035868615 -0.08803433 0.008263335
-0.023338437 -0.06704812 -0.011365175 0.11842547 -0.009859428 0.0039687604 -0.01949507 0.019650877
0.11137658 0.07643661 0.04437019 0.027163818 0.02947411 0.048291653 -0.016152933 -0.1161761
-0.07730149 0.106698215 0.0074716806 -0.10125919 0.019715935 0.10328396 -0.11812496 -0.08415492
-0.0497832 0.005017191 -0.029153675 -0.013736397 -0.121861264 0.05853489 0.109717906 0.076404795
-0.08851655 -0.10076292 0.05190654 0.0028073192 0.051241368 -0.122143924 -0.0074528754 0.08815546
0.057988927 0.0045646727 0.02457738 -0.011835009 -0.06872919 -0.04723741 -0.07612246 0.10382615
0.06878583 0.043715328 -0.09585656 0.09645273 0.03919284 0.08647433 -0.049173757 0.026499614
0.1220478 0.084082395 0.10024959 -0.026248097 0.09523465 -0.09790403 0.01081112 -0.070381865
-0.029151902 -0.03201218 0.009352386 0.11376746 0.06188549 -0.00052952766 0.08873069 -0.06405695
0.06442143 -0.0115915835 -0.02175136 0.014634177 -0.09576209 0.014444664 0.042029753 0.106866464
-0.038917884 0.045003444 0.12493901 -0.05362113 0.11882405 -0.062061504 0.055099368 0.048968762
0.034916013 0.098850384 -0.050520554 0.03285238 0.00070151687 -0.0940177 -0.030351743 -0.083477885
0.05526942 0.011236995 0.012245581 -0.03792134 0.00060106814 -0.038880393 0.035917014 0.121396214
0.018933818 -0.055364788 -0.076353505 0.009554878 -0.092730775 -0.09395628 -0.081359625 -0.0424556
0.009252191 0.08607645 0.04841742 0.095764846 -0.07848717 0.010548517 -0.11111009 0.071707144
0.026051238 0.12090184 -0.08890152 0.10024123 0.10552831 0.1010647 0.017836854 0.11365992
0.083479375 0.093259916 -0.008120105 -0.095924765 -0.0015555024 0.023442283 -0.08514613 -0.071704894
-0.119843304 -0.04381843 0.10888356 0.021374509 -0.0076350123 0.005019754 0.077943206 -0.110382944
-0.096448705 -0.041558802 -0.07193977 0.06447314 0.08832294 -0.12127823 -0.10608496 -0.12172723
0.04715681 0.100606814 -0.09691751 -0.057869554 0.039777577 -0.08162317 0.106184945 0.029145151
-0.03479795 0.008118823 0.038971066 -0.044201642 -0.09685698 0.000840202 0.0022768676 0.0025206506
-0.018241286 0.08025919 -0.034882396 -0.012099087 0.051398456 -0.078679666 0.033469826 -0.027639464
0.059959188 -0.06780805 0.004619792 0.012228668 -0.10057457 -0.09089278 0.047939166 -0.036382064
0.07423708 -0.12348282 -0.061791077 -0.10295774 0.049933925 -0.0036239177 -0.023315176 -0.020796418
-0.09770611 0.03544937 0.0031157285 -0.08626412 0.047035962 -0.0025123805 -0.12089345 0.06724003
0.066860884 -0.02355127 -0.08630477 0.005018756 0.09432247 0.11441748 -0.09435013 -0.056458622
0.09732805 0.06109728 0.07737662 -0.06221679 0.10769181 -0.10275824 -0.006021112 0.002595365
00000000: 08c8 50bd a0ad 873b 084a 7ebd 0815 413d
00000010: 4820 dabd c4a8 bb3d 3412 babd de87 cbbd
00000020: 5ac3 a1bd a8e1 673d 142e 3dbd e498 3f3d
00000030: 5446 d9bd 3e52 9bbd 80fe 3bbd 783c c9bc
00000040: 044b c3bd 5ea0 a73d b87d f1bc 8058 243d
00000050: 5c07 b53d 00c7 be3c bc01 0c3d 321b f73d
00000060: b4ea 66bd 382d 223d 0ccc 63bd 48f3 b63d
00000070: c074 cc3d 6006 ecbd 8888 da3d c47c 743d
00000080: dc1c 5f3d 0cc7 523d 04d0 d43d 6035 87bc
00000090: b27f d8bd f8ea 12bd 584b b4bd f062 073c
000000a0: 4030 bfbc 8650 89bd 0035 3abc 0e89 f23d
000000b0: 7089 21bc 600c 823b 20b4 9fbc e0fa a03c
000000c0: 6819 e43d cc8a 9c3d 84bd 353d a886 de3c
000000d0: b073 f13c 78cd 453d 2853 84bc bced edbd
000000e0: 3e50 9ebd 9884 da3d 00d5 f43b fa60 cfbd
000000f0: 5083 a13c 8a86 d33d 80eb f1bd 6a59 acbd
00000100: 78e9 4bbd 4067 a43b b0d3 eebc a00e 61bc
00000110: 6692 f9bd 48c2 6f3d c8b3 e03d 1e7a 9c3d
00000120: 2a48 b5bd ca5c cebd f49b 543d 00fb 373b
00000130: 78e2 513d 9826 fabd 4037 f4bb da8a b43d
00000140: cc85 6d3d 4093 953b 8056 c93c a0e7 41bc
00000150: e4c1 8cbd 047c 41bd 18e6 9bbd cea2 d43d
00000160: 96df 8c3d d80e 333d 7250 c4bd 0289 c53d
00000170: ac88 203d 7419 b13d 6c6a 49bd b815 d93c
00000180: 32f4 f93d 6433 ac3d a84f cd3d 4006 d7bc
00000190: 620a c33d e881 c8bd 2021 313c 5e24 90bd
000001a0: f8cf eebc 341f 03bd c03a 193c eafe e83d
000001b0: a47b 7d3d 00d0 0aba 70b8 b53d 4a30 83bd
000001c0: 62ef 833d a0ea 3dbc e82f b2bc 30c4 6f3c
000001d0: ea1e c4bd 50a9 6c3c 6427 2c3d cedc da3d
000001e0: 5c68 1fbd 8855 383d 06e0 ff3d d4a1 5bbd
000001f0: 065a f33d 3434 7ebd e0af 613d 7893 483d
00000200: 1804 0f3d 1272 ca3d a4ee 4ebd 3890 063d
00000210: 00e6 373a 5a8c c0bd 38a4 f8bc 74f6 aabd
00000220: 3062 623d 601b 383c b0a1 483c 6853 1bbd
00000230: 0091 1d3a 0c41 1fbd b81d 133d 949e f83d
00000240: 181b 9b3c 30c6 62bd 3a5f 9cbd 108c 1c3c
00000250: a2e9 bdbd 266c c0bd e09f a6bd ece5 2dbd
00000260: 8096 173c da48 b03d 5851 463d 5c20 c43d
00000270: e2bd a0bd b0d3 2c3c b08d e3bd 32db 923d
00000280: 6869 d53c 629b f73d 0012 b6bd 464b cd3d
00000290: 3a1f d83d 02fb ce3d 981e 923c 88c6 e83d
000002a0: 3cf7 aa3d 0eff be3d 300a 05bc 3474 c4bd
000002b0: 00e2 cbba 080a c03c 1861 aebd 04da 92bd
000002c0: 6870 f5bd f47a 33bd 58fe de3d 9819 af3c
000002d0: 202f fabb c07c a43b b0a0 9f3d 7410 e2bd
000002e0: e686 c5bd 9039 2abd 2855 93bd 7e0a 843d
000002f0: a8e2 b43d b860 f8bd 1243 d9bd 204c f9bd
00000300: 8027 413d f20a ce3d b07c c6bd a008 6dbd
00000310: d0ed 223d 0c2a a7bd 7e77 d93d d0c1 ee3c
00000320: 4c88 0ebd d004 053c 20a0 1f3d c80c 35bd
00000330: f45c c6bd 0041 5c3a 8037 153b 8031 253b
00000340: c06e 95bc ee5e a43d d8e0 0ebd 403b 46bc
00000350: 3087 523d ce22 a1bd a817 093d 286c e2bc
00000360: c497 753d f2de 8abd a061 973b c05a 483c
00000370: 0afa cdbd fe25 babd dc5b 443d 5c05 15bd
00000380: 9c09 983d 90e4 fcbd a418 7dbd 82db d2bd
00000390: 8487 4c3d 407f 6dbb 78ff bebc 405d aabc
000003a0: 241a c8bd 5c33 113d 4031 4c3b 3eab b0bd
000003b0: c8a8 403d c0a6 24bb fc96 f7bd 24b5 893d
000003c0: 5cee 883d 98ee c0bc 8ec0 b0bd 6074 a43b
000003d0: 242c c13d b653 ea3d a43a c1bd 2841 67bd
000003e0: ee53 c73d 2441 7a3d a277 9e3d 08d7 7ebd
000003f0: 868d dc3d ea72 d2bd c04c c5bb 0017 2a3b

bias f4 [32]
0.006000623 -0.11990543 0.015900686 0.043976173 0.11186783 -0.040516123 0.04508625 -0.041886568
-0.043956473 -0.11076146 0.02638419 0.083875194 -0.06953706 0.05110444 -0.019498333 -0.08874825
0.013328612 -0.1218126 0.06700824 -0.027619168 0.11512223 0.0046144873 -0.12118633 0.09700169
-0.027341396 -0.085622594 0.11541125 0.011674732 0.040526584 -0.108135834 -0.04414603 0.10029392
00000000: e0a0 c43b fa90 f5bd 2842 823c 5c20 343d
00000010: f61a e53d 3cf4 25bd 5cac 383d 4091 2bbd
00000020: b40b 34bd e8d6 e2bd a823 d83c c2c6 ab3d
00000030: 7269 8ebd e452 513d f8ba 9fbc a4c1 b5bd
00000040: 4060 5a3c e278 f9bd 9e3b 893d 9841 e2bc
00000050: 34c5 eb3d 2035 973b 8a30 f8bd d2a8 c63d
00000060: 10fb dfbc e65a afbd bc5c ec3d 6047 3f3c
00000070: 34ff 253d 5276 ddbd 78d2 34bd e666 cd3d

weight_ih_l0 f4 [128, 32]
-0.037036162 0.07236726 -0.09024364 0.00904758 -0.17915446 0.19119018 -0.1551479 -0.375447
-0.12592049 0.27061698 -0.20100816 -0.12674806 0.029700221 -0.08521133 0.11503979 0.20710765
0.07506615 0.15955685 -0.270955 0.050394632 -0.30165 -0.07310423 -0.25354415 -0.321504
-0.16563511 -0.250403 -0.042869035 -0.017074738 0.06241624 -0.20616731 0.27883145 -0.4073459
-0.001282255 -0.12677814 -0.27228865 -0.1610002 0.07870958 0.060401972 0.084691375 -0.24438211
-0.108600445 0.2836511 0.14446959 -0.00018489838 0.34469688 0.04116991 -0.07008833 -0.23697443
0.0058385944 0.07416034 -0.10020881 0.12127882 -0.33259803 -0.063771226 -0.028984802 -0.4131236
0.07577208 0.032550544 0.19124427 0.024087438 -0.05607198 0.02944376 0.16285507 -0.14228876
0.14089371 0.27788112 0.09731531 -0.17220409 0.083363034 -0.23067534 0.052232258 -0.32907292
0.0150593 0.26335424 0.19445033 -0.28641322 -0.08791076 -0.10523668 0.022583397 -0.14322853
0.40789348 0.46039477 -0.01780964 0.132508 -0.049238306 0.12975065 -0.2851139 -0.60885376
-0.08678978 -0.4252649 0.13162199 0.28154624 0.14533477 -0.16725032 0.021701287 -0.010063469
0.04935254 0.040796436 -0.14642799 -0.5355372 -0.1920223 -0.09898202 0.05877255 -0.63530535
0.077672675 0.27089658 -0.1248987 0.19562405 0.3639429 -0.15585227 0.14380269 0.33295625
0.07960647 0.24046272 -0.21631658 -0.224824 0.024773108 -0.2409671 -0.17652549 -0.58194625
-0.15269971 -0.31300047 -0.03824898 0.08793271 -0.0069867177 0.097710036 0.034870837 -0.034697834
-0.122902334 0.01305778 0.1066717 -0.43690103 -0.2711502 -0.087014474 -0.09947275 -0.41666734
-0.04065334 0.18045299 0.0708731 0.19879079 0.42410117 -0.20581017 -0.020123541 0.13534105
0.0808683 0.59403235 -0.29761377 -0.2871452 -0.059814874 -0.332835 -0.17345141 -0.5543279
-0.24022026 -0.2881024 0.084382415 0.21499795 0.21515797 -0.11599117 -0.15414675 -0.07634839
-0.17187077 -0.0012505524 -0.17655149 -0.17089815 -0.22709306 0.14268894 -0.19106773 -0.2610141
-0.32605723 0.15538836 -0.22394639 0.021822022 0.198269 0.05856691 0.055268217 0.25028166
0.31812766 0.08604331 0.046703547 -0.28855574 -0.370245 -0.10007489 0.058752187 -0.41419947
-0.11518518 -0.26947105 0.061386656 0.108196996 0.06076347 -0.049926244 -0.25515246 -0.21544747
0.22400501 0.11788619 -0.37894392 0.08997775 0.17869736 -0.074028224 0.09937935 -0.22994646
-0.08674014 -0.13663268 -0.11921613 -0.2106191 -0.043815643 -0.011873472 0.045811433 -0.165061
0.16605808 0.13805299 -0.1786211 0.110049285 -0.24266471 0.022215247 0.040443357 -0.43122768
-0.0137857525 0.077369936 -0.025188353 0.13325375 -0.013056194 -0.0034178763 -0.094085835 -0.11069322
0.0059338748 0.44297236 -0.09437485 -0.37730402 -0.11487163 -0.5225552 -0.07866466 -0.5931856
-0.22020194 0.18665196 0.05409136 -0.24237181 0.018006183 -0.606333 0.030944023 -0.09927763
0.19876723 0.28791866 -0.22453406 0.13497362 -0.0620968 0.08482852 0.04226486 -0.6451076
0.2727926 -0.35942537 0.53623205 0.34575555 0.27545553 0.04122101 -0.2538649 0.1790311
00000000: 3bb3 17bd 4935 943d a8d1 b8bd 4d3c 143c
00000010: 4474 37be 5cc7 433e 17df 1ebe 973a c0be
00000020: 4df1 00be 4f8e 8a3e 15d5 4dbe 3eca 01be
00000030: e14d f33c 4783 aebd fb99 eb3d 0714 543e
00000040: 48bc 993d df62 233e 9dba 8abe 9a6a 4e3d
00000050: de71 9abe acb7 95bd 8ad0 81be 2c9c a4be
00000060: 409c 29be d234 80be 7197 2fbd 52e0 8bbc
00000070: 2ca8 7f3d 861d 53be ffc2 8e3e a48f d0be
00000080: 5711 a8ba 21d2 01be 6b69 8bbe 3ddd 24be
00000090: 7d32 a13d 0f68 773d ac72 ad3d 4e3f 7abe
000000a0: e969 debd b83a 913e d6ef 133e 48e1 41b9
000000b0: 1c7c b03e c8a1 283d 788a 8fbd 6da9 72be
000000c0: ae51 bf3b 60e1 973d 473a cdbd 0861 f83d
000000d0: 4a4a aabe 7d9a 82bd 8971 edbc f084 d3be
000000e0: 642e 9b3d b853 053d 8ad5 433e 0553 c53c
000000f0: bcab 65bd 0a34 f13c 7bc3 263e 25b4 11be
00000100: 7146 103e 6f46 8e3e 404d c73d 4556 30be
00000110: 3dba aa3d 2836 6cbe 7ef1 553d 3f7c a8be
00000120: 48bb 763c 5ed6 863e fd1d 473e c1a4 92be
00000130: 8e0a b4bd 5486 d7bd d100 b93c 80aa 12be
00000140: 6ad7 d03e ddb8 eb3e 86e5 91bc 2db0 073e
00000150: 1bae 49bd 5bdd 043e 73fa 91be d7dd 1bbf
00000160: d7be b1bd 52bc d9be eac7 063e d426 903e
00000170: a3d2 143e ab43 2bbe e6c6 b13c 40e1 24bc
00000180: e425 4a3d 2a1a 273d 38f1 15be f718 09bf
00000190: 7ea1 44be 16b7 cabd 7cbb 703d 5fa3 22bf
000001a0: da12 9f3d f5b2 8a3e e4ca ffbd ac51 483e
000001b0: b956 ba3e bd97 1fbe 0341 133e 3e79 aa3e
000001c0: b808 a33d dc3b 763e 1882 5dbe 4338 66be
000001d0: f9f0 ca3c 14c0 76be 19c3 34be 6efa 14bf
000001e0: 505d 1cbe 9941 a0be f6aa 1cbd 1116 b43d
000001f0: d6f0 e4bb 331c c83d b9d4 0e3d 511f 0ebd
00000200: 38b4 fbbd 4df0 553c b176 da3d 7eb1 dfbe
00000210: 33d4 8abe a534 b2bd 5fb8 cbbd 6c55 d5be
00000220: 1e84 26bd abc8 383e ea25 913d d08f 4b3e
00000230: ca23 d93e e7bf 52be 20da a4bc d896 0a3e
00000240: 479e a53d 8112 183f d560 98be b204 93be
00000250: 7100 75bd 5969 aabe 3f9d 31be 6fe8 0dbf
00000260: 4dfc 75be 2882 93be b0d0 ac3d 6c28 5c3e
00000270: 5f52 5c3e c78c edbd a5d8 1dbe 8b5c 9cbd
00000280: e4fe 2fbe 93e9 a3ba eac9 34be edff 2ebe
00000290: 158b 68be 0d1d 123e 42a7 43be a4a3 85be
000002a0: f9f0 a6be 201e 1f3e 3452 65be 19c4 b23c
000002b0: 0707 4b3e dbe3 6f3d ed60 623d eb24 803e
000002c0: a1e1 a23e 7a37 b03d 384c 3f3d 94bd 93be
000002d0: c190 bdbe 10f4 ccbd 22a6 703d f411 d4be
000002e0: 35e6 ebbd 1cf8 89be 9370 7b3d 6396 dd3d
000002f0: 1ee3 783d 767f 4cbd 58a3 82be 439e 5cbe
00000300: 9261 653e 516e f13d f004 c2be 4146 b83d
00000310: 71fc 363e 1c9c 97bd 6787 cb3d 1677 6bbe
00000320: d1a4 b1bd 70e9 0bbe 9627 f4bd 89ac 57be
00000330: 0878 33bd f388 42bc c5a4 3b3d c005 29be
00000340: 210b 2a3e c35d 0d3e 73e8 36be 8561 e13d
00000350: 197d 78be c0fc b53c efa7 253d e0c9 dcbe
00000360: a3dd 61bc 2174 9e3d ce57 cebc ac73 083e
00000370: a6e9 55bc 73fe 5fbb 13b0 c0bd 20b3 e2bd
00000380: f370 c23b 46cd e23e 9a47 c1bd fe2d c1be
00000390: d141 ebbd 2dc6 05bf f01a a1bd 03db 17bf
000003a0: 9e7c 61be b121 3f3e e78e 5d3d 5130 78be
000003b0: b481 933c a438 1bbf 527e fd3c 1252 cbbd
000003c0: a389 4b3e 136a 933e 42ec 65be 8636 0a3e
000003d0: 3759 7ebd 93ba ad3d eb1d 2d3d c625 25bf
000003e0: 79ab 8b3e 9a06 b8be 8146 093f df06 b13e
000003f0: 8208 8d3e 5dd7 283d 95fa 81be ee53 373e

weight_hh_l0 f4 [128, 32]
-0.006279436 0.13537486 -0.09892547 -0.14874351 -0.112987906 0.01633102 0.27802944 0.07246258
0.1474535 -0.07947142 -0.053199776 -0.035058048 0.0038728274 -0.081935525 0.110844046 0.115672626
0.0031045114 -0.0041511995 0.16897623 -0.04263698 0.2591266 -0.030224578 -0.08697986 -0.13780372
0.20695235 -0.1453778 0.08359454 0.18048598 -0.11386912 -0.08299264 0.10415345 -0.07483758
0.0051498967 0.1594392 -0.061512943 0.28054795 -0.05778675 0.03850591 0.18332568 -0.094167896
0.14524336 0.15190496 -0.13756636 -0.01040943 0.09060496 -0.07152087 0.030195279 -0.014251284
-0.15514456 0.020257594 0.10613545 -0.13153851 0.07338854 -0.13091706 -0.09571068 -0.2852223
0.063422695 -0.037654106 0.15611824 -0.0088850185 0.18147436 -0.02465557 0.09037358 -0.089583464
-0.07179276 0.101188414 -0.1659741 0.04789176 0.24916047 0.15714131 0.26840258 0.037562575
0.15781443 0.14095825 -0.200332 0.1081031 -0.0025168473 0.09206315 -0.10921772 0.18910801
0.118456945 0.13337609 0.0021577368 -0.14297734 -0.13359421 -0.100250036 0.025167104 -0.33178765
0.27009156 -0.13788463 0.11835097 -0.06184625 0.053760406 -0.029661657 -0.052016705 -0.08399904
0.093303375 0.22042471 0.044933982 -0.16138536 -0.061669365 -0.08648893 -0.03641118 0.2079687
-0.007965096 0.24019554 0.076672696 -0.17945352 -0.14834885 -0.14994319 -0.14644948 0.13102815
-0.18460311 -0.18463896 -0.29098767 0.026552238 0.038182013 0.05201045 -0.16265516 -0.09179297
0.0716829 0.2430009 -0.068765484 0.13275975 0.18959269 0.19209443 -0.083410986 0.20020728
0.007676856 0.19551076 0.1459661 -0.036205176 -0.16229475 -0.3271104 -0.104675464 -0.067108765
-0.09451612 0.03613043 0.051171515 -0.07642141 -0.011445864 -0.22902334 -0.029636918 0.0042434186
0.11123136 -0.24514003 -0.19957615 -0.17771433 0.091913976 -0.012951414 -0.025684757 0.09130746
0.2737741 0.02036764 -0.022982778 0.15365215 0.1796204 0.08898493 -0.099486515 0.07418657
-0.17325163 -0.057020105 -0.04144146 -0.023459088 0.041153733 0.15485305 0.13298215 0.08098279
0.1344627 0.13369113 0.020062959 0.10001387 0.2312494 -0.054627027 0.08903461 -0.0073804613
-0.008523934 -0.14934258 0.02236698 -0.19991809 -0.027634395 -0.2437053 -0.17978188 -0.06936888
0.1233159 -0.119535975 -0.08142517 -0.10064917 0.11605094 -0.14632373 0.09380437 0.12750305
-0.20040843 0.32223082 0.3709699 0.4044191 0.20749171 0.21714379 0.027691742 0.011137437
0.27978966 0.21975125 -0.018300522 0.16303355 0.09956527 0.14422835 -0.004394076 -0.06710081
-0.21297093 -0.19680823 0.288137 0.08733361 -0.06282004 -0.04283603 0.13492985 -0.20584314
0.12043089 -0.12762451 -0.09975452 0.010207229 -0.16606611 0.08286632 0.13763495 0.1913371
0.096428394 -0.07136579 -0.02235488 0.18211052 0.08888822 0.14702034 0.20634086 0.01313686
-0.06411073 0.020927647 -0.03720448 0.09060765 0.09930787 0.024025172 -0.1100622 -0.034449365
-0.14970472 -0.01183245 0.2863294 0.14480545 -0.13902615 -0.15032102 0.09932468 -0.17318572
-0.013659005 -0.074310064 -0.095761366 -0.079711184 -0.045665942 -0.0068175057 0.1373549 0.22714789
00000000: bac3 cdbb b59f 0a3e 7099 cabd 3850 18be
00000010: 3466 e7bd a2c8 853c e059 8e3e 4367 943d
00000020: 0dfe 163e e9c1 a2bd 02e8 59bd 0799 0fbd
00000030: 43cf 7d3b d0cd a7bd 3402 e33d c5e5 ec3d
00000040: 0f75 4b3b c906 88bb 1b08 2d3e 1da4 2ebd
00000050: 3eac 843e 8999 f7bc 7f22 b2bd 6b1c 0dbe
00000060: 51eb 533e ebdd 14be 9d33 ab3d 51d1 383e
00000070: 3734 e9bd 0cf8 a9bd 674e d53d 7244 99bd
00000080: 77c0 a83b 0844 233e fff4 7bbd fba3 8f3e
00000090: cdb1 6cbd 60b8 1d3d bab9 3b3e 19db c0bd
000000a0: adba 143e f98c 1b3e 32de 0cbe 508c 2abc
000000b0: 188f b93d 8979 92bd 175c f73c 387e 69bc
000000c0: 37de 1ebe 41f3 a53c 8b5d d93d 08b2 06be
000000d0: bb4c 963d 1f0f 06be f603 c4bd a808 92be
000000e0: c2e3 813d 313b 1abd 76dd 1f3e 7892 11bc
000000f0: 6ad4 393e 7afa c9bc c915 b93d 8977 b7bd
00000100: 1508 93bd df3b cf3d 1df5 29be 262a 443d
00000110: ec23 7f3e a7e9 203e 106c 893e 37db 193d
00000120: 1b9a 213e 5c57 103e d523 4dbe 2865 dd3d
00000130: b1f1 24bb 9b8b bc3d 8aad dfbd 88a5 413e
00000140: 8e99 f23d be93 083e d168 0d3b a768 12be
00000150: eccc 08be e44f cdbd 3e2b ce3c 12e0 a9be
00000160: 7149 8a3e a131 0dbe fe61 f23d 7e52 7dbd
00000170: df33 5c3d 01fd f2bc 780f 55bd b007 acbd
00000180: d715 bf3d 04b7 613e b20c 383d 3442 25be
00000190: 0499 7cbd 1c21 b1bd e423 15bd bff5 543e
000001a0: 0980 02bc d2f5 753e 9306 9d3d aac2 37be
000001b0: c3e8 17be b58a 19be daf6 15be 3e2c 063e
000001c0: 9908 3dbe ff11 3dbe 56fc 94be 1484 d93c
000001d0: be64 1c3d e908 553d 138f 26be f4fd bbbd
000001e0: 7cce 923d 3ad5 783e ebd4 8cbd 2cf2 073e
000001f0: 9624 423e 67b4 443e 61d3 aabd 2303 4d3e
00000200: 238e fb3b f933 483e 2378 153e e14b 14bd
00000210: 9830 26be 047b a7be 1760 d6bd 5270 89bd
00000220: ab91 c1bd 80fd 133d 3999 513d d482 9cbd
00000230: 6f87 3bbc 1885 6abe 1fc9 f2bc 600c 8b3b
00000240: 44cd e33d fd05 7bbe b15d 4cbe bffa 35be
00000250: 653d bc3d 2b32 54bc d768 d2bc 68ff ba3d
00000260: 1e2c 8c3e 09da a63c 6146 bcbc fd56 1d3e
00000270: 69ee 373e bb3d b63d 96bf cbbd 21ef 973d
00000280: e068 31be ea8d 69bd 85be 29bd 462d c0bc
00000290: d190 283d cc91 1e3e 792c 083e 4eda a53d
000002a0: 97b0 093e 54e6 083e 135b a43c 12d4 cc3d
000002b0: a5cc 6c3e 97c0 5fbd c757 b63d ccd7 f1bb
000002c0: f8a7 0bbc 43ed 18be f53a b73c 54b7 4cbe
000002d0: 8761 e2bc e28d 79be be18 38be 4511 8ebd
000002e0: 0c8d fc3d 47cf f4bd 3dc2 a6bd 2721 cebd
000002f0: 1dac ed3d e3d5 15be 811c c03d 2990 023e
00000300: de37 4dbe 70fb a43e c4ef bd3e 0510 cf3e
00000310: b578 543e f15a 5e3e cbd9 e23c cc79 363c
00000320: 9740 8f3e 7906 613e faea 95bc 44f2 263e
00000330: e0e8 cb3d 99b0 133e 2efc 8fbb 266c 89bd
00000340: 0d15 5abe 1988 49be b186 933e f7db b23d
00000350: cba7 80bd d574 2fbd 0d2b 0a3e 8bc8 52be
00000360: 78a4 f63d 00b0 02be 194c ccbd 393c 273c
00000370: 3c0d 2abe d1b5 a93d 2df0 0c3e dfed 433e
00000380: 407c c53d 3a28 92bd 9521 b7bc 2e7b 3a3e
00000390: 070b b63d 808c 163e 054b 533e fc3b 573c
000003a0: 7d4c 83bd 7570 ab3c ba63 18bd 8190 b93d
000003b0: ed61 cb3d 70d0 c43c 4a68 e1bd c71a 0dbd
000003c0: 324c 19be e4dc 41bc c499 923e e147 143e
000003d0: df5c 0ebe c1ed 19be bd6a cb3d 9957 31be
000003e0: 05ca 5fbc e02f 98bd 891e c4bd 9e3f a3bd
000003f0: 360c 3bbd 6265 dfbb c3a6 0c3e 7599 683e

bias_ih_l0 f4 [128]
-0.18422644 -0.075396866 -0.40963313 -0.019027947 -0.030478666 -0.078435056 -0.134482 -0.57248175
-0.373432 -0.23004197 -0.10264136 0.0019796435 -0.0475091 -0.41273072 -0.45776942 -0.23385164
-0.19478396 -0.466815 0.056057937 -0.21118891 -0.31167725 -0.2775513 -0.08916113 -0.109773025
-0.3414187 -0.13579583 -0.2559688 -0.16231264 -0.36282888 -0.1580372 -0.21761048 -0.13837522
0.011328994 0.12640546 0.0061150575 -0.028441992 0.029590966 -0.06878253 0.07138781 -0.110815555
-0.0059424983 0.07626905 0.04398322 -0.12624387 -0.1500203 -0.17438582 -0.32564878 -0.12877263
0.10234376 -0.39419937 0.072257526 -0.09579413 -0.19164787 -0.10237087 -0.15944153 0.1452796
-0.11102676 0.07486338 -0.004844097 0.018546853 -0.029300276 -0.058430012 -0.07822031 -0.2434721
0.05709947 -0.06636569 0.067839585 -0.18110232 0.06373071 -0.06118081 -0.07608968 -0.06223881
0.14775147 -0.13631152 0.10934245 -0.10132329 -0.12574407 0.011460287 -0.069424815 -0.062267765
0.14182928 0.04131758 -0.16108583 0.07727467 -0.06777267 0.079853795 -0.10181868 0.10105084
-0.12854177 0.029611567 0.06857366 0.11140473 -0.056766104 -0.053347744 0.0036542972 0.04492756
-0.09431345 0.062595546 -0.32700202 -0.11494662 -0.16434927 -0.14481623 -0.01458163 -0.2882843
-0.14191481 -0.2875141 -0.028423699 -0.051963966 -0.1545853 -0.34078005 -0.22361287 -0.11060522
-0.19660896 -0.2441714 0.050422315 -0.027387492 -0.119193584 -0.30815485 -0.19382074 -0.11609229
-0.38603634 0.05785297 -0.13232307 -0.07251997 -0.19613509 -0.22696838 -0.22245046 -0.011254983
00000000: dba5 3cbe ac69 9abd 6fbb d1be 7fe0 9bbc
00000010: 65ae f9bc 8fa2 a0bd a6b5 09be 2a8e 12bf
00000020: 7b32 bfbe 1f90 6bbe a235 d2bd e8bc 013b
00000030: e798 42bd 7151 d3be c160 eabe ce76 6fbe
00000040: 7275 47be 6002 efbe 029d 653d e841 58be
00000050: 2994 9fbe 341b 8ebe 1c9a b6bd aed0 e0bd
00000060: 6fce aebe 100e 0bbe 580e 83be 4935 26be
00000070: b5c4 b9be 81d4 21be 48d5 5ebe 3cb2 0dbe
00000080: 3f9d 393c 6f70 013e d260 c83b 2eff e8bc
00000090: c168 f23c dbdd 8cbd c633 923d 44f3 e2bd
000000a0: 4ab9 c2bb f332 9c3d c027 343d 1346 01be
000000b0: ec9e 19be 3292 32be 70bb a6be f9dc 03be
000000c0: 9b99 d13d 80d4 c9be c1fb 933d b62f c4bd
000000d0: 573f 44be d2a7 d1bd a444 23be 2dc4 143e
000000e0: ff61 e3bd f951 993d 3bbb 9ebb 92ef 973c
000000f0: 2207 f0bc 4f54 6fbd f831 a0bd c050 79be
00000100: 22e1 693d bcea 87bd 7bef 8a3d e372 39be
00000110: 3f85 823d bb98 7abd e8d4 9bbd 1fee 7ebd
00000120: 294c 173e 3f95 0bbe efee df3d 9682 cfbd
00000130: 0ec3 00be edc3 3b3c 992e 8ebd 7c0c 7fbd
00000140: b23b 113e 9f3c 293d aff3 24be 2f42 9e3d
00000150: 66cc 8abd 638a a33d 5086 d0bd bef3 ce3d
00000160: 74a0 03be f593 f23c 5970 8c3d 2a28 e43d
00000170: 9383 68bd 2a83 5abd ef7c 6f3b f605 383d
00000180: 6927 c1bd 1832 803d cf6c a7be 2269 ebbd
00000190: 2d4b 28be b54a 14be cae7 6ebc 009a 93be
000001a0: 1e52 11be 0c35 93be d1d8 e8bc 2bd8 54bd
000001b0: 9c4b 1ebe b97a aebe c6fa 64be fd84 e2bd
000001c0: dc53 49be 1108 7abe a187 4e3d bc5b e0bc
000001d0: c41b f4bd 79c6 9dbe f278 46be cbc1 edbd
000001e0: 8ea6 c5be 3cf7 6c3d b37f 07be 5a85 94bd
000001f0: a3d7 48be 666a 68be 0eca 63be d266 38bc

bias_hh_l0 f4 [128]
-0.28575584 -0.14516632 -0.07605664 -0.28249377 -0.1685018 -0.36247614 -0.053190857 -0.36335006
-0.23973061 -0.0429377 -0.17822988 -0.06244754 -0.127018 -0.1641041 -0.17033868 -0.38143548
0.05650329 -0.25126603 -0.19879861 0.01597879 -0.14301683 -0.24161904 -0.25204727 -0.087147094
-0.38132715 -0.031108968 -0.38998982 -0.29433823 -0.3378195 0.009451071 -0.14435449 -0.3193168
-0.2026637 -0.069305025 -0.30705345 -0.008654477 0.05329455 -0.24496198 0.08625483 -0.36945462
-0.1459857 -0.05417807 0.08670737 -0.00609181 -0.2364891 0.025300704 -0.16524062 -0.075308606
-0.1443228 -0.26537275 -0.124921575 0.13106354 -0.29088545 -0.30446854 -0.08161735 -0.046424337
-0.31424305 -0.013829943 -0.21766141 -0.1969875 -0.20961642 -0.24807487 -0.20075847 -0.1671894
-0.018092778 -0.059075773 -0.0037878077 0.014448603 0.042458236 0.0027180472 -0.018010864 0.06592482
-0.014727332 0.1408008 0.046254314 0.15286987 0.12971032 -0.064653456 0.11013109 -0.10624766
-0.14316915 -0.11689376 0.038162664 0.020901572 0.088644214 0.022743875 -0.12730567 -0.10749044
0.015867507 0.061061427 0.04965316 0.079597406 -0.022029636 0.07005907 -0.06515289 -0.088536225
-0.30754352 0.07732864 -0.16364203 -0.12221667 -0.043355227 -0.1520016 0.1543762 -0.612137
-0.3711754 -0.0734795 -0.19823891 -0.054405387 -0.21069847 -0.17694792 -0.3715652 -0.21683535
-0.19417453 -0.30495322 -0.04742454 -0.17857939 -0.42156914 -0.13572462 -0.1234112 -0.035286278
-0.18153253 -0.07034176 -0.27022088 -0.018926475 -0.2568652 -0.2439484 -0.14310451 -0.19515952
00000000: 974e 92be 7ba6 14be 95c3 9bbd 06a3 90be
00000010: bc8b 2cbe 7996 b9be a8de 59bd 0509 babe
00000020: f17b 75be 71df 2fbd e581 36be fec8 7fbd
00000030: 0211 02be e80a 28be 436d 2ebe 834b c3be
00000040: fe6f 673d f1a5 80be dd91 4bbe f4e5 823c
00000050: 0173 12be fb6a 77be 570c 81be 2d7a b2bd
00000060: 503d c3be 3cd8 febc bfac c7be 80b3 96be
00000070: adf6 acbe aad8 1a3c aad1 13be 7e7d a3be
00000080: 1387 4fbe cbef 8dbd 1c36 9dbe 82cb 0dbc
00000090: 634b 5a3d 50d7 7abe 5fa6 b03d 2829 bdbe
000000a0: 467d 15be d3e9 5dbd a293 b13d ce9d c7bb
000000b0: 332a 72be 6c43 cf3c d634 29be 663b 9abd
000000c0: 5bc9 13be f0de 87be e2d6 ffbd 8535 063e
000000d0: f0ee 94be 4de3 9bbe ff26 a7bd 7227 3ebd
000000e0: 77e4 a0be fc96 62bc a2e2 5ebe 17b7 49be
000000f0: b0a5 56be 5707 7ebe a193 4dbe b333 2bbe
00000100: 4e37 94bc 70f9 71bd de3c 78bb d5b9 6c3c
00000110: b0e8 2d3d 4421 323b 858b 93bc 9803 873d
00000120: e84a 71bc 162e 103e 2a75 3d3d eb89 1c3e
00000130: c8d2 043e 0869 84bd 698c e13d 6098 d9bd
00000140: ef9a 12be ff65 efbd 7450 1c3d c639 ab3c
00000150: 198b b53d 5d51 ba3c 6b5c 02be f323 dcbd
00000160: 93fc 813c 8c1b 7a3d 1d61 4b3d f703 a33d
00000170: 7f77 b4bc 217b 8f3d e16e 85bd 7b52 b5bd
00000180: 5876 9dbe 7a5e 9e3d c791 27be bc4c fabd
00000190: 4095 31bd 4fa6 1bbe cb14 1e3e 03b5 1cbf
000001a0: b40a bebe 6c7c 96bd 24ff 4abe 2fd8 5ebd
000001b0: 57c1 57be d631 35be cb3d bebe 160a 5ebe
000001c0: b0d5 46be d422 9cbe 3c40 42bd 84dd 36be
000001d0: e9d7 d7be 65fb 0abe 03bf fcbd 5888 10bd
000001e0: aae3 39be 570f 90bd 645a 8abe b20b 9bbc
000001f0: d683 83be 9ccd 79be fd89 12be e6d7 47be

weight f4 [64, 4]
-0.15098332 0.7867479 0.61656106 -0.43861625 -0.5386911 -0.30816483 0.39073494 0.12373041
0.16437286 0.14224342 -0.100748226 0.590753 -0.6892766 0.12883411 -0.02291738 0.02341605
0.5804292 -0.2372347 -0.46948245 -0.31436464 0.09915871 -0.5732025 -0.52800906 -0.06024584
-0.4034595 0.017961374 0.35449162 0.26062068 -0.014342245 0.16247538 -0.45282492 -0.59460205
-0.39353353 0.27930713 0.4410678 -0.042013563 0.47745726 -0.109477594 0.0119408 0.35919768
0.18682113 0.4378361 -0.41734323 -0.4038187 -0.21299882 -0.116433725 0.5171831 0.826128
0.43349788 0.0955243 -0.22194676 0.17228806 0.27285108 0.32521084 -0.04894818 -0.202122
0.13337249 0.05375022 -0.34271547 0.13310382 -0.2036295 -0.38173556 0.49981084 -0.39096725
-0.30242848 -0.117820695 0.0479398 -0.29655993 -0.7634284 -0.3971001 0.37433726 -0.43444556
-0.2742269 0.4744252 0.06138792 -0.42828926 0.4736631 0.6291059 -0.33983064 -0.2608691
0.05415423 -0.34506947 0.13903068 0.006890648 -0.3596497 -0.58132726 0.41621065 0.16618505
-0.49488235 -0.2738853 0.26422113 0.36016908 0.066973016 0.249102 0.5623265 -0.1266483
-0.64647 0.33372527 0.54731107 -0.11344961 0.03336815 0.16976081 0.263757 -0.16436295
-0.52652675 0.47204378 -0.055201534 -0.2084929 -0.5301601 0.47683588 -0.2771038 -0.35665163
-0.514402 -0.26722133 0.5902859 -0.043617025 -0.20902444 -0.004931182 0.2142901 -0.5027936
-0.5974789 -0.6104231 -0.36200655 0.19708811 -0.2600349 -0.17965032 0.21531473 -0.50166005
0.51102304 -0.11645668 0.16516656 0.49102578 0.37458006 -0.5634449 0.25209397 0.42500144
-0.40648428 -0.5021059 0.085461415 -0.13716659 0.25665396 0.634524 -0.22958249 -0.6316813
-0.34050906 0.21159162 -0.07364008 0.2526837 -0.8339599 0.042755328 0.27163297 -0.48958132
-0.15549852 0.3192318 0.06708185 -0.4421861 0.046859443 0.08894721 -0.3414835 -0.012112144
-0.061140988 0.29192317 0.60666496 0.33077005 -0.51666546 -0.58650196 0.36431584 0.39671114
-0.048461124 -0.5321465 0.22851765 -0.59989804 -0.6030322 0.15774733 0.41247827 -0.32398894
0.330293 0.62556887 0.4784019 -0.290482 0.0779702 -0.10333353 -0.1076536 -0.31114224
-0.5638806 0.16276647 0.10041892 -0.61060005 -0.07636644 0.0044371476 0.22260626 -0.35410392
0.40622255 0.23114458 -0.15263334 0.257423 -0.56147385 0.2009462 0.25487775 0.065026894
-0.31504515 -0.08927494 -0.0012297762 -0.268898 0.54610604 0.1019387 -0.0080724815 -0.01835265
0.38356858 -0.015919482 -0.37881896 -0.06612759 -0.096291676 0.26434287 -0.36557242 0.12575245
0.5594002 -0.3793204 0.16666552 -0.849049 -0.3783731 -0.45214012 -0.061383486 -0.15105063
0.306141 0.41039705 -0.09307893 -0.66270685 0.11525503 0.17754723 -0.5976893 0.30749878
-0.6246297 0.464952 -0.50518554 0.30274072 0.00361807 -0.63565964 0.011196417 -0.17412415
-0.38780606 0.047401063 -0.27668807 0.045799527 0.40238577 -0.1539745 -0.64999217 0.2672294
-0.46315902 -0.74529976 0.54601824 -0.45106524 0.033638492 0.6349475 0.23653254 -0.6117829
00000000: 5f9b 1abe 4f68 493f f2d6 1d3f 4f92 e0be
00000010: a9e7 09bf c8c7 9dbe 690e c83e 5f66 fd3d
00000020: 5c51 283e 42a8 113e 1655 cebd 973b 173f
00000030: 6e74 30bf 17ed 033e 3bbd bbbc 04d3 bf3c
00000040: 0297 143f a7ed 72be 0160 f0be 67f4 a0be
00000050: b913 cb3d 66bd 12bf 9a2b 07bf 58c4 76bd
00000060: 3e92 cebe bb23 933c ed7f b53e 1370 853e
00000070: bcfb 6abc f25f 263e abd8 e7be d737 18bf
00000080: 3a7d c9be 5801 8f3e a4d3 e13e 6a16 2cbd
00000090: 4775 f43e ca35 e0bd 58a3 433c c2e8 b73e
000000a0: 0a4e 3f3e 0e2c e03e 03ae d5be 53c1 cebe
000000b0: 5d1c 5abe ce74 eebd 1d66 043f 207d 533f
000000c0: 6ff3 dd3e 3fa2 c33d 0346 63be 486c 303e
000000d0: 23b3 8b3e 0982 a63e e37d 48bd 12f9 4ebe
000000e0: cc92 083e 3129 5c3d 6778 afbe 5e4c 083e
000000f0: 4084 50be d872 c3be 35e7 ff3e dc2c c8be
00000100: e8d7 9abe fa4b f1bd 865c 443d b4d6 97be
00000110: 0b70 43bf b450 cbbe 22a9 bf3e a66f debe
00000120: 7867 8cbe dce7 f23e e671 7b3d bb48 dbbe
00000130: f883 f23e 160d 213f 48fe adbe a290 85be
00000140: d3d0 5d3d f2ac b0be 0f5e 0e3e f2ca e13b
00000150: 0124 b8be ddd1 14bf 9019 d53e 6a2c 2a3e
00000160: 3861 fdbe b23a 8cbe fe47 873e 1568 b83e
00000170: 2629 893d 9814 7f3e a1f4 0f3f 18b0 01be
00000180: 0f7f 25bf 0ade aa3e 941c 0c3f 4558 e8bd
00000190: 0bad 083d c7d5 2d3e 280b 873e c34e 28be
000001a0: 75ca 06bf b9af f13e 011b 62bd 2a7f 55be
000001b0: 93b8 07bf d523 f43e 8de0 8dbe 0b9b b6be
000001c0: d9af 03bf 3cd1 88be fa1c 173f c4a7 32bd
000001d0: 810a 56be c195 a1bb dd6e 5b3e 15b7 00bf
000001e0: 61f4 18bf b044 1cbf ec58 b9be 77d1 493e
000001f0: 4b23 85be 41f6 37be 777b 5c3e cb6c 00bf
00000200: 68d2 023f d780 eebd 6c21 293e bb67 fb3e
00000210: f5c8 bf3e ed3d 10bf 7612 813e ca99 d93e
00000220: b51e d0be 038a 00bf 6506 af3d 6675 0cbe
00000230: 2668 833e 2a70 223f ac17 6bbe deb5 21bf
00000240: 3457 aebe 79ab 583e 9cd0 96bd c25f 813e
00000250: 657e 55bf 3620 2f3d 7a13 8b3e 67aa fabe
00000260: 013b 1fbe 5a72 a33e 3562 893d 3766 e2be
00000270: b0ef 3f3d f429 b63d edd6 aebe 0472 46bc
00000280: f96e 7abd f476 953e 654e 1b3f b15a a93e
00000290: 3044 04bf fe24 16bf 9b87 ba3e b91d cb3e
000002a0: 2c7f 46bd c13a 08bf 8800 6a3e eb92 19bf
000002b0: 5160 1abf 8488 213e 5a30 d33e e1e1 a5be
000002c0: 2a1c a93e 4825 203f 18f1 f43e 0fba 94be
000002d0: d7ae 9f3d 88a0 d3bd 7e79 dcbd 094e 9fbe
000002e0: 7b5a 10bf 41ac 263e 6fa8 cd3d 4950 1cbf
000002f0: 0266 9cbd 7e65 913b e5f2 633e 1c4d b5be
00000300: 67fc cf3e 2ab1 6c3e ea4b 1cbe f3cc 833e
00000310: c0bc 0fbf d7c4 4d3e 567f 823e d22c 853d
00000320: 994d a1be c8d5 b6bd 7130 a1ba 00ad 89be
00000330: 9bcd 0b3f 3dc5 d03d 7142 04bc 4c58 96bc
00000340: 1a63 c43e 9369 82bc 8ff4 c1be e76d 87bd
00000350: 9234 c5bd f357 873e 4f2c bbbe 40c5 003e
00000360: da34 0f3f 4936 c2be 5eaa 2a3e 465b 59bf
00000370: 1eba c1be e97e e7be 406d 7bbd 04ad 1abe
00000380: 83be 9c3e 901f d23e 2ba0 bebd 28a7 29bf
00000390: d40a ec3d f1ce 353e 2a02 19bf 7b70 9d3e
000003a0: bbe7 1fbf 300e ee3e d753 01bf d500 9b3e
000003b0: 241d 6d3b 97ba 22bf 2d71 373c 9a4d 32be
000003c0: 848e c6be 9e27 423d 0faa 8dbe 4998 3b3d
000003d0: 8205 ce3e 7eab 1dbe e365 26bf 4bd2 883e
000003e0: 2e23 edbe f7cb 3ebf dac7 0b3f 06f2 e6be
000003f0: 84c8 093d eb8b 223f 9635 723e ce9d 1cbf

bias f4 [64]
0.44501173 0.20091578 -0.15235715 -0.037373666 0.07671679 0.47325763 0.14858714 0.024842126
0.50397116 0.17454451 -0.003448852 -0.07016048 -0.428677 0.4842408 -0.25011432 0.3140679
-0.46244583 0.43207622 0.33166465 0.3584056 0.40201542 0.07429403 0.08753853 -0.31649938
0.002382211 -0.11693795 -0.23030727 0.019228501 -0.11024814 -0.27071893 0.20752232 -0.5537684
-0.41125557 0.36702892 -0.21174125 0.024418844 -0.34851852 0.42595688 -0.31343827 0.23082231
0.09303416 0.181871 -0.42662776 -0.025936887 -0.11655529 0.47734043 -0.44351384 -0.20764878
-0.27745062 -0.09625011 0.46418786 0.5171738 -0.040991224 0.107917644 0.4025713 -0.08366989
0.33569986 0.013828716 0.045935255 0.5036362 0.14663887 -0.16315222 -0.3364475 0.24778625
00000000: 94d8 e33e debc 4d3e 8303 1cbe 2115 19bd
00000010: b11d 9d3d d34e f23e 3a27 183e b781 cb3c
00000020: 4104 013f ccbb 323e 2306 62bb 4cb0 8fbd
00000030: 8d7b dbbe 69ee f73e fc0e 80be 82cd a03e
00000040: b3c5 ecbe 1839 dd3e f3cf a93e f080 b73e
00000050: f7d4 cd3e 7827 983d 6747 b33d 350c a2be
00000060: de1e 1c3b 2a7d efbd abd5 6bbe 1785 9d3c
00000070: c7c9 e1bd ac9b 8abe bb80 543e c4c3 0dbf
00000080: 1790 d2be 37eb bb3e b3d2 58be 070a c83c
00000090: 0571 b2be 0517 da3e fb7a a0be af5c 6c3e
000000a0: b288 be3d 643c 3a3e f46e dabe 9879 d4bc
000000b0: 8ab4 eebd f765 f43e 3f14 e3be e2a1 54be
000000c0: 020e 8ebe c71e c5bd 08aa ed3e 8165 043f
000000d0: 6ae6 27bd ed03 dd3d d31d ce3e 1f5b abbd
000000e0: dae0 ab3e d791 623c 9b26 3c3d 4dee 003f
000000f0: 8028 163e 6011 27be d942 acbe aebb 7d3e
