experiments/pedestrians/models/06_Aug_2023_21_23_08/model_registrar-53.pt (torch, 713991 bytes, 82 tensors)

weight f4 [64, 10]
-0.027401889 -0.012260955 0.15493478 0.02867582 -0.69972324 0.8697425 0.009770253 -0.25105494
-0.16716631 0.114686735 0.064137965 0.2802763 0.3747061 0.043879244 -0.23522915 -0.14928555
-0.29443473 -0.37764233 -0.119063854 0.083773285 0.014695495 0.069801725 -0.07309908 0.51747465
-0.075496405 -0.025736134 -0.27381712 -0.03649469 -0.0048339097 -0.1631735 0.00021029855 0.03262702
-0.035178684 -0.0663576 -0.61612546 0.7388463 -0.26840514 -0.20690973 -0.030005548 -0.24890803
0.036090206 -0.042753216 0.07455004 0.12303659 0.59722114 0.43987858 0.28647286 0.16714217
-0.24384104 0.17845057 -0.004754991 0.05850405 0.37996402 -0.18005402 0.011468889 0.42379162
0.17918856 -0.004676743 -0.052132357 0.08199475 -0.044825915 0.1889715 0.44920272 0.031859282
0.5078582 -0.48922366 -0.25938594 0.27051404 0.31236163 0.23047407 -0.030950043 -0.14753889
0.05843916 -0.35797778 -0.7038343 -0.35883173 0.38213608 0.006074325 0.029659554 0.019034805
0.13887899 0.06848944 -0.389833 0.004143834 -0.6729094 -0.18597074 -0.16027267 -0.18420245
0.21832754 0.08994661 -0.03367595 0.14418042 0.49769887 0.30410424 0.048367098 0.38357353
0.13444637 -0.2480611 0.28382042 0.25561026 -0.20422186 0.10341731 0.2815837 0.244137
-0.24379933 -0.013181996 -0.11530605 0.13874075 0.23817717 -0.24877462 0.008602546 -0.05853178
0.55938286 0.013742263 -0.79982823 -0.8667643 0.12619649 0.4353873 -0.09255969 -0.03245012
-0.14232175 0.14564185 0.34294477 0.12439089 0.1589463 0.26112956 0.21757406 -0.065416686
0.055294625 -0.16647765 -0.0058496404 0.1325342 0.006598271 -0.6317852 -0.04130177 0.022836471
-0.04360091 -0.3092769 -0.17850775 -0.338487 0.063633054 -0.13468738 -0.33434755 0.35601485
-0.18891943 -0.010328594 0.32177636 0.096614175 0.062453184 0.4298136 0.018070824 0.022814207
0.036316328 -0.33154604 0.40242416 -0.7701747 -0.23585361 0.16004807 -0.2189647 0.09784173
-0.1928767 0.23855999 -0.015135325 0.056033194 -0.8271279 -0.13727996 0.048152577 0.2204342
-0.02764168 0.38025108 0.28617862 0.38199636 0.16496286 0.34129965 -0.16319737 0.7526117
0.022243079 0.027858622 -0.044081107 0.12530984 0.028991586 0.1421977 0.6533982 -0.2237671
-0.117404774 0.1549269 0.25723413 0.007556855 0.17822382 0.28380725 0.2737657 0.1725735
-0.45533538 -0.08934254 -0.56355315 -0.17030293 0.09659324 0.14911444 -0.21844344 0.24425703
-0.005520532 0.045387108 -0.25101805 0.2307529 0.35585344 -0.6200695 -0.0160668 -0.15374167
0.21534331 -0.11048131 -0.24068798 -0.027223999 0.013468733 0.03455555 0.5830661 0.9482255
0.38208434 0.18936332 0.22444208 0.00035377883 -0.00861197 0.27111906 -0.24280575 0.074655406
0.452891 0.42901006 0.22755851 0.2517294 0.09324863 -0.16129126 -0.008818945 -0.20911871
-0.14203937 0.5068362 -0.07533458 -0.48169068 -0.14009368 0.05574231 -0.1426751 0.11641049
0.10160952 -0.25976536 0.11859554 -0.22830932 0.37165588 0.4220846 -0.028804624 -0.38224077
-0.121007055 -0.35838175 -0.1294538 -0.10991722 0.20305341 0.46286166 -0.21234626 -0.4791897
00000000: ed79 e0bc 2ce2 48bc 39a7 1e3e 8ee9 ea3c
00000010: 1021 33bf 72a7 5e3f 6913 203c 468a 80be
00000020: a52d 2bbe e1e0 ea3d c45a 833d 6080 8f3e
00000030: 7ad9 bf3e b9ba 333d e9df 70be 50de 18be
00000040: 26c0 96be 565a c1be c0d7 f3bd 5491 ab3d
00000050: 60c5 703c 35f4 8e3d f8b4 95bd 3879 043f
00000060: dc9d 9abd 96d4 d2bc c231 8cbe 757b 15bd
00000070: c665 9ebb f416 27be 9683 5c39 e9a3 053d
00000080: 8617 10bd 7ee6 87bd 66ba 1dbf 0825 3d3f
00000090: 666c 89be 25e0 53be 32ce f5bc bfe1 7ebe
000000a0: 53d3 133d ff1d 2fbd b1ad 983d 9cfa fb3d
000000b0: 7ce3 183f c437 e13e 92ac 923e 5127 2b3e
000000c0: 77b1 79be bfbb 363e c1cf 9bbb f1a1 6f3d
000000d0: a58a c23e 1560 38be 02e8 3b3c 37fb d83e
000000e0: 357d 373e 5d3f 99bb bd88 55bd ddec a73d
000000f0: 619b 37bd bf81 413e e6fd e53e e17e 023d
00000100: ff02 023f 867b fabe 3cce 84be d180 8a3e
00000110: dded 9f3e 6501 6c3e f28a fdbc 6f14 17be
00000120: e75d 6f3d dd48 b7be 7c2e 34bf cbb8 b7be
00000130: 57a7 c33e 220b c73b 98f8 f23c e1ee 9b3c
00000140: 4b36 0e3e 3144 8c3d 3198 c7be 00c9 873b
00000150: ca43 2cbf 1d6f 3ebe 851e 24be 919f 3cbe
00000160: 4191 5f3e ee35 b83d cbef 09bd 08a4 133e
00000170: 63d2 fe3e 8db3 9b3e 941c 463d c063 c43e
00000180: 4fac 093e bb03 7ebe e950 913e 59df 823e
00000190: 891f 51be 74cc d33d bd2b 903e 0dff 793e
000001a0: 88a6 79be 4cf9 57bc 9425 ecbd 0e12 0e3e
000001b0: b7e4 733e c6be 7ebe b1f1 0c3c 05bf 6fbd
000001c0: b733 0f3f 3b27 613c 8bc1 4cbf 44e4 5dbf
000001d0: a739 013e 16eb de3e ef8f bdbd 6bea 04bd
000001e0: cbbc 11be 2323 153e 7596 af3e a7c0 fe3d
000001f0: d2c2 223e c6b2 853e bccb 5e3e 2ff9 85bd
00000200: 9e7c 623d 1e79 2abe 57ae bfbb 0cb7 073e
00000210: 4f36 d83b adbc 21bf 0b2c 29bd 8d13 bb3c
00000220: de96 32bd 8b59 9ebe bcca 36be 2b4e adbe
00000230: 0c52 823d 7deb 09be 9a2f abbe 9447 b63e
00000240: 1874 41be 4339 29bc dfbf a43e a7dd c53d
00000250: e9ce 7f3d 8710 dc3e 4409 943c dce4 ba3c
00000260: 6ec0 143d 67c0 a9be 8a0a ce3e 2b2a 45bf
00000270: 9c83 71be a4e3 233e 4838 60be 3f61 c83d
00000280: 7881 45be 1249 743e 27fa 77bc 1083 653d
00000290: a7be 53bf 1e93 0cbe a33b 453d 81b9 613e
000002a0: ce70 e2bc 45b0 c23e 0186 923e 0795 c33e
000002b0: 06ec 283e d4be ae3e 361d 27be 29ab 403f
000002c0: 1e37 b63c c437 e43c 648e 34bd 3951 003e
000002d0: c37f ed3c 469c 113e 1b45 273f 3423 65be
000002e0: ea71 f0bd 28a5 1e3e 31b4 833e 7f9f f73b
000002f0: 4e80 363e 2f4f 913e 052b 8c3e 1cb7 303e
00000300: b821 e9be 39f9 b6bd 0545 10bf e463 2ebe
00000310: add2 c53d 75b1 183e a3af 5fbe 841e 7a3e
00000320: 94e5 b4bb d5e7 393d 7085 80be 7d4a 6c3e
00000330: 6c32 b63e e0bc 1ebf 869e 83bc 756e 1dbe
00000340: f582 5c3e 0644 e2bd e976 76be dd04 dfbc
00000350: f6ab 5c3c 1f8a 0d3d d243 153f e8be 723f
00000360: 8fa0 c33e 75e8 413e 25d4 653e 647b b939
00000370: 3819 0dbc 1ed0 8a3e 12a2 78be efe4 983d
00000380: 54e1 e73e 35a7 db3e 1905 693e ade2 803e
00000390: 23f9 be3d 8929 25be 567d 10bc 3723 56be
000003a0: c572 11be 04c0 013f 0449 9abd 29a0 f6be
000003b0: b874 0fbe 0c52 643d 6c19 12be 9f68 ee3d
000003c0: a718 d03d f7ff 84be 38e2 f23d ebc9 69be
000003d0: ae49 be3e 791b d83e adf7 ebbc 10b5 c3be
000003e0: 8cd2 f7bd d07d b7be 898f 04be 481c e1bd
000003f0: 3ced 4f3e 34fc ec3e 4c71 59be 5a58 f5be

bias f4 [64]
-0.20572248 -0.11014128 -0.25154525 0.29272366 0.13895354 0.29050922 -0.27449524 -0.009878547
0.06949192 0.22680306 -0.020677127 0.4714727 -0.10875315 0.04014006 -0.030799137 -0.052300636
-0.10946895 -0.22450745 0.24175166 0.14021467 -0.085371174 0.17396842 0.16764481 -0.14235964
-0.18504277 0.09662164 0.014775289 -0.16035338 -0.31230435 0.030152503 0.1618495 -0.2752409
-0.14515588 0.10801045 -0.30133006 0.2594036 0.21225819 -0.110325836 -0.13357535 0.100290574
-0.17597283 0.2910751 0.0065259524 -0.10667178 -0.2114465 0.10269779 -0.15055072 -0.2758762
0.13931619 -0.1349185 0.010188355 0.23283312 -0.34964144 -0.35151964 -0.44147572 0.11025887
0.02039831 0.25078133 0.20679083 0.36710405 -0.33128488 0.13408828 0.35814738 -0.12618485
00000000: eaa8 52be c091 e1bd 8aca 80be e0df 953e
00000010: d649 0e3e a0bd 943e a48a 8cbe a1d9 21bc
00000020: c851 8e3d 103f 683e 1463 a9bc df64 f13e
00000030: f9b9 debd e769 243d 794e fcbc 3139 56bd
00000040: 4231 e0bd 48e5 65be bf8d 773e 6f94 0f3e
00000050: 15d7 aebd c724 323e 15ab 2b3e bac6 11be
00000060: da7b 3dbe 91e1 c53d 0e14 723c ad33 24be
00000070: 5be6 9fbe 6202 f73c e0bb 253e 60ec 8cbe
00000080: bea3 14be 9534 dd3d ef47 9abe 8cd0 843e
00000090: 365a 593e 83f2 e1bd fac7 08be 2565 cd3d
000000a0: 3932 34be cc07 953e a8d7 d53b bc76 dabd
000000b0: 6e85 58be 3853 d23d f829 1abe a53f 8dbe
000000c0: e7a8 0e3e 1328 0abe 0fed 263c ce6b 6e3e
000000d0: 3404 b3be 62fa b3be 1b09 e2be 67cf e13d
000000e0: 5b1a a73c 6966 803e fac0 533e 10f5 bb3e
000000f0: 2c9e a9be 704e 093e 185f b73e 9a36 01be

weight f4 [32, 32]
-0.11081107 -0.20259891 0.20579714 0.005482427 -0.14561851 0.011208234 -0.068415985 0.07903807
-0.1554343 -0.55005 0.09916381 0.05864314 -0.022807911 0.19185546 -0.19943914 0.27143294
0.018957835 0.281996 0.18553782 0.34380743 -0.30612868 0.1918384 0.0063797184 -0.4886036
-0.054036923 0.12408025 0.15645376 0.12725842 0.15556066 0.10393912 -0.071448065 0.31446636
0.14803337 -0.035806548 -0.55200213 0.05522293 -0.19575727 0.06301143 0.15851285 -0.07310264
-0.34285888 -0.33551738 -0.29094672 -0.3035538 0.31555942 -0.035417575 -0.04946057 -0.10663299
0.012054309 0.19264123 0.23000674 0.4524832 0.18292578 -0.10771654 0.006070739 0.054082938
0.08590883 -0.02367238 0.14434113 0.1657874 -0.20784348 -0.31284383 0.2087631 -0.10859693
0.29694852 -0.2097835 0.14586002 -0.62276113 -0.24693036 0.0345408 -0.2128061 -0.20998381
-0.19063538 0.22161658 0.17266288 -0.107453376 -0.3992553 0.3652565 -0.3821562 0.017595889
0.057236932 0.4041177 0.37908736 -0.50417125 -0.09443428 0.06848587 -0.15082641 -0.3369968
-0.09659773 -0.088910416 0.030575454 -0.09132968 0.21645005 -0.25493217 -0.26942858 -0.04861267
0.2975414 -0.20913015 0.1524008 0.16348778 -0.112190194 0.1848554 0.35300353 -0.22324212
-0.19654162 0.25852183 0.1028333 -0.14398794 0.3607227 -0.15991051 -0.058228336 -0.029181976
-0.2562357 0.03335888 -0.1617995 0.27461827 -0.032964647 0.033780742 0.1698303 0.055333648
-0.06163789 0.014276133 0.06772469 0.33693588 -0.11237188 -0.012256398 0.23520999 0.066585064
-0.34091255 -0.034751613 0.20292066 -0.07882506 0.19336873 -0.09681412 0.09683354 0.2802554
0.08757133 -0.27688694 0.119370624 0.19399785 -0.13682707 0.08940251 0.0319183 0.0620748
-0.06656172 -0.020490091 0.09053912 0.29542887 0.1877103 -0.33470336 0.15492658 0.16572551
0.17860898 0.3631565 0.02485248 -0.21546625 0.08809183 0.37114105 0.040373076 -0.15441094
0.4580453 -0.055025563 -0.009547648 -0.4823215 -0.030103238 0.23032424 -0.024305444 -0.1355685
-0.018108193 0.12350757 0.13270679 0.09012047 -0.13167046 0.15745048 -0.23767139 -0.10899018
-0.09097019 -0.13574438 0.115644135 -0.37616807 -0.12726438 0.107086815 -0.22918835 -0.0047617867
-0.17441455 0.27494723 0.02920034 0.045348924 -0.095444605 -0.30386508 -0.057834875 0.03545789
-0.18241312 0.016502768 0.106393516 0.04351614 0.019314704 -0.1173392 0.52428466 0.2924612
0.10738031 0.17765085 0.058521874 0.35701466 -0.20017429 -0.17775093 0.22396657 -0.14573734
-0.0712665 -0.27263528 -0.2505621 0.0817783 0.052975465 -0.3410262 0.36695614 0.45898053
0.19828619 0.19350728 0.06586461 -0.12578116 -0.09822493 0.0017102889 0.09461888 -0.085006684
0.17849268 -0.035922248 0.12411968 -0.28247774 0.081321046 0.25260156 0.3070654 0.18332651
-0.12045505 0.006849239 -0.10058028 0.19923504 0.28275403 0.122925736 -0.038172115 0.2682176
0.08040449 0.17669685 0.023231382 0.48737845 0.14386265 0.061476305 0.097753 -0.047454514
0.15341184 0.1105021 0.08220588 0.20870943 0.032563243 -0.08235778 0.17165637 -0.090707555
00000000: eaf0 e2bd 1776 4fbe 7cbc 523e eea5 b33b
00000010: 051d 15be bea2 373c ae1d 8cbd b6de a13d
00000020: 2b2a 1fbe 14d0 0cbf 6516 cb3d ca33 703d
00000030: a8d7 babc c275 443e c639 4cbe 42f9 8a3e
00000040: 764d 9b3c c861 903e a0fd 3d3e 8707 b03e
00000050: e6bc 9cbe 4971 443e f50c d13b 402a fabe
00000060: d255 5dbd c91d fe3d 6a35 203e 0850 023e
00000070: 4b4b 1f3e 09de d43d 5d53 92bd bc01 a13e
00000080: 0f96 173e e3a9 12bd 0350 0dbf 7031 623d
00000090: 9874 48be 230c 813d 3151 223e d6b6 95bd
000000a0: 338b afbe efc8 abbe f8f6 94be 676b 9bbe
000000b0: 0191 a13e 0512 11bd 2b97 4abd 6662 dabd
000000c0: 707f 453c be43 453e e386 6b3e e1ab e73e
000000d0: e550 3b3e 7d9a dcbd 0ded c63b 1286 5d3d
000000e0: f8f0 af3d 94ec c1bc 29ce 133e 2cc4 293e
000000f0: ecd4 54be 112d a0be fec5 553e 1168 debd
00000100: a309 983e 7cd1 56be 545c 153e 466d 1fbf
00000110: 50db 7cbe a77a 0d3d d8e9 59be ff05 57be
00000120: ec35 43be 75ef 623e 8ace 303e 8410 dcbd
00000130: 316b ccbe e602 bb3e faa9 c3be 4125 903c
00000140: 4671 6a3d 84e8 ce3e bd17 c23e 5e11 01bf
00000150: c366 c1bd 5242 8c3d 3d72 1abe d88a acbe
00000160: 08d5 c5bd aa16 b6bd 6079 fa3c 0e0b bbbd
00000170: 15a5 5d3e 7886 82be 8bf2 89be 141e 47bd
00000180: 5957 983e 3726 56be f50e 1c3e 5769 273e
00000190: f9c3 e5bd bc4a 3d3e e1bc b43e 9599 64be
000001a0: 3542 49be f95c 843e 449a d23d 9371 13be
000001b0: a5b0 b83e 95bf 23be d680 6ebd 0a0f efbc
000001c0: 5331 83be 52a3 083d c5ae 25be c49a 8c3e
000001d0: f005 07bd ad5d 0a3d ffe7 2d3e 89a5 623d
000001e0: 0378 7cbd 71e6 693c 3eb3 8a3d dc82 ac3e
000001f0: 3a23 e6bd 0fcf 48bc e3da 703e c05d 883d
00000200: 178c aebe b557 0ebd 6fca 4f3e 086f a1bd
00000210: 7402 463e 7b46 c6bd aa50 c63d a37d 8f3e
00000220: 9958 b33d 20c4 8dbe 9678 f43d 5fa7 463e
00000230: 651c 0cbe aa18 b73d c3bc 023d 2542 7e3d
00000240: 8351 88bd d6da a7bc 936c b93d 7442 973e
00000250: 2137 403e 3d5e abbe 13a5 1e3e f3b3 293e
00000260: 46e5 363e a6ef b93e 6e97 cb3c 2fa3 5cbe
00000270: 7d69 b43d 3306 be3e 3d5e 253d e71d 1ebe
00000280: ea84 ea3e 7c62 61bd bd6d 1cbc d8f2 f6be
00000290: 119b f6bc 1eda 6b3e 361c c7bc 78d2 0abe
000002a0: a257 94bc 89f1 fc3d 4ae4 073e 1591 b83d
000002b0: 9fd4 06be b33a 213e 2160 73be 3e36 dfbd
000002c0: 944e babd 9300 0bbe d5d6 ec3d 1a99 c0be
000002d0: 9851 02be 5550 db3d 5ab0 6abe c308 9cbb
000002e0: ba99 32be e2c5 8c3e 8d35 ef3c cbbf 393d
000002f0: 7678 c3bd 3494 9bbe 43e4 6cbd 4b3c 113d
00000300: 81ca 3abe d030 873c d8e4 d93d fb3d 323d
00000310: df39 9e3c 894f f0bd 8537 063f 79bd 953e
00000320: 35ea db3d 1bea 353e a2b4 6f3d a0ca b63e
00000330: 7dfa 4cbe 5704 36be 7e57 653e 2b3c 15be
00000340: 2cf4 91bd da96 8bbe ad49 80be 627b a73d
00000350: cdfc 583d fc9a aebe ade1 bb3e 7fff ea3e
00000360: 890b 4b3e c626 463e 06e4 863d c7cc 00be
00000370: 272a c9bd c62b e03a 8bc7 c13d fc17 aebd
00000380: c9c6 363e 3523 13bd 7532 fe3d eca0 90be
00000390: a68b a63d fe54 813e ad37 9d3e f2b9 3b3e
000003a0: 23b1 f6bd 956f e03b 09fd cdbd 4504 4c3e
000003b0: 23c5 903e 7dc0 fb3d 5d5a 1cbd d153 893e
000003c0: 1cab a43d 05f0 343e bd4f be3c ab89 f93e
000003d0: bb50 133e 94ce 7b3d ba32 c83d aa5f 42bd
000003e0: fe17 1d3e ed4e e23d 8e5b a83d edb7 553e
000003f0: 0961 053d 32ab a8bd b0c6 2f3e e2c4 b9bd

bias f4 [32]
-0.15220723 -0.07654047 0.2209476 -0.06634807 -0.21585155 0.12671855 0.057914708 0.15855505
0.10275177 -0.028454814 0.11784566 0.15817362 -0.092401184 0.0005216333 -0.035172794 0.1584167
-0.18387182 0.100364484 0.06414709 -0.03953999 0.16096511 -0.13713874 -0.09351331 0.07848969
-0.09406775 0.058544658 -0.17990927 -0.25231075 -0.19172288 -0.18755253 -0.03578204 -0.021840977
00000000: 36dc 1bbe 40c1 9cbd 1640 623e 7fe1 87bd
00000010: 3008 5dbe 82c2 013e f937 6d3d 415c 223e
00000020: 856f d23d 121a e9bc 1159 f13d 44f8 213e
00000030: d53c bdbd 38be 083a 5911 10bd fd37 223e
00000040: e548 3cbe e58b cd3d 8d5f 833d aff4 21bd
00000050: 0ad4 243e 196e 0cbe e883 bfbd 34bf a03d
00000060: 98a6 c0bd 86cc 6f3d 233a 38be e02e 81be
00000070: 0153 44be c50d 40be 3090 12bd d9eb b2bc

weight f4 [32, 64]
-0.050972015 0.0041405708 -0.06208232 0.047139198 -0.106506884 0.09163049 -0.09085503 -0.09938024
-0.078985885 0.056611687 -0.04618652 0.046776667 -0.10609117 -0.07584046 -0.045897007 -0.024564967
-0.095357925 0.081848845 -0.029478893 0.040123463 0.08839294 0.02328825 0.03418134 0.12065734
-0.056376174 0.039593905 -0.055614516 0.08933121 0.09983206 -0.115246534 0.106705725 0.0596893
0.05447088 0.051459357 0.10391238 -0.016504943 -0.10571231 -0.035868615 -0.08803433 0.008263335
-0.023338437 -0.06704812 -0.011365175 0.11842547 -0.009859428 0.0039687604 -0.01949507 0.019650877
0.11137658 0.07643661 0.04437019 0.027163818 0.02947411 0.048291653 -0.016152933 -0.1161761
-0.07730149 0.106698215 0.0074716806 -0.10125919 0.019715935 0.10328396 -0.11812496 -0.08415492
-0.0497832 0.005017191 -0.029153675 -0.013736397 -0.121861264 0.05853489 0.109717906 0.076404795
-0.08851655 -0.10076292 0.05190654 0.0028073192 0.051241368 -0.122143924 -0.0074528754 0.08815546
0.057988927 0.0045646727 0.02457738 -0.011835009 -0.06872919 -0.04723741 -0.07612246 0.10382615
0.06878583 0.043715328 -0.09585656 0.09645273 0.03919284 0.08647433 -0.049173757 0.026499614
0.1220478 0.084082395 0.10024959 -0.026248097 0.09523465 -0.09790403 0.01081112 -0.070381865
-0.029151902 -0.03201218 0.009352386 0.11376746 0.06188549 -0.00052952766 0.08873069 -0.06405695
0.06442143 -0.0115915835 -0.02175136 0.014634177 -0.09576209 0.014444664 0.042029753 0.106866464
-0.038917884 0.045003444 0.12493901 -0.05362113 0.11882405 -0.062061504 0.055099368 0.048968762
0.034916013 0.098850384 -0.050520554 0.03285238 0.00070151687 -0.0940177 -0.030351743 -0.083477885
0.05526942 0.011236995 0.012245581 -0.03792134 0.00060106814 -0.038880393 0.035917014 0.121396214
0.018933818 -0.055364788 -0.076353505 0.009554878 -0.092730775 -0.09395628 -0.081359625 -0.0424556
0.009252191 0.08607645 0.04841742 0.095764846 -0.07848717 0.010548517 -0.11111009 0.071707144
0.026051238 0.12090184 -0.08890152 0.10024123 0.10552831 0.1010647 0.017836854 0.11365992
0.083479375 0.093259916 -0.008120105 -0.095924765 -0.0015555024 0.023442283 -0.08514613 -0.071704894
-0.119843304 -0.04381843 0.10888356 0.021374509 -0.0076350123 0.005019754 0.077943206 -0.110382944
-0.096448705 -0.041558802 -0.07193977 0.06447314 0.08832294 -0.12127823 -0.10608496 -0.12172723
0.04715681 0.100606814 -0.09691751 -0.057869554 0.039777577 -0.08162317 0.106184945 0.029145151
-0.03479795 0.008118823 0.038971066 -0.044201642 -0.09685698 0.000840202 0.0022768676 0.0025206506
-0.018241286 0.08025919 -0.034882396 -0.012099087 0.051398456 -0.078679666 0.033469826 -0.027639464
0.059959188 -0.06780805 0.004619792 0.012228668 -0.10057457 -0.09089278 0.047939166 -0.036382064
0.07423708 -0.12348282 -0.061791077 -0.10295774 0.049933925 -0.0036239177 -0.023315176 -0.020796418
-0.09770611 0.03544937 0.0031157285 -0.08626412 0.047035962 -0.0025123805 -0.12089345 0.06724003
0.066860884 -0.02355127 -0.08630477 0.005018756 0.09432247 0.11441748 -0.09435013 -0.056458622
0.09732805 0.06109728 0.07737662 -0.06221679 0.10769181 -0.10275824 -0.006021112 0.002595365
00000000: 08c8 50bd a0ad 873b 084a 7ebd 0815 413d
00000010: 4820 dabd c4a8 bb3d 3412 babd de87 cbbd
00000020: 5ac3 a1bd a8e1 673d 142e 3dbd e498 3f3d
00000030: 5446 d9bd 3e52 9bbd 80fe 3bbd 783c c9bc
00000040: 044b c3bd 5ea0 a73d b87d f1bc 8058 243d
00000050: 5c07 b53d 00c7 be3c bc01 0c3d 321b f73d
00000060: b4ea 66bd 382d 223d 0ccc 63bd 48f3 b63d
00000070: c074 cc3d 6006 ecbd 8888 da3d c47c 743d
00000080: dc1c 5f3d 0cc7 523d 04d0 d43d 6035 87bc
00000090: b27f d8bd f8ea 12bd 584b b4bd f062 073c
000000a0: 4030 bfbc 8650 89bd 0035 3abc 0e89 f23d
000000b0: 7089 21bc 600c 823b 20b4 9fbc e0fa a03c
000000c0: 6819 e43d cc8a 9c3d 84bd 353d a886 de3c
000000d0: b073 f13c 78cd 453d 2853 84bc bced edbd
000000e0: 3e50 9ebd 9884 da3d 00d5 f43b fa60 cfbd
000000f0: 5083 a13c 8a86 d33d 80eb f1bd 6a59 acbd
00000100: 78e9 4bbd 4067 a43b b0d3 eebc a00e 61bc
00000110: 6692 f9bd 48c2 6f3d c8b3 e03d 1e7a 9c3d
00000120: 2a48 b5bd ca5c cebd f49b 543d 00fb 373b
00000130: 78e2 513d 9826 fabd 4037 f4bb da8a b43d
00000140: cc85 6d3d 4093 953b 8056 c93c a0e7 41bc
00000150: e4c1 8cbd 047c 41bd 18e6 9bbd cea2 d43d
00000160: 96df 8c3d d80e 333d 7250 c4bd 0289 c53d
00000170: ac88 203d 7419 b13d 6c6a 49bd b815 d93c
00000180: 32f4 f93d 6433 ac3d a84f cd3d 4006 d7bc
00000190: 620a c33d e881 c8bd 2021 313c 5e24 90bd
000001a0: f8cf eebc 341f 03bd c03a 193c eafe e83d
000001b0: a47b 7d3d 00d0 0aba 70b8 b53d 4a30 83bd
000001c0: 62ef 833d a0ea 3dbc e82f b2bc 30c4 6f3c
000001d0: ea1e c4bd 50a9 6c3c 6427 2c3d cedc da3d
000001e0: 5c68 1fbd 8855 383d 06e0 ff3d d4a1 5bbd
000001f0: 065a f33d 3434 7ebd e0af 613d 7893 483d
00000200: 1804 0f3d 1272 ca3d a4ee 4ebd 3890 063d
00000210: 00e6 373a 5a8c c0bd 38a4 f8bc 74f6 aabd
00000220: 3062 623d 601b 383c b0a1 483c 6853 1bbd
00000230: 0091 1d3a 0c41 1fbd b81d 133d 949e f83d
00000240: 181b 9b3c 30c6 62bd 3a5f 9cbd 108c 1c3c
00000250: a2e9 bdbd 266c c0bd e09f a6bd ece5 2dbd
00000260: 8096 173c da48 b03d 5851 463d 5c20 c43d
00000270: e2bd a0bd b0d3 2c3c b08d e3bd 32db 923d
00000280: 6869 d53c 629b f73d 0012 b6bd 464b cd3d
00000290: 3a1f d83d 02fb ce3d 981e 923c 88c6 e83d
000002a0: 3cf7 aa3d 0eff be3d 300a 05bc 3474 c4bd
000002b0: 00e2 cbba 080a c03c 1861 aebd 04da 92bd
000002c0: 6870 f5bd f47a 33bd 58fe de3d 9819 af3c
000002d0: 202f fabb c07c a43b b0a0 9f3d 7410 e2bd
000002e0: e686 c5bd 9039 2abd 2855 93bd 7e0a 843d
000002f0: a8e2 b43d b860 f8bd 1243 d9bd 204c f9bd
00000300: 8027 413d f20a ce3d b07c c6bd a008 6dbd
00000310: d0ed 223d 0c2a a7bd 7e77 d93d d0c1 ee3c
00000320: 4c88 0ebd d004 053c 20a0 1f3d c80c 35bd
00000330: f45c c6bd 0041 5c3a 8037 153b 8031 253b
00000340: c06e 95bc ee5e a43d d8e0 0ebd 403b 46bc
00000350: 3087 523d ce22 a1bd a817 093d 286c e2bc
00000360: c497 753d f2de 8abd a061 973b c05a 483c
00000370: 0afa cdbd fe25 babd dc5b 443d 5c05 15bd
00000380: 9c09 983d 90e4 fcbd a418 7dbd 82db d2bd
00000390: 8487 4c3d 407f 6dbb 78ff bebc 405d aabc
000003a0: 241a c8bd 5c33 113d 4031 4c3b 3eab b0bd
000003b0: c8a8 403d c0a6 24bb fc96 f7bd 24b5 893d
000003c0: 5cee 883d 98ee c0bc 8ec0 b0bd 6074 a43b
000003d0: 242c c13d b653 ea3d a43a c1bd 2841 67bd
000003e0: ee53 c73d 2441 7a3d a277 9e3d 08d7 7ebd
000003f0: 868d dc3d ea72 d2bd c04c c5bb 0017 2a3b

bias f4 [32]
0.006000623 -0.11990543 0.015900686 0.043976173 0.11186783 -0.040516123 0.04508625 -0.041886568
-0.043956473 -0.11076146 0.02638419 0.083875194 -0.06953706 0.05110444 -0.019498333 -0.08874825
0.013328612 -0.1218126 0.06700824 -0.027619168 0.11512223 0.0046144873 -0.12118633 0.09700169
-0.027341396 -0.085622594 0.11541125 0.011674732 0.040526584 -0.108135834 -0.04414603 0.10029392
00000000: e0a0 c43b fa90 f5bd 2842 823c 5c20 343d
00000010: f61a e53d 3cf4 25bd 5cac 383d 4091 2bbd
00000020: b40b 34bd e8d6 e2bd a823 d83c c2c6 ab3d
00000030: 7269 8ebd e452 513d f8ba 9fbc a4c1 b5bd
00000040: 4060 5a3c e278 f9bd 9e3b 893d 9841 e2bc
00000050: 34c5 eb3d 2035 973b 8a30 f8bd d2a8 c63d
00000060: 10fb dfbc e65a afbd bc5c ec3d 6047 3f3c
00000070: 34ff 253d 5276 ddbd 78d2 34bd e666 cd3d

weight_ih_l0 f4 [128, 32]
-0.060450282 0.07105491 -0.15125228 -0.049422216 -0.16518673 0.05611301 -0.2513989 -0.48404825
-0.20293924 0.32948464 -0.089386486 -0.084320374 0.12754479 -0.15379938 0.12997423 0.21724048
0.043162532 0.2818819 -0.29389963 0.031365573 -0.3627473 -0.047369253 -0.21959846 -0.42114717
-0.13908707 -0.28978664 0.019671455 0.11046524 0.08708306 -0.1780335 0.2714388 -0.39591506
0.032113463 -0.10775709 -0.26600042 -0.17121986 0.07558638 0.03312466 0.082201704 -0.27205804
-0.08026896 0.27801117 0.14465179 -0.0062353816 0.31564724 0.038491376 -0.0871453 -0.19330141
0.061017018 0.11919547 -0.07880121 0.121292144 -0.37516135 -0.06440448 -0.05576065 -0.4461416
0.03737773 -0.025576107 0.21701255 0.07826453 -0.008283232 -0.0021792194 0.15167232 -0.15138699
0.16349113 0.29019573 0.027446058 -0.22786938 0.09294613 -0.30902076 -0.039626036 -0.4269644
-0.036721256 0.34598866 0.25477967 -0.2627337 0.037029535 -0.2170576 -0.0039875507 -0.0708125
0.3402133 0.5670597 -0.004094213 0.11586545 -0.044874467 0.09899969 -0.26590377 -0.69562334
-0.08723325 -0.42547575 0.19840872 0.3726917 0.1809601 -0.13233528 -0.020482708 0.017726557
0.12921837 0.07754619 -0.21847036 -0.48950782 -0.13476357 -0.1821383 0.012398588 -0.67649055
0.08708266 0.27298447 -0.13607362 0.13691351 0.30375364 -0.21179716 0.12103915 0.31919277
0.12526375 0.26108924 -0.16008279 -0.14415814 -0.0032133916 -0.24309072 -0.21235412 -0.6047271
-0.1724994 -0.32412028 0.015975399 0.13321124 0.055612814 0.08047667 -0.010618075 -0.041010644
-0.049639355 0.029606674 0.07342202 -0.38460505 -0.19368604 -0.15393819 -0.13382113 -0.4517829
-0.03357206 0.19512878 0.10139158 0.13599853 0.38524616 -0.2827101 -0.03113164 0.13523911
0.13389164 0.6337304 -0.23593092 -0.23694731 -0.05160048 -0.2748317 -0.19725336 -0.58948594
-0.25397032 -0.3038988 0.13763157 0.2674118 0.26349837 -0.121408604 -0.20426087 -0.08620857
-0.1695833 -0.0026314578 -0.26827204 -0.22223699 -0.23457181 0.04287026 -0.28638923 -0.36413953
-0.34506673 0.1878145 -0.10162724 0.06293412 0.26505637 0.023985006 0.10677582 0.19574098
0.3053813 0.18631719 0.056897067 -0.31155926 -0.47488165 -0.10142434 0.067093596 -0.49629351
-0.087790415 -0.29392508 0.130304 0.22895089 0.13238828 -0.020924168 -0.26378816 -0.14818192
0.1770094 0.11435148 -0.43122718 0.04264847 0.16541754 -0.13198304 0.07218526 -0.3202664
-0.103297696 -0.09677964 -0.1221041 -0.13189931 0.014451184 -0.08040293 0.042864475 -0.07892896
0.19060236 0.22741006 -0.19400868 0.020983059 -0.2594738 -0.03280405 0.04403822 -0.5318884
-0.057616826 -0.005831631 0.05151782 0.26090068 0.0058025 -0.011515186 -0.1847625 -0.16591583
-0.0120701585 0.4439411 -0.03102797 -0.42609146 -0.17396879 -0.39347753 -0.12174807 -0.6435972
-0.20512375 0.23865691 -0.009763088 -0.25255224 0.114910714 -0.5067291 -0.017656816 -0.087706484
0.1915286 0.30261564 -0.25473076 0.1106087 -0.14477848 0.033547807 0.0115569085 -0.67694837
0.24274786 -0.4346212 0.50746065 0.3597822 0.2924956 0.076852135 -0.1366067 0.15935005
00000000: b79a 77bd 3d85 913d e1e1 1abe f36e 4abd
00000010: b626 29be c1d6 653d 5bb7 80be 2cd5 f7be
00000020: 4ecf 4fbe 36b2 a83e 4310 b7bd 29b0 acbd
00000030: 1a9b 023e 967d 1dbe f717 053e 4a74 5e3e
00000040: 32cb 303d d352 903e 037a 96be 3079 003d
00000050: 04ba b9be 4306 42bd 6bde 60be 9aa0 d7be
00000060: d76c 0ebe ea5e 94be 0826 a13c 9a3b e23d
00000070: 9a58 b23d 6a4e 36be 07fa 8a3e 61b5 cabe
00000080: 6889 033d c0af dcbd 3531 88be 4254 2fbe
00000090: 08cd 9a3d b9ad 073d 5e59 a83d 314b 8bbe
000000a0: 0d64 a4bd 7b57 8e3e 991f 143e 2c52 ccbb
000000b0: 849c a13e 22a9 1d3d 3c79 b2bd cef0 45be
000000c0: fbec 793d c11c f43d 8762 a1bd 0468 f83d
000000d0: 2615 c0be 7fe6 83bd 4865 64bd ac6c e4be
000000e0: 6419 193d fc84 d1bc 8a38 5e3e 2749 a03d
000000f0: 65b6 07bc 3cd1 0ebb fd4f 1b3e 3105 1bbe
00000100: 386a 273e 8994 943e 8ed6 e03c 9756 69be
00000110: 8a5a be3d f837 9ebe e94e 22bd 149b dabe
00000120: 0769 16bd 6d25 b13e 7b72 823e 0885 86be
00000130: 48ac 173d 5944 5ebe 00aa 82bb 2506 91bd
00000140: 7030 ae3e d32a 113f bf28 86bb dd4a ed3d
00000150: 4ace 37bd 59c0 ca3d 8a24 88be 5f14 32bf
00000160: 59a7 b2bd f5d7 d9be a82b 4b3e 72d1 be3e
00000170: 9b4d 393e e682 07be 5acb a7bc 4937 913c
00000180: d251 043e 89d0 9e3d b2b6 5fbe c5a0 fabe
00000190: 76ff 09be 7682 3abe 7223 4b3c 7c2e 2dbf
000001a0: 6558 b23d 9fc4 8b3e e256 0bbe 0e33 0c3e
000001b0: 9985 9b3e 5be1 58be 60e3 f73d 3c6d a33e
000001c0: 2445 003e 7dad 853e beec 23be 319e 13be
000001d0: c497 52bb c6ec 78be 5c73 59be 65cf 1abf
000001e0: afa3 30be 18f3 a5be d7de 823c 8768 083e
000001f0: 43ca 633d f4d0 a43d 6ff7 2dbc c7fa 27bd
00000200: a352 4bbd b289 f23c 495e 963d f4ea c4be
00000210: a255 46be f9a1 1dbe 6808 09be 1750 e7be
00000220: db82 09bd d7cf 473e 64a6 cf3d 3343 0b3e
00000230: fc3e c53e 61bf 90be c807 ffbc 1f7c 0a3e
00000240: e41a 093e 283c 223f e097 71be 51a2 72be
00000250: 065b 53bd beb6 8cbe c9fc 49be 8de8 16bf
00000260: 6608 82be a098 9bbe 4aef 0c3e 33ea 883e
00000270: 42e9 863e 13a5 f8bd c329 51be 1e8e b0bd
00000280: 3fa7 2dbe 8974 2cbb f45a 89be 1892 63be
00000290: 9833 70be ba98 2f3d 9ca1 92be 7f70 babe
000002a0: 96ac b0be 7252 403e f121 d0bd 9be3 803d
000002b0: 78b5 873e 347c c43c 48ad da3d 5370 483e
000002c0: f05a 9c3e efc9 3e3e e60c 693d b284 9fbe
000002d0: b023 f3be 90b7 cfbd 5e68 893d 2f1a febe
000002e0: 76cb b3bd 597d 96be 696e 053e 1a72 6a3e
000002f0: cb90 073e 2969 abbc 3e0f 87be 00bd 17be
00000300: f441 353e 1c31 ea3d cfc9 dcbe 29b0 2e3d
00000310: 3763 293e 9026 07be ded5 933d f5f9 a3be
00000320: be8d d3bd 6734 c6bd b711 fabd 9d10 07be
00000330: a9c4 6c3c 4baa a4bd a992 2f3d 82a5 a1bd
00000340: 442d 433e 2fde 683e 36aa 46be aae4 ab3c
00000350: c0d9 84be 8a5d 06bd 6c61 343d d729 08bf
00000360: 9fff 6bbd 4417 bfbb 5a04 533d c694 853e
00000370: e622 be3b 31aa 3cbc 6132 3dbe d7e5 29be
00000380: eac1 45bc 3f4c e33e 5f2e febc a928 dabe
00000390: e024 32be e375 c9be 0d57 f9bd c9c2 24bf
000003a0: f60b 52be 7a62 743e 5cf5 1fbc 874e 81be
000003b0: 4f56 eb3d 00b9 01bf 07a5 90bc 759f b3bd
000003c0: 1320 443e 70f0 9a3e 126c 82be d086 e23d
000003d0: cf40 14be 6d69 093d 3059 3d3c 7d4c 2dbf
000003e0: e592 783e ac86 debe f1e8 013f 5f35 b83e
000003f0: fcc1 953e a764 9d3d a0e2 0bbe a92c 233e

weight_hh_l0 f4 [128, 32]
0.019808508 0.08272059 -0.09061912 -0.13440827 -0.082290895 -0.008688537 0.21166468 0.04149921
0.14646405 -0.09441597 -0.09134923 -0.05062868 -0.08182399 -0.102572985 0.07169959 0.09985319
0.026115637 -0.008424463 0.23021263 0.00023059538 0.23593163 0.017481117 -0.03956694 -0.088064134
0.14094393 -0.13856302 0.08703276 0.16494308 -0.105777524 -0.07803256 0.093832225 -0.12618375
0.083429374 0.13858978 -0.12146409 0.19812192 -0.11882778 -0.06719015 0.167937 -0.16069682
0.124619395 0.07603877 -0.12669633 -0.017860781 0.06881777 -0.082651235 0.040603302 0.0062328996
-0.11921329 0.06063907 -0.04019667 -0.104624696 0.13644662 -0.12557125 -0.08703165 -0.27829093
0.047601998 -0.013079346 0.11425195 0.044077102 0.19943662 -0.055415206 0.041686945 -0.08897138
0.02255123 -0.014716716 -0.17281097 0.0042113587 0.22621362 0.09381534 0.17588553 0.042551644
0.14275679 0.10990467 -0.1650811 0.040573392 -0.0941266 0.10548728 -0.13892779 0.19625984
0.15421355 0.12292694 -0.0012225612 -0.117710896 -0.12156161 0.008375244 0.07354389 -0.20679757
0.19607364 -0.039620332 0.092685476 -0.030572567 0.04098307 0.04381722 -0.055761807 -0.068129644
0.057741318 0.15915957 0.11898281 -0.10343519 0.018217672 -0.0188495 -0.030268751 0.14868473
0.029290468 0.21017218 0.10288518 -0.22375447 -0.18849996 -0.087511905 -0.14307602 0.083106555
-0.12726806 -0.14433609 -0.17708598 0.09382137 -0.0024046088 0.021312084 -0.088954225 -0.15352622
-0.04932623 0.17209135 -0.044775903 0.06788598 0.12313817 0.20565203 -0.035206996 0.17940988
-0.00057166896 0.13153543 0.20021465 -0.0073790574 -0.13932723 -0.2972354 -0.11651184 -0.10390635
-0.07947576 0.009577406 0.06996644 -0.12627621 -0.058260363 -0.20014709 -0.022575226 -0.021909796
0.14949267 -0.21964155 -0.1314367 -0.12567404 0.08293349 -0.012291475 0.046251997 0.11111681
0.16244464 0.01537305 -0.029775925 0.10633085 0.12041846 0.13671076 -0.067736976 0.076280385
-0.1274965 -0.11281562 -0.057902034 0.02530125 0.104855694 0.13302056 0.047783714 0.022204801
0.10770623 0.1418733 -0.040856443 0.103439204 0.14935884 -0.072782494 0.024017759 0.028176608
0.007373892 -0.083784156 0.10074504 -0.15376854 -0.05370031 -0.2092952 -0.14697058 -0.024172688
0.067910165 -0.13945408 -0.10146268 -0.14309512 0.13844529 -0.14108725 0.097591564 0.07042803
-0.047729164 0.252721 0.2182807 0.29965883 0.08333363 0.039721087 -0.026401581 0.0035635133
0.15365627 0.23089471 -0.08029404 0.13912748 0.022064015 0.07145672 -0.052362245 0.034624174
-0.1937735 -0.13357094 0.11756446 0.098862015 0.029184176 0.00044827405 0.16443357 -0.13201194
0.108200915 -0.029669624 -0.12679727 0.0551928 -0.08172576 0.122399606 0.05189277 0.12272438
0.15222761 -0.1245969 -0.06313521 0.14162919 0.052335385 0.10543708 0.14151314 0.024649985
-0.10870258 0.05185786 -0.055397853 0.079509035 0.073535435 0.014772195 -0.11935076 0.0010929501
-0.19565257 0.00403026 0.18709013 0.11287064 -0.105598636 -0.08691073 0.06520014 -0.09961599
0.06984273 0.012174121 -0.093770705 -0.04394175 -0.024424741 0.017092051 0.12560837 0.1881728
00000000: 7445 a23c 6a69 a93d 8496 b9bd 52a2 09be
00000010: 2188 a8bd 5e5a 0ebc a0be 583e 13fb 293d
00000020: acfa 153e 295d c1bd 4e15 bbbd 0560 4fbd
00000030: 5693 a7bd c911 d2bd 3cd7 923d d47f cc3d
00000040: 76f0 d53c c206 0abc dcbc 6b3e facb 7139
00000050: 1098 713e 8f34 8f3c f210 22bd f85a b4bd
00000060: 9b53 103e 77e3 0dbe 3b3e b23d d7e6 283e
00000070: e3a1 d8bd 89cf 9fbd 1c2b c03d 5036 01be
00000080: 05dd aa3d 7bea 0d3e 2ac2 f8bd 79e0 4a3e
00000090: fb5b f3bd fd9a 89bd adf7 2b3e b58d 24be
000000a0: 7438 ff3d 37ba 9b3d afbc 01be c650 92bc
000000b0: 55f0 8c3d 0d45 a9bd a64f 263d 5a3d cc3b
000000c0: 1926 f4bd ac60 783d 43a5 24bd 7945 d6bd
000000d0: aab8 0b3e c095 00be a63d b2bd 267c 8ebe
000000e0: 50fa 423d c14a 56bc edfc e93d 318a 343d
000000f0: 1d39 4c3e 0efb 62bd eebf 2a3d a036 b6bd
00000100: 5bbd b83c 611e 71bc 5cf5 30be 70ff 893b
00000110: 8ba4 673e 4222 c03d 561b 343e a24a 2e3d
00000120: d62e 123e b315 e13d 050b 29be 4930 263d
00000130: 72c5 c0bd b709 d83d 1643 0ebe 57f8 483e
00000140: 28ea 1d3e 1fc1 fb3d 593e a0ba 6912 f1bd
00000150: 4bf5 f8bd 5238 093c 2e9e 963d bec2 53be
00000160: 87c7 483e ee48 22bd e2d1 bd3d 5273 fabc
00000170: dddd 273d af79 333d 7e66 64bd 8e87 8bbd
00000180: 2982 6c3d bafa 223e 42ad f33d d4d5 d3bd
00000190: 3a3d 953c 446a 9abc 2cf6 f7bc cf40 183e
000001a0: 90f2 ef3c 6037 573e 77b5 d23d e41f 65be
000001b0: 2206 41be 7139 b3bd 8582 12be c533 aa3d
000001c0: 8f52 02be d7cc 13be 0756 35be 6b25 c03d
000001d0: a496 1dbb ae96 ae3c a22d b6bd fa35 1dbe
000001e0: 4d0a 4abd b738 303e f066 37bd ce07 8b3d
000001f0: dd2f fc3d 7296 523e 3635 10bd 39b7 373e
00000200: 0edc 15ba 39b1 063e 1205 4d3e 05cc f1bb
00000210: ccab 0ebe 3d2f 98be c29d eebd dacc d4bd
00000220: 30c4 a2bd 8dea 1c3c 914a 8f3d 8d4e 01be
00000230: 6ba2 6ebd 5cf3 4cbe aeef b8bc 2c7c b3bc
00000240: 9b14 193e b7e9 60be 5897 06be b2b0 00be
00000250: 09d9 a93d 2f62 49bc bc72 3d3d 3691 e33d
00000260: e357 263e 3fdf 7b3c a4ec f3bc fdc3 d93d
00000270: f49d f63d e8fd 0b3e afb9 8abd e438 9c3d
00000280: 718e 02be e00b e7bd af2a 6dbd 9144 cf3c
00000290: 95be d63d 8b36 083e dbb8 433d d8e6 b53c
000002a0: 1595 dc3d 3c47 113e 1659 27bd efd7 d33d
000002b0: 86f1 183e fd0e 95bd e4c0 c43c a1d2 e63c
000002c0: b0a0 f13b 0797 abbd 6a53 ce3d 8075 1dbe
000002d0: dbf4 5bbd 7b51 56be 757f 16be cd05 c6bc
000002e0: 7c14 8b3d 0dcd 0ebe aacb cfbd 8787 12be
000002f0: 9ac4 0d3e 2d79 10be 16de c73d 923c 903d
00000300: a87f 43bd a664 813e fa84 5f3e e26c 993e
00000310: d2aa aa3d 94b2 223d 2148 d8bc d589 693b
00000320: 1258 1d3e aa6f 6c3e 3471 a4bd 6f77 0e3e
00000330: 98bf b43c e757 923d cb79 56bd 14d2 0d3d
00000340: 8f6c 46be d2c6 08be a3c5 f03d 2b78 ca3d
00000350: a713 ef3c 5306 eb39 4661 283e 232e 07be
00000360: 7198 dd3d b60d f3bc 25d7 01be d811 623d
00000370: d65f a7bd a5ac fa3d 838d 543d eb56 fb3d
00000380: 8ee1 1b3e a92c ffbd 084d 81bd 3e07 113e
00000390: a15d 563d 65ef d73d d2e8 103e c4ee c93c
000003a0: 759f debd e868 543d dce8 62bd a2d5 a23d
000003b0: bf99 963d 1407 723c 2c6e f4bd 5241 8f3a
000003c0: 2659 48be 4510 843b 8e94 3f3e b928 e73d
000003d0: 1944 d8bd 41fe b1bd a787 853d 7803 ccbd
000003e0: b509 8f3d f775 473c db0a c0bd 44fc 33bd
000003f0: 6516 c8bc a104 8c3c 7b9f 003e 5fb0 403e

bias_ih_l0 f4 [128]
-0.26771185 -0.10091046 -0.48188636 -0.08267976 -0.087449916 -0.16894461 -0.21382454 -0.59651583
-0.4252556 -0.28477076 -0.14790735 0.005773464 -0.024855936 -0.451683 -0.4670945 -0.27443942
-0.19812691 -0.53319734 0.00043897622 -0.19931732 -0.2781435 -0.2528872 -0.11810803 -0.17955741
-0.36069664 -0.22889005 -0.2529909 -0.13258053 -0.3930711 -0.22353843 -0.2371701 -0.1490458
-0.063443825 0.0953865 -0.07006347 -0.11104292 -0.0443172 -0.15632881 0.0031768247 -0.15105829
-0.044653896 0.033579297 -0.017954482 -0.12726995 -0.12429302 -0.24623202 -0.33310145 -0.1575321
0.090246856 -0.44717228 0.0052568787 -0.09462014 -0.16647224 -0.070568115 -0.19203109 0.082907535
-0.153177 -0.008466624 0.008938562 0.05351026 -0.0653012 -0.098977536 -0.099749 -0.256611
0.03601304 -0.060736347 0.06269148 -0.15068626 0.064722456 -0.05650408 -0.054325078 -0.042843435
0.13196139 -0.13203071 0.10847107 -0.057977267 -0.061708644 0.022822592 -0.07413008 -0.04122593
0.114909224 0.050037324 -0.16679953 0.01095771 -0.06604345 0.059697513 -0.109332405 0.09085793
-0.10489738 0.015582236 0.059640583 0.12315978 -0.053525057 -0.0503246 0.016336711 0.03219863
-0.1793293 0.03277075 -0.40096757 -0.17805374 -0.21843101 -0.23205057 -0.09387208 -0.3133826
-0.19455718 -0.34131923 -0.06609244 -0.041788876 -0.12679134 -0.37843344 -0.23287307 -0.15414546
-0.20102927 -0.30850258 -0.005382563 -0.012661681 -0.083536565 -0.2827162 -0.2236479 -0.18435815
-0.40792477 -0.042458892 -0.12923233 -0.04195978 -0.22689138 -0.29154876 -0.24287133 -0.022807242
00000000: 8711 89be 25aa cebd cfb9 f6be 0254 a9bd
00000010: f118 b3bd d1ff 2cbe d2f4 5abe 43b5 18bf
00000020: 1abb d9be 79cd 91be 0675 17be 542f bd3b
00000030: ad9e cbbc ff42 e7be 0327 efbe 5383 8cbe
00000040: c8e1 4abe 9f7f 08bf 6426 e639 d719 4cbe
00000050: d368 8ebe 6e7a 81be 9fe2 f1bd e6dd 37be
00000060: 3bad b8be 2762 6abe 0688 81be 31c3 07be
00000070: 9d40 c9be 42e7 64be b8dc 72be 769f 18be
00000080: d6ee 81bd ff59 c33d 707d 8fbd 786a e3bd
00000090: f485 35bd a914 20be 4632 503b 06af 1abe
000000a0: 01e7 36bd 728a 093d 4715 93bc 0e53 02be
000000b0: 578d febd 3f24 7cbe 468c aabe 1850 21be
000000c0: 58d3 b83d c4f3 e4be e541 ac3b 34c8 c1bd
000000d0: b377 2abe 0486 90bd cca3 44be 6dcb a93d
000000e0: 6eda 1cbe 98b7 0abc 0c73 123c 932d 5b3d
000000f0: a3bc 85bd bcb4 cabd 3449 ccbd 8462 83be
00000100: 6982 133d adc6 78bd 6464 803d 804d 1abe
00000110: 358d 843d d270 67bd f983 5ebd 997c 2fbd
00000120: e320 073e 0f33 07be 1526 de3d 9279 6dbd
00000130: 34c2 7cbd 72f6 ba3c 83d1 97bd 85dc 28bd
00000140: 8755 eb3d f0f3 4c3d 7fcd 2abe f887 333c
00000150: ca41 87bd 6185 743d abe9 dfbd b913 ba3d
00000160: 70d4 d6bd a34c 7f3c af49 743d 323b fc3d
00000170: 173d 5bbd 2b21 4ebd 91d4 853c b6e2 033d
00000180: 1aa2 37be 9f3a 063d 9f4b cdbe b853 36be
00000190: 61ac 5fbe aa9e 6dbe 0140 c0bd af73 a0be
000001a0: ff39 47be 65c1 aebe 795b 87bd d02a 2bbd
000001b0: 97d5 01be 07c2 c1be 4776 6ebe 4fd8 1dbe
000001c0: 9eda 4dbe 0df4 9dbe 3660 b0bb f072 4fbc
000001d0: 3815 abbd 2ec0 90be f503 65be 62c8 3cbe
000001e0: 84db d0be 60e9 2dbd 7b55 04be 05de 2bbd
000001f0: 3756 68be e145 95be 43b3 78be 41d6 babc

bias_hh_l0 f4 [128]
-0.36924183 -0.17067996 -0.14830998 -0.34614643 -0.22547297 -0.4529854 -0.1325331 -0.38738474
-0.29155317 -0.0976663 -0.22349621 -0.058653794 -0.10436494 -0.20305608 -0.1796636 -0.42202276
0.05316075 -0.3176488 -0.25441772 0.027850118 -0.1094826 -0.21695413 -0.2809933 -0.15693125
-0.400605 -0.12420347 -0.38701195 -0.2646055 -0.36806172 -0.0560509 -0.16391414 -0.3299874
-0.27743673 -0.10032397 -0.38323277 -0.09125547 -0.02061375 -0.33250764 0.018043967 -0.4096973
-0.18469739 -0.096867636 0.024769677 -0.007117839 -0.21076193 -0.04654513 -0.17269474 -0.10406827
-0.15641914 -0.31834573 -0.19192229 0.13223746 -0.2657104 -0.27266517 -0.114207625 -0.10879662
-0.35639295 -0.09716019 -0.20387892 -0.16202404 -0.2456175 -0.28862268 -0.22228704 -0.18032786
-0.03917922 -0.053446338 -0.008935795 0.044864736 0.043449916 0.0073946267 0.0037536318 0.085320175
-0.030517736 0.14508145 0.045383107 0.19621573 0.19374518 -0.053291094 0.105425835 -0.08520588
-0.17008956 -0.108174354 0.032448955 -0.045415524 0.09037345 0.0025875836 -0.1348194 -0.11768337
0.039511826 0.04703191 0.04071998 0.09135254 -0.018788444 0.07308224 -0.05247045 -0.10126538
-0.3925588 0.04750376 -0.23760775 -0.18532364 -0.09743753 -0.239236 0.07508596 -0.6372362
-0.42381856 -0.1272846 -0.23590809 -0.044230286 -0.18290457 -0.2146017 -0.3808242 -0.26037553
-0.19859485 -0.36928484 -0.1032293 -0.16385381 -0.38591194 -0.11028594 -0.15323858 -0.10355265
-0.20342082 -0.17065367 -0.26713002 0.011633557 -0.28762174 -0.30852872 -0.16352536 -0.20671175
00000000: 440d bdbe bac6 2ebe 92de 17be 1b3a b1be
00000010: 63e2 66be b4ed e7be c2b6 07be 4b57 c6be
00000020: 7546 95be 4505 c8bd 31dc 64be f63e 70bd
00000030: 49bd d5bd efed 4fbe bcf9 37be 5e13 d8be
00000040: 16bf 593d dda2 a2be 0a43 82be ee25 e43c
00000050: 6a38 e0bd 3929 5ebe 5bde 8fbe 96b2 20be
00000060: 191c cdbe 645e febd 6e26 c6be 5f7a 87be
00000070: 9672 bcbe a195 65bd 1cd9 27be 1cf4 a8be
00000080: 300c 8ebe a776 cdbd 1637 c4be 26e4 babd
00000090: 2bde a8bc 713e aabe f1d0 933c d8c3 d1be
000000a0: 5021 3dbe 8a62 c6bd c7e9 ca3c c33c e9bb
000000b0: fad1 57be 1ba6 3ebd e4d6 30be bf21 d5bd
000000c0: 572c 20be 36fe a2be 4787 44be 4269 073e
000000d0: 320b 88be c59a 8bbe b0e5 e9bd c3d0 debd
000000e0: 2379 b6be ecfb c6bd a3c5 50be a1e9 25be
000000f0: 2783 7bbe 5ac6 93be 379f 63be dea7 38be
00000100: 647a 20bd 8cea 5abd 7167 12bc 16c4 373d
00000110: 8af8 313d a04e f23b 7eff 753b 58bc ae3d
00000120: 5500 fabc 3b90 143e a3e3 393d c7ec 483e
00000130: 2365 463e c347 5abd 80e9 d73d 6c80 aebd
00000140: f52b 2ebe 848a ddbd 32e9 043d a105 3abd
00000150: b715 b93d 7394 293b 190e 0abe fb03 f1bd
00000160: 27d7 213d 88a4 403d fec9 263d 0a17 bb3d
00000170: 39ea 99bc 24ac 953d 41eb 56bd 3964 cfbd
00000180: 78fd c8be 4d93 423d 724f 73be 7bc5 3dbe
00000190: 548d c7bd 48fa 74be abc6 993d e921 23bf
000001a0: bffe d8be e556 02be e491 71be d12a 35bd
000001b0: 564b 3bbe 8cc0 5bbe 64fb c2be f14f 85be
000001c0: 735c 4bbe e712 bdbe e269 d3bd 4bc9 27be
000001d0: 4096 c5be 98dd e1bd 93ea 1cbe 6913 d4bd
000001e0: 8c4d 50be d6bf 2ebe 44c5 88be ad9a 3e3c
000001f0: 2843 93be 7af7 9dbe 3173 27be 3fac 53be

weight f4 [64, 4]
-0.11317279 0.78513086 0.6186202 -0.42526338 -0.5376411 -0.31445804 0.38085023 0.11928622
0.18618198 0.15615386 -0.10015612 0.58027804 -0.69408697 0.10775386 -0.027316177 0.028740002
0.57836974 -0.2403897 -0.46781027 -0.32279 0.09978882 -0.5717173 -0.52475154 -0.035767525
-0.3973059 0.019721165 0.35991037 0.27678084 -0.019493869 0.15698844 -0.44975856 -0.5716077
-0.41642812 0.2773162 0.4352308 -0.038854834 0.475992 -0.11266845 0.013635349 0.37148812
0.19719622 0.45514026 -0.42031476 -0.4184946 -0.192992 -0.11862789 0.5093956 0.8226948
0.41306955 0.061391685 -0.2196683 0.16877514 0.2797996 0.31237888 -0.045710463 -0.18960294
0.14469014 0.05570077 -0.3372584 0.13625123 -0.2079662 -0.37867138 0.49760526 -0.4038211
-0.29091102 -0.112947494 0.066382535 -0.29187647 -0.76035446 -0.38027155 0.36418667 -0.4603712
-0.27651697 0.4874632 0.068493165 -0.42965087 0.48341587 0.62508 -0.3266789 -0.25708973
0.043622363 -0.34721473 0.13582557 0.004319805 -0.34140328 -0.5854849 0.41055912 0.17468719
-0.4718769 -0.27568394 0.2647338 0.3537842 0.08892258 0.24902973 0.5669717 -0.13318302
-0.628112 0.33611262 0.5465089 -0.11149806 0.005075176 0.1693891 0.25564426 -0.1763673
-0.5174288 0.48482835 -0.061140984 -0.19894995 -0.515068 0.4631423 -0.26642218 -0.36185935
-0.5121861 -0.27917182 0.5866087 -0.04828099 -0.17170641 -0.023355383 0.20330873 -0.50375223
-0.5919912 -0.6246295 -0.3760357 0.18406868 -0.33187568 -0.2588336 0.21152572 -0.5057907
0.50860965 -0.13618997 0.17114125 0.48591715 0.36453605 -0.5662838 0.2556412 0.42072067
-0.41857192 -0.49543598 0.083482966 -0.15774684 0.27467152 0.64891475 -0.24628328 -0.6207732
-0.33536682 0.24479342 -0.06694296 0.21644783 -0.8058674 0.06469582 0.2690881 -0.5241725
-0.19586866 0.32645872 0.04623932 -0.42361483 0.02463633 0.09545102 -0.33613288 -0.022994092
-0.07554979 0.29131556 0.5931527 0.33125415 -0.49288365 -0.5629858 0.3624147 0.41208535
-0.07732168 -0.54190755 0.22661334 -0.59461826 -0.6115599 0.14923385 0.40143433 -0.32453194
0.35903153 0.6247756 0.48654133 -0.27394432 0.077167206 -0.08928083 -0.11609866 -0.30701667
-0.5378843 0.16763619 0.07354618 -0.60438967 -0.09379405 0.026575599 0.20670576 -0.3431235
0.39942652 0.21490815 -0.14925446 0.24951778 -0.55849326 0.17996635 0.25099865 0.04778401
-0.32512513 -0.08372517 -0.0076325852 -0.28616554 0.5498068 0.09833328 -0.0075054117 -0.033173308
0.38141927 -0.029604701 -0.37554404 -0.04580213 -0.08844598 0.26359588 -0.3732884 0.11699243
0.5714106 -0.37608457 0.16275482 -0.84021 -0.38003373 -0.4507103 -0.07305573 -0.15792903
0.26902458 0.38872322 -0.114000484 -0.66718173 0.11590803 0.17395234 -0.59389436 0.31088588
-0.63794655 0.47241393 -0.49629062 0.2981792 -0.009539416 -0.6372685 0.013265159 -0.18118289
-0.35828304 0.07963631 -0.27521524 0.045786425 0.40092117 -0.15790115 -0.6454527 0.27066955
-0.4591483 -0.71954787 0.54568315 -0.47717285 0.012716972 0.6247432 0.22265868 -0.58939725
00000000: 23c7 e7bd 56fe 483f e55d 1e3f 1fbc d9be
00000010: d9a2 09bf a500 a1be cdfe c23e 554c f43d
00000020: 7da6 3e3e cce6 1f3e a71e cdbd 1a8d 143f
00000030: afaf 31bf 0eae dc3d 2dc6 dfbc 2770 eb3c
00000040: 0a10 143f b828 76be d484 efbe bb44 a5be
00000050: 155e cc3d 115c 12bf 1e56 06bf f880 12bd
00000060: ae6b cbbe 488e a13c 2c46 b83e 38b6 8d3e
00000070: 9bb1 9fbc 94c1 203e c146 e6be e254 12bf
00000080: 1136 d5be 64fc 8d3e 92d6 de3e 3f26 1fbd
00000090: 39b5 f33e b7be e6bd cd66 5f3c b133 be3e
000000a0: ceed 493e 2508 e93e 7f33 d7be ed44 d6be
000000b0: b29f 45be 2ef3 f2bd c067 023f 209c 523f
000000c0: da7d d33e d975 7b3d baf0 60be 64d3 2c3e
000000d0: e541 8f3e 20f0 9f3e e53a 3bbd 4627 42be
000000e0: a729 143e 7e26 643d 22ad acbe 7185 0b3e
000000f0: 17f5 54be 37e1 c1be 1ec6 fe3e a4c1 cebe
00000100: 4af2 94be 0451 e7bd 91f3 873d d570 95be
00000110: 97a6 42bf f4b2 c2be ad76 ba3e c6b5 ebbe
00000120: a293 8dbe c794 f93e 2546 8c3d 33fb dbbe
00000130: 4982 f73e 3e05 203f 7542 a7be 44a1 83be
00000140: 5dad 323d 21c6 b1be dc15 0b3e 278d 8d3b
00000150: 69cc aebe 57e2 15bf ce34 d23e 33e1 323e
00000160: d999 f1be 7226 8dbe 308b 873e 3423 b53e
00000170: 0b1d b63d a601 7f3e 0f25 113f 2161 08be
00000180: f3cb 20bf f416 ac3e 02e8 0b3f 1859 e4bd
00000190: a94d a63b 5674 2d3e cee3 823e a199 34be
000001a0: 3776 04bf 6c3b f83e f86e 7abd 89b9 4bbe
000001b0: 7fdb 03bf fd20 ed3e 7d68 88be a145 b9be
000001c0: a11e 03bf 9cef 8ebe fd2b 163f 4ac2 45bd
000001d0: ced3 2fbe ca53 bfbc 2a30 503e e8f5 00bf
000001e0: bc8c 17bf b8e7 1fbf c087 c0be 807c 3c3e
000001f0: 9ceb a9be d685 84be 339a 583e 807b 01bf
00000200: 3e34 023f 6275 0bbe a73f 2f3e 22ca f83e
00000210: 78a4 ba3e faf7 10bf 67e3 823e b368 d73e
00000220: 0f4f d6be c9a9 fdbe 1ef9 aa3d 6388 21be
00000230: bfa1 8c3e 471f 263f af31 7cbe feea 1ebf
00000240: 33b5 abbe 20ab 7a3e 6419 89bd 80a4 5d3e
00000250: 534d 4ebf 3e7f 843d eac5 893e 2b30 06bf
00000260: cb91 48be 9925 a73e 7165 3d3d 0be4 d8be
00000270: 21d2 c93c d37b c33d 9c19 acbe 1b5e bcbc
00000280: d9b9 9abd 5027 953e dbd8 173f 259a a93e
00000290: 3f5b fcbe d61f 10bf 6b8e b93e dafc d23e
000002a0: d45a 9ebd 74ba 0abf 540d 683e e738 18bf
000002b0: 318f 1cbf c2d0 183e cd88 cd3e 0d29 a6be
000002c0: fbd2 b73e 4bf1 1f3f f21b f93e 6e42 8cbe
000002d0: d709 9e3d ded8 b6bd 22c5 edbd 4a31 9dbe
000002e0: c9b2 09bf d2a8 2b3e 619f 963d 48b9 1abf
000002f0: 1817 c0bd 12b5 d93c adaa 533e e2ad afbe
00000300: a281 cc3e e210 5c3e 29d6 18be 9781 7f3e
00000310: 6af9 0ebf 1949 383e e582 803e 2bb9 433d
00000320: cd76 a6be 1a78 abbd c41a fabb 4a84 92be
00000330: 23c0 0c3f f562 c93d f5ef f5bb bce0 07bd
00000340: 6349 c33e 8f85 f2bc 4f47 c0be 049b 3bbd
00000350: 2a23 b5bd 0af6 863e a81f bfbe ba99 ef3d
00000360: f747 123f 288e c0be 33a9 263e 0118 57bf
00000370: c893 c2be 80c3 e6be 3e9e 95bd 26b8 21be
00000380: 97bd 893e bb06 c73e 1679 e9bd 6ccc 2abf
00000390: 3061 ed3d 9020 323e 7609 18bf 6f2c 9f3e
000003a0: 7750 23bf 3de0 f13e ce19 febe f2aa 983e
000003b0: 364b 1cbc 0724 23bf 1c56 593c 0288 39be
000003c0: e070 b7be 5d18 a33d 03e9 8cbe 8c8a 3b3d
000003d0: 8a45 cd3e d7b0 21be 633c 25bf 3395 8a3e
000003e0: 7c15 ebbe 4a34 38bf e4b1 0b3f 0050 f4be
000003f0: d95a 503c 2cef 1f3f a300 643e bde2 16bf

bias f4 [64]
0.44536105 0.19521165 -0.15989086 -0.019043067 0.07656962 0.47895926 0.1533888 0.03276987
0.5065221 0.17530781 -0.0030417992 -0.08333456 -0.427458 0.47894448 -0.25220025 0.30341414
-0.45661032 0.4374452 0.34094673 0.36603826 0.40220594 0.08124494 0.079074055 -0.313655
0.006497047 -0.112572275 -0.2296045 0.021917721 -0.10607545 -0.26174155 0.19689268 -0.5284091
-0.40248933 0.36164224 -0.19674492 0.028370626 -0.3651959 0.4208732 -0.30880794 0.21803497
0.088586114 0.17218842 -0.43156675 -0.01880329 -0.11703312 0.46078512 -0.4408785 -0.21549463
-0.2667061 -0.09638647 0.46598083 0.5287848 -0.052956823 0.10515855 0.40820685 -0.07542165
0.31682488 0.016215133 0.056678142 0.49582383 0.16086844 -0.1612573 -0.3342961 0.24604
00000000: 5d06 e43e 90e5 473e 6eba 23be 3500 9cbc
00000010: 88d0 9c3d 263a f53e f411 1d3e b339 063d
00000020: 6fab 013f e483 333e ec58 47bb 4fab aabd
00000030: c6db dabe 3638 f53e 6420 81be 1959 9b3e
00000040: d4c8 e9be d1f8 df3e 9290 ae3e 5e69 bb3e
00000050: f0ed cd3e bf63 a63d 94f1 a13d 6397 a0be
00000060: 2ee5 d43b 4b8c e6bd 711d 6bbe cb8c b33c
00000070: 163e d9bd fd02 86be 3c9e 493e d245 07bf
00000080: 1513 cebe 2c29 b93e 8077 49be 8469 e83c
00000090: f5fa babe b17c d73e 131c 9ebe 8f44 5f3e
000000a0: a36c b53d 2952 303e 51f6 dcbe 5b09 9abc
000000b0: 0faf efbd 07ec eb3e d4ba e1be a0aa 5cbe
000000c0: b48d 88be 4566 c5bd 0a95 ee3e 715e 073f
000000d0: 41e9 58bd 5e5d d73d 7d00 d13e ab76 9abd
000000e0: df36 a23e 99d5 843c 5727 683d 9fdc fd3e
000000f0: b2ba 243e a220 25be dc28 abbe e9f1 7b3e
