experiments/pedestrians/models/06_Aug_2023_21_23_08/model_registrar-37.pt (torch, 713991 bytes, 82 tensors)

weight f4 [64, 10]
000000 8e ac 9c bc 65 4a 56 bd b6 a6 2d 3e 70 a6 44 3d
       -0.01912525 -0.052317042 0.16958126 0.04801029
000010 82 82 31 bf 7b 73 5a 3f eb 63 33 bb b9 f1 86 be
       -0.69339764 0.8533246 -0.0027372788 -0.26356295
000020 55 fc 37 be 46 43 d1 3d ba e4 a4 3d d7 a3 8d 3e
       -0.17967351 0.102179095 0.08051439 0.27664062
000030 f0 0b bd 3e 91 e2 87 bb 6a 6e 66 be 73 e9 fb bd
       0.3692317 -0.004146882 -0.22503057 -0.12300386
000040 f7 1b 93 be 27 b6 bd be 5f 47 e5 bd b3 21 ba 3d
       -0.28732273 -0.37053034 -0.111952536 0.09088459
000050 b8 df 77 3d 6f 26 90 bb b2 f1 aa bd 14 2d 05 3f
       0.06051609 -0.004399113 -0.08346881 0.5202191
000060 bc e8 8d bd 11 9b 3a bc 09 59 97 be 39 b5 6e bd
       -0.06929156 -0.01138951 -0.29560116 -0.058278296
000070 d6 0c da bc 50 65 3d be 7a 44 07 bc 1a 14 e6 3c
       -0.026617449 -0.18495679 -0.008256072 0.028085757
000080 eb 66 a7 bc 1f d5 6c bd 76 25 1d bf 8f 3b 38 3f
       -0.020434817 -0.057820436 -0.61385286 0.7196588
000090 53 62 84 be 4a cc 49 be 14 2e a5 bc e4 cd 74 be
       -0.25856265 -0.19706836 -0.020163573 -0.23906666
0000a0 7b 21 03 3d 1b 35 00 bd 83 f2 ce 3d be d3 07 3e
       0.03201435 -0.031300645 0.10104849 0.13264367
0000b0 86 53 12 3f 57 67 df 3e f0 84 8f 3e da d7 24 3e
       0.57158697 0.4363353 0.2803111 0.16097966
0000c0 7a 00 80 be 48 6c 30 3e a5 9f 46 bc ae 74 a6 3d
       -0.25000364 0.17228806 -0.012123023 0.08127724
0000d0 af 56 c3 3e 5e a1 2a be e8 b9 dc bb ff 1a e5 3e
       0.38152072 -0.16663119 -0.006736029 0.4474716
0000e0 99 80 31 3e 33 69 2c bc 07 7b 6d bd cc f3 9b 3d
       0.17334212 -0.010523128 -0.057978656 0.0761486
0000f0 37 fb 99 bd 1a 5b 10 3e a3 a4 ea 3e f1 65 84 3d
       -0.075186186 0.14097252 0.45828733 0.06464756
000100 8c 6c 01 3f d7 1f ef be 10 a9 7d be 9b 7a 90 3e
       0.50556254 -0.4670398 -0.24771523 0.2821854
000110 a7 e7 a5 3e b6 f4 77 3e b9 30 0d bd a1 72 14 be
       0.324033 0.24214444 -0.034470294 -0.14496852
000120 ec 7c a4 3d 4b 35 a2 be 15 6b 29 bf 65 88 b8 be
       0.080316395 -0.31681284 -0.6617902 -0.3604156
000130 de b0 c1 3e 37 d4 12 3b 45 90 d3 3c 05 0d 79 3c
       0.3783025 0.0022404322 0.025825629 0.015200858
000140 83 a6 0e 3e 46 33 7f 3d af 39 b3 be 42 6f c3 3a
       0.13930707 0.062304758 -0.35004947 0.0014910477
000150 9b f7 2c bf 99 82 ff bd 48 e9 21 be 54 6a 3a be
       -0.67565316 -0.124760814 -0.15811646 -0.18204623
000160 7e c6 61 3e 59 a0 bc 3d ef 7b 92 bc 9d 54 18 3e
       0.22048375 0.092102714 -0.017881362 0.14876027
000170 b5 5f e8 3e cf 5e a2 3e 77 0c 1a 3d 7d c3 c1 3e
       0.4538552 0.31712958 0.037609544 0.37844458
000180 aa 0f 05 3e 2c 50 81 be ae 02 8f 3e 19 91 80 3e
       0.12994257 -0.2525648 0.27931732 0.251107
000190 67 e0 54 be 68 94 c8 3d 9a f9 87 3e 1a 5b 55 3e
       -0.20788728 0.09793931 0.26557618 0.20835534
0001a0 f5 3d 6a be 77 0b ed bc 79 09 09 be cf 36 f6 3d
       -0.22875197 -0.02893613 -0.1338252 0.12022173
0001b0 01 ee 60 3e bd da 88 be c0 ff ee 3c c4 e6 be bd
       0.21965791 -0.26729384 0.029174685 -0.09321359
0001c0 58 a7 05 3f a1 94 ce bc 19 67 49 bf 8c d1 60 bf
       0.5220847 -0.025217356 -0.7867294 -0.87819743
0001d0 c4 3b e7 3d 2d 1d d8 3e a0 c7 d8 bd d3 59 3b bd
       0.11290696 0.4220976 -0.105849504 -0.04573996
0001e0 94 3a 35 be e8 2b 24 3e 6f 44 b6 3e 53 88 34 3e
       -0.17698127 0.16032374 0.35599086 0.17630129
0001f0 64 1a 23 3e 34 a6 72 3e 96 01 66 3e b8 1a 6f bd
       0.15928036 0.23696214 0.22461542 -0.05837509
000200 15 54 7f 3d 44 43 23 be 3b b7 34 3b a7 fa c1 3d
       0.062336046 -0.15943629 0.0027575034 0.09471636
000210 40 f8 5b bc 15 dc 20 bf 29 80 f5 3c 70 7a 96 3c
       -0.013425887 -0.6283582 0.029968338 0.01836893
000220 6b b6 ce bc 15 f2 94 be d9 fb 23 be b5 e6 a3 be
       -0.025233468 -0.29090944 -0.16014041 -0.32011953
000230 22 eb 9b 3d 15 be fe bd 2b 8b a9 be 4a e9 c4 3e
       0.076132074 -0.12438599 -0.3311399 0.38459235
000240 5b 9e 1a be 32 c1 7f bd 3b 51 93 3e cd 22 80 3d
       -0.1509947 -0.062440105 0.2877291 0.06256638
000250 23 b2 e8 3c e3 a1 ca 3e 44 81 e8 3b 53 9b ec 3b
       0.028405255 0.39576635 0.007095488 0.0072206645
000260 3e a2 4b 3d ae 8c 9f be 45 0c c8 3e 62 46 35 bf
       0.049715273 -0.31162018 0.3907186 -0.7081052
000270 76 b5 81 be 49 fc 11 3e a3 1f 72 be 99 92 a4 3d
       -0.25333756 0.14256395 -0.23644881 0.08035774
000280 8b 7e 37 be 93 ec 75 3e 45 4a 8b 3c 96 73 9c 3d
       -0.17919366 0.24016027 0.017003188 0.07639234
000290 57 68 41 bf 90 d7 03 be c7 5d a2 3d bc cc 80 3e
       -0.75549835 -0.128752 0.07928043 0.251562
0002a0 c4 78 64 3b 3d a0 d2 3e c1 8f 99 3e a6 76 b2 3e
       0.003486202 0.41137877 0.29992488 0.34856147
0002b0 21 23 1d 3e 1e 72 b5 3e be 76 1d be 04 42 41 3f
       0.15345432 0.35438627 -0.15377328 0.75491357
0002c0 6c 92 49 3d b4 92 60 3d f6 2e 8c bc 05 ef 1b 3e
       0.049211904 0.054827407 -0.017112236 0.15227897
0002d0 0f 04 1d 3d 21 ff 03 3e c6 57 21 3f 11 86 2d be
       0.03833395 0.12890293 0.63024557 -0.16945674
0002e0 52 b0 d5 bd 68 df f0 3d 8c a4 87 3e 46 dd 79 3c
       -0.10434021 0.11761361 0.26492727 0.01525051
0002f0 2e 61 3e 3e 89 3f 95 3e 6c b7 90 3e 0e 5e 1b 3e
       0.18591759 0.29150036 0.2826494 0.15172598
000300 51 48 f0 be 14 9c 9b bd b7 a5 04 bf f8 b2 18 be
       -0.46930173 -0.07598129 -0.5181536 -0.14912021
000310 7b 69 f2 3d cb fc 2e 3e 4d 64 49 be f3 34 88 3e
       0.11836525 0.1708862 -0.19667168 0.26602897
000320 9c 3a 1b bc fb b9 a0 3c 69 c7 7f be 5a 74 3b 3e
       -0.009474423 0.019619932 -0.24978413 0.18306103
000330 26 43 bc 3e c9 34 26 bf b7 99 09 bd 29 61 2f be
       0.3676998 -0.64924294 -0.03359386 -0.17126907
000340 41 90 4a 3e 8f 14 03 be 22 dd 61 be 0d be c5 bc
       0.19781591 -0.12800811 -0.22057012 -0.024138475
000350 4d 6a 02 3d a5 4a ab 3c f2 45 11 3f f5 f4 74 3f
       0.031839658 0.020909617 0.56747353 0.95686275
000360 96 8a c5 3e cc bc 45 3e 7c a8 69 3e fc 20 86 3b
       0.38582295 0.19310302 0.22818178 0.0040932875
000370 99 9a ff 3b 9f d1 78 3e 3f 01 6b be 12 80 4d 3d
       0.007800412 0.24298714 -0.22949694 0.050170965
000380 d6 e7 e1 3e 53 1f e6 3e 93 c8 65 3e d5 88 7e 3e
       0.4412219 0.44945773 0.22439794 0.24856885
000390 d1 7f b8 3d 0f 66 28 be 83 14 0b bb 07 a7 31 be
       0.09008754 -0.16445182 -0.0021221943 -0.17348872
0003a0 c7 2a fc bd d1 75 ea 3e 40 db b0 bc ff 24 fe be
       -0.12312847 0.45793012 -0.021588922 -0.496376
0003b0 62 96 12 be 9f cb 57 3d 14 3b 15 be 21 25 e8 3d
       -0.14315179 0.052684423 -0.14573318 0.11335207
0003c0 f7 db be 3d c9 6c 7a be 43 a2 41 3d c1 b6 66 be
       0.09319299 -0.2445556 0.047273885 -0.22530653
0003d0 67 5a b8 3e 20 8b de 3e c4 1a 04 bc 52 16 b9 be
       0.36006472 0.4346552 -0.008063022 -0.36149842
0003e0 d8 57 cd bd 12 df ac be 7a 7c e7 bd 10 b3 00 be
       -0.100265205 -0.3376394 -0.11303039 -0.12568307
0003f0 6e ef 5f 3e 06 22 f3 3e 72 d3 42 be 52 50 e8 be
       0.21868679 0.47486895 -0.19025972 -0.4537378

bias f4 [64]
000000 fd e9 60 be 5b 01 d3 bd c1 f1 8b be f2 e9 9a 3e
       -0.2196426 -0.10302993 -0.2733288 0.3025661
000010 60 fa 07 3e 27 bf 91 3e dc 90 86 be 44 aa 60 bc
       0.13279104 0.2846615 -0.26282394 -0.0137124695
000020 3e bc 92 3d 61 a2 63 3e 10 f7 29 bd f6 96 ea 3e
       0.071648106 0.22229911 -0.041495383 0.458183
000030 40 4e d0 bd 93 a5 6f 3d 8a ce 84 bd 38 eb 8e bd
       -0.10171175 0.058507513 -0.06484707 -0.06978458
000040 58 71 a0 bd 74 47 4a be 6f 6e 7f 3e c7 df 25 3e
       -0.078341186 -0.1975382 0.24944471 0.16198646
000050 3c 95 c2 bd 22 f9 35 3e 8d 6e 28 3e 68 e8 14 be
       -0.095011204 0.17770818 0.16448422 -0.14541781
000060 9a 3e 28 be da 3c e2 3d ed 96 d2 bb 10 8e 33 be
       -0.1643013 0.11046763 -0.006426683 -0.17534661
000070 fa 88 a6 be 8f 47 52 3d 4d 24 20 3e fe 63 7a be
       -0.3252638 0.051337775 0.15638848 -0.24452206
000080 54 55 16 be d5 cc de 3d c6 a5 9b be 82 b1 84 3e
       -0.14680988 0.10878912 -0.30399913 0.25916678
000090 e1 88 48 3e 55 ee f7 bd f3 f6 09 be e3 f3 7f 3d
       0.19583465 -0.12106005 -0.1347311 0.062488448
0000a0 67 87 50 be 12 88 92 3e 37 e6 2d bc 1b d5 c7 bd
       -0.20364152 0.28619438 -0.0106139695 -0.097574435
0000b0 3e 11 53 be 35 e7 ec 3d a1 34 05 be 02 c6 8f be
       -0.20612046 0.11567537 -0.13008358 -0.28080755
0000c0 6d 76 03 3e 88 b0 12 be 1b c8 32 3b 2e e1 67 3e
       0.12838145 -0.14325154 0.0027279917 0.22644493
0000d0 df 37 9c be 8d 78 af be 0c ec d5 be cc 7a c1 3d
       -0.30511376 -0.3427166 -0.41781652 0.0944725
0000e0 02 97 db 3c 50 2d 76 3e e7 72 4d 3e 0a 99 b2 3e
       0.026805405 0.24040723 0.20063363 0.34882385
0000f0 6f 5b a7 be 77 8e 26 3e 67 58 b9 3e 07 02 12 be
       -0.32686946 0.16265284 0.36200258 -0.14258586

weight f4 [32, 32]
000000 3b af e7 bd 43 a2 4e be 9a a4 53 3e 9f 70 e8 3c
       -0.113127194 -0.20179085 0.2066826 0.028374014
000010 0d 4a 08 be 90 2e ca b9 84 0a 66 bd c0 43 92 3d
       -0.13309498 -0.00038563134 -0.056162372 0.071418285
000020 9d 4d 28 be 58 63 06 bf 36 35 b0 3d 90 88 81 3d
       -0.16435857 -0.52495337 0.08603899 0.06324875
000030 18 5c 9f bc 38 54 43 3e 40 af 35 be 46 ff 80 3e
       -0.019453093 0.19075096 -0.17742634 0.25194758
000040 52 7e 89 3c d6 4f 98 3e e2 3c 48 3e dc 53 ab 3e
       0.016783867 0.2974841 0.19554475 0.33462417
000050 55 67 9d be b2 ca 4f 3e 64 d9 30 ba 27 2c e9 be
       -0.307429 0.20292166 -0.0006746261 -0.45541498
000060 6a 3c 95 bd 20 1f e7 3d 14 ad 1a 3e 22 84 f7 3d
       -0.07286914 0.112852335 0.15105087 0.12085749
000070 76 af 23 3e 34 7c c0 3d aa f8 86 bd 15 2b 94 3e
       0.15984902 0.0939869 -0.06590398 0.2893912
000080 c8 6d ce 3d 93 e4 5e bd a5 5f 03 bf ff 32 41 3d
       0.10079533 -0.054417204 -0.51317817 0.047167774
000090 5e 90 2f be aa d7 80 3d 30 d4 21 3e 10 39 59 bd
       -0.17144915 0.06291135 0.158036 -0.053032935
0000a0 e4 68 af be 76 54 b6 be f8 30 9c be a1 c8 91 be
       -0.34259713 -0.35611314 -0.3050611 -0.2847338
0000b0 60 6c 87 3e 10 28 cd bc 6e 18 8b bd b9 ba d2 bd
       0.2644987 -0.025043517 -0.06791769 -0.10289521
0000c0 b5 8f 79 3c 40 dc 3b 3e c4 ea 44 3e 9e 90 d9 3e
       0.015232016 0.18345737 0.19230181 0.42493147
0000d0 64 78 51 3e 59 84 e9 bd 77 73 53 3d 38 04 41 3d
       0.20456082 -0.114021964 0.051623788 0.047123164
0000e0 76 2a 4f 3d 28 e2 ed bc 6b d2 04 3e 23 a7 2d 3e
       0.050577603 -0.029038504 0.12970893 0.16958289
0000f0 42 56 43 be ad e8 95 be 1f fa 31 3e 19 fa c7 bd
       -0.19075873 -0.2927908 0.1738057 -0.09764499
000100 f2 0c a0 3e fd af 3c be f6 ad 17 3e 9f 08 0f bf
       0.31259876 -0.18426509 0.14812455 -0.5587253
000110 40 f7 78 be bc de c0 3c 95 19 59 be 37 4d 4e be
       -0.24313068 0.023543708 -0.21201165 -0.20146643
000120 74 50 37 be 21 74 5b 3e ae 0e 30 3e 10 ec ee bd
       -0.17901784 0.21431018 0.171931 -0.11666119
000130 f2 c8 b4 be b1 e0 b0 3e f5 e5 b1 be 00 85 1b ba
       -0.3530956 0.34546426 -0.34745756 -0.00059325993
000140 c2 33 d9 3c 99 ce cb 3e 01 01 c2 3e 63 b9 00 bf
       0.026513938 0.3980606 0.3789139 -0.5028288
000150 29 19 00 be c7 be 86 3d a6 6d 3f be 7b 52 9c be
       -0.12509598 0.06579357 -0.18694171 -0.30531678
000160 cf 71 b2 bd c1 54 b4 bd c5 a3 05 3d a8 58 d0 bd
       -0.087131135 -0.08805228 0.032626886 -0.1017316
000170 37 a0 5a 3e b7 38 84 be 51 85 8c be 2d ce 87 bd
       0.2135018 -0.2582452 -0.27445462 -0.06631122
000180 52 8f 8f 3e 77 13 4f be ba e8 c8 3d 1a 7e fa 3d
       0.28039032 -0.20222269 0.09810014 0.12231083
000190 6b 32 b8 bd 4c 6d 26 3e 44 13 a3 3e 1d e2 57 be
       -0.089939915 0.16252631 0.31850636 -0.21082349
0001a0 27 75 3b be e0 fb 83 3e 40 f7 9a 3d d6 33 0e be
       -0.18306409 0.25778103 0.075666904 -0.13886961
0001b0 bc 22 ac 3e 61 fd 05 be af 1b 98 bd 4f 17 1a bd
       0.3362025 -0.13084938 -0.07427155 -0.037619885
0001c0 9e 65 7b be 04 dd 21 3d 7e e1 0a be 16 f5 95 3e
       -0.24550483 0.039517418 -0.13562581 0.29288548
0001d0 fe c6 3f bc 19 2c 3a 3d 53 67 39 3e 08 9e 64 3d
       -0.011705158 0.04545221 0.18105821 0.055814773
0001e0 2b e8 8a bd 8a be 75 3b 37 a3 53 3d 7b 66 96 3e
       -0.06782564 0.0037497603 0.051669326 0.2937506
0001f0 53 77 dc bd 5d fd 77 bc 5a 3c 73 3e 8a be 78 3d
       -0.10764947 -0.01513609 0.23753491 0.060728587
000200 6f d7 c3 be a2 c5 17 bd 30 21 37 3e c8 b0 be bc
       -0.382503 -0.03705371 0.17883754 -0.023277655
000210 71 7a 38 3e 22 80 c3 bd 63 31 ca 3d e7 a6 88 3e
       0.18015458 -0.09545924 0.09872701 0.26689836
000220 61 6a a2 3d 0e 9d 8d be 16 88 1f 3e 93 32 30 3e
       0.079304464 -0.27658886 0.15579256 0.17206793
000230 6e 38 38 be a3 2c ba 3d 26 60 00 3d 63 67 64 3d
       -0.17990276 0.09090545 0.031341694 0.05576266
000240 f3 ad a9 bd c1 51 0b bd 00 21 c9 3d 5c 5c a0 3e
       -0.08285131 -0.034013513 0.098207474 0.31320465
000250 a1 fc 3b 3e 7f bf a9 be 74 2e 24 3e e1 8d 1c 3e
       0.18358089 -0.33153912 0.16033345 0.15288498
000260 a3 a3 3e 3e 5b 23 9f 3e ae dc 5f 3d 98 0f 30 be
       0.1861711 0.31081662 0.054653816 -0.17193449
000270 32 9a 8a 3d 19 11 b8 3e 13 ae 81 3d 37 af 14 be
       0.06767692 0.35950544 0.0633203 -0.14519964
000280 1d 39 dc 3e 7b fa f6 bc af 3e 90 bc 2a 42 e2 be
       0.43012324 -0.030148735 -0.017608015 -0.44191104
000290 fb 7d 2c bd 7d fa 65 3e f9 df 75 bc be 7e 1d be
       -0.04211233 0.22458835 -0.0150070125 -0.1538038
0002a0 05 63 d0 bc 50 78 f5 3d 21 0d 25 3e 6a 02 9b 3d
       -0.025437841 0.119858384 0.1611829 0.0756882
0002b0 54 c8 d6 bd 0e 94 18 3e 45 b6 4e be 0d 6e bd bd
       -0.10487428 0.14900228 -0.20186718 -0.09249506
0002c0 e9 a4 f3 bd dc 7f 08 be 08 1d c6 3d b8 e5 a7 be
       -0.118966885 -0.13330024 0.09673506 -0.3279245
0002d0 3d 3d e6 bd db cd ca 3d bd cc 63 be 2d bc a4 bb
       -0.11242149 0.09902545 -0.2224607 -0.005027315
0002e0 da 58 17 be bc 2b 5c 3e 52 f2 3a 3d fe fd 5c 3d
       -0.14779988 0.21501058 0.04564125 0.053953163
0002f0 a8 4d 9a bd b4 bc 9e be d3 41 84 bd 2e a7 0f 3d
       -0.07534343 -0.31003344 -0.064578675 0.035071544
000300 f6 06 36 be 6e a8 fa 3b c7 64 91 3d a4 9e a4 39
       -0.17776093 0.007649473 0.070993 0.00031398714
000310 35 73 7d 3c 3f 19 b2 bd f7 95 06 3f de 24 97 3e
       0.015469362 -0.086962216 0.5257258 0.29520315
000320 a5 fd e2 3d 1a 6c 3d 3e 0d b5 8a 3d b2 e6 ba 3e
       0.11083535 0.18498269 0.06772814 0.36504132
000330 34 8d 53 be 2b 33 2c be 65 a6 5f 3e 0c 87 04 be
       -0.20659333 -0.16816394 0.21840818 -0.12942141
000340 36 52 5c bd c8 af 7a be 0c da 71 be 03 a8 02 3e
       -0.05378934 -0.24481118 -0.23618335 0.12759404
000350 90 47 8a 3d a8 43 a8 be 2d 1b c7 3e cf ec e6 3e
       0.06751931 -0.32864118 0.3888792 0.45102546
000360 46 8a 5d 3e fd 38 2f 3e d2 05 8a 3d 87 3e f4 bd
       0.21634778 0.17111583 0.067393914 -0.11925989
000370 5d 42 b3 bd 84 28 c8 3b b9 e1 dc 3d 9e 2b 8d bd
       -0.08752892 0.0061083455 0.10785241 -0.06893085
000380 9c 2d 1a 3e 37 ec 66 bd 22 d2 90 3d d9 c0 9d be
       0.15056461 -0.056377616 0.0707133 -0.30811194
000390 de 02 5d 3d 47 e0 85 3e cd 83 a2 3e 9b 76 34 3e
       0.053957812 0.26147673 0.3174118 0.1762337
0003a0 fd 25 08 be 5b 21 14 3d e3 46 ac bd 6a 66 5b 3e
       -0.13295741 0.036164623 -0.08411958 0.21425787
0003b0 cb 11 86 3e 21 21 0d 3e 86 62 69 bd ad 5a 6f 3e
       0.2618545 0.13782169 -0.056978725 0.23374434
0003c0 c4 69 73 3d 7c 94 53 3e 7e 4b 2e 3d 6d ef f5 3e
       0.059427038 0.20662111 0.042552464 0.4803423
0003d0 d2 00 0f 3e 16 7f 83 3d f9 bf e7 3d e7 5b 27 bd
       0.13965157 0.06420724 0.11315913 -0.04085913
0003e0 43 a1 bb 3d 49 6a ea 3d 98 43 88 3d 13 50 4d 3e
       0.091616176 0.114460535 0.066535175 0.20050077
0003f0 2e 8f d3 3c e8 33 c3 bd e4 c2 36 3e e5 f1 c3 bd
       0.02582511 -0.09531385 0.17847782 -0.09567622

bias f4 [32]
000000 51 3e 13 be 01 dc 97 bd b8 5e 59 3e bb 64 4f bd
       -0.1437924 -0.07415009 0.21227539 -0.050633173
000010 65 f8 57 be b4 55 14 3e 1e a7 81 3d 33 ad 28 3e
       -0.21090849 0.14485818 0.06330703 0.1647232
000020 65 07 ef 3d 0a a5 fc bc 5c b1 e6 3d 55 3e 1b 3e
       0.11671332 -0.030840416 0.11264297 0.15160497
000030 c6 67 a1 bd e9 be 1a 3c d7 5f 1e bd 6e e5 15 3e
       -0.07881121 0.009444931 -0.03866562 0.14638302
000040 9f 08 35 be d3 a2 f0 3d 19 d4 a0 3d 6d ad 0a bd
       -0.1767907 0.11749806 0.078529544 -0.033856798
000050 fa 62 1e 3e a5 08 0e be 76 56 c5 bd 90 22 83 3d
       0.15467444 -0.13870485 -0.09635632 0.06403077
000060 06 34 c5 bd cb b5 77 3d 5f 08 2c be 73 fe 73 be
       -0.09629063 0.060476106 -0.16800068 -0.23827533
000070 9e e3 35 be 39 18 45 be 3c 24 15 bd 58 ff bb bc
       -0.1776261 -0.19247521 -0.03641151 -0.022948906

weight f4 [32, 64]
000000 08 c8 50 bd a0 ad 87 3b 08 4a 7e bd 08 15 41 3d
       -0.050972015 0.0041405708 -0.06208232 0.047139198
000010 48 20 da bd c4 a8 bb 3d 34 12 ba bd de 87 cb bd
       -0.106506884 0.09163049 -0.09085503 -0.09938024
000020 5a c3 a1 bd a8 e1 67 3d 14 2e 3d bd e4 98 3f 3d
       -0.078985885 0.056611687 -0.04618652 0.046776667
000030 54 46 d9 bd 3e 52 9b bd 80 fe 3b bd 78 3c c9 bc
       -0.10609117 -0.07584046 -0.045897007 -0.024564967
000040 04 4b c3 bd 5e a0 a7 3d b8 7d f1 bc 80 58 24 3d
       -0.095357925 0.081848845 -0.029478893 0.040123463
000050 5c 07 b5 3d 00 c7 be 3c bc 01 0c 3d 32 1b f7 3d
       0.08839294 0.02328825 0.03418134 0.12065734
000060 b4 ea 66 bd 38 2d 22 3d 0c cc 63 bd 48 f3 b6 3d
       -0.056376174 0.039593905 -0.055614516 0.08933121
000070 c0 74 cc 3d 60 06 ec bd 88 88 da 3d c4 7c 74 3d
       0.09983206 -0.115246534 0.106705725 0.0596893
000080 dc 1c 5f 3d 0c c7 52 3d 04 d0 d4 3d 60 35 87 bc
       0.05447088 0.051459357 0.10391238 -0.016504943
000090 b2 7f d8 bd f8 ea 12 bd 58 4b b4 bd f0 62 07 3c
       -0.10571231 -0.035868615 -0.08803433 0.008263335
0000a0 40 30 bf bc 86 50 89 bd 00 35 3a bc 0e 89 f2 3d
       -0.023338437 -0.06704812 -0.011365175 0.11842547
0000b0 70 89 21 bc 60 0c 82 3b 20 b4 9f bc e0 fa a0 3c
       -0.009859428 0.0039687604 -0.01949507 0.019650877
0000c0 68 19 e4 3d cc 8a 9c 3d 84 bd 35 3d a8 86 de 3c
       0.11137658 0.07643661 0.04437019 0.027163818
0000d0 b0 73 f1 3c 78 cd 45 3d 28 53 84 bc bc ed ed bd
       0.02947411 0.048291653 -0.016152933 -0.1161761
0000e0 3e 50 9e bd 98 84 da 3d 00 d5 f4 3b fa 60 cf bd
       -0.07730149 0.106698215 0.0074716806 -0.10125919
0000f0 50 83 a1 3c 8a 86 d3 3d 80 eb f1 bd 6a 59 ac bd
       0.019715935 0.10328396 -0.11812496 -0.08415492
000100 78 e9 4b bd 40 67 a4 3b b0 d3 ee bc a0 0e 61 bc
       -0.0497832 0.005017191 -0.029153675 -0.013736397
000110 66 92 f9 bd 48 c2 6f 3d c8 b3 e0 3d 1e 7a 9c 3d
       -0.121861264 0.05853489 0.109717906 0.076404795
000120 2a 48 b5 bd ca 5c ce bd f4 9b 54 3d 00 fb 37 3b
       -0.08851655 -0.10076292 0.05190654 0.0028073192
000130 78 e2 51 3d 98 26 fa bd 40 37 f4 bb da 8a b4 3d
       0.051241368 -0.122143924 -0.0074528754 0.08815546
000140 cc 85 6d 3d 40 93 95 3b 80 56 c9 3c a0 e7 41 bc
       0.057988927 0.0045646727 0.02457738 -0.011835009
000150 e4 c1 8c bd 04 7c 41 bd 18 e6 9b bd ce a2 d4 3d
       -0.06872919 -0.04723741 -0.07612246 0.10382615
000160 96 df 8c 3d d8 0e 33 3d 72 50 c4 bd 02 89 c5 3d
       0.06878583 0.043715328 -0.09585656 0.09645273
000170 ac 88 20 3d 74 19 b1 3d 6c 6a 49 bd b8 15 d9 3c
       0.03919284 0.08647433 -0.049173757 0.026499614
000180 32 f4 f9 3d 64 33 ac 3d a8 4f cd 3d 40 06 d7 bc
       0.1220478 0.084082395 0.10024959 -0.026248097
000190 62 0a c3 3d e8 81 c8 bd 20 21 31 3c 5e 24 90 bd
       0.09523465 -0.09790403 0.01081112 -0.070381865
0001a0 f8 cf ee bc 34 1f 03 bd c0 3a 19 3c ea fe e8 3d
       -0.029151902 -0.03201218 0.009352386 0.11376746
0001b0 a4 7b 7d 3d 00 d0 0a ba 70 b8 b5 3d 4a 30 83 bd
       0.06188549 -0.00052952766 0.08873069 -0.06405695
0001c0 62 ef 83 3d a0 ea 3d bc e8 2f b2 bc 30 c4 6f 3c
       0.06442143 -0.0115915835 -0.02175136 0.014634177
0001d0 ea 1e c4 bd 50 a9 6c 3c 64 27 2c 3d ce dc da 3d
       -0.09576209 0.014444664 0.042029753 0.106866464
0001e0 5c 68 1f bd 88 55 38 3d 06 e0 ff 3d d4 a1 5b bd
       -0.038917884 0.045003444 0.12493901 -0.05362113
0001f0 06 5a f3 3d 34 34 7e bd e0 af 61 3d 78 93 48 3d
       0.11882405 -0.062061504 0.055099368 0.048968762
000200 18 04 0f 3d 12 72 ca 3d a4 ee 4e bd 38 90 06 3d
       0.034916013 0.098850384 -0.050520554 0.03285238
000210 00 e6 37 3a 5a 8c c0 bd 38 a4 f8 bc 74 f6 aa bd
       0.00070151687 -0.0940177 -0.030351743 -0.083477885
000220 30 62 62 3d 60 1b 38 3c b0 a1 48 3c 68 53 1b bd
       0.05526942 0.011236995 0.012245581 -0.03792134
000230 00 91 1d 3a 0c 41 1f bd b8 1d 13 3d 94 9e f8 3d
       0.00060106814 -0.038880393 0.035917014 0.121396214
000240 18 1b 9b 3c 30 c6 62 bd 3a 5f 9c bd 10 8c 1c 3c
       0.018933818 -0.055364788 -0.076353505 0.009554878
000250 a2 e9 bd bd 26 6c c0 bd e0 9f a6 bd ec e5 2d bd
       -0.092730775 -0.09395628 -0.081359625 -0.0424556
000260 80 96 17 3c da 48 b0 3d 58 51 46 3d 5c 20 c4 3d
       0.009252191 0.08607645 0.04841742 0.095764846
000270 e2 bd a0 bd b0 d3 2c 3c b0 8d e3 bd 32 db 92 3d
       -0.07848717 0.010548517 -0.11111009 0.071707144
000280 68 69 d5 3c 62 9b f7 3d 00 12 b6 bd 46 4b cd 3d
       0.026051238 0.12090184 -0.08890152 0.10024123
000290 3a 1f d8 3d 02 fb ce 3d 98 1e 92 3c 88 c6 e8 3d
       0.10552831 0.1010647 0.017836854 0.11365992
0002a0 3c f7 aa 3d 0e ff be 3d 30 0a 05 bc 34 74 c4 bd
       0.083479375 0.093259916 -0.008120105 -0.095924765
0002b0 00 e2 cb ba 08 0a c0 3c 18 61 ae bd 04 da 92 bd
       -0.0015555024 0.023442283 -0.08514613 -0.071704894
0002c0 68 70 f5 bd f4 7a 33 bd 58 fe de 3d 98 19 af 3c
       -0.119843304 -0.04381843 0.10888356 0.021374509
0002d0 20 2f fa bb c0 7c a4 3b b0 a0 9f 3d 74 10 e2 bd
       -0.0076350123 0.005019754 0.077943206 -0.110382944
0002e0 e6 86 c5 bd 90 39 2a bd 28 55 93 bd 7e 0a 84 3d
       -0.096448705 -0.041558802 -0.07193977 0.06447314
0002f0 a8 e2 b4 3d b8 60 f8 bd 12 43 d9 bd 20 4c f9 bd
       0.08832294 -0.12127823 -0.10608496 -0.12172723
000300 80 27 41 3d f2 0a ce 3d b0 7c c6 bd a0 08 6d bd
       0.04715681 0.100606814 -0.09691751 -0.057869554
000310 d0 ed 22 3d 0c 2a a7 bd 7e 77 d9 3d d0 c1 ee 3c
       0.039777577 -0.08162317 0.106184945 0.029145151
000320 4c 88 0e bd d0 04 05 3c 20 a0 1f 3d c8 0c 35 bd
       -0.03479795 0.008118823 0.038971066 -0.044201642
000330 f4 5c c6 bd 00 41 5c 3a 80 37 15 3b 80 31 25 3b
       -0.09685698 0.000840202 0.0022768676 0.0025206506
000340 c0 6e 95 bc ee 5e a4 3d d8 e0 0e bd 40 3b 46 bc
       -0.018241286 0.08025919 -0.034882396 -0.012099087
000350 30 87 52 3d ce 22 a1 bd a8 17 09 3d 28 6c e2 bc
       0.051398456 -0.078679666 0.033469826 -0.027639464
000360 c4 97 75 3d f2 de 8a bd a0 61 97 3b c0 5a 48 3c
       0.059959188 -0.06780805 0.004619792 0.012228668
000370 0a fa cd bd fe 25 ba bd dc 5b 44 3d 5c 05 15 bd
       -0.10057457 -0.09089278 0.047939166 -0.036382064
000380 9c 09 98 3d 90 e4 fc bd a4 18 7d bd 82 db d2 bd
       0.07423708 -0.12348282 -0.061791077 -0.10295774
000390 84 87 4c 3d 40 7f 6d bb 78 ff be bc 40 5d aa bc
       0.049933925 -0.0036239177 -0.023315176 -0.020796418
0003a0 24 1a c8 bd 5c 33 11 3d 40 31 4c 3b 3e ab b0 bd
       -0.09770611 0.03544937 0.0031157285 -0.08626412
0003b0 c8 a8 40 3d c0 a6 24 bb fc 96 f7 bd 24 b5 89 3d
       0.047035962 -0.0025123805 -0.12089345 0.06724003
0003c0 5c ee 88 3d 98 ee c0 bc 8e c0 b0 bd 60 74 a4 3b
       0.066860884 -0.02355127 -0.08630477 0.005018756
0003d0 24 2c c1 3d b6 53 ea 3d a4 3a c1 bd 28 41 67 bd
       0.09432247 0.11441748 -0.09435013 -0.056458622
0003e0 ee 53 c7 3d 24 41 7a 3d a2 77 9e 3d 08 d7 7e bd
       0.09732805 0.06109728 0.07737662 -0.06221679
0003f0 86 8d dc 3d ea 72 d2 bd c0 4c c5 bb 00 17 2a 3b
       0.10769181 -0.10275824 -0.006021112 0.002595365

bias f4 [32]
000000 e0 a0 c4 3b fa 90 f5 bd 28 42 82 3c 5c 20 34 3d
       0.006000623 -0.11990543 0.015900686 0.043976173
000010 f6 1a e5 3d 3c f4 25 bd 5c ac 38 3d 40 91 2b bd
       0.11186783 -0.040516123 0.04508625 -0.041886568
000020 b4 0b 34 bd e8 d6 e2 bd a8 23 d8 3c c2 c6 ab 3d
       -0.043956473 -0.11076146 0.02638419 0.083875194
000030 72 69 8e bd e4 52 51 3d f8 ba 9f bc a4 c1 b5 bd
       -0.06953706 0.05110444 -0.019498333 -0.08874825
000040 40 60 5a 3c e2 78 f9 bd 9e 3b 89 3d 98 41 e2 bc
       0.013328612 -0.1218126 0.06700824 -0.027619168
000050 34 c5 eb 3d 20 35 97 3b 8a 30 f8 bd d2 a8 c6 3d
       0.11512223 0.0046144873 -0.12118633 0.09700169
000060 10 fb df bc e6 5a af bd bc 5c ec 3d 60 47 3f 3c
       -0.027341396 -0.085622594 0.11541125 0.011674732
000070 34 ff 25 3d 52 76 dd bd 78 d2 34 bd e6 66 cd 3d
       0.040526584 -0.108135834 -0.04414603 0.10029392

weight_ih_l0 f4 [128, 32]
000000 85 2b 3d 3d c1 39 03 3e 13 49 08 be c4 97 94 bd
       0.04618408 0.12815 -0.13309126 -0.072555095
000010 22 2e 08 be 0e f3 82 bd c9 56 a6 be ac c9 07 bf
       -0.13298848 -0.06394015 -0.32488087 -0.530421
000020 f6 e6 70 be 35 57 b7 3e 3d 64 91 3d 97 c8 ed bd
       -0.23525605 0.3580872 0.07099197 -0.11610525
000030 1d 67 1c 3e 83 a9 87 be b0 59 0b 3e 5a 47 d2 3d
       0.1527371 -0.26496515 0.13608432 0.102675155
000040 0a 45 d9 3d 56 d6 b1 3e 3f c5 64 be a1 d6 ae 3d
       0.10608871 0.34733838 -0.22340868 0.08537031
000050 3e 35 ca be ef 01 95 bc db 95 71 be f0 fa eb be
       -0.39493746 -0.018189399 -0.23592322 -0.46089888
000060 e8 50 ac bd d7 7c 93 be e2 1e 96 3d 71 49 26 3e
       -0.08413869 -0.28806183 0.07330109 0.16238953
000070 e1 e4 1c 3e 65 a1 07 be f7 cd 08 3e 22 a3 6d be
       0.15321685 -0.13245161 0.1335982 -0.23206761
000080 1f 65 ff 3d 4a 88 9e 3b b4 55 2d be 8a 24 64 be
       0.12470459 0.0048380243 -0.16927224 -0.22279564
000090 bc c2 93 3d 7e 79 63 bd 4b a0 ef bb 67 36 bd be
       0.07214877 -0.055535786 -0.0073128096 -0.36955568
0000a0 a2 00 10 be b7 0d bb 3e 89 7a 5d 3e 44 26 51 3b
       -0.14062741 0.365339 0.21628775 0.0031913677
0000b0 2a 93 a8 3e 40 5a b2 bd fa 75 0b be 61 cd 96 bd
       0.32924777 -0.0870862 -0.13619223 -0.07363392
0000c0 e2 e9 07 3e 63 d4 70 3e 85 2c 07 bd 80 f4 1f 3e
       0.13272813 0.23518519 -0.03300144 0.15620613
0000d0 77 1b b2 be 0b c5 6c bd 48 b3 10 be f4 b7 0b bf
       -0.3478658 -0.057805102 -0.1413089 -0.54577565
0000e0 c3 3d 33 3d 53 0f 05 be b6 f7 9b 3e 27 63 2c 3e
       0.043760072 -0.12994127 0.30462426 0.16834699
0000f0 01 01 8b 3d 78 bc d7 3c 0f 95 b0 3d 47 69 14 be
       0.06787301 0.026334986 0.08622181 -0.14493285
000100 8c d6 2b 3e 8a 8c 74 3e c5 1d fe 3c b0 d4 86 be
       0.16781062 0.23881736 0.031020055 -0.26334143
000110 96 04 c7 3d c3 45 98 be 1c db 36 bd a7 4f d7 be
       0.097176716 -0.29740724 -0.044642553 -0.42052957
000120 7e aa 45 bd 76 84 a0 3e 49 f8 8e 3e 2a 40 90 be
       -0.048258297 0.3135106 0.27923802 -0.28173953
000130 42 95 3c 3d 13 d9 3f be 9f cf 9d 3b 08 4c 01 be
       0.04604078 -0.18735151 0.00481601 -0.1262666
000140 25 77 93 3e 4d 99 05 3f 1d 49 2f bd f2 fb d5 3d
       0.28801838 0.52187043 -0.042794336 0.104484454
000150 b4 28 b2 bd 4c 05 c3 3d 83 1e 72 be fb f5 29 bf
       -0.0869917 0.09522495 -0.23644452 -0.6639096
000160 b2 30 9f bd 22 3e cf be 3b 1c 28 3e 5f 77 b3 3e
       -0.0777296 -0.4047709 0.16417019 0.3505201
000170 48 de 20 3e 3d 72 93 bd f0 b1 4a bc ea bf 5d 3d
       0.15709794 -0.071995236 -0.012371525 0.0541381
000180 95 27 12 3e 37 0a 8b 3d 8d af 69 be f7 af fe be
       0.14272912 0.06789058 -0.22820874 -0.49743626
000190 41 e1 22 be 17 f1 53 be 42 e8 e4 bc e4 fc 29 bf
       -0.1590624 -0.20697437 -0.02794278 -0.66401505
0001a0 27 ef b9 3d 6c 70 6c 3e 33 77 2e bd 82 61 0e 3e
       0.09078818 0.2308976 -0.042594146 0.13904384
0001b0 8e c6 65 3e e5 a8 54 be 44 d7 0c 3e 7c c3 64 3e
       0.22439024 -0.20767553 0.13753992 0.22340196
0001c0 c9 a2 a3 3d d0 32 85 3e 32 74 19 be c3 e0 08 be
       0.07990033 0.2601533 -0.14985731 -0.1336699
0001d0 29 57 bc bd b7 33 7f be 7a 88 4f be 56 62 17 bf
       -0.09196312 -0.24922071 -0.20266905 -0.59134424
0001e0 62 cd 12 be a1 f3 99 be 2e 95 0e 3b f0 58 09 3e
       -0.1433616 -0.30068687 0.0021756398 0.13412833
0001f0 71 b1 84 3d 92 1e c6 3d c9 79 a1 bd c8 7c 4c ba
       0.06479157 0.096737996 -0.07884557 -0.0007800576
000200 95 b4 4e bd b8 d7 d9 3a fa 51 a1 3d ac cd cd be
       -0.050465185 0.0016620075 0.07876964 -0.40195978
000210 9f 21 48 be 06 96 1a be 10 61 19 be b2 04 d4 be
       -0.19544075 -0.15096292 -0.14978433 -0.41409832
000220 28 02 88 bd b4 24 15 3e ae cb 47 3e 59 9d 16 3e
       -0.06641036 0.14564782 0.19511291 0.14708461
000230 3d ed ae 3e 67 1c 93 be 7a 93 de 3b 2f 53 4b 3d
       0.34165373 -0.28732607 0.006792483 0.049639877
000240 97 9a b4 3d 98 8c 1f 3f 73 0d 71 be d2 a3 77 be
       0.08818548 0.62323904 -0.23540287 -0.24183586
000250 64 c1 e3 bd 0f 3a 85 be 64 b3 26 be 52 b4 0d bf
       -0.11120871 -0.26020858 -0.1627937 -0.5535327
000260 19 12 47 be 20 52 86 be 0d 14 ee 3d a7 c5 79 3e
       -0.19440497 -0.2623453 0.11624918 0.24391805
000270 eb 68 7d 3e b2 70 bd bd df 9c 77 be 32 a4 15 bd
       0.24747054 -0.092500106 -0.24180935 -0.036533542
000280 69 a7 d5 bd f7 bc 22 3d 8f 44 4a be 67 fc 8e be
       -0.104323216 0.039730992 -0.19752716 -0.27926943
000290 d9 b8 5c be 88 bc a9 bc 9f 99 aa be 07 78 cb be
       -0.21554889 -0.020719782 -0.3332033 -0.3974001
0002a0 56 33 bf be 08 6d 65 3e b1 dd ec bc 67 3f 35 3d
       -0.37343854 0.22404873 -0.028914304 0.04424992
0002b0 e3 67 70 3e 36 e6 25 bd 70 30 f3 3d db d0 34 3e
       0.2347713 -0.04050275 0.11874473 0.17657797
0002c0 d2 8b 99 3e 3e 5f 67 3e ac a9 5f 3d 54 87 67 be
       0.29989487 0.22594926 0.05460517 -0.22610217
0002d0 49 5f e7 be 3e 11 77 bd 50 01 28 3d f8 c6 06 bf
       -0.45189884 -0.060319178 0.041016877 -0.5264735
0002e0 92 2a b6 bc aa f1 a1 be 43 05 24 3e fc 79 82 3e
       -0.022237096 -0.31629688 0.16017632 0.25483692
0002f0 15 da 23 3e 66 7e a5 3c 30 23 a7 be bf b2 96 bd
       0.1600116 0.020201873 -0.32644033 -0.07358312
000300 0a 2a 6a 3e 7d 91 30 3e 11 5e 97 be 00 d3 04 bc
       0.22867599 0.17243 -0.29563954 -0.008106947
000310 8c 81 ec 3d 01 71 f0 bd b6 30 eb bc ea b5 de be
       0.115481466 -0.11740304 -0.02870975 -0.43498164
000320 0f 86 27 bd c4 d6 fb 3c 08 66 c3 bb 42 31 0a be
       -0.040899333 0.030742057 -0.005963091 -0.13495353
000330 32 73 35 3d c0 69 35 be 57 32 c5 bc dc e6 ec bc
       0.044299312 -0.17716122 -0.024071855 -0.028918676
000340 80 58 52 3e fe 64 b7 3e 82 a8 1e be f3 10 40 3d
       0.20541573 0.35819238 -0.15493968 0.046891164
000350 f1 16 94 be c9 8b c3 bc b9 29 4b bd 6d a1 25 bf
       -0.28923753 -0.023870366 -0.049600337 -0.6469944
000360 a0 fd a0 bd ad 13 0a be 69 dc ed 3d e1 c1 b1 3e
       -0.07860875 -0.13484068 0.116143055 0.3471823
000370 f8 ec 95 3d 1a 31 8b bc 9b 30 51 be f5 21 16 be
       0.07320589 -0.016991187 -0.20428698 -0.14661391
000380 d3 d8 4c bc 16 76 e3 3e 29 be 56 bc cf 69 d5 be
       -0.012502867 0.4442603 -0.013106861 -0.41682288
000390 d4 bc 46 be 74 a7 be be 5c e8 e4 bd ae c0 22 bf
       -0.1940797 -0.37237132 -0.111771315 -0.63575256
0003a0 b3 27 1b be 14 33 57 3e e2 e3 af b9 f9 d2 8b be
       -0.15151863 0.21015579 -0.00033548387 -0.27309397
0003b0 d0 c8 dd 3d 9f 07 e7 be 54 79 1d bd f9 ea d9 bd
       0.108293176 -0.45123002 -0.038445786 -0.106405206
0003c0 42 ba 78 3e bf f9 9c 3e 2c 5a 63 be 76 73 00 3e
       0.24289802 0.3065929 -0.22202367 0.12544045
0003d0 5b f7 2b be d6 b0 71 bc 17 0a 79 bb 72 88 2d bf
       -0.16793577 -0.014751634 -0.0038000399 -0.67786324
0003e0 6f cf 44 3e d8 6c df be 69 d0 ec 3e 8a 3a b8 3e
       0.19219755 -0.4363773 0.46252754 0.35982162
0003f0 4f ae a0 3e b8 fc 4f 3c b1 a7 1a be 26 cf fe 3d
       0.31382987 0.01269453 -0.15103032 0.12441854

weight_hh_l0 f4 [128, 32]
000000 85 61 84 3d bd f0 20 3d 56 03 e6 bd a8 f3 f6 bd
       0.06463913 0.039292086 -0.11231105 -0.120581925
000010 06 34 c7 bc de df 77 bd 87 bc 19 3e 1f b3 c4 3c
       -0.024316799 -0.06051623 0.15013324 0.024011193
000020 fc 16 21 3e 1f da 06 be 78 5c 36 bd 40 da e7 bd
       0.15731424 -0.13169144 -0.04452178 -0.11320925
000030 7b bd 1f be bb 86 ed bc 6c eb 95 3d 31 31 90 3d
       -0.15599625 -0.028994909 0.07320294 0.070406325
000040 b7 08 d6 3d 1b 34 6a 3b ef 39 51 3e 9e 56 89 3d
       0.10450881 0.0035736624 0.20432256 0.06705974
000050 47 79 3a 3e 66 28 95 3d ac e0 45 bc 43 7a 16 bd
       0.18210326 0.07283096 -0.012077492 -0.03673769
000060 c4 a8 d0 3d 2a 6c cb bd 34 86 b0 3d ec f6 d2 3d
       0.101884395 -0.0993274 0.08619347 0.10301003
000070 f0 9b f9 bd 66 55 a0 bd 00 8c f8 3d cf 33 00 be
       -0.12187946 -0.078287885 0.12136078 -0.12519763
000080 62 1b 31 3e 85 b1 cc 3d dc be 1e be 61 96 ed 3d
       0.17295602 0.09994797 -0.15502495 0.11600948
000090 c5 64 a1 bd 49 56 53 be d0 e9 f3 3d 24 6d 28 be
       -0.078805484 -0.20638384 0.119098306 -0.16447884
0000a0 8b d0 d6 3d 0b 5f 4f 3d b6 57 b8 bd 90 58 9d bd
       0.10488995 0.05062775 -0.090011045 -0.076829076
0000b0 ec 0f 26 bb 25 f9 b6 ba 98 0c 1f 3d c0 ce 6e 3c
       -0.002533908 -0.0013959749 0.03883037 0.01457566
0000c0 3e 0a 96 bd 97 d8 5e 3d db 42 ca bd 06 bb 98 bd
       -0.07326172 0.054405775 -0.09876033 -0.07457547
0000d0 e6 6d 19 3e d4 86 80 bd 67 ac 9c bd d2 94 44 be
       0.14983329 -0.062757164 -0.07650071 -0.19197395
0000e0 d6 f8 f5 3c 60 1d 70 3d df 4e c0 3d 88 2c d5 3d
       0.03002588 0.058621764 0.093900435 0.10408884
0000f0 df 3d 45 3e ed 77 75 bd 9b cf 49 3d 83 8e bf bd
       0.19261883 -0.059928823 0.049270254 -0.09353354
000100 04 4e 4e 3d de 37 58 bc bf 2c 2d be 25 2c 60 bc
       0.05036737 -0.0131969135 -0.169116 -0.0136824
000110 a8 b7 5c 3e aa 7f a0 3d ba 63 46 3e 04 28 39 3d
       0.21554434 0.0783685 0.1937398 0.045204177
000120 8c 61 05 3e 80 78 eb 3d 15 ee 1d be 29 ba 71 3d
       0.13025492 0.11497593 -0.15422852 0.059015427
000130 ce b9 90 bd 6a 23 de 3d c4 44 0b be 51 8d 4e 3e
       -0.070666894 0.108465984 -0.13600451 0.20171095
000140 cd e7 12 3e 80 87 00 3e 49 cd 1e bc 52 33 18 be
       0.14346237 0.12551689 -0.0096924985 -0.14863327
000150 13 2e d6 bd f1 bf 1b 3d 27 c7 a4 3d e1 c8 55 be
       -0.10458007 0.038024846 0.08045798 -0.2087741
000160 6c 08 39 3e d3 7a 11 bd 67 37 b9 3d c8 fc e2 bb
       0.18069619 -0.035517525 0.0904377 -0.0069271065
000170 6c 19 20 3d 24 20 05 3d 01 71 7d bd f1 4f 8f bd
       0.039086744 0.032501355 -0.061875347 -0.069976695
000180 ee cb 88 3d 45 42 1c 3e 88 03 f1 3d 64 84 cb bd
       0.066795215 0.15259655 0.11768252 -0.09937361
000190 97 c2 f3 3c fd d3 92 bc d5 d9 83 bd 58 0f 05 3e
       0.029755874 -0.01792335 -0.064380325 0.12994134
0001a0 f7 77 da 3c b0 20 4d 3e e6 4d db 3d 69 d9 39 be
       0.026668532 0.20032 0.10708217 -0.18149342
0001b0 0b 47 40 be 4f 65 78 bd b5 4d 17 be 3b 1b 82 3d
       -0.187771 -0.06064349 -0.14775737 0.0635285
0001c0 97 31 ec bd 0f ff cf bd 86 0b 37 be e1 ba aa 3d
       -0.11532896 -0.101560704 -0.1787549 0.083364256
0001d0 db 5b 97 bb 0a 01 71 3d 07 dd 8d bd c3 8c 17 be
       -0.0046191043 0.05883888 -0.06926923 -0.1479979
0001e0 f3 bc f3 bd cc 23 ea 3d 8d 99 29 bd dc c0 86 3d
       -0.119012736 0.11432609 -0.041406203 0.06579754
0001f0 54 f8 d8 3d b1 cd 4f 3e 50 94 4b bd 40 61 42 3e
       0.1059424 0.20293309 -0.04970199 0.1898241
000200 95 04 fe 3b 2a eb 14 3e 81 c4 37 3e 1c 51 8b bc
       0.007752011 0.14542833 0.17946054 -0.01700645
000210 4e b8 15 be 81 ad 98 be 73 d4 e2 bd f5 bb e4 bd
       -0.14621088 -0.29819873 -0.11075678 -0.111686625
000220 7f b7 ce bd 2a 4f 12 bc c2 d0 8c 3d a1 88 7e bd
       -0.10093593 -0.008930007 0.06875755 -0.06214202
000230 c2 31 94 bc 91 db 3e be f7 bc b0 bc fd 0c 45 bc
       -0.018090133 -0.18638445 -0.02157448 -0.012027022
000240 e0 68 06 3e 58 76 3d be 05 bc 15 be 27 ff 26 be
       0.13125944 -0.18502176 -0.14622505 -0.1630827
000250 e1 dc c2 3d 8d e2 03 bc a2 84 6c 3d 66 f1 06 3e
       0.095147856 -0.008049619 0.057743676 0.13178024
000260 71 d9 d2 3d e2 25 e7 bc c9 07 4a bd c4 66 f2 3d
       0.1029538 -0.028216306 -0.04932383 0.11836007
000270 34 9b da 3d 69 12 05 3e b8 65 a0 bd 9a 41 97 3d
       0.10674134 0.12995304 -0.07831901 0.073855594
000280 24 fd cc bd 3e f9 17 be a8 e4 86 bd c5 19 79 3d
       -0.1000922 -0.14841172 -0.065865815 0.06081559
000290 27 9b 39 3e f0 aa 00 3e eb 20 64 3c f3 ec 09 bc
       0.18125592 0.12565207 0.013923864 -0.0084183095
0002a0 40 8a 16 3e 3b c0 ad 3d 46 52 e9 3c ed be 6d 3d
       0.14701176 0.08483931 0.028481614 0.05804341
0002b0 e9 ae b7 3d ab 29 9a bc 0d b7 c3 3c e3 7d 5a bc
       0.08968908 -0.018818697 0.023890996 -0.013335678
0002c0 53 a0 9b 3d 65 93 99 bd 49 2b ff 3d 0d 6a a6 bd
       0.07598939 -0.074988164 0.12459428 -0.08125696
0002d0 f2 1b ee bd 2b 26 31 be 16 f3 09 be 76 19 81 bb
       -0.11626424 -0.17299716 -0.13471636 -0.0039398028
0002e0 69 78 2b 3d 92 e9 04 be e9 ab c7 bd 8e 39 59 be
       0.04186288 -0.12979725 -0.09749586 -0.21213362
0002f0 49 d9 e9 3d e3 a8 e8 bd b7 37 f7 3d bb a0 be 3d
       0.11418397 -0.113603376 0.12071174 0.09308001
000300 ae bc a8 3d 7f 02 2d 3e 86 b1 ea 3d ad 5e 47 3e
       0.08239113 0.16895483 0.11459641 0.1946971
000310 35 43 49 3d 43 11 f4 bd 1f e6 d7 bd be 20 0e 3c
       0.04913636 -0.11917355 -0.10541939 0.0086747985
000320 ad 64 ce 3d d0 1c 48 3e 31 36 3e bd 21 d3 d5 3d
       0.10077796 0.19542241 -0.0464384 0.1044066
000330 93 76 a9 bd 65 d8 67 3d 11 0d 77 bd 15 45 9a 3d
       -0.08274569 0.056602854 -0.060315195 0.075327076
000340 b6 b3 27 be f1 07 1a be ba 07 0b 3c b9 c2 00 3e
       -0.16377148 -0.15042092 0.008485729 0.12574281
000350 e6 65 62 3d d4 19 de 3d f2 95 36 3e a3 e3 12 bc
       0.05527296 0.1084477 0.17830637 -0.008965406
000360 f2 75 44 3e c7 2b bc 3d 58 95 0d be 8c a3 d8 3d
       0.19185618 0.09188037 -0.13826501 0.10578069
000370 45 e3 a2 bd 13 52 f4 3d 97 2a 2d 3d d5 96 d7 3d
       -0.079535045 0.11929717 0.042276945 0.10526816
000380 2c 74 fe 3d 43 9d c6 bd 5e 27 6e bd 62 79 20 3e
       0.12424502 -0.09697964 -0.058143012 0.15671304
000390 c0 f1 87 3d e3 58 ff 3d 31 5f 16 3e f1 3b c3 3c
       0.06637907 0.12468126 0.1468475 0.023832293
0003a0 8d ca d3 bd e3 ea 5b 3d 1a 5c 8c bd de cc b1 3d
       -0.10341368 0.053690802 -0.068535045 0.086816534
0003b0 2b 0c b3 3d 9f 51 d3 3c 40 77 f5 bd c4 45 31 bb
       0.08742555 0.025795756 -0.11985636 -0.002704964
0003c0 93 50 46 be a5 b5 b2 3b a3 f5 66 3e 45 83 f1 3d
       -0.19366674 0.0054537826 0.2255464 0.11792616
0003d0 8e bb e7 bd 1b 3c f7 bd ac 95 7e 3d 90 ad 17 be
       -0.1131507 -0.12072011 0.062154457 -0.14812303
0003e0 dc 37 d3 3d 88 47 18 bd ee 16 be bd 70 a7 97 bd
       0.10313389 -0.037177593 -0.09281717 -0.07404983
0003f0 16 5c bb bc f7 d7 02 3c 9f 76 f4 3d da 0c 40 3e
       -0.022871058 0.00798606 0.11936688 0.18754902

bias_ih_l0 f4 [128]
000000 5e 68 a8 be d8 53 35 be 6b be f0 be fd 5b b6 bd
       -0.32892126 -0.17707765 -0.47020277 -0.08904264
000010 8e 0a 94 bd 69 5f 4b be 61 f0 95 be a6 3a 17 bf
       -0.07228576 -0.19860615 -0.29284957 -0.59073865
000020 58 28 d5 be 8e e7 8b be 88 92 17 be ab 24 0d be
       -0.41632342 -0.273251 -0.14801991 -0.13783519
000030 a9 9f 1e be 7a 7e e6 be c9 bd e6 be 16 14 93 be
       -0.15490593 -0.4501837 -0.4506667 -0.28726262
000040 bb f6 76 be 42 f4 00 bf af 50 4f 3b db f2 96 be
       -0.24117558 -0.5037271 0.0031633785 -0.2948216
000050 66 81 8a be 99 36 94 be 94 f8 0a be 55 19 77 be
       -0.27051848 -0.28947905 -0.13571388 -0.24130757
000060 74 23 b7 be 7e e4 9c be 6a 94 7f be 69 f3 0c be
       -0.35769236 -0.30643076 -0.24958959 -0.13764729
000070 6f a3 c9 be 86 d0 69 be aa d1 47 be c1 82 17 be
       -0.39382502 -0.22833452 -0.19513574 -0.14795972
000080 3d 79 06 be 02 5c 01 3d a7 32 af bd d8 93 09 be
       -0.13132186 0.031581886 -0.08554583 -0.13435304
000090 6f 9f 32 bd f8 3b 3d be 02 72 66 bd ac b9 1b be
       -0.04360908 -0.18479908 -0.05626107 -0.15207547
0000a0 81 a2 0e bd c5 b5 30 3d 86 6d 37 bd 89 d7 8d be
       -0.034822945 0.0431421 -0.044782184 -0.27703503
0000b0 42 90 71 be d3 f1 8b be be 3e a5 be d3 c9 2f be
       -0.23590186 -0.27332935 -0.3227443 -0.17166834
0000c0 18 22 2a 3d c7 30 d7 be bf ef 38 bc 0e c8 40 be
       0.04153642 -0.42029402 -0.011287629 -0.18826315
0000d0 15 1a 2b be 67 97 d8 bd f7 ca 49 be 41 d9 cc 3c
       -0.16709168 -0.10575753 -0.19706331 0.025005938
0000e0 89 ad 05 be 6f 8b ad bd 06 90 af 3c 2e 43 19 3d
       -0.1305448 -0.084738605 0.02143098 0.037417583
0000f0 c1 e6 8f bd 7f 71 be bd bd 37 9d bd 65 10 84 be
       -0.07026435 -0.092989914 -0.07676647 -0.25793758
000100 32 35 24 3d 08 e0 ad bd 2e 6b 89 3d 0c a0 1c be
       0.040089794 -0.08489996 0.06709896 -0.15295428
000110 2c 17 7d 3d d0 13 63 bd 3a e7 a0 bd f7 b0 3d bd
       0.061789677 -0.055438817 -0.07856603 -0.046311345
000120 6d 90 04 3e 0b 70 0a be 81 cf eb 3d 12 84 eb bd
       0.12945719 -0.13519304 0.115141876 -0.114998
000130 5f ac 0b be 89 88 0f 3d b2 69 95 bd b7 37 50 bd
       -0.13639973 0.03504232 -0.072955504 -0.050834384
000140 2d 6c 0d 3e 6d 32 77 3d b8 18 1f be 9a 2f 72 3d
       0.13810797 0.060350824 -0.15536773 0.059127428
000150 98 38 80 bd a8 d0 83 3d 5c ed c2 bd a6 60 d1 3d
       -0.062607944 0.064362824 -0.09517929 0.10223512
000160 a5 0b 01 be 18 0c 81 3c f9 2a 86 3d a6 cf dd 3d
       -0.12602098 0.015752837 0.06551165 0.108306214
000170 f7 04 6c bd a1 de 1d bd 3d 1c 9c 3c 8f 83 1d 3d
       -0.057621922 -0.038542394 0.019056434 0.038455542
000180 af 2d 78 be b8 5f 3f bd dd 3c c7 be 6c 86 3c be
       -0.24236177 -0.046722144 -0.38913622 -0.18410653
000190 c4 5c 4f be ef 66 86 be c3 82 35 be e1 81 9d be
       -0.20250231 -0.26250407 -0.17725663 -0.30763152
0001a0 68 3f 3e be 15 0d a9 be 23 27 87 bd dd c0 3a be
       -0.18578875 -0.33017793 -0.065992616 -0.18237634
0001b0 d6 e1 84 be a7 72 c1 be f8 98 5d be 46 27 2b be
       -0.2595355 -0.37782785 -0.21640384 -0.167142
0001c0 65 0c 7c be 09 b2 8e be 08 c8 0f bb f6 79 d0 bd
       -0.24614103 -0.27870205 -0.0021939296 -0.10179512
0001d0 6d ef 99 bd e4 7e a2 be 3c fd 76 be 6b bf 7a be
       -0.0751637 -0.31737435 -0.24120039 -0.24487083
0001e0 be 05 d0 be 39 9f f2 bd 99 ff 00 be a5 b1 24 bd
       -0.4062938 -0.118467756 -0.12597503 -0.040208478
0001f0 a3 10 68 be 45 f0 96 be 5e 49 4e be c4 3b b6 bc
       -0.22662596 -0.29480186 -0.20145175 -0.022245295

bias_hh_l0 f4 [128]
000000 1b 64 dc be 81 c5 7c be e2 e7 0b be 36 7c b4 be
       -0.43045124 -0.24684717 -0.13662675 -0.35251015
000010 3c 5b 57 be 83 1d f7 be e8 a2 58 be dc 61 c3 be
       -0.21030897 -0.48264703 -0.21155894 -0.38160598
000020 b4 b3 90 be 8d 6d b0 bd b3 f9 64 be f9 1d 4f be
       -0.28262103 -0.08614645 -0.22360878 -0.20226277
000030 6d 0a 70 be f2 64 4e be fc 26 27 be 20 a4 de be
       -0.23441477 -0.20155695 -0.16323465 -0.43484592
000040 77 ac 25 3c eb 8b 93 be cd dd 80 be 71 8e 8a bd
       0.01011192 -0.28817686 -0.2516922 -0.0676545
000050 cc 9a d0 bd a3 d0 81 be fd e1 98 be 07 ee 5f be
       -0.10185775 -0.2535449 -0.29859915 -0.21868144
000060 50 92 cb be 0f 96 4e be 9b 68 c4 be 60 12 8a be
       -0.39760065 -0.2017443 -0.38361058 -0.26967144
000070 69 d5 bc be 10 3b 79 bd 09 9c f9 bd c6 65 a8 be
       -0.3688157 -0.060847342 -0.121879645 -0.32890147
000080 21 cd b0 be 49 11 28 be 60 24 cc be 11 a1 ea bd
       -0.345315 -0.16412844 -0.39871502 -0.11456502
000090 12 11 a3 bc 2f d2 b8 be b6 8c 29 bd 54 49 d2 be
       -0.0199056 -0.36097857 -0.041393958 -0.4107157
0000a0 1f 10 33 be c5 cc b2 bd c8 e0 06 bb e4 a5 20 be
       -0.17486618 -0.08730463 -0.0020580757 -0.15688282
0000b0 cf 0d a5 be 97 d1 96 bd ec 3b 26 be 35 15 f2 bd
       -0.32237098 -0.07364195 -0.16233796 -0.11820451
0000c0 94 0d 52 be 3b 3b 95 be 5c 78 55 be 1b 15 1e 3d
       -0.20512992 -0.29146752 -0.20846695 0.038594346
0000d0 7d 5c 88 be 1f 9f 9d be 50 34 f4 bd f1 b2 2a be
       -0.26633063 -0.30785462 -0.1192404 -0.16669823
0000e0 ad e2 aa be 4c 98 31 be cd fa 43 be 3f 64 36 be
       -0.33376065 -0.17343253 -0.19138642 -0.17811678
0000f0 1c 4c 80 be b7 b5 90 be 99 16 4c be ac 03 3a be
       -0.25058067 -0.28263637 -0.19930495 -0.18165463
000100 a2 c7 0f bd f6 f1 9e bd 3a 62 94 bb 68 7a 2e 3d
       -0.035102494 -0.07760994 -0.004528311 0.042597204
000110 11 f5 25 3d 8e 9a 0a 3c b4 d4 a7 bc 10 a2 a7 3d
       0.040516917 0.0084597 -0.020487167 0.08185208
000120 c4 41 07 bd 3e 53 11 3e 52 36 55 3d f3 88 0e 3e
       -0.033021703 0.1419191 0.052053757 0.1391943
000130 86 d2 f3 3d 91 3a 28 bd 55 51 da 3d f3 2d c2 bd
       0.119053885 -0.04107148 0.10660044 -0.0948142
000140 9f 6a 16 be 4c 6b c8 bd ba bc 33 3d a3 7f 34 3b
       -0.1468911 -0.0978609 0.043881156 0.0027541898
000150 e8 1e c0 3d 25 ab ed 3b af 1f f7 bd 25 b7 d9 bd
       0.09380895 0.007253068 -0.1206659 -0.10630635
000160 37 a3 96 3c 50 57 41 3d 1b d6 3e 3d 7e ab 9c 3d
       0.018388374 0.04720241 0.046590906 0.07649897
000170 16 7a bb bc 65 cd ad 3d 69 c7 4b bd ea 93 c2 bd
       -0.022885364 0.084864415 -0.04975072 -0.095008686
000180 45 43 e9 be 13 07 03 bd ee 31 67 be 31 f8 43 be
       -0.45559135 -0.03198917 -0.2257764 -0.19137646
000190 28 ee a6 bd cc 14 8a be 7b f6 07 bc 2a a9 21 bf
       -0.081508934 -0.26968992 -0.008298512 -0.6314875
0001a0 6f 81 d4 be 38 dc ed bd c1 77 71 be db 40 3d be
       -0.41505 -0.11614269 -0.23580839 -0.18481772
0001b0 c0 9c a1 be 27 22 5b be 97 8c ba be 5a f7 8b be
       -0.31564903 -0.21399747 -0.36435387 -0.27337152
0001c0 37 8e 79 be e2 d0 ad be 08 e2 cc bd 93 87 81 be
       -0.24370657 -0.33948427 -0.100040495 -0.25298747
0001d0 d3 4c c1 be 08 6c 14 be db e3 2e be a2 00 28 be
       -0.37753925 -0.14494336 -0.17079107 -0.16406491
0001e0 dd a1 4e be 07 95 7c be 79 1a 87 be 94 4b 5b 3c
       -0.20178933 -0.24666224 -0.26387385 0.013384718
0001f0 39 20 93 be de a1 9f be af 12 fa bd e9 18 53 be
       -0.2873552 -0.31178182 -0.12210595 -0.20614971
