experiments/pedestrians/models/06_Aug_2023_21_23_08/model_registrar-84.pt (torch, 713991 bytes, 82 tensors)

weight f4 [64, 10]
0	0xbc847184	-0.01616741
1	0xbc273e19	-0.010207676
2	0x3e0a375b	0.13497679
3	0x3cb5fea3	0.022216147
4	0xbf35d564	-0.71028733
5	0x3f5df331	0.86699206
6	0x3ccb6482	0.0248282
7	0xbe71a911	-0.2359965
8	0xbe1bc21f	-0.1521077
9	0x3e04dbe9	0.12974514
10	0x3d182723	0.0371467
11	0x3e959011	0.29211476
12	0x3ec16600	0.37773132
13	0x3d816907	0.063188605
14	0xbe697213	-0.22797422
15	0xbe37dd95	-0.1795562
16	0xbe9544f0	-0.29154158
17	0xbebfdf20	-0.37474918
18	0xbdedea7e	-0.116169915
19	0x3db17e94	0.08666721
20	0xbc0b2544	-0.008492772
21	0x3ddb4652	0.10706772
22	0xbd0f95e4	-0.035055056
23	0x3f01aba6	0.5065254
24	0xbdd5b4b6	-0.104348585
25	0xbd2ac338	-0.04169008
26	0xbe886473	-0.26639137
27	0xbcee2184	-0.029068716
28	0x3b29e18b	0.0025921788
29	0xbe1f7c23	-0.15574698
30	0x3b9ab987	0.0047218236
31	0x3d015bde	0.031581752
32	0xbd434d28	-0.047681004
33	0xbd7600fe	-0.06005954
34	0xbf1fdca7	-0.62446064
35	0x3f3ea86a	0.7447573
36	0xbe8a16f9	-0.26970652
37	0xbe5535ae	-0.20821258
38	0xbd003d6c	-0.031308576
39	0xbe801b7c	-0.2502097
40	0x3d284734	0.04108353
41	0xbd450f57	-0.048110332
42	0x3d372f2c	0.04472272
43	0x3dfec026	0.12438993
44	0x3f1e25e6	0.6177658
45	0x3ee42b8a	0.44564468
46	0x3e8d2643	0.27568254
47	0x3e201a9d	0.15635152
48	0xbe825ef3	-0.25463066
49	0x3e2baf0b	0.16765992
50	0x3b51e3ce	0.0032026651
51	0x3d5e85e0	0.054326892
52	0x3ec3ee0e	0.3826756
53	0xbe25aff0	-0.16180396
54	0xba0b9fdd	-0.00053262507
55	0x3edcb6bb	0.43108162
56	0x3e37e604	0.17958838
57	0xbb8c24f6	-0.004276867
58	0xbd53e58a	-0.051732577
59	0x3da8be7d	0.08239458
60	0xbd24917e	-0.040177815
61	0x3e4f7ffc	0.20263666
62	0x3ee8a14e	0.45435566
63	0x3ae16826	0.0017197176
64	0x3f01a51e	0.50642574
65	0xbf016aa8	-0.5055337
66	0xbe87bdf1	-0.265121
67	0x3e87911c	0.26477897
68	0x3e9cfe28	0.30662656
69	0x3e6621d5	0.22473843
70	0xbd0a7611	-0.033804003
71	0xbe19534d	-0.14973183
72	0x3d6472c0	0.055773497
73	0xbec02bb8	-0.37533355
74	0xbf3b2980	-0.731102
75	0xbeae5f2b	-0.34056982
76	0x3ec73dab	0.38914236
77	0x3c564ce7	0.013079858
78	0x3d162e2d	0.03666513
79	0x3cd5528c	0.026040338
80	0x3e1b8f1d	0.15191312
81	0x3d987ab3	0.07445278
82	0xbedb0994	-0.42780745
83	0x3c918daa	0.017767746
84	0xbf38076f	-0.7188634
85	0xbe3574fb	-0.17720406
86	0xbe1b3aba	-0.15159121
87	0xbe33bbc6	-0.17552099
88	0x3e68750c	0.227009
89	0x3dc9fdd8	0.0986287
90	0xbd183fd7	-0.037170257
91	0x3ddf23a4	0.1089547
92	0x3f02d90d	0.51112443
93	0x3ea2a383	0.31765375
94	0x3d73fb93	0.05956609
95	0x3ec6e82b	0.38849005
96	0x3e13b02f	0.14422677
97	0xbe73ffd7	-0.23828064
98	0x3e9652d8	0.2936008
99	0x3e87e148	0.26539063
100	0xbe46713f	-0.19379137
101	0x3df348f9	0.11879153
102	0x3e98150b	0.29703555
103	0x3e6189fc	0.22025293
104	0xbe91b39a	-0.28457338
105	0xba66b3f3	-0.0008800618
106	0xbdebb73a	-0.11509557
107	0x3e0e497b	0.13895218
108	0x3e741c23	0.23838858
109	0xbe7e8793	-0.24856405
110	0x3c887034	0.016655065
111	0xbd584203	-0.05279733
112	0x3f0ff241	0.56229025
113	0x3cd2a745	0.025714526
114	0xbf4de352	-0.8042499
115	0xbf604bb1	-0.87615496
116	0x3e14820f	0.14502738
117	0x3ee88f59	0.45421866
118	0xbd96ff35	-0.07372896
119	0xbc5f242a	-0.013619462
120	0xbe0549d2	-0.13016441
121	0x3e07fbc2	0.13279632
122	0x3eb64331	0.35598138
123	0x3dff521d	0.12466834
124	0x3e2c4604	0.16823584
125	0x3e7261e6	0.23670158
126	0x3e554baa	0.20829645
127	0xbd98f95d	-0.07469437
128	0x3d3c7c8c	0.046017215
129	0xbe33f930	-0.17575526
130	0xbc022203	-0.007942679
131	0x3e18eec2	0.14934829
132	0xbc25a752	-0.010110693
133	0xbf256fa0	-0.6462345
134	0xbd51a402	-0.0511818
135	0x3c46ee74	0.012141813
136	0xbd60229e	-0.054720514
137	0xbea40acc	-0.32039487
138	0xbe422d85	-0.18962677
139	0xbeb2ff6c	-0.34960496
140	0x3d138d56	0.03602346
141	0xbe21895e	-0.15775058
142	0xbeaa19fe	-0.33222955
143	0x3eb4354a	0.35196906
144	0xbe3d836f	-0.18507169
145	0xbca1348e	-0.01967838
146	0x3eace957	0.33771774
147	0x3de68323	0.11255481
148	0x3da08ced	0.078393795
149	0x3ee439ff	0.44575498
150	0x3cb36b8a	0.021901865
151	0x3cb03fc5	0.021514783
152	0x3d230a27	0.039804604
153	0xbebe631b	-0.37184986
154	0x3eceb376	0.40371293
155	0xbf4f9417	-0.8108534
156	0xbe64000e	-0.22265646
157	0x3e316732	0.17324522
158	0xbe52b4ba	-0.20576754
159	0x3de3681a	0.1110384
160	0xbe384862	-0.17996362
161	0x3e81d072	0.25354344
162	0xbc9cf66e	-0.019160476
163	0x3d564e0a	0.052320518
164	0xbf5e4c95	-0.86835605
165	0xbdfb8000	-0.122802734
166	0x3cb0635d	0.021531755
167	0x3e4676f5	0.19381316
168	0xbd5e422f	-0.054262336
169	0x3eb50f0a	0.35363036
170	0x3e917c23	0.2841502
171	0x3ec7c0db	0.39014325
172	0x3e34ad84	0.17644316
173	0x3ec16ec3	0.37779817
174	0xbe3a852a	-0.1821486
175	0x3f39aaeb	0.72526425
176	0x3c41f54a	0.011838267
177	0x3c8efb45	0.017453799
178	0xbd5f2c9f	-0.054485913
179	0x3deb538c	0.11490545
180	0x3cf7a697	0.030230803
181	0x3e0d78af	0.13815568
182	0x3f289826	0.6585716
183	0xbe720c68	-0.23637545
184	0xbdf8f133	-0.1215538
185	0x3e279234	0.16364366
186	0x3e8136ed	0.25237218
187	0x3b309e5f	0.0026949865
188	0x3e3185e9	0.17336239
189	0x3e8ed1df	0.27894494
190	0x3e906234	0.28199923
191	0x3e535319	0.20637168
192	0xbee4e2b7	-0.4470422
193	0xbe087148	-0.13324463
194	0xbf12640a	-0.571839
195	0xbe3cc991	-0.18436266
196	0x3d9f0fa3	0.07766654
197	0x3e055038	0.13018882
198	0xbe7310e0	-0.23736906
199	0x3e66bd50	0.22533154
200	0xbb41a564	-0.0029548043
201	0x3d4834ce	0.048878483
202	0xbe8438bd	-0.25824538
203	0x3e932270	0.2873721
204	0x3eafc609	0.34330776
205	0xbf14cac8	-0.5812192
206	0xbd2ec99f	-0.04267275
207	0xbe38ad1f	-0.1803479
208	0x3e41444b	0.18873708
209	0xbe0c60a6	-0.13708743
210	0xbe75d599	-0.24007262
211	0xbd591231	-0.052995864
212	0xbbaa87cf	-0.005204178
213	0x3d7893bd	0.06068777
214	0x3f151ebd	0.5825003
215	0x3f75e156	0.9604696
216	0x3ebc53fa	0.3678282
217	0x3e334f43	0.17510705
218	0x3e573af3	0.21018581
219	0xbc63c711	-0.013902442
220	0xbb87930b	-0.004137402
221	0x3e9130cf	0.2835755
222	0xbe8a1e5b	-0.26976284
223	0x3d8e1cba	0.06939073
224	0x3ef06d81	0.46958545
225	0x3ed91255	0.423968
226	0x3e71af15	0.23601945
227	0x3e8537b4	0.2601906
228	0x3dd04d54	0.10170999
229	0xbe1c7f8d	-0.15283032
230	0xbbd588ae	-0.0065165376
231	0xbe58f548	-0.21187317
232	0xbe0e99d8	-0.13925874
233	0x3f0d1d5a	0.5512291
234	0xbdab9044	-0.08377126
235	0xbf05fa85	-0.5233539
236	0xbe141ade	-0.14463374
237	0x3d51b9bd	0.051202524
238	0xbe16bf92	-0.14721516
239	0x3de51c65	0.111870565
240	0x3de40225	0.111332215
241	0xbe86af40	-0.2630558
242	0x3e1f0898	0.15530622
243	0xbe5b0c2b	-0.2139136
244	0x3eb3864b	0.35063395
245	0x3edbb2d0	0.4290986
246	0xbd1ab8de	-0.03777396
247	0xbec84caa	-0.3912099
248	0xbe0518a6	-0.12997684
249	0xbebc156a	-0.36735088
250	0xbe07f660	-0.13277578
251	0xbdf7c9d6	-0.12099044
252	0x3e4f4fc1	0.20245267
253	0x3eee8ae7	0.4659035
254	0xbe5d6180	-0.21619225
255	0xbef88197	-0.4853637

bias f4 [64]
0	0xbe4e6cdb	-0.20158713
1	0xbddb60df	-0.10711836
2	0xbe79fab7	-0.24412046
3	0x3e921923	0.28534803
4	0x3e0f42b0	0.13990283
5	0x3e964ee2	0.29357058
6	0xbe8f7a5b	-0.28023037
7	0x3b1b078a	0.0023655617
8	0x3d9d9a19	0.076954074
9	0x3e6c8f4a	0.23101535
10	0xbc960db4	-0.018317081
11	0x3efb2ac6	0.4905607
12	0xbdef1219	-0.11673374
13	0x3cedbc7c	0.02902054
14	0xbc76a6b8	-0.015054397
15	0xbd409edf	-0.04702651
16	0xbe0c535e	-0.13703677
17	0xbe6d3c4d	-0.23167534
18	0x3e6bcf6c	0.23028344
19	0x3df86604	0.12128833
20	0xbdeeebd3	-0.11666074
21	0x3e2f8fe7	0.17144738
22	0x3e36eebb	0.17864506
23	0xbe166ce5	-0.14689977
24	0xbe45410b	-0.19263093
25	0x3dcc4468	0.09973985
26	0x3d099cb0	0.033596694
27	0xbe2014d5	-0.15632947
28	0xbe9c1a6b	-0.30488905
29	0x3d16d6f1	0.036826078
30	0x3e1a25a4	0.15053421
31	0xbe909b52	-0.282435
32	0xbe247ef0	-0.16064048
33	0x3dd3e01f	0.10345482
34	0xbe966ce5	-0.29379955
35	0x3e7327c2	0.23745635
36	0x3e6b2918	0.22964895
37	0xbde2f376	-0.11081593
38	0xbe1abdb6	-0.15111431
39	0x3dd6e6ad	0.10493217
40	0xbe1d641b	-0.15370218
41	0x3e95b9a6	0.292432
42	0x3cf1e7ea	0.02952953
43	0xbdd96602	-0.106151596
44	0xbe46c47a	-0.19410887
45	0x3de49933	0.11162033
46	0xbe1c3131	-0.1525314
47	0xbe93d7f1	-0.28875688
48	0x3e094f73	0.13409214
49	0xbe082db7	-0.13298689
50	0xba5b4a44	-0.00083652535
51	0x3e7dc358	0.24781549
52	0xbebfa383	-0.37429437
53	0xbeb49358	-0.35268664
54	0xbeea77ed	-0.4579462
55	0x3df17a3d	0.11790893
56	0x3d075b08	0.0330458
57	0x3e91e777	0.28496906
58	0x3e65e68f	0.22451232
59	0x3ec07e8a	0.37596542
60	0xbeac6b6c	-0.33675706
61	0x3dfaf354	0.122534424
62	0x3eb53e68	0.35399175
63	0xbe091fac	-0.13390988

weight f4 [32, 32]
0	0xbdba72cc	-0.09103927
1	0xbe41d003	-0.18927006
2	0x3e5d97bf	0.21639918
3	0x3ca1ff1b	0.019774964
4	0xbe198a4f	-0.14994167
5	0x3c8fc1f2	0.017548535
6	0xbd766341	-0.06015325
7	0x3dbc6309	0.09198577
8	0xbe2677b5	-0.16256602
9	0xbf0b5f23	-0.5444204
10	0x3deb3c36	0.11486094
11	0x3d797ead	0.060911823
12	0xbd15948b	-0.036518615
13	0x3e4d9e97	0.20080028
14	0xbe4f4e90	-0.20244813
15	0x3e99834b	0.2998298
16	0x3c25a781	0.010110737
17	0x3e863226	0.26210135
18	0x3e3ae97b	0.18253128
19	0x3eb4f132	0.35340267
20	0xbe98a79a	-0.2981537
21	0x3e498533	0.19679718
22	0x3c111241	0.00885445
23	0xbf0546c8	-0.5206113
24	0xbd38eff8	-0.045150727
25	0x3e0d5a13	0.13803892
26	0x3e31d0c0	0.17364788
27	0x3e09c75c	0.13454956
28	0x3e21a764	0.1578651
29	0x3df12caa	0.11776097
30	0xbd88bf50	-0.06677115
31	0x3ea8de4a	0.32982093
32	0x3e302033	0.17199783
33	0xbd582123	-0.052765977
34	0xbf16a9a0	-0.5885258
35	0x3dc3869a	0.095471576
36	0xbe5e95d8	-0.21736848
37	0x3d71a03b	0.0589907
38	0x3e3b625c	0.1829924
39	0xbd93e02d	-0.072204925
40	0xbeb442f0	-0.3520732
41	0xbeb1926a	-0.34682018
42	0xbe8f1a12	-0.27949578
43	0xbe9e9df5	-0.30979887
44	0x3eac12a6	0.33607978
45	0xbd03be8a	-0.032164134
46	0xbd2e807f	-0.042603012
47	0xbdd2a8fb	-0.10286137
48	0x3caf8e02	0.02143002
49	0x3e55f08f	0.20892547
50	0x3e7cc76b	0.24685447
51	0x3ef07036	0.4696061
52	0x3e303d7b	0.17210953
53	0xbded8404	-0.115974456
54	0xbd472f69	-0.0486292
55	0x3d94596c	0.07243618
56	0x3dd4cd23	0.10390689
57	0xbc9e8ba9	-0.019353705
58	0x3e1fde33	0.15612106
59	0x3e1ac88a	0.15115562
60	0xbe4f71a1	-0.2025819
61	0xbeaa07ff	-0.33209226
62	0x3e6621eb	0.22473876
63	0xbdf3ed87	-0.11910539
64	0x3e96528f	0.29359862
65	0xbe5d76c8	-0.21627343
66	0x3e3855b0	0.18001437
67	0xbf239abf	-0.63908
68	0xbe80b2e8	-0.25136495
69	0x3d29ef3b	0.041487914
70	0xbe62a37f	-0.22132681
71	0xbe5ca14c	-0.21545905
72	0xbe4d5e07	-0.200554
73	0x3e721b26	0.23643169
74	0x3e2c6be0	0.16838026
75	0xbdc447b5	-0.095839895
76	0xbed7c459	-0.4214199
77	0x3ec63dfa	0.3871916
78	0xbecb6894	-0.39728224
79	0x3cc7ee0d	0.024405504
80	0x3d34e03e	0.044159167
81	0x3ec81458	0.3907802
82	0x3ec059de	0.37568563
83	0xbeff3cfa	-0.4985121
84	0xbd9c6b23	-0.07637622
85	0x3da35b42	0.079763904
86	0xbe0232c1	-0.12714674
87	0xbebcd7c3	-0.36883363
88	0xbdd260ac	-0.10272345
89	0xbdacfed0	-0.08447039
90	0x3cdfa96a	0.027302463
91	0xbddbff34	-0.107420355
92	0x3e5af8f5	0.21384032
93	0xbe6d3858	-0.23166025
94	0xbe8c612f	-0.27417895
95	0xbd283f07	-0.041075733
96	0x3eadbe4b	0.33934245
97	0xbe5419ca	-0.20712963
98	0x3e48efed	0.19622774
99	0x3e43610c	0.19079989
100	0xbe04fc3c	-0.12986845
101	0x3e444db9	0.19170274
102	0x3ec14773	0.37749824
103	0xbe76cc3f	-0.24101351
104	0xbe5d4642	-0.21608832
105	0x3e9c8f83	0.3057824
106	0x3e09a193	0.13440542
107	0xbe19e199	-0.15027465
108	0x3eab862b	0.335008
109	0xbe3d5495	-0.18489297
110	0xbd399216	-0.045305334
111	0xbc687e53	-0.014190274
112	0xbe88f909	-0.267525
113	0x3d0fded9	0.035124633
114	0xbe2598aa	-0.16171518
115	0x3e938399	0.2881134
116	0xbd64e8bf	-0.055886026
117	0x3d12289c	0.03568326
118	0x3e1e426a	0.15455022
119	0x3d6f59b9	0.058435176
120	0xbd99166a	-0.07474978
121	0x3b59bea6	0.0033225208
122	0x3db6c1d7	0.08923691
123	0x3ebb715c	0.36609924
124	0xbddd13cd	-0.10794792
125	0xbb5edbe6	-0.0034005581
126	0x3e78c800	0.24295044
127	0x3d7b9456	0.06142076
128	0xbea1c984	-0.31599057
129	0xbd5118ff	-0.05104923
130	0x3e60d619	0.21956672
131	0xbe12c15b	-0.14331572
132	0x3e41b7f1	0.18917824
133	0xbdbad03b	-0.09121748
134	0x3da9101e	0.08255027
135	0x3e921556	0.28531903
136	0x3d9e291d	0.077226855
137	0xbe930b73	-0.28719673
138	0x3dbc7122	0.09201266
139	0x3e4b1fe7	0.19836389
140	0xbdee16c6	-0.116254374
141	0x3db66f77	0.08907979
142	0x3cf8ae7f	0.030356644
143	0x3d7c11c2	0.061540373
144	0xbda44353	-0.080206536
145	0x3c099d43	0.0083993105
146	0x3d89a9c2	0.06721832
147	0x3e92836d	0.28615895
148	0x3e3eea5f	0.18644093
149	0xbeb786bd	-0.35844985
150	0x3e171259	0.14753093
151	0x3e2c68f7	0.16836916
152	0x3e1e0c57	0.15434395
153	0x3ed07f3c	0.40722072
154	0xbc41fb55	-0.011839707
155	0xbe7b39a3	-0.24533705
156	0x3da852f0	0.08218944
157	0x3ebf6f1d	0.3738946
158	0x3c8daa45	0.017293105
159	0xbe2840d8	-0.16430986
160	0x3effa3c4	0.4992963
161	0xbd4d6fa1	-0.050155286
162	0x3c90b0d4	0.017662443
163	0xbf06b2c2	-0.5261651
164	0xbcb97693	-0.022639548
165	0x3e74893d	0.23880477
166	0xbce17c00	-0.027524948
167	0xbe0867c5	-0.13320835
168	0xbcd9f103	-0.026604181
169	0x3e2171ae	0.15766022
170	0x3dd9e187	0.10638719
171	0x3dceb28c	0.10092649
172	0xbe1316d2	-0.14364174
173	0x3e293470	0.1652391
174	0xbe77c805	-0.24197395
175	0xbdf0d6db	-0.117597304
176	0xbdce2407	-0.100654654
177	0xbe0a949e	-0.13533255
178	0x3df2d631	0.1185726
179	0xbec21082	-0.3790322
180	0xbe0b88ae	-0.13626358
181	0x3ddd61e1	0.108096845
182	0xbe5a8324	-0.21339089
183	0xbbcaaaf4	-0.00618493
184	0xbe75f815	-0.24020417
185	0x3eb9844e	0.36233753
186	0x3cbc4f29	0.022986965
187	0x3d1431e8	0.036180407
188	0xbdc80df9	-0.0976829
189	0xbe8f7a7c	-0.28023136
190	0xbd6f38c7	-0.058403756
191	0x3d376464	0.044773474
192	0xbe335060	-0.1751113
193	0x39465bad	0.00018916903
194	0x3df4232a	0.119207695
195	0x3d354413	0.044254374
196	0x3ca037ba	0.019557822
197	0xbe022f5f	-0.12713383
198	0x3f04606b	0.5170962
199	0x3e9402ce	0.2890839
200	0x3de808e2	0.11329819
201	0x3e2dfd71	0.16991211
202	0x3d5c303d	0.05375694
203	0x3eb964b5	0.36209646
204	0xbe53b32e	-0.2067382
205	0xbe4056d8	-0.18783128
206	0x3e6c298b	0.23062722
207	0xbe2b565a	-0.1673216
208	0xbdab5921	-0.08366609
209	0xbe99e243	-0.30055436
210	0xbe865287	-0.26234838
211	0x3d7512e6	0.059832476
212	0x3d442d9d	0.047895063
213	0xbeb99b07	-0.3625109
214	0x3ebb59b8	0.36591887
215	0x3ee82942	0.45343977
216	0x3e2c580e	0.16830465
217	0x3e53bb8c	0.20677012
218	0x3d431701	0.04762936
219	0xbe01301b	-0.12616007
220	0xbde2ebec	-0.11080155
221	0xbc18332f	-0.009289547
222	0x3dabca0c	0.08388147
223	0xbdc8313d	-0.097750165
224	0x3e823a75	0.25435224
225	0xbcb387b1	-0.021915289
226	0x3e39a9fe	0.18131253
227	0xbe85b16e	-0.2611193
228	0x3dc0764b	0.093975626
229	0x3e782dda	0.24236241
230	0x3e970ff1	0.2950435
231	0x3e39f4c4	0.18159777
232	0xbe02397d	-0.12717243
233	0x3bd91314	0.0066245887
234	0xbdde4e12	-0.108547345
235	0x3e46686d	0.19375773
236	0x3e95b1ec	0.29237306
237	0x3df02ae3	0.1172693
238	0xbca77980	-0.020443678
239	0x3e90ad8d	0.2825741
240	0x3dabb756	0.08384578
241	0x3e0ca1a4	0.13733536
242	0x3d02d45b	0.0319408
243	0x3ef84109	0.48487118
244	0x3e253ced	0.16136523
245	0x3d9a31c7	0.075290255
246	0x3dc9fe96	0.098630115
247	0xbd7985cf	-0.060918625
248	0x3e2fc9d3	0.17166834
249	0x3dccd7e0	0.100021124
250	0x3dac58f0	0.08415401
251	0x3e5cccef	0.21562551
252	0x3d19234d	0.03738718
253	0xbd8942dc	-0.067022055
254	0x3e2921a9	0.16516747
255	0xbdb5f70a	-0.088850096

bias f4 [32]
0	0xbe2f0f26	-0.17095622
1	0xbda65bc4	-0.08122972
2	0x3e63aa4c	0.22232932
3	0xbda75f7a	-0.081725076
4	0xbe611d0a	-0.21983734
5	0x3dee1525	0.11625127
6	0x3d8644fe	0.06556128
7	0x3e1ef018	0.15521276
8	0x3dbaa292	0.09113039
9	0xbcb60576	-0.0222194
10	0x3dfc8be5	0.1233137
11	0x3e252da3	0.1613069
12	0xbddaefc8	-0.10690266
13	0xbb6a49fc	-0.0035749665
14	0xbd0eb078	-0.034836262
15	0x3e3cbea8	0.18432105
16	0xbe401673	-0.18758564
17	0x3db2823c	0.087162465
18	0x3d3bff92	0.045898028
19	0xbd342099	-0.0439764
20	0x3e1b33f8	0.15156543
21	0xbde03468	-0.10947496
22	0xbdb03d80	-0.0860548
23	0x3dbe5f91	0.092955716
24	0xbdbc8d8b	-0.09206685
25	0x3d871bbc	0.06597087
26	0xbe3a9f95	-0.18224938
27	0xbe853b58	-0.26021838
28	0xbe582444	-0.21107584
29	0xbe39bd3d	-0.18138595
30	0xbca50d4b	-0.02014794
31	0xbc96209d	-0.018326098

weight f4 [32, 64]
0	0xbd50c808	-0.050972015
1	0x3b87ada0	0.0041405708
2	0xbd7e4a08	-0.06208232
3	0x3d411508	0.047139198
4	0xbdda2048	-0.106506884
5	0x3dbba8c4	0.09163049
6	0xbdba1234	-0.09085503
7	0xbdcb87de	-0.09938024
8	0xbda1c35a	-0.078985885
9	0x3d67e1a8	0.056611687
10	0xbd3d2e14	-0.04618652
11	0x3d3f98e4	0.046776667
12	0xbdd94654	-0.10609117
13	0xbd9b523e	-0.07584046
14	0xbd3bfe80	-0.045897007
15	0xbcc93c78	-0.024564967
16	0xbdc34b04	-0.095357925
17	0x3da7a05e	0.081848845
18	0xbcf17db8	-0.029478893
19	0x3d245880	0.040123463
20	0x3db5075c	0.08839294
21	0x3cbec700	0.02328825
22	0x3d0c01bc	0.03418134
23	0x3df71b32	0.12065734
24	0xbd66eab4	-0.056376174
25	0x3d222d38	0.039593905
26	0xbd63cc0c	-0.055614516
27	0x3db6f348	0.08933121
28	0x3dcc74c0	0.09983206
29	0xbdec0660	-0.115246534
30	0x3dda8888	0.106705725
31	0x3d747cc4	0.0596893
32	0x3d5f1cdc	0.05447088
33	0x3d52c70c	0.051459357
34	0x3dd4d004	0.10391238
35	0xbc873560	-0.016504943
36	0xbdd87fb2	-0.10571231
37	0xbd12eaf8	-0.035868615
38	0xbdb44b58	-0.08803433
39	0x3c0762f0	0.008263335
40	0xbcbf3040	-0.023338437
41	0xbd895086	-0.06704812
42	0xbc3a3500	-0.011365175
43	0x3df2890e	0.11842547
44	0xbc218970	-0.009859428
45	0x3b820c60	0.0039687604
46	0xbc9fb420	-0.01949507
47	0x3ca0fae0	0.019650877
48	0x3de41968	0.11137658
49	0x3d9c8acc	0.07643661
50	0x3d35bd84	0.04437019
51	0x3cde86a8	0.027163818
52	0x3cf173b0	0.02947411
53	0x3d45cd78	0.048291653
54	0xbc845328	-0.016152933
55	0xbdededbc	-0.1161761
56	0xbd9e503e	-0.07730149
57	0x3dda8498	0.106698215
58	0x3bf4d500	0.0074716806
59	0xbdcf60fa	-0.10125919
60	0x3ca18350	0.019715935
61	0x3dd3868a	0.10328396
62	0xbdf1eb80	-0.11812496
63	0xbdac596a	-0.08415492
64	0xbd4be978	-0.0497832
65	0x3ba46740	0.005017191
66	0xbceed3b0	-0.029153675
67	0xbc610ea0	-0.013736397
68	0xbdf99266	-0.121861264
69	0x3d6fc248	0.05853489
70	0x3de0b3c8	0.109717906
71	0x3d9c7a1e	0.076404795
72	0xbdb5482a	-0.08851655
73	0xbdce5cca	-0.10076292
74	0x3d549bf4	0.05190654
75	0x3b37fb00	0.0028073192
76	0x3d51e278	0.051241368
77	0xbdfa2698	-0.122143924
78	0xbbf43740	-0.0074528754
79	0x3db48ada	0.08815546
80	0x3d6d85cc	0.057988927
81	0x3b959340	0.0045646727
82	0x3cc95680	0.02457738
83	0xbc41e7a0	-0.011835009
84	0xbd8cc1e4	-0.06872919
85	0xbd417c04	-0.04723741
86	0xbd9be618	-0.07612246
87	0x3dd4a2ce	0.10382615
88	0x3d8cdf96	0.06878583
89	0x3d330ed8	0.043715328
90	0xbdc45072	-0.09585656
91	0x3dc58902	0.09645273
92	0x3d2088ac	0.03919284
93	0x3db11974	0.08647433
94	0xbd496a6c	-0.049173757
95	0x3cd915b8	0.026499614
96	0x3df9f432	0.1220478
97	0x3dac3364	0.084082395
98	0x3dcd4fa8	0.10024959
99	0xbcd70640	-0.026248097
100	0x3dc30a62	0.09523465
101	0xbdc881e8	-0.09790403
102	0x3c312120	0.01081112
103	0xbd90245e	-0.070381865
104	0xbceecff8	-0.029151902
105	0xbd031f34	-0.03201218
106	0x3c193ac0	0.009352386
107	0x3de8feea	0.11376746
108	0x3d7d7ba4	0.06188549
109	0xba0ad000	-0.00052952766
110	0x3db5b870	0.08873069
111	0xbd83304a	-0.06405695
112	0x3d83ef62	0.06442143
113	0xbc3deaa0	-0.0115915835
114	0xbcb22fe8	-0.02175136
115	0x3c6fc430	0.014634177
116	0xbdc41eea	-0.09576209
117	0x3c6ca950	0.014444664
118	0x3d2c2764	0.042029753
119	0x3ddadcce	0.106866464
120	0xbd1f685c	-0.038917884
121	0x3d385588	0.045003444
122	0x3dffe006	0.12493901
123	0xbd5ba1d4	-0.05362113
124	0x3df35a06	0.11882405
125	0xbd7e3434	-0.062061504
126	0x3d61afe0	0.055099368
127	0x3d489378	0.048968762
128	0x3d0f0418	0.034916013
129	0x3dca7212	0.098850384
130	0xbd4eeea4	-0.050520554
131	0x3d069038	0.03285238
132	0x3a37e600	0.00070151687
133	0xbdc08c5a	-0.0940177
134	0xbcf8a438	-0.030351743
135	0xbdaaf674	-0.083477885
136	0x3d626230	0.05526942
137	0x3c381b60	0.011236995
138	0x3c48a1b0	0.012245581
139	0xbd1b5368	-0.03792134
140	0x3a1d9100	0.00060106814
141	0xbd1f410c	-0.038880393
142	0x3d131db8	0.035917014
143	0x3df89e94	0.121396214
144	0x3c9b1b18	0.018933818
145	0xbd62c630	-0.055364788
146	0xbd9c5f3a	-0.076353505
147	0x3c1c8c10	0.009554878
148	0xbdbde9a2	-0.092730775
149	0xbdc06c26	-0.09395628
150	0xbda69fe0	-0.081359625
151	0xbd2de5ec	-0.0424556
152	0x3c179680	0.009252191
153	0x3db048da	0.08607645
154	0x3d465158	0.04841742
155	0x3dc4205c	0.095764846
156	0xbda0bde2	-0.07848717
157	0x3c2cd3b0	0.010548517
158	0xbde38db0	-0.11111009
159	0x3d92db32	0.071707144
160	0x3cd56968	0.026051238
161	0x3df79b62	0.12090184
162	0xbdb61200	-0.08890152
163	0x3dcd4b46	0.10024123
164	0x3dd81f3a	0.10552831
165	0x3dcefb02	0.1010647
166	0x3c921e98	0.017836854
167	0x3de8c688	0.11365992
168	0x3daaf73c	0.083479375
169	0x3dbeff0e	0.093259916
170	0xbc050a30	-0.008120105
171	0xbdc47434	-0.095924765
172	0xbacbe200	-0.0015555024
173	0x3cc00a08	0.023442283
174	0xbdae6118	-0.08514613
175	0xbd92da04	-0.071704894
176	0xbdf57068	-0.119843304
177	0xbd337af4	-0.04381843
178	0x3ddefe58	0.10888356
179	0x3caf1998	0.021374509
180	0xbbfa2f20	-0.0076350123
181	0x3ba47cc0	0.005019754
182	0x3d9fa0b0	0.077943206
183	0xbde21074	-0.110382944
184	0xbdc586e6	-0.096448705
185	0xbd2a3990	-0.041558802
186	0xbd935528	-0.07193977
187	0x3d840a7e	0.06447314
188	0x3db4e2a8	0.08832294
189	0xbdf860b8	-0.12127823
190	0xbdd94312	-0.10608496
191	0xbdf94c20	-0.12172723
192	0x3d412780	0.04715681
193	0x3dce0af2	0.100606814
194	0xbdc67cb0	-0.09691751
195	0xbd6d08a0	-0.057869554
196	0x3d22edd0	0.039777577
197	0xbda72a0c	-0.08162317
198	0x3dd9777e	0.106184945
199	0x3ceec1d0	0.029145151
200	0xbd0e884c	-0.03479795
201	0x3c0504d0	0.008118823
202	0x3d1fa020	0.038971066
203	0xbd350cc8	-0.044201642
204	0xbdc65cf4	-0.09685698
205	0x3a5c4100	0.000840202
206	0x3b153780	0.0022768676
207	0x3b253180	0.0025206506
208	0xbc956ec0	-0.018241286
209	0x3da45eee	0.08025919
210	0xbd0ee0d8	-0.034882396
211	0xbc463b40	-0.012099087
212	0x3d528730	0.051398456
213	0xbda122ce	-0.078679666
214	0x3d0917a8	0.033469826
215	0xbce26c28	-0.027639464
216	0x3d7597c4	0.059959188
217	0xbd8adef2	-0.06780805
218	0x3b9761a0	0.004619792
219	0x3c485ac0	0.012228668
220	0xbdcdfa0a	-0.10057457
221	0xbdba25fe	-0.09089278
222	0x3d445bdc	0.047939166
223	0xbd15055c	-0.036382064
224	0x3d98099c	0.07423708
225	0xbdfce490	-0.12348282
226	0xbd7d18a4	-0.061791077
227	0xbdd2db82	-0.10295774
228	0x3d4c8784	0.049933925
229	0xbb6d7f40	-0.0036239177
230	0xbcbeff78	-0.023315176
231	0xbcaa5d40	-0.020796418
232	0xbdc81a24	-0.09770611
233	0x3d11335c	0.03544937
234	0x3b4c3140	0.0031157285
235	0xbdb0ab3e	-0.08626412
236	0x3d40a8c8	0.047035962
237	0xbb24a6c0	-0.0025123805
238	0xbdf796fc	-0.12089345
239	0x3d89b524	0.06724003
240	0x3d88ee5c	0.066860884
241	0xbcc0ee98	-0.02355127
242	0xbdb0c08e	-0.08630477
243	0x3ba47460	0.005018756
244	0x3dc12c24	0.09432247
245	0x3dea53b6	0.11441748
246	0xbdc13aa4	-0.09435013
247	0xbd674128	-0.056458622
248	0x3dc753ee	0.09732805
249	0x3d7a4124	0.06109728
250	0x3d9e77a2	0.07737662
251	0xbd7ed708	-0.06221679
252	0x3ddc8d86	0.10769181
253	0xbdd272ea	-0.10275824
254	0xbbc54cc0	-0.006021112
255	0x3b2a1700	0.002595365

bias f4 [32]
0	0x3bc4a0e0	0.006000623
1	0xbdf590fa	-0.11990543
2	0x3c824228	0.015900686
3	0x3d34205c	0.043976173
4	0x3de51af6	0.11186783
5	0xbd25f43c	-0.040516123
6	0x3d38ac5c	0.04508625
7	0xbd2b9140	-0.041886568
8	0xbd340bb4	-0.043956473
9	0xbde2d6e8	-0.11076146
10	0x3cd823a8	0.02638419
11	0x3dabc6c2	0.083875194
12	0xbd8e6972	-0.06953706
13	0x3d5152e4	0.05110444
14	0xbc9fbaf8	-0.019498333
15	0xbdb5c1a4	-0.08874825
16	0x3c5a6040	0.013328612
17	0xbdf978e2	-0.1218126
18	0x3d893b9e	0.06700824
19	0xbce24198	-0.027619168
20	0x3debc534	0.11512223
21	0x3b973520	0.0046144873
22	0xbdf8308a	-0.12118633
23	0x3dc6a8d2	0.09700169
24	0xbcdffb10	-0.027341396
25	0xbdaf5ae6	-0.085622594
26	0x3dec5cbc	0.11541125
27	0x3c3f4760	0.011674732
28	0x3d25ff34	0.040526584
29	0xbddd7652	-0.108135834
30	0xbd34d278	-0.04414603
31	0x3dcd66e6	0.10029392

weight_ih_l0 f4 [128, 32]
0	0xbcc324b7	-0.023821218
1	0x3dd442aa	0.10364278
2	0xbddfa3e0	-0.109199286
3	0x3d154156	0.036439262
4	0xbe3faacb	-0.18717496
5	0x3e30e855	0.17276128
6	0xbe2a9794	-0.16659385
7	0xbec2e655	-0.38066354
8	0xbe127466	-0.14302215
9	0x3e9549a1	0.29157737
10	0xbe51d60c	-0.20491809
11	0xbe06eb54	-0.13175708
12	0x3d40a4dd	0.047032226
13	0xbdc5500f	-0.096344106
14	0x3e0250b2	0.12726095
15	0x3e441bbe	0.19151208
16	0x3db29d54	0.08721414
17	0x3e1eae1c	0.15496105
18	0xbe881fa9	-0.26586655
19	0x3d822c53	0.063561104
20	0xbe9781b7	-0.29591152
21	0xbd83f8a8	-0.06443912
22	0xbe8458b2	-0.2584892
23	0xbea5688e	-0.3230633
24	0xbe1b3894	-0.15158302
25	0xbe7a9e61	-0.2447448
26	0xbce28520	-0.02765137
27	0xbc8063fa	-0.015672673
28	0x3d94dc04	0.07268527
29	0xbe29bc83	-0.16575818
30	0x3e8f9906	0.28046435
31	0xbec4d446	-0.38443202
32	0xbc16e40a	-0.009209642
33	0xbe020e02	-0.12700656
34	0xbe8638a4	-0.26215088
35	0xbe1d4e9b	-0.15362017
36	0x3d8e6d81	0.0695448
37	0x3d874154	0.06604257
38	0x3dadfd22	0.08495547
39	0xbe7261e5	-0.23670156
40	0xbdcaf069	-0.09909136
41	0x3e9779ba	0.29585057
42	0x3e19f898	0.15036237
43	0xbb82fa0e	-0.003997094
44	0x3eaee24a	0.3415702
45	0x3d2c368f	0.04204422
46	0xbd920dd4	-0.07131544
47	0xbe7ce2f7	-0.24695955
48	0xbaacb9e8	-0.0013177963
49	0x3d7d747b	0.061878663
50	0xbdcfaf8b	-0.10140904
51	0x3e142dfe	0.1447067
52	0xbe9df91b	-0.30854115
53	0xbd7e3729	-0.062064324
54	0xbcfd4f09	-0.030921476
55	0xbecd77cb	-0.40130457
56	0x3dab1ee7	0.083555035
57	0x3d45c712	0.04828555
58	0x3e35a02d	0.17736883
59	0xb9dc8a0a	-0.00042064517
60	0xbd8a5e96	-0.06756322
61	0x3cffa80a	0.031208057
62	0x3e342098	0.17590559
63	0xbe0fb505	-0.14033897
64	0x3e21289c	0.15738147
65	0x3e977357	0.29580185
66	0x3dc511d4	0.09622541
67	0xbe0c3607	-0.13692485
68	0x3da66435	0.08124582
69	0xbe7df5a9	-0.24800743
70	0x3d49e0f3	0.049286794
71	0xbea80a3a	-0.32820302
72	0x3c82dc2f	0.015974132
73	0x3e89e972	0.26935917
74	0x3e4188a4	0.1889978
75	0xbe94f619	-0.29094008
76	0xbdc29735	-0.09501497
77	0xbdda0c73	-0.10646906
78	0x3cc03b46	0.023465764
79	0xbe20b96f	-0.15695737
80	0x3edba46c	0.4289888
81	0x3eeb02ff	0.45900723
82	0xbbfc18f9	-0.0076934067
83	0x3e12c65d	0.14333482
84	0xbd2ef207	-0.042711284
85	0x3e0f2d5a	0.13982144
86	0xbe9ca7db	-0.30596814
87	0xbf1bd7ed	-0.6087635
88	0xbda619ec	-0.08110413
89	0xbedc084f	-0.4297509
90	0x3e0f94c9	0.14021601
91	0x3e90721a	0.28212053
92	0x3e1c7d40	0.15282154
93	0xbe208719	-0.15676536
94	0x3ca2947e	0.019846197
95	0xbb0513f7	-0.002030609
96	0x3d162fa8	0.036666542
97	0x3d146bb9	0.036235545
98	0xbe219791	-0.15780474
99	0xbf0afb30	-0.5428953
100	0xbe504f5e	-0.20342776
101	0xbdb93792	-0.09043802
102	0x3d79a5a7	0.060948994
103	0xbf257e22	-0.6464559
104	0x3d3f4b0b	0.046702426
105	0x3e8d0d6c	0.27549303
106	0xbddf1a7b	-0.108937226
107	0x3e5a29fa	0.21305075
108	0x3ec989a0	0.39362812
109	0xbe196367	-0.14979325
110	0x3e2018bb	0.15634434
111	0x3ea66392	0.3249784
112	0x3d8db999	0.069201656
113	0x3e7a9f9d	0.2447495
114	0xbe6a1cba	-0.22862521
115	0xbe78fe58	-0.24315774
116	0x3c67c3b6	0.014145782
117	0xbe7ded81	-0.24797632
118	0xbe2c32b5	-0.16816218
119	0xbf15da8d	-0.5853661
120	0xbe0749bd	-0.13211723
121	0xbea22848	-0.31671357
122	0xbd22e311	-0.03976733
123	0x3dbfb292	0.093602315
124	0xbc756c93	-0.014979499
125	0x3de42a73	0.11140909
126	0x3d85f46b	0.0654076
127	0xbcdc0410	-0.026857406
128	0xbe062b79	-0.13102521
129	0x3c6c3794	0.014417548
130	0x3dc04126	0.09387426
131	0xbedef516	-0.4354636
132	0xbe92389d	-0.28558818
133	0xbda96dc7	-0.082728915
134	0xbdcb4a91	-0.09926332
135	0xbee06680	-0.438282
136	0xbd4469fe	-0.047952645
137	0x3e480183	0.19531827
138	0x3d9a2ef4	0.07528487
139	0x3e5674c4	0.2094298
140	0x3edd47b3	0.43218765
141	0xbe4cd6b8	-0.20003784
142	0xbc8ffb56	-0.017575901
143	0x3e0ca9c2	0.13736632
144	0x3d99f408	0.075172484
145	0x3f1b87ce	0.60754097
146	0xbe9b75d4	-0.30363333
147	0xbe9cf5f1	-0.30656388
148	0xbd6d040c	-0.057865188
149	0xbeb2471b	-0.34819874
150	0xbe36d7b0	-0.17855716
151	0xbf124d02	-0.57148755
152	0xbe7bb5c9	-0.24581064
153	0xbe9a0a8b	-0.3008617
154	0x3db65f93	0.08904948
155	0x3e6cfe9f	0.23144005
156	0x3e5f1bb2	0.21787909
157	0xbde50980	-0.111834526
158	0xbe271ef4	-0.16320401
159	0xbd9b1950	-0.07573187
160	0xbe48df5d	-0.19616456
161	0x3bc7efaf	0.0061015706
162	0xbe4e011a	-0.20117608
163	0xbe196cf1	-0.14982964
164	0xbe859be9	-0.26095513
165	0x3e226a4c	0.15860862
166	0xbe53cf0e	-0.20684454
167	0xbe873d58	-0.2641399
168	0xbeb215af	-0.34782168
169	0x3e2cdefa	0.16881934
170	0xbe7f26c4	-0.24917132
171	0x3cad00f9	0.021118628
172	0x3e5a10d7	0.21295486
173	0x3da4f3a0	0.0805428
174	0x3d6d9c4f	0.058010396
175	0x3e6e6b40	0.232831
176	0x3e9e4150	0.30909204
177	0x3d8a60d4	0.0675675
178	0x3d08053f	0.033208128
179	0xbe8fdfaa	-0.2810033
180	0xbec4a537	-0.384073
181	0xbdfdb7b3	-0.123885535
182	0x3d745cbf	0.059658762
183	0xbecfa093	-0.40552196
184	0xbddf3ef8	-0.10900682
185	0xbe819a02	-0.2531281
186	0x3d351934	0.04421349
187	0x3dcae20b	0.099063955
188	0x3d580903	0.05274297
189	0xbc3bae3d	-0.011455116
190	0xbe8147dc	-0.25250137
191	0xbe4e085a	-0.20120373
192	0x3e640e29	0.22271027
193	0x3e01c294	0.12671882
194	0xbeb95f42	-0.36205488
195	0x3dc9f1cf	0.098605745
196	0x3e25a222	0.1617513
197	0xbd88191c	-0.06645414
198	0x3dbe2f3a	0.092863515
199	0xbe61acc1	-0.22038557
200	0xbdad7ed7	-0.084714584
201	0xbdfc0a86	-0.12306695
202	0xbdc736a7	-0.09727221
203	0xbe5a1236	-0.2129601
204	0xbce97994	-0.028500356
205	0xbc3c974a	-0.0115106795
206	0x3d5a5140	0.053300142
207	0xbe3fbcbc	-0.1872434
208	0x3e1c3800	0.15255737
209	0x3dfe8bb0	0.12428987
210	0xbe400e31	-0.18755414
211	0x3dff6dc3	0.12472107
212	0xbe6e12e2	-0.2324939
213	0x3d1d7cb6	0.03844901
214	0x3d344926	0.044015072
215	0xbed64d9a	-0.4185608
216	0x3b30ee3f	0.0026997474
217	0x3dcb636d	0.09931073
218	0xbd203025	-0.039108414
219	0x3ded3738	0.11582798
220	0xbcc506ce	-0.024051096
221	0x3c93abea	0.018026311
222	0xbda593d0	-0.080848336
223	0xbdaad000	-0.08340454
224	0xbd2e984d	-0.042625714
225	0x3ec8547f	0.39126965
226	0xbdcc01d7	-0.099612884
227	0xbeca2bd4	-0.39486563
228	0xbdee9c7a	-0.11650939
229	0xbf08c294	-0.534219
230	0xbd73b441	-0.059498075
231	0xbf126097	-0.57178634
232	0xbe65b978	-0.22434032
233	0x3e1a7c51	0.15086485
234	0x3de693a7	0.11258631
235	0xbe577461	-0.21040489
236	0xbb543ace	-0.0032383683
237	0xbf1b9686	-0.60776556
238	0x3d56faae	0.05248516
239	0xbdf6c144	-0.12048581
240	0x3e1a6ba4	0.15080124
241	0x3e93027e	0.2871284
242	0xbe721618	-0.2364124
243	0x3dbc4b55	0.09194056
244	0xbd3e670c	-0.046484992
245	0x3dba8645	0.09107641
246	0x3d8b4402	0.06800081
247	0xbf20ba2a	-0.62784064
248	0x3e9234a9	0.28555802
249	0xbea61d19	-0.32444075
250	0x3f0254a9	0.5091043
251	0x3eaa1b00	0.33223724
252	0x3e808201	0.25099185
253	0x3d195a5d	0.037439693
254	0xbe9b877b	-0.303768
255	0x3e5af919	0.21384086

weight_hh_l0 f4 [128, 32]
0	0x3b8a769b	0.0042255647
1	0x3de59c95	0.11211506
2	0xbdeec462	-0.11658551
3	0xbe1bf2d6	-0.15229353
4	0xbde96880	-0.11396885
5	0x3be9d29b	0.007135702
6	0x3e86111a	0.26184922
7	0x3df791d9	0.12088365
8	0x3df59f45	0.11993269
9	0xbd81deb1	-0.06341303
10	0xbd040690	-0.03223282
11	0xbd7e1d4d	-0.062039662
12	0xba7757b5	-0.00094353716
13	0xbd80a43b	-0.062813245
14	0x3dd8dab9	0.10588593
15	0x3e0e3505	0.13887413
16	0x3cc07a10	0.023495704
17	0xbb0d9a77	-0.002160696
18	0x3e240f67	0.160215
19	0xbd530f02	-0.051527984
20	0x3e8c137d	0.27358618
21	0xbb2a3068	-0.0025968794
22	0xbd9dd669	-0.07706911
23	0xbdf47f00	-0.11938286
24	0x3e5fa78e	0.21841261
25	0xbe026c63	-0.12736659
26	0x3dabb146	0.083834216
27	0x3e4091a8	0.18805563
28	0xbde43b5b	-0.11144134
29	0xbd83c772	-0.064345255
30	0x3df19c53	0.117973946
31	0xbd92a5b2	-0.0716051
32	0xbc53e85f	-0.01293382
33	0x3e2de3ea	0.16981474
34	0xbd7bbece	-0.061461262
35	0x3e8bc61f	0.27299592
36	0xbdb6e469	-0.089302845
37	0x3d818d56	0.06325786
38	0x3e4384d7	0.19093643
39	0xbdb221a5	-0.086978234
40	0x3e0c061e	0.13674209
41	0x3e405341	0.18781759
42	0xbe291520	-0.16511965
43	0xbb2f5f4c	-0.0026759682
44	0x3dd7d819	0.10539264
45	0xbddab5c0	-0.10679197
46	0x39a36754	0.00031166768
47	0xbc099392	-0.008397
48	0xbe3e1fe6	-0.18566856
49	0x3ba16511	0.004925378
50	0x3df2e8c6	0.11860804
51	0xbe110c96	-0.14164957
52	0x3da40b31	0.08009947
53	0xbe07ed7e	-0.1327419
54	0xbdeeb348	-0.11655289
55	0xbe942ad8	-0.28938937
56	0x3d977c92	0.07396807
57	0xbd306512	-0.04306514
58	0x3e2f3175	0.1710871
59	0xbc741028	-0.01489643
60	0x3e5f29c4	0.21793276
61	0xbcadb1e0	-0.021202981
62	0x3dad26c2	0.08454658
63	0xbdfcee86	-0.12350182
64	0xbd7da27f	-0.061922546
65	0x3db6b6f1	0.08921612
66	0xbe389808	-0.18026745
67	0x3d447f51	0.04797298
68	0x3e7818fc	0.24228281
69	0x3e17385e	0.14767596
70	0x3e854d21	0.26035407
71	0x3c0856dd	0.008321491
72	0x3e19ed7f	0.15032004
73	0x3e188a9e	0.14896628
74	0xbe4b382a	-0.19845644
75	0x3dc5ac76	0.09652035
76	0xbc1b796c	-0.009489398
77	0x3da34022	0.07971217
78	0xbddd50cb	-0.10806426
79	0x3e4e60dd	0.20154138
80	0x3defaa68	0.11702424
81	0x3e0d6114	0.13806564
82	0xbc348024	-0.011016879
83	0xbe0fec37	-0.14054953
84	0xbe0559ad	-0.1302249
85	0xbdc5acba	-0.096520856
86	0x3c949836	0.018138986
87	0xbea4c401	-0.3218079
88	0x3e9468b7	0.2898614
89	0xbe02fb0f	-0.12791084
90	0x3e080e17	0.13286625
91	0xbd94c8fd	-0.07264898
92	0x3d90e462	0.070748106
93	0xbcb38e92	-0.021918569
94	0xbd55d2b9	-0.052202914
95	0xbd823041	-0.0635686
96	0x3df046d2	0.11732258
97	0x3e619161	0.22028114
98	0xbabe3085	-0.001451031
99	0xbe45d550	-0.19319654
100	0xbdabafde	-0.083831534
101	0xbe060efd	-0.13091655
102	0xbd25ea2a	-0.04050652
103	0x3e8b861f	0.27250764
104	0xbd457417	-0.048206415
105	0x3e91cd7f	0.28477094
106	0x3d876f31	0.06613005
107	0xbe37061a	-0.17873421
108	0xbe17c6af	-0.14821886
109	0xbe205cbc	-0.15660375
110	0xbe3b8960	-0.18314123
111	0x3e417224	0.18891197
112	0xbe46bb3c	-0.19407362
113	0xbe25b21d	-0.16181226
114	0xbe9c1b0a	-0.3048938
115	0x3a4b27b9	0.00077497546
116	0x3d969ee7	0.07354527
117	0x3ddcca55	0.10780779
118	0xbe3f8a5a	-0.1870512
119	0xbd74a2cf	-0.05972558
120	0x3d56d560	0.052449584
121	0x3e96f4b3	0.29483566
122	0xbdda6108	-0.106630385
123	0x3e286756	0.1644567
124	0x3e5d89b0	0.21634555
125	0x3e3f746a	0.18696752
126	0xbde27718	-0.110578716
127	0x3e3e0cf9	0.18559636
128	0x3c53a6dc	0.0129182
129	0x3e3db098	0.18524396
130	0x3e04a597	0.12953793
131	0xbd36b2b7	-0.04460403
132	0xbe253188	-0.16132176
133	0xbeac5cb9	-0.33664492
134	0xbe01ed2c	-0.1268813
135	0xbd644fee	-0.05574029
136	0xbddf9844	-0.10917714
137	0x3d7f83a2	0.062381394
138	0x3d598a8d	0.053110648
139	0xbda40a8e	-0.08009826
140	0xbcb50f92	-0.022102151
141	0xbe6b2080	-0.22961617
142	0xbd32a5db	-0.043615203
143	0x3d0a591b	0.033776384
144	0x3dede8a6	0.1161664
145	0xbe5162a7	-0.20447789
146	0xbe4628f8	-0.19351566
147	0xbe3e01bc	-0.18555349
148	0x3dd2b324	0.102880746
149	0x3c033d80	0.008010268
150	0xbcf8d370	-0.030374259
151	0x3de8f989	0.1137572
152	0x3e96d6ca	0.29460746
153	0x3d3cf0a8	0.046127945
154	0xbd0bb919	-0.03411207
155	0x3e24eb4c	0.16105384
156	0x3e436b9a	0.19084015
157	0x3dce0808	0.100601256
158	0xbdd9aa7f	-0.10628223
159	0x3daaf6ac	0.0834783
160	0xbe2fbc35	-0.17161639
161	0xbd6d21d0	-0.057893574
162	0xbd5806e7	-0.052740958
163	0xbd6aea0f	-0.057352122
164	0x3c4ea3b9	0.012612277
165	0x3e23eff0	0.16009498
166	0x3e067fe1	0.1313472
167	0x3e1e1ea6	0.15441379
168	0x3dd1ddf0	0.10247409
169	0x3e44facb	0.19236295
170	0x3b33e58c	0.0027450053
171	0x3dc732d0	0.097264886
172	0x3e76b1d8	0.2409128
173	0xbd5ef9fd	-0.054437626
174	0x3d79b1d5	0.06096061
175	0x3ca2adc5	0.01985825
176	0xbcaaad8d	-0.020834709
177	0xbe08c8cb	-0.13357846
178	0x3c56b0e5	0.013103698
179	0xbe6f0838	-0.23342979
180	0x3c8f7485	0.017511616
181	0xbe5cd15f	-0.21564244
182	0xbe5052e9	-0.20344128
183	0xbd8c2760	-0.06843448
184	0x3e0ee64b	0.13955037
185	0xbdd076b6	-0.10178892
186	0xbd9ed18c	-0.07754812
187	0xbda949fd	-0.08266065
188	0x3e22930d	0.15876408
189	0xbe0f0ad8	-0.1396898
190	0x3dafedc0	0.08590269
191	0x3dab019c	0.08349916
192	0xbe42fe8f	-0.19042419
193	0x3ea7cb85	0.3277246
194	0x3eba395a	0.3637188
195	0x3ebe4997	0.3716552
196	0x3e1f3f76	0.15551552
197	0x3e5cd60f	0.21566032
198	0x3ccd7b70	0.025083274
199	0x3cab966e	0.020945754
200	0x3e827363	0.25478658
201	0x3e77ea35	0.24210437
202	0xbcf44a54	-0.029820599
203	0x3e266acb	0.16251676
204	0x3de74b50	0.112936616
205	0x3dedcaf3	0.11610975
206	0xbd08a90e	-0.033364348
207	0xbd77790f	-0.060418185
208	0xbe743221	-0.23847248
209	0xbe5841c7	-0.21118842
210	0x3e8b30e0	0.27185726
211	0x3d8735cb	0.06602057
212	0xbd10e072	-0.035370298
213	0xbc6b25a0	-0.014352232
214	0x3dea6747	0.1144548
215	0xbe48a296	-0.19593272
216	0x3e03d610	0.12874627
217	0xbdf8b139	-0.121431775
218	0xbda97ea9	-0.08276112
219	0x3d3dea4d	0.046366025
220	0xbe075490	-0.13215852
221	0x3db3bf0f	0.08776676
222	0x3dfd2e1d	0.12362311
223	0x3e4107cc	0.1885063
224	0x3d9d547b	0.07682129
225	0x3a4acd00	0.0007736236
226	0xbb8aca17	-0.004235517
227	0x3e1559a2	0.14584973
228	0x3df96330	0.12177122
229	0x3e35538c	0.17707652
230	0x3e7c5648	0.24642289
231	0x3c8b61ff	0.017014502
232	0xbd67eff0	-0.056625307
233	0x3cda1c25	0.026624748
234	0xbd452d85	-0.048139114
235	0x3e0ff188	0.1405698
236	0x3e031923	0.12802558
237	0x3caf09d5	0.021366993
238	0xbe07fe09	-0.132805
239	0xbd68e77e	-0.056861393
240	0xbe089c97	-0.13340984
241	0xbcb84cf4	-0.022497632
242	0x3ec0f1f6	0.37684602
243	0x3ded83ff	0.11597442
244	0xbdfa4543	-0.12220242
245	0xbe1f6676	-0.1556643
246	0x3dd353f0	0.10318744
247	0xbe60d7b3	-0.21957283
248	0xbcd51c2e	-0.026014414
249	0xbe092249	-0.13391985
250	0xbdf42a69	-0.119221516
251	0xbd99da51	-0.07512344
252	0xbd58ecc6	-0.05296018
253	0xbd8cbec7	-0.068723254
254	0x3dd7bead	0.105344154
255	0x3e8aead8	0.27132297

bias_ih_l0 f4 [128]
0	0xbe4d98ff	-0.20077895
1	0xbd82d689	-0.063885756
2	0xbed51acb	-0.41622004
3	0xbc991f83	-0.018691784
4	0xbd17bbe1	-0.03704441
5	0xbda4f4d3	-0.08054509
6	0xbe00b476	-0.1256884
7	0xbf0632ef	-0.5242147
8	0xbec21f5a	-0.37914544
9	0xbe56640f	-0.20936607
10	0xbdaee1ad	-0.08539138
11	0x3b37d103	0.0028048165
12	0xbd3e5582	-0.046468265
13	0xbed6149a	-0.41812593
14	0xbee9a052	-0.45630127
15	0xbe73f663	-0.23824458
16	0xbe30d2ea	-0.17267957
17	0xbeea7507	-0.4579241
18	0x3d3e3e05	0.046445865
19	0xbe5270d8	-0.20550859
20	0xbea403ba	-0.32034093
21	0xbe916492	-0.28397042
22	0xbda191f3	-0.07889166
23	0xbded9539	-0.116007276
24	0xbeb03dd3	-0.34422168
25	0xbe1ed744	-0.15511805
26	0xbe812bcd	-0.2522873
27	0xbe324503	-0.17409138
28	0xbeb25691	-0.3483167
29	0xbe1d7caa	-0.15379587
30	0xbe5fee28	-0.21868193
31	0xbddf4658	-0.10902089
32	0xbc4de9a4	-0.012567911
33	0x3e0fb013	0.1403201
34	0x3ab1724e	0.0013538094
35	0xbca68e4c	-0.020331524
36	0x3ceb7659	0.028742956
37	0xbd964558	-0.07337445
38	0x3d979519	0.07401485
39	0xbd83b809	-0.06431586
40	0xbc222994	-0.009897608
41	0x3dce73e9	0.10080702
42	0x3d96786c	0.073471874
43	0xbdf7bddb	-0.12096759
44	0xbe0fb615	-0.14034303
45	0xbe2d1de8	-0.1690594
46	0xbea5311e	-0.32264036
47	0xbe0a47d2	-0.1350396
48	0x3e067b7a	0.1313304
49	0xbec5a183	-0.38599786
50	0x3d8868bd	0.06660602
51	0xbdace29a	-0.08441658
52	0xbe423b18	-0.18967855
53	0xbdd6fbf6	-0.104972765
54	0xbe0e8be0	-0.13920546
55	0x3e0cf402	0.13764957
56	0xbdcea888	-0.100907385
57	0x3d67ab06	0.056559585
58	0xb95ed4d5	-0.00021250856
59	0x3c1cb0a5	0.0095636
60	0xbbdd67ad	-0.006756744
61	0xbd7ae0ac	-0.06124942
62	0xbd949901	-0.07255746
63	0xbe50a056	-0.20373663
64	0x3d3bdb6d	0.045863558
65	0xbd71e3f2	-0.059055276
66	0x3d907cec	0.07055077
67	0xbe337983	-0.17526822
68	0x3d9552c9	0.07291181
69	0xbd50a636	-0.05093976
70	0xbd83b7da	-0.06431551
71	0xbd84dd08	-0.06487471
72	0x3e10af2c	0.14129323
73	0xbe017914	-0.12643844
74	0x3dd33282	0.10312368
75	0xbdd56dac	-0.10421309
76	0xbe03405b	-0.12817518
77	0x3c76e0c6	0.015068239
78	0xbdab598e	-0.083666906
79	0xbd78225c	-0.060579643
80	0x3e09321e	0.13398024
81	0x3d434a41	0.047678236
82	0xbe16e1ee	-0.14734623
83	0x3d830b60	0.06398654
84	0xbd86235a	-0.065497115
85	0x3d901b4e	0.07036458
86	0xbddac479	-0.106820054
87	0x3dc541c4	0.096316844
88	0xbdea3dbb	-0.114375554
89	0x3cb94731	0.022616955
90	0x3d8d6b54	0.06905237
91	0x3dd758ff	0.105150215
92	0xbd4e3091	-0.050339285
93	0xbd716b94	-0.058940485
94	0x3b3bda88	0.002866419
95	0x3d2ecf01	0.042677883
96	0xbde41872	-0.11137475
97	0x3d97a26d	0.07404027
98	0xbeaaabe6	-0.33334273
99	0xbde4e368	-0.11176187
100	0xbe2e4ffd	-0.170227
101	0xbe15c455	-0.14625676
102	0xbbf3fa83	-0.007445635
103	0xbe776a15	-0.24161561
104	0xbe175bc1	-0.14781095
105	0xbe88a216	-0.26686162
106	0xbc72093a	-0.014772708
107	0xbd550ade	-0.052012317
108	0xbe1c899d	-0.1528687
109	0xbeb12208	-0.34596276
110	0xbe63b38d	-0.22236462
111	0xbdeb21b6	-0.11481039
112	0xbe32c0b4	-0.17456323
113	0xbe71b213	-0.23603086
114	0x3d26161c	0.04054843
115	0xbcb756bb	-0.022380223
116	0xbe040646	-0.12893018
117	0xbea0f9d4	-0.31440604
118	0xbe3ad5ca	-0.18245617
119	0xbdfdc8c8	-0.123918116
120	0xbec5c37d	-0.38625708
121	0x3d156088	0.036469012
122	0xbe03ef9f	-0.12884377
123	0xbdab769f	-0.083722346
124	0xbe398bcd	-0.18119736
125	0xbe64a759	-0.22329463
126	0xbe64ef01	-0.22356798
127	0x3c966236	0.018357377

bias_hh_l0 f4 [128]
0	0xbe9ac82b	-0.3023084
1	0xbe08dcef	-0.1336553
2	0xbda9411d	-0.082643725
3	0xbe9076f4	-0.28215754
4	0xbe3344dc	-0.17506737
5	0xbebaaafb	-0.36458573
6	0xbd35d9a4	-0.04439701
7	0xbea1525c	-0.31508148
8	0xbe7b55cd	-0.24544449
9	0xbcb65d7a	-0.02226137
10	0xbe24d7f9	-0.16098012
11	0xbd7c67a8	-0.06162229
12	0xbe010025	-0.12597711
13	0xbe2d9117	-0.16949879
14	0xbe2cec6b	-0.16887061
15	0xbec58b5b	-0.38582882
16	0x3da0fd2f	0.07860791
17	0xbe783105	-0.2423745
18	0xbe55699b	-0.20841067
19	0x3cb16edc	0.021659307
20	0xbe1b5257	-0.15168129
21	0xbe7dfd84	-0.2480374
22	0xbe7794c8	-0.2417785
23	0xbdbf3eb7	-0.09338134
24	0xbec4acb5	-0.38413015
25	0xbd4e90e2	-0.05043114
26	0xbec5ca34	-0.3863083
27	0xbe9cbb69	-0.30611733
28	0xbea58889	-0.3233073
29	0x3c6057d1	0.013692812
30	0xbe14ea8a	-0.14542595
31	0xbe947606	-0.28996295
32	0xbe67ff83	-0.22656064
33	0xbd62e11a	-0.055390455
34	0xbe9fa638	-0.31181502
35	0xba0e9eed	-0.0005440552
36	0x3d56d234	0.05244656
37	0xbe7f8b0b	-0.24955384
38	0x3db607b3	0.08888187
39	0xbea55a71	-0.32295564
40	0xbe198a14	-0.14994079
41	0xbcf2cf81	-0.029639961
42	0x3dedf802	0.11619569
43	0xba55c0f6	-0.00081540586
44	0xbe68415c	-0.22681183
45	0x3cfae572	0.030626986
46	0xbe26201c	-0.16223186
47	0xbda71108	-0.08157545
48	0xbdec353e	-0.11533593
49	0xbe83abf3	-0.25717124
50	0xbe05b4fe	-0.13057324
51	0x3e11dc1c	0.14244121
52	0xbe93ece3	-0.28891668
53	0xbe9d386b	-0.30707106
54	0xbd7b6ae0	-0.06138122
55	0xbd5d67c1	-0.054054026
56	0xbe9bb619	-0.30412367
57	0xbd039ea2	-0.032133706
58	0xbe5a2472	-0.21302965
59	0xbe52e9eb	-0.20597045
60	0xbe3f900e	-0.18707296
61	0xbe807549	-0.2508948
62	0xbe47c72a	-0.19509569
63	0xbe02834a	-0.12745395
64	0xbcf042bf	-0.029328702
65	0xbd5407df	-0.05176532
66	0xba8d21da	-0.0010767535
67	0x3ca62872	0.020282958
68	0x3d538354	0.051638916
69	0x3c545276	0.012959113
70	0xbbcc5e0e	-0.006236798
71	0x3d819db7	0.0632891
72	0xbcad8dcd	-0.02118578
73	0x3e1a4a40	0.15067387
74	0x3d23fc28	0.040035397
75	0x3e199482	0.14998057
76	0x3e02557c	0.12727922
77	0xbd7a0ad5	-0.061045486
78	0x3dc46176	0.09588902
79	0xbdd62363	-0.10455968
80	0xbe1aa482	-0.15101817
81	0xbde25f2c	-0.11053309
82	0x3d54979a	0.05190239
83	0x3bf9796c	0.0076133516
84	0x3dba3424	0.09091976
85	0x3c5928d0	0.013254359
86	0xbe077b84	-0.13230711
87	0xbde5d5ee	-0.112224445
88	0x3cf608e2	0.030033533
89	0x3d5d7526	0.0540668
90	0x3d4d56ec	0.050131723
91	0x3d9634cb	0.07334288
92	0xbc7fa2ec	-0.015602808
93	0x3d8406dd	0.064466216
94	0xbd870bfe	-0.06594084
95	0xbdb9eded	-0.09078584
96	0xbea6328c	-0.3246044
97	0x3db5ced7	0.08877342
98	0xbe2e102b	-0.16998355
99	0xbdf3c6fb	-0.11903187
100	0xbd49a871	-0.049232904
101	0xbe1d1fee	-0.15344211
102	0x3e256364	0.16151196
103	0xbf10c27c	-0.5654676
104	0xbec10f81	-0.3770714
105	0xbd5861d0	-0.052827656
106	0xbe3d0494	-0.18458778
107	0xbd5f0adf	-0.054453727
108	0xbe55ff59	-0.20898189
109	0xbe3a8061	-0.18213035
110	0xbebd9a37	-0.3703172
111	0xbe625893	-0.22104101
112	0xbe304287	-0.17212878
113	0xbe97f7d6	-0.2968127
114	0xbd6ab1c2	-0.05729843
115	0xbe31bcba	-0.1735715
116	0xbedcd407	-0.43130514
117	0xbe116202	-0.14197543
118	0xbde578eb	-0.11204704
119	0xbd309619	-0.043111894
120	0xbe3a1d7b	-0.18175308
121	0xbdbbdab0	-0.09172571
122	0xbe889255	-0.26674142
123	0xbcf6d0b4	-0.030128814
124	0xbe77bbf5	-0.24192794
125	0xbe760a91	-0.24027468
126	0xbe13aef1	-0.14422204
127	0xbe29853f	-0.16554736
