experiments/pedestrians/models/06_Aug_2023_21_23_08/model_registrar-10.pt (torch, 713991 bytes, 82 tensors)

weight f4 [64, 10]
000000 94 f5 51 be 8c eb e8 bd 24 45 88 3e fa 98 a7 3d
       -0.20503837 -0.11373052 0.2661525 0.08183475
000010 f4 4d 56 be 1f 5e 3c 3f 88 11 21 3d ce d1 62 be
       -0.20928174 0.7358112 0.03932336 -0.22150347
000020 50 ea 0c be a2 b3 13 3e d3 67 18 bd 43 22 74 3e
       -0.13761258 0.14423993 -0.03720839 0.23841195
000030 6e 12 a3 3e ce 00 be bd 2f 45 b8 bd 05 1b a8 be
       0.31849998 -0.09277497 -0.08997571 -0.32833114
000040 98 9e 92 be c8 38 bd be e9 51 e3 bd 1d 17 bc 3d
       -0.28636622 -0.36957383 -0.110996075 0.09184096
000050 db 16 1e 3e c5 f2 68 3d 3a 4d 01 be 57 1b 0f 3f
       0.15438406 0.056872148 -0.12627116 0.5590109
000060 10 f4 43 3e 37 a4 89 bd b9 bf 67 be 7b 55 34 3c
       0.19136071 -0.067207746 -0.2263173 0.011006708
000070 df c3 2e 3d 59 e5 ec bd 84 89 07 be 65 25 8d 3d
       0.042667266 -0.11567182 -0.13236052 0.06891898
000080 c6 aa 84 bd 31 da 37 3d dc 8a b0 be ee 3c 0d 3f
       -0.06477885 0.044885818 -0.3448094 0.55171096
000090 65 9b 81 be 9e 3e 44 be 7e 7e 71 bc 5c 40 6f be
       -0.2531387 -0.19164512 -0.014739631 -0.23364395
0000a0 8b e0 e6 3d 90 c5 b0 bd 33 34 69 3d d6 42 3f 3e
       0.11273297 -0.08631432 0.056934547 0.1867784
0000b0 34 d4 d1 3e 88 a0 55 3c b2 bf 4f 3e ab 1b ab 3d
       0.4098221 0.013038762 0.2028797 0.083548866
0000c0 6c a5 a7 be 7f 44 c2 3d 74 37 86 3d 54 61 0a 3e
       -0.32743394 0.09485721 0.065535456 0.1351369
0000d0 ba db 9f 3e c9 a4 96 3d 14 aa 8b bd 22 09 a0 3d
       0.31222326 0.07355649 -0.06819549 0.07814242
0000e0 95 31 8d 3d cb 5c eb bd a4 46 26 be c4 6e e7 bc
       0.06894223 -0.11492308 -0.16237885 -0.02825106
0000f0 2f 36 a4 bc 62 85 0b 3e d6 17 f4 3e d5 9a dd 3d
       -0.020045368 0.136251 0.47674435 0.108205475
000100 23 34 a4 3e 70 ad a4 be 2e df 96 be 1e e0 70 3e
       0.32071027 -0.32163572 -0.29467148 0.23522994
000110 20 dd 8d 3e 54 df 47 3e a8 89 d1 bd 4a 65 ed bd
       0.27707767 0.19518787 -0.10231334 -0.11591585
000120 19 ba 61 3e 01 a1 c7 be fd f7 0b bf a6 84 79 be
       0.22043647 -0.38990024 -0.54675275 -0.24367008
000130 ea bf b3 3e c9 b5 cc bc f2 ff b7 ba a8 13 45 bc
       0.35107356 -0.024989026 -0.001403807 -0.012028612
000140 26 ce b4 bd ba 09 9d 3c 0b a9 4b be 48 0e 47 3e
       -0.08828382 0.019169677 -0.19888704 0.19439042
000150 b9 f0 ef be 6e 8e 97 bc 5f 87 76 be 2e 84 87 be
       -0.46863344 -0.018500533 -0.24075077 -0.26468033
000160 69 28 0d 3e 12 23 1b 3c 6a 52 dc bd ef f0 96 3d
       0.13784947 0.009468811 -0.10757907 0.07370173
000170 ec 95 93 3e d8 56 72 3e 9c a8 03 3e 50 5a eb 3e
       0.2882532 0.23665941 0.12857288 0.4596734
000180 5f 03 04 3e 45 d6 81 be 72 7c 8e 3e cf 0a 80 3e
       0.12891911 -0.25358787 0.2782932 0.25008246
000190 b5 38 2b be 8a d2 72 bc d6 89 da 3d 82 72 43 3e
       -0.16720851 -0.014820704 0.10670821 0.1908665
0001a0 1f 61 ec be 93 ed a4 bd a3 f6 31 be 68 5c a4 3d
       -0.46167848 -0.08053126 -0.1737924 0.080254376
0001b0 d9 00 38 3e 3e 51 9d be 1e 45 f0 3c af c2 22 be
       0.17969073 -0.30726045 0.029329833 -0.15894578
0001c0 24 1c e5 3e fb 09 90 be 92 8b 12 bf 86 51 04 bf
       0.44748032 -0.28132614 -0.5724422 -0.51686895
0001d0 7c 4c 0c 3c 85 b0 a2 3e e3 3c 57 be 9f af 19 be
       0.008563157 0.317753 -0.2101932 -0.150084
0001e0 bc 74 5d be 11 22 6f 3e 0c 06 ce 3e 71 a8 92 3e
       -0.21626562 0.23352839 0.40238988 0.28644136
0001f0 cc c8 80 3e 2c b3 96 3e 08 91 64 3e 38 dd 74 bd
       0.25153196 0.29433572 0.2232095 -0.059781283
000200 78 91 79 3d d2 b3 24 be 20 87 30 bd 4c 3e 50 3d
       0.060929745 -0.16084221 -0.043097615 0.05084066
000210 f1 a7 22 be 33 57 02 bf a1 e8 5b 3e d9 06 12 be
       -0.15884377 -0.50914305 0.2147546 -0.14260425
000220 78 a1 f1 3d 92 3c 17 be 66 a2 8a bc d0 25 35 be
       0.11798376 -0.147692 -0.01692314 -0.17690206
000230 a8 53 49 3e 37 3e 2e be da f6 06 be 3c e6 ce 3e
       0.19660819 -0.1701592 -0.13180104 0.4041003
000240 5c 1c 26 be 73 7d 58 3d 53 db 0c 3e b0 6b b3 bd
       -0.16221756 0.052854013 0.1375554 -0.08760774
000250 f2 61 f9 bd 68 7c 7b 3e 31 47 97 3c 3e 9e 83 3e
       -0.12176885 0.24559176 0.018466564 0.25706667
000260 42 38 ae bc 5e cb fc bd 04 8b a4 3e bb b8 a1 be
       -0.02126706 -0.12343477 0.3213731 -0.3158625
000270 2a 9a 6a be 17 cd 2a 3e d5 4e 59 be bb 33 d6 3d
       -0.22910371 0.16679798 -0.21221478 0.104590856
000280 0f a6 84 be e5 10 88 3e 0d 65 2a 3e b2 1d 78 3e
       -0.25907943 0.2657539 0.1664011 0.24230078
000290 ab 84 1c bf ba ea ac 3e e3 7c e2 3d 98 d4 90 3e
       -0.61139935 0.33772832 0.110589765 0.28287196
0002a0 1d 86 0e 3d 18 a8 e2 3e e5 2c 85 3e b5 e8 90 3e
       0.03479587 0.4426887 0.26010814 0.2830254
0002b0 4b ce 09 bd d7 5f a3 3e 81 b7 25 be fb c8 87 3e
       -0.033644002 0.31909057 -0.16183282 0.26520523
0002c0 3c 1e c0 3d 6b 9e cb 3d 88 25 e1 3c 80 99 49 3e
       0.09380767 0.09942325 0.027483717 0.19687462
0002d0 39 9e 38 bd 63 8a 3b 3e c6 d8 ec 3e e9 11 d0 bd
       -0.045072768 0.18314509 0.46259135 -0.10159666
0002e0 a0 45 34 be 6f 26 92 3e d8 51 99 3e 4e e1 4b 3d
       -0.17604685 0.28544948 0.29945254 0.049775414
0002f0 b3 bb 61 3e d5 ec a6 3e cd bd 77 3e 37 6d b5 3d
       0.22044258 0.32602564 0.24193497 0.08858722
000300 36 45 b2 be 7e ed 1a be 3e a2 bb be 65 69 41 bd
       -0.3481843 -0.15129659 -0.36647218 -0.047219653
000310 b5 b7 b0 3d cf 23 0e 3e 44 3d 6a be 15 91 6f 3e
       0.08628789 0.13880847 -0.22874933 0.23395188
000320 be 24 09 be 1d 9d ed 3d 62 f4 b8 be 17 88 b1 3e
       -0.13392922 0.116022326 -0.3612395 0.3467414
000330 49 6c c6 3e bb d0 cd bd 2b 23 14 3e 17 0d e5 3b
       0.3875449 -0.10049578 0.1446654 0.006990086
000340 ec 8c c0 3e 33 d4 4d 3d dc 42 62 be 39 4c 93 bc
       0.37607515 0.050251197 -0.22095817 -0.017980682
000350 59 b9 e1 3d dd af 00 3e 30 1b cd 3e 00 6a 50 3f
       0.110216804 0.12567087 0.40059805 0.81411743
000360 f4 2c 82 3e 6c 05 7c 3d 1b da c5 3d 73 8a 02 be
       0.25424922 0.06152861 0.09660741 -0.12748127
000370 cc c3 1b 3d 2c 4c 86 3e 6f 33 3a be 7b af ec 3d
       0.038028523 0.2622999 -0.18183683 0.11556908
000380 81 ae d3 3d 96 34 54 3e d5 d4 41 3e fe 94 5a 3e
       0.10336018 0.20723185 0.18928845 0.21345899
000390 8b 30 61 3d cb 59 4c be 5d 96 d5 3d eb 09 32 be
       0.054977935 -0.19956128 0.1042907 -0.17386596
0003a0 54 8e 3a be 21 0a db 3e 92 0e 79 bd d6 70 3c be
       -0.18218356 0.42781165 -0.06080491 -0.18402418
0003b0 70 37 12 bd 5d fb 23 3e 33 ca 1c bd 11 1b 62 3e
       -0.0356974 0.16013856 -0.03827877 0.22080638
0003c0 26 dd 23 3e 0b 2b 00 be c6 8b 28 be 01 e2 15 be
       0.1600233 -0.1251642 -0.1645957 -0.14636995
0003d0 92 aa a5 3e 9b 85 31 3e 50 44 42 3d f6 ac 9c be
       0.32356697 0.17336123 0.04742843 -0.3060071
0003e0 e6 64 37 bd b6 75 90 be c1 93 4b be 85 85 7e be
       -0.04477396 -0.28214806 -0.19880582 -0.24855621
0003f0 60 01 95 3d 50 aa d3 3e 09 32 58 be 52 d5 97 be
       0.07275653 0.41340876 -0.21112837 -0.29654938

bias f4 [64]
000000 47 c2 34 be f9 0b d1 bd 17 f1 50 be e2 b0 9d 3e
       -0.17652236 -0.10207362 -0.20404468 0.30799013
000010 98 c1 62 3d 4c 96 38 3e 78 9b 9e be bc b2 27 bd
       0.055360407 0.18026084 -0.30977988 -0.04094194
000020 3f fd 33 bc 2a 96 62 3e f1 d5 a6 bd 4f 2a b5 3e
       -0.010985672 0.22127596 -0.08146275 0.3538384
000030 a9 2f d3 bd e2 90 4e 3e 9d 2e 5c be ea 93 3a bd
       -0.10311825 0.20172456 -0.21502157 -0.045551218
000040 1d a4 40 bd fa 9c 1c be 7b 64 91 3e c2 06 05 3e
       -0.04703151 -0.15294257 0.28396973 0.12990859
000050 34 7e aa 3d c3 f6 3c 3d cb 7a 04 3e 8d 7f 1b bd
       0.083248526 0.046133768 0.12937467 -0.03796344
000060 f2 d7 de bd d4 0a 2d 3e 7b f5 96 bd 39 d1 b1 bd
       -0.10881032 0.16898662 -0.073710404 -0.08682484
000070 38 85 89 be 2e c5 cf 3d e8 0d d5 3d 1d 33 7e be
       -0.2685945 0.10145031 0.10403043 -0.24824186
000080 c2 71 5f be b5 f5 51 3e 46 c8 ba be 5b b2 56 3e
       -0.21820739 0.20503886 -0.36480922 0.20966475
000090 a4 6d 32 3e 34 d9 e6 bd ce b0 2e be a0 be 85 bd
       0.17424637 -0.11271897 -0.17059633 -0.065304995
0000a0 30 00 89 be 02 2c 5a 3e 05 fd 89 bd 64 5b f9 bd
       -0.26757956 0.2130585 -0.06737713 -0.121756345
0000b0 48 0a 4b be 82 f6 6f 3e a5 e9 11 be e8 6b 4b be
       -0.1982814 0.23433879 -0.14249285 -0.19865382
0000c0 26 b4 13 3e d3 03 5b be bf 1a 88 bd 9e e1 20 3e
       0.1442419 -0.21388178 -0.066457264 0.15711066
0000d0 ed a1 90 be 87 4e 8f be 7e 17 a8 be 1d 55 84 3c
       -0.2824854 -0.279896 -0.32830423 0.016153866
0000e0 c3 01 06 3e 3d 47 35 3e 3d d0 84 3e 66 b2 59 3e
       0.1308661 0.17702956 0.25940123 0.2125946
0000f0 3d d0 30 be 97 be 1b 3e 30 7b a7 3e a6 31 7d be
       -0.17266937 0.15209423 0.32711172 -0.2472597

weight f4 [32, 32]
000000 d5 00 8d be 4f ea 1a be 98 a1 8d 3e ba 26 88 bd
       -0.27539697 -0.15128444 0.2766235 -0.066480115
000010 f7 52 e5 bd 6b 3b bb bc 4f 2c 44 3c 2b f4 ec 3c
       -0.11197465 -0.022855481 0.011973455 0.028925022
000020 f1 da fd bd 0e a7 9d be ed 12 ef 3d 97 80 8b 3d
       -0.123952754 -0.30791515 0.11673532 0.06811636
000030 59 6a 08 bc 3e e8 28 3e fe 1b 3d be 4d 5f d0 3d
       -0.0083261365 0.16494843 -0.1846771 0.10174427
000040 ea 7c 2b bd 86 47 29 3e 67 28 36 3e 31 cf 8a 3e
       -0.041867174 0.1653119 0.1778885 0.271112
000050 c4 f4 48 be 2e b2 fc 3d 5f ac 21 3e 9e aa 6f be
       -0.1962462 0.123386726 0.1578841 -0.23404929
000060 1f f8 04 bd 3b 97 e0 3d f4 d6 75 3d bb 9d e0 3d
       -0.03246319 0.10966345 0.06001945 0.10967585
000070 ab a6 3d 3e aa f6 8e 3d ec 23 de 3d 0f 74 ee 3d
       0.1852061 0.06980641 0.10846695 0.1164323
000080 76 41 f7 3d 9e 13 e2 bc 88 f5 8b be c1 f6 aa 3c
       0.120730326 -0.027597245 -0.27335763 0.020869615
000090 b7 f1 23 be 70 1a 9f 3d f4 b5 05 3e 09 a9 d4 bc
       -0.16010176 0.077687144 0.13057691 -0.025959508
0000a0 89 49 6a be 81 9e 59 be e5 e0 30 be e2 c2 25 be
       -0.22879614 -0.2125187 -0.1727329 -0.16187623
0000b0 1a b9 78 3d 3d d1 b1 3c b4 e7 48 bd b1 b2 25 bd
       0.0607234 0.021706218 -0.049049094 -0.040453617
0000c0 7f 8d 3a 3d 6d 85 01 3e 69 3b 10 3e e0 f7 b9 3e
       0.045545097 0.12648554 0.14085163 0.36321926
0000d0 8b f3 0c 3e f8 67 b1 bd 43 37 e9 3d 69 02 68 bd
       0.1376478 -0.086624086 0.113874935 -0.056642924
0000e0 b3 fd a3 3c 04 a9 de 3c 08 2e 33 3e f6 47 a8 3d
       0.020018434 0.027180202 0.17498028 0.082168505
0000f0 4a 53 03 be 21 a5 f3 bd 83 53 f3 3d e7 cb b5 3c
       -0.12824741 -0.1189673 0.11881163 0.022191955
000100 d0 4f 8e 3e 6d 57 1e be f8 ff 63 3d 0a 76 f4 be
       0.27795267 -0.15463038 0.055664033 -0.47746307
000110 c7 ac 80 be 17 07 51 bd 60 15 d1 bd 2f 16 ab bd
       -0.2513182 -0.051032152 -0.10209155 -0.083538406
000120 97 64 fa bd 55 98 5e 3e 7f 7e 5e 3e ca c0 4e be
       -0.12226217 0.21737798 0.21727942 -0.2019073
000130 fd 6a 80 be 9f 9c 9d 3e 36 f4 a5 be c1 60 bb bd
       -0.25081626 0.30783555 -0.3241288 -0.09149314
000140 d3 aa b8 3d 62 54 90 3e 54 64 a8 3e 89 66 b2 be
       0.09016957 0.2818938 0.32889044 -0.34843853
000150 39 bf f0 bb ca 97 cb 3c 54 d0 4c bd 0a 1a ce bd
       -0.0073470143 0.024852652 -0.050003365 -0.1006356
000160 29 ec c0 bb 91 69 88 bd 44 54 8f bc a4 d2 4c be
       -0.0058875275 -0.0666076 -0.017496236 -0.20002228
000170 27 de 83 3e 11 2a 78 be 59 d6 9d bd 76 7e 45 be
       0.25755426 -0.24234797 -0.07706899 -0.19286522
000180 f9 27 2c 3e cc 48 bc bd 6d 58 5c 3d a5 d8 3a 3e
       0.16812123 -0.091935724 0.053795267 0.18246706
000190 c7 15 3a bd d4 49 17 3e bc d2 09 3e b4 b3 45 be
       -0.045430925 0.14774257 0.13459295 -0.19306833
0001a0 f7 47 25 be 50 02 2d 3e 09 46 e1 3d 41 a6 c8 bd
       -0.16140734 0.16895413 0.10999686 -0.097973354
0001b0 43 7d 65 3e a6 50 0c 3c 14 65 da bd ad 94 46 bd
       0.22411065 0.00856415 -0.1066381 -0.048481632
0001c0 d1 e0 1c be b3 ef 97 3d 67 99 bd bd 80 53 55 3e
       -0.15320136 0.07418766 -0.09257775 0.20832634
0001d0 8c 17 5c 3d a6 2d aa 3d 60 8b 7a 3e 86 cb 2e 3b
       0.053733394 0.08309488 0.2446723 0.0026671602
0001e0 b0 23 87 bd 05 d0 40 3d 91 e2 89 3c c6 c8 2e 3e
       -0.06598604 0.047073383 0.016831668 0.17068776
0001f0 4e e5 74 bc 1a 29 4b 3e 3c d2 45 3e f1 45 f4 3d
       -0.014947249 0.19839898 0.1931848 0.11927403
000200 df 6a 7a be 55 d9 b1 bd 42 45 83 3e b6 a4 2a 3d
       -0.2445483 -0.08684031 0.25638777 0.041660987
000210 84 f7 27 3e 34 c3 0e bc 05 5c d8 3d 54 5d 8c 3e
       0.16403013 -0.008713532 0.10564426 0.27414954
000220 d6 f7 07 3e ce cf 3d be 5f e4 7b 3e b9 1a f0 3d
       0.13278136 -0.18536302 0.24598835 0.11723847
000230 05 ba 3b be a9 da 08 3e cf 21 74 bc e0 24 8a 3d
       -0.1833268 0.13364662 -0.014900639 0.067453146
000240 d1 7f bf bd 63 92 82 3d ce 14 2f 3e bf f4 a2 3e
       -0.09350551 0.06375577 0.1709778 0.3182735
000250 e9 6c 3f 3e d3 ab 78 be cc 07 09 3e b0 12 2f bc
       0.1869389 -0.24284296 0.1338188 -0.010685608
000260 de d2 0d 3e 2e 79 05 3e d4 f6 05 3e 34 78 c8 bd
       0.1384997 0.13034508 0.13082439 -0.09788552
000270 64 8c fd 3d 15 2e b2 3e 87 31 06 3e 45 92 c1 bd
       0.12380293 0.34800783 0.1310483 -0.09451727
000280 db e5 a2 3e 7a b2 60 bc 81 c8 dc bd b6 a3 cc be
       0.3181599 -0.013714427 -0.107804306 -0.39968652
000290 c1 63 12 bd 90 b1 26 3e 3e 54 ea bc aa f3 e4 bd
       -0.035739664 0.16278672 -0.028604623 -0.11179288
0002a0 22 1c 9f 3c c1 41 c6 3d c7 d6 cd 3d b1 33 ce 3d
       0.019422594 0.0968051 0.10050731 0.10068453
0002b0 91 05 cb bc 25 55 13 3e a1 e1 11 be 23 25 1c be
       -0.024782928 0.14387949 -0.14246227 -0.15248542
0002c0 41 ed 5e bd 50 07 a2 be c1 bc da 3b 46 61 70 be
       -0.05442548 -0.31646204 0.0066753333 -0.23474607
0002d0 ff 90 8f 3d d2 ea 19 3d 90 85 53 3d 98 65 0f 3e
       0.07010078 0.037577458 0.051641047 0.14003599
0002e0 b1 2d c2 bd 8a d7 53 3e d0 92 b3 bd f6 71 86 3c
       -0.09481371 0.2068769 -0.08768237 0.016411763
0002f0 92 96 9d 3b 6a ac 24 be 28 40 e1 3c fe af a3 bd
       0.004809209 -0.16081396 0.027496412 -0.07992552
000300 02 9b 15 be 94 fd 71 3d 8f a8 f1 3d 1d ff 60 3c
       -0.14609912 0.05907972 0.11799728 0.013732699
000310 85 a3 68 ba e2 61 87 bb 84 a1 8f 3e 4a 74 8e 3e
       -0.0008874464 -0.0041315416 0.28052914 0.27823097
000320 3f be 92 3d bb ad db 3d ae f5 8b 3d 3d a1 97 3e
       0.07165193 0.10726496 0.06833969 0.29615203
000330 fe 9a c8 bd ca 52 12 be fb 81 40 3e 2e 7c 5b bd
       -0.097951874 -0.14289394 0.18799584 -0.053585224
000340 0c 26 4b 3a 40 d1 d7 bd c2 3d 5f be f0 de 9f 3d
       0.0007749505 -0.10537958 -0.21800902 0.07806194
000350 a9 07 2c 3d 85 ef 3f be e4 b4 5a 3e 23 8a 81 3e
       0.041999493 -0.18743713 0.21358067 0.25300702
000360 e9 f2 19 3e 45 e1 a5 3d a4 6f 50 3d 51 ce 06 bd
       0.15034069 0.080996074 0.05088772 -0.032911602
000370 37 63 dd bd c1 44 fa 3d d3 77 96 bd 29 91 18 3d
       -0.10809939 0.12220145 -0.073470734 0.03724781
000380 d6 aa 9c 3d 23 5a 87 3d 98 be 9b 3d 42 a7 66 be
       0.07649772 0.06608989 0.07604712 -0.22524741
000390 66 35 13 3b 6b 60 69 3e 65 4a 90 3e 36 0e b1 3d
       0.0022462248 0.22790687 0.2818176 0.08645289
0003a0 0b b2 14 be 24 63 e5 3d 15 53 04 3d 96 62 31 3e
       -0.14521043 0.1120055 0.032305796 0.17322764
0003b0 ee c2 6d 3e a4 54 01 3e 01 ec 8a bd 22 3b 3f 3e
       0.23218891 0.12629944 -0.067832954 0.18674901
0003c0 af 13 78 3d 1b 61 21 3e 21 15 5e 3c 06 28 c7 3e
       0.060565647 0.15759699 0.013554842 0.38897723
0003d0 96 18 56 3e 87 5e 11 3d 9d 7f 4f 3e 30 7b ae bd
       0.20907816 0.03549054 0.20263524 -0.0851959
0003e0 c9 2c 66 3b 6b 65 ef 3d d6 7d f0 3c 9e 6a 04 3e
       0.003512191 0.11689266 0.029356878 0.12931296
0003f0 07 69 9b 3d e5 1a b5 3d e4 0c 7d 3e 51 f1 d2 bd
       0.07588392 0.0884302 0.24711949 -0.10299934

bias f4 [32]
000000 0e aa 0c be a4 42 1d bd d5 2d 3b 3e a2 3c 3d 3c
       -0.13736746 -0.03839363 0.18279202 0.0115501005
000010 d9 b9 26 be f3 0d 24 3e cb a2 3d 3d 4c 31 10 3e
       -0.16281833 0.16020946 0.04629783 0.14081305
000020 48 1c e0 3d 2e 7e 9b bb cc 08 85 3d 4a 6b 17 3e
       0.10942894 -0.0047452664 0.064958185 0.14787021
000030 3f ee fe bc 27 e5 9e 3c 16 c3 84 bd 5c 08 0c 3e
       -0.031119464 0.019396378 -0.06482522 0.13675064
000040 22 e4 0f be 48 1f e6 3d 42 ae 99 3d 8f b0 50 bd
       -0.1405187 0.11236435 0.0750394 -0.05094963
000050 5b 4c 14 3e b5 41 03 be f5 0e dd bd 8b d9 a3 3c
       0.14482252 -0.12818034 -0.107938685 0.020001194
000060 2a 40 c4 bd 13 25 81 3d 87 52 e3 bd 65 e5 34 be
       -0.09582551 0.063058995 -0.11099725 -0.17665632
000070 d2 6f 0e be f3 32 30 be 86 64 88 bc 7f 54 14 bd
       -0.13909844 -0.17206936 -0.016649496 -0.036213394

weight f4 [32, 64]
000000 08 c8 50 bd a0 ad 87 3b 08 4a 7e bd 08 15 41 3d
       -0.050972015 0.0041405708 -0.06208232 0.047139198
000010 48 20 da bd c4 a8 bb 3d 34 12 ba bd de 87 cb bd
       -0.106506884 0.09163049 -0.09085503 -0.09938024
000020 5a c3 a1 bd a8 e1 67 3d 14 2e 3d bd e4 98 3f 3d
       -0.078985885 0.056611687 -0.04618652 0.046776667
000030 54 46 d9 bd 3e 52 9b bd 80 fe 3b bd 78 3c c9 bc
       -0.10609117 -0.07584046 -0.045897007 -0.024564967
000040 04 4b c3 bd 5e a0 a7 3d b8 7d f1 bc 80 58 24 3d
       -0.095357925 0.081848845 -0.029478893 0.040123463
000050 5c 07 b5 3d 00 c7 be 3c bc 01 0c 3d 32 1b f7 3d
       0.08839294 0.02328825 0.03418134 0.12065734
000060 b4 ea 66 bd 38 2d 22 3d 0c cc 63 bd 48 f3 b6 3d
       -0.056376174 0.039593905 -0.055614516 0.08933121
000070 c0 74 cc 3d 60 06 ec bd 88 88 da 3d c4 7c 74 3d
       0.09983206 -0.115246534 0.106705725 0.0596893
000080 dc 1c 5f 3d 0c c7 52 3d 04 d0 d4 3d 60 35 87 bc
       0.05447088 0.051459357 0.10391238 -0.016504943
000090 b2 7f d8 bd f8 ea 12 bd 58 4b b4 bd f0 62 07 3c
       -0.10571231 -0.035868615 -0.08803433 0.008263335
0000a0 40 30 bf bc 86 50 89 bd 00 35 3a bc 0e 89 f2 3d
       -0.023338437 -0.06704812 -0.011365175 0.11842547
0000b0 70 89 21 bc 60 0c 82 3b 20 b4 9f bc e0 fa a0 3c
       -0.009859428 0.0039687604 -0.01949507 0.019650877
0000c0 68 19 e4 3d cc 8a 9c 3d 84 bd 35 3d a8 86 de 3c
       0.11137658 0.07643661 0.04437019 0.027163818
0000d0 b0 73 f1 3c 78 cd 45 3d 28 53 84 bc bc ed ed bd
       0.02947411 0.048291653 -0.016152933 -0.1161761
0000e0 3e 50 9e bd 98 84 da 3d 00 d5 f4 3b fa 60 cf bd
       -0.07730149 0.106698215 0.0074716806 -0.10125919
0000f0 50 83 a1 3c 8a 86 d3 3d 80 eb f1 bd 6a 59 ac bd
       0.019715935 0.10328396 -0.11812496 -0.08415492
000100 78 e9 4b bd 40 67 a4 3b b0 d3 ee bc a0 0e 61 bc
       -0.0497832 0.005017191 -0.029153675 -0.013736397
000110 66 92 f9 bd 48 c2 6f 3d c8 b3 e0 3d 1e 7a 9c 3d
       -0.121861264 0.05853489 0.109717906 0.076404795
000120 2a 48 b5 bd ca 5c ce bd f4 9b 54 3d 00 fb 37 3b
       -0.08851655 -0.10076292 0.05190654 0.0028073192
000130 78 e2 51 3d 98 26 fa bd 40 37 f4 bb da 8a b4 3d
       0.051241368 -0.122143924 -0.0074528754 0.08815546
000140 cc 85 6d 3d 40 93 95 3b 80 56 c9 3c a0 e7 41 bc
       0.057988927 0.0045646727 0.02457738 -0.011835009
000150 e4 c1 8c bd 04 7c 41 bd 18 e6 9b bd ce a2 d4 3d
       -0.06872919 -0.04723741 -0.07612246 0.10382615
000160 96 df 8c 3d d8 0e 33 3d 72 50 c4 bd 02 89 c5 3d
       0.06878583 0.043715328 -0.09585656 0.09645273
000170 ac 88 20 3d 74 19 b1 3d 6c 6a 49 bd b8 15 d9 3c
       0.03919284 0.08647433 -0.049173757 0.026499614
000180 32 f4 f9 3d 64 33 ac 3d a8 4f cd 3d 40 06 d7 bc
       0.1220478 0.084082395 0.10024959 -0.026248097
000190 62 0a c3 3d e8 81 c8 bd 20 21 31 3c 5e 24 90 bd
       0.09523465 -0.09790403 0.01081112 -0.070381865
0001a0 f8 cf ee bc 34 1f 03 bd c0 3a 19 3c ea fe e8 3d
       -0.029151902 -0.03201218 0.009352386 0.11376746
0001b0 a4 7b 7d 3d 00 d0 0a ba 70 b8 b5 3d 4a 30 83 bd
       0.06188549 -0.00052952766 0.08873069 -0.06405695
0001c0 62 ef 83 3d a0 ea 3d bc e8 2f b2 bc 30 c4 6f 3c
       0.06442143 -0.0115915835 -0.02175136 0.014634177
0001d0 ea 1e c4 bd 50 a9 6c 3c 64 27 2c 3d ce dc da 3d
       -0.09576209 0.014444664 0.042029753 0.106866464
0001e0 5c 68 1f bd 88 55 38 3d 06 e0 ff 3d d4 a1 5b bd
       -0.038917884 0.045003444 0.12493901 -0.05362113
0001f0 06 5a f3 3d 34 34 7e bd e0 af 61 3d 78 93 48 3d
       0.11882405 -0.062061504 0.055099368 0.048968762
000200 18 04 0f 3d 12 72 ca 3d a4 ee 4e bd 38 90 06 3d
       0.034916013 0.098850384 -0.050520554 0.03285238
000210 00 e6 37 3a 5a 8c c0 bd 38 a4 f8 bc 74 f6 aa bd
       0.00070151687 -0.0940177 -0.030351743 -0.083477885
000220 30 62 62 3d 60 1b 38 3c b0 a1 48 3c 68 53 1b bd
       0.05526942 0.011236995 0.012245581 -0.03792134
000230 00 91 1d 3a 0c 41 1f bd b8 1d 13 3d 94 9e f8 3d
       0.00060106814 -0.038880393 0.035917014 0.121396214
000240 18 1b 9b 3c 30 c6 62 bd 3a 5f 9c bd 10 8c 1c 3c
       0.018933818 -0.055364788 -0.076353505 0.009554878
000250 a2 e9 bd bd 26 6c c0 bd e0 9f a6 bd ec e5 2d bd
       -0.092730775 -0.09395628 -0.081359625 -0.0424556
000260 80 96 17 3c da 48 b0 3d 58 51 46 3d 5c 20 c4 3d
       0.009252191 0.08607645 0.04841742 0.095764846
000270 e2 bd a0 bd b0 d3 2c 3c b0 8d e3 bd 32 db 92 3d
       -0.07848717 0.010548517 -0.11111009 0.071707144
000280 68 69 d5 3c 62 9b f7 3d 00 12 b6 bd 46 4b cd 3d
       0.026051238 0.12090184 -0.08890152 0.10024123
000290 3a 1f d8 3d 02 fb ce 3d 98 1e 92 3c 88 c6 e8 3d
       0.10552831 0.1010647 0.017836854 0.11365992
0002a0 3c f7 aa 3d 0e ff be 3d 30 0a 05 bc 34 74 c4 bd
       0.083479375 0.093259916 -0.008120105 -0.095924765
0002b0 00 e2 cb ba 08 0a c0 3c 18 61 ae bd 04 da 92 bd
       -0.0015555024 0.023442283 -0.08514613 -0.071704894
0002c0 68 70 f5 bd f4 7a 33 bd 58 fe de 3d 98 19 af 3c
       -0.119843304 -0.04381843 0.10888356 0.021374509
0002d0 20 2f fa bb c0 7c a4 3b b0 a0 9f 3d 74 10 e2 bd
       -0.0076350123 0.005019754 0.077943206 -0.110382944
0002e0 e6 86 c5 bd 90 39 2a bd 28 55 93 bd 7e 0a 84 3d
       -0.096448705 -0.041558802 -0.07193977 0.06447314
0002f0 a8 e2 b4 3d b8 60 f8 bd 12 43 d9 bd 20 4c f9 bd
       0.08832294 -0.12127823 -0.10608496 -0.12172723
000300 80 27 41 3d f2 0a ce 3d b0 7c c6 bd a0 08 6d bd
       0.04715681 0.100606814 -0.09691751 -0.057869554
000310 d0 ed 22 3d 0c 2a a7 bd 7e 77 d9 3d d0 c1 ee 3c
       0.039777577 -0.08162317 0.106184945 0.029145151
000320 4c 88 0e bd d0 04 05 3c 20 a0 1f 3d c8 0c 35 bd
       -0.03479795 0.008118823 0.038971066 -0.044201642
000330 f4 5c c6 bd 00 41 5c 3a 80 37 15 3b 80 31 25 3b
       -0.09685698 0.000840202 0.0022768676 0.0025206506
000340 c0 6e 95 bc ee 5e a4 3d d8 e0 0e bd 40 3b 46 bc
       -0.018241286 0.08025919 -0.034882396 -0.012099087
000350 30 87 52 3d ce 22 a1 bd a8 17 09 3d 28 6c e2 bc
       0.051398456 -0.078679666 0.033469826 -0.027639464
000360 c4 97 75 3d f2 de 8a bd a0 61 97 3b c0 5a 48 3c
       0.059959188 -0.06780805 0.004619792 0.012228668
000370 0a fa cd bd fe 25 ba bd dc 5b 44 3d 5c 05 15 bd
       -0.10057457 -0.09089278 0.047939166 -0.036382064
000380 9c 09 98 3d 90 e4 fc bd a4 18 7d bd 82 db d2 bd
       0.07423708 -0.12348282 -0.061791077 -0.10295774
000390 84 87 4c 3d 40 7f 6d bb 78 ff be bc 40 5d aa bc
       0.049933925 -0.0036239177 -0.023315176 -0.020796418
0003a0 24 1a c8 bd 5c 33 11 3d 40 31 4c 3b 3e ab b0 bd
       -0.09770611 0.03544937 0.0031157285 -0.08626412
0003b0 c8 a8 40 3d c0 a6 24 bb fc 96 f7 bd 24 b5 89 3d
       0.047035962 -0.0025123805 -0.12089345 0.06724003
0003c0 5c ee 88 3d 98 ee c0 bc 8e c0 b0 bd 60 74 a4 3b
       0.066860884 -0.02355127 -0.08630477 0.005018756
0003d0 24 2c c1 3d b6 53 ea 3d a4 3a c1 bd 28 41 67 bd
       0.09432247 0.11441748 -0.09435013 -0.056458622
0003e0 ee 53 c7 3d 24 41 7a 3d a2 77 9e 3d 08 d7 7e bd
       0.09732805 0.06109728 0.07737662 -0.06221679
0003f0 86 8d dc 3d ea 72 d2 bd c0 4c c5 bb 00 17 2a 3b
       0.10769181 -0.10275824 -0.006021112 0.002595365

bias f4 [32]
000000 e0 a0 c4 3b fa 90 f5 bd 28 42 82 3c 5c 20 34 3d
       0.006000623 -0.11990543 0.015900686 0.043976173
000010 f6 1a e5 3d 3c f4 25 bd 5c ac 38 3d 40 91 2b bd
       0.11186783 -0.040516123 0.04508625 -0.041886568
000020 b4 0b 34 bd e8 d6 e2 bd a8 23 d8 3c c2 c6 ab 3d
       -0.043956473 -0.11076146 0.02638419 0.083875194
000030 72 69 8e bd e4 52 51 3d f8 ba 9f bc a4 c1 b5 bd
       -0.06953706 0.05110444 -0.019498333 -0.08874825
000040 40 60 5a 3c e2 78 f9 bd 9e 3b 89 3d 98 41 e2 bc
       0.013328612 -0.1218126 0.06700824 -0.027619168
000050 34 c5 eb 3d 20 35 97 3b 8a 30 f8 bd d2 a8 c6 3d
       0.11512223 0.0046144873 -0.12118633 0.09700169
000060 10 fb df bc e6 5a af bd bc 5c ec 3d 60 47 3f 3c
       -0.027341396 -0.085622594 0.11541125 0.011674732
000070 34 ff 25 3d 52 76 dd bd 78 d2 34 bd e6 66 cd 3d
       0.040526584 -0.108135834 -0.04414603 0.10029392

weight_ih_l0 f4 [128, 32]
000000 a9 15 db 3c 01 26 92 3d 92 9f 04 be d1 b1 44 bd
       0.026743727 0.07136155 -0.12951496 -0.04802114
000010 16 01 f3 bd 46 e1 37 bd 4e 0e 74 be 8a 2e c8 be
       -0.118654415 -0.044892572 -0.23833582 -0.39098006
000020 ee 8c 42 be 6a ce 8e 3e 62 e1 b9 3d bc 66 20 be
       -0.18999073 0.27891856 0.090761915 -0.1566419
000030 3c e9 05 3d 2b 55 46 be f6 51 5e 3e e9 27 80 bd
       0.032693133 -0.19368427 0.21710953 -0.06257612
000040 0e 81 d4 3d 07 4d 7e 3e f3 74 71 be 1e 88 b9 3d
       0.10376178 0.24834071 -0.23579769 0.090591654
000050 4b d9 a6 be a9 eb 31 3a f8 db 2f be a6 02 a1 be
       -0.32587656 0.000678713 -0.17173755 -0.31447333
000060 0a a8 d9 bc 43 49 32 be 2f 99 bd 3c 00 fb 3f 3d
       -0.026569385 -0.1741076 0.023144333 0.04687023
000070 12 43 a1 3d 83 2a c7 bd 0c 06 01 3e e8 9f 02 be
       0.07874121 -0.09724905 0.12599963 -0.12756312
000080 11 1e bb 3d 83 f0 67 bd ed e7 ab bd 96 45 5b be
       0.09136594 -0.056625854 -0.08393846 -0.21413264
000090 4c 89 94 3d 43 53 63 bc ce 42 19 3d 25 b5 56 be
       0.0725275 -0.013874832 0.037417226 -0.20967539
0000a0 5d 1b cb bd 38 6d 8f 3e 57 09 5a 3e fa c2 39 ba
       -0.099173285 0.28013015 0.21292625 -0.0007086244
0000b0 c6 54 49 3e 6c a1 3d 3b 35 b2 03 be 47 81 f9 bd
       0.19661245 0.0028935326 -0.1286095 -0.12182861
0000c0 94 86 e2 3d a1 8a 98 3d 83 ce 80 bd b9 18 06 3e
       0.11060825 0.07448316 -0.06289389 0.13095368
0000d0 04 e0 4b be 19 28 9c bd 02 f1 6a bd 74 ce 90 be
       -0.19909674 -0.076248355 -0.05735875 -0.2828251
0000e0 bc 32 6e 3d ec 83 19 bd 6e 7d 7f 3e e8 92 5e 3d
       0.058153853 -0.037479326 0.24950191 0.05433932
0000f0 ce 35 93 3b c0 19 f7 3c a8 82 b2 3d 62 24 bc bd
       0.004492498 0.030163646 0.08716327 -0.09186627
000100 dc af f0 3d 73 f4 3a 3e 5f 38 59 3d d7 24 a2 be
       0.117522925 0.18257312 0.053032275 -0.31668732
000110 84 f4 d0 3d 95 0e 60 be e8 4a 98 3d b4 c7 99 be
       0.10202888 -0.21880563 0.07436162 -0.30035174
000120 de 59 4a bd 7d df 50 3e da 2e 1a 3e fe c5 87 be
       -0.04940211 0.20397754 0.15056935 -0.26518244
000130 aa 7d e7 3d a1 f6 a6 bd 52 c3 cf 3c d1 7a 24 be
       0.113032654 -0.081525095 0.02536169 -0.16062476
000140 aa b8 7e 3e a0 89 ba 3e 88 8c 15 be 4a 67 83 3d
       0.24875131 0.36433125 -0.1460439 0.06416185
000150 7a 93 8d b9 7a b3 6f 3d d9 12 1d be 8e ea 06 bf
       -0.00027003494 0.05852077 -0.15339221 -0.5270165
000160 97 10 68 bd 76 86 ad be 73 45 97 3d bd 81 57 3e
       -0.056656446 -0.33891648 0.07386293 0.21045585
000170 f6 bf 03 3d d0 f6 eb bc bd d6 ab 3b 69 b1 8d 3d
       0.03216549 -0.028804213 0.0052441047 0.06918604
000180 af a0 6a 3e b8 64 b0 3d 6d 6d 2e be f4 ad b3 be
       0.22912858 0.086129606 -0.1703393 -0.35093653
000190 6c c1 a5 bd 24 17 75 be b0 7f ec bc fe 4a 14 bf
       -0.08093533 -0.23934609 -0.02886948 -0.5792693
0001a0 1e f7 0b 3e f0 21 4c 3e 88 a3 4f 3d b2 34 af 3c
       0.13668486 0.19934821 0.050693065 0.021387432
0001b0 26 ab f4 3c 49 a3 60 be cc c9 3e 3e cf 15 eb 3c
       0.029866766 -0.21937288 0.18631667 0.028696923
0001c0 90 3d da 3d a4 6c 7a 3e 3f 45 a2 bd ba 9f 05 bd
       0.10656273 0.24455506 -0.07923364 -0.03262303
0001d0 82 3b fe bd 60 7f c8 bd 2b fe 5d be 25 d5 08 bf
       -0.12413694 -0.0978992 -0.21678989 -0.5345023
0001e0 39 28 38 bd 45 f2 7b be 71 2c e9 3b b2 e6 c0 3d
       -0.044960234 -0.24604137 0.0071158935 0.09419002
0001f0 75 7e b3 3d 0b 24 de 3d 63 6b 0d be c5 86 5b 3d
       0.08764354 0.108467184 -0.13810496 0.053595323
000200 f3 34 a1 3c 24 c9 60 3d 00 77 85 3c 93 32 1d be
       0.019678568 0.054879323 0.016292095 -0.15351324
000210 6c 61 b8 bd b9 a4 f4 bd 3d 77 ec bd b2 2b 91 be
       -0.09002957 -0.11945481 -0.115461804 -0.2835365
000220 aa 34 24 be 88 35 75 3d f7 93 1b 3e a1 c5 6e bd
       -0.16035715 0.059865505 0.15193163 -0.058293942
000230 4d 56 c5 3d be e0 2b be 0b 40 07 3e c5 2a 07 be
       0.09635601 -0.16784951 0.13208024 -0.13199909
000240 fb f1 1c 3e d5 21 f5 3e 16 32 7d be 05 10 0a be
       0.15326683 0.47877374 -0.24726138 -0.13482673
000250 ae db 81 be 71 08 ac bd 27 56 64 be b9 3f e8 be
       -0.25362915 -0.084000476 -0.2229849 -0.45361117
000260 7d c2 b1 3d df a3 5d be d2 8a 9c 3d f3 8e 24 3e
       0.08679674 -0.21644543 0.076436654 0.16070156
000270 5c cf 77 3e c0 3d b3 ba a5 c0 73 be 56 12 06 bc
       0.24200195 -0.0013675019 -0.23803957 -0.008183083
000280 f3 eb 65 3c 81 89 89 3d 3d 24 64 bd 95 3f 41 be
       0.014033305 0.0671568 -0.055698622 -0.18871911
000290 2e 0c ec bd d6 ff ab bd fa 2d 80 be b8 2f 5d be
       -0.115257606 -0.08398406 -0.25035077 -0.21600235
0002a0 72 8a a8 be 5b ac 21 3e 5b 6c 03 3d 8d c9 c1 bb
       -0.32918125 0.15788405 0.032085758 -0.0059139193
0002b0 56 47 eb 3d e4 85 3c be 3d 2b 3f 3e 4a bb 99 3b
       0.114882156 -0.1841045 0.18668838 0.004691516
0002c0 6a 36 6d 3e 05 7a 0b 3e 26 19 09 3e 2c 5f 6f bd
       0.23165289 0.13620766 0.133885 -0.058440372
0002d0 97 25 7b be ab b8 9e 3d 96 b7 cb 3d bf 26 be be
       -0.24526058 0.07750066 0.099471256 -0.37138936
0002e0 7b 7a 32 3e c6 41 49 be 8b 4a 36 3e 19 8d c0 3d
       0.17429535 -0.19653997 0.17801873 0.09401912
0002f0 8a 77 d0 3d 1d 32 2d 3d 82 fa a0 be ab 75 76 3d
       0.1017905 0.04228412 -0.31441122 0.06017081
000300 a5 df 6c 3e ce a5 e6 3d 84 12 0e be d8 4c 2b bd
       0.23132189 0.112620935 -0.1387425 -0.04182133
000310 4d 0c c1 3d 82 7a 5e bd d0 9e 85 bc 00 3c ad be
       0.09426174 -0.05431605 -0.01631108 -0.3383484
000320 ff 9b 55 3c 1a 7d 4e 3a 97 d9 04 3d 56 d3 28 be
       0.013037681 0.0007876918 0.032434072 -0.16486868
000330 a2 29 ac 3c 4d 68 be bd a3 1b 97 3b 5a 94 de bd
       0.021015946 -0.092972375 0.004611449 -0.108681396
000340 7d a4 0c 3e 29 ff 9b 3e 5c e4 50 be 41 2d 9b 3d
       0.13734622 0.3046811 -0.20399612 0.07576991
000350 e3 ac 87 be f0 c6 77 3d 96 7e d3 bc 57 a5 0d bf
       -0.2649909 0.060492456 -0.025817197 -0.55330414
000360 1b a8 3a bb 01 c5 d0 bd 0c 56 6c 3d 38 66 89 3e
       -0.0028481546 -0.101938255 0.05769925 0.268358
000370 25 3e 11 3d 82 46 76 3d 1e cb 01 be 55 00 0e bd
       0.035459656 0.060125835 -0.1267514 -0.034668285
000380 ab f5 2c bc 99 ce cf 3e 94 a0 74 3d c5 16 c9 be
       -0.010556619 0.4058731 0.05972345 -0.39275184
000390 ac 1c 35 be 9c e8 a7 be d5 33 fa bc 83 6c f4 be
       -0.17686719 -0.32794654 -0.030542294 -0.47739038
0003a0 1b f8 0a be 31 ba 92 3d 12 a9 03 3c 88 7c 91 be
       -0.13571207 0.071644194 0.008035915 -0.28415322
0003b0 2c 0c 03 3d 61 b3 d0 be 69 05 38 bd 77 aa 2d be
       0.03199403 -0.40761855 -0.044927035 -0.16959558
0003c0 ac a2 4b 3e 10 e3 6a 3e ac 04 49 be 2d ec db 3d
       0.19886273 0.2293818 -0.19630688 0.10738406
0003d0 c4 72 06 be ef 08 40 bd 77 6e e0 3c 00 56 0a bf
       -0.13129717 -0.04688352 0.027396424 -0.54037476
0003e0 27 ec 49 3e 1f 5b a7 be 6e c2 c9 3e 74 7c 61 3e
       0.19718991 -0.32686707 0.3940615 0.22020131
0003f0 88 4f 7b 3e 7a 99 4a bd 6f 83 25 be a2 f7 1a 3e
       0.24542058 -0.049462773 -0.16163419 0.15133527

weight_hh_l0 f4 [128, 32]
000000 ed b0 93 3d 3d da 2a 3d 99 f0 05 be 6d 3e 10 be
       0.0721148 0.041712034 -0.13080062 -0.14086314
000010 6b 2c a1 bd 58 3a 84 bd d0 56 16 3e ad e1 ad 3c
       -0.078698 -0.06456441 0.14681554 0.021225775
000020 3a bb 11 3e d5 5b 08 be d1 62 5b bd b3 29 c3 bd
       0.14231578 -0.13316281 -0.053561036 -0.09529438
000030 f9 6d 20 be 43 bd 08 bd f3 94 8e 3d e4 f8 95 3d
       -0.15666951 -0.03338362 0.069620036 0.07322863
000040 16 48 9f 3d 8c 8b 9f 3b c6 22 2c 3e 5d f6 7b 3d
       0.07777421 0.00486893 0.1681014 0.061514247
000050 83 a1 45 3e 9d c1 9a 3d 0d 37 5a bc 03 6f 11 bd
       0.19299893 0.0755646 -0.013318789 -0.03550626
000060 35 7b ba 3d 5e c2 c6 bd c1 33 ac 3d 18 ba dc 3d
       0.09105531 -0.09705041 0.08408309 0.10777682
000070 8c 82 f9 bd 90 3c 9e bd a5 41 e9 3d ff 1c fa bd
       -0.12183103 -0.07726395 0.11389474 -0.12212562
000080 c4 e9 32 3e 6b de cd 3d 87 a4 23 be bb dd c5 3d
       0.17471987 0.100521885 -0.15980731 0.09661432
000090 30 ad d1 bd 63 e9 54 be 02 c8 ef 3d 51 ac 28 be
       -0.10238111 -0.20792155 0.1170807 -0.16471983
0000a0 cd e9 cf 3d b0 43 4f 3d d4 19 bb bd 77 9a 99 bd
       0.10152016 0.05060166 -0.09135786 -0.07500165
0000b0 f1 32 c8 3a 3d 71 15 bb 7d fc 1c 3d ec 6e 74 3c
       0.0015273971 -0.002280309 0.03832673 0.014919024
0000c0 4c 5d 9e bd 56 00 5f 3d 76 e4 e4 bd fb 35 9c bd
       -0.07732639 0.05444368 -0.11176388 -0.076274835
0000d0 2d de 20 3e 4f 18 7c bd 87 ad 9d bd 7d 2f 38 be
       0.15709753 -0.06154662 -0.07699113 -0.17986865
0000e0 43 bd c5 3c 9d 3f 73 3d 3e c2 bd 3d dd 4f e4 3d
       0.024138099 0.05938684 0.092655644 0.11148045
0000f0 62 33 45 3e c6 36 72 bd 33 7f 2a 3d a1 b8 be bd
       0.19257882 -0.059134267 0.041625213 -0.09312559
000100 d0 bd 81 3d 09 90 83 bc 16 e3 33 be 9f ca 55 bd
       0.06335032 -0.016059892 -0.17567095 -0.052195188
000110 0f 77 19 3e cc ce 94 3d 0f 0f 3b 3e 2f 0d 3c 3d
       0.14986823 0.07266006 0.18267463 0.04591101
000120 75 06 e4 3d bb ff ee 3d 2d 24 22 be cd 6c 5e 3d
       0.11134044 0.116698705 -0.15834112 0.05430298
000130 d8 e4 62 bd e2 b9 c6 3d a6 53 0d be e7 c7 4d 3e
       -0.055394024 0.09703423 -0.1380144 0.20095788
000140 0a e5 fd 3d 2b 46 f3 3d f5 fe 5d bd 84 fe 1f be
       0.12397201 0.11878618 -0.054198224 -0.15624434
000150 f8 47 93 bd 49 63 5b 3d 9b 53 a3 3d 6e c5 4e be
       -0.07191461 0.053561483 0.07974931 -0.20192501
000160 5a 39 1d 3e d5 e8 13 bd a9 01 b2 3d 2a 7a d8 3c
       0.15353909 -0.036110718 0.08691723 0.02642544
000170 e3 d9 20 3d cb a3 1c 3d b9 aa ae bd c3 d8 8f bd
       0.039270293 0.038242143 -0.085286565 -0.07023766
000180 b1 71 62 3d e1 95 26 3e 62 1b e2 3d ae 40 75 bd
       0.055284206 0.16268112 0.11040379 -0.059876136
000190 88 81 3a 3d 52 1d 96 ba 72 2a 22 bd ec 92 f9 3d
       0.045533687 -0.001145283 -0.03959126 0.12186226
0001a0 dd d5 d5 3c a0 92 54 3e 89 5d cc 3d 2e c6 20 be
       0.026102955 0.20759058 0.09978778 -0.157006
0001b0 3e d6 44 be 1b f4 5e bd 8b 62 25 be 16 a0 81 3d
       -0.19222352 -0.054432016 -0.16150872 0.06329362
0001c0 5c 7d dc bd af d2 9c bd 40 83 07 be 30 04 ab 3d
       -0.10766098 -0.07657372 -0.13233662 0.08350408
0001d0 87 4a 72 bc 22 f4 03 3c 1c 8b 85 bd 69 ac 3d be
       -0.0147882765 0.008053811 -0.06520674 -0.185228
0001e0 fc 52 b7 bd fb e1 b8 3d 4e bf 2b bd 3c 84 42 bc
       -0.08951375 0.09027477 -0.04193049 -0.011872347
0001f0 b1 35 e0 3d 1a d3 3b 3e c7 bc 26 bd 0d 6f 4a 3e
       0.10947741 0.18342248 -0.040707376 0.19768925
000200 81 43 cc bc 28 cb 40 3e d5 1c 27 3e 8c e9 f3 3d
       -0.024934532 0.18827498 0.16319592 0.1190978
000210 9d 4b fa bd 13 d7 10 be 60 2e 5a 3d e4 10 ff bd
       -0.12221453 -0.14144544 0.053266883 -0.124543935
000220 2c 3a e7 bd 30 5b 91 3c 06 88 07 3d af cc 34 3d
       -0.11290392 0.017743677 0.033088706 0.044140514
000230 10 0e 80 3d c1 1c 2c be 8d 8c 24 bd 85 f1 4b bc
       0.06252682 -0.16807844 -0.040173102 -0.012447719
000240 c1 70 11 3e 33 50 ec bd e8 bf f7 bc 96 81 3e be
       0.14203168 -0.11538734 -0.030242875 -0.1860412
000250 88 62 53 3d 39 6a 07 be d9 08 a0 3d bf 60 f9 3c
       0.05160764 -0.13224114 0.078141876 0.03044164
000260 e8 b8 4f 3e c6 44 c8 bd 3c 1a 45 bd 55 38 2b bd
       0.2028538 -0.097787425 -0.048120722 -0.04180177
000270 c9 ad e8 3d eb 0c a0 3d 45 ca ed 3c 46 8c bb 3d
       0.11361272 0.07814964 0.029027114 0.091576144
000280 b1 7c cf bd 49 b6 0f be d9 19 b9 bd ad 47 6c 3d
       -0.10131205 -0.1403438 -0.09038133 0.057685543
000290 34 93 ed 3d 28 a4 0f 3e 3c da c7 3c 5f 37 3e bc
       0.116003424 0.14027464 0.024396054 -0.011609881
0002a0 45 fd 07 3e da a6 a2 3d 34 00 09 3d f5 1c ad 3d
       0.13280208 0.07941981 0.03344746 0.08452789
0002b0 32 27 96 3d dd 5d bd 3b 98 c2 9f 3c 32 cf 45 bc
       0.07331695 0.0057790116 0.01950197 -0.012073325
0002c0 56 95 57 3d 85 06 6f bd d6 0c 07 3e 86 be b1 bd
       0.052632652 -0.058355827 0.1318849 -0.086789176
0002d0 1e de d5 bd c8 0b 3f be 38 05 0e be f8 cc 56 3c
       -0.10442756 -0.18656838 -0.13869178 0.013110392
0002e0 71 da f5 3c ba 10 07 be 2d f1 d7 bd 81 69 49 be
       0.030011388 -0.13189974 -0.105440475 -0.19669153
0002f0 1a f5 ea 3d a1 b6 00 be be 6b d8 3d cb f5 cc 3d
       0.11472531 -0.12569667 0.10567425 0.10007819
000300 b5 b9 b3 3d 5a cd 2c 3e 53 ee d7 3d 8c 28 1f 3e
       0.08775655 0.1687521 0.105435036 0.15542811
000310 cf 8c 78 bc 39 a9 f9 bd 8e c8 d9 bd 65 25 07 3c
       -0.01517029 -0.1219048 -0.10633956 0.008248662
000320 f7 db ba 3d 24 f5 46 3e 0d 66 48 bd e2 29 e2 3d
       0.09123986 0.19429451 -0.04892545 0.11043145
000330 0d f4 b4 bd ff 4f 4d 3d c2 90 85 bd 59 e4 9a 3d
       -0.088356115 0.05012512 -0.06521751 0.07563085
000340 7e 49 2e be 11 c4 18 be 68 fb bd bb c6 29 fb 3d
       -0.17020223 -0.14918543 -0.005797792 0.12263827
000350 6d ab 82 3d a1 e8 e5 3d 5b 72 36 3e 8b bf 1f 3d
       0.06380353 0.11226011 0.1781706 0.03900103
000360 43 13 40 3e 8f 78 be 3d 7f b6 0f be 86 4a 06 3e
       0.18757348 0.093003385 -0.1403446 0.13114366
000370 89 73 a2 bd ec 33 f3 3d 5c ad 0f 3d 99 4a d9 3d
       -0.07932193 0.11875138 0.035077438 0.106099315
000380 e2 7e 01 3e 5d 50 c1 bd c3 74 6c bd 9a 38 0a 3e
       0.12646058 -0.09439156 -0.05772854 0.13498154
000390 41 78 ba 3b 20 d1 f7 3d 84 a1 10 3e 3f 93 b9 3c
       0.005690605 0.12100434 0.14124113 0.02265322
0003a0 1c bd e7 bd c7 15 61 3d c3 9a 9a bd a0 e4 ba 3d
       -0.113153666 0.05495241 -0.0754905 0.09125638
0003b0 86 b8 e3 3d b7 95 ea 3c 13 c7 f0 bd 60 e6 23 bb
       0.111191794 0.028635843 -0.117567204 -0.002500914
0003c0 77 47 51 be e8 5e 1a 3c 33 31 40 3e 37 86 e4 3d
       -0.20437418 0.0094220415 0.18768768 0.11158412
0003d0 b3 65 b9 bd c8 ab 01 be 85 4f 76 3d c8 5b fe bd
       -0.09052601 -0.12663186 0.06013443 -0.1241985
0003e0 9c a2 ab 3d 3a 2f 20 bd 88 bf c3 bd 42 4d 72 bd
       0.08380625 -0.03910754 -0.09558016 -0.05915571
0003f0 7b 9f ac bc 5d ec 16 3c e6 33 c8 3d 8b 83 40 3e
       -0.02107214 0.009211627 0.09775524 0.1880018

bias_ih_l0 f4 [128]
000000 95 7b 82 be 43 69 ff bd 2f f7 bf be d3 81 c0 bd
       -0.2548491 -0.12471249 -0.37493274 -0.09399762
000010 b5 6d 96 bd 2f d5 d5 bd a9 14 81 be 4d f2 f1 be
       -0.07345144 -0.10441052 -0.25211075 -0.47255173
000020 0a 5d a1 be 23 5d 36 be 96 a1 90 bd a8 af 4a bd
       -0.31516296 -0.17808966 -0.0706207 -0.049483925
000030 8d 13 e3 bd e3 3a c1 be a7 6c b2 be b1 1b 3b be
       -0.110877134 -0.3774024 -0.3484852 -0.18272282
000040 c3 17 3d be 39 7d c6 be fe 16 34 bc 15 bf 79 be
       -0.18466096 -0.38767412 -0.01099181 -0.24389298
000050 b9 e4 61 be 0a 39 75 be dc c0 77 bd d2 24 5f be
       -0.22059907 -0.2394754 -0.06048666 -0.2179139
000060 15 bf a4 be ef 95 98 be e6 9d 39 be 27 32 11 be
       -0.32177034 -0.2980189 -0.1812664 -0.14179288
000070 5e b8 a1 be 34 cd f5 bd 4f b4 13 be fa 56 85 bd
       -0.31585974 -0.1200203 -0.14424251 -0.0651073
000080 ff b1 da bd 96 1b 64 3d 3a c4 ea bc b1 af 22 be
       -0.10678481 0.05569037 -0.028658021 -0.15887333
000090 c0 9e a7 bd d9 f5 0c be dc 6d c4 bc e2 30 c0 bd
       -0.08184576 -0.13765658 -0.023978166 -0.09384324
0000a0 f2 d0 f5 3c e8 e0 b1 3d 8f cc 27 bc 6c 6d 75 be
       0.03000686 0.086854756 -0.010241642 -0.23967522
0000b0 f7 0a 56 be 3d e9 7b be 17 bc 8f be ff 3d 08 be
       -0.2090262 -0.24600692 -0.2807319 -0.133049
0000c0 ee bc 83 3d a2 fc b8 be dc 00 83 bd 4d 80 33 be
       0.0643252 -0.36130244 -0.06396648 -0.17529412
0000d0 ff 7a 28 be f3 89 9d bd 1a f0 27 be 5d 47 15 3d
       -0.1645317 -0.07692327 -0.16400185 0.03644501
0000e0 f4 2a cd bd a3 fe cb bd 54 8c 5a 3d 9c 90 9d 3c
       -0.10017958 -0.099606775 0.053356484 0.019233994
0000f0 e8 87 1b bd 60 39 17 bd eb 9b 32 bd 54 e9 69 be
       -0.037971407 -0.03691995 -0.043605726 -0.22842914
000100 7e cf 53 3d f8 37 c0 bd d8 ef 92 3d f9 20 10 be
       0.05171155 -0.09385675 0.07174653 -0.14075078
000110 36 58 8f 3d 00 a7 89 bd 74 dc bd bd 96 74 50 bd
       0.06999247 -0.06721306 -0.09270564 -0.050892435
000120 ad d2 00 3e 84 4b 14 be 1b f4 ea 3d 0f 79 03 be
       0.12580366 -0.14481932 0.11472341 -0.12839149
000130 94 00 18 be 58 95 24 3d 50 a8 81 bd a2 4f 4b bd
       -0.1484397 0.040181488 -0.06330931 -0.04963649
000140 7f cc 14 3e 4a 55 86 3d 69 2e 21 be 50 47 85 3d
       0.14531134 0.06559236 -0.1574036 0.065077424
000150 b2 26 9a bd 89 c6 93 3d 51 af ad bd 43 ef e1 3d
       -0.07526912 0.07215602 -0.084807046 0.11031964
000160 9b f9 01 be c8 57 ce 3c 20 a4 89 3d 40 02 c0 3d
       -0.12692873 0.025188342 0.067207575 0.09375429
000170 cd 12 63 bd 60 43 49 bd 9f 43 b6 3c 63 cf 07 3d
       -0.05543785 -0.04913652 0.022249041 0.033156764
000180 75 08 30 be d4 c2 8b 3b 32 e5 94 be 46 cb 44 be
       -0.17190726 0.0042651687 -0.29081112 -0.19218168
000190 c9 80 51 be e6 c7 2a be 2e bd 06 be 28 63 40 be
       -0.20459284 -0.16677818 -0.13158104 -0.18787825
0001a0 81 e9 aa bd 94 92 7e be 38 85 30 3c e8 1b b7 bd
       -0.083453186 -0.24860603 0.010773949 -0.089408696
0001b0 ba 47 5f be 57 43 9a be cd f3 ea bd f6 9e 65 bd
       -0.21804705 -0.301295 -0.114722826 -0.0560598
0001c0 0c 04 4a be 18 8d 21 be f4 6a 81 bc 75 c5 62 bd
       -0.19728106 -0.15776479 -0.01579807 -0.05536409
0001d0 7a 84 c5 bc 1b a1 89 be 35 5c 31 be 20 a6 65 be
       -0.024111021 -0.26880726 -0.1732033 -0.22426653
0001e0 1b 3c bd be 05 0f de bd dc 97 65 bd fd d6 32 bd
       -0.3695992 -0.108427085 -0.056053028 -0.04366206
0001f0 30 b7 0e be 5a e2 46 be 3c ae 1a be 06 51 6a 3d
       -0.13937068 -0.19422284 -0.15105528 0.057206176

bias_hh_l0 f4 [128]
000000 51 77 b6 be 4a 26 47 be ee 65 29 bd 8e 05 b7 be
       -0.35637906 -0.194482 -0.041356973 -0.35746425
000010 e5 8c 58 be 21 e3 c6 be 40 eb 2e be ef de 86 be
       -0.21147497 -0.3884516 -0.17081928 -0.2634196
000020 f5 d0 39 be 00 b4 13 3c da b7 15 be 6b 4a e9 bd
       -0.18146117 0.009015083 -0.14620915 -0.11391147
000030 9d f4 42 be 88 dd 03 be 19 12 7a bd 0d 1e a9 be
       -0.19038625 -0.12877476 -0.061052416 -0.3303074
000040 66 73 88 3d 0f 41 30 be 1d 1d 88 be 45 04 89 bc
       0.066626355 -0.17212318 -0.26584712 -0.016725669
000050 b6 bd 54 bd 28 6d 50 be 01 bc 64 be 85 f9 47 be
       -0.051938735 -0.2035414 -0.22337343 -0.19528778
000060 f2 2d b9 be 46 f9 45 be 63 6d a1 be fd 31 8c be
       -0.36167866 -0.19333372 -0.31528768 -0.27381888
000070 58 ea 94 be 32 6d 42 3d 27 61 91 bd 83 f4 7b be
       -0.2908504 0.047467418 -0.070986085 -0.24604993
000080 32 3d a4 be 30 61 0f be ed 03 af be 68 6c 0e be
       -0.32077938 -0.14001918 -0.34182683 -0.13908541
000090 96 26 6e bd 3b af a0 be 05 46 15 bc a2 78 b4 be
       -0.058142267 -0.3138369 -0.009110932 -0.35248286
0000a0 b9 5a e1 bd 93 8d 32 bd 54 0c 05 3d f8 c8 f4 bd
       -0.11003632 -0.043592047 0.03248246 -0.11952394
0000b0 0c 4b 97 be 43 b9 3d bd 76 6d f6 bd 09 fe a2 bd
       -0.29549444 -0.046319257 -0.12032597 -0.079586096
0000c0 a2 b7 3a be 3c 0e 6e be fc b4 85 be 9c 34 53 3d
       -0.18234113 -0.23247617 -0.26114643 0.051563844
0000d0 d5 0c 87 be db db 8e be ae 7e b0 bd 53 fc 1e be
       -0.26376978 -0.2790211 -0.08617912 -0.15525942
0000e0 a0 56 9b be e9 d1 40 be c1 49 23 be f4 02 49 be
       -0.30339527 -0.18830074 -0.15946104 -0.19630033
0000f0 c2 86 5f be 3c 01 68 be a4 21 2a be 66 cc 1b be
       -0.2182875 -0.22656721 -0.16614395 -0.1521469
000100 e8 5a c0 bc e3 49 b1 bd 8b 07 fa 38 0a 76 60 3d
       -0.023480847 -0.08656671 0.00011922334 0.05480007
000110 40 8e 47 3d ed 36 59 bb c5 d4 0d bd 30 40 9e 3d
       0.048719645 -0.003314431 -0.03462674 0.077270865
000120 46 38 16 bd c5 77 07 3e 7b 7f 53 3d f9 d1 00 3e
       -0.03667476 0.13229282 0.051635247 0.12580098
000130 08 2a db 3d c1 2d 13 bd b4 12 ee 3d e8 b9 bf bd
       0.10701376 -0.035932306 0.11624661 -0.09361631
000140 4f 0a 0f be 34 af bd bd f0 65 2b 3d 0a 9a 0e 3c
       -0.13968776 -0.09261933 0.041845262 0.008703718
000150 eb 30 a6 3d 1c 85 76 3c a6 e1 e1 bd 52 28 c9 bd
       0.08114799 0.015046384 -0.11029367 -0.098221436
000160 e8 33 8f 3c 62 fd 67 3d 87 c8 45 3d 2c bc 7d 3d
       0.017480806 0.05663813 0.04828694 0.061947033
000170 9f 95 a9 bc ea 1a 98 3d bf b3 3e bd f8 6d cd bd
       -0.020701228 0.074270085 -0.046558138 -0.100307405
000180 61 30 c5 be b9 a1 9b 3c b0 82 02 be 0b 3d 4c be
       -0.38513473 0.018998014 -0.12745166 -0.19945161
000190 f9 35 ab bd 97 23 32 be 38 18 19 3d f3 00 03 bf
       -0.08359904 -0.17396389 0.037376612 -0.51173323
0001a0 33 1c a0 be 34 9a 0d bd e7 db 22 be e0 1b bc bd
       -0.31271514 -0.034570888 -0.15904199 -0.09185004
0001b0 b0 5e 8c be f2 c3 0c be 0f 7d 86 be 01 2f 26 be
       -0.2741599 -0.13746622 -0.26267287 -0.16228868
0001c0 d0 85 47 be 1c cb 5f be 70 be e8 bd 7e 83 53 be
       -0.19484639 -0.21854824 -0.11364448 -0.20655629
0001d0 0a 29 a7 be 11 61 c5 bd b4 85 d2 bd 5a e7 12 be
       -0.32648498 -0.096376546 -0.10279408 -0.14346066
0001e0 78 0e 29 be 6c 4c 72 be 9d 9b 46 be be b5 22 3c
       -0.16509426 -0.23661965 -0.193953 0.009931026
0001f0 f5 e6 4c be 96 45 58 be 5c dc 92 bd 1d bd 01 be
       -0.20009978 -0.21120295 -0.071709365 -0.12669797
