experiments/pedestrians/models/06_Aug_2023_21_23_08/model_registrar-3.pt (torch, 713991 bytes, 82 tensors)

weight f4 [64, 10]
-0.24571586 -0.19898535 0.20712905 0.032648146 -0.042924635 0.44179904 0.062042985 -0.19878404
-0.11489322 0.16695946 -0.08845316 0.21356194 0.31279042 -0.08333903 -0.018377222 -0.15585841
-0.23572773 -0.3189351 -0.06035764 0.1424793 0.0917311 0.08492771 -0.29363143 0.405393
0.22272535 0.046185307 -0.15605041 0.08127356 0.112934016 -0.045404952 -0.114440195 0.122876786
-0.06806839 0.19905043 -0.25774336 0.3339224 -0.20353517 -0.14204141 0.034864154 -0.18404025
0.14415927 -0.081375174 0.050668973 0.15078682 0.2776933 0.10487667 0.21936205 0.10003127
-0.31095132 0.111339614 -0.0133283045 0.11883143 0.2572502 -0.0705459 -0.02543669 -0.09819975
0.040345006 -0.14352036 -0.19097614 -0.056848243 -0.0038084781 0.20880756 0.37329933 0.0885176
0.26694778 -0.16994989 -0.24935041 0.2805505 0.32239875 0.24050824 -0.18471783 -0.1479289
0.3101093 -0.31975996 -0.35648096 -0.23857123 0.31001315 -0.066049494 -0.042464267 -0.053089082
-0.19261672 -0.044102773 -0.04574684 0.108154885 -0.24164727 -0.17748658 -0.26079434 -0.28472343
0.117806025 -0.010574555 -0.18122223 0.005511637 0.28950098 0.24639387 0.16903687 -0.01354248
0.079963215 -0.30254394 0.22933759 0.20112677 -0.2060952 -0.035679203 0.08981742 0.12925544
-0.2551047 0.009271123 -0.17685218 0.077194735 0.17663096 -0.31032068 0.0287715 -0.12742256
0.42438668 -0.26459673 -0.5561713 -0.36453366 0.0074048196 0.31659466 -0.21135147 -0.15124227
-0.31437334 0.27726108 0.28839317 0.14767547 0.3319488 0.2916016 0.25589654 -0.027094638
0.09361624 -0.12815541 -0.04759928 -0.011011985 -0.16444415 -0.34068274 -0.047652215 0.01733658
0.10258828 -0.1630875 -0.032318745 -0.19229755 0.19964968 -0.22797145 -0.23389234 0.29544145
-0.2154506 0.02383049 0.12696749 -0.098195806 -0.13235706 0.2350036 -0.05538106 0.22343884
-0.1034955 -0.13901155 0.31509888 -0.20980774 -0.29658788 0.099313915 -0.27969897 0.037106805
-0.19798768 0.29103652 0.20416483 0.22427318 -0.5072952 0.24215168 -0.017191175 0.15509096
-0.09298494 0.31490806 0.25402877 0.22371915 -0.1489988 0.3048542 -0.14012253 0.10364242
0.16857165 0.1741873 0.102247715 0.27163833 -0.10220008 0.2605551 0.3274595 -0.05573114
-0.118400864 0.12470693 0.24594028 -0.0037366385 0.16693062 0.2725134 0.22732033 0.10531039
-0.11728203 -0.16124576 -0.37919632 0.14592089 0.07679268 0.12931319 -0.23824495 0.22445649
-0.072520025 0.11894403 -0.20354807 0.2252601 0.3250224 -0.17542848 0.113803394 -0.02387177
0.34521297 0.01938931 -0.19900206 -0.11308925 0.066529445 0.19718239 0.39318377 0.51739633
0.2618349 0.069114365 0.10419315 -0.11989561 0.024801169 0.20870416 -0.14798756 0.10053341
-0.017852653 0.098108225 0.20980987 0.2339804 0.07549956 -0.17903987 0.061374012 -0.1735385
-0.1669256 0.4210475 -0.15258382 -0.071713425 -0.03205085 0.1637852 -0.034632254 0.22445317
0.18269037 -0.19472662 -0.13366649 -0.06961628 0.2174804 0.123129085 0.12461775 -0.22881755
0.032415316 -0.20495865 -0.26815763 -0.27986735 0.0072051184 0.29665634 -0.12058618 -0.073163815
00000000: f09c 7bbe d1c2 4bbe a319 543e 10ba 053d
00000010: bed1 2fbd 7c33 e23e c920 7e3d 0b8e 4bbe
00000020: 234d ebbd 6cf7 2a3e ee26 b5bd fbaf 5a3e
00000030: 1126 a03e a7ad aabd d48b 96bc 5999 1fbe
00000040: 9c62 71be 764b a3be 9339 77bd 18e6 113e
00000050: 84dd bb3d 94ee ad3d dc56 96be ac8f cf3e
00000060: 1d12 643e ce2c 3d3d aecb 1fbe c172 a63d
00000070: f349 e73d 8bfa 39bd 9f5f eabd d3a6 fb3d
00000080: 7167 8bbd e0d3 4b3e f0f6 83be e0f7 aa3e
00000090: 866b 50be 4e73 11be b7cd 0e3d 0c75 3cbe
000000a0: 7d9e 133e 07a8 a6bd 458a 4f3d dc67 1a3e
000000b0: d12d 8e3e 94c9 d63d 72a0 603e 32dd cc3d
000000c0: 0335 9fbe 0606 e43d f65e 5abc e55d f33d
000000d0: 4cb6 833e 5e7a 90bd 9b60 d0bc f31c c9bd
000000e0: ce40 253d 00f7 12be 408f 43be b4d9 68bd
000000f0: a997 79bb a6d1 553e 1721 bf3e b748 b53d
00000100: 61ad 883e 5807 2ebe b755 7fbe 51a4 8f3e
00000110: 7311 a53e cb47 763e ac26 3dbe ac7a 17be
00000120: a5c6 9e3e 94b7 a3be ac84 b6be 044c 74be
00000130: 0bba 9e3e f544 87bd 03ef 2dbd f073 59bd
00000140: 513d 45be 1ca5 34bd 0a61 3bbd 4f80 dd3d
00000150: 6272 77be 0bbf 35be d686 85be 45c7 91be
00000160: 4944 f13d e640 2dbc 5292 39be f69a b43b
00000170: 7939 943e ad4e 7c3e 0018 2d3e 47e1 5dbc
00000180: c1c3 a33d 0ae7 9abe 79d7 6a3e 2df4 4d3e
00000190: 9f0a 53be 5b24 12bd 32f2 b73d 8a5b 043e
000001a0: 159d 82be e9e5 173c bd18 35be 4618 9e3d
000001b0: bfde 343e 5ae2 9ebe 35b2 eb3c 0f7b 02be
000001c0: 3649 d93e 3979 87be 3e61 0ebf 28a4 babe
000001d0: 21a4 f23b b218 a23e 856c 58be 41df 1abe
000001e0: 8bf5 a0be 2af5 8d3e 45a8 933e 3d38 173e
000001f0: 31f5 a93e ce4c 953e df04 833e 93f5 ddbc
00000200: dfb9 bf3d 2c3b 03be 76f7 42bd 9d6b 34bc
00000210: 0c64 28be f86d aebe f82e 43bd 7205 8e3c
00000220: ce19 d23d 6900 27be a960 04bd a6e9 44be
00000230: f770 4c3e 5971 69be 7981 6fbe 1a44 973e
00000240: 159f 5cbe 2938 c33c c403 023e e21a c9bd
00000250: 9c88 07be c9a4 703e 40d7 62bd 27cd 643e
00000260: 73f5 d3bd 0b59 0ebe a454 a13e d7d7 56be
00000270: 5eda 97be 1865 cb3d b434 8fbe 4efd 173d
00000280: 48bd 4abe bd02 953e 9610 513e dea7 653e
00000290: 19de 01bf 9cf6 773e 82d4 8cbc 2ad0 1e3e
000002a0: e36e bebd a13b a13e 0f10 823e a216 653e
000002b0: 2493 18be da15 9c3e 487c 0fbe 7a42 d43d
000002c0: 0c9e 2c3e 285e 323e 4067 d13d 2e14 8b3e
000002d0: 474e d1bd 7a67 853e c6a8 a73e 5646 64bd
000002e0: 277c f2bd 5966 ff3d c5d7 7b3e 64e2 74bb
000002f0: dcef 2a3e e086 8b3e a9c6 683e f9ac d73d
00000300: 9031 f0bd 9c1d 25be 0526 c2be 496c 153e
00000310: 7b45 9d3d ad6a 043e 7cf6 73be ecd7 653e
00000320: 6185 94bd ed98 f33d e86e 50be 95aa 663e
00000330: 5669 a63e 86a3 33be c111 e93d bb8e c3bc
00000340: c1bf b03e 55d6 9e3c 32c7 4bbe 569b e7bd
00000350: 9740 883d 2eea 493e 624f c93e 1674 043f
00000360: 390f 863e d58b 8d3d 3863 d53d d48b f5bd
00000370: d22b cb3c 8bb6 553e 0d8a 17be 76e4 cd3d
00000380: ba3f 92bc f7ec c83d 66d8 563e 8f98 6f3e
00000390: 839f 9a3d 3a56 37be 5163 7b3d 14b4 31be
000003a0: 8bee 2abe 8a93 d73e ef3e 1cbe 7dde 92bd
000003b0: c147 03bd 4fb7 273e 8dda 0dbd 0dd7 653e
000003c0: 2f13 3b3e 6a66 47be dedf 08be fb92 8ebd
000003d0: 2fb3 5e3e 1a2b fc3d 9737 ff3d 264f 6abe
000003e0: ecc5 043d aee0 51be f54b 89be c64a 8fbe
000003f0: ea18 ec3b 57e3 973e e3f5 f6bd e9d6 95bd

bias f4 [64]
-0.15380277 -0.05143501 -0.13377757 0.3575944 0.07184276 0.1516634 -0.26445892 -0.08200239
-0.031029109 0.17231981 -0.08452236 0.35268006 -0.07043174 0.18632907 -0.22560982 -0.113035284
-0.1748126 -0.07817826 0.23045741 0.12041336 0.05238653 0.05371942 0.14989614 -0.034316894
-0.031620976 0.1822898 -0.17462555 -0.12565301 -0.2607527 0.15299971 0.09093747 -0.23247683
-0.2622295 0.16009818 -0.3427185 0.24340947 0.26405516 -0.1359616 -0.1930024 -0.13617943
-0.22355938 0.118479095 -0.062040105 -0.08853327 -0.1902255 0.20188472 -0.21668409 -0.18598436
0.14806291 -0.16025855 -0.09717777 0.18741016 -0.2897465 -0.30985013 -0.3103549 0.015583357
0.17269203 0.19253342 0.18882075 0.2232384 -0.1550569 0.17122369 0.30018887 -0.24414903
00000000: 797e 1dbe 84ad 52bd fdfc 08be 9d16 b73e
00000010: 4c22 933d a64d 1b3e 2967 87be def0 a7bd
00000020: c230 febc 9b74 303e 0f1a adbd 7b92 b43e
00000030: 843e 90bd 0ccd 3e3e 4306 67be 0b7f e7bd
00000040: 1302 33be ec1b a0bd 07fd 6b3e 489b f63d
00000050: 4293 563d e508 5c3d 607e 193e df8f 0cbd
00000060: ff84 01bd 2daa 3a3e 0ad1 32be 2fab 00be
00000070: 6181 85be f5ab 1c3e 6d3d ba3d 680e 6ebe
00000080: f242 86be c7f0 233e cd78 afbe 5540 793e
00000090: 3d32 873e 8539 0bbe 6ca2 45be 9f72 0bbe
000000a0: c0ec 64be 2ba5 f23d c41d 7ebd ee50 b5bd
000000b0: 79ca 42be deba 4e3e 6fe2 5dbe af72 3ebe
000000c0: ce9d 173e d11a 24be 2405 c7bd 73e8 3f3e
000000d0: a759 94be ada4 9ebe d6e6 9ebe 5651 7f3c
000000e0: 2ed6 303e 7b27 453e 3a5a 413e 9b98 643e
000000f0: 3cc7 1ebe 4355 2f3e 5bb2 993e 3402 7abe

weight f4 [32, 32]
-0.20177136 -0.10091339 0.25288278 -0.067236006 -0.0800538 -0.0164005 -0.0030208558 -0.029375363
-0.11235783 -0.16883779 0.057599448 0.039893966 -0.03398411 0.11032638 -0.10506679 0.11659519
-0.024438646 0.19600846 0.17104292 0.10987142 -0.13923931 0.13445038 0.17557068 -0.17600055
0.012369939 0.09284149 0.06266474 0.1258104 0.19485392 0.06960328 0.1891101 0.09789618
0.12188049 -0.008518791 -0.12547298 -0.08599774 -0.16374893 0.124906056 0.09574712 0.0767623
-0.14435104 -0.07587022 -0.093932785 -0.056147475 0.020188136 0.06392501 -0.09712014 -0.066477396
0.022354098 0.17473349 0.01968544 0.18985896 0.07744509 -0.07091495 0.11675331 -0.039301086
-0.028847905 -0.028263785 0.14968532 0.098059334 -0.08692868 -0.06590606 0.026961166 -0.0073076
0.17932525 -0.07923771 0.057386383 -0.17884141 -0.20890078 -0.08677554 -0.047040887 -0.090510175
-0.12400349 0.13206257 0.17557196 -0.18573058 -0.14368218 0.21330155 -0.22685832 -0.048727844
0.13929765 0.2553981 0.2485345 -0.158815 0.0627625 0.0048415926 -0.037958786 -0.097829625
-0.025083318 -0.14421727 -0.0076234452 -0.17105019 0.22284414 -0.22282967 -0.030115245 -0.13071752
0.14797577 -0.09385917 0.04314358 0.16747907 -0.035724882 0.16019383 0.05780914 -0.06865602
-0.1607073 0.11269268 0.09196049 -0.059868 0.17792435 0.06226587 -0.12376701 -0.06208243
-0.1006041 0.034602873 -0.048970833 0.13213685 0.0383965 0.106336646 0.15428649 0.016546115
-0.054952964 0.060532957 0.008786793 0.15799585 -0.015873509 0.19250384 0.11449919 0.14881335
-0.11589641 -0.05247255 0.1813361 0.028562605 0.16594642 0.01076579 0.0813577 0.2348101
0.11358841 -0.0799315 0.16664161 0.11011459 -0.20197387 0.11152494 0.038359858 0.08916926
-0.13406752 0.054905005 0.18705003 0.22518197 0.12931228 -0.18222083 0.08591287 -0.031028064
0.13647169 0.15955913 0.13621789 -0.036650784 0.117741115 0.27268645 0.13565251 -0.09481901
0.16259025 -0.008019345 -0.015093391 -0.23579217 -0.07802429 0.15691087 -0.023788216 -0.08531066
0.061354656 -0.019943023 0.1283597 0.099013515 -0.034193274 0.052859474 -0.18847905 -0.12942888
-0.01220411 -0.20898102 -0.12319907 0.0037622773 0.12559846 -0.0042881663 -0.02562842 0.1384766
-0.17273594 0.13281879 -0.106795594 -0.016324166 -0.022416862 -0.12121292 -0.033766218 -0.05922836
-0.021238761 0.066275984 0.09183749 -0.019434216 -0.039959155 -0.008286807 0.27647975 0.27621612
0.08653388 0.18947132 0.06532388 0.276379 -0.1253939 -0.060802944 0.18896942 -0.04033528
-0.038245544 -0.14112584 -0.12580867 0.11525307 -0.0076626022 -0.12723807 0.18442777 0.1689731
0.15907721 0.095186554 0.056188315 -0.048998773 -0.09000036 0.06434816 -0.10811143 0.046727993
0.071724616 0.13592404 -0.01679506 -0.16222411 -0.03435437 0.18819174 0.25353467 0.12770456
-0.13927168 0.058890477 -0.00657576 0.13663532 0.11843087 0.08941442 -0.035169147 0.19270119
0.06391469 0.16523392 0.02576871 0.3592504 0.18296242 0.03275097 0.11916708 -0.10358996
0.004734574 0.05179607 0.043260135 0.08201382 0.0426724 0.07713522 0.19060355 -0.10557144
00000000: 279d 4ebe aeab cebd da79 813e 08b3 89bd
00000010: 3ff3 a3bd 575a 86bc 8df9 45bb 9aa4 f0bc
00000020: dd1b e6bd d0e3 2cbe 66ed 6b3d db67 233d
00000030: ec32 0bbd ccf2 e13d 422d d7bd 75c9 ee3d
00000040: 8e33 c8bc 71b6 483e e025 2f3e 4404 e13d
00000050: c094 0ebe 5cad 093e cdc8 333e 7d39 34be
00000060: 49ab 4a3c ae23 be3d 5f56 803d 71d4 003e
00000070: c987 473e 2a8c 8e3d 14a6 413e cb7d c83d
00000080: 7a9c f93d 6692 0bbc fd7b 00be 951f b0bd
00000090: cdad 27be bfce ff3d 1117 c43d 8e35 9d3d
000000a0: c2d0 13be d961 9bbd d55f c0bd e5fa 65bd
000000b0: 9761 a53c 1eeb 823d ede6 c6bd 4d25 88bd
000000c0: f11f b73c 56ed 323e 5c43 a13c 636a 423e
000000d0: 889b 9e3d db3b 91bd 5c1c ef3d 2dfa 20bd
000000e0: 7152 ecbc 7489 e7bc 1c47 193e 55d3 c83d
000000f0: aa07 b2bd c2f9 86bd aadd dc3c 9874 efbb
00000100: 0aa1 373e 6147 a2bd fc0d 6b3d 3422 37be
00000110: 16ea 55be 60b7 b1bd f2ad 40bd 665d b9bd
00000120: 8bf5 fdbd 693b 073e 23c9 333e 2830 3ebe
00000130: 6c21 13be b96b 5a3e 8c4d 68be d996 47bd
00000140: 0ba4 0e3e 8ac3 823e d47f 7e3e 66a0 22be
00000150: a089 803d 39a6 9e3b ac7a 1bbd e65a c8bd
00000160: 887b cdbc b1ad 13be 18ce f9bb c827 2fbe
00000170: 4131 643e 762d 64be 3fb4 f6bc d0da 05be
00000180: f686 173e 3d39 c0bd 53b7 303d a27f 2b3e
00000190: 4154 12bd da09 243e 47c9 6c3d 879b 8cbd
000001a0: 7490 24be 6bcb e63d c855 bc3d 2638 75bd
000001b0: cd31 363e 7f0a 7f3d 8f79 fdbd 254a 7ebd
000001c0: 8609 cebd bebb 0d3d a495 48bd e24e 073e
000001d0: a645 1d3d 07c7 d93d 47fd 1d3e b88b 873c
000001e0: 5c16 61bd 68f1 773d 7bf6 0f3c aac9 213e
000001f0: 2909 82bc ba1f 453e 8d7e ea3d 8762 183e
00000200: 195b edbd 75ed 56bd 2cb0 393e 20fc e93c
00000210: dced 293e ff62 303c de9e a63d 0f72 703e
00000220: 0aa1 e83d 20b3 a3bd 19a4 2a3e c283 e13d
00000230: 3dd2 4ebe 3067 e43d 3a1f 1d3d 5f9e b63d
00000240: ff48 09be 12e4 603d 0b8a 3f3e 1a96 663e
00000250: 706a 043e 1998 3abe 16f3 af3d 912e febc
00000260: 3cbf 0b3e 7863 233e b47c 0b3e 221f 16bd
00000270: 4122 f13d 8f9d 8b3e 7ee8 0a3e 7830 c2bd
00000280: 0f7e 263e 9263 03bc 454a 77bc 8173 71be
00000290: 33cb 9fbd 3ead 203e 81df c2bc 5bb7 aebd
000002a0: 054f 7b3d 8d5f a3bc ba70 033e 99c7 ca3d
000002b0: 3f0e 0cbd 2d83 583d a700 41be 0189 04be
000002c0: bff3 47bc 1fff 55be cb4f fcbd 8a90 763b
000002d0: e29c 003e bf83 8cbb b1f2 d1bc cfcc 0d3e
000002e0: b1e1 30be a601 083e a6b7 dabd 42ba 85bc
000002f0: 91a3 b7bc 7b3e f8bd 724e 0abd 7099 72bd
00000300: e9fc adbc b4bb 873d 4b15 bc3d 8134 9fbc
00000310: 36ac 23bd 63c5 07bc c18e 8d3e 336c 8d3e
00000320: ad38 b13d c504 423e 87c8 853d 8c81 8d3e
00000330: 4267 00be 820c 79bd 3381 413e 9b36 25bd
00000340: 5ca7 1cbd 4b83 10be fdd3 00be cd09 ec3d
00000350: 9116 fbbb b24a 02be a2da 3c3e 4907 2d3e
00000360: 23e5 223e 2bf1 c23d b825 663d f0b2 48bd
00000370: 1c52 b8bd f8c8 833d 8769 ddbd da65 3f3d
00000380: 5be4 923d ac2f 0b3e cb95 89bc 141e 26be
00000390: 2bb7 0cbd 56b5 403e 4ccf 813e fcc4 023e
000003a0: 3c9d 0ebe 2437 713d 7979 d7bb 21ea 0b3e
000003b0: e28b f23d e81e b73d 860d 10bd 7653 453e
000003c0: b4e5 823d 1533 293e e718 d33c abef b73e
000003d0: 805a 3b3e e225 063d df0d f43d f926 d4bd
000003e0: 7c24 9b3b 1e28 543d 8a31 313d ddf6 a73d
000003f0: 41c9 2e3d 12f9 9d3d 942d 433e d735 d8bd

bias f4 [32]
-0.14575976 -0.03592311 0.17962375 0.0014193044 -0.15938412 0.144424 0.045108955 0.11442564
0.10905298 0.0095365355 0.07923524 0.13340703 -0.029145254 0.010676474 -0.03778427 0.13354602
-0.12616873 0.12746727 0.06624222 -0.042971425 0.1519587 -0.124122575 -0.08944152 -0.027021727
-0.08887587 0.020038784 -0.1094647 -0.14010385 -0.13018191 -0.18390563 -0.008266523 -0.048032776
00000000: 0c42 15be 1c24 13bd 4aef 373e f407 ba3a
00000010: 9735 23be e3e3 133e 2bc4 383d fd57 ea3d
00000020: 2b57 df3d 213f 1c3c 1646 a23d da9b 083e
00000030: 07c2 eebc 61ec 2e3c aec3 1abd 4ac0 083e
00000040: 6032 01be c886 023e 00aa 873d ce02 30bd
00000050: 109b 1b3e fa33 febd 1e2d b7bd ab5c ddbc
00000060: 8d04 b6bd 6028 a43c 072f e0bd 6277 0fbe
00000070: 684e 05be c251 3cbe 4f70 07bc 04be 44bd

weight f4 [32, 64]
-0.050972015 0.0041405708 -0.06208232 0.047139198 -0.106506884 0.09163049 -0.09085503 -0.09938024
-0.078985885 0.056611687 -0.04618652 0.046776667 -0.10609117 -0.07584046 -0.045897007 -0.024564967
-0.095357925 0.081848845 -0.029478893 0.040123463 0.08839294 0.02328825 0.03418134 0.12065734
-0.056376174 0.039593905 -0.055614516 0.08933121 0.09983206 -0.115246534 0.106705725 0.0596893
0.05447088 0.051459357 0.10391238 -0.016504943 -0.10571231 -0.035868615 -0.08803433 0.008263335
-0.023338437 -0.06704812 -0.011365175 0.11842547 -0.009859428 0.0039687604 -0.01949507 0.019650877
0.11137658 0.07643661 0.04437019 0.027163818 0.02947411 0.048291653 -0.016152933 -0.1161761
-0.07730149 0.106698215 0.0074716806 -0.10125919 0.019715935 0.10328396 -0.11812496 -0.08415492
-0.0497832 0.005017191 -0.029153675 -0.013736397 -0.121861264 0.05853489 0.109717906 0.076404795
-0.08851655 -0.10076292 0.05190654 0.0028073192 0.051241368 -0.122143924 -0.0074528754 0.08815546
0.057988927 0.0045646727 0.02457738 -0.011835009 -0.06872919 -0.04723741 -0.07612246 0.10382615
0.06878583 0.043715328 -0.09585656 0.09645273 0.03919284 0.08647433 -0.049173757 0.026499614
0.1220478 0.084082395 0.10024959 -0.026248097 0.09523465 -0.09790403 0.01081112 -0.070381865
-0.029151902 -0.03201218 0.009352386 0.11376746 0.06188549 -0.00052952766 0.08873069 -0.06405695
0.06442143 -0.0115915835 -0.02175136 0.014634177 -0.09576209 0.014444664 0.042029753 0.106866464
-0.038917884 0.045003444 0.12493901 -0.05362113 0.11882405 -0.062061504 0.055099368 0.048968762
0.034916013 0.098850384 -0.050520554 0.03285238 0.00070151687 -0.0940177 -0.030351743 -0.083477885
0.05526942 0.011236995 0.012245581 -0.03792134 0.00060106814 -0.038880393 0.035917014 0.121396214
0.018933818 -0.055364788 -0.076353505 0.009554878 -0.092730775 -0.09395628 -0.081359625 -0.0424556
0.009252191 0.08607645 0.04841742 0.095764846 -0.07848717 0.010548517 -0.11111009 0.071707144
0.026051238 0.12090184 -0.08890152 0.10024123 0.10552831 0.1010647 0.017836854 0.11365992
0.083479375 0.093259916 -0.008120105 -0.095924765 -0.0015555024 0.023442283 -0.08514613 -0.071704894
-0.119843304 -0.04381843 0.10888356 0.021374509 -0.0076350123 0.005019754 0.077943206 -0.110382944
-0.096448705 -0.041558802 -0.07193977 0.06447314 0.08832294 -0.12127823 -0.10608496 -0.12172723
0.04715681 0.100606814 -0.09691751 -0.057869554 0.039777577 -0.08162317 0.106184945 0.029145151
-0.03479795 0.008118823 0.038971066 -0.044201642 -0.09685698 0.000840202 0.0022768676 0.0025206506
-0.018241286 0.08025919 -0.034882396 -0.012099087 0.051398456 -0.078679666 0.033469826 -0.027639464
0.059959188 -0.06780805 0.004619792 0.012228668 -0.10057457 -0.09089278 0.047939166 -0.036382064
0.07423708 -0.12348282 -0.061791077 -0.10295774 0.049933925 -0.0036239177 -0.023315176 -0.020796418
-0.09770611 0.03544937 0.0031157285 -0.08626412 0.047035962 -0.0025123805 -0.12089345 0.06724003
0.066860884 -0.02355127 -0.08630477 0.005018756 0.09432247 0.11441748 -0.09435013 -0.056458622
0.09732805 0.06109728 0.07737662 -0.06221679 0.10769181 -0.10275824 -0.006021112 0.002595365
00000000: 08c8 50bd a0ad 873b 084a 7ebd 0815 413d
00000010: 4820 dabd c4a8 bb3d 3412 babd de87 cbbd
00000020: 5ac3 a1bd a8e1 673d 142e 3dbd e498 3f3d
00000030: 5446 d9bd 3e52 9bbd 80fe 3bbd 783c c9bc
00000040: 044b c3bd 5ea0 a73d b87d f1bc 8058 243d
00000050: 5c07 b53d 00c7 be3c bc01 0c3d 321b f73d
00000060: b4ea 66bd 382d 223d 0ccc 63bd 48f3 b63d
00000070: c074 cc3d 6006 ecbd 8888 da3d c47c 743d
00000080: dc1c 5f3d 0cc7 523d 04d0 d43d 6035 87bc
00000090: b27f d8bd f8ea 12bd 584b b4bd f062 073c
000000a0: 4030 bfbc 8650 89bd 0035 3abc 0e89 f23d
000000b0: 7089 21bc 600c 823b 20b4 9fbc e0fa a03c
000000c0: 6819 e43d cc8a 9c3d 84bd 353d a886 de3c
000000d0: b073 f13c 78cd 453d 2853 84bc bced edbd
000000e0: 3e50 9ebd 9884 da3d 00d5 f43b fa60 cfbd
000000f0: 5083 a13c 8a86 d33d 80eb f1bd 6a59 acbd
00000100: 78e9 4bbd 4067 a43b b0d3 eebc a00e 61bc
00000110: 6692 f9bd 48c2 6f3d c8b3 e03d 1e7a 9c3d
00000120: 2a48 b5bd ca5c cebd f49b 543d 00fb 373b
00000130: 78e2 513d 9826 fabd 4037 f4bb da8a b43d
00000140: cc85 6d3d 4093 953b 8056 c93c a0e7 41bc
00000150: e4c1 8cbd 047c 41bd 18e6 9bbd cea2 d43d
00000160: 96df 8c3d d80e 333d 7250 c4bd 0289 c53d
00000170: ac88 203d 7419 b13d 6c6a 49bd b815 d93c
00000180: 32f4 f93d 6433 ac3d a84f cd3d 4006 d7bc
00000190: 620a c33d e881 c8bd 2021 313c 5e24 90bd
000001a0: f8cf eebc 341f 03bd c03a 193c eafe e83d
000001b0: a47b 7d3d 00d0 0aba 70b8 b53d 4a30 83bd
000001c0: 62ef 833d a0ea 3dbc e82f b2bc 30c4 6f3c
000001d0: ea1e c4bd 50a9 6c3c 6427 2c3d cedc da3d
000001e0: 5c68 1fbd 8855 383d 06e0 ff3d d4a1 5bbd
000001f0: 065a f33d 3434 7ebd e0af 613d 7893 483d
00000200: 1804 0f3d 1272 ca3d a4ee 4ebd 3890 063d
00000210: 00e6 373a 5a8c c0bd 38a4 f8bc 74f6 aabd
00000220: 3062 623d 601b 383c b0a1 483c 6853 1bbd
00000230: 0091 1d3a 0c41 1fbd b81d 133d 949e f83d
00000240: 181b 9b3c 30c6 62bd 3a5f 9cbd 108c 1c3c
00000250: a2e9 bdbd 266c c0bd e09f a6bd ece5 2dbd
00000260: 8096 173c da48 b03d 5851 463d 5c20 c43d
00000270: e2bd a0bd b0d3 2c3c b08d e3bd 32db 923d
00000280: 6869 d53c 629b f73d 0012 b6bd 464b cd3d
00000290: 3a1f d83d 02fb ce3d 981e 923c 88c6 e83d
000002a0: 3cf7 aa3d 0eff be3d 300a 05bc 3474 c4bd
000002b0: 00e2 cbba 080a c03c 1861 aebd 04da 92bd
000002c0: 6870 f5bd f47a 33bd 58fe de3d 9819 af3c
000002d0: 202f fabb c07c a43b b0a0 9f3d 7410 e2bd
000002e0: e686 c5bd 9039 2abd 2855 93bd 7e0a 843d
000002f0: a8e2 b43d b860 f8bd 1243 d9bd 204c f9bd
00000300: 8027 413d f20a ce3d b07c c6bd a008 6dbd
00000310: d0ed 223d 0c2a a7bd 7e77 d93d d0c1 ee3c
00000320: 4c88 0ebd d004 053c 20a0 1f3d c80c 35bd
00000330: f45c c6bd 0041 5c3a 8037 153b 8031 253b
00000340: c06e 95bc ee5e a43d d8e0 0ebd 403b 46bc
00000350: 3087 523d ce22 a1bd a817 093d 286c e2bc
00000360: c497 753d f2de 8abd a061 973b c05a 483c
00000370: 0afa cdbd fe25 babd dc5b 443d 5c05 15bd
00000380: 9c09 983d 90e4 fcbd a418 7dbd 82db d2bd
00000390: 8487 4c3d 407f 6dbb 78ff bebc 405d aabc
000003a0: 241a c8bd 5c33 113d 4031 4c3b 3eab b0bd
000003b0: c8a8 403d c0a6 24bb fc96 f7bd 24b5 893d
000003c0: 5cee 883d 98ee c0bc 8ec0 b0bd 6074 a43b
000003d0: 242c c13d b653 ea3d a43a c1bd 2841 67bd
000003e0: ee53 c73d 2441 7a3d a277 9e3d 08d7 7ebd
000003f0: 868d dc3d ea72 d2bd c04c c5bb 0017 2a3b

bias f4 [32]
0.006000623 -0.11990543 0.015900686 0.043976173 0.11186783 -0.040516123 0.04508625 -0.041886568
-0.043956473 -0.11076146 0.02638419 0.083875194 -0.06953706 0.05110444 -0.019498333 -0.08874825
0.013328612 -0.1218126 0.06700824 -0.027619168 0.11512223 0.0046144873 -0.12118633 0.09700169
-0.027341396 -0.085622594 0.11541125 0.011674732 0.040526584 -0.108135834 -0.04414603 0.10029392
00000000: e0a0 c43b fa90 f5bd 2842 823c 5c20 343d
00000010: f61a e53d 3cf4 25bd 5cac 383d 4091 2bbd
00000020: b40b 34bd e8d6 e2bd a823 d83c c2c6 ab3d
00000030: 7269 8ebd e452 513d f8ba 9fbc a4c1 b5bd
00000040: 4060 5a3c e278 f9bd 9e3b 893d 9841 e2bc
00000050: 34c5 eb3d 2035 973b 8a30 f8bd d2a8 c63d
00000060: 10fb dfbc e65a afbd bc5c ec3d 6047 3f3c
00000070: 34ff 253d 5276 ddbd 78d2 34bd e666 cd3d

weight_ih_l0 f4 [128, 32]
-0.06885759 -0.0010880673 -0.048852798 0.030008692 -0.12429097 0.04499768 -0.14692652 -0.19290274
-0.12216174 0.1782054 0.05259302 -0.12338508 -0.06706966 -0.081118986 0.19805545 -0.05341201
0.04309288 0.14327788 -0.19386956 0.064231396 -0.19465387 -0.042942706 -0.14819005 -0.13308288
-0.08669118 -0.0310807 -0.04701302 -0.06521464 -0.0311484 -0.13738938 0.1273185 -0.1329035
0.043654136 -0.084253505 -0.061853632 -0.17527327 0.047574494 0.018523797 0.06269083 -0.10487464
-0.06105256 0.23498048 0.19648536 0.005564725 0.18174411 0.06248409 -0.14169537 -0.12570593
0.09722156 -0.023456797 -0.017355034 0.069522634 -0.071300454 -0.092194274 -0.025124628 -0.077741764
-0.03880017 0.035708997 0.21974383 0.0038066995 -0.029144479 -0.004202664 0.08262562 -0.08966169
0.08920782 0.14622343 0.10908757 -0.2468681 0.12207737 -0.14500125 0.15336922 -0.11756588
0.020316077 0.13272941 0.116888896 -0.24892174 0.040332735 -0.011566047 -0.036919933 -0.14851601
0.19509818 0.2728624 -0.09116383 0.108999334 0.0839634 0.044402033 -0.1530323 -0.3101453
-0.06256047 -0.2293222 0.020596249 0.079995655 -0.0019576056 -0.07414746 0.06848248 0.05979429
0.18685544 0.042992294 -0.14659005 -0.2983956 -0.031139202 -0.19452235 0.026934873 -0.45107946
0.13379084 0.14381959 0.012758387 0.029074995 -0.018198755 -0.17568971 0.17368458 0.04623528
0.06669419 0.17410746 -0.065045476 -0.02383072 -0.0092484 -0.1018839 -0.18532361 -0.39422414
-0.04640308 -0.13265003 -0.0156882 -0.0034564163 0.0056034806 0.111866824 -0.12129318 0.025705783
-0.02284873 -0.0061629442 0.106818646 -0.054525424 -0.033933602 -0.06546229 -0.060754113 -0.11288368
-0.11207874 -0.012046725 0.15617722 -0.051038146 0.04488303 -0.10655474 0.10621418 -0.111344025
0.09702704 0.39692515 -0.1750163 -0.15022004 -0.09745884 -0.07304261 -0.16768382 -0.2737623
0.016874723 -0.09951056 0.03275272 0.052246537 0.18222459 -0.028299633 -0.23384334 -0.0005143268
-0.013055788 0.015077216 0.06426924 -0.12082363 -0.063934214 -0.022600641 -0.1650609 -0.060446188
-0.2228601 0.10174242 0.04063717 -0.027575556 0.061600197 -0.08707976 0.14076723 0.016845059
0.18355031 0.06654811 0.16584367 0.019586485 -0.10983172 0.0860987 0.09609337 -0.19787773
0.15112981 -0.08589017 0.11400127 -0.030959751 0.059764214 -0.013434768 -0.24406224 0.05892085
0.16339363 0.08238238 -0.035659857 -0.004243038 0.11586592 0.0038380916 0.0213089 -0.1407994
0.0599966 -0.03300245 0.035576906 -0.1775939 -0.012567382 -0.0035976307 -0.054174628 -0.10731614
0.119645335 0.23449664 -0.16887893 0.07304221 -0.12516572 0.054478955 -0.015087824 -0.30904332
-0.08034332 0.027003633 0.021457681 0.20123301 -0.027195992 0.009875371 -0.110060915 -0.03423529
-0.09463215 0.3104797 0.16736542 -0.3322279 -0.18179348 -0.21889767 0.061096746 -0.32543725
-0.056367043 0.017438265 0.008228112 -0.27660596 -0.03227495 -0.2798668 -0.10882445 -0.14357309
0.117719956 0.18155256 -0.1593186 0.09608997 0.0012397707 -0.0815182 0.03233411 -0.39971662
0.10981785 -0.1884165 0.303152 0.07841105 0.15476713 -0.11471509 -0.13591808 0.14774449
00000000: 3505 8dbd 7b9d 8eba df19 48bd cad4 f53c
00000010: 448c febd 7d4f 383d e873 16be 4c88 45be
00000020: ef2f fabd 7a7b 363e c76b 573d 51b1 fcbd
00000030: d15b 89bd b621 a6bd 0ccf 4a3e 8dc6 5abd
00000040: 2982 303d 70b7 123e be85 46be c08b 833d
00000050: 5853 47be b1e4 2fbd 22bf 17be e146 08be
00000060: 258b b1bd f49c febc b990 40bd 418f 85bd
00000070: ee2a ffbc cdaf 0cbe c85f 023e db17 08be
00000080: aece 323d 1a8d acbd 3c5a 7dbd d67a 33be
00000090: 79dd 423d 38bf 973c 0d64 803d 84c8 d6bd
000000a0: 4012 7abd b99e 703e 7533 493e 4c58 b63b
000000b0: 211b 3a3e 51ef 7f3d 9718 11be 0eb9 00be
000000c0: 191c c73d 7828 c0bc 252c 8ebc e261 8e3d
000000d0: f905 92bd 5ad0 bcbd 2ad2 cdbc 1337 9fbd
000000e0: edec 1ebd 9943 123d 8704 613e d279 793b
000000f0: 67c0 eebc 80b6 89bb 9f37 a93d 8ca0 b7bd
00000100: 97b2 b63d 98bb 153e 4e69 df3d feca 7cbe
00000110: b303 fa3d 357b 14be d20c 1d3e 61c6 f0bd
00000120: e76d a63c 38ea 073e 7263 ef3d 57e5 7ebe
00000130: f033 253d 847f 3dbc 5b39 17bd 9514 18be
00000140: d1c7 473e 9fb4 8b3e 1ab4 babd 0b3b df3d
00000150: 01f5 ab3d e8de 353d 80b4 1cbe 5dcb 9ebe
00000160: b41f 80bd 70d3 6abe 77b9 a83c c3d4 a33d
00000170: 2c4b 00bb a0da 97bd 8b40 8c3d dcea 743d
00000180: 0857 3f3e b018 303d b41b 16be 4fc7 98be
00000190: a417 ffbc de30 47be 86a6 dc3c e3f3 e6be
000001a0: 7700 093e 7145 133e 8e08 513c af2e ee3c
000001b0: 8e15 95bc 01e8 33be 5fda 313e 3461 3d3d
000001c0: f796 883d 3a49 323e 9036 85bd a438 c3bc
000001d0: 9a86 17bc 82a8 d0bd 79c5 3dbe bfd7 c9be
000001e0: 2811 3ebd 69d5 07be 8a84 80bc 0b85 62bb
000001f0: 679d b73b 6f1a e53d 8f68 f8bd ef94 d23c
00000200: 432d bbbc 86f2 c9bb bcc3 da3d 0d56 5fbd
00000210: f6fd 0abd 1811 86bd 4ed9 78bd 8f2f e7bd
00000220: 8a89 e5bd a05f 45bc ecec 1f3e 600d 51bd
00000230: 45d7 373d 5f39 dabd d286 d93d 5608 e4bd
00000240: 1db6 c63d c639 cb3e 7937 33be 48d3 19be
00000250: 8098 c7bd 5d97 95bd 4fb5 2bbe 922a 8cbe
00000260: dc3c 8a3c 31cc cbbd b727 063d 7700 563d
00000270: 1599 3a3e a2d4 e7bc a174 6fbe e3d3 06ba
00000280: f2e7 55bc 6d06 773c 979f 833d 6172 f7bd
00000290: f1ef 82bd fb24 b9bc b905 29be 6c96 77bd
000002a0: 7035 64be 545e d03d 2973 263d 22e6 e1bc
000002b0: 7d50 7c3d e056 b2bd 4925 103e a6fe 893c
000002c0: 9df4 3b3e 604a 883d ecd2 293e d673 a03c
000002d0: 74ef e0bd 8454 b03d 9acc c43d 76a0 4abe
000002e0: c6c1 1a3e 2fe7 afbd 7f79 e93d 4e9f fdbc
000002f0: 52cb 743d 801d 5cbc 74eb 79be fd56 713d
00000300: a950 273e 18b8 a83d 1210 12bd 2f09 8bbb
00000310: 1d4b ed3d 7e88 7b3b 0190 ae3c b82d 10be
00000320: ffbe 753d 942d 07bd 17b9 113d 2ddb 35be
00000330: 6ce7 4dbc 3ac6 6bbb 37e6 5dbd 90c8 dbbd
00000340: 9d08 f53d e31f 703e 99ee 2cbe 2797 953d
00000350: 712b 00be 5325 5f3d ec32 77bc ed3a 9ebe
00000360: 0a8b a4bd b936 dd3c 05c8 af3c 0710 4e3e
00000370: 21ca debc 4fcc 213c 9e67 e1bd 4e3a 0cbd
00000380: 80ce c1bd 32f7 9e3e d761 2b3e c619 aabe
00000390: 1228 3abe b626 60be 9540 7a3d b69f a6be
000003a0: 21e1 66bd b1da 8e3c 34cf 063c 4c9f 8dbe
000003b0: bd32 04bd b44a 8fbe 5adf debd d304 13be
000003c0: 2917 f13d eae8 393e 6a24 23be d1ca c43d
000003d0: cd7f a23a 04f3 a6bd c670 043d a8a7 ccbe
000003e0: 2ee8 e03d 41f0 40be bd36 9b3e f995 a03d
000003f0: 467b 1e3e bfef eabd 1c2e 0bbe 554a 173e

weight_hh_l0 f4 [128, 32]
0.075694054 0.041982707 -0.13797092 -0.12211455 -0.089199826 -0.06714336 0.14807206 0.019689186
0.14006053 -0.13357729 -0.0551321 -0.08566905 -0.15635344 -0.030685553 0.067473106 0.07350002
0.07386709 0.0023574398 0.1663818 0.061552886 0.19307645 0.08502419 -0.012691489 -0.02899615
0.08846207 -0.09753622 0.08238043 0.107656956 -0.1214358 -0.071501926 0.11889617 -0.11979372
0.17538804 0.10091696 -0.1630739 0.102196686 -0.10449239 -0.20797779 0.11724541 -0.16529585
0.10074 0.050562315 -0.09201808 -0.07124003 0.0040818695 -0.00035998403 0.03747536 0.015067634
-0.0778627 0.0529004 -0.11278259 -0.076794244 0.15840386 -0.061779372 -0.07683978 -0.1776998
0.023761997 0.05902444 0.09204391 0.110415734 0.19281502 -0.057237424 0.044123 -0.09252388
0.06430883 -0.014103724 -0.1781342 -0.051767115 0.14663298 0.07092933 0.18188743 0.045806747
0.11101144 0.11699874 -0.15883791 0.05652888 -0.056034908 0.103050545 -0.13885774 0.2012654
0.12380322 0.12219199 -0.052721772 -0.15737042 -0.07533738 0.055162337 0.08004829 -0.19596277
0.1534029 -0.036762293 0.08496425 0.028366953 0.039941728 0.037049986 -0.084801055 -0.069520175
0.05615869 0.16240792 0.10971398 -0.056434624 0.0459629 -0.0051781684 -0.040303882 0.12172502
0.027553728 0.2066527 0.09882515 -0.15658663 -0.18916133 -0.0518871 -0.16106284 0.0642194
-0.10737782 -0.079540916 -0.12962441 0.08375808 -0.012526909 0.008280496 -0.06557102 -0.17977741
-0.091414355 0.09229094 -0.04291164 -0.01031756 0.108492404 0.18452084 -0.042155385 0.19879454
-0.022716945 0.18869814 0.16149586 0.12719004 -0.1260064 -0.14103875 0.055723473 -0.12520711
-0.11477417 0.017656473 0.0325659 0.047665767 0.07042011 -0.16502415 -0.039275777 -0.011639301
0.13210377 -0.11923749 -0.03241855 -0.18646273 0.051983275 -0.12983188 0.0788086 0.034044325
0.20532393 -0.095685564 -0.048916634 -0.042698458 0.11203984 0.09938549 0.02845973 0.09266671
-0.096172705 -0.14007802 -0.09543058 0.059362054 0.11154072 0.13670132 0.02274952 -0.011508958
0.13005537 0.079416886 0.03643678 0.083953366 0.07232737 0.014965739 0.018367657 -0.013670413
0.050746195 -0.052254822 0.12802927 -0.087437265 -0.112842254 -0.18100147 -0.13916102 0.02812945
0.02821422 -0.13388225 -0.10708856 -0.18739015 0.11521137 -0.12823266 0.10688644 0.100919954
0.08949087 0.16904227 0.10364352 0.1594199 -0.021990081 -0.121364616 -0.10619218 0.007463433
0.0896738 0.19458383 -0.048649024 0.11175047 -0.08469314 0.051232412 -0.0665595 0.07560022
-0.17107879 -0.14971335 -0.0072316085 0.12227004 0.0636763 0.1135922 0.17860828 0.051201403
0.18835036 0.09288158 -0.14068635 0.13037515 -0.07942761 0.1207879 0.03623129 0.10673218
0.13280767 -0.09433832 -0.059300974 0.13758731 -0.0034019211 0.11945482 0.1400235 0.021707458
-0.11429816 0.054959994 -0.07447428 0.09482611 0.12068123 0.029225666 -0.1183137 -0.001967136
-0.20585644 0.0076747993 0.18483298 0.11068195 -0.089226 -0.122323036 0.06122348 -0.10953317
0.08335447 -0.03867435 -0.09695946 -0.059272014 -0.022768695 0.016025268 0.09765298 0.18961631
00000000: 7c05 9b3d 0ff6 2b3d 4048 0dbe 3117 fabd
00000010: 66ae b6bd 7582 89bd 34a0 173e 374b a13c
00000020: 076c 0f3e 7cc8 08be 32d2 61bd 4173 afbd
00000030: 1e1b 20be 4560 fbbc 572f 8a3d 2e87 963d
00000040: a147 973d 477f 1a3b fe5f 2a3e e11e 7c3d
00000050: d5b5 453e 2a21 ae3d f7ef 4fbc 5589 edbc
00000060: 9a2b b53d 12c1 c7bd 12b7 a83d 407b dc3d
00000070: 55b3 f8bd 9a6f 92bd d67f f33d 6956 f5bd
00000080: ec98 333e 8dad ce3d d8fc 26be 7f4c d13d
00000090: 1b00 d6bd 21f8 54be 5d1e f03d 5143 29be
000000a0: c650 ce3d 6e1a 4f3d fa73 bcbd 4be6 91bd
000000b0: 34c1 853b 3dbc bcb9 c37f 193d 3dde 763c
000000c0: 7b76 9fbd 17ae 583d 8ffa e6bd 4d46 9dbd
000000d0: 9f34 223e 5e0c 7dbd 2d5e 9dbd f0f6 35be
000000e0: 85a8 c23c 9cc3 713d 8481 bc3d a521 e23d
000000f0: 4d71 453e ca71 6abd 52ba 343d 297d bdbd
00000100: 59b4 833d 4e13 67bc d068 36be c109 54bd
00000110: f526 163e 6643 913d b340 3a3e db9f 3b3d
00000120: f759 e33d 099d ef3d 68a6 22be d48a 673d
00000130: dc84 65bd 2a0c d33d b930 0ebe 8418 4e3e
00000140: 8b8c fd3d cb3f fa3d c9f2 57bd b625 21be
00000150: 7c4a 9abd e7f1 613d 5cf0 a33d 77aa 48be
00000160: a615 1d3e 0f94 16bd bd01 ae3d d061 e83c
00000170: f099 233d bac1 173d 2dac adbd 9860 8ebd
00000180: a806 663d 434e 263e b9b1 e03d fe27 67bd
00000190: 9843 3c3d a0ad a9bb af15 25bd f84a f93d
000001a0: 5bb8 e13c c49c 533e d764 ca3d 3f58 20be
000001b0: 82b3 41be 9187 54bd a8ed 24be 7685 833d
000001c0: e7e8 dbbd 59e6 a2bd 43bc 04be 5b89 ab3d
000001d0: aa3d 4dbc ebaa 073c 194a 86bd 9217 38be
000001e0: 7337 bbbd 0803 bd3d 1ec4 2fbd fc0a 29bc
000001f0: 4431 de3d 08f3 3c3e 20ab 2cbd cc90 4b3e
00000200: e318 babc 163a 413e 2c5f 253e 1b3e 023e
00000210: d207 01be 766c 10be 4c3e 643d 4b36 00be
00000220: b80e ebbd 4fa4 903c d263 053d 2e3d 433d
00000230: 6b38 903d 17fc 28be a3df 20bd c4b2 3ebc
00000240: 3646 073e c932 f4bd 50c9 04bd 16f0 3ebe
00000250: 6aec 543d a6f2 04be 6766 a13d 1072 0b3d
00000260: 7040 523e cbf6 c3bd cf5c 48bd 94e4 2ebd
00000270: 2575 e53d 9f8a cb3d 6124 e93c 0bc8 bd3d
00000280: 32f6 c4bd 9d70 0fbe 1c71 c3bd a025 733d
00000290: 766f e43d 6efb 0b3e 345d ba3c 1290 3cbc
000002a0: 3c2d 053e 52a5 a23d bc3e 153d beef ab3d
000002b0: 5f20 943d dc32 753c c577 963c def9 5fbc
000002c0: 3edb 4f3d 2709 56bd 1b1a 033e 4f12 b3bd
000002d0: d719 e7bd 7358 39be 3a80 0ebe bb6f e63c
000002e0: 8221 e73c 6e18 09be 3f51 dbbd 34e3 3fbe
000002f0: f0f3 eb3d 6c4f 03be 47e7 da3d 1faf ce3d
00000300: fd46 b73d 6b19 2d3e 0e43 d43d f83e 233e
00000310: 8b24 b4bc 038e f8bd 497b d9bd d08f f43b
00000320: e6a6 b73d fc40 473e 3344 47bd 6edd e43d
00000330: 9973 adbd 14d9 513d 5950 88bd 4ad4 9a3d
00000340: 472f 2fbe 754e 19be 21f7 ecbb b768 fa3d
00000350: b868 823d 07a3 e83d 17e5 363e 90b8 513d
00000360: ebde 403e b338 be3d 1510 10be 1081 053e
00000370: f1aa a2bd a65f f73d 4367 143d 6796 da3d
00000380: bcfe 073e 7334 c1bd 94e5 72bd b0e3 0c3e
00000390: c4f2 5ebb bba4 f43d 5262 0f3e d7d3 b13c
000003a0: 2715 eabd bb1d 613d f985 98bd 3134 c23d
000003b0: b927 f73d aa6a ef3c 744e f2bd 11eb 00bb
000003c0: 08cc 52be e27c fb3b db44 3d3e 38ad e23d
000003d0: 1fbc b6bd 8084 fabd 79c5 7a3d ed52 e0bd
000003e0: c0b5 aa3d ff68 1ebd ae92 c6bd 36c7 72bd
000003f0: 6a85 babc 6c47 833c 49fe c73d c72a 423e

bias_ih_l0 f4 [128]
-0.1528758 -0.09135719 -0.28232554 -0.014281126 -0.0019854142 -0.01091798 -0.20430171 -0.3527365
-0.2592155 -0.13352104 -0.028311027 0.020787308 -0.022508496 -0.2744103 -0.27055258 -0.079774596
-0.1365237 -0.28231946 0.042321112 -0.16892514 -0.13681363 -0.17408633 0.045929134 -0.14913315
-0.23315558 -0.2106796 -0.12134456 -0.08549105 -0.25463483 -0.0699145 -0.039845727 -0.016152915
-0.058038127 0.07950874 0.02603404 -0.12016655 -0.04221893 -0.08131938 0.010578163 -0.028764527
0.064749084 0.12016582 0.019283673 -0.20473348 -0.15778643 -0.19088115 -0.23317055 -0.07619699
0.09065224 -0.30519956 -0.0333984 -0.13104771 -0.11698898 -0.039270144 -0.105789386 0.0814716
-0.05124227 -0.055439197 0.09240888 0.05426948 -0.0037103267 -0.007412463 0.007910224 -0.202298
0.051653113 -0.09164033 0.0686059 -0.13910426 0.069657944 -0.061971977 -0.087092936 -0.05020458
0.12410848 -0.14946574 0.11508324 -0.12402358 -0.14871548 0.043633986 -0.066344246 -0.046950135
0.14758793 0.0687243 -0.15253714 0.06704962 -0.08330033 0.073708214 -0.080394484 0.10950397
-0.124126844 0.024385165 0.065302506 0.093883954 -0.054850817 -0.050105397 0.023871666 0.0318052
-0.07579622 0.035951294 -0.18949074 -0.12069395 -0.13182636 -0.07437108 -0.07240134 -0.06401108
-0.027279295 -0.20981792 0.05417679 -0.013615981 -0.13318735 -0.19272506 -0.037220065 0.049384493
-0.15636925 -0.04783242 0.03803871 0.011244351 0.055627603 -0.20490609 -0.079149246 -0.15567541
-0.273609 -0.019221297 0.0047553265 0.012208695 -0.07261059 -0.14942504 -0.052512508 0.10140458
00000000: 798b 1cbe 7a19 bbbd f98c 90be 62fb 69bc
00000010: b91d 02bb 54e1 32bc 7834 51be e199 b4be
00000020: e5b7 84be bdb9 08be 87ec e7bc 254a aa3c
00000030: bd63 b8bc 827f 8cbe de85 8abe dd60 a3bd
00000040: decc 0bbe 2d8c 90be e758 2d3d b6fa 2cbe
00000050: df18 0cbe b043 32be 3020 3c3d 5cb6 18be
00000060: 56c0 6ebe 65bc 57be 7f83 f8bd ee15 afbd
00000070: 7f5f 82be 552f 8fbd 4635 23bd 1e53 84bc
00000080: 63b9 6dbd 7ad5 a23d 5745 d53c e119 f6bd
00000090: c2ed 2cbd c68a a6bd 0850 2d3c 96a3 ebbc
000000a0: 2b9b 843d 7f19 f63d cbf8 9d3c a7a5 51be
000000b0: c492 21be 5976 43be 43c4 6ebe 2b0d 9cbd
000000c0: e2a7 b93d 1e43 9cbe c3cc 08bd 5f31 06be
000000d0: eb97 efbd bbd9 20bd 1ba8 d8bd 95da a63d
000000e0: 6ae3 51bd 3614 63bd de40 bd3d ad49 5e3d
000000f0: f428 73bb 3fe4 f2bb e299 013c 3527 4fbe
00000100: 3792 533d edad bbbd 4081 8c3d 5971 0ebe
00000110: d3a8 8e3d 54d6 7dbd c85d b2bd 51a3 4dbd
00000120: 962c fe3d 8c0d 19be c3b0 eb3d 1300 febd
00000130: df48 18be 8db9 323d 7edf 87bd c94e 40bd
00000140: 4a21 173e 53bf 8c3d b232 1cbe 5051 893d
00000150: 5d99 aabd 55f4 963d dda5 a4bd 9e43 e03d
00000160: 3736 febd 66c3 c73c 52bd 853d 3b46 c03d
00000170: 40ab 60bd 513b 4dbd 838e c33c 2b46 023d
00000180: 0c3b 9bbd aa41 133d dc09 42be 642e f7bd
00000190: 7dfd 06be dd4f 98bd 2747 94bd 3e18 83bd
000001a0: d478 dfbc 82da 56be 7be8 5d3d 9015 5fbc
000001b0: 4462 08be b859 45be 1174 18bd 6547 4a3d
000001c0: 431f 20be edeb 43bd 7ace 1b3d 3a3a 383c
000001d0: c5d9 633d e7d2 51be 0019 a2bd 6069 1fbe
000001e0: 7b16 8cbe fb75 9dbc 92d2 9b3b fa06 483c
000001f0: dcb4 94bd e102 19be 5b17 57bd 34ad cf3d

bias_hh_l0 f4 [128]
-0.25440612 -0.16112682 0.051250126 -0.27774754 -0.14000902 -0.294959 -0.12301017 -0.1436049
-0.12551416 0.05358407 -0.10389935 -0.04364018 -0.102017485 -0.025783028 0.01688043 -0.22735895
0.11476347 -0.066768736 -0.2125346 0.058241837 0.031846527 -0.13815233 -0.11695771 -0.12650704
-0.2730639 -0.10599417 -0.2553659 -0.21751729 -0.22962533 0.097573146 0.033410646 -0.19709577
-0.27203286 -0.116201065 -0.28713498 -0.10037879 -0.018515479 -0.25750017 0.02544547 -0.28740412
-0.07529414 -0.01028102 0.062007796 -0.084582195 -0.24425521 0.00880653 -0.07276404 -0.022734135
-0.15601468 -0.17637362 -0.23057777 0.09581003 -0.21622701 -0.24136774 -0.02796651 -0.11023268
-0.25445762 -0.14413318 -0.12040833 -0.16126499 -0.18402672 -0.19705959 -0.11462807 -0.12601577
-0.023539234 -0.08435027 -0.0030214079 0.056446552 0.04838499 0.0019266286 -0.029013947 0.07795881
-0.038369827 0.12764642 0.051995065 0.13016869 0.10673775 -0.0324798 0.113211684 -0.09092994
-0.13741118 -0.08948739 0.04671163 0.010676009 0.073116794 0.016598605 -0.10588112 -0.09903712
0.020282755 0.05583495 0.04638171 0.06207673 -0.020114277 0.073301055 -0.044935472 -0.10165891
-0.28902346 0.05068417 -0.02613105 -0.12796384 -0.010832974 -0.08155679 0.09655626 -0.38786596
-0.2565412 0.0042174757 -0.11563941 -0.016057342 -0.18929985 -0.028896105 -0.18517031 -0.05684456
-0.15393458 -0.10861556 -0.059807744 -0.13994782 -0.24674581 -0.03247573 -0.0087397685 -0.07486949
-0.06910526 -0.14741369 -0.13314441 0.06580173 -0.13333948 -0.16640516 0.026833378 -0.08249958
00000000: 8541 82be 6efe 24be a7eb 513d ed34 8ebe
00000010: 865e 0fbe de04 97be c2ec fbbd 2a0d 13be
00000020: c986 00be f87a 5b3d 2fc9 d4bd 0cc0 32bd
00000030: 8bee d0bd ee36 d3bc d448 8a3c c9d0 68be
00000040: 1c09 eb3d 0cbe 88bd aca2 59be fe8e 6e3d
00000050: 8171 023d ce77 0dbe 8687 efbd 108b 01be
00000060: 08cf 8bbe 7913 d9bd 52bf 82be dabc 5ebe
00000070: e722 6bbe 6ed4 c73d 9ad9 083d 79d3 49be
00000080: e447 8bbe d3fa edbd 5b03 93be 6593 cdbd
00000090: c6ad 97bc 10d7 83be 0573 d03c a226 93be
000000a0: d033 9abd b971 28bc e3fb 7d3d 6e39 adbd
000000b0: 0a1e 7abe 4449 103c 5005 95bd f03c babc
000000c0: 50c2 1fbe 499b 34be 941c 6cbe 0d38 c43d
000000d0: 9d6a 5dbe 1b29 77be 061a e5bc acc1 e1bd
000000e0: 4548 82be a697 13be a498 f6bd a622 25be
000000f0: 8071 3cbe fdc9 49be 1fc2 eabd 470a 01be
00000100: 5ad5 c0bc d6bf acbd d002 46bb 8034 673d
00000110: 572f 463d ee86 fc3a a8ae edbc dea8 9f3d
00000120: ae29 1dbd beb5 023e c7f8 543d f14a 053e
00000130: 5299 da3d 8a09 05bd 87db e73d 7a39 babd
00000140: 84b5 0cbe 2a45 b7bd b254 3f3d 6dea 2e3c
00000150: 42be 953d ccf9 873c 33d8 d8bd f9d3 cabd
00000160: 0528 a63c 30b3 643d bffa 3d3d 2b44 7e3d
00000170: b2c6 a4bc dd1e 963d 420e 38bd 8c32 d0bd
00000180: e2fa 93be 349a 4f3d c910 d6bc f408 03be
00000190: c97c 31bc 3f07 a7bd 4abf c53d 5e96 c6be
000001a0: 5e59 83be c032 8a3b 5bd4 ecbd b08a 83bc
000001b0: d2d7 41be 86b7 ecbc 499d 3dbe d7d5 68bd
000001c0: 07a1 1dbe d671 debd f7f8 74bd 7b4e 0fbe
000001d0: efaa 7cbe 4505 05bd 3f31 0fbc 2d55 99bd
000001e0: 0f87 8dbd 9df3 16be 0257 08be 0fc3 863d
000001f0: 258a 08be 1d66 2abe acd1 db3c 8af5 a8bd

weight f4 [64, 4]
-0.11789655 0.57727146 0.5195893 -0.32680085 -0.4083785 -0.3195333 0.32922047 0.10339969
0.24363084 0.18565823 -0.11659059 0.44274852 -0.5426619 0.07538548 -0.1337352 -0.05300727
0.28726047 -0.23820207 -0.42247418 -0.3777058 0.093339056 -0.5265467 -0.49464133 0.13730545
-0.34430674 0.088090025 0.38177165 0.31647095 -0.15159856 0.07301117 -0.36412695 -0.4708998
-0.26912326 0.21374962 0.39285937 0.020408394 0.39028892 0.1591732 -0.03289733 0.42771995
0.15131097 0.39404842 -0.3696395 -0.43813798 -0.08968934 -0.14943734 0.41277006 0.7821637
0.22829773 -0.16482343 -0.18303858 0.15620102 0.15849222 0.18801278 0.028200753 -0.17059185
0.16295278 0.1101155 -0.33074495 0.042745944 -0.16978024 -0.2949761 0.45652625 -0.3004415
-0.061557636 -0.04644112 0.055750787 -0.29671305 -0.5348257 -0.18445227 0.31467113 -0.4137575
-0.13628677 0.36059967 0.054098304 -0.43873549 0.47616166 0.47053277 -0.27171007 -0.09814803
-0.03957874 -0.26677173 0.073330484 -0.0061160102 -0.2024171 -0.6056979 0.37273425 0.16103557
-0.2159656 -0.30421758 0.113030925 0.38782305 0.061424844 0.26574093 0.4435597 -0.31619823
-0.35241362 0.4148806 0.48343036 -0.17554006 -0.07327665 0.26748982 0.23507032 -0.28594252
-0.29926756 0.51382554 -0.14192335 -0.15508601 -0.21252532 0.42225862 -0.28123128 -0.38402796
-0.41874313 -0.25406536 0.50251395 -0.08476896 -0.15230031 -0.120685965 0.21216683 -0.33817574
-0.45426226 -0.64936554 -0.4713754 0.043785978 -0.39466825 -0.31455767 0.14375502 -0.45508435
0.48517716 -0.21261646 0.19278334 0.17106757 0.26233494 -0.5690444 0.25426346 0.33512267
-0.32874268 -0.26776645 -0.023083134 -0.2508389 0.3200562 0.6501168 -0.27266955 -0.5478474
-0.21273935 0.40206146 -0.09241654 0.15876636 -0.52158535 0.13334794 0.27910087 -0.486857
0.028455159 0.32700318 0.1104737 -0.2661537 -0.03197062 0.10205874 -0.28381795 -0.055232923
-0.12676583 0.27686095 0.5362035 0.23862334 -0.3608401 -0.49081028 0.2187426 0.31575167
-0.20926277 -0.1620579 0.2216566 -0.31981432 -0.388691 0.17556268 0.2793497 -0.4416119
0.25639957 0.41076934 0.5134225 -0.1470744 0.03989859 -0.11743263 -0.19159235 -0.29011416
-0.39637485 0.20503023 -0.022127818 -0.5260957 -0.02946956 -0.10134028 0.15349725 -0.37477866
0.35757282 0.34190932 -0.024641903 0.37848017 -0.3046743 0.057069514 0.052706048 0.22074762
-0.47437024 0.03227757 -0.03136949 -0.44267356 0.47745368 0.12253674 0.14474355 -0.17015459
0.29556036 0.031294335 -0.2568712 0.08880632 -0.11223705 0.1648393 -0.34189558 0.13931096
0.44255623 -0.29933813 0.18925014 -0.63505787 -0.39411226 -0.3324147 -0.032248855 0.037877776
0.23258206 0.2285932 -0.21080866 -0.52649426 0.10845847 0.30707672 -0.49408072 0.28705603
-0.5188885 0.456672 -0.4878554 0.2144721 -0.097922586 -0.61531556 0.025370007 -0.15971431
-0.16341203 0.09002228 -0.33375612 0.08462899 0.37825775 -0.12881204 -0.5440783 0.20882274
-0.51253706 -0.4866471 0.5410396 -0.3473913 0.1067051 0.47823104 0.10698999 -0.44041103
00000000: bf73 f1bd 10c8 133f ce03 053f 7152 a7be
00000010: fd16 d1be de99 a3be 968f a83e 37c3 d33d
00000020: 5d7a 793e 311d 3e3e 0cc7 eebd efaf e23e
00000030: e4eb 0abf b463 9a3d e1f1 08be 271e 59bd
00000040: ce13 933e 3eeb 73be 894e d8be a862 c1be
00000050: 8c28 bf3d c4cb 06bf a141 fdbe cd99 0c3e
00000060: f948 b0be 8b68 b43d 9377 c33e 7b08 a23e
00000070: a73c 1bbe e186 953d d96e babe c719 f1be
00000080: 86ca 89be 2ee1 5a3e dd24 c93e 812f a73c
00000090: f3d3 c73e 4dfe 223e 5abf 06bd 1cfe da3e
000000a0: 43f1 1a3e b7c0 c93e 6341 bdbe 9f53 e0be
000000b0: 0baf b7bd 1a06 19be 9956 d33e e13b 483f
000000c0: e1c6 693e 79c7 28be 776e 3bbe 29f3 1f3e
000000d0: c94b 223e 6c86 403e 4405 e73c a1af 2ebe
000000e0: 18dd 263e 3c84 e13d 6757 a9be 5f16 2f3d
000000f0: dfda 2dbe 1b07 97be cfbd e93e 78d3 99be
00000100: dc23 7cbd 0b39 3ebd f05a 643d c6ea 97be
00000110: 56ea 08bf 0ee1 3cbe 931c a13e 06d8 d3be
00000120: c28e 0bbe 85a0 b83e 2f96 5d3d f0a1 e0be
00000130: 76cb f33e ace9 f03e 951d 8bbe d601 c9bd
00000140: 511d 22bd 4e96 88be 4b2e 963d d068 c8bb
00000150: 6e46 4fbe 040f 1bbf 06d7 be3e 82e6 243e
00000160: 1626 5dbe 68c2 9bbe c27c e73d be90 c63e
00000170: 9e98 7b3d 320f 883e 421a e33e bce4 a1be
00000180: 8f6f b4be 3b6b d43e 2f84 f73e c6c0 33be
00000190: 1112 96bd 6df4 883e 46b6 703e 0f67 92be
000001a0: 9939 99be 128a 033f 5b54 11be dece 1ebe
000001b0: 3da0 59be 4832 d83e 8cfd 8fbe 509f c4be
000001c0: 8065 d6be db14 82be c1a4 003f 599b adbd
000001d0: 9df4 1bbe 342a f7bd 4342 593e 5f25 adbe
000001e0: 1095 e8be d23c 26bf 1e58 f1be ed58 333d
000001f0: f511 cabe b40d a1be 8434 133e d100 e9be
00000200: 2469 f83e 21b8 59be ff68 453e 562c 2f3e
00000210: c450 863e e5ac 11bf d22e 823e 3395 ab3e
00000220: f650 a8be af18 89be d718 bdbc f56d 80be
00000230: 68de a33e 0e6e 263f 589b 8bbe ba3f 0cbf
00000240: 58d8 59be 00db cd3e e244 bdbd a693 223e
00000250: 9e86 05bf 5d8c 083e 4fe6 8e3e 5245 f9be
00000260: cb1a e93c f66c a73e 0940 e23d 4c45 88be
00000270: a0f3 02bd 2c04 d13d 9650 91be eb3b 62bd
00000280: e7ce 01be b8c0 8d3e a244 093f ad59 743e
00000290: 09c0 b8be 7c4b fbbe 0ffe 5f3e 34aa a13e
000002a0: fb48 56be 82f2 25be f3f9 623e b4be a3be
000002b0: 8202 c7be b4c6 333e ed06 8f3e f41a e2be
000002c0: ce46 833e 5c50 d23e a86f 033f ac9a 16be
000002d0: b46c 233d 8580 f0bd c930 44be d889 94be
000002e0: a5f1 cabe 72f3 513e 6645 b5bc 35ae 06bf
000002f0: 266a f1bc 7e8b cfbd 622e 1d3e fde2 bfbe
00000300: c913 b73e bd0e af3e d1dd c9bc 27c8 c13e
00000310: 45fe 9bbe b9c1 693d 4ce2 573d aa0b 623e
00000320: a8e0 f2be 7c35 043d 4b7d 00bd 1ca6 e2be
00000330: cf74 f43e 8bf4 fa3d a737 143e 013d 2ebe
00000340: b053 973e 7d2e 003d 9f84 83be 17e0 b53d
00000350: 8adc e5bd a2cb 283e f00c afbe 88a7 0e3e
00000360: bb96 e23e d942 99be caca 413e 2793 22bf
00000370: 15c9 c9be 4232 aabe 6017 04bd ba25 1b3d
00000380: fe29 6e3e 5614 6a3e 3ade 57be 54c8 06bf
00000390: 791f de3d 2939 9d3e 26f8 fcbe 02f9 923e
000003a0: e0d5 04bf ead0 e93e 2fc8 f9be 939e 5b3e
000003b0: a38b c8bd 5285 1dbf c3d4 cf3c 268c 23be
000003c0: 7c55 27be 9a5d b83d 15e2 aabe f751 ad3d
000003d0: 00ab c13e 4ee7 03be b748 0bbf a1d5 553e
000003e0: a135 03bf cf29 f9be 9281 0a3f 46dd b1be
000003f0: 3488 da3d b3da f43e 911d db3d 8e7d e1be

bias f4 [64]
0.51977926 0.12675183 -0.20524731 -0.15808402 0.056192443 0.4973992 0.15161936 0.09296267
0.5244196 0.18873285 -0.023690224 -0.09394762 -0.4337068 0.4678092 -0.26987338 0.23251443
-0.41961253 0.4458593 0.35517147 0.33761448 0.38275424 0.06869901 -0.022894785 -0.32806566
0.00024958025 -0.056273505 -0.2617314 0.012874159 -0.11200369 -0.1477781 0.19908631 -0.38553044
-0.32049203 0.19504225 -0.22320247 -0.18787916 -0.24174088 0.37517908 -0.30263582 0.041318286
0.12937318 0.058200717 -0.43902883 -0.029913215 -0.16492386 0.405462 -0.32151026 -0.19206353
-0.069384076 -0.09310267 0.41459882 0.46077293 -0.024772923 0.13080992 0.4738625 -0.095748186
0.2714205 0.0668642 0.13137859 0.4484881 0.18740146 -0.19563477 -0.3897279 0.28782284
00000000: 4110 053f 3bcb 013e 5a2c 52be c7e0 21be
00000010: 0c2a 663d 1cab fe3e 1b42 1b3e 3663 be3d
00000020: 5d40 063f 2f43 413e 0012 c2bc 9c67 c0bd
00000030: d10e debe b084 ef3e d82c 8abe 4318 6e3e
00000040: 74d7 d6be ac47 e43e 09d9 b53e cedb ac3e
00000050: 5df8 c33e 11b2 8c3d d88d bbbc 39f8 a7be
00000060: 18da 8239 0c7f 66bd a801 86be 23ee 523c
00000070: 3162 e5bd 2453 17be 48dd 4b3e 3f64 c5be
00000080: 8817 a4be 28b9 473e 308f 64be 6563 40be
00000090: ec8a 77be 7917 c03e 15f3 9abe 5d3d 293d
000000a0: 677a 043e e063 6e3d 63c8 e0be 8f0c f5bc
000000b0: cde1 28be b798 cf3e fe9c a4be 4dac 44be
000000c0: 3d19 8ebd 9dac bebd 4c46 d43e 6eea eb3e
000000d0: 96f0 cabc 09f3 053e 1b9e f23e a017 c4bd
000000e0: a1f7 8a3e 19f0 883d 1c88 063e 3ba0 e53e
000000f0: 2be6 3f3e 7b54 48be 6a8a c7be 845d 933e
